results/Islands/Islands/Islands-192.onnx (onnx, 644095 bytes, 12 tensors)

action_model._discrete_distribution.branches.0.bias f4 [25]
000000 fb 2c 67 bb 0a 8f 0b bb ed d3 d1 39 00 7b 92 3a
       -0.0035274613 -0.0021294975 0.00040021483 0.0011175573
000010 dc 43 39 3b 41 6e a8 ba ef 80 5d 39 aa ef fc 3a
       0.0028269207 -0.0012850241 0.00021124234 0.00192975
000020 fc b2 2e b9 a1 4d 77 3b 74 64 54 bb 5b dd 0d bb
       -0.0001666061 0.003773548 -0.0032408508 -0.002164683
000030 a6 67 0d 3a eb 6a 23 bb b9 77 39 bb e4 56 08 3b
       0.0005394168 -0.0024935554 -0.002830012 0.0020803744
000040 73 8a e9 3a d8 3d 42 ba 85 f1 f7 3a 27 3a 3b 3b
       0.001781775 -0.0007409728 0.0018916583 0.0028568597
000050 0a 44 dc 3a a1 2b 07 bb a3 94 be ba 6d f6 e2 3a
       0.0016804945 -0.002062537 -0.0014540147 0.0017315872
000060 b8 0b 27 bb
       -0.0025489163

action_model._discrete_distribution.branches.0.weight f4 [25, 128]
000000 54 c5 96 3b d9 24 44 ba d0 88 47 bc 57 69 a7 3c
       0.00460116 -0.00074822974 -0.012178615 0.020435972
000010 44 88 9d bb bc 2f 3c b9 11 a6 3f bc c2 3f 5c bc
       -0.004807504 -0.0001794686 -0.011697308 -0.013442935
000020 b7 cd dd ba 0d ed 28 3b db c7 50 bc e9 3c 99 bc
       -0.001692227 0.002577606 -0.012742962 -0.018705802
000030 e6 94 92 3b e1 64 06 3c 30 93 d1 3b 2a e9 18 bc
       0.0044733165 0.008202762 0.00639572 -0.009332934
000040 c8 e9 a3 3b 35 50 d8 ba 0b 23 04 3c 0b e4 8c bb
       0.005002234 -0.0016503396 0.0080649955 -0.004299646
000050 cd 3b 57 bb 46 4b 1c ba d3 b6 3e 3c 92 d5 cc 39
       -0.003284204 -0.00059621444 0.011640268 0.00039069034
000060 28 5a c7 bb 9a 9a ca bb ce 9e c8 bb e6 55 65 3c
       -0.0060837455 -0.0061829807 -0.0061224466 0.013997531
000070 ff 10 f0 ba 01 10 80 3c e6 0a 91 bb 02 3d 99 ba
       -0.0018315612 0.015632631 -0.004426348 -0.0011691155
000080 c9 f2 24 bc fb 12 f9 bb d1 71 5a 3b e6 4e a7 bc
       -0.01006765 -0.0076011396 0.0033332 -0.020423364
000090 79 ef 53 3b 59 5b 9f 3a 8e 2c bd 3b 20 f9 ea bb
       0.0032338782 0.0012157961 0.0057731336 -0.0071708113
0000a0 12 1b df 3b 21 3d ab 3b a4 80 16 bc 56 9d a8 3c
       0.006808647 0.005225793 -0.009185944 0.020582836
0000b0 f0 6d 1d 3c 6b 8b 23 3b 31 dd 82 3c 34 9e 62 bc
       0.009608731 0.0024954926 0.015974613 -0.013831664
0000c0 41 1d ed bb b4 eb c2 39 fa bd bc 3b 99 e6 5f 3c
       -0.0072361534 0.00037178176 0.0057599517 0.013665819
0000d0 db 9a 58 3b 86 15 e8 bb 68 fc 4d 3b 52 57 3a bc
       0.0033051285 -0.007082644 0.0031430963 -0.011373358
0000e0 ea 3f 91 3c 38 89 28 bc fa 66 3f 3c d7 84 b4 bb
       0.017730672 -0.010286622 0.011682266 -0.005509
0000f0 ca a6 61 3b 38 ee 07 3b a4 09 7a ba 9e cc ac ba
       0.003443169 0.0020741355 -0.000953818 -0.0013183539
000100 b2 e6 ac bb df 7e b2 bb a9 92 62 3c 85 d9 85 3c
       -0.0052765245 -0.005447253 0.013828912 0.016339073
000110 b0 cc 10 bc 9e 4b fb 3b fc 76 19 3c 6d 35 06 bb
       -0.008837864 0.0076689264 0.009366747 -0.0020478622
000120 79 bf 05 bc 45 af 07 bb f9 b0 4f 3c 30 82 bd 3b
       -0.008163326 -0.0020703834 0.012676471 0.005783342
000130 85 da 56 bc 7a 6d 17 bc 50 d3 b1 ba 00 ac 9f 3b
       -0.013113623 -0.00924241 -0.0013567004 0.004872799
000140 84 68 19 bc ef dd 53 bc 77 f2 db bb 31 ad 04 bc
       -0.009363297 -0.012931331 -0.0067122537 -0.008097933
000150 1f d6 f9 bb dd 31 20 3c ff 42 a2 bb 18 1b 81 bc
       -0.007624402 0.009777513 -0.004951834 -0.01575999
000160 60 2f 04 3c d6 73 59 3c 65 89 ee 39 58 41 0f b9
       0.008067936 0.013272246 0.00045497264 -0.00013661885
000170 79 53 30 3b 2c aa 65 3c 3e 7b a8 bb 96 03 c4 3b
       0.0026905222 0.014017623 -0.0051416447 0.005981873
000180 0f ec 2c bc 47 4b 3d 3b 4a a5 fc bb 48 86 5d 3c
       -0.010554328 0.002888398 -0.0077101337 0.013520785
000190 eb d2 de 3b 52 d6 bf 3b 0a 10 00 3a 33 35 4b ba
       0.0068000457 0.0058544064 0.00048852025 -0.0007751763
0001a0 58 c5 2f 3b da ba 7d bb 12 95 d3 3b d4 37 7e bc
       0.0026820507 -0.0038716109 0.0064569796 -0.01551624
0001b0 cc fd 0f bb c9 e1 02 bc 68 74 3d bb f8 6c 5d 3a
       -0.0021971343 -0.007988402 -0.0028908495 0.00084467186
0001c0 7c 36 a6 3b 83 b0 74 bc 44 ae 18 bb af 7c 63 3a
       0.005072413 -0.014934662 -0.002329723 0.0008677942
0001d0 3c 91 a6 bb 59 81 8a bc cc 34 0c 3c 0c 93 83 3b
       -0.0050832313 -0.01690738 0.00855751 0.004015332
0001e0 8b 2e 04 bc 47 59 6d bb 30 c1 b4 39 fa e6 ad bb
       -0.008067737 -0.0036216544 0.0003447621 -0.0053070756
0001f0 8f 81 ef 39 b1 e7 87 3a fd 62 74 ba c4 73 40 3c
       0.0004568216 0.0010368732 -0.0009322612 0.011746351
000200 f4 13 1d 3c 34 63 51 bb 0e 67 c2 3b 5d 16 66 3c
       0.009587277 -0.0031949999 0.005932695 0.014043418
000210 c4 5e de bb 83 f8 06 bc 5a 9a 59 bc 80 a5 b8 bb
       -0.0067861993 -0.008237961 -0.013281429 -0.0056349635
000220 60 da 19 bc 57 8b 4b ba 59 35 da 3c 4e 9b ae 3b
       -0.009390444 -0.00077645987 0.026636766 0.0053285724
000230 6f 94 dc bb 9a 86 c0 3b da 05 e3 3b 2a 38 97 3b
       -0.006731562 0.0058754208 0.006928188 0.0046148496
000240 2d 65 e8 bb f8 32 24 3c ff 7c 99 3b ef 72 82 3b
       -0.007092139 0.0100219175 0.00468409 0.0039809863
000250 45 5c 42 3c 23 21 ff bb 4c 85 48 bb 10 49 79 bb
       0.011862819 -0.0077859326 -0.003059703 -0.0038037933
000260 4c c5 dc 3b 10 75 34 bc 68 01 ad 3b 2d b5 f5 3b
       0.006737387 -0.011014238 0.0052797087 0.0074984045
000270 52 b7 7d 3b d8 ef 79 bc c5 93 f3 3b 25 4a b2 bb
       0.0038714004 -0.015254937 0.007433387 -0.0054409676
000280 a5 5e b1 bb 39 da 47 3c a4 3b 42 3c b5 3b 2b 3c
       -0.005412894 0.012198024 0.01185504 0.010451247
000290 c2 ab 01 b9 fc 39 59 3c 6d 9f d4 3b 57 ed 77 3b
       -0.00012366383 0.013258453 0.0064887316 0.0037830675
0002a0 99 3a 12 bc d1 02 30 bc 4b fb 0b 3c d5 99 0a 3c
       -0.008925104 -0.010742859 0.0085438 0.008459528
0002b0 89 e6 71 ba 70 96 a4 3c d3 d7 52 bb 5d 61 9a bb
       -0.0009227773 0.020091265 -0.0032172098 -0.0047113136
0002c0 9a 5d 39 3c f4 96 f6 3b 42 2b 97 3c 74 66 c7 3b
       0.01131382 0.0075253192 0.018453244 0.0060852114
0002d0 1c f0 2d bc 48 b9 4c bc 9f 0c 22 3b 87 5d ca 3b
       -0.010616329 -0.012495346 0.002472676 0.0061757
0002e0 af 48 cb 3b 69 30 63 3c e1 c7 68 3b 1a ed 11 bc
       0.006203733 0.013866522 0.0035519528 -0.008906627
0002f0 50 d0 39 bb 14 9b 99 3b 72 8b 08 bb fd a0 21 3c
       -0.0028352924 0.004687676 -0.002083507 0.009865043
000300 70 53 13 bc b0 9e 4a bb 3a f4 ab 3c 00 39 4b bc
       -0.008992061 -0.003091734 0.02099048 -0.012403727
000310 c1 2b 61 3c ca df cd 3b 54 33 79 3b 88 0d fc 3b
       0.013743342 0.0062827813 0.0038024979 0.0076920427
000320 a9 cd 2e 3c 93 77 ee bb 7d 72 84 3c 13 8d a1 bb
       0.01066915 -0.007277438 0.016167874 -0.0049301474
000330 30 d0 3e 3b 19 93 5e 3b 96 da 2f bb 16 2a 78 bb
       0.0029115789 0.0033962189 -0.0026833168 -0.0037866882
000340 b9 08 b6 3b 75 c8 92 bb 25 66 67 bc c4 eb 87 3c
       0.005555239 -0.0044794627 -0.014123474 0.016591914
000350 fd 0e ac bb 06 29 f1 3b e3 30 82 3b f3 54 9d bb
       -0.00525081 0.0073596267 0.003973113 -0.0048013865
000360 3f e9 94 bc bb 2e eb ba a0 aa 2e 3b c1 3a 9c bb
       -0.018177627 -0.0017943004 0.0026651993 -0.004767746
000370 5e 4e 00 3c cb 1c c2 3c 94 23 41 b8 26 d9 e4 bb
       0.007831184 0.02369537 -4.604792e-05 -0.006983894
000380 a0 89 c2 3b ce d1 88 3c 4a 6d d8 b7 77 1e 63 3c
       0.0059368163 0.016701605 -2.5800098e-05 0.013862244
000390 a9 ef 1f bc a9 d5 bb bc b7 15 11 3c 4b 91 0c bb
       -0.009761729 -0.02292903 0.008855275 -0.0021448906
0003a0 5a 3e 98 3a ff 13 2c 3b b1 d0 4d bb bc d4 fd bb
       0.0011615262 0.0026257036 -0.0031404907 -0.007746307
0003b0 25 8a b6 bc be ef f1 3b 3e 73 06 bc fe 54 2b bc
       -0.02228267 0.007383316 -0.008206187 -0.010457275
0003c0 ff d2 ce 3b d1 ab dc 3a 66 5d 90 3c 9f 32 d1 3b
       0.006311774 0.0016835873 0.01762266 0.0063842083
0003d0 a2 e3 2e bb a8 92 2a 3b 8e 93 0c bc 54 55 20 ba
       -0.0026685973 0.0026027355 -0.008580102 -0.00061162305
0003e0 60 bb 43 bc c4 12 8a ba b7 65 5f 3c 9c c5 e7 ba
       -0.011946529 -0.0010534157 0.013635091 -0.0017682794
0003f0 97 d3 09 3c 15 ed 02 3b 5e 1f fe 3b 29 55 6a 3c
       0.008412263 0.0019977738 0.007755204 0.01430253

action_model._discrete_distribution.branches.1.bias f4 [9]
000000 53 13 4f 3a 3f 66 c9 ba 26 b1 fc b9 f8 b8 33 3a
       0.0007899303 -0.0015365555 -0.0004819717 0.00068558706
000010 24 3a 21 3a ae 0a f7 ba 1e 54 9a ba f2 a2 a3 39
       0.0006150326 -0.0018847787 -0.0011774336 0.00031211186
000020 8a 46 6e 3a
       0.00090894906

action_model._discrete_distribution.branches.1.weight f4 [9, 128]
000000 eb 07 1d bc 3d 65 4e 3c e5 b0 85 3c 94 44 02 bc
       -0.009584407 0.012597379 0.016319701 -0.007950921
000010 ee b9 82 bb 76 57 35 3b ce 9d 4a 3b a0 f2 0c 3c
       -0.0039894497 0.002767054 0.0030916813 0.008602768
000020 2c 87 96 3b 81 08 d5 bb 74 82 9f 3b 25 32 70 3c
       0.0045937505 -0.006501258 0.004867846 0.014660393
000030 64 0c a9 bb f2 04 9a 3b cd d6 b2 3b a7 c0 6f 3b
       -0.005158948 0.0047002966 0.005457735 0.0036583336
000040 b6 e3 5e bb 9b a1 19 3b 6a b4 9d 3c 98 3f f9 bb
       -0.0034010238 0.0023442272 0.019251067 -0.007606458
000050 e4 77 87 bb e7 7d 61 bc cc 50 0a bb 28 33 3c bc
       -0.004134165 -0.013762928 -0.0021105288 -0.011486806
000060 f1 69 21 3c 03 03 06 3c 8c 11 16 bb be 6d 9e 39
       0.009851919 0.008179429 -0.0022898642 0.00030217873
000070 b4 19 0d bc 14 3b 88 ba e2 50 8c 3a 0b 8f bd bb
       -0.008612085 -0.0010393583 0.0010705257 -0.0057848743
000080 53 76 ea 3b dd b3 99 bb da 2f cc 3a 32 b3 f7 3a
       0.0071552186 -0.004690631 0.0015578226 0.0018898009
000090 9d 30 3a bc ac 22 ad 3b 26 0a 83 3b 4f 2e 67 3c
       -0.011364129 0.005283674 0.0039990125 0.014110162
0000a0 e8 b9 c4 3b 5a b4 7c bb 3f 37 c1 bc 97 ea 93 3b
       0.006003607 -0.0038559646 -0.023585914 0.0045140493
0000b0 05 70 4f b9 cf 8c cf 3b 53 d2 1f bb 7e 2d 80 bc
       -0.00019782789 0.0063339244 -0.0024386838 -0.015646692
0000c0 73 fd 9b 3a 54 49 7c bc 6c 7d 17 3c ff c7 14 3b
       0.0011901095 -0.015398342 0.0092462115 0.0022702215
0000d0 d0 45 af 3b ec 97 21 3a 50 5a 4c bc e5 1c 82 3b
       0.0053488985 0.0006164301 -0.012472704 0.0039707297
0000e0 61 27 a5 ba 51 57 04 3c 84 5e a4 3b 93 ad 60 ba
       -0.0012600237 0.0080774585 0.00501615 -0.00085707864
0000f0 1d f9 81 bc d5 0a 3a bc 9a af ad ba 9d 24 21 3b
       -0.015865857 -0.011355122 -0.0013251186 0.0024588474
000100 95 11 f2 ba 0c b6 8c bb 73 65 92 3a b3 5d a9 bc
       -0.0018468375 -0.0042941626 0.001116915 -0.020674562
000110 fe 1b 0c 3c c2 83 3a 3b 13 9f 20 3c fb f6 09 3c
       0.008551596 0.0028459881 0.009803551 0.008420701
000120 23 c1 1a bc 10 a3 97 bc 72 f2 4c 3b 06 18 8d bc
       -0.009445461 -0.018510371 0.0031272438 -0.01722337
000130 3c 3b 18 bc 94 3e 31 3c fe 40 97 ba 19 b0 17 bb
       -0.009291466 0.010818142 -0.0011539755 -0.0023145734
000140 54 d1 85 3c c5 a2 6b bc 9e fb fc bb 36 35 32 bc
       0.016335167 -0.014382069 -0.007720425 -0.010876944
000150 dd d2 0b b9 0e bf 4d 3c 35 8e 93 3b 4e ba ea bb
       -0.00013334626 0.012557758 0.0045030364 -0.0071633225
000160 bc 4c 63 3c 86 bc d5 bb b6 fb 19 bc 37 6f ae 3b
       0.013873275 -0.006522718 -0.0093983915 0.0053233164
000170 71 a4 27 3c e5 50 28 3b 4b 18 46 bb b1 f3 b4 3b
       0.010232077 0.0025682983 -0.0030226882 0.0055222143
000180 17 99 ef bb 2f c8 15 bb 9b 15 aa bb ba 1b 43 ba
       -0.007311951 -0.0022854914 -0.005190564 -0.0007442791
000190 84 78 0f bb 80 33 4f 3c 8e 6f de bb bf 05 18 3c
       -0.0021891901 0.012646556 -0.0067882007 0.009278714
0001a0 b3 a0 f2 3b ef 53 3a 3c 74 d4 5c 3b 92 be 03 bc
       0.0074044107 0.01137255 0.0033695968 -0.008041041
0001b0 2a c2 bf ba ca ef 32 3c 97 8b 4b bc 13 e4 7b bc
       -0.0014630009 0.010921428 -0.0124234175 -0.015374201
0001c0 96 5c c7 3b d1 b3 bd bb cc ee 6f 3b 13 0b 39 3b
       0.006084035 -0.005789258 0.003661084 0.002823536
0001d0 cf 3c 47 bb 84 65 fb ba b5 a9 cd bb 62 88 06 3c
       -0.0030401235 -0.0019180034 -0.006276334 0.008211227
0001e0 93 55 8d bb a0 4f e3 b9 da 87 97 bc 63 e4 c7 3b
       -0.0043131798 -0.0004335614 -0.018497396 0.006100224
0001f0 71 08 71 3c b7 71 b0 ba db db 00 bc fc a3 2e 3b
       0.014711485 -0.0013461624 -0.007864918 0.0026648035
000200 3a 14 d7 ba fa d0 79 3a 8d 79 8b bc 0e 92 a9 bc
       -0.0016409226 0.0009529736 -0.017025733 -0.020699527
000210 d6 be 49 bb 04 b6 eb bb 66 72 cc bb 1e 9a 50 bc
       -0.0030783913 -0.007193329 -0.0062392233 -0.012732057
000220 7a 29 1f 3c ea 8f 38 3b b0 47 07 3b c2 5b 62 3c
       0.009714479 0.0028161951 0.0020642094 0.013815822
000230 59 72 91 39 9e d1 6d ba 42 3e 54 3b eb 77 51 bc
       0.0002774175 -0.0009072068 0.0032385741 -0.012784938
000240 59 fd b6 3b d3 06 e7 bb dd d3 03 3c 89 62 1d bc
       0.0055844006 -0.007050374 0.008046118 -0.009606012
000250 28 ce 79 bb 60 09 3c 3b 00 35 0a bc 54 5c f6 3b
       -0.0038117263 0.0028692111 -0.008435488 0.0075183306
000260 ee 2e e6 38 64 77 1d bc c0 c7 0a 3c 5c 53 1c 3c
       0.00010975996 -0.0096109845 0.008470476 0.009541359
000270 e7 f8 55 bc 62 62 d6 bb 42 e6 00 3c 44 8d 0e 3c
       -0.013059831 -0.00654249 0.007867398 0.008700673
000280 68 66 d2 bb 04 bf be bb 27 88 65 3c e0 d5 c1 3b
       -0.006420899 -0.0058211107 0.014009512 0.0059153885
000290 95 02 69 bb 72 af de 3b 3b 67 26 3c c0 e1 19 bc
       -0.0035554518 0.006795817 0.010156448 -0.009392202
0002a0 36 f5 37 bc 61 d1 98 3b fe 52 c4 bc 8a 65 f6 39
       -0.011227896 0.004663632 -0.023965355 0.0004699643
0002b0 ce 98 a2 3a d8 ad 04 3c 71 12 4b bc a7 a4 8c bc
       0.0012405158 0.008098088 -0.0123945335 -0.017168356
0002c0 ec 07 3e ba 0c 92 5c bc c5 c8 b4 bb 99 b1 1f 3b
       -0.0007249105 -0.013462555 -0.0055170977 0.002436733
0002d0 6f a3 28 3c 56 1d e7 3b 64 09 5a bc 80 06 aa 3b
       0.010292872 0.0070530577 -0.013307903 0.005188763
0002e0 9d d0 81 bc 6c 34 32 3c 2f bd 7e bc be cb 11 3c
       -0.015846545 0.010876756 -0.015548035 0.008898674
0002f0 39 58 0b 3b a4 a9 09 3c 2f b7 0c 3b c5 a6 91 bb
       0.0021262302 0.008402262 0.002147149 -0.0044449293
000300 95 74 3b 3a de 89 ba 3b 7d b8 5a bc 73 4b 02 bb
       0.0007150856 0.0056927046 -0.0133496495 -0.0019881397
000310 5e cc 4d 3c 70 ca 79 bb eb f3 ff b9 51 63 27 3c
       0.012560932 -0.0038115047 -0.00048819123 0.01021655
000320 79 43 5d bc 3b d2 3f 3c d6 31 ec bb f5 21 28 3c
       -0.013504856 0.011707838 -0.0072080893 0.010262002
000330 59 3c c4 bb 3d 1f b7 3b ba 99 6c 3b b2 ef fa ba
       -0.0059886393 0.0055884407 0.003610237 -0.0019144921
000340 db e8 41 3b 5b a8 6f 3c 7f 0e 2e bb 6d a3 35 3b
       0.0029588256 0.014627541 -0.0026558933 0.0027715818
000350 f1 3b 17 bc c5 d4 0e bc d1 79 a5 bb 0c a8 a4 ba
       -0.0092306 -0.00871772 -0.005049922 -0.0012562289
000360 2f e6 7c 3b 23 4e ad 3b a5 b4 a3 3b 4f 5e 50 bb
       0.0038589349 0.0052888556 0.0049958997 -0.0031794494
000370 1d c9 ca b9 3b e9 83 bb 72 58 83 bc 7e e6 b8 3c
       -0.00038678283 -0.004025606 -0.016033385 0.022570845
000380 ba ef dd ba 85 fc cb 3b 6e 96 52 bc c6 f4 2f bc
       -0.0016932406 0.006225171 -0.012853248 -0.010739511
000390 cf b3 f9 3b a0 63 aa 3b 03 ca a6 3b 69 93 18 3b
       0.007620312 0.0051998645 0.0050899996 0.0023281223
0003a0 8e c3 b8 bb df cf c0 bc 4e dd c4 3a 47 b2 ad bb
       -0.0056385463 -0.02353662 0.0015019567 -0.0053007933
0003b0 24 b2 90 bc 65 17 60 bc eb 61 a8 bc 61 59 d4 b9
       -0.01766307 -0.013677453 -0.020554503 -0.00040502383
0003c0 98 c1 3f 3a 99 e9 52 bc c7 41 80 ba 18 00 07 bc
       0.00073149195 -0.012873077 -0.0009785228 -0.008239768
0003d0 7c 61 b7 3b 72 c1 0e 3c f2 08 a0 bb 7e a4 85 3b
       0.005596338 0.008713113 -0.004883879 0.004078447
0003e0 34 ec 07 bc d1 97 a4 bc 0c 6c 64 3b 96 1b 20 3b
       -0.008296061 -0.020091923 0.003485444 0.0024430505
0003f0 7a 25 75 3c 29 24 cd bb 6c e2 ff 3b ce f7 a3 bb
       0.014962548 -0.006260414 0.007808974 -0.005003906

action_model._discrete_distribution.branches.2.bias f4 [9]
000000 5a 23 e1 39 7e 7d f8 39 91 14 cd 3a 9c d1 13 b7
       0.00042941683 0.00047395745 0.0015646388 -8.810686e-06
000010 54 33 dc 39 bd 34 4c ba 05 3b 05 ba 0d 9e 91 ba
       0.00041999912 -0.0007789841 -0.0005082342 -0.0011109725
000020 1b 15 bb 3a
       0.0014273258

action_model._discrete_distribution.branches.2.weight f4 [9, 128]
000000 b1 c5 54 bb 44 05 c5 bb 81 f7 dc 3b be a6 c0 ba
       -0.0032466466 -0.0060125906 0.006743372 -0.001469813
000010 1b e8 b0 b9 18 c6 3b 3c 8c 33 05 bc f1 74 72 bc
       -0.00033742268 0.011460803 -0.0081299655 -0.014798389
000020 de 46 20 3c f4 40 8a 3a 67 96 3e 3c 2a d1 28 3c
       0.009782521 0.0010547922 0.011632538 0.010303775
000030 b8 6b 04 3c e3 45 e3 b9 2b f8 11 bc 59 78 bc 3a
       0.008082323 -0.00043348884 -0.0089092655 0.0014379128
000040 43 10 bc bb d6 36 1a 3c 42 78 0a 3b 41 bb f1 bb
       -0.0057392432 0.009412488 0.0021128808 -0.0073770587
000050 c9 bc 2e 3b 3c e2 9a bc 3b 85 81 3b 94 3c f4 bb
       0.0026662818 -0.018906705 0.00395265 -0.0074535105
000060 45 f1 59 3b cd bd 2d 3c 83 3b d7 ba 60 ee 5f 3b
       0.003325538 0.010604334 -0.0016420934 0.0034169182
000070 d5 48 0f 3c 23 7b 28 bc ad 95 29 3b a0 d8 f8 b8
       0.008745392 -0.010283264 0.0025876567 -0.00011865911
000080 9f 5d 0b 3c 3a 99 5a 3c 12 05 82 3a 88 57 bd 3b
       0.008506208 0.013342196 0.0009919724 0.005778257
000090 39 4d 52 bc 67 e3 1f 3c 91 56 00 3c 01 6a 25 3c
       -0.012835794 0.009758807 0.007833139 0.010096074
0000a0 4d 79 43 3b 42 6d 19 bc 6e b5 18 bc a0 8d c7 bb
       0.002982694 -0.009364428 -0.0093206 -0.006089881
0000b0 b2 1a 0f bb 9a 5e 91 3a 33 34 68 ba fe 29 ba 3c
       -0.002183598 0.0011090816 -0.0008857876 0.022725102
0000c0 d2 2f 73 3c 69 d3 ec ba 12 1e 2a ba ab 7f 1c 3b
       0.014842944 -0.0018068376 -0.0006489466 0.0023879807
0000d0 9c e4 d1 ba f6 b4 46 3c 9a 12 34 bc fc 7e 92 3b
       -0.0016013565 0.012128105 -0.010990763 0.004470704
0000e0 e1 a1 ad 3b 8f c5 5f ba 8a d5 4c bc c1 76 f2 bb
       0.0052988385 -0.00085362134 -0.012502084 -0.0073994105
0000f0 3d 7b 26 3c da f9 a5 3a 56 fc 8a 3c e9 5f 1a 3c
       0.010161218 0.0012662963 0.016966026 0.009422281
000100 94 df 5c 3b ed 56 3b bc 0f e9 83 3b 50 5c a1 3b
       0.00337026 -0.011434299 0.0040255855 0.0049243346
000110 53 94 c8 bb 24 fd 9b 3b 8c 20 6d bb 18 35 d4 3b
       -0.0061211972 0.0047604013 -0.003618273 0.006476056
000120 38 41 0c 3c 05 b1 e7 3b 60 fe 41 3b c7 7d c8 3b
       0.008560471 0.007070663 0.0029601082 0.0061185095
000130 20 f6 42 bb d9 79 36 bc f3 e9 01 bb f6 62 88 bc
       -0.0029748753 -0.011137449 -0.0019823282 -0.01664875
000140 a0 7d a3 3b 9c 4c 98 3c 4a 77 e3 3b 7b 91 07 bb
       0.004989341 0.018591218 0.0069417106 -0.0020686078
000150 ff 19 7a bb 29 e0 6f bb 3f ca df bb 85 58 38 3c
       -0.0038162468 -0.0036602116 -0.0068295295 0.011251573
000160 26 84 c0 3b 1b 6d c4 bb f4 c8 b6 3c 57 15 39 3c
       0.0058751283 -0.0059944517 0.022312619 0.011296592
000170 9b f5 bc 3c ae fa 10 3c 8f 62 e2 3b 46 8e 9d 3b
       0.023066333 0.008848829 0.0069087218 0.00480822
000180 89 d6 64 bb 8b 57 04 3b 38 db 65 bc c2 2f 87 3c
       -0.0034917912 0.0020193781 -0.014029317 0.016502265
000190 9c 66 43 3c 4e 76 21 bc 60 eb ef 3b a5 dd 41 bb
       0.011926319 -0.009854866 0.00732176 -0.0029581573
0001a0 52 40 e6 3b e1 36 06 3c 6f 08 59 3b 8c df 02 ba
       0.0070267105 0.008191795 0.00331166 -0.00049924175
0001b0 b6 54 3c 3a 52 eb c6 3b 6f 47 50 3c a2 45 7e 3c
       0.0007184254 0.006070533 0.012712344 0.015519531
0001c0 95 c1 f8 3b 56 fc 1c bc 98 b0 d5 39 42 a0 ba 3b
       0.007591436 -0.009581646 0.00040758098 0.0056953738
0001d0 7f 63 2c 3c 71 3e fc bb 00 5c 7d 3b 07 c8 4d 3c
       0.010521769 -0.0076978733 0.0038659573 0.012559897
0001e0 db b8 b6 ba e3 66 00 3c 0c c4 48 3a 41 95 96 bb
       -0.0013940589 0.00783703 0.0007658608 -0.004595429
0001f0 f9 b5 e4 3b 0f 65 b2 3b 93 b7 aa bc 1b a0 95 bb
       0.0069797006 0.005444176 -0.020839488 -0.004566205
000200 c8 d5 47 bc db e4 89 bc c1 b1 f2 bb 47 bb 2a bc
       -0.0121969655 -0.01683276 -0.007406444 -0.010420627
000210 be ab c6 3b df 4b 2f bb 9d 62 13 ba 52 24 2c bc
       0.0060629537 -0.0026748104 -0.00056222995 -0.010506706
000220 78 cf ff bb 63 35 ad ba 7a 1a bb ba ed 27 0e ba
       -0.0078067146 -0.0013214763 -0.0014274858 -0.00054228195
000230 48 92 ee bb 64 3e 33 3c 15 20 c5 3a 18 7c dc 3a
       -0.0072806217 0.010940168 0.0015039468 0.0016821651
000240 27 c7 15 3c 8a 9c c8 3a 2f ad 3b bb 6c c8 6a 3c
       0.00914172 0.0015305441 -0.002863716 0.014330011
000250 96 66 14 3b c0 98 4f 3c 0f 7b df 3b 78 4e b2 bb
       0.0022644154 0.012670696 0.0068200896 -0.005441483
000260 cb a4 1c bb a9 20 0c bb 9b ac 82 3b 73 bf 1e bc
       -0.0023901935 -0.0021381772 0.0039878613 -0.0096892
000270 47 e0 24 3c 03 7c 0b 3c e6 20 42 3c 20 c8 e8 bb
       0.0100632375 0.008513453 0.011848664 -0.007103935
000280 9f 31 40 3b 8b cb 13 3b 51 85 e0 bb 59 0c 13 3a
       0.0029326451 0.002255174 -0.00685183 0.0005609445
000290 3e 37 e6 bb a4 38 c9 3b e3 08 c8 bb 6b 29 82 bb
       -0.0070256284 0.0061407853 -0.006104575 -0.0039722226
0002a0 c0 d6 de 3a ec 0d 63 bc 74 54 f3 bb 2e 1e f9 3a
       0.0017001256 -0.0138583 -0.007425839 0.0019006187
0002b0 5a 52 10 3c c2 6b 0e bc 3b cb 69 3a 0e 52 9c 3c
       0.008808697 -0.008692684 0.00089185283 0.019082095
0002c0 25 77 3c 3b 1f ee 26 3b 32 81 72 3c 73 47 64 bb
       0.002875754 0.002547152 0.01480131 -0.0034832626
0002d0 d2 c0 27 3c 1a 56 d3 bb 32 33 b6 3b 05 a2 55 3b
       0.010238843 -0.006449473 0.005560302 0.0032597792
0002e0 7d 44 64 bc 40 0d 89 3b 7b e6 9f ba f8 fe 71 bc
       -0.0139323445 0.0041824877 -0.0012199426 -0.014770262
0002f0 63 73 b2 3c e7 13 2d bb 60 e8 c7 3b ef 26 5e 3c
       0.021783536 -0.0026409568 0.0061006993 0.013559087
000300 bb 2a 95 3c 1f 30 66 bb 63 06 ab 3c 30 09 37 bc
       0.018208852 -0.0035123897 0.020877069 -0.011171624
000310 42 26 fc 3a 81 be ea 3a cc d1 13 bc 1f 4a 13 3a
       0.0019237476 0.0017909558 -0.009022187 0.000561865
000320 a9 fe 1b bc f7 ba 2b bb ab 2b 96 bb a9 a5 b4 3c
       -0.009521165 -0.002620397 -0.0045828423 0.02205165
000330 c6 d3 ec 3a 3e a6 23 bc 44 41 7d bc 41 5f b5 3a
       0.0018068484 -0.009988366 -0.015457455 0.0013837592
000340 ba eb 0d 3c df 97 41 3b f7 c9 70 3a 2c 77 70 ba
       0.008662159 0.0029539985 0.00091853685 -0.00091730314
000350 b0 e3 f8 3b c0 3f 42 bc 07 f8 d5 3b ce 75 84 bb
       0.007595502 -0.0118560195 0.0065298113 -0.0040423637
000360 61 c4 81 3b 41 81 cc 39 61 9c 69 bb 1f 2f 56 3c
       0.003960178 0.00039006214 -0.0035646188 0.013072758
000370 b9 32 c7 bb 96 9b 49 3c 96 b1 96 bb 47 2b 01 3c
       -0.0060790447 0.012305161 -0.0045988066 0.007883853
000380 c7 71 74 bb 68 20 6a 3b 64 62 4e bb 74 7e 21 bc
       -0.0037299262 0.0035724882 -0.003149175 -0.009856809
000390 2e d4 46 3b 08 36 ce b9 ec 11 2f 3c 1d 84 76 3c
       0.0030338871 -0.00039331638 0.010685425 0.015046147
0003a0 ec bd 1f bc 9d da 08 bc 16 17 f7 3b 43 d6 10 3c
       -0.009749871 -0.008352903 0.007540594 0.0088401465
0003b0 77 4a 03 3c d5 55 57 3c 1b 6b c5 39 09 5c 36 3c
       0.008013359 0.013143023 0.00037654568 0.011130341
0003c0 c2 4b f2 bb a3 68 97 bb 1b 76 ca 3b 24 3b 1f bb
       -0.007394285 -0.004620628 0.00617863 -0.0024296725
0003d0 21 1f a2 ba ce b8 25 bc 36 db 36 3c f1 0e 9b bc
       -0.0012368896 -0.010114862 0.011160662 -0.018928023
0003e0 76 62 8f ba 43 0d 0f 3c 3b eb 2a 3b c2 ed 06 bc
       -0.0010939378 0.008731189 0.002608015 -0.008235397
0003f0 c6 43 77 3b ce 32 f5 3b d8 88 d2 bb 76 58 b0 3c
       0.0037729605 0.007482863 -0.0064250045 0.021526556

action_model._discrete_distribution.branches.3.weight f4 [1, 128]
000000 92 1d 64 bb ef 6e 5c bc a2 c3 e7 3b d2 cb 8f ba
       -0.0034807664 -0.013454183 0.007072882 -0.0010970777
000010 40 8a 04 3c a4 a0 84 3b 6b f5 23 bc c8 5e 1c 3c
       0.008089602 0.00404747 -0.010007243 0.009544082
000020 6a b5 29 bc d0 9d 4e 3b e2 4b c9 3a c2 ac 49 bc
       -0.010358194 0.003152717 0.0015357698 -0.012309255
000030 03 50 e4 bb f8 29 6f 3c e1 37 ba bb ff 60 8d bc
       -0.006967546 0.0145974085 -0.005682931 -0.017258165
000040 75 9e 72 3c c0 97 53 3c db 4a 3c bc ca 91 e3 ba
       0.014808287 0.012914598 -0.011492456 -0.0017362174
000050 1b 76 27 3c 83 15 21 bc cb 84 58 3b bb 24 5d 3b
       0.01022103 -0.009831789 0.0033038135 0.0033743817
000060 9d 3a 30 bb 1d bb b2 3b fd fb 60 3b 2b 2d 70 bb
       -0.0026890405 0.0054544345 0.0034329884 -0.0036648016
000070 be 2e 1a bb d7 43 18 bc 17 9e 90 bc 1b c3 8e b9
       -0.0023526396 -0.009293518 -0.017653508 -0.00027229715
000080 1b d3 72 3b 69 49 91 bc a6 74 2e 3b 8f ac 81 3b
       0.0037052098 -0.0177352 0.002661982 0.003957338
000090 6d 00 2d bc 9e 3b a2 3c f7 2a 00 bc 51 e7 b5 bb
       -0.010559184 0.019803818 -0.007822744 -0.0055512567
0000a0 6a 6f 55 3c 2c d3 24 bc 32 00 a4 3b f7 c9 dc b7
       0.013027051 -0.010060113 0.005004906 -2.6320091e-05
0000b0 f7 f5 05 3b 56 66 a0 ba a0 7e f6 bb 37 21 e1 3b
       0.0020440796 -0.001223753 -0.007522419 0.0068704146
0000c0 13 aa 4d 3a b2 91 f2 bb b5 a8 7f 3b bb 7b b1 3b
       0.00078454724 -0.007402622 0.003901047 0.005416361
0000d0 5f c4 d0 bc 77 81 a1 bb 0f b7 f2 3a d3 b6 85 3b
       -0.025484262 -0.0049287635 0.001851769 0.0040806322
0000e0 17 77 53 bc 65 e5 36 bb 98 04 d3 3a d7 98 b0 bb
       -0.012906811 -0.0027907726 0.0016099392 -0.0053893137
0000f0 eb b8 87 bc 00 a5 7b 3c b3 c7 ce 3b a1 ee b3 3b
       -0.016567668 0.015359163 0.006310427 0.0054910933
000100 ca da 00 3c f3 de 90 bb 7d 4c 6a ba 1b c1 3b bb
       0.007864663 -0.004421109 -0.0008937789 -0.0028649035
000110 07 44 66 3b 93 93 af 3b 25 3e 07 3b df b5 6a bc
       0.0035135762 0.0053581684 0.0020636406 -0.014325588
000120 33 3b 23 3c ea ff da 3a eb ca 27 3c d5 a6 d9 3b
       0.009962845 0.0016708348 0.0102412505 0.0066422024
000130 4b 4c 84 bc e8 52 0d bc 3a 3d fd bb ab a9 b0 3b
       -0.01614966 -0.008625723 -0.007728246 0.0053913197
000140 32 23 08 3c a7 25 23 bc 04 f0 2f bb 50 bb 89 3c
       0.0083091725 -0.0099577075 -0.0026845941 0.01681295
000150 d7 a1 d3 39 6f 18 e4 ba 8a e0 81 bc d3 76 f4 3b
       0.00040365636 -0.0017402301 -0.015854139 0.007460454
000160 a7 e7 86 bc 01 17 28 bc 65 de f6 3b d5 47 69 3c
       -0.016467882 -0.010259391 0.0075338357 0.0142383175
000170 7d f7 67 bc 6a bf 9d bc ac 19 26 3c d3 81 95 bb
       -0.014158127 -0.019256312 0.010137957 -0.0045625954
000180 4a 3e 8b bb aa 00 5d 3c 67 cd b7 ba 4b 9f 54 3c
       -0.004249369 0.013488928 -0.0014023007 0.0129774315
000190 cb 1a 2a bb 21 c1 1a bc 6f b9 e5 bb b7 cf d2 bb
       -0.0025955911 -0.00944546 -0.007010631 -0.006433453
0001a0 02 db 60 3b 4e ee 15 3c 85 c2 c5 3b 7e 13 1d 3a
       0.0034310226 0.009151055 0.0060351514 0.0005991979
0001b0 c1 6c 0d bc a8 3f 30 3a b7 c1 ad bc 81 74 26 bc
       -0.008631886 0.00067233527 -0.021210534 -0.010159613
0001c0 3f 30 b4 3a ef c2 f6 3a 6d 86 53 bb 06 13 92 3a
       0.0013747289 0.0018826405 -0.003227617 0.0011144585
0001d0 38 9f d1 ba 6a 90 62 bb 4f 78 82 3c 75 ba 90 3b
       -0.0015992885 -0.003457094 0.015926508 0.0044167587
0001e0 07 c3 e1 bb 30 4f d7 bb 98 62 7c bb 9d a2 34 3c
       -0.006889704 -0.006570719 -0.0038510915 0.011025098
0001f0 fa 25 34 bb 68 f4 58 3b e2 15 2d bc e9 63 95 39
       -0.0027488456 0.0033104662 -0.010564299 0.00028493933

discrete_action_output_shape f4 [1, 4]
000000 00 00 c8 41 00 00 10 41 00 00 10 41 00 00 80 3f
       25.0 9.0 9.0 1.0

network_body._body_endoder.seq_layers.0.bias f4 [128]
000000 51 33 38 b9 be 52 40 3a 90 8b 24 bb 16 b9 b5 ba
       -0.00017566724 0.00073365483 -0.00251076 -0.0013864364
000010 96 89 ef ba 5f dd 7e ba bb 14 1c 3a 49 07 59 ba
       -0.0018275257 -0.0009722318 0.0005954017 -0.00082789786
000020 c6 da 4e ba fe 3c b0 b9 a6 cb 13 ba e7 09 1d 3b
       -0.0007890876 -0.0003361478 -0.0005637951 0.00239622
000030 b1 7b 05 bb 42 4b fc 3a b8 0c 9c 39 52 ee 33 3a
       -0.0020367915 0.0019248503 0.00029764115 0.00068638206
000040 e8 de 3b ba 0e 70 00 3b 3c c6 9d ba 3b d1 bf b9
       -0.00071666995 0.001959804 -0.0012037228 -0.00036586248
000050 2c c3 b2 3a e9 55 97 ba 1b be f6 ba 2a d0 bc ba
       0.0013638488 -0.0011545989 -0.0018824966 -0.00144053
000060 ac ec 4d bb 87 9c 02 bb a8 07 d3 ba 18 18 ea ba
       -0.0031421585 -0.0019929723 -0.0016100304 -0.0017859964
000070 b6 98 92 3a 06 d0 b6 3a e6 e8 34 b9 8d 82 e6 ba
       0.0011184427 0.0013947494 -0.00017252899 -0.0017586515
000080 fa 71 0b 3b a3 7a 9e 39 c8 cd ee ba 0d 2f 08 bb
       0.0021277652 0.0003022748 -0.0018219287 -0.0020779998
000090 e9 d7 e8 ba 8a 26 d3 38 ee 92 1e bb ac c9 de 3a
       -0.0017764542 0.000100684425 -0.0024196464 0.0016997359
0000a0 d9 d5 06 ba fa 47 3f bb ab 79 7a ba 95 cd 84 ba
       -0.000514356 -0.0029187188 -0.0009554873 -0.0010132069
0000b0 b7 04 92 ba af 49 41 ba 7a 14 f9 ba e1 0a 00 3a
       -0.0011140321 -0.00073733454 -0.0019003295 0.00048844336
0000c0 34 ec 09 bb 02 5d 9a ba 87 9d f6 ba c2 de 8a b9
       -0.002104533 -0.0011776986 -0.0018815257 -0.0002648738
0000d0 02 8e 32 ba 2e d2 0f 3b 56 d3 b1 ba 74 f0 d3 ba
       -0.0006811322 0.0021945345 -0.0013567011 -0.0016169683
0000e0 c2 64 0e b9 75 8b d0 ba b3 55 3e ba 17 a3 82 3b
       -0.0001357971 -0.0015910702 -0.0007260695 0.003986727
0000f0 4f 1f 21 3b 7f f9 af b9 7a e0 af b9 b7 00 49 3a
       0.0024585312 -0.0003356449 -0.0003354585 0.0007667648
000100 c2 59 38 bb ff 7e c3 ba 53 80 ec 39 6b 48 7d 3a
       -0.0028129672 -0.0014915167 0.00045109037 0.0009661975
000110 95 b6 20 ba f3 f7 17 3a cb 45 20 38 f1 6a 80 bb
       -0.00061307225 0.000579714 3.8211972e-05 -0.0039189984
000120 cd 0f 3e bb 15 c8 58 ba f0 8d 25 bb 9d fb 3e 3b
       -0.0029001117 -0.00082695606 -0.0025261603 0.0029141672
000130 d8 78 92 3b 47 ae 2e bb ad 88 ce 3a 3b a5 bb ba
       0.004469972 -0.002665417 0.0015757285 -0.001431621
000140 33 a3 ac 35 6f 35 97 3a 28 1b 65 ba b5 b2 6f 38
       1.2862496e-06 0.001153631 -0.00087397033 5.7148474e-05
000150 36 af f8 ba 70 48 82 ba e5 f6 86 ba 99 3e a3 3a
       -0.0018973115 -0.0009939801 -0.0010296969 0.0012454569
000160 ba 0e 64 bb 36 fc 88 ba 27 2b 86 b9 93 9d 59 ba
       -0.0034798817 -0.0010451141 -0.00025590623 -0.00083013735
000170 e6 9e 51 38 a0 16 16 3b 69 62 ff 38 3a 2d 15 bb
       4.997747e-05 0.002290167 0.00012177678 -0.0022762553
000180 7c ea 1b 3a 69 97 94 3a 71 e9 e1 ba 32 48 15 3a
       0.00059477217 0.0011336628 -0.0017235709 0.0005694657
000190 ff 28 89 3a d2 7d 92 ba 85 30 8c ba c3 8d 2b ba
       0.0010464488 -0.0011176413 -0.0010695612 -0.00065442565
0001a0 29 7f ee b9 aa 55 e0 3a a7 9c 3a bb 97 9b 70 ba
       -0.0004548964 0.0017115374 -0.002847472 -0.0009178458
0001b0 90 15 22 3a ff 73 3f ba 81 91 9a ba df 62 00 ba
       0.00061830226 -0.00073033565 -0.0011792631 -0.00048975454
0001c0 14 03 4b b9 6a ca 2d ba 85 58 0b 3b 62 86 29 bb
       -0.00019360735 -0.00066295883 0.0021262479 -0.0025867452
0001d0 79 43 da b9 64 4c 7f b9 b3 3c bc b9 49 45 96 39
       -0.0004163047 -0.00024347153 -0.0003590338 0.0002866185
0001e0 0c 88 0d bb 77 66 f1 3a cc 69 a2 3a 80 b7 b1 3a
       -0.0021595983 0.0018417378 0.0012391149 0.0013558716
0001f0 c8 ae 71 39 37 83 0d 3a 7e 02 7d ba d2 2e 82 39
       0.00023048662 0.00053982757 -0.00096515554 0.00024830416

network_body._body_endoder.seq_layers.0.weight f4 [128, 1075]
000000 2a 49 05 bd 15 89 98 bc a2 50 0d 3d 40 d3 1e bd
       -0.032540478 -0.018620053 0.034500726 -0.038775682
000010 2d 90 6e 3c f5 c3 75 bc a2 24 2b 3c 2e 61 0e 3d
       0.014560741 -0.015000333 0.010445746 0.034760647
000020 4e da 59 3d 77 6b 3d bd f4 b0 f1 bc e9 b8 45 3d
       0.053186707 -0.046245065 -0.029503323 0.048272047
000030 d7 0b be bb be 60 03 39 a6 f0 cc bc ac 5f 5e 3c
       -0.0057997513 0.00012529173 -0.025017094 0.013572615
000040 ff dc 62 b9 c2 f4 07 3c 16 66 b3 3c 2c 54 81 bc
       -0.00021635367 0.008298101 0.021899264 -0.015787207
000050 5f f5 14 bd 56 27 5d bc 24 5a 4e bc b3 62 4e 3d
       -0.036366817 -0.013498148 -0.012594733 0.050387096
000060 e2 db 8b 3c 1a 4a 21 bd 9b ad 3f 3c cc f8 37 3d
       0.017072622 -0.03937731 0.011699106 0.044915006
000070 31 ee 43 3d 1e 05 58 3c f3 08 29 bc 41 4d 88 bb
       0.04783458 0.013184814 -0.010317075 -0.0041596
000080 56 95 03 3c 57 6b 9e bb 3a 0e bf bc ca 9c 64 bb
       0.00803121 -0.0048345733 -0.023322213 -0.0034883493
000090 d2 c8 dd bb bd d9 c0 bc 6f c8 56 bd 0c c7 87 bc
       -0.0067683244 -0.023541326 -0.052437242 -0.016574405
0000a0 ab a1 22 bd c3 56 3e 3d 1f 9b 43 bd 42 12 e0 bc
       -0.03970496 0.04646946 -0.047755357 -0.027352456
0000b0 cb cd 88 bc dd b0 24 bd 5d db 84 bc 33 3e 99 bc
       -0.016699692 -0.040207732 -0.016217882 -0.018706417
0000c0 b5 5a 35 bd b5 fd c2 bc d6 59 c5 3b 50 d7 ff bc
       -0.044275958 -0.023802618 0.006022672 -0.031230599
0000d0 04 32 d7 3c 5e 14 55 bc 94 fa b9 bc 51 82 27 3d
       0.026268966 -0.013005344 -0.022702493 0.040895764
0000e0 77 7f 1e bd ff 8d da bc 64 ae 08 3c 3d 7a 99 3c
       -0.03869578 -0.026679037 0.008342359 0.018735046
0000f0 6d 2f f8 3b ac ee a0 bc 02 55 8d bc 50 95 fc 3c
       0.007574013 -0.019645058 -0.017252449 0.030832916
000100 2b 96 f1 bc 12 33 a2 3b 06 49 87 bd 6d 11 91 3b
       -0.029490551 0.0049499357 -0.06605725 0.004427126
000110 a5 6d b9 3c d7 7a b4 ba d7 2a df bc ce 13 fa bb
       0.02263529 -0.0013769519 -0.027242107 -0.0076317554
000120 e9 8a ce 3c 13 a4 84 bd 7a 75 c0 bb 99 ea dc 3c
       0.025212722 -0.06476607 -0.0058733793 0.026967334
000130 ea 79 05 bd 7c d4 18 3d 42 fd 16 3c 6b a1 aa bc
       -0.03258697 0.037312016 0.009215655 -0.020828923
000140 94 49 75 bc 74 c5 5c bc 8c 46 75 3c 3a 28 04 3d
       -0.014971156 -0.013474811 0.014970433 0.032264926
000150 46 b8 33 bc 70 1f e4 3c b4 79 de bc cc af f4 3c
       -0.010969227 0.027847022 -0.027157642 0.029868983
000160 3e 72 1f 3d cf 43 bb 3c f3 c0 73 3d 13 db 0f bd
       0.03892731 0.022859482 0.059510183 -0.035121035
000170 af 79 dc bb 53 c1 8d 3b c8 a9 3f 3d ce 49 00 3d
       -0.006728373 0.0043260246 0.046792775 0.031320386
000180 a9 de b9 3c 0a 43 e6 3c f5 4d b2 3c 3a 9a 98 bc
       0.02268918 0.028108139 0.021765688 -0.018628228
000190 0d 7e 38 b8 64 32 14 bd 34 17 4b 3d 98 69 d9 3a
       -4.3986412e-05 -0.03618087 0.049582675 0.0016587256
0001a0 22 87 10 bd 8b 1a 38 3d 93 05 f1 3c 6d 7c 6b bc
       -0.035285123 0.04494719 0.029421603 -0.014372927
0001b0 d3 11 b2 bc 97 9a 45 bd b7 ee 01 3c 59 75 06 3b
       -0.021737015 -0.04824313 0.007930449 0.0020516722
0001c0 b6 50 22 3d 27 b5 8f 3d 87 12 4d bd 81 d6 1c bc
       0.039627753 0.07016974 -0.050066497 -0.009572626
0001d0 36 a4 d6 3c 15 97 36 3d f4 ed 1f bc c0 41 a2 bb
       0.026201349 0.044577677 -0.009761322 -0.0049516857
0001e0 05 6b d1 3b c6 d7 f9 bc 85 cc fa 3c b7 f4 b7 3b
       0.0063909316 -0.030498397 0.0306151 0.005613889
0001f0 aa 7b b7 bc 83 5d 8d bc bb 8c 89 3d 31 93 3b bc
       -0.022397835 -0.017256504 0.06716295 -0.011448667
000200 76 d9 03 bd 8f 45 39 bd 23 3d 17 bc 46 14 89 3c
       -0.03218981 -0.045232352 -0.009230885 0.0167333
000210 95 35 74 3c 58 ed c6 3c 67 d5 bc 3b 16 da b0 bd
       0.014905353 0.024283096 0.005762744 -0.086353466
000220 a6 16 2c bc 8e 1d 0c bd b8 e2 07 bd c1 86 80 bc
       -0.010503447 -0.034207873 -0.0331752 -0.015689256
000230 a0 3a 2b 3d 78 6b dd bc 3b 17 ad bc 8d e8 38 3d
       0.041803956 -0.027028784 -0.021129241 0.045143653
000240 5f 32 09 3b 06 24 06 3d f7 58 30 bd b0 8f af bc
       0.0020934565 0.0327492 -0.043053593 -0.02143082
000250 a6 14 5b bb 8d 84 16 bd 18 eb ee 3c 14 4f 4a bc
       -0.0033429055 -0.036747504 0.029164836 -0.012347955
000260 94 cd 5d bd c9 ef 67 3d be 2e e7 3c 4d 02 8d bc
       -0.054151133 0.05662516 0.02822053 -0.017213011
000270 0e 21 f4 3c cc 92 54 bc 60 eb 5a bc 78 df 42 bd
       0.029800918 -0.012974452 -0.013361782 -0.047576398
000280 01 44 a2 3c 2a 63 fa 3a 13 1d a2 3d 7e ad 0c 3d
       0.019807817 0.001910304 0.07915702 0.034345143
000290 0f 4a 0d bc 86 e0 a9 bc 09 9b 2b bc 2b d8 21 bd
       -0.008623614 -0.020736944 -0.010473975 -0.039512794
0002a0 2d b0 9b 3c 41 9e 97 3c d3 d5 48 bc e7 fc e5 3c
       0.019004906 0.018508079 -0.012258011 0.028074695
0002b0 62 de 09 3c ad 93 aa bb 47 14 3a bc fb 86 68 bc
       0.008414837 -0.0052055926 -0.011357374 -0.014192338
0002c0 9b 5f 07 3c 3c 14 11 3c 21 1b 7a 3d 5b 74 07 bd
       0.00826254 0.008854922 0.06106103 -0.03306995
0002d0 2e 62 3b 3d b5 c2 1a 3d 10 9f 7f 3d 4b d0 2c 3c
       0.04574793 0.037783343 0.062407553 0.010547708
0002e0 06 8c d3 39 a7 87 c4 bc 69 16 cc 3a 09 45 16 bd
       0.00040349382 -0.023990465 0.0015570644 -0.03668693
0002f0 85 26 06 3c 70 b9 5b 3b 7a d0 7e 3c 49 72 32 3c
       0.008187895 0.0033527277 0.015552634 0.0108915055
000300 29 fa 81 3b 21 58 90 3c f6 54 09 3d ef 59 ba 3c
       0.003966589 0.017620148 0.03352829 0.022747962
000310 f6 42 04 ba e4 dd 08 bc 15 c0 a0 bc 5d d1 88 3b
       -0.00050453783 -0.008353684 -0.019622842 0.0041753487
000320 1d 82 f3 bc a5 12 c2 3c cf f9 55 3c ce 8d ea 3b
       -0.029725129 0.023690531 0.013060047 0.0071580177
000330 46 6b 01 3c 7a 8c 31 3a dd 2a fd bc 4f 5c 23 bd
       0.007899111 0.0006772947 -0.030904228 -0.039882954
000340 77 db 7d bc ee 08 74 bc 12 c1 89 3c 45 83 86 ba
       -0.015494219 -0.014894707 0.016815696 -0.001026251
000350 4c 59 db 3c 32 b4 26 3d e8 87 a7 3c 77 1f ee bc
       0.026775979 0.04069919 0.020450547 -0.029067738
000360 4d d5 0e 3d bf 90 9c bd 46 c1 f0 bc 1a 01 9d 3c
       0.03487139 -0.076447956 -0.029389035 0.019165564
000370 e3 f7 a2 3a 05 34 45 3d 13 30 96 3c 9c 5e 8d bb
       0.0012433495 0.048145313 0.01833347 -0.004314257
000380 62 95 33 bc eb 0e 5d 3c f6 d6 32 3d 98 01 91 bc
       -0.010960909 0.013492326 0.043662034 -0.017700955
000390 df 91 68 3d ae 90 13 bd 8c 77 c7 bc 8b 74 48 bd
       0.05677974 -0.03602665 -0.024348997 -0.04893927
0003a0 d6 df 8b 3d 0f a2 29 bd 6f f2 66 bd 53 2b 84 3c
       0.06829803 -0.041414317 -0.056383546 0.01613394
0003b0 e7 2f 3b bd 1e 96 22 bd dd 04 c8 bc e7 da 9e bc
       -0.04569998 -0.039693944 -0.024416381 -0.01939149
0003c0 b1 1a e2 bc 79 c3 d9 3c a1 6d 2c 3d 15 90 fa b7
       -0.027600618 0.026582466 0.042096738 -2.9869416e-05
0003d0 33 0b 79 3b 95 25 33 bd d4 23 21 bd d2 a7 84 3c
       0.003800106 -0.043737013 -0.03934081 0.016193304
0003e0 53 5f 3d 3b 3e 56 c7 bb d7 cd d6 bc 3e e6 62 3c
       0.002889593 -0.006083279 -0.026221199 0.013848839
0003f0 ce 54 e0 3c 80 1c d4 bc 6a bc 0d bd 6f de be 3c
       0.027384188 -0.025892496 -0.034603514 0.023299424

network_body._body_endoder.seq_layers.2.bias f4 [128]
000000 07 55 cf ba f7 ba 18 ba 47 3e af b9 ff c6 1f bb
       -0.0015818187 -0.00058262 -0.00033425 -0.0024380086
000010 7e c3 b0 3a d6 49 8b 3a 30 5e 2e b9 e6 6a 68 ba
       0.0013485996 0.0010626863 -0.0001662902 -0.0008866027
000020 59 d8 53 ba 70 b2 a9 bb 59 89 8f ba 5e 0e 93 ba
       -0.00080812495 -0.005178742 -0.0010950967 -0.0011219492
000030 c3 48 ff 3a 06 91 30 b9 43 8c 13 bb 74 db 9a ba
       0.0019476641 -0.00016838693 -0.0022514022 -0.001181467
000040 00 99 a2 39 c9 50 1e ba 20 5b d1 3a e0 8c a0 bb
       0.00031013042 -0.00060392596 0.0015972592 -0.004899606
000050 c4 1c 49 bb 87 8b d8 ba f8 5e a7 3a e4 aa 1c 3b
       -0.0030687312 -0.0016521075 0.0012769392 0.002390557
000060 7c 0e 87 3a 32 3e 14 39 d5 68 7f ba a6 98 27 3b
       0.0010303999 0.0001413755 -0.0009743099 0.0025573163
000070 2a 64 8d 3a c3 64 a9 37 3e fe aa ba 11 f0 6d ba
       0.0010787298 2.019329e-05 -0.0013045741 -0.0009076605
000080 88 ef 6e 3a 1d 3b a2 3a bb 20 a9 b9 c5 be 79 ba
       0.00091146724 0.0012377236 -0.00032258578 -0.0009527023
000090 ad 22 36 b8 b1 0b a5 ba 97 86 08 ba e3 5b 4a bb
       -4.3424476e-05 -0.0012591985 -0.0005208044 -0.0030877523
0000a0 4d 1d 1a 3b b9 e6 82 39 13 dd d5 ba 9c 67 ef ba
       0.0023516 0.00024967434 -0.0016316496 -0.0018265131
0000b0 ad ac c1 ba a8 cc 02 bb 57 9e 38 3a ec 4a d8 b9
       -0.0014776193 -0.001995841 0.00070426374 -0.00041254552
0000c0 1a a3 5e 3a 37 1c 0d 3a 5b 82 9d ba a5 80 3d ba
       0.0008492932 0.00053829275 -0.0012016998 -0.00072289474
0000d0 37 e0 94 ba bd 1b 03 ba a2 6b 12 3b 23 d9 98 3a
       -0.0011358325 -0.0005001387 0.0022341986 0.0011661391
0000e0 14 cf f4 ba 63 7b 6f b9 72 86 56 3a 0c c7 30 bb
       -0.0018677437 -0.00022838781 0.0008183486 -0.002697411
0000f0 ee 79 e5 3a f8 16 07 b9 a2 89 2a ba c3 8a 3c bb
       0.0017507651 -0.0001288316 -0.0006505494 -0.0028769232
000100 89 1c c0 3a 41 77 70 39 dd 01 3d bb b6 24 08 bb
       0.0014656942 0.00022932609 -0.0028840222 -0.0020773835
000110 b2 8b b3 ba 0d 17 e3 ba 01 59 8d 3a 2d fc 05 bb
       -0.0013698249 -0.0017325595 0.0010783972 -0.0020444498
000120 eb 18 fd 3a 56 93 ee 3a 74 6b 00 3a 33 78 04 3b
       0.0019309794 0.0018201869 0.0004898824 0.0020213246
000130 73 bf b3 ba b6 6e 68 bb b1 a8 f1 ba 71 07 05 3a
       -0.0013713673 -0.003546638 -0.0018437115 0.0005074656
000140 57 f9 1a ba 90 20 0c 37 33 fb ca b9 6a 00 fa ba
       -0.00059117883 8.352232e-06 -0.000387156 -0.001907361
000150 90 98 bd 37 54 99 9c 3a d2 f7 bd 38 93 91 c0 3a
       2.2601598e-05 0.0011947551 9.0583824e-05 0.0014691822
000160 b2 e1 fc 3a 55 a4 45 bb b5 c2 07 3b a6 96 ab ba
       0.0019293337 -0.0030157764 0.002071542 -0.0013091161
000170 8d 40 f4 ba dc 99 19 3b 15 c4 25 bb 2e 9a 14 bb
       -0.001863496 0.0023437655 -0.0025293876 -0.0022674906
000180 a4 53 0e bb 1e ca 4b ba 49 29 0b 3b f3 e0 c1 3a
       -0.0021717334 -0.0007773953 0.0021234325 0.0014791772
000190 b4 2d 35 3a d1 a9 f3 39 42 c0 9c 39 11 09 24 bb
       0.00069114123 0.00046475095 0.00029897882 -0.0025029818
0001a0 8e a4 e2 ba e1 f8 df 3a 47 32 cb 39 d2 15 97 3a
       -0.0017291473 0.0017087721 0.00038756637 0.0011526889
0001b0 36 d5 f3 b8 14 38 ac 3a d7 6d de 3a 0f a4 11 3a
       -0.000116268566 0.0013139271 0.0016969991 0.00055557577
0001c0 dc b2 7d ba 77 2d 54 bb 2d 3f ec ba 50 08 af b9
       -0.0009677836 -0.0032375732 -0.0018024199 -0.00033384794
0001d0 ac 86 ea 3a c2 01 86 39 c7 76 fe b8 16 f5 83 ba
       0.0017892919 0.0002555978 -0.00012133788 -0.0010067548
0001e0 ac 90 3b 3a 91 72 64 b5 d4 ca 3f 39 c2 b4 16 bb
       0.00071550417 -8.5103335e-07 0.00018290739 -0.0022995924
0001f0 96 37 31 bb cd a2 40 ba 35 5b 34 bb 9d 11 f8 ba
       -0.0027041188 -0.0007348478 -0.0027520184 -0.0018926148

network_body._body_endoder.seq_layers.2.weight f4 [128, 128]
000000 31 eb ae bd b5 af ba bb 95 43 08 3d 8c 4e 09 be
       -0.08540953 -0.0056972154 0.033267576 -0.1340887
000010 16 71 28 be b6 bf 54 3e de 70 bd bd 55 c6 aa bd
       -0.16449389 0.20776257 -0.09250043 -0.0833861
000020 8f 6d 18 bb 56 02 28 be 83 4f 2a b9 f2 c1 c1 bd
       -0.0023258661 -0.16407141 -0.00016242084 -0.0946082
000030 14 78 de bd ff 83 30 bd e4 48 04 be 27 ed a1 3d
       -0.10862747 -0.04309463 -0.1291843 0.07906561
000040 58 8f d3 bd 31 c5 bb bd ca a2 13 3e 9c a4 25 be
       -0.10330075 -0.09168471 0.14417568 -0.16176075
000050 49 8b 0b ba fa 28 9d 3d df c8 59 3d ab 58 3e be
       -0.00053231843 0.07673831 0.05317008 -0.18588512
000060 be 69 32 3c c1 0e b4 bd d8 e1 2a bd c0 ee bc 3c
       0.010889469 -0.087918766 -0.041719288 0.023063064
000070 60 ab 20 3d 94 c6 0c 3d a7 9a 01 3c c9 2f 87 3c
       0.039225936 0.034369066 0.007910407 0.016502278
000080 96 ee 64 3c ee b5 4f 3d 61 dc f6 3d dc 78 6a bd
       0.013972899 0.05071061 0.12053753 -0.057244167
000090 61 90 e6 bc bb f7 a5 3d bd fd 78 3d 2b 98 3e 3d
       -0.028145017 0.081038915 0.06078886 0.046531837
0000a0 1d a7 81 bd e8 6c cb 3d f7 10 36 3e 41 29 f8 bd
       -0.063307025 0.099328816 0.17779909 -0.121172436
0000b0 be 02 d0 3c d4 d3 56 3c 36 b7 a8 bd f5 41 16 3e
       0.025391933 0.013112027 -0.0823807 0.14673598
0000c0 51 f1 5f 3d 27 f5 4c bb 7d 48 11 bd b2 ca 30 3d
       0.054673497 -0.0031274052 -0.03546952 0.043162055
0000d0 89 57 52 bc 4f 17 42 bd 29 44 81 bc 02 1f 4a 3d
       -0.012838253 -0.04738551 -0.015779572 0.049345978
0000e0 38 77 d6 bd 86 ff 05 bc 7c f8 8a bd a9 c1 2c bd
       -0.10471958 -0.008178597 -0.06785676 -0.042176876
0000f0 34 6b 75 bd 41 fa 92 bd df ef 8b bc 33 7a b9 3c
       -0.05991669 -0.071766384 -0.017082153 0.022641277
000100 e0 06 12 bd b0 08 58 3d 4b ed 1e 3e f9 e3 2f bd
       -0.035651088 0.05274266 0.15520208 -0.04294202
000110 e9 a3 f7 3b a8 9b a0 bb fd 4b 15 bd 8b 35 cf bb
       0.0075573814 -0.004901368 -0.03644942 -0.0063235215
000120 cf 48 27 3e 73 79 30 bc 30 d5 b9 3c 07 c0 08 bc
       0.16336368 -0.010771143 0.022684664 -0.008346564
000130 95 07 fa bc 98 d7 ba bc 2d f2 e9 3d 5f e7 0a be
       -0.030521194 -0.022807881 0.114231445 -0.13564824
000140 98 00 c8 3c 90 dc 11 3d 36 58 78 3b 31 f3 51 3d
       0.024414346 0.035610735 0.0037894375 0.051257316
000150 4d e1 39 bd f6 a2 a3 bd 8a 0b 20 3e 33 85 28 3e
       -0.04538088 -0.07990067 0.15629402 0.16457061
000160 de 5c 53 3e cc 35 31 3c 83 f3 66 3e 2c c1 d5 3d
       0.20640895 0.010816049 0.2255383 0.10437235
000170 2e 20 31 be 67 fc 36 be 1e be 6d 3d 8d 31 1e bd
       -0.17297432 -0.17869721 0.058042638 -0.038621474
000180 f5 03 e6 bd 2d 2d 4b be ca 90 11 3e 99 c5 d0 bd
       -0.112312235 -0.19841452 0.14215389 -0.10193939
000190 87 1f 0a be 79 9f 07 bb 32 53 cd 3d 23 ee d8 3d
       -0.13488589 -0.0020694418 0.10025634 0.10592296
0001a0 d1 bb 98 3d a3 ba d6 3c 1d a3 b7 3d 06 73 e0 3d
       0.07457698 0.026212042 0.08966658 0.10959439
0001b0 dd a7 bd 3b 78 fd bd 3d 15 cd 86 bd 4b 27 bf 3d
       0.005787833 0.09276861 -0.06582085 0.093336664
0001c0 e3 08 fa 3c 17 09 c7 3d 75 c5 f2 bd a8 03 4b bc
       0.030521816 0.097185306 -0.11854068 -0.012391008
0001d0 bb 20 6f 3c 16 1d 1e 3d 4b 8c b2 3d 94 2c a8 3d
       0.014595206 0.038601957 0.08718165 0.082116276
0001e0 4e ad 6e bd db 69 52 3d 77 5d 17 3c 90 2b 82 3d
       -0.058270745 0.051370483 0.009238592 0.06355965
0001f0 c2 04 1e bd ca 09 d2 bc f9 5b cc 3d e7 2a ee 3c
       -0.038578756 -0.025639433 0.0997848 0.029073192
000200 a6 fc 9d 3c ae 5d a1 bd 5c 94 d0 bc 6b 8c 2c bc
       0.019285511 -0.07879196 -0.025461368 -0.010531525
000210 4e bb 94 bd 55 c2 43 bc d9 0c 0d 3e 46 82 b7 3c
       -0.07262288 -0.011948188 0.13774432 0.022400986
000220 11 21 1c 3e 61 58 bc bd 67 7f 31 be 0f c0 d6 3d
       0.15246989 -0.091965444 -0.17333756 0.10485851
000230 af 84 2e be 02 2a 51 3d 2d b5 94 3c 07 9f 12 bd
       -0.17042802 0.051065452 0.018152798 -0.03579619
000240 11 3d 50 3d 76 5d ed 3d d6 f3 d5 3d 54 82 dc 3d
       0.050839487 0.11590092 0.10446899 0.107670456
000250 61 ea bd bd 09 2c 02 3e b9 ae 15 bc 60 7e 01 be
       -0.0927322 0.1271211 -0.009135895 -0.12645864
000260 7c 01 cb bc f7 3c a6 bc d2 66 46 3d 1e 03 90 3d
       -0.024780981 -0.020292742 0.0484379 0.070318446
000270 b8 c9 86 bd b6 52 86 3d 46 68 91 bd 74 2f 9f bd
       -0.065814435 0.065587446 -0.07099967 -0.07772723
000280 17 d9 0a 3e 43 15 78 3d e1 26 10 3d 73 f0 f3 bd
       0.13559376 0.06056715 0.035193328 -0.119110964
000290 c3 d3 46 bd 69 f0 89 bd e5 05 01 3e 45 d1 9a bd
       -0.048541795 -0.06735308 0.12599905 -0.07559446
0002a0 0c 41 40 3d bf 1a 5c bd 6a 50 55 be 5c a9 b2 3c
       0.046937034 -0.053736445 -0.20831457 0.021809272
0002b0 8e 42 0c 3c 5d 4f 37 3d cf e2 4c bd eb 06 60 bc
       0.00856079 0.04475342 -0.05002099 -0.013673524
0002c0 5e 51 af bd d4 1f 04 3d 17 ca ad bd df e4 88 bc
       -0.085604414 0.032256916 -0.08485811 -0.016710697
0002d0 13 4f 90 bd f4 c5 38 bd f6 27 bc bd 0e 37 ef 3d
       -0.07046332 -0.045110658 -0.091873094 0.11680423
0002e0 52 b7 1e be 27 96 0d bd 2a 87 80 3c 15 72 78 3c
       -0.15499619 -0.034567025 0.015689451 0.015163918
0002f0 34 4e cf bd 6c 21 00 bd d5 ae 7b 3d 9f 6a 05 3d
       -0.10122338 -0.031281874 0.06144603 0.032572385
000300 fe 87 23 3e da 54 86 bc 99 e3 7d bd 9f 9a d1 bd
       0.15969846 -0.016397882 -0.061984632 -0.1023457
000310 72 0f 84 3c db ea 3d bd e1 ba e0 3c 6d e3 87 bd
       0.016120646 -0.046366554 0.02743286 -0.06635175
000320 8d b4 f1 3b f7 ed aa 3d 84 72 49 3d b2 90 85 3d
       0.0073762597 0.083461694 0.049181476 0.06521739
000330 43 33 f5 3d 1c 36 4b be 75 ad 3e 3e 0c 16 55 bc
       0.11972668 -0.1984486 0.18620856 -0.013005745
000340 24 d4 e1 bd ed e4 4b bd 64 63 82 bd 51 a9 c0 bc
       -0.11026791 -0.049778868 -0.063666135 -0.023518236
000350 a8 1b ab 3b 66 87 2c bd 5b 15 cb 3d 81 21 d5 bb
       0.0052218027 -0.042121314 0.099161826 -0.006504238
000360 41 95 ed bc 4f 0f 67 bd 52 d8 45 3d d0 03 20 3d
       -0.029001834 -0.056411084 0.048302002 0.039066136
000370 3b f8 70 bc 95 44 9c 3d 61 9a bf bd 2e 69 a7 bd
       -0.01470762 0.076302685 -0.09355617 -0.08174358
000380 8e 5f f6 bb d8 e4 1b bd dd 66 9f bd 1f e9 14 bd
       -0.007518715 -0.03806004 -0.077832915 -0.036355134
000390 ff b7 59 3d 89 7b 59 3d 39 9e 07 be cf 6d b0 bd
       0.053153988 0.053096328 -0.13243951 -0.08614694
0003a0 79 dc 08 3e 18 c3 0f 3e c0 11 3c 3d 79 f5 83 3d
       0.13365354 0.14039266 0.045915365 0.064433046
0003b0 61 3a 1e 3e dd f0 bb 3b 1d 0d cc 3d 5c 6f ba 3d
       0.15451957 0.0057355003 0.09963439 0.09103271
0003c0 ab 16 3e 3d 90 41 fb 3d 6e f8 0e bd 79 b4 33 bc
       0.046408337 0.122683644 -0.03490489 -0.010968321
0003d0 5e 23 15 be 84 bd fb 3c d9 8d 24 be 64 e7 11 3d
       -0.14564273 0.030730017 -0.16069736 0.035621062
0003e0 27 93 0e bc 95 59 8f 3b 5f 5f f7 bb a0 03 6d bd
       -0.008702076 0.0043746927 -0.007549211 -0.057864785
0003f0 05 e4 20 3d 06 0c 89 3c 35 bd 87 3d 29 6d bf bd
       0.039279956 0.016729366 0.06627885 -0.093469925
