results/Islands/Islands/Islands-847750.onnx (onnx, 482155 bytes, 9 tensors)

action_model._discrete_distribution.branches.0.bias f4 [25]
0.1710102 -0.06766504 0.009379586 0.056772064 0.06151246 0.038084377 -0.011043668 -0.15717745
-0.10445023 0.2190806 0.0750984 -0.04575574 -0.044441327 0.12692292 0.17065045 0.07867468
-0.09555698 0.1048268 -0.035119906 0.07166647 -0.0771474 -0.009923797 0.12372877 0.113073446
0.06399303
00000000: 4c1d 2f3e f893 8abd d6ac 193c d389 683d
00000010: 7df4 7b3d 5dfe 1b3d 80f0 34bc 20f3 20be
00000020: 01ea d5bd aa56 603e 31cd 993d 5f6a 3bbd
00000030: 1c08 36bd 15f8 013e febe 2e3e 3120 a13d
00000040: 61b3 c3bd 6faf d63d e4d9 0fbd dfc5 923d
00000050: 75ff 9dbd 6c97 22bc 8265 fd3d 0d93 e73d
00000060: c70e 833d

action_model._discrete_distribution.branches.0.weight f4 [25, 256]
-0.10443721 -0.14967889 -0.18053664 -0.13083561 -0.024009144 -0.29588994 -0.06197491 0.11470026
0.023337163 0.04881884 0.034879 0.046691783 0.03796337 -0.23173285 0.07611221 -0.10875776
-0.07127704 0.0013362818 0.0100295795 -0.02961319 0.15649562 -0.044908486 -0.06110751 -0.028325979
0.19412792 0.12601264 -0.06132501 -0.10486438 -0.009350708 -0.00025708126 -0.054712318 -0.19824922
0.036750533 -0.052971322 -0.0068714716 0.026933452 -0.039203845 -0.07959368 -0.028299574 -0.068004616
-0.043545786 -0.11946084 0.045922417 0.03864491 0.029233562 0.024951074 -0.043509737 -0.15946147
0.09774176 0.012458907 0.08618535 -0.062284157 -0.13268532 0.10403589 -0.08403358 0.090967566
0.024414252 0.10102065 -0.027424831 -0.046922155 0.09369928 0.35352623 -0.051091813 0.22391883
0.013331853 -0.07161586 -0.15483469 0.13104689 -0.051376052 0.15219906 -0.06929241 0.14135185
-0.19533858 -0.0027339146 0.12475383 0.07037721 0.03606628 0.05361396 0.09607283 -0.100090005
-0.109513916 0.18843827 0.20492496 0.023844134 0.054716326 0.20479347 -0.05208564 -0.07088661
0.09786957 0.08529383 0.08628711 0.041291278 -0.08892712 0.13009886 0.060944833 0.024880296
0.112649195 0.011249179 -0.24405965 -0.17184876 0.03248453 0.030970925 -0.0655301 -0.014918733
0.023703933 0.15770215 0.047769677 0.040992472 -0.008948903 0.15696678 0.08636831 0.008969941
-0.050890155 0.040573385 0.047393072 -0.033054493 -0.19650443 -0.061781224 -0.063264914 0.16570319
-0.010195883 -0.006611902 0.10652267 0.15191731 0.033056688 -0.06031365 0.028779227 -0.016291589
-0.14559023 0.09189094 -0.12868051 -0.013330534 -0.012956123 0.12128615 0.031518552 0.08872962
0.009115165 -0.050702225 0.08076277 -0.025769383 -0.007649003 -0.08800996 0.059288856 0.06966896
0.13297847 -0.08081362 -0.111611865 0.20905435 -0.15604006 -0.0047040153 0.24118954 -0.025096932
0.035887413 0.05321728 0.18910475 0.061613925 0.1885148 0.16316098 0.105670504 -0.032982454
0.058842912 0.020082997 0.12585673 0.20320302 -0.13648234 0.058134962 -0.10753126 0.04816855
0.21458729 0.26889122 -0.08841638 -0.1378612 -0.07853725 0.020620733 0.09818078 0.0052394653
0.011769311 0.30513242 0.0575202 0.010892162 -0.0166205 0.016942756 0.34690621 0.00024036843
0.017187051 0.06364914 0.040277224 -0.20021193 0.019814385 0.17960505 0.058533214 0.15947399
-0.10492583 0.14206195 0.05618791 -0.20663296 -0.3115226 -0.028174499 -0.120126456 0.03839305
0.060738012 0.1273736 -0.04256995 0.087390944 -0.04791049 0.0033851531 0.11249078 -0.055714216
-0.036381453 -0.16842975 0.1546955 0.113673896 -0.039761946 0.11351465 0.020837853 -0.010714373
0.045685146 0.12943794 -0.0111401295 -0.17638102 0.15607749 0.26092654 0.1513769 0.05902312
0.14761177 0.05355585 0.21234109 -0.14601763 0.08538222 0.054925762 -0.11967544 0.14430138
0.009235794 -0.016852207 -0.09115569 0.03965208 0.018269332 0.016895568 0.04872117 0.15292454
0.15258674 0.010936674 0.023663787 0.11523898 0.21482788 0.03867046 0.081602134 0.008556616
-0.16762298 0.07051518 -0.024306115 -0.11249006 0.015182212 0.16085455 0.117767476 -0.06769414
00000000: 2de3 d5bd 6c45 19be 99de 38be c5f9 05be
00000010: d3ae c4bc e37e 97be 67d9 7dbd f8e7 ea3d
00000020: 942d bf3c 44f6 473d 48dd 0e3d e23f 3f3d
00000030: 7b7f 1b3d 604b 6dbe b8e0 9b3d 63bc debd
00000040: b2f9 91bd 2d26 af3a 1b53 243c 5c97 f2bc
00000050: 6340 203e f6f1 37bd de4b 7abd e20b e8bc
00000060: 78c9 463e 7509 013e ef2f 7bbd 23c3 d6bd
00000070: b633 19bc ddc8 86b9 061a 60bd d801 4bbe
00000080: ba87 163d 75f8 58bd 152a e1bb 8ba3 dc3c
00000090: 3694 20bd 0302 a3bd 82d4 e7bc 0146 8bbd
000000a0: 115d 32bd e3a7 f4bd 2519 3c3d 204a 1e3d
000000b0: 397b ef3c 3266 cc3c 4437 32bd de49 23be
000000c0: d52c c83d 7220 4c3c f281 b03d ac1d 7fbd
000000d0: a9de 07be c510 d53d cc19 acbd 344d ba3d
000000e0: 6600 c83c eae3 ce3d 0aaa e0bc 7231 40bd
000000f0: 68e5 bf3d 6401 b53e a645 51bd fa4a 653e
00000100: d86d 5a3c 56ab 92bd fc8c 1ebe 2831 063e
00000110: b26f 52bd 12da 1b3e 2ee9 8dbd 8abe 103e
00000120: d606 48be 7a2b 33bb f07e ff3d ed21 903d
00000130: 3cba 133d 509a 5b3d d5c1 c43d fdfb ccbd
00000140: d548 e0bd f6f5 403e d9d7 513e c654 c33c
00000150: 3a1e 603d 61b5 513e c157 55bd 002d 91bd
00000160: d76f c83d 88ae ae3d 4cb7 b03d 0b21 293d
00000170: 6c1f b6bd a338 053e 4aa1 793d c3d1 cb3c
00000180: 9fb4 e63d 7a4e 383c c6ea 79be 1ff9 2fbe
00000190: 800e 053d bdb6 fd3c a534 86bd b46d 74bc
000001a0: c02e c23c ac7c 213e 23aa 433d b9e7 273d
000001b0: 6b9e 12bc e6bb 203e dee1 b03d a9f6 123c
000001c0: 3272 50bd 4730 263d 3d1f 423d 2664 07bd
000001d0: 7538 49be 4f0e 7dbd 0991 81bd 19ae 293e
000001e0: a20c 27bc a7a8 d8bb 8f28 da3d 3690 1b3e
000001f0: 7366 073d 720b 77bd 6ac2 eb3c f075 85bc
00000200: 9b15 15be 5131 bc3d d3c4 03be 5068 5abc
00000210: eb45 54bc df64 f83d 9919 013d e0b7 b53d
00000220: c657 153c 23ad 4fbd f366 a53d 501a d3bc
00000230: 7da4 fabb 913e b4bd dfd8 723d 9aae 8e3d
00000240: 822b 083e 9c81 a5bd c394 e4bd 5812 563e
00000250: f7c8 1fbe 2424 9abb 64fa 763e 1598 cdbc
00000260: aefe 123d 5dfa 593d ada4 413e e25e 7c3d
00000270: 060a 413e ac13 273e c769 d83d 9c18 07bd
00000280: 4405 713d 1985 a43c 96e0 003e 7414 503e
00000290: 07c2 0bbe ed1e 6e3d 5939 dcbd 634c 453d
000002a0: c5bc 5b3e 1cac 893e a613 b5bd 7d2b 0dbe
000002b0: 23d8 a0bd d0ec a83c 0113 c93d d2af ab3b
000002c0: 11d4 403c 513a 9c3e 4d9a 6b3d 0a75 323c
000002d0: b727 88bc 89cb 8a3c b19d b13e 690b 7c39
000002e0: dccb 8c3c 7b5a 823d bbf9 243d 5b04 4dbe
000002f0: c751 a23c 63ea 373e 86c0 6f3d 264d 233e
00000300: 5be3 d6bd b078 113e 4b25 663d 9797 53be
00000310: e47f 9fbe 35ce e6bc dc04 f6bd 0842 1d3d
00000320: 6cc8 783d 3a6e 023e d45d 2ebd 06fa b23d
00000330: ca3d 44bd 72d9 5d3b 9161 e63d 9734 64bd
00000340: b804 15bd d978 2cbe 7f68 1e3e dccd e83d
00000350: 6cdd 22bd 5e7a e83d 25b4 aa3c 568b 2fbc
00000360: 5920 3b3d 618b 043e 1785 36bc 3a9d 34be
00000370: c7d2 1f3e 2a98 853e 8c02 1b3e 3ac2 713d
00000380: 8a27 173e 615d 5b3d f16f 593e a585 15be
00000390: e0dc ae3d d6f9 603d 6618 f5bd bec3 133e
000003a0: ba51 173c a40d 8abc d6af babd 386a 223d
000003b0: 91a9 953c 9368 8a3c d98f 473d 4098 1c3e
000003c0: b33f 1c3e bc2f 333c 8fda c13c 6a02 ec3d
000003d0: d7fb 5b3e eb64 1e3d 051f a73d 0c31 0c3c
000003e0: 5ca5 2bbe 436a 903d 9e1d c7bc 3061 e6bd
000003f0: d0be 783c 0eb7 243e 1330 f13d 3aa3 8abd

action_model._discrete_distribution.branches.1.bias f4 [10]
-0.26174104 -0.2299422 -0.18069154 0.1414384 0.18270735 0.5800569 0.061200112 -0.15528944
-0.21543017 -0.31039014
00000000: ec02 86be f875 6bbe 3407 39be 3ad5 103e
00000010: a317 3b3e 9c7e 143f f8ac 7a3d 3204 1fbe
00000020: ba99 5cbe 75eb 9ebe

action_model._discrete_distribution.branches.1.weight f4 [10, 256]
0.17746142 0.028485823 -0.1671949 0.11798862 0.13386457 -0.12197716 0.13970558 0.13599867
0.2184297 0.32076612 0.31251875 0.13671848 0.18122983 0.00119836 0.06486398 0.23912908
0.25684226 -0.0405139 0.46362182 0.29647207 0.1874057 0.2594053 0.035723373 0.22098446
0.06456906 -0.023975188 0.2833652 -0.1482525 0.06367361 -0.056658205 0.082363315 -0.037101444
0.11978213 0.3163777 0.07877285 0.20583527 0.41184506 -0.09840903 0.24127057 -0.054032248
0.108362414 0.051458586 0.27835003 0.20351692 -0.03981107 0.32440275 0.18860324 0.023513723
0.06353995 0.17978251 -0.13341258 0.120566286 0.25198722 0.36256716 -0.029233037 -0.0058284947
-0.19936687 0.09031915 0.280575 0.25887462 0.09765037 0.23207742 0.01963195 0.126121
0.037195556 -0.02355355 0.06074297 0.19637305 0.23590069 0.024927624 -0.1063634 -0.010361481
0.17280035 0.110164285 0.19268902 0.15819485 0.022809245 0.12261663 0.34823665 0.2131978
0.012774124 0.08596685 -0.003640658 0.22934897 0.1610609 0.17344643 -0.045950696 0.2799149
0.060938228 0.17542359 -0.09112384 0.22540917 0.29349747 -0.07416552 -0.036755327 -0.107369825
0.23737136 0.016511185 -0.09154456 -0.039800968 0.23107171 0.15390089 0.1854547 0.01159748
0.20988333 0.06802703 0.31212798 -0.04213758 0.12926045 0.18411551 0.1805519 -0.08195872
0.23717116 0.19735673 0.03279792 0.24725346 0.07236985 0.3586531 0.10747628 0.18141444
0.37341893 0.24494615 0.27958012 0.1450618 0.3864693 0.11135998 0.35623223 0.27589676
0.20432597 0.08275321 0.32473803 0.11076303 -0.0270061 0.09545802 -0.04331766 -0.016535033
0.15340495 0.08480219 0.27243885 0.25008193 0.04410714 0.081522614 -0.082734816 0.115230754
0.185556 0.33885178 -0.11007387 -0.19075017 0.09325051 0.22852974 0.14426143 0.031018239
0.050021928 0.17758268 0.21128923 0.074728936 0.2573739 0.41750878 0.09137552 0.0338254
0.27520815 0.028962016 0.40045914 0.15900995 -0.08445199 0.39071524 -0.040761843 0.07608823
0.25193775 0.31232056 0.037898608 0.04981289 0.3269834 0.2464763 0.18094157 0.02792985
0.023663625 -0.04928853 -0.19427651 -0.0049872687 0.08658951 -0.049587723 0.19670086 0.27096155
-0.30139494 -0.0736877 -0.0947852 0.24638765 -0.07976318 0.007015445 0.070481434 0.18519834
0.17514522 0.15352236 -0.1349873 0.3895593 0.1302708 0.08063229 0.22672941 -0.021785095
-0.0923808 0.036667388 -0.2235257 0.4099838 0.17991737 0.0369077 0.29551676 0.021448676
0.06712645 0.19587615 0.26601398 0.037536748 0.038724728 0.202567 0.04659718 0.18480437
-0.06168448 0.05894191 0.16918756 0.033496324 0.23847514 0.14030261 -0.016968714 0.31531358
0.3955713 0.07523979 0.4031379 0.17235328 0.2837491 0.17941572 0.022997115 0.3071518
0.16077666 0.09611352 0.22754277 0.18606195 0.07199729 0.13751397 -0.13962696 -0.0052891835
0.20248544 0.22271165 0.2723127 0.08002897 0.19659303 0.2534144 0.17640205 0.19999534
0.21248548 0.12330337 0.15802501 0.08514558 -0.008320962 0.21700823 0.13419427 -0.033403322
00000000: 72b8 353e 1a5b e93c 2435 2bbe 05a4 f13d
00000010: cb13 093e 29cf f9bd fb0e 0f3e 3c43 0b3e
00000020: 09ac 5f3e 753b a43e 7502 a03e eeff 0b3e
00000030: 5094 393e 4a12 9d3a 68d7 843d 41de 743e
00000040: d480 833e e7f1 25bd d75f ed3e 30cb 973e
00000050: 48e7 3f3e c5d0 843e ac52 123d c049 623e
00000060: c93c 843d 9d67 c4bc 3e15 913e 81cf 17be
00000070: 4f67 823d 6f12 68bd 19ae a83d aff7 17bd
00000080: 5550 f53d 42fc a13e a953 a13d 7bc6 523e
00000090: 5bdd d23e ac8a c9bd a20f 773e eb50 5dbd
000000a0: 1ded dd3d 3dc6 523d e583 8e3e bd66 503e
000000b0: ef10 23bd 1e18 a63e 3521 413e da9f c03c
000000c0: 3c21 823d e818 383e 4f9d 08be 75eb f63d
000000d0: 7804 813e 67a2 b93e 1f7a efbc f5fc bebb
000000e0: d426 4cbe 3ff9 b83d 87a7 8f3e 378b 843e
000000f0: ebfc c73d b4a5 6d3e 2fd3 a03c dd25 013e
00000100: 5e5a 183d 60f3 c0bc 9fcd 783d 0416 493e
00000110: f38f 713e 0435 cc3c 0ed5 d9bd 34c3 29bc
00000120: 93f2 303e d09d e13d 4550 453e d5fd 213e
00000130: 74da ba3c 6d1e fb3d 134c b23e 8650 5a3e
00000140: 8f4a 513c 630f b03d 1b98 6ebb 75da 6a3e
00000150: 26ed 243e f19b 313e cc36 3cbd 0151 8f3e
00000160: 5d9a 793d 3ea2 333e 239f babd a9d1 663e
00000170: 4d45 963e 18e4 97bd c18c 16bd b6e4 dbbd
00000180: 7a11 733e 7742 873c b77b bbbd 5706 23bd
00000190: 109e 6c3e 3298 1d3e d6e7 3d3e 5b03 3e3c
000001a0: a8eb 563e c151 8b3d 3dcf 9f3e 7598 2cbd
000001b0: da5c 043e c788 3c3e 99e2 383e f9d9 a7bd
000001c0: ffdc 723e e217 4a3e 1d57 063d 0330 7d3e
000001d0: a536 943d 61a1 b73e 861c dc3d b5c4 393e
000001e0: c430 bf3e 2ad3 7a3e 2025 8f3e 158b 143e
000001f0: 4edf c53e b410 e43d 1264 b63e 5742 8d3e
00000200: d43a 513e 847a a93d 1044 a63e bad7 e23d
00000210: e63b ddbc 7f7f c33d dc6d 31bd 7a74 87bc
00000220: 3016 1d3e c5ac ad3d 1b7d 8b3e bd0a 803e
00000230: b0a9 343d 54f5 a63d df70 a9bd 1afe eb3d
00000240: 6402 3e3e fb7d ad3e 696e e1bd 0354 43be
00000250: 20fa be3d b303 6a3e 45b9 133e f619 fe3c
00000260: cbe3 4c3d 3cd8 353e 345c 583e 7c0b 993d
00000270: 83c6 833e b6c3 d53e 1723 bb3d 818c 0a3d
00000280: 15e8 8c3e c041 ed3c fb08 cd3e 81d3 223e
00000290: 2af5 acbd d40b c83e e4f5 26bd 25d4 9b3d
000002a0: fcfd 803e 7be8 9f3e 923b 1b3d 9a08 4c3d
000002b0: 5e6a a73e 4864 7c3e bf48 393e 24cd e43c
000002c0: 38da c13c c5e2 49bd 6cf0 46be 3e6c a3bb
000002d0: d755 b13d 7f1c 4bbd f36b 493e 79bb 8a3e
000002e0: 7050 9abe 94e9 96bd be1e c2bd 0b4d 7c3e
000002f0: e15a a3bd d1e1 e53b 9258 903d a2a4 3d3e
00000300: 4559 333e f734 1d3e 1c3a 0abe 5174 c73e
00000310: b565 053e 8b22 a53d c12b 683e a876 b2bc
00000320: 2532 bdbd 8b30 163d ece3 64be 66e9 d13e
00000330: 423c 383e 872c 173d f94d 973e 22b5 af3c
00000340: 9879 893d c293 483e fc32 883e 22c0 193d
00000350: d29d 1e3d b96d 4f3e afdc 3e3d 5b3d 3d3e
00000360: dea8 7cbd 126d 713d 813f 2d3e 7133 093d
00000370: d432 743e 7dab 0f3e f901 8bbc c870 a13e
00000380: 5288 ca3e 5217 9a3d 1768 ce3e 617d 303e
00000390: 9047 913e c1b8 373e 7264 bc3c 0043 9d3e
000003a0: a3a2 243e 2ad7 c43d f900 693e 0687 3e3e
000003b0: 5173 933d 76d0 0c3e 5ffa 0ebe e350 adbb
000003c0: 5858 4f3e 860e 643e 926c 8b3e 3be6 a33d
000003d0: af4f 493e 88bf 813e bda2 343e 94cb 4c3e
000003e0: cb95 593e 7a86 fc3d 4fd1 213e ce60 ae3d
000003f0: a554 08bc 6837 5e3e 396a 093e ecd1 08bd

discrete_action_output_shape f4 [1, 2]
25.0 10.0
00000000: 0000 c841 0000 2041

network_body._body_endoder.seq_layers.0.bias f4 [256]
-0.099863574 -0.07013902 -0.1103636 -0.08672149 -0.054516762 -0.11279105 -0.008459973 -0.10612496
-0.035696365 -0.048033513 -0.034942474 0.027435075 -0.09603725 -0.092252046 0.008110586 -0.11478334
-0.060190942 -0.086992346 -0.0780926 0.012455476 0.011403 0.0049457233 -0.11232551 -0.087924905
0.033244118 -0.07762626 -0.015905658 -0.01360355 0.011032686 -0.030323494 -0.043761928 -0.106886
-0.004911105 -0.008733623 -0.0331239 -0.062375538 -0.07186366 -0.07183292 -0.02189258 -0.082260445
-0.15631504 -0.1479893 -0.086325146 -0.06849154 -0.109105006 0.008878877 -0.08844627 0.015514693
-0.07512265 -0.08965488 -0.058678668 -0.13671422 -0.110556744 -0.05319505 -0.0962503 -0.008711001
-0.022965703 -0.041671723 -0.051932115 -0.020710347 -0.02379168 -0.1504094 -0.08066218 -0.047072735
-0.012620933 -0.03437097 -0.06353521 -0.011103092 -0.08168628 -0.05544517 -0.059709013 -0.07646374
-0.016112616 -0.13014385 -0.06378481 -0.034157887 -0.07756549 -0.03525352 -0.11965302 -0.05947391
-0.02802254 -0.08595994 -0.11877617 0.018646197 -0.030597052 -0.070573054 -0.09021291 -0.04119431
-0.12818989 -0.053533264 -0.056092866 -0.16376057 -0.11147301 0.021517793 -0.070261806 -0.04480801
-0.07629105 -0.12618643 -0.051357713 -0.06471103 -0.04436257 -0.13927306 -0.12624401 -0.04693445
-0.0018396341 -0.10064199 -0.009934254 -0.06697333 0.029301438 -0.0733908 -0.10143928 -0.1386173
-0.046775464 -0.060639255 -0.09576894 0.030093864 0.03280809 -0.078285806 0.00018954006 -0.13914299
-0.102294676 -0.09659091 -0.017068421 -0.06269095 -0.0647697 -0.05967591 -0.007520648 -0.1157798
-0.14249493 -0.012594058 -0.13590176 -0.041255854 -0.009199743 -0.13159777 -0.126081 -0.08997664
-0.08595748 -0.0451847 0.0065590534 -0.028073799 -0.031298455 -0.010685836 0.022268834 -0.07016469
-0.13437727 -0.08800412 0.008400368 0.014209712 -0.034217924 -0.037381325 -0.03602458 -0.048307955
0.0019246717 0.02086628 -0.06268977 -0.07407435 0.02461726 -0.048266686 -0.071693785 -0.06224172
-0.13363394 -0.068142 -0.11159024 -0.04180129 0.0043392503 -0.022743199 -0.024938941 -0.024432233
-0.027030094 0.010862858 -0.049643263 -0.032576427 -0.09638534 -0.04541573 0.004118626 -0.112667985
0.00087360066 -0.11002591 -0.11429245 -0.012404676 0.013221093 -0.0037265732 -0.043427497 -0.094660334
-0.01770227 -0.013858695 -0.051889725 -0.012969575 -0.008094801 -0.092760906 -0.07099851 0.0053256676
-0.101399116 -0.036375977 -0.080457926 0.007745721 -0.011538182 0.029491255 -0.091693744 -0.0581599
-0.040728424 -0.06848726 -0.03118178 -0.10427914 -0.032671236 -0.07839246 -0.11564647 0.040624086
-0.122806355 -0.06322675 -0.0960573 -0.012233763 0.005895071 -0.048708245 -0.022014203 -0.059439715
-0.06588776 -0.037791595 -0.09768751 -0.09294241 -0.052556023 -0.05886804 -0.047019284 -0.080811635
-0.07647358 -0.043109924 -0.039178412 -0.015870765 0.010346317 -0.07144695 -0.065564156 -0.09074842
-0.13227792 -0.13177586 -0.021478347 -0.015428539 -0.1091184 -0.093899556 -0.006247838 -0.06486483
-0.075678855 -0.04165372 -0.050428968 -0.067906365 -0.08279552 0.029772641 -0.027264152 -0.09225161
-0.0712272 -0.068898395 -0.0855134 -0.06997239 0.03318358 0.06997161 -0.12861326 -0.022969754
00000000: 4685 ccbd 0ca5 8fbd 5006 e2bd 099b b1bd
00000010: f84c 5fbd fefe e6bd b39b 0abc 0b58 d9bd
00000020: 5a36 12bd cabe 44bd d71f 0fbd 86bf e03c
00000030: 2daf c4bd a4ee bcbd 43e2 043c 8713 ebbd
00000040: c78a 76bd 0b29 b2bd 03ef 9fbd 0e12 4c3c
00000050: a6d3 3a3c bc0f a23b eb0a e6bd f911 b4bd
00000060: fc2a 083d 84fa 9ebd 954c 82bc 6de1 5ebc
00000070: 70c2 343c fa68 f8bc b53f 33bd 0ce7 dabd
00000080: 56ed a0bb 7817 0fbc edac 07bd 7e7d 7fbd
00000090: 412d 93bd 231d 93bd 1158 b3bc 2a78 a8bd
000000a0: 0d11 20be 828a 17be 3dcb b0bd 4b45 8cbd
000000b0: 7272 dfbd b678 113c 5123 b5bd 5731 7e3c
000000c0: e7d9 99bd fa9c b7bd 0b59 70bd d0fe 0bbe
000000d0: 936b e2bd 0ee3 59bd e11e c5bd 96b8 0ebc
000000e0: 9222 bcbc f8af 2abd c5b6 54bd bfa8 a9bc
000000f0: c5e6 c2bc ec04 1abe 3732 a5bd 57cf 40bd
00000100: 08c8 4ebc 93c8 0cbd c01e 82bd bee9 35bc
00000110: 234b a7bd 791a 63bd 7091 74bd 0599 9cbd
00000120: 9bfe 83bc 6e44 05be 9ca1 82bd 24e9 0bbd
00000130: a8da 9ebd ff65 10bd a40c f5bd ea9a 73bd
00000140: 878f e5bc c40b b0bd ec40 f3bd e9bf 983c
00000150: aba6 fabc 9b88 90bd 8cc1 b8bd 5dbb 28bd
00000160: 3644 03be b245 5bbd a2c1 65bd dab0 27be
00000170: f64b e4bd 1546 b03c 6ce5 8fbd 9b88 37bd
00000180: 7b3e 9cbd 0437 01be 775c 52bd 3787 84bd
00000190: 87b5 35bd 999d 0ebe 1c46 01be 563e 40bd
000001a0: e11f f1ba 631d cebd 48c3 22bc 5029 89bd
000001b0: 9209 f03c ea4d 96bd 66bf cfbd b2f1 0dbe
000001c0: a197 3fbd de60 78bd 8222 c4bd 6887 f63c
000001d0: c761 063d 4f54 a0bd 46bf 4639 807b 0ebe
000001e0: df7f d1bd 74d1 c5bd 13d3 8bbc 1d64 80bd
000001f0: faa5 84bd ba6e 74bd c56f f6bb f61d edbd
00000200: 31ea 11be 4f57 4ebc d529 0bbe e6fb 28bd
00000210: 85ba 16bc 91c1 06be 611b 01be ac45 b8bd
00000220: 7a0a b0bd 9813 39bd 54ed d63b 06fb e5bc
00000230: cf32 00bd a513 2fbc 216d b63c 81b2 8fbd
00000240: 329a 09be 813b b4bd b2a1 093c dacf 683c
00000250: 1828 0cbd 291d 19bd 838e 13bd 90de 45bd
00000260: 4445 fc3a c3ef aa3c 7e63 80bd 4bb4 97bd
00000270: 23aa c93c 4ab3 45bd 31d4 92bd 2cf1 7ebd
00000280: 56d7 08be 088e 8bbd 6c89 e4bd d437 2bbd
00000290: 4530 8e3b f24f babc c04c ccbc 1b26 c8bc
000002a0: 376e ddbc 21fa 313c bc56 4bbd dc6e 05bd
000002b0: ad65 c5bd d805 3abd 8af5 863b 79be e6bd
000002c0: 5902 653a 4455 e1bd 2912 eabd fb3c 4bbc
000002d0: 499d 583c 8639 74bb 08e1 31bd 47dd c1bd
000002e0: 5a04 91bc 940f 63bc 528a 54bd 577e 54bc
000002f0: 0ea0 04bc 6ef9 bdbd ab67 91bd f082 ae3b
00000300: 57aa cfbd fafe 14bd 20c7 a4bd d1cf fd3b
00000310: a50a 3dbc a597 f13c eec9 bbbd 1339 6ebd
00000320: d9d2 26bd 0c43 8cbd ef70 ffbc 4d90 d5bd
00000330: 46d2 05bd 3a8c a0bd 0ed8 ecbd 7165 263d
00000340: e681 fbbd 077d 81bd b1b9 c4bd 1f70 48bc
00000350: 712b c13b 4c82 47bd 2157 b4bc 0f77 73bd
00000360: 29f0 86bd 5ccb 1abd 6410 c8bd 9758 bebd
00000370: fc44 57bd 9d1f 71bd 4b97 40bd 9280 a5bd
00000380: 2e9e 9cbd 0894 30bd 8b79 20bd 6803 82bc
00000390: 9983 293c c752 92bd 8046 86bd 4fda b9bd
000003a0: dd73 07be 40f0 06be 5cf3 afbc fcc7 7cbc
000003b0: 7879 dfbd 694e c0bd aaba ccbb dad7 84bd
000003c0: 84fd 9abd 179d 2abd 9b8e 4ebd 7e12 8bbd
000003d0: b390 a9bd c1e5 f33c 1259 dfbc 69ee bcbd
000003e0: 91df 91bd 9a1a 8dbd a621 afbd af4d 8fbd
000003f0: 81eb 073d 474d 8f3d 32b3 03be 112b bcbc

network_body._body_endoder.seq_layers.0.weight f4 [256, 175]
0.0816789 0.13850789 0.06262538 -0.025775103 0.14370474 0.14139375 0.26528648 0.19297835
0.065221496 -0.05657777 0.09743318 0.19523732 -0.07612234 -0.08050719 -0.13262212 0.048205283
0.18713833 0.04859769 0.11859685 0.15500051 0.34074435 0.1263013 0.017798122 0.120000206
0.030346656 0.09576547 0.018956473 0.28764394 -0.047873516 0.010506996 -0.19546883 0.2580637
0.2840712 -0.08321954 -0.010846729 0.033691455 0.06642018 -0.081051864 0.23175557 0.034125056
0.07889498 -0.17459118 0.10725601 0.22798353 0.22344124 0.051232 0.025219256 0.11820462
0.15361792 -0.0025611152 -0.19668686 0.10326317 0.040774472 0.32610983 -0.07886455 0.11381096
-0.00050864305 0.18593545 -0.08198523 -0.18911465 0.2087242 0.18820113 0.06704717 -0.04279731
0.08548272 0.06417567 0.087757885 0.054332916 0.08358233 0.1736075 0.01326423 -0.019041352
0.2845097 -0.11362278 0.053904258 0.13041109 0.2280196 0.06208079 0.19210023 -0.10448501
0.2453565 0.08684061 -0.14065185 0.1814202 -0.1715346 0.07905077 -0.070422344 0.31817606
0.18053032 0.11283488 0.15771542 0.11265968 -0.044130396 -0.013912349 0.1281153 -0.104140066
0.13945062 0.23528825 0.10990514 0.018221494 -0.09301825 -0.06563065 0.005349067 -0.007621836
0.032467645 -0.33027768 0.13238454 0.084509864 -0.21438667 -0.05953849 -0.12997143 -0.24910942
-0.037456248 -0.07648816 0.0039704577 0.08395879 -0.18492487 -0.101261154 -0.01595756 -0.09639075
0.022090198 -0.024972692 -0.07003953 0.0072684316 -0.1871043 -0.22423138 -0.03392887 -0.0620904
-0.15402523 -0.081051685 -0.12991531 0.028930722 -0.17905462 -0.07577606 0.03694523 -0.07923653
-0.05873419 -0.17527553 -0.048678417 -0.050596017 0.024659328 -0.09381295 0.054023143 -0.003901987
0.06786438 -0.2916818 -0.28322595 -0.25187293 -0.13540143 0.03176255 0.014945871 -0.27571818
0.0075940723 -0.16959934 -0.085843295 -0.14271371 -0.045036897 -0.05971542 -0.29647404 -0.06604667
-0.228015 -0.27031064 0.008774998 -0.21611236 -0.2551967 -0.19637704 -0.18782347 -0.1586391
0.051631335 -0.0542164 -0.18088485 -0.06854472 -0.11863313 0.04333845 -0.003095254 0.012669975
0.18569441 0.19817227 -0.04251629 -0.09764893 -0.059916433 -0.10617979 -0.06900077 -0.040044103
-0.028788919 -0.021923186 -0.10489265 0.025051462 -0.0031595102 -0.26758456 -0.08049322 -0.0983184
-0.16220541 -0.020884288 0.1450917 0.09592974 0.24459918 -0.012624482 0.33288327 -0.09172394
0.13401024 0.04148227 0.17836732 0.08314753 0.10803188 -0.01866862 -0.08517219 -0.21292691
0.30195728 0.019012896 0.33341467 -0.2533603 0.006151416 -0.10840449 0.292217 -0.011098117
0.107837856 0.08304928 0.23273018 -0.00072148704 -0.03786266 -0.049222585 0.116046354 -0.08104423
0.15121391 0.03495636 0.19656344 0.2550831 0.026043134 -0.13269308 -0.07851221 -0.23888114
0.4202952 -0.023587622 0.07941175 -0.022241533 -0.07133958 0.050465353 -0.0064444165 0.14543001
0.06886758 -0.17024447 0.035861578 0.097244225 0.13886915 -0.055240482 0.12229681 -0.08037455
0.016098984 -0.027358625 0.045143686 0.11875348 0.14034598 -0.09807606 0.24219398 -0.010995428
00000000: 4447 a73d 03d5 0d3e bc41 803d 4f26 d3bc
00000010: 5627 133e 86c9 103e a1d3 873e 1e9c 453e
00000020: d992 853d 17be 67bd 0c8b c73d 4bec 473e
00000030: 08e6 9bbd f4e0 a4bd 18ce 07be e772 453d
00000040: 31a1 3f3e 5f0e 473d e8e2 f23d 74b8 1e3e
00000050: 0b76 ae3e 2155 013e 5ecd 913c abc2 f53d
00000060: 8d99 f83c b020 c43d 9b4a 9b3c 1146 933e
00000070: 0517 44bd 8925 2c3c fb28 48be ed20 843e
00000080: c871 913e 026f aabd 7bb6 31bc 0d00 0a3d
00000090: 4e07 883d 85fe a5bd 5551 6d3e b7c6 0b3d
000000a0: b193 a13d 08c8 32be 0aa9 db3d 8474 693e
000000b0: c8cd 643e a5d8 513d 9d98 ce3c 4415 f23d
000000c0: 044e 1d3e 62d8 27bb 4868 49be a47b d33d
000000d0: 2203 273d def7 a63e bd83 a1bd b815 e93d
000000e0: 7556 05ba dd65 3e3e dfe7 a7bd 45a7 41be
000000f0: ccbb 553e ccb7 403e 0750 893d 3b4c 2fbd
00000100: 9011 af3d 896e 833d 68ba b33d 318c 5e3d
00000110: 362d ab3d 2ac6 313e 3752 593c 9cfc 9bbc
00000120: 41ab 913e 0fb3 e8bd b6ca 5c3d 7c8a 053e
00000130: f87d 693e 6d48 7e3d ecb5 443e 3dfc d5bd
00000140: bc3e 7b3e 7dd9 b13d 0a07 10be 38c6 393e
00000150: c4a6 2fbe 5fe5 a13d 9739 90bd f9e7 a23e
00000160: f1dc 383e f915 e73d 2780 213e 1eba e63d
00000170: 13c2 34bd 9ff0 63bc a830 033e 6347 d5bd
00000180: 25cc 0e3e 67ef 703e f215 e13d 3e45 953c
00000190: 5a80 bebd 5d69 86bd 3a47 af3b 98c0 f9bb
000001a0: cbfc 043d 281a a9be d08f 073e 8213 ad3d
000001b0: 2e88 5bbe a2de 73bd 3b17 05be 8a16 7fbe
000001c0: b96b 19bd d3a5 9cbd 9d1a 823b 96f2 ab3d
000001d0: f25c 3dbe 0262 cfbd 6eb9 82bc 8368 c5bd
000001e0: 81f6 b43c 8893 ccbc e370 8fbd 062c ee3b
000001f0: 4598 3fbe e99c 65be 00f9 0abd 8152 7ebd
00000200: cab8 1dbe 6dfe a5bd 8508 05be 1f00 ed3c
00000210: 185a 37be 7b30 9bbd e253 173d c346 a2bd
00000220: 4393 70bd 6e7b 33be 0563 47bd c53d 4fbd
00000230: 5c02 ca3c 0121 c0bd 5f47 5d3d 7bb8 7fbb
00000240: 7bfc 8a3d 5157 95be fe02 91be 7df5 80be
00000250: aca6 0abe 7319 023d 87df 743c ef2a 8dbe
00000260: b2d7 f83b 73ab 2dbe 9cce afbd 8b23 12be
00000270: 9c78 38bd 2898 74bd 72cb 97be 7a43 87bd
00000280: c47c 69be 2866 8abe 02c5 0f3c 8f4c 5dbe
00000290: 24a9 82be 1017 49be cc54 40be 4a72 22be
000002a0: 617b 533d 0412 5ebd e139 39be 2d61 8cbd
000002b0: edf5 f2bd a983 313d bfd9 4abb ba95 4f3c
000002c0: ad26 3e3e aced 4a3e 9025 2ebd 2afc c7bd
000002d0: ef6a 75bd ca74 d9bd 4750 8dbd 4905 24bd
000002e0: bdd6 ebbc 4198 b3bc f5d1 d6bd b938 cd3c
000002f0: c90f 4fbb d800 89be a1d9 a4bd 285b c9bd
00000300: 2d19 26be 8715 abbc eb92 143e d076 c43d
00000310: 3578 7a3e ead6 4ebc ad6f aa3e c3d9 bbbd
00000320: fb39 093e 50e9 293d eca5 363e 4149 aa3d
00000330: d13f dd3d efee 98bc c26e aebd 8309 5abe
00000340: 259a 9a3e efc0 9b3c 54b5 aa3e 71b8 81be
00000350: d191 c93b 2c03 debd 779d 953e e0d4 35bc
00000360: 18da dc3d be15 aa3d d250 6e3e 2d22 3dba
00000370: e015 1bbd 9f9d 49bd b6a9 ed3d 84fa a5bd
00000380: d2d7 1a3e 662e 0f3d ed47 493e 419a 823e
00000390: 6958 d53c b2e0 07be 02cb a0bd 429d 74be
000003a0: ef30 d73e d43a c1bc a1a2 a23d e033 b6bc
000003b0: 7c1a 92bd c2b4 4e3d af2b d3bb 9beb 143e
000003c0: 720a 8d3d 9154 2ebe 97e3 123d fb27 c73d
000003d0: b733 0e3e d843 62bd c076 fa3d 699b a4bd
000003e0: 04e2 833c 321f e0bc 96e8 383d 0635 f33d
000003f0: dbb6 0f3e 1adc c8bd b301 783e 2b26 34bc

network_body._body_endoder.seq_layers.2.bias f4 [256]
-0.047471687 -0.21218035 -0.2004444 -0.076789826 -0.09960602 -0.017060071 -0.073577866 -0.062176384
-0.06288241 -0.18570653 -0.06820025 -0.10957589 -0.12744631 -0.13511308 -0.07269174 -0.15900356
0.0061375992 -0.1173693 -0.045095287 -0.17142917 -0.12859707 -0.06970035 -0.038973376 -0.17319837
-0.13162862 -0.056576487 -0.04320868 -0.17904 -0.12465006 -0.17101857 -0.19001251 -0.15443808
-0.14560667 -0.01906459 -0.12602127 -0.13320345 -0.052504875 -0.031228172 -0.1406173 -0.17974041
-0.06775404 -0.17388947 -0.11064051 -0.05264506 -0.093241215 -0.031849697 -0.048429366 -0.103834964
-0.019465331 -0.15423134 -0.03762666 -0.049511302 -0.09792408 0.016785115 -0.09386912 -0.139182
-0.083337635 -0.048273697 -0.099334806 -0.16744809 -0.11003538 -0.0826238 -0.105216056 -0.088744506
-0.045400772 -0.16848052 -0.12190458 -0.13791476 -0.10165144 -0.0007321569 -0.1160087 -0.14292413
-0.10411009 -0.18278416 -0.08911884 -0.04465767 -0.10487857 0.06542091 -0.10680102 -0.09783083
-0.14191386 -0.09551549 -0.161881 -0.04234975 -0.18607262 -0.091965616 -0.23689872 -0.116911285
-0.15896243 -0.1475563 -0.10011146 -0.18303867 -0.123760164 -0.12996568 -0.09716835 -0.0803621
-0.12306204 -0.12841395 -0.109410405 -0.14127176 -0.0792936 -0.059941854 -0.053753197 0.02696176
-0.13089068 -0.07772515 -0.11052391 -0.22503906 -0.23679045 -0.015380397 -0.11198712 -0.20468616
-0.04153835 -0.14094472 -0.22070554 -0.075850055 -0.06341522 -0.17713822 -0.19691636 -0.14274643
-0.1171343 -0.09206466 -0.10302026 -0.045168515 -0.12174231 -0.058963895 -0.11150413 -0.020698532
-0.12843701 -0.15394366 -0.07105401 -0.0035122149 -0.086272165 -0.18379237 -0.067443304 -0.070302345
-0.10452132 -0.054162424 -0.1823643 -0.12623788 -0.14830832 -0.14387 -0.06842699 -0.030395824
-0.08694042 -0.115377456 -0.1151296 -0.14559372 -0.14652012 -0.19986664 -0.20387755 -0.25828862
-0.07909303 -0.064343564 -0.12590042 -0.0730306 -0.18470997 -0.11496266 -0.1597251 -0.052726176
-0.2030703 -0.111622706 -0.097593084 -0.14238048 -0.08974905 -0.06267667 -0.10645856 -0.054759003
-0.05044383 -0.09633214 -0.07209019 -0.16549525 -0.09932204 -0.008166176 -0.013227967 -0.11792202
-0.07082191 -0.09720578 -0.12102686 -0.17469738 -0.10934125 -0.047764882 -0.16983713 0.017433394
-0.09200823 -0.17495696 -0.026934046 -0.19790503 -0.14888434 -0.09141826 -0.13056667 -0.09005191
-0.21258478 -0.05205362 -0.1464035 -0.1568138 0.007037735 -0.11828715 -0.1311622 -0.11643518
-0.16386634 -0.17860813 -0.11221939 -0.09446697 -0.03698525 -0.11319509 -0.09985507 -0.1234782
-0.16780412 -0.044922005 -0.13169265 -0.02888177 -0.09719021 -0.19597305 -0.09231612 -0.15068826
0.020860923 -0.05090473 -0.12778099 -0.13475142 -0.08835507 -0.10486393 -0.087551534 -0.07449719
-0.13507316 -0.049944498 -0.07915716 -0.16538393 -0.09142748 -0.056821328 -0.03574186 -0.081357785
-0.19682732 -0.040037785 -0.15535891 -0.21634965 -0.16222402 -0.055150177 -0.09878064 -0.05977139
-0.17551325 -0.13868394 -0.10618674 -0.040108807 -0.083636664 0.0010249714 -0.038126472 -0.07142172
-0.13956553 -0.07709925 -0.11681807 -0.11305633 -0.118507385 -0.04042703 -0.08627344 -0.09610576
00000000: ac71 42bd ce45 59be 4c41 4dbe fc43 9dbd
00000010: 3efe cbbd 90c1 8bbc feaf 96bd aaac 7ebd
00000020: 7ec8 80bd da29 3ebe 93ac 8bbd 5369 e0bd
00000030: 4981 02be 155b 0abe 68df 94bd d4d1 22be
00000040: ea1d c93b 515f f0bd d6b5 38bd 218b 2fbe
00000050: f3ae 03be 0fbf 8ebd 8ca2 1fbd ea5a 31be
00000060: a7c9 06be bfbc 67bd 96fb 30bd 4356 37be
00000070: 8848 ffbd 7e1f 2fbe a492 42be 0425 1ebe
00000080: ea19 15be 582d 9cbc b80b 01be 7c66 08be
00000090: 5a0f 57bd 39d2 ffbc fbfd 0fbe df0d 38be
000000a0: a1c2 8abd 1510 32be 7e97 e2bd 59a2 57bd
000000b0: 40f5 bebd d474 02bd df5d 46bd 6da7 d4bd
000000c0: c275 9fbc d2ee 1dbe 6a1e 1abd 5dcc 4abd
000000d0: 6c8c c8bd f080 893c 743e c0bd ba85 0ebe
000000e0: ecac aabd a4ba 45bd 0c70 cbbd 8377 2bbe
000000f0: 3b5a e1bd ab36 a9bd 847b d7bd aebf b5bd
00000100: 29f6 39bd 2886 2cbe 1ca9 f9bd 8739 0dbe
00000110: a12e d0bd 38ee 3fba f895 edbd b45a 12be
00000120: ac37 d5bd c52b 3bbe f083 b6bd f6ea 36bd
00000130: 93ca d6bd 66fb 853d 7eba dabd 885b c8bd
00000140: de51 11be a09d c3bd 22c4 25be ee76 2dbd
00000150: d289 3ebe 7858 bcbd 9495 72be 2f6f efbd
00000160: 0cc7 22be 0019 17be 3d07 cdbd 7d6e 3bbe
00000170: f875 fdbd b915 05be 3300 c7bd e294 a4bd
00000180: f307 fcbd f27e 03be 9012 e0bd 8ba9 10be
00000190: af64 a2bd 9785 75bd 502c 5cbd e9de dc3c
000001a0: 3508 06be 5d2e 9fbd 5c5a e2bd a470 66be
000001b0: 3279 72be 10fe 7bbc 8159 e5bd 4099 51be
000001c0: 1e24 2abd d053 10be a200 62be 4657 9bbd
000001d0: d7df 81bd b963 35be 71a4 49be 1f2c 12be
000001e0: 1ce4 efbd 658c bcbd 49fc d2bd 9f02 39bd
000001f0: 0854 f9bd 2084 71bd 475c e4bd f88f a9bc
00000200: fe84 03be 68a3 1dbe c484 91bd 302d 66bb
00000210: 76af b0bd 1134 3cbe b71f 8abd adfa 8fbd
00000220: 460f d6bd 6bd9 5dbd b5bd 3abe 8144 01be
00000230: 23de 17be a852 13be 7323 8cbd aa00 f9bc
00000240: d20d b2bd 044b ecbd 11c9 ebbd 8516 15be
00000250: 5f09 16be d7a9 4cbe 47c5 50be 683e 84be
00000260: 87fb a1bd 8fc6 83bd 0aec 00be 1191 95bd
00000270: 9c24 3dbe 8b71 ebbd fa8e 23be 67f7 57bd
00000280: a9f1 4fbe 729a e4bd e2de c7bd 30cc 11be
00000290: 5ace b7bd a05c 80bd f206 dabd fa4a 60bd
000002a0: 319e 4ebd c949 c5bd 06a4 93bd 9677 29be
000002b0: 5b69 cbbd 6dcb 05bc 1dba 58bc 1a81 f1bd
000002c0: 140b 91bd d313 c7bd eedc f7bd dfe3 32be
000002d0: 4eee dfbd 1ca5 43bd c9e9 2dbe 7ad0 8e3c
000002e0: d06e bcbd eb27 33be caa4 dcbc 9ea7 4abe
000002f0: 2375 18be 7f39 bbbd 45b3 05be 236d b8bd
00000300: d3af 59be 2d36 55bd cdea 15be cc93 20be
00000310: cd9c e63b 8940 f2bd 624f 06be 9175 eebd
00000320: 94cc 27be 0de5 36be 48d3 e5bd e677 c1bd
00000330: d87d 17bd d4d2 e7bd d180 ccbd 23e2 fcbd
00000340: d8d4 2bbe 2300 38bd 70da 06be 7699 ecbc
00000350: a90b c7bd 29ad 48be 3c10 bdbd 064e 1abe
00000360: 87e4 aa3c 7a81 50bd 05d9 02be 47fc 09be
00000370: 81f3 b4bd e6c2 d6bd 384e b3bd fc91 98bd
00000380: 9e50 0abe 9a92 4cbd 261d a2bd 685a 29be
00000390: 553e bbbd 7bbd 68bd 0e66 12bd e99e a6bd
000003a0: 1a8d 49be a9fe 23bd 6816 1fbe c38a 5dbe
000003b0: 0e1e 26be 27e5 61bd 814d cabd d8d2 74bd
000003c0: bfb9 33be 2a03 0ebe 6f78 d9bd 2249 24bd
000003d0: b349 abbd 5558 863a 812a 1cbd 8d45 92bd
000003e0: 44ea 0ebe 36e6 9dbd 503e efbd 148a e7bd
000003f0: 00b4 f2bd d096 25bd 21b0 b0bd 19d3 c4bd

network_body._body_endoder.seq_layers.2.weight f4 [256, 256]
0.1212707 0.18275355 0.04992471 -0.04737312 -0.12113855 0.20044874 -0.12958327 0.24500471
0.10551541 -0.07650041 0.0004980845 0.09662554 -0.088131495 -0.07978899 -0.041257087 0.30221036
0.14665394 -0.09443111 -0.041841183 0.0058586365 0.07976456 -0.20302428 0.02743674 0.038994
0.023924766 -0.09934549 0.15216051 0.0051773093 -0.13637571 0.039945472 0.15133964 -0.18907148
0.10073471 -0.18546884 0.05164446 -0.007612667 -0.25987586 -0.1322159 0.10190394 0.20292449
0.029208258 -0.062596805 0.08179163 0.26725546 0.032192837 0.100539155 0.035863668 0.050556622
-0.030407978 -0.104867704 -0.058429655 -0.014406038 -0.11385335 -0.11324479 0.025819872 -0.021937441
0.010053267 0.2986883 -0.14791696 -0.2864749 -0.2414123 -0.3263208 0.12114619 0.20970626
-0.25462973 0.039579455 -0.114777304 0.09615792 -0.07860734 0.0654434 -0.071452685 0.07181705
0.30646917 -0.1991609 0.22714044 0.16491649 -0.2729265 0.1582532 -0.21299541 -0.13874772
0.01891257 -0.009020785 -0.07749148 -0.044891637 -0.08549974 -0.1738221 0.17155018 0.072241224
0.083843336 0.068293646 0.066052884 0.07229204 -0.18936105 0.013634873 -0.11896389 0.007776959
0.032718353 -0.08815583 0.18137735 0.17363329 -0.33160165 -0.050238833 -0.14543884 0.0124476
-0.1228972 0.18625729 0.025885634 0.012064873 -0.015624439 0.01142004 0.15088685 0.25718576
-0.17576647 -0.1612833 -0.080158025 -0.13537288 -0.05958495 -0.34923968 -0.1580726 0.11718586
0.035631485 0.08455097 0.2779243 -0.12747076 0.033549175 -0.06999061 0.1449677 0.26350626
-0.17060517 -0.1734311 -0.015759427 0.012509633 0.09882084 -0.029319601 0.32358733 -0.047082417
-0.43490037 -0.30144212 0.039810754 -0.06282984 -0.101803385 -0.18432549 -0.005249883 -0.10714009
0.19713412 0.23839211 -0.049534168 0.07315943 0.16039518 -0.42966297 0.11019707 0.13388446
-0.06111151 -0.0031788633 0.057392806 -0.01374599 0.108340204 0.12823966 -0.0013056055 -0.06396604
-0.009891564 -0.28317514 0.09326347 -0.04856672 -0.07880817 0.13431959 -0.045059633 0.005179642
-0.04616971 -0.23635697 0.09155957 0.070388086 -0.22663322 -0.13749528 0.032226842 -0.14794123
-0.21486813 -0.16449954 -0.08395808 0.072051816 0.04125461 0.12206774 0.3650566 -0.07378201
0.06095051 -0.14563817 -0.13243008 0.05201128 -0.4098484 0.09835057 -0.00058931124 0.17152737
0.006822861 -0.10044647 0.084561266 -0.2798546 0.019175129 -0.01491843 -0.1833425 0.022328433
-0.18880819 -0.16904818 0.1829026 -0.15377219 -0.11465592 0.094322324 0.072201855 -0.351531
0.0424047 0.04629387 -0.03378649 0.24430998 0.18307309 0.07327703 0.20361431 -0.14027569
0.30955842 -0.09497812 0.12048495 -0.06904248 -0.006745452 -0.19915985 -0.16572098 0.058403507
0.11462195 -0.0897771 0.01484699 -0.15052558 -0.17558287 -0.16575333 0.014563431 0.06432926
-0.03736818 0.058648486 0.03837255 -0.061153516 -0.023044648 0.20114899 0.085239194 -0.075688586
0.1836149 0.11041346 -0.049014576 -0.10714858 -0.06274261 -0.010003033 -0.049691163 -0.03295255
-0.010760616 0.10986846 -0.14316073 0.041385677 -0.2196083 -0.11007629 0.095150225 0.12959224
00000000: c65c f83d bf23 3b3e da7d 4c3d 510a 42bd
00000010: 7d17 f8bd 6f42 4d3e 7ab1 04be 84e2 7a3e
00000020: 7718 d83d 3fac 9cbd e391 023a 9ce3 c53d
00000030: 497e b4bd 6968 a3bd 31fd 28bd 51bb 9a3e
00000040: 732c 163e 1965 c1bd a961 2bbd cef9 bf3b
00000050: 9a5b a33d 99e5 4fbe 04c3 e03c 2cb8 1f3d
00000060: dffd c33c a675 cbbd f7cf 1b3e 6ba6 a93b
00000070: 13a6 0bbe dd9d 233d c7f8 1a3e f49b 41be
00000080: 004e ce3d 8beb 3dbe 2489 533d ae73 f9bb
00000090: 730e 85be 9b63 07be 03b3 d03d 70cb 4f3e
000000a0: 2846 ef3c c132 80bd 5f82 a73d b5d5 883e
000000b0: a3dc 033d 79e7 cd3d c8e5 123d 7614 4f3d
000000c0: 271a f9bc e1c4 d6bd ef53 6fbd 4e07 6cbc
000000d0: f22b e9bd e2ec e7bd 3284 d33c 26b6 b3bc
000000e0: 75b6 243c aced 983e 8b77 17be d7ac 92be
000000f0: c934 77be 8513 a7be 7e1b f83d 3dbd 563e
00000100: d45e 82be 111e 223d 5d10 ebbd 72ee c43d
00000110: e3fc a0bd 3007 863d c955 92bd d114 933d
00000120: 87e9 9c3e d6f0 4bbe 8197 683e dedf 283e
00000130: 06bd 8bbe 200d 223e 781b 5abe e213 0ebe
00000140: 89ee 9a3c eacb 13bc dab3 9ebd 4be0 37bd
00000150: 7d1a afbd 6cfe 31be daaa 2f3e 35f3 933d
00000160: 0eb6 ab3d 8add 8b3d bc46 873d d90d 943d
00000170: dde7 41be cd64 5f3c 57a3 f3bd dcd5 fe3b
00000180: ae03 063d 0b8b b4bd fcba 393e edcc 313e
00000190: b1c7 a9be 3cc7 4dbd ebed 14be 05f1 4b3c
000001a0: 87b1 fbbd 3bba 3e3e 1c0e d43c bfab 453c
000001b0: a6fd 7fbc 1f1b 3b3c 1582 1a3e daad 833e
000001c0: 20fc 33be 7327 25be e429 a4bd 309f 0abe
000001d0: 590f 74bd 8bcf b2be c9dd 21be 24ff ef3d
000001e0: 52f2 113d 0f29 ad3d 184c 8e3e b287 02be
000001f0: dc6a 093d 3d57 8fbd 6a72 143e 4bea 863e
00000200: 1fb3 2ebe ec97 31be ea19 81bc 34f5 4c3c
00000210: 9562 ca3d a92f f0bc 3dad a53e 7ed9 40bd
00000220: 43ab debe 9f56 9abe 9a10 233d eeac 80bd
00000230: 4b7e d0bd d2bf 3cbe 3607 acbb 436c dbbd
00000240: 87dd 493e 101d 743e 57e4 4abd 9cd4 953d
00000250: a23e 243e c9fc dbbe 00af e13d 0219 093e
00000260: 1050 7abd 7a54 50bb b814 6b3d dc36 61bc
00000270: 78e1 dd3d 4251 033e da20 abba a100 83bd
00000280: 3a10 22bc 55fc 90be eb00 bf3d e6ed 46bd
00000290: 2e66 a1bd 138b 093e 7390 38bd fcb9 a93b
000002a0: 731c 3dbd 9007 72be 9583 bb3d a127 903d
000002b0: 8a12 68be 90cb 0cbe 4b00 043d e87d 17be
000002c0: 6406 5cbe 9172 28be 37f2 abbd e78f 933d
000002d0: 98fa 283d a7fe f93d b3e8 ba3e 061b 97bd
000002e0: 3ea7 793d 2c22 15be c09b 07be c809 553d
000002f0: a6d7 d1be 066c c93d 027c 1aba dfa4 2f3e
00000300: 4e92 df3b e1b6 cdbd 752e ad3d 1a49 8fbe
00000310: 2915 9d3c 6e6c 74bc 23be 3bbe 1eea b63c
00000320: ef56 41be f71a 2dbe d24a 3b3e 7576 1dbe
00000330: b9d0 eabd 102c c13d 91de 933d dffb b3be
00000340: 8db0 2d3d a49e 3d3d b463 0abd 652c 7a3e
00000350: 8377 3b3e 4412 963d 4580 503e 6ea4 0fbe
00000360: 717e 9e3e e383 c2bd d0c0 f63d 2566 8dbd
00000370: f408 ddbb 8ff0 4bbe c3b2 29be 8438 6f3d
00000380: eabe ea3d 0edd b7bd ca40 733c 6123 1abe
00000390: ffcb 33be 3ebb 29be 759b 6e3c 0fbf 833d
000003a0: 600f 19bd 6539 703d 892c 1d3d 1c7c 7abd
000003b0: 21c8 bcbc 00fa 4d3e e391 ae3d 9e02 9bbd
000003c0: 8b05 3c3e 7420 e23d 82c3 48bd b770 dbbd
000003d0: 337f 80bd c3e3 23bc f688 4bbd 41f9 06bd
000003e0: 4b4d 30bc b702 e13d ba98 12be 0784 293d
000003f0: 00e1 60be ae6f e1bd 1fde c23d d4b3 043e
