results/Islands/Islands/Islands-4429.onnx (onnx, 384611 bytes, 11 tensors)

action_model._discrete_distribution.branches.0.bias f4 [10]
000000 3e 3b b9 bb 34 fe e7 3b 07 68 1a ba 21 f0 8e 3a
       -0.005652814 0.007079864 -0.0005890135 0.0010905304
000010 c8 d8 2a b9 cf e7 18 bb 05 9a ca bb 56 42 e4 3b
       -0.0001629322 -0.0023331528 -0.0061829113 0.0069659157
000020 ac 83 90 3b 9d cd 36 bb
       0.0044102278 -0.002789355

action_model._discrete_distribution.branches.0.weight f4 [10, 256]
000000 6b 37 25 bc f7 b8 4e bc 0c ed 95 3a f4 f5 05 bc
       -0.010084013 -0.012617341 0.0011438443 -0.008176316
000010 8d 89 13 3c 1c c8 16 3b fd 2f d0 3c 5a da 37 3b
       0.009004963 0.0023007458 0.025413508 0.0028053732
000020 55 cd 5f ba 31 4a 33 bc 8b f4 33 3d a5 eb a6 bc
       -0.0008537372 -0.010942982 0.043934386 -0.020376036
000030 c8 8e 3f bc 34 14 b4 3b 58 de de 3b 76 ff d6 3b
       -0.011691757 0.0054955725 0.006801408 0.006561215
000040 5d b4 48 bb 27 f7 70 38 48 6a a7 3c c4 5d b6 3a
       -0.0030625083 5.7450638e-05 0.020436421 0.0013913442
000050 ef 80 ad bb f8 39 10 3c 71 ac af 3c f2 39 75 3c
       -0.005294911 0.008802883 0.021444531 0.0149674285
000060 33 5d 8d ba 4e ec 9e bb 41 dd 64 bc 8c 0f 9f bc
       -0.0010785222 -0.004849947 -0.013968767 -0.019416593
000070 1d f3 e4 bc db f9 06 3b 32 66 dd 3a 2b c7 ae bc
       -0.027947957 0.0020595703 0.0016891418 -0.021335205
000080 80 2f 04 3c fc 93 4c 3c f1 09 be bc 84 d2 ca 3c
       0.0080679655 0.012486454 -0.0231981 0.024758585
000090 c6 02 1d 3c 34 d0 72 bc dc 18 95 3b b3 d0 26 3c
       0.009583181 -0.014820147 0.0045500826 0.010181594
0000a0 49 de 44 bc bf 04 5c 3b 8e 4e c3 39 97 b3 af bc
       -0.012015888 0.0033572165 0.00037251826 -0.02144794
0000b0 73 37 6a 3c e9 4a f1 bb 57 03 f1 3b df 36 1d bb
       0.014295447 -0.0073636663 0.0073551345 -0.0023989005
0000c0 b1 a6 34 bc d9 c1 eb bc 9f bd 00 3b 73 9c f2 3c
       -0.01102607 -0.028778957 0.0019644273 0.029615616
0000d0 9e 0a 4b bc 42 89 8d 3c 63 c6 4a bb bb 5a f6 3b
       -0.012392668 0.017277364 -0.0030941002 0.00751814
0000e0 82 e5 29 3c f4 cf 54 bb aa de 39 b9 cd a2 f1 ba
       0.01036966 -0.0032472583 -0.00017725924 -0.0018435359
0000f0 e0 74 02 3c 08 d3 a5 bc 9a 4d 23 bc 23 7f fc 3b
       0.0079624355 -0.02024223 -0.009967232 0.0077055856
000100 04 41 94 3c dc 68 40 bb 79 12 98 bb d0 06 0d 3a
       0.018097408 -0.0029359376 -0.004640874 0.0005379738
000110 f3 7c 04 3d fa 9a 0a bc 41 ba 43 bc 29 b6 00 bc
       0.032345723 -0.008459801 -0.011946262 -0.00785593
000120 b2 df a5 3a 57 e0 b5 bb 5a 77 23 ba 57 0f fb b8
       0.0012655167 -0.005550425 -0.00062357413 -0.0001197147
000130 a3 d6 18 bc 76 28 15 3d d1 a1 d6 bc 15 6a ba bb
       -0.009328517 0.03641554 -0.026200207 -0.0056889155
000140 5a fb 64 3c 5a ab d0 3b 0d 72 45 3b 96 1b 3b bc
       0.0139759425 0.006368083 0.0030127794 -0.011420151
000150 89 40 a8 3b 25 5e 49 bc d1 bd 18 bc ea ba 85 3c
       0.0051346463 -0.012290512 -0.0093225995 0.01632448
000160 17 02 d3 3b 53 8f 1c bb 9c 00 06 3d 2a fe b9 3c
       0.006439458 -0.0023889139 0.032715425 0.022704203
000170 8d 20 8a bc 87 1a e9 3b 25 bc 39 bb 01 5b f8 3b
       -0.016861225 0.007113758 -0.0028340903 0.007579208
000180 13 e0 7b bc b4 c1 a6 bb ef 52 60 3c a9 66 48 bb
       -0.015373248 -0.005089009 0.013691648 -0.0030578768
000190 7e d8 58 bc c1 bf ff 3c f9 12 ed bb 88 09 b5 3b
       -0.0132352095 0.031219365 -0.0072349277 0.005524818
0001a0 c8 c1 2e bc c6 ef a1 bc 2e ec f3 3b fa c1 1b 3c
       -0.010666318 -0.019767653 0.0074439263 0.009506697
0001b0 d8 4d 3b bb e4 3b d5 bc 70 c5 5a 3c ca 28 a5 3c
       -0.0028580334 -0.026029535 0.013352737 0.020161051
0001c0 ba ab ca bc fe ca 02 bb 72 ec 8a 3b 62 b2 02 b9
       -0.024740089 -0.0019957419 0.0042396123 -0.00012464219
0001d0 d2 64 d8 3b 25 38 b1 bc e8 7d 9e 3b c8 9e 62 3c
       0.0066038156 -0.021633217 0.0048367865 0.013831802
0001e0 0e 6e 07 ba 5f ba 27 3c 97 b7 02 bc 34 2b e6 ba
       -0.0005166241 0.010237305 -0.007978342 -0.0017560483
0001f0 40 9b 79 bb 69 cf f2 3c e8 a2 3d bb 75 05 19 bb
       -0.003808692 0.029639916 -0.002893621 -0.00233492
000200 92 a0 93 bb 31 46 1e bc a1 f5 85 3a c3 f7 0f 3c
       -0.0045052255 -0.00966029 0.0010220298 0.008787098
000210 d4 e8 ab 3a ba a0 ea ba 56 d9 39 bc c9 5a 0b 3c
       0.0013115653 -0.0017900683 -0.011343321 0.008505532
000220 bc 0b 4b 3b 96 d4 4e bc 11 cf 0a bc ad 8b 91 bc
       0.0030982336 -0.012623927 -0.00847222 -0.017766798
000230 41 b4 ee bc 5b d5 a7 bc 48 9f 43 bc 12 f3 3f bc
       -0.029138686 -0.020487478 -0.011939831 -0.011715667
000240 8f 4d c6 bb b9 46 9a 3c 1b 82 ab 3c a9 61 0a 3c
       -0.006051726 0.018832551 0.020936063 0.008446136
000250 0b 4d 11 bc bf c1 9e bb 4f a5 ab 3c 10 05 c7 bc
       -0.008868466 -0.0048448737 0.020952849 -0.024294406
000260 fc bc 15 3b 43 b5 a3 3c eb a2 08 bc e6 62 07 bc
       0.002284824 0.019983893 -0.008339624 -0.008263325
000270 4f 81 1b 3b 71 a6 38 3b 61 d5 e1 3b 6b f9 ce 3b
       0.0023728197 0.0028175379 0.006891892 0.006316354
000280 a3 3b 46 3c 08 db 59 bc 76 e4 99 bc 9f 0c 87 3c
       0.012099179 -0.01329685 -0.018785696 0.01648551
000290 fb a1 99 3b ad 9f 84 3c 5c 69 04 bc c7 71 df bb
       0.004688499 0.01618942 -0.00808176 -0.0068189832
0002a0 4a d2 b0 bc bd e4 d5 bb b9 f9 c4 3c e3 be 62 3c
       -0.021584649 -0.006527512 0.024044858 0.013839456
0002b0 97 4e bc 3c e8 99 a3 bc 97 1a 87 bc 94 ce d3 b9
       0.022986693 -0.01997085 -0.016492171 -0.0004039897
0002c0 41 ee 11 bc fd 92 22 3b ae 41 1c 3c 74 72 ed bc
       -0.008906902 0.002480685 0.009537144 -0.02898524
0002d0 30 d3 3c bc 9e f5 8d bb d7 a1 b9 bc 77 75 8d 3c
       -0.01152496 -0.0043322584 -0.022660179 0.017267926
0002e0 a9 3e da 3b f1 1c 74 bb 60 03 77 bc 82 76 e6 bc
       0.0066603017 -0.0037248696 -0.015076488 -0.02813268
0002f0 50 58 e3 ba cc 74 0c bc bb 2e 8a 3b 13 be 25 bc
       -0.0017345045 -0.008572768 0.0042169965 -0.010116118
000300 73 9d 10 3c c3 6a 29 bb ec 8f 3e bc 8e 12 cf ba
       0.008826601 -0.0025850988 -0.011630993 -0.0015798376
000310 76 5c 7e bc 8d 8b 0b bb a5 7c e8 bc 51 bc c3 3b
       -0.015524974 -0.0021292896 -0.028379748 0.005973377
000320 da 53 78 3b b6 66 f5 bc 9d 37 9a bc 3e 34 80 bc
       0.0037891776 -0.029956203 -0.018825347 -0.015649911
000330 ca d7 8c bc 52 54 60 3c f7 e1 91 3c 7e e1 ef bb
       -0.01719274 0.0136919785 0.017807944 -0.007320582
000340 6b eb 4b bc fe 1a d0 3c b6 ce 8a bc 37 ee 2e 3b
       -0.012446265 0.025403496 -0.01694427 0.002669228
000350 cd 40 f6 ba 33 ee 5b bb 49 55 f8 bc df b6 d9 3b
       -0.0018787623 -0.0033558726 -0.030314105 0.0066441144
000360 16 fe f5 bb 31 28 ac bb 2a e4 1b bb 28 84 e1 3b
       -0.007507096 -0.0052538146 -0.002378712 0.0068822093
000370 c2 71 66 bb 86 76 e5 3b 4a ad 3b 3c cd 3c 54 bc
       -0.003516302 0.0070026545 0.01145489 -0.012953949
000380 05 51 23 bc bb d7 41 bc a6 6b b2 3b 16 58 a8 39
       -0.009968047 -0.011831219 0.0054449616 0.00032109086
000390 2b 5b ef ba 3a 63 f6 3b cd 8d 98 bc e1 ce 28 bc
       -0.0018261423 0.007519153 -0.018622303 -0.01030323
0003a0 f1 2a a5 bc f2 0d 9a b7 38 43 80 bc 79 cc 6a bb
       -0.020162078 -1.8364724e-05 -0.015657052 -0.0035827442
0003b0 c0 eb 44 3b 4b 83 92 3c b4 41 a0 bb c9 0d 73 3c
       0.0030047745 0.017884871 -0.004890645 0.01483483
0003c0 91 28 c8 3b 56 a9 84 3c 99 f1 a8 bb 97 a8 d2 3c
       0.0061083515 0.016194027 -0.005155754 0.025715156
0003d0 a5 36 61 bc cd 0c ff 3a c2 7a 68 bc 66 df 6e bb
       -0.013745938 0.0019458771 -0.014189424 -0.0036449074
0003e0 94 b3 f4 bb 4a c8 59 bb 05 44 33 3b c5 99 41 3c
       -0.0074676964 -0.0033230954 0.0027353775 0.011816447
0003f0 10 c3 7c 3c 78 40 45 bb 34 3c 2a 3b 1f b1 10 39
       0.015427366 -0.003009824 0.0025975825 0.00013798893

action_model._discrete_distribution.branches.1.bias f4 [8]
000000 db 6d ba ba 00 ba b7 bb 5f b3 98 3b 8e 0c 7b 3b
       -0.0014223413 -0.0056068897 0.0046600546 0.0038307044
000010 b8 2a 65 3b 65 1c 5f ba 71 a8 de ba 69 ab 00 bb
       0.003496809 -0.0008511006 -0.0016987455 -0.0019633418

action_model._discrete_distribution.branches.1.weight f4 [8, 256]
000000 92 12 d5 bb 35 16 7f 3c ba 66 2d bc 43 3f 01 3c
       -0.006502458 0.015569259 -0.010583574 0.007888618
000010 4f 75 a5 bc b8 ba 71 bb 6f f8 a3 bc 1c 4a b4 3b
       -0.020197539 -0.0036884975 -0.020015923 0.0055019986
000020 fb fc 97 3b af 17 54 bc cc 2b e1 3a 7c 77 d5 3b
       0.004638312 -0.0129451 0.001717919 0.006514488
000030 1c f6 b3 3c 42 44 a5 3b dc 9b 05 bc 60 8b 52 bc
       0.02196794 0.0050435374 -0.008154836 -0.012850612
000040 96 f3 b6 bb 11 ed c4 3a 74 1f 04 3c 63 51 c2 3b
       -0.005583237 0.0015024265 0.00806414 0.005930112
000050 d4 5a 88 bb 2b 32 be 3b 9e 07 87 bb b4 41 11 3c
       -0.004161218 0.0058043203 -0.004120781 0.0088657625
000060 63 9a b8 3b 8d e4 bd 3a 44 f0 82 ba fe 78 92 39
       0.0056336387 0.0014487669 -0.0009989818 0.00027937436
000070 57 b2 e3 3b f7 a2 ae 3b 83 d2 75 3c 5c a2 ec 3b
       0.00694875 0.0053294855 0.015003803 0.007221503
000080 e2 22 e3 3b d2 98 a9 bb a8 ec 0d bc 05 c4 bb bc
       0.0069316486 -0.0051756883 -0.00866238 -0.022920618
000090 af 84 18 3a 3b a8 e2 3c e0 87 bf 3a 76 96 7b 3c
       0.0005818111 0.02766811 0.0014612637 0.015355697
0000a0 b1 a8 90 bc 76 ef fe 3b bd 9a 95 3a 24 93 f4 3a
       -0.017658563 0.007780011 0.0011413913 0.0018659574
0000b0 d5 62 04 3c db 67 90 ba ae ed 18 3b 24 4c 8b bb
       0.008080204 -0.001101728 0.0023335028 -0.00425102
0000c0 50 6a 4d bc d1 45 4a 3c 3a a5 e2 ba 0f b5 8e bc
       -0.012537554 0.012345747 -0.0017291673 -0.01742032
0000d0 ff f2 a4 bc a0 53 94 3b 41 cd e7 bb 07 6c 70 3c
       -0.0201354 0.0045265704 -0.0070740287 0.014674193
0000e0 1b 9a 1a bc 26 88 87 ba d9 d5 ca 3c ba 37 4a b9
       -0.009436156 -0.0010340258 0.024760174 -0.00019284981
0000f0 f3 ee 93 bb 07 79 02 bc 7d 16 5a 3c 61 af 82 bb
       -0.004514569 -0.0079634255 0.013311026 -0.003988192
000100 49 3a 14 3c 1c 3e d5 3b 9d 0e 91 3b cf 12 8e 3a
       0.009047099 0.006507648 0.004426791 0.0010839346
000110 7a ce d1 3a 6f c4 49 ba 09 14 70 3c 32 44 1f bc
       0.0016006969 -0.00076968124 0.014653214 -0.009720849
000120 3c 85 a6 3b 27 25 af bb 0d 82 b1 3b 89 2b 6b bc
       0.0050818007 -0.005345005 0.0054171146 -0.014353641
000130 50 4e 8f bb 1f 19 26 3b c6 d1 06 3c a3 22 65 3c
       -0.0043733492 0.0025344563 0.008228725 0.013985309
000140 d0 d1 dc bb 42 bd 98 bb 61 56 7d 3b b7 31 b2 3b
       -0.006738879 -0.004661233 0.0038656222 0.0054380554
000150 7a 1f a9 3a ee 02 6b 3b 00 e3 d1 bc 37 84 46 3c
       0.0012903058 0.00358599 -0.025620937 0.012116483
000160 86 2f 9a 39 cc 43 8d bc 11 c9 03 bb 0e 54 4a 3b
       0.00029408577 -0.017244242 -0.0020108859 0.0030872854
000170 9f 57 77 bc 23 f3 9f 3c 7c 3c 59 bc f5 c4 15 bc
       -0.015096574 0.019525116 -0.0132590495 -0.0091411965
000180 11 bc 8a bc c0 3d 98 39 0c 2d ea 3b 9a fa d9 b9
       -0.01693538 0.00029037707 0.0071464833 -0.00041576178
000190 44 3e 93 3b a5 17 73 3c 70 65 3a 3c 60 e4 2d 3c
       0.0044935066 0.01483718 0.011376724 0.010613531
0001a0 c2 26 77 bb 66 d3 e2 3b cf 37 c3 3a ea d2 9e ba
       -0.003771231 0.0069221733 0.0014893952 -0.0012117301
0001b0 b1 c8 d7 bb c7 18 8b bc 46 0b 8b bc b7 15 cb bc
       -0.0065852036 -0.016979588 -0.016973149 -0.024790628
0001c0 37 75 86 3b 1f fd 41 bc 4b 8a 75 bc ee 1e b6 3c
       0.0041033286 -0.011840134 -0.014986585 0.022231545
0001d0 ac 9b f0 3a 8e 90 36 3c 55 9c 2c 3c a3 bc 73 bc
       0.0018356941 0.011142863 0.010535319 -0.0148765175
0001e0 35 ae 5a bc f3 d6 5d 3c da 18 4d 3b 70 ab 6c 3c
       -0.013347198 0.013540017 0.003129533 0.014445171
0001f0 ea 72 15 3c a7 00 bd bb ed 47 8b bc 01 8d ea 3b
       0.009121636 -0.0057679 -0.01700207 0.0071579223
000200 df 51 4d bc ff da 4d 3b 0f 98 4e bc 9a ba 45 3b
       -0.012531727 0.003141105 -0.012609496 0.0030171038
000210 9f a2 b8 3c 5f e1 b4 bb 30 e8 08 bc 8e ce 70 3c
       0.022538481 -0.0055200304 -0.008356139 0.014697684
000220 dc b6 fe ba cd cb ca 3c c4 68 96 bc 9a 2a 7f 3c
       -0.0019433158 0.024755383 -0.018360503 0.015574122
000230 9b b2 e2 bc 8a 9e 6c 3c 92 9f 53 bb 09 9e a8 bc
       -0.027673056 0.0144420955 -0.0032291156 -0.02058317
000240 f5 8f 0f bb 66 97 6b 3c 56 ae c7 b9 7e 81 52 bc
       -0.0021905873 0.014379358 -0.00038086128 -0.012848256
000250 3e f5 cf bb 94 33 8c bb 16 c3 d2 bb d3 57 50 bb
       -0.006346374 -0.0042786095 -0.0064319475 -0.0031790629
000260 5e 3c 07 3b c5 be 2f bc 9c 55 27 bc 0c 90 d7 bc
       0.0020635347 -0.010726635 -0.010213282 -0.026313804
000270 03 9e 11 ba 57 83 bf bb 58 2a eb 3c 34 09 19 bc
       -0.00055548566 -0.0058445144 0.028706715 -0.009340573
000280 1a 02 42 3c 4c f0 37 bc a4 d0 93 bc 95 da 32 3c
       0.011841321 -0.011226725 -0.018043824 0.010916372
000290 23 d4 ae 3b 76 3d fa ba 27 9d ae bc a3 c3 7d bb
       0.0053353473 -0.0019091803 -0.02131517 -0.0038721345
0002a0 f9 34 92 3c 08 44 92 3c 69 ca df 39 4f 9c 2f 3c
       0.017847525 0.017854705 0.00042684682 0.010718419
0002b0 ad 5f b2 3b 9c d8 d3 38 0f b0 0b bd 47 b0 03 3b
       0.0054435343 0.00010101611 -0.03410345 0.0020094083
0002c0 d0 76 bd bb 29 82 a7 3a 2b e3 07 bd 5e 1e 8a 3b
       -0.005781986 0.001277988 -0.03317563 0.004215046
0002d0 4d 62 4b 3c eb fa c5 3c ae e9 fa 3c 06 89 92 3c
       0.012413573 0.024167499 0.030629005 0.017887603
0002e0 46 5b ea ba 18 44 a6 3c 06 49 d9 bb 5e 93 e8 bb
       -0.0017879985 0.020296142 -0.0066310195 -0.0070976457
0002f0 60 75 be 3b 11 dc f9 bb 3a 09 2d bc 2c 12 82 3c
       0.005812332 -0.007625111 -0.010561282 0.015877806
000300 ae 3e 9e 3a 5e 6a fd 3a 29 32 88 bc 92 b4 30 3b
       0.0012073123 0.0019334068 -0.01662548 0.0026963097
000310 98 24 90 bc 6e 30 89 ba e9 a5 b4 3c ba 1c 15 3b
       -0.017595574 -0.0010466704 0.022051768 0.0022752718
000320 87 00 0c bc 0e df 94 bb 1a 15 23 bc 23 91 07 3b
       -0.008545048 -0.0045431918 -0.0099537615 0.0020685873
000330 6e 09 83 bc 94 9a 7e bc 8c 9e 33 3b 69 0d 84 3c
       -0.015995707 -0.015539784 0.0027407734 0.016119676
000340 02 4d 63 bc be d7 00 bd 7f c8 ad bc 34 68 72 3b
       -0.013873341 -0.031455748 -0.021213768 0.003698838
000350 e8 29 b1 3b 1b 14 84 3b e1 79 e6 bc 5c ee cd bb
       0.005406607 0.004030717 -0.028134288 -0.006284518
000360 1d 7d 59 bc dd bf 1d 3b 58 6e 21 bc 5a 27 5e 3b
       -0.013274458 0.0024070658 -0.009852968 0.0033897967
000370 9b f0 92 3c 57 9d 90 3b f6 7b 7f bc c8 53 2d 3a
       0.017936995 0.0044132876 -0.015593519 0.00066119106
000380 3c 14 5e bc 08 82 85 bc 92 6d ef 39 58 2c 27 bc
       -0.013554629 -0.016297355 0.0004566727 -0.0102034435
000390 33 b8 5f bc 40 7b d6 bb 1a 5f 84 bb 20 8b 5a bc
       -0.013654756 -0.0065454543 -0.0040396573 -0.013338834
0003a0 ae 27 db bb f7 0b 31 3b d4 e8 6e bc e3 10 35 3b
       -0.00668808 0.0027015188 -0.014581878 0.0027628473
0003b0 3d 02 3c bb b1 c4 cf b9 11 7b d0 bc 03 ff 96 bc
       -0.0028687858 -0.00039628663 -0.025449308 -0.018432146
0003c0 73 24 c5 ba 06 27 cb b8 3e 36 20 bc d5 83 c4 3c
       -0.001504077 -9.687063e-05 -0.009778557 0.023988644
0003d0 28 fd 16 ba ac 71 8a bb 5d 8b dc 3c a9 e3 a6 bb
       -0.0005759769 -0.0042249765 0.026921922 -0.005093057
0003e0 b7 43 38 bc 30 61 eb ba d9 67 0a 3a 4a 49 87 bc
       -0.011246613 -0.0017958041 0.0005279757 -0.01651444
0003f0 5c ba 73 bc 47 dd 89 bb 76 d3 de bc 64 39 dc ba
       -0.0148759745 -0.0042072865 -0.027200442 -0.0016801772

action_model._discrete_distribution.branches.2.bias f4 [2]
000000 d2 e9 a7 3c d4 e9 a7 bc
       0.020497236 -0.02049724

action_model._discrete_distribution.branches.2.weight f4 [2, 256]
000000 56 5a c4 bb fd ee a8 bb 0b 8b e7 bc f6 61 95 bb
       -0.005992214 -0.0051554427 -0.028264543 -0.004558797
000010 9c 8f b0 bb 1d 0a 16 bc 80 69 2c bc 4d 04 c8 3c
       -0.0053882133 -0.009157685 -0.0105232 0.024416113
000020 ef 1f ba 3c 61 7f 1c 3c e2 36 d6 3b b6 0b 5a 3c
       0.022720305 0.009551854 0.0065373043 0.013308456
000030 af 62 b7 3c fd 83 18 3c 66 52 80 bb e7 df 7d 3c
       0.022385923 0.009308812 -0.0039160727 0.015495277
000040 30 19 f0 3b 15 fb b0 3a 3f 75 6e 3b f6 0e 10 3d
       0.0073272213 0.0013502563 0.0036385802 0.035170518
000050 b9 e5 00 3d 77 29 1e bc 83 b5 db bc 38 70 63 bc
       0.03146908 -0.009653441 -0.02681995 -0.0138817355
000060 f6 e2 14 3d 02 38 ab 3c 04 cd aa bc ce 6b 9a bb
       0.03634926 0.02090073 -0.020849712 -0.0047125584
000070 8e 95 a5 bb b4 81 ad 3a 86 f2 32 3c 20 57 d1 3c
       -0.0050532287 0.0013237507 0.01092208 0.02555424
000080 6e 80 ba bc eb 17 0b 3c 67 77 3a bc 56 60 b0 bc
       -0.022766318 0.008489589 -0.011381007 -0.021530312
000090 d6 4b b1 bc af f4 0a 3c 6d 31 81 3c fb f9 5b bb
       -0.021642607 0.008481189 0.015770638 -0.0033565748
0000a0 7a e4 af bc 74 63 8e 3b da ac 84 3b dd 88 f2 bb
       -0.02147125 0.004345352 0.004048926 -0.0074015693
0000b0 69 3e 4b 3c 63 ef 3b 3c a2 89 86 bc 89 4d 72 3c
       0.012405016 0.011470648 -0.01642305 0.014788994
0000c0 c1 4d 33 bc 46 8f d8 3c 33 92 81 bc b3 7c 70 3c
       -0.010943831 0.026435506 -0.015816784 0.014678168
0000d0 f7 d0 b5 3b 6e 33 04 bd 43 26 ad 3c c2 09 95 3b
       0.005548592 -0.03227561 0.021136409 0.0045482824
0000e0 ed 5e 55 bc ab d6 c2 3c 92 f3 48 3c 85 f3 c0 bc
       -0.01302312 0.023784002 0.012265103 -0.02355362
0000f0 b7 f1 00 bc fe 6d 91 3a b8 8d 90 3c f3 a9 90 bc
       -0.007870129 0.0011095402 0.017645702 -0.017659163
000100 bc 5f c6 3c e8 fe fe 3c 5d e2 a8 bc ca ac dd 3c
       0.024215572 0.031127408 -0.02061575 0.027059931
000110 4f be d3 3c b3 71 3c bb 38 a0 e7 3c 20 32 d2 bb
       0.025847582 -0.0028754293 0.02827464 -0.006414667
000120 1c a2 4f 3c cd 20 4c bc d0 67 b6 3c d3 29 59 3b
       0.012672927 -0.012458992 0.022266299 0.0033136501
000130 6e 41 9c 3c 42 95 2d bc b0 61 0a 3d 41 2e b7 3c
       0.019074168 -0.010594668 0.03378457 0.022360923
000140 b5 4f 1e 3c 0c 2e 89 3c e0 35 a7 3c 5b 9b 24 3c
       0.009662558 0.01674559 0.020411432 0.010046805
000150 c5 9b 85 bb 88 f1 94 3c 99 b8 79 3c fd 57 d1 3c
       -0.004077407 0.018181577 0.015241765 0.025554651
000160 1c 8f 3a 3c 7a 94 a2 3c bf f3 38 ba 93 56 a7 3b
       0.011386659 0.01984619 -0.0007055364 0.005106756
000170 8a 75 a7 3c 8a 89 59 3c 00 c8 04 bd e5 ff 96 bc
       0.02044179 0.013277421 -0.032417297 -0.018432567
000180 46 41 32 3c 67 f6 2d 3c 30 64 3a bb 03 21 c7 bb
       0.01087982 0.010617829 -0.0028441064 -0.0060769334
000190 f0 4f 0f bd ef b9 7e bc 13 86 19 3c be 8a d0 3c
       -0.034988344 -0.01554726 0.009370345 0.025456782
0001a0 a5 2f 0d 3c 11 b3 11 3d b9 03 c1 3b 74 3d ad 3c
       0.008617316 0.03557116 0.0058903364 0.021147467
0001b0 f4 d1 27 ba 2c 98 58 3c e3 84 85 3b 8c 36 c8 bc
       -0.000640183 0.013219874 0.004074679 -0.024440072
0001c0 5c fd 21 bd 29 e3 07 3c ed 20 1e bc 1d 64 b5 3b
       -0.039548263 0.008293905 -0.009651405 0.005535616
0001d0 6b e3 10 3c e6 0c 09 3d f7 55 82 3c 8e 9a 7a 3a
       0.008843283 0.033459567 0.015910132 0.00095597736
0001e0 69 3f 2d 3c ef 29 88 3c ee 56 0a 3c c4 d3 d2 bc
       0.0105742 0.016621558 0.008443577 -0.025735743
0001f0 c0 d6 9d 3c e3 96 3c 3c 3d 8c 3f bc aa 3f 15 bc
       0.01926744 0.011510584 -0.01169115 -0.009109417
000200 f8 69 1c 3c 65 b3 8a bb ac 2f 46 3c 5b 5b 83 3c
       0.009546749 -0.0042328113 0.012096327 0.016034773
000210 a4 e9 e1 bb 2b 85 a2 3c 15 88 9a 3c d4 4e 0a 3d
       -0.006894307 0.01983889 0.018863717 0.033766583
000220 7d 4d 1d bd 28 ab c7 3c 72 8f ca bc 6f 9a 1a 3c
       -0.038403977 0.024373606 -0.024726603 0.009436234
000230 a6 fe 04 bd 93 77 ed 3c e6 e8 07 bd 6e 55 33 3c
       -0.032469414 0.028987681 -0.033181094 0.010945661
000240 2d 94 89 3c c5 11 97 3b c0 bc 47 3c d1 16 bb 3c
       0.016794289 0.0046102726 0.012190998 0.022838028
000250 4c 91 4c 3c b6 fb a3 bc 02 3e 8b 3c 4a 57 b4 3c
       0.012485813 -0.020017486 0.016997341 0.022014279
000260 f5 3e b1 bc 07 1a 60 bb 1b 1e aa 3c aa d1 3e 3a
       -0.021636466 -0.00341952 0.020766309 0.0007279167
000270 97 ec 00 bd 58 19 64 bb ef c9 80 3b 17 ca 35 3c
       -0.03147563 -0.0034805145 0.0039303224 0.011095545
000280 3a 41 a2 3c a1 61 7c 3b ce 71 aa 3c eb 66 1e 3c
       0.019806493 0.003851034 0.02080622 0.009668092
000290 74 dc 87 3b df 84 0c ba 5d 08 65 3b cc 00 24 bc
       0.004146153 -0.00053603755 0.0034947612 -0.010009956
0002a0 c7 10 b2 3b 03 af 3b bb 6d 44 0d 3c 8c 8b 12 3d
       0.005434129 -0.002863825 0.008622271 0.035777614
0002b0 e9 75 a9 bb c0 28 2a 3c 9c 9c b8 3c d0 31 4f 3c
       -0.0051715267 0.010385692 0.022535615 0.012646154
0002c0 79 10 17 3c 02 5a 91 3c b9 e0 76 3c f4 18 0d 3c
       0.009220236 0.017743114 0.0150682265 0.008611906
0002d0 e3 85 01 3b 60 a8 1d bc f3 d6 eb 3c bf d5 49 3a
       0.001976364 -0.009622663 0.02878902 0.0007699392
0002e0 88 e6 86 bc 65 ca 90 3c 20 b9 7f 3c 48 b3 ba 3c
       -0.016467348 0.017674634 0.015608102 0.022790566
0002f0 dc d5 5f 3c ca 87 38 bb 8f f2 ee bc 33 1d 32 3c
       0.013661828 -0.0028157108 -0.029168395 0.010871219
000300 46 bb 9a bc 1d 6d b3 bc 92 0c d3 3c 80 74 98 3c
       -0.018888127 -0.021902615 0.02576283 0.018610239
000310 00 4f 81 3b ad f3 1d 3a a7 5c d4 3c ee 8b a9 bb
       0.003946185 0.0006025385 0.025923086 -0.0051741516
000320 a0 08 a6 3c e5 17 d5 3c 11 14 8d 3b 0a d4 7e 3c
       0.020267785 0.02601237 0.0043053706 0.015553484
000330 16 ad 12 3c e9 8f a0 3c cb 46 8f bc 81 9d 64 3c
       0.0089524 0.019599872 -0.017489811 0.0139535675
000340 9f b6 ac 3c 31 19 2d ba bd a8 73 3b e1 7b e6 3c
       0.021083174 -0.000660318 0.0037179433 0.028135242
000350 b2 32 ad 3c d1 ec d7 bb 24 a8 b0 bb 12 db f6 bb
       0.021142337 -0.00658951 -0.0053911377 -0.0075334394
000360 8f 6b f2 3b 91 85 41 bc 8c b4 fe 3a 20 b7 80 3b
       0.007398076 -0.01181163 0.0019432469 0.00392808
000370 04 d6 81 3c 62 85 4b bc 4a 38 a8 3c 67 07 4d 3c
       0.01584912 -0.012421938 0.020534653 0.012513972
000380 da 20 b5 3b af a7 16 3c 1b 26 37 3c d7 38 8b 3c
       0.005527598 0.009195252 0.011178519 0.016994877
000390 ec 0f fe 3b ef 55 6d 3c db 05 21 bc c3 94 98 3c
       0.007753363 0.01448582 -0.009828056 0.018625623
0003a0 94 82 bd 3c d5 fb d7 3c ed d5 9b bb 22 99 66 bb
       0.023133554 0.0263652 -0.0047557265 -0.003518649
0003b0 13 05 4e 3c 18 fa 13 3c c2 11 cd 3b ca 29 d6 bc
       0.012574452 0.009031795 0.0062582204 -0.026142973
0003c0 98 cb 52 bb d3 de 9a 3c fa 8f b9 3b cc 5c 7f 3b
       -0.0032164808 0.018905079 0.0056629153 0.0038965223
0003d0 72 c4 37 bc c6 fd 87 bc cd d4 49 3c 83 92 a0 3c
       -0.01121627 -0.0166005 0.012318802 0.019601112
0003e0 36 d6 11 bd 53 09 bb 3c 8a c0 a5 bb 91 0c 76 bc
       -0.035604678 0.022831595 -0.005058353 -0.0150176445
0003f0 d1 47 d5 bb 2e 83 c6 bc 20 df 76 bc 61 51 9a bb
       -0.0065088053 -0.024232473 -0.015067846 -0.004709408

discrete_action_output_shape f4 [1, 3]
000000 00 00 20 41 00 00 00 41 00 00 00 40
       10.0 8.0 2.0

network_body._body_endoder.seq_layers.0.bias f4 [256]
000000 5d c1 24 3c 91 1d af 3a 45 80 a2 3b 4b c5 24 bc
       0.010055867 0.0013360252 0.0049591386 -0.010056804
000010 8a 74 e6 3b cf 74 0b 3b 98 5d f2 bb c8 33 54 3a
       0.0070329355 0.002127934 -0.007396411 0.0008094874
000020 3d c9 28 3c 47 51 f5 bb cc b0 62 3b 4e 3d 52 3b
       0.010301885 -0.0074864957 0.0034590242 0.0032079997
000030 3e 8c c8 ba 44 d5 2a bb 2e 9e 46 bc 56 7c 6a bb
       -0.0015300584 -0.0026067058 -0.012122674 -0.0035779676
000040 65 9c 26 3c 91 98 ff 3a 37 22 b1 3b 10 34 0f bc
       0.010169123 0.0019500424 0.00540569 -0.00874044
000050 e5 58 9f 3b cd 03 c4 3b 1a c3 15 3c cd cd 52 bc
       0.004862892 0.0059818984 0.009140754 -0.01286645
000060 27 65 ee 3b ef 64 0d bc 81 b3 e7 bb 91 d2 85 ba
       0.007275242 -0.0086300215 -0.007070959 -0.0010209848
000070 f6 07 00 bc db f9 9c 3a 75 69 d2 3c a7 ce 25 3c
       -0.007814398 0.0011976318 0.025685051 0.010120071
000080 91 45 29 3b d1 2c bb 3c fc c5 08 bb 53 b2 17 bc
       0.0025828818 0.022848519 -0.002086996 -0.009258824
000090 df f6 f3 3a 89 41 92 bc 2a 18 bc bb c7 e8 d6 ba
       0.0018613002 -0.017853515 -0.0057401853 -0.0016396277
0000a0 ef 0b 83 bb 25 e8 dc 3c 33 4b 36 3b 17 55 75 bc
       -0.0039992253 0.026966164 0.0027815818 -0.0149739
0000b0 9f 6e 89 3c 06 69 58 3b 1f c4 9b 3c ca 48 c1 3b
       0.016776381 0.0033021583 0.019014416 0.0058985697
0000c0 1b 3b 6a bc 61 4a 35 3c ec 71 91 bb b5 e4 10 bc
       -0.014296318 0.011065097 -0.0044386294 -0.0088435905
0000d0 51 7a b7 bb cf 70 20 39 78 82 53 3c e1 10 42 bc
       -0.005599298 0.00015300814 0.012909524 -0.011844845
0000e0 d9 ab 52 bc 4c 1c 72 bb 9e be 93 3b 05 b2 dd 3c
       -0.0128583545 -0.0036943136 0.0045088073 0.027062425
0000f0 56 95 d3 bb c1 dc 5a bb 20 c5 23 3b d2 a3 1a 3b
       -0.006457011 -0.003339574 0.0024989322 0.002359618
000100 be f7 ba bb ba be bb 3b 3f 22 9e 3b f5 ce 6b bc
       -0.0057058027 0.0057295235 0.00482586 -0.014392604
000110 8d 8b 54 bb a1 4b 92 bb 32 25 0e 3c 7d 7e 28 bc
       -0.0032431812 -0.004464582 0.00867586 -0.010284063
000120 5f f8 37 3c 13 b2 27 bc a1 9a d6 39 63 c7 b5 3c
       0.01122865 -0.010235327 0.00040932468 0.022189802
000130 41 d5 81 bb 04 8a 58 bc 8f 9b 57 3c 39 bc 91 bc
       -0.0039621894 -0.013216499 0.013159647 -0.017789947
000140 ff 2a b8 3c e4 cc 62 bb 81 63 29 3c 5f 8b d3 3a
       0.02248144 -0.0034606988 0.010338665 0.0016139558
000150 03 f9 ce 3a 31 53 c4 bc 4f 8f 78 bc 06 9c 23 bc
       0.0015790764 -0.02396545 -0.015170886 -0.009985929
000160 04 cb 62 bc b3 1b ac 3c f7 06 f7 3c a4 97 3e 3c
       -0.013842348 0.021009302 0.030154688 0.011632834
000170 43 eb 57 bb ca d8 0c 3c 1e 8a 08 3b e6 61 a2 bb
       -0.0032946623 0.008596608 0.0020834277 -0.004955518
000180 eb 34 e3 ba ad 00 1c bc 3b 6e e6 ba 94 86 da 3b
       -0.0017334496 -0.0095216455 -0.0017580459 0.006668875
000190 37 e0 4d bc 4e 7f 79 3c 00 68 b0 3a 27 16 05 3c
       -0.012565664 0.015228106 0.0013458729 0.008122957
0001a0 f6 c7 f0 3b f4 a3 be 3b 5d 7d 75 3b 01 d1 13 3c
       0.007348056 0.0058178846 0.0037458756 0.009021998
0001b0 f4 2f 82 3c 9e 23 da bb 72 0c 43 bc 9d 28 35 bc
       0.015892006 -0.006657078 -0.011904823 -0.011057046
0001c0 07 e3 8c bc a5 68 82 bc 82 83 a0 3b db b4 be 3c
       -0.017198099 -0.015919039 0.0048984895 0.023279598
0001d0 5d fa 6f bc 95 d2 12 3b b5 54 48 3b 39 23 24 3c
       -0.014647094 0.0022403349 0.0030568067 0.010018163
0001e0 6c b6 69 bb 02 c6 5f bc 6c 8d d1 3b 0f e7 79 bc
       -0.003566171 -0.013658049 0.0063950326 -0.015252843
0001f0 ae 2a 27 ba cd 51 db 3b 7b ed 32 3c d2 da b9 3c
       -0.0006376904 0.006693101 0.010920878 0.02268735
000200 39 28 85 b9 22 b7 80 3b 4e 0a ca bb 6b b5 4f bc
       -0.00025397705 0.003928081 -0.006165779 -0.012677531
000210 79 3a 09 bc 92 0f a1 bb bd 52 2e bc 01 97 df ba
       -0.008375757 -0.004915186 -0.0106398435 -0.0017058552
000220 d7 69 14 bc f7 d6 1f bc 49 6b cb 3c 9c 66 a7 bb
       -0.009058437 -0.009755841 0.024831431 -0.0051086675
000230 78 ec 71 bb cb dd 75 3b 83 26 c4 ba a9 95 a3 37
       -0.0036914628 0.0037516232 -0.0014965091 1.9500805e-05
000240 35 83 3a bc 11 f0 b8 3c 21 da a1 bb 59 5e 92 3b
       -0.011383821 0.02257541 -0.004939333 0.0044668135
000250 95 b2 02 3b bb 2c 97 3c dd d6 29 bc 65 24 c2 3b
       0.001994287 0.018453946 -0.010366169 0.0059247487
000260 d6 d8 0d ba 9d fb 0a 3c 1e a3 0c bc fa 1c 70 3c
       -0.0005411034 0.008482841 -0.008583812 0.014655346
000270 d0 f6 a3 3b 3e 7c 11 3b be 06 00 bc f8 7d ad 3b
       0.0050037876 0.0022199298 -0.007814107 0.0052945577
000280 73 91 15 bc 1e dc 4b bc a3 89 94 bc 7e 1a 90 bb
       -0.009128916 -0.012442617 -0.018132037 -0.0043976894
000290 40 bd 3c bc ac 68 0b bc b6 d4 59 bb ec 39 c6 bb
       -0.01151973 -0.008508842 -0.0033238358 -0.0060493853
0002a0 4e 58 22 3c 2a ca bc 3a cf 83 0b 3c 84 a1 a8 3c
       0.009908749 0.0014403511 0.008515312 0.02058483
0002b0 82 ec 85 bb 52 91 68 bc 22 78 8a bb ce 5a 42 3c
       -0.004087032 -0.014194803 -0.0042257467 0.01186247
0002c0 3e d0 b2 bb be d2 16 bc 50 42 c9 ba d9 1e 6b bc
       -0.0054569533 -0.009205518 -0.0015354846 -0.014350616
0002d0 a4 16 25 3c 3e dc d5 3b 36 e9 aa bc c4 35 bd bb
       0.010076199 0.006526499 -0.020863157 -0.0057742316
0002e0 87 ee 28 3b 67 ed 2a 3c fd a8 70 3c 96 8b aa 3b
       0.002577694 0.010432578 0.014688727 0.005204628
0002f0 31 fe 60 bb d6 ba 75 bb 36 6d 5d 3c 05 1c 09 bc
       -0.0034331197 -0.0037495396 0.013514807 -0.008368497
000300 86 ce 00 bc ae e5 03 bc 47 89 8d 3c 56 b1 bf bb
       -0.007861739 -0.008050365 0.017277373 -0.0058499975
000310 70 54 9f 3c eb fb 4b 3b 7b 20 95 ba aa 50 0a bc
       0.019449443 0.0031125497 -0.0011377478 -0.008442083
000320 f8 0c 53 3b 72 f4 ac bb 38 24 a7 bc ab 3b 80 ba
       0.0032203775 -0.0052781636 -0.020403013 -0.0009783407
000330 c4 a9 d4 3c 8b b8 dc 3b 0e 35 d8 3b a5 3d e4 3a
       0.025959857 0.0067358664 0.0065981215 0.0017413391
000340 6a d3 bb bb 21 c6 d9 3c 1f 9e 74 b9 ee 4f b9 3b
       -0.0057319896 0.026583733 -0.00023328558 0.0056552803
000350 47 47 19 3c da d3 81 bc fd f5 bd bb 1d 2e 26 bc
       0.009355373 -0.015848089 -0.0057971464 -0.01014283
000360 01 87 02 ba eb 19 cb 38 77 6a 78 3b 16 12 12 3b
       -0.00049792236 9.684622e-05 0.0037905255 0.0022288612
000370 f9 36 16 bc 1d 99 fc 3a 90 a8 ff 3b 4e 99 52 bb
       -0.00916838 0.0019271706 0.0078020766 -0.0032134834
000380 63 08 13 3c fe 9b df 3b 4d 65 3b ba 1b 00 b0 bc
       0.0089741675 0.0068240156 -0.0007148579 -0.021484425
000390 be a4 97 ba e7 cf 31 3c 9e 60 07 bb eb 66 ee 3b
       -0.0011569483 0.01085279 -0.0020656954 0.0072754524
0003a0 3d 6e 56 bb a2 9c 0b bc b0 a2 95 bc 7f 09 05 ba
       -0.0032719516 -0.008521231 -0.018266052 -0.00050749624
0003b0 74 9b 55 3b 84 d1 46 bb 15 4f 99 3c ae 88 b7 bc
       0.0032593878 -0.0030337283 0.018714467 -0.022404041
0003c0 98 5d b5 3b d5 a2 bc 3b 0a 51 10 3b 87 00 e7 3b
       0.005534839 0.005756716 0.002202096 0.0070496234
0003d0 76 81 03 bc 5a 29 a4 3c 4f 45 53 3c 10 ca 83 bb
       -0.008026471 0.02003925 0.012894942 -0.0040218905
0003e0 11 13 b2 3b 09 e1 e0 bb 68 ba e9 39 b4 f7 86 bb
       0.005434402 -0.006862764 0.00044580107 -0.004118884
0003f0 a9 a9 5b bc fe 43 8b 3b 69 73 8e 3b 4e 71 bd bc
       -0.013407149 0.0042500487 0.004347254 -0.023125317

network_body._body_endoder.seq_layers.0.weight f4 [256, 94]
000000 5a e0 9e bb e8 7b 34 3e 84 2a 93 3d 84 ec 0c 3d
       -0.004848522 0.17625391 0.071858436 0.034405246
000010 59 70 33 be a3 64 f6 3b 5a 55 f5 3d 20 5b 33 be
       -0.17523326 0.007519321 0.1197917 -0.1751523
000020 5b 5e 24 3d 3f 85 b5 3b d1 66 d4 bc 5b ec 64 bd
       0.040129047 0.005539566 -0.025927933 -0.05588947
000030 d7 60 8a 3c 26 71 82 3b 67 b0 50 bc 6f 2c 92 3c
       0.01689188 0.0039807735 -0.01273737 0.017843453
000040 5a 8e 06 3e a1 95 08 3e b7 74 d7 3c 88 30 76 3d
       0.1314024 0.13338329 0.026300771 0.060104877
000050 ae 1c 00 be 6c 18 95 bd f3 9e 09 3e 79 38 df bd
       -0.1251094 -0.07280049 0.1343954 -0.10899443
000060 a6 7a a8 3d bd 67 da bc e9 27 fe 3c d2 ac 86 3c
       0.08226518 -0.026660794 0.03102489 0.016439829
000070 30 80 8d 3c 93 fa d4 bd 15 97 6b bd ba 41 a9 3c
       0.017273039 -0.10399356 -0.05751713 0.020661224
000080 2e 2d bd 3d 67 73 35 3d bc bf 08 be 5f 25 a1 3d
       0.09237133 0.04429951 -0.13354391 0.07868456
000090 91 12 10 3e be d7 04 be f1 f0 81 bc 5a ef 2d bd
       0.14069583 -0.12972924 -0.01586196 -0.04246459
0000a0 8c 91 29 3e d9 97 92 bc 50 96 fe bc 6c 15 c7 3d
       0.16559428 -0.017894672 -0.031077534 0.09720883
0000b0 30 97 3e bd 54 59 66 bd 7f 2d 83 3b c0 6e 16 3d
       -0.046530902 -0.056237534 0.0040032263 0.036726713
0000c0 27 23 7c bd 06 8a 62 bc af 75 26 be 56 c5 de bd
       -0.06155696 -0.013826853 -0.1625583 -0.108774826
0000d0 96 57 51 bd d0 ad fd bd 46 c9 70 be 32 09 52 bc
       -0.05110892 -0.12386668 -0.2351428 -0.012819575
0000e0 32 98 f9 bc 4a b0 b5 3d 67 bd ee bd 95 d4 be 3d
       -0.03046808 0.08871515 -0.116572194 0.093178906
0000f0 b8 fc 6d bd 8f 48 94 bc dc 13 04 3e 09 a1 9f bc
       -0.05810234 -0.018101005 0.12898201 -0.019485967
000100 1e 5d e8 bd b4 bb d6 bd 08 b0 9f bd 72 0c ef 3c
       -0.11345886 -0.1048502 -0.07797247 0.02918074
000110 ba d5 77 3d fc e4 1d bd f8 0f 90 3a 87 36 92 3d
       0.06050656 -0.038548455 0.0010991087 0.071393065
000120 9f c5 20 3e 7a ef 04 3e 37 78 31 3e 98 1c 08 3d
       0.15700386 0.12981978 0.17331015 0.033230394
000130 94 30 fe 3b c7 2b 76 3d 17 ed 80 3d ed 2d 52 bd
       0.007757256 0.060100343 0.06295221 -0.05131333
000140 47 58 ed 3d 5a 63 68 3a 41 83 00 3d 41 98 d0 bd
       0.11589103 0.0008864902 0.031375173 -0.1018529
000150 7c 53 8f ba 55 e2 01 be ce b3 f6 3b 69 62 ea bc
       -0.0010934914 -0.12683995 0.0075287586 -0.028611379
000160 19 36 f9 3c bd 94 21 3d ee ce cf bd e4 5b 38 3e
       0.030421304 0.03944849 -0.101468906 0.18003803
000170 4d 43 e8 3b 11 56 10 bd 44 cc 88 bd 8f 4c 3e 3d
       0.007088101 -0.03523833 -0.066795856 0.04645973
000180 d8 ab 44 bd 2c d2 f9 bd 85 cc 92 3b 0b 30 68 3d
       -0.048015445 -0.1219829 0.004479947 0.056686442
000190 0b f8 33 be 39 e3 cd 3d eb 9f e8 bc a3 9e 91 3c
       -0.1757509 0.10053105 -0.028396567 0.01777584
0001a0 ca f1 05 bd bd bf 92 3d 75 c9 05 bd 7a 97 f8 3d
       -0.03270129 0.071654774 -0.032662828 0.12138267
0001b0 05 e9 2a bc 57 76 d9 3d 36 5b 04 be 45 27 28 bc
       -0.010431533 0.10618275 -0.12925419 -0.010263269
0001c0 8c cc 8e 3c c2 df 7c 3d 95 0b 92 3c b4 d8 2e bd
       0.01743152 0.06173683 0.017827788 -0.042687133
0001d0 5c 3b dc 3d da 5a 40 3c 5a 2b c6 3d 52 1f 15 3d
       0.107535094 0.011740411 0.096762374 0.036406823
0001e0 af 80 c5 bd 3f 1a c6 bd 3d fb a4 3d f9 81 be 3d
       -0.09643685 -0.09672975 0.080557324 0.09302134
0001f0 75 03 86 3e 47 ec 87 3c 2b 1a 19 bc df fc bd bd
       0.26174513 0.016592158 -0.009344618 -0.09276747
000200 f0 99 af bb d4 f0 cb bb e1 c0 12 be 49 38 b0 3d
       -0.005358927 -0.0062237773 -0.1433139 0.086044855
000210 c4 cc e9 b9 00 c1 e0 3c 35 b9 93 be c1 f0 67 3d
       -0.00044593785 0.02743578 -0.2885224 0.056626085
000220 01 89 7c 3e c4 e1 39 bd fc 85 8e 3d 8a a8 c2 3c
       0.24661638 -0.045381323 0.06959149 0.023762006
000230 0e 44 48 bc 80 b7 b3 bc b8 4e eb bd c0 2c 5a 3e
       -0.012223257 -0.021938086 -0.11489624 0.21306133
000240 75 40 b9 bc ce 6d 46 bd 7f 39 2c 3e af 59 8a bd
       -0.022613743 -0.04844456 0.16818808 -0.06755387
000250 73 ed ed bb 78 17 f8 3d 65 78 88 bd 01 bc 3c be
       -0.007260972 0.12113851 -0.066635884 -0.18431093
000260 d8 2a 53 bd 17 71 89 3b 85 22 81 bd b2 96 f6 bc
       -0.05155453 0.0041943896 -0.06305412 -0.030101154
000270 3f 44 8e bd 15 8a 58 be 3c 4e b6 bc 81 f9 06 be
       -0.06946611 -0.21146424 -0.022254102 -0.13181116
000280 87 30 eb 3d 3c 00 f2 bd fa dc 8e bd c0 eb 50 3d
       0.11483865 -0.11816451 -0.06975742 0.05100608
000290 b8 24 9c 3d 77 32 00 bd 77 dc 25 bd f7 7c d7 bd
       0.07624191 -0.031298127 -0.040493455 -0.10521882
0002a0 7d 48 13 3e e4 eb 24 3d 17 ae a9 bd 25 f8 97 3d
       0.14383121 0.040264025 -0.08285158 0.07420377
0002b0 07 f9 8b bd 25 27 7f bd 74 5a cf 3d 32 ac 6e bd
       -0.068346076 -0.06229319 0.101246744 -0.058269687
0002c0 18 4e 40 3b ab 84 86 3d 6d 05 83 3e f1 45 41 bd
       0.0029343423 0.06568273 0.25590077 -0.047185842
0002d0 ca c0 ca 3c 39 e9 9e bd a4 1d fd 3d c0 34 4e be
       0.024750132 -0.077593274 0.12359169 -0.2013731
0002e0 51 a9 13 3e 09 05 6b bd 37 bd fc bd 55 ad 8a bc
       0.14420058 -0.05737785 -0.12340777 -0.016928354
0002f0 57 9e 27 3d a2 85 54 be 80 bf 8f 3c 10 78 e6 bd
       0.04092249 -0.20754102 0.017547369 -0.11253369
000300 6a 69 93 bd 58 86 d3 3d 46 fa b7 bd bf 94 84 bd
       -0.071978405 0.103283584 -0.08983283 -0.064736836
000310 a8 93 02 3e 1f 9e ca ba 6e e0 1c bd 1e c1 b2 bc
       0.12751639 -0.0015458501 -0.03829997 -0.021820601
000320 eb 7f ad 3d f6 3f 19 bd b7 d3 8f bc cf 49 ac bc
       0.08471664 -0.037414514 -0.017557008 -0.021031288
000330 a5 ff b0 3d 9b ed 12 3d 71 d4 89 bc 5c 75 02 be
       0.0864251 0.03587113 -0.016824933 -0.12740082
000340 fe e2 77 3d b7 d0 0f be 9b be c4 bd 9d 41 bf bd
       0.06051921 -0.14044462 -0.096066676 -0.093386866
000350 70 ee 66 bd 93 61 49 3e 87 c4 4b 3d 85 38 7f 3c
       -0.056379735 0.19666128 0.04974797 0.01557744
000360 07 49 91 bd f5 1c 14 3d cf 46 f0 bd 27 34 94 3e
       -0.07094007 0.036160428 -0.11732256 0.2894604
000370 21 3a c9 bd 6e ac 45 3d 18 9e fa bc d3 ee db 3d
       -0.0982554 0.048260145 -0.030592963 0.107389115
000380 e7 f5 23 3e 5c b6 ef 3d b4 ce 53 39 73 b2 a2 bd
       0.16011773 0.11704704 0.00020199531 -0.07944193
000390 d0 05 bc 3c 18 5e 30 3c 3b 47 d2 bd a0 b8 17 3d
       0.02295199 0.010764621 -0.102674924 0.037041306
0003a0 aa 4e 48 3d c9 5e 6b 3d f1 d1 82 bd 85 b9 a3 3b
       0.048903145 0.05746344 -0.063876994 0.004996481
0003b0 16 54 eb bd 04 28 25 3e 09 04 ae bc 2e 69 b5 bc
       -0.114906475 0.16128546 -0.021242158 -0.02214488
0003c0 90 ee 32 3e 8d 5d 06 be 7c c2 81 3c 05 30 0f 3e
       0.17473817 -0.13121624 0.015839808 0.13983162
0003d0 54 57 b4 3d 3c 36 37 bd 02 ce 7d 3d 17 51 66 bd
       0.08805719 -0.044729456 0.061964042 -0.056229677
0003e0 88 ba 51 3d c8 a0 39 3a dd 0b 81 bd 33 25 87 3e
       0.05120328 0.0007081148 -0.06301091 0.26395568
0003f0 d0 a4 b0 bd 95 5a 2c bd e0 bc f4 3d c6 e5 0a bd
       -0.086251855 -0.042078573 0.119500875 -0.033910535

network_body._body_endoder.seq_layers.2.bias f4 [256]
000000 a6 af cf bb 7b 04 3e bc 72 8e 72 3a 81 42 fd bb
       -0.0063380776 -0.011597748 0.00092527934 -0.007728875
000010 a6 38 0c 3b ca 80 9d bc 64 27 c8 ba 00 2c af 3b
       0.002139607 -0.01922645 -0.0015270528 0.0053458214
000020 78 24 b2 b9 d2 2a 3f bb 67 6d 14 3c 45 48 99 3b
       -0.00033977977 -0.002916981 0.009059287 0.0046778047
000030 94 13 cd 3b db 52 65 ba af 22 ea 3b 3c a9 b4 3b
       0.0062584374 -0.0008748003 0.007145248 0.0055133384
000040 7b 93 09 bc b2 d7 a4 bb b8 c4 3a 3a 5b 28 3a 3c
       -0.0083969785 -0.0050305957 0.00071246503 0.011362161
000050 8b 7a 17 3b c0 f1 47 3b 0a fa a7 ba 2f 81 a4 3a
       0.0023113813 0.0030509084 -0.0012815606 0.0012550707
000060 5c b4 6e 3b 41 ff 87 3a 36 e2 8f bb b4 ca 02 3c
       0.003642342 0.0010375754 -0.00439098 0.0079828985
000070 29 16 16 bc 8f 82 12 bc 12 f9 d1 ba 99 54 31 3c
       -0.009160557 -0.00894226 -0.0016019663 0.010823392
000080 70 08 19 bc ad 7e 1f 3c d4 95 1b bb 91 6f ef 3c
       -0.009340391 0.009734792 -0.0023740428 0.029228004
000090 61 4c a0 bb a6 da 7e 3a 5f 4b a9 ba 71 b2 41 bb
       -0.0048919176 0.0009721912 -0.0012916139 -0.0029555822
0000a0 f6 b5 bc 3a cb 17 3b bb 86 1b a8 ba d4 1c 6b bb
       0.001439749 -0.0028548117 -0.0012825585 -0.0035875337
0000b0 e1 49 de bb 02 07 11 3b 64 94 ea bb db 0e 4a bb
       -0.0067837094 0.002212942 -0.007158803 -0.0030831608
0000c0 e5 bd 04 3c f9 ec 2f 3c 5e cf 59 bc 79 9e f2 3a
       0.008101915 0.010737651 -0.013294069 0.0018510363
0000d0 37 ec 7f 3b 58 20 27 3c b6 e9 ee 3b be cf 66 3a
       0.0039050707 0.010200582 0.007291044 0.000880476
0000e0 fd 88 66 ba 60 11 09 3c 70 fb 08 bb 96 7d a5 3b
       -0.00087942166 0.008365959 -0.0020901822 0.0050503714
0000f0 7d fe 28 bc 8a 1e 3e 3a af 80 01 3c 5d eb d6 bb
       -0.010314581 0.00072524755 0.007904216 -0.006558819
000100 3f b0 4c 3c ea 45 9f 3a 59 49 bc bb 4a 03 f3 3b
       0.012493192 0.0012151573 -0.0057460484 0.0074161636
000110 40 91 80 3c 4e f9 92 ba 94 dc 00 3c 3e 82 74 3a
       0.01569426 -0.0011213215 0.00786509 0.0009327269
000120 d9 98 72 39 12 be d3 bb 2a fc 52 3b e1 a5 c8 3b
       0.00023135859 -0.006461867 0.0032193759 0.00612329
000130 c4 c7 c1 b9 0e 3c d4 3b 4c ec 3d 3c 4d 4c 67 ba
       -0.00036960666 0.0064768856 0.011591982 -0.00088233204
000140 59 81 25 bc 87 1a b1 bb f2 9e 7c 3b b6 dd 04 bb
       -0.01010164 -0.0054047736 0.0038546887 -0.0020273752
000150 e1 2b 25 3b a0 9b 82 bb ae bd 9b bb 41 ac 87 3b
       0.0025203156 -0.003985837 -0.004752836 0.0041404073
000160 9f 8e f2 3b 51 3c 88 3c 6f 96 87 3c ee b8 83 3a
       0.0074022557 0.016630324 0.016551225 0.001004962
000170 17 c4 06 3c a4 83 c1 bb d7 8d 87 3c c2 da 09 3c
       0.008225462 -0.0059055854 0.016547127 0.008413972
000180 0a c3 2a bb 22 fc e4 ba a6 4e 58 bc eb 4f e8 bb
       -0.0026056194 -0.0017470161 -0.013202345 -0.007089605
000190 07 d5 ea 3b c7 3e 01 bb fd f8 90 3b be 1c bc ba
       0.007166508 -0.0019721256 0.004424213 -0.0014351828
0001a0 e1 24 87 ba aa 0d 99 3c 58 27 a5 b9 5e 4d 36 b9
       -0.0010310673 0.018683273 -0.00031500566 -0.00017385694
0001b0 c5 c8 89 bb e4 c8 c5 bb de 0e 42 bb b9 ff e9 bb
       -0.004204842 -0.006035911 -0.0029610912 -0.00714108
0001c0 37 b1 b2 3b 93 99 8b bb 5a 4f 0f 39 e0 3a 80 bc
       0.0054532546 -0.004260251 0.00013667103 -0.015653074
0001d0 00 34 0c bc 34 84 a1 3c 75 24 a3 3b 7b 85 c7 3b
       -0.00855732 0.01971636 0.0049787113 0.00608891
0001e0 49 d1 b6 bb 11 e4 ab 3b 54 a1 0d bc 49 7d 64 bc
       -0.005579148 0.0052456935 -0.008644421 -0.013945886
0001f0 87 b9 73 3c df a0 73 3b cd b5 52 3b f6 1a 9a ba
       0.014875776 0.0037174744 0.0032151819 -0.0011757303
000200 2e a8 87 bb a3 ed 0c bc c2 c5 31 bb 9d de 41 3b
       -0.0041399216 -0.008601579 -0.002712593 0.002958215
000210 cd fa 5e 3b 54 a3 91 3b 11 20 f8 3b c5 4a 53 3c
       0.0034024 0.004444519 0.007572182 0.012896244
000220 57 33 4c 3c 91 58 df 3b b6 51 69 ba 22 10 f5 3b
       0.012463412 0.006815978 -0.00089004205 0.00747873
000230 d0 c2 7a 3c e9 62 df 3b f9 5c 70 3c 65 58 b5 ba
       0.015305236 0.006817211 0.014670604 -0.0013835548
000240 96 d6 4f ba 93 74 29 bc 8f 98 1e 3c cf 5b f6 3b
       -0.0007928399 -0.010342735 0.0096799275 0.0075182687
000250 41 af 7b bb fb ab 30 bc 83 8b 85 bb 85 0f 8b 3c
       -0.003840402 -0.010783191 -0.004075469 0.016975174
000260 65 4e 52 bb 9b 7d d6 3b d0 e9 6e 3c ad 4a 92 3c
       -0.0032090184 0.006545735 0.014582112 0.017857874
000270 8a 4f 0c bc d0 67 39 3b 6a 17 2f bc 59 6c 6f bb
       -0.008563885 0.0028290637 -0.010686735 -0.0036533086
000280 3e 6e eb 3a 2c 20 99 bb 14 5e 82 3a 6d 27 c7 3b
       0.0017961932 -0.0046730246 0.000994625 0.006077698
000290 46 6a ff bb 3b a6 ff bb d2 4b e7 bb e3 f4 5f bc
       -0.007794651 -0.0078017986 -0.007058599 -0.013669225
0002a0 c9 d5 c9 ba f7 63 29 3b 1b 68 63 3b a1 72 21 3c
       -0.0015398796 0.0025846937 0.0034699503 0.00985399
0002b0 2a 80 52 3a 84 dc 06 bc 93 83 61 3b f1 94 56 bb
       0.0008029962 -0.008231286 0.00344107 -0.0032742585
0002c0 9d b3 2d bb 5a 5c a9 3a 38 7e d4 bb 1b f0 63 38
       -0.0026504763 0.00129212 -0.006484773 5.4344633e-05
0002d0 96 b5 11 bc 07 64 67 bb c1 a9 af 3b b8 3c e8 bb
       -0.008893391 -0.0035307424 0.0053608124 -0.0070873164
0002e0 89 75 76 ba 84 ef 06 3c 3f f4 8e 3b 5b ab 5d 3c
       -0.00094016694 0.008235816 0.0043626125 0.013529624
0002f0 c5 93 17 3c 69 87 64 bc aa 4c 95 3c 33 7c ff 3a
       0.00925154 -0.0139483 0.018225033 0.001949197
000300 85 ba 57 bc 73 57 96 bc 7d 72 d0 3b 03 80 b4 bb
       -0.013167028 -0.018352246 0.0063613043 -0.0055084242
000310 98 fe 1c 3c 74 44 33 3b 9b 32 be 3b 33 d1 8d bb
       0.009582184 0.0027354034 0.0058043725 -0.004327917
000320 5c 06 6b 3c a6 50 c1 3b 48 4e 24 bc 19 38 38 3c
       0.014344778 0.0058995066 -0.010028429 0.0112438435
000330 fe c9 b2 3b 99 75 f0 3b 97 d7 58 bc b6 9a 3c bb
       0.0054562083 0.0073382375 -0.013234994 -0.0028778738
000340 3c 6d f4 3b 3c 75 32 3c 8d 7d 4e 3a 2d e6 30 3b
       0.007459311 0.010892209 0.0007876985 0.0026992664
000350 b7 94 46 3c 7d bf ba bb ea c7 2a 3b 98 89 2e bc
       0.012120417 -0.0056990967 0.00260591 -0.010652922
000360 a9 ea e5 ba 38 fc 05 bc 37 9e f7 bb eb 3f 23 bc
       -0.0017541248 -0.008177809 -0.0075567025 -0.00996397
000370 5f 79 72 bb 02 5e da bb 1f f3 c6 3a 40 54 58 bc
       -0.0036998612 -0.0066640386 0.0015178657 -0.0132036805
000380 06 08 92 3b db 24 17 3c 71 39 06 bc 07 8d 40 3b
       0.004456523 0.009225096 -0.008192406 0.0029380934
000390 bd cb b3 3b be 9d 42 3c 54 5e a7 3b 46 ba 24 3c
       0.005486934 0.011878429 0.0051076803 0.010054177
0003a0 3b 9e 33 3b 9a 12 4b 3c 6d 28 0e bc d5 66 b2 bb
       0.0027407545 0.012394572 -0.00867663 -0.0054443874
0003b0 7f bc 25 bb b1 38 82 bb a2 14 ba 3a 37 f6 45 bc
       -0.0025289354 -0.0039740433 0.0014196823 -0.012082628
0003c0 47 83 4a ba 5c 36 53 3b ea 0a a3 ba 24 a0 02 3b
       -0.00077252503 0.0032228446 -0.0012439166 0.0019931877
0003d0 04 34 22 3c 78 bf 99 bc 76 cb 20 ba 6a ed aa 3b
       0.009900097 -0.018768057 -0.00061338337 0.0052162902
0003e0 5e 0e 81 3b 02 4d 03 bc e5 62 43 bc ef b6 10 bc
       0.0039384803 -0.008013966 -0.011925434 -0.008832677
0003f0 8b 5b 60 bc b0 dc 14 3c ec d2 b5 3b fa 9c d4 ba
       -0.013693701 0.009085819 0.0055488255 -0.0016221099
