results/Islands/Islands/Islands-499996.onnx (onnx, 482155 bytes, 9 tensors)

action_model._discrete_distribution.branches.0.bias f4 [25]
000000 37 50 b1 3d af cf af bd 6f 25 8f 3d 02 4a 28 3d
       0.08657878 -0.085845344 0.06989562 0.041086204
000010 af ef 7d 3d e5 a3 38 bb 4a 61 bf 3c 57 6f c7 bd
       0.06199616 -0.002817386 0.02336182 -0.09738033
000020 1c 4a 7d bd 24 8c 07 3e bc 1a ea 3d 1e 36 1c 3c
       -0.061838254 0.13237053 0.114308804 0.009534387
000030 84 f6 1e bd d8 a7 94 3d cf 00 03 3e 73 bd 1d 3d
       -0.038809314 0.07258576 0.12793277 0.03851075
000040 dc 7c b6 bc 78 47 78 3d de 88 81 bd c6 76 99 3c
       -0.022276334 0.060615033 -0.063249335 0.018733393
000050 f7 ea cf bd b4 52 f0 3c a4 11 e6 bb 42 09 2e 3d
       -0.10152238 0.02933631 -0.007021146 0.042489298
000060 f2 34 0a bd
       -0.0337419

action_model._discrete_distribution.branches.0.weight f4 [25, 256]
000000 20 06 12 be f7 4f 47 bd 3c c3 82 bd b9 16 bc bc
       -0.14260149 -0.048660245 -0.06384894 -0.022960054
000010 89 62 53 bb 84 9e 55 be d9 2f b0 bc e7 a7 31 3d
       -0.0032254776 -0.2086125 -0.02150719 0.043373015
000020 89 28 35 3d cd 80 86 3c be ff 2f 3d d8 5b 25 3e
       0.04422811 0.016418839 0.042968504 0.16148317
000030 13 b8 bd 3d 9b 76 21 be ef ff eb bb 38 13 82 bd
       0.09263625 -0.157679 -0.0072021405 -0.06351322
000040 d4 45 12 3d 35 0d d7 3d 5c 2c 3a bd 47 6e 16 3d
       0.035711125 0.10500566 -0.04545246 0.036726262
000050 b6 9f b3 3d be ed d5 bc a5 49 18 be 32 a3 31 ba
       0.08770697 -0.02611434 -0.14871843 -0.0006776332
000060 13 4d 1a 3e bf 0a 96 3d f9 42 2b 3c 83 c5 27 bd
       0.15068464 0.073262684 0.010452979 -0.040959846
000070 37 fc e2 3b e9 1b d2 3d c8 21 7f 3c 94 e8 b9 bd
       0.006927039 0.1025923 0.015572019 -0.09077564
000080 30 67 7b bc 83 82 83 bd 1c b6 fe bc 6b be 59 3c
       -0.015344426 -0.064213775 -0.031092696 0.013290028
000090 89 eb 20 bd 9b 00 af bc e1 9f 05 be 5d a2 a7 bd
       -0.039287124 -0.021362593 -0.1304927 -0.08185265
0000a0 eb f3 23 bb 8d cb 3a bd 62 b3 73 3d 27 22 db bc
       -0.0025017213 -0.045604277 0.059497245 -0.026749684
0000b0 78 03 60 3d 28 2f c8 3d 1a 56 99 bb df f0 c0 bd
       0.054690808 0.09774619 -0.0046794536 -0.094209425
0000c0 db 9d f3 3d 04 ef 0b 3b 9e 50 c0 3d 0a 28 71 3d
       0.11895343 0.0021352181 0.093903765 0.058876075
0000d0 a2 f5 2a bd f6 a3 ed 3d dd a5 1d bd d4 31 ab bc
       -0.04173816 0.11603539 -0.038488258 -0.020897783
0000e0 f4 80 a5 bd d2 f8 d0 3b a3 b0 91 3d 9f 42 2b bd
       -0.080812365 0.006377318 0.07113769 -0.04181158
0000f0 60 bc 2c 3e c1 a0 18 3e 11 f7 6e bd 8b 03 a4 3d
       0.16868734 0.14905073 -0.05834109 0.08008488
000100 ad ca 7d 3d d0 3e 4f bd 81 d9 2d bb 2d 13 cd 3c
       0.061960865 -0.050597012 -0.0026527348 0.025033558
000110 5f 76 8f bd 9e aa ba 3d 30 71 cb 3c 4f 69 21 3e
       -0.07004999 0.09114574 0.024834245 0.15762828
000120 d8 0a b6 bd 64 09 4f bc 15 48 d5 3d 0f 88 e0 bc
       -0.08888787 -0.012636516 0.10414139 -0.027408628
000130 d7 3d b7 3d 34 2f 51 3d 24 83 4c bb e7 cf 9f bd
       0.08947342 0.051070407 -0.0031206096 -0.07803326
000140 61 3e e2 bb 88 6d fe 3c bd e8 11 3e 45 94 6f bc
       -0.006904409 0.031058088 0.14248939 -0.014622753
000150 d7 06 a6 3d 45 c4 36 3e 1e b3 41 3d 00 93 ac bc
       0.08106773 0.17848308 0.04728996 -0.021066189
000160 58 0d cd 3d 10 67 1c 3e ab 1a 22 3e 80 47 b7 bc
       0.10012311 0.1527369 0.15830486 -0.022372961
000170 2e 7e b3 3c b2 53 af 3c 61 c9 1b be d2 9f 02 3d
       0.021910753 0.021402214 -0.15213539 0.031890698
000180 7a a5 e9 3d 2d d2 6b bd 03 7a ea bd 87 f0 e7 bd
       0.11408515 -0.057573486 -0.11449053 -0.11325174
000190 c9 7d 0c 3e 65 23 14 3d c1 35 f6 bd 81 0f 2a bc
       0.13719858 0.036166567 -0.120219715 -0.010379673
0001a0 3a 65 5b bd 21 6a 92 39 94 52 ed bd 9d 6b ac 3d
       -0.053563334 0.00027926362 -0.11588016 0.08418963
0001b0 5a 6c bd bb 1d 9b 27 3e 05 03 da 3d f6 2e cb 3d
       -0.005780739 0.16367765 0.10645107 0.099210665
0001c0 4b ef 02 3d 5e cf 96 3c 66 f6 60 3d b4 0f b4 3c
       0.03196649 0.018409427 0.054922484 0.021980144
0001d0 22 86 72 bd f8 0d 38 3d c7 62 5a 3d c2 88 88 3d
       -0.05920995 0.044935197 0.053316858 0.066667095
0001e0 58 5f d8 bc 23 60 0c bd b3 06 3c 3d 2e 5f 94 3d
       -0.026412651 -0.03427137 0.045904826 0.072447166
0001f0 96 d8 51 3b 89 e4 98 bd 9e 88 cd 3d 66 6a 49 bd
       0.0032019964 -0.074654646 0.10035823 -0.049173735
000200 76 8d f7 bc fc 73 59 3d 99 6c 17 be da d2 8f bd
       -0.030218821 0.053089127 -0.1478752 -0.070226386
000210 a6 81 70 bc 7d b5 27 bc 49 cc 09 bd c8 18 04 3e
       -0.014679348 -0.010236141 -0.033642087 0.12900078
000220 0a 9c a5 3d aa c4 28 3d 11 1f af 3d d7 98 b3 bd
       0.08086403 0.04120318 0.08550847 -0.08769386
000230 55 ae a0 bc 37 3c 87 3d 68 f9 9e 3d f3 8c a2 bd
       -0.019614378 0.06603282 0.07762414 -0.0793704
000240 3f 98 bf 3c 85 80 1a be e6 b3 ca bc 1d 62 42 3e
       0.023388026 -0.15088089 -0.024743985 0.1898274
000250 81 c0 89 bd 4e 93 68 3d 54 93 50 3e 4a 8c e5 bc
       -0.0672617 0.056781106 0.20368701 -0.028020997
000260 4e e8 c9 3d 0b a6 e0 3d 64 1f 35 3e 6b 87 09 3e
       0.09858762 0.1096917 0.17687756 0.13430564
000270 eb be ed 3d 10 ea 3b 3d 5a d6 fd 3d 84 ba 3f 3d
       0.1160868 0.045877516 0.123944 0.046808735
000280 b1 0a 81 3d 0e d3 ba ba 88 78 8a 3d b0 9a 14 3d
       0.06300867 -0.0014253573 0.06761271 0.036280334
000290 ca 63 14 bd 4d 65 c9 bd de 9d 6e bd de 17 c5 bc
       -0.03622798 -0.09833775 -0.058256023 -0.024059232
0002a0 34 59 5d 3d 73 a6 35 3e 64 fe 79 bd 78 63 b5 bc
       0.05404015 0.17739277 -0.06103362 -0.022142157
0002b0 25 82 3d bd ad 59 28 bd 98 b2 0b 3d d1 f3 0d bd
       -0.046266694 -0.041101146 0.034105867 -0.03465635
0002c0 26 c9 0d 3c 23 9b 39 3d 16 40 f8 3d a9 ab 63 3c
       0.008653915 0.045313966 0.121215984 0.013895907
0002d0 4b 0e 58 3d 94 91 10 3e e2 5c 8a 3e b2 d9 50 bc
       0.052748006 0.14118034 0.2702399 -0.012747215
0002e0 b9 a3 40 bd 27 8f 19 3e b3 c0 0b 3d 34 1c 33 be
       -0.047031138 0.14996015 0.03411932 -0.17491227
0002f0 f8 a0 73 3c 8d 72 7b 3d 42 61 01 3e 88 ef b8 3d
       0.014869921 0.06138854 0.12634757 0.09030062
000300 21 dc b2 bd 96 f8 8a bd b8 f3 32 3d f9 3b 7e bd
       -0.087333925 -0.06785695 0.04368946 -0.062068913
000310 38 96 2b be 87 e2 00 3d 81 ed a8 bd 19 2f 74 3b
       -0.16756523 0.031466033 -0.08248425 0.0037259518
000320 d5 66 97 3c 4e 30 13 3e 8e 21 e2 bb c1 d7 0b 3c
       0.018481651 0.14373896 -0.0069009727 0.008535326
000330 c6 e1 0d 3c a8 a0 3e 3d 02 42 b7 3d 37 c6 fa bc
       0.008659786 0.046539932 0.08948137 -0.030612094
000340 54 96 0a bc a5 99 3a be 2a 7a 88 3a 7a b1 b7 3d
       -0.008458693 -0.18222673 0.0010412384 0.08969398
000350 07 37 ce 3b 52 a2 4f 3e 66 f6 09 bd 3d b2 bf bd
       0.006293181 0.20276764 -0.03368225 -0.09360168
000360 30 bc e0 3d 39 92 c6 3d c9 49 ae 3c f4 4e 71 bd
       0.10973394 0.096958585 0.021275418 -0.058913186
000370 4e 33 92 bc 97 68 ba 3d ff 92 2e 3d d6 d6 1b 3e
       -0.01784673 0.0910198 0.042620655 0.15218672
000380 e9 9f 14 bd 44 67 30 bb e3 0b 06 3e 22 15 a7 bc
       -0.036285315 -0.002691702 0.13090472 -0.02039582
000390 fd a4 a8 bb 68 9c d9 3c d6 f7 ab 3d 62 9c b9 3c
       -0.0051466213 0.026563838 0.0839688 0.022657577
0003a0 82 f3 bd bc 74 75 a6 3c 2e d5 2d be 29 10 93 bb
       -0.023187403 0.020319678 -0.16975853 -0.0044880104
0003b0 4b 0c b4 3c 39 2d bd 3d 4c a7 5e 3d b6 a7 23 bc
       0.021978518 0.09237141 0.054358765 -0.009988716
0003c0 25 e3 2c 3e b8 85 2b 3d d4 3a 5c bd 8a ab 2f ba
       0.16883524 0.04187557 -0.05376704 -0.00067012815
0003d0 50 e2 a5 3d f2 00 d9 3d 31 89 8e 3d 4c c3 0c bd
       0.08099806 0.105958834 0.06959761 -0.034365937
0003e0 37 11 f7 bc cd 86 4a 3d 51 00 f5 bc 92 e2 f9 3b
       -0.030159576 0.049444962 -0.029907377 0.0076258862
0003f0 b5 93 bb 3c e3 69 ed 3c 3b 42 1c 3d 7f a4 84 3d
       0.02289758 0.028981155 0.0381491 0.06476688

action_model._discrete_distribution.branches.1.bias f4 [10]
000000 27 b2 53 be 4b ef a3 bd 9e f1 af bd d1 d2 5c 3e
       -0.20673428 -0.08004626 -0.08591007 0.21564795
000010 96 2e 24 3e a6 dd a1 3e be 5b 42 3c 71 01 ee bd
       0.16033396 0.31614417 0.011862693 -0.11621369
000020 49 25 3d be b8 b6 90 be
       -0.18471254 -0.28264403

action_model._discrete_distribution.branches.1.weight f4 [10, 256]
000000 6f b3 03 3e 8f 58 45 bd 25 d7 87 bd 88 6f 20 3d
       0.12861417 -0.04818016 -0.066328324 0.039168864
000010 36 49 9e bd 8d ec 53 bd d9 48 d6 3c c0 90 3e 3d
       -0.07728808 -0.051739264 0.026157783 0.046524763
000020 3d 42 df 3d 72 31 09 3e a9 42 7c 3e a5 04 0c 3d
       0.10901306 0.13397768 0.24634804 0.034184117
000030 67 b6 bd 3d 10 73 03 3e bd da 0e bc 08 fa 97 3e
       0.09263306 0.12836862 -0.008719143 0.29682946
000040 7b fa 3a bc 84 5f 0e be 92 9c 7d 3e a4 5b 27 3e
       -0.011412258 -0.13903624 0.24766758 0.16343552
000050 c9 d4 3e 3e f7 58 56 3e f4 73 13 bd fd 8b 83 3e
       0.18635859 0.20932375 -0.035999253 0.2569274
000060 08 e4 04 3d ce 78 28 bd 98 ce b3 3d 9b aa b9 bd
       0.03244403 -0.041130833 0.08779639 -0.090657435
000070 62 bf 12 3e d6 2f a6 3d 6a af 49 3e 7c 35 76 3d
       0.14330819 0.08114593 0.19695821 0.0601096
000080 54 a1 62 3d 3e a4 84 3e 23 5f 91 3d 79 b0 38 3e
       0.055329636 0.25906557 0.07098224 0.18036069
000090 26 ea 5b 3e 8f 74 47 bd 32 5b db 3d bc 8c 8d bc
       0.2147604 -0.048695143 0.107107535 -0.017279021
0000a0 ca b3 7c bd ae aa f5 3d 88 8a 66 3e d6 02 cd 3d
       -0.061694898 0.11995445 0.22513783 0.100103065
0000b0 3d 82 e0 3c 7e 55 9c 3e 02 24 a2 3d 7a db cc 3d
       0.027405852 0.30533975 0.07917024 0.10002799
0000c0 db 90 f4 bb 2e 40 bb bc 79 58 f3 bd f2 93 55 3e
       -0.007463557 -0.022857752 -0.11882109 0.20857218
0000d0 04 69 80 3e 5d 43 02 3e 6c 80 7f bd 71 28 1d 3c
       0.2508012 0.1272101 -0.062378332 0.0095921615
0000e0 c7 31 04 be 9f 81 ae bc 40 1e ab 3e 13 59 7c 3e
       -0.12909614 -0.021302043 0.33421516 0.24643354
0000f0 94 5e 20 3e bb cf 51 3e 8f 43 9e 3d 31 9c 89 3d
       0.15661079 0.20489399 0.077277295 0.06719244
000100 fb 4a 42 3d 2b 74 f7 3c 71 d9 43 3e a3 cc b6 bb
       0.04743479 0.03020676 0.19125916 -0.005578594
000110 22 ee 28 3d 85 7a 6a bb 1c eb dc 3d 08 25 05 be
       0.041242726 -0.0035778594 0.10787031 -0.13002408
000120 e3 fa 28 3e ef 4a 00 3d f2 37 08 3e e8 dd 07 3e
       0.16501956 0.031321462 0.13302591 0.13268244
000130 d8 c4 dc 3d e3 3d 82 3d 99 da 9f 3e fa 9f 84 3e
       0.107797325 0.0635946 0.31221464 0.25903302
000140 b2 7f 89 3c 05 4e bf bd 82 fd b2 bb 79 0d d3 bc
       0.016784523 -0.09341053 -0.0054623494 -0.02576326
000150 79 1d a4 3c 81 da e8 3d 9f e9 0c 3e bf 96 62 3e
       0.020033585 0.11369801 0.13760994 0.22127818
000160 b9 fb a2 ba c3 f7 2e 3e df 4a 43 be 13 76 06 3e
       -0.0012434638 0.17086701 -0.1907153 0.13130979
000170 e6 74 2f 3e 93 67 89 bd ac 7d bc bd 08 a8 3c bd
       0.17134437 -0.06709208 -0.092036575 -0.046058685
000180 18 e6 c7 3d ae 52 ae 3d 98 b0 29 bc f5 d3 16 3e
       0.09760684 0.08511864 -0.010357045 0.14729293
000190 bd 4c ae 3d 28 6f 67 3d 89 84 4e 3d de c9 b5 bc
       0.085107304 0.05650249 0.050419364 -0.022190984
0001a0 fd 6d d1 3d fa 44 08 bd 2f 08 87 3e 2f 8c 24 bd
       0.10226057 -0.033268906 0.2637343 -0.040172752
0001b0 df f5 26 3e 39 01 ea bb 05 e2 0d 3e 1a 22 b3 3d
       0.1630473 -0.007141259 0.13855751 0.08746739
0001c0 cf b2 45 3e 9c cf b1 3d ec fa b4 3d 88 b1 c1 3d
       0.19306491 0.086821765 0.08836922 0.094576895
0001d0 e9 d7 08 3e fa 45 a2 3e ed f1 66 bd c0 1c 03 3e
       0.13363613 0.31694013 -0.056383062 0.12803936
0001e0 f8 8e 81 3e 86 80 10 3e 03 f2 5c 3e f4 e0 ff 3d
       0.2530439 0.14111528 0.21576695 0.12494078
0001f0 d7 2f 2d 3e 02 60 89 3d e9 28 e0 3d d7 d9 4f 3e
       0.1691278 0.06707765 0.10945303 0.20297943
000200 d2 b4 fc 3b 7d 09 f2 3d 46 8a 46 3e ab 6a d2 3d
       0.007711985 0.11818216 0.19388685 0.102742516
000210 8c 65 83 3c 17 44 93 3d ae 1b 4d bb 35 3d 1e 3d
       0.016039632 0.071907215 -0.0031297016 0.03863259
000220 31 0a 12 3e 59 33 4e 3d db 15 aa 3e aa 31 38 3e
       0.142617 0.050341938 0.332198 0.17987695
000230 aa 49 56 ba fb db 3e 3d 3b 21 3f be 45 35 1a 3d
       -0.0008174429 0.04659651 -0.1866502 0.037648458
000240 d0 41 d0 3d ce 75 bd 3e 8d 5f 5d 3c 87 8c ac bd
       0.10168803 0.3700394 0.013511551 -0.08425241
000250 4b 97 4a 3d e1 49 57 3e d0 fe 0a 3e b1 c3 d3 bb
       0.04946069 0.21024276 0.13573766 -0.006462537
000260 62 c9 be 3d 6a b6 b3 3d 44 1c 5e 3e de f2 62 bc
       0.093157545 0.08775027 0.2169047 -0.013851849
000270 13 8a 97 3e 18 f4 11 3e 0b 4f 0a 3e 97 a3 1c bd
       0.2959753 0.1425327 0.13506715 -0.03824195
000280 0a 81 47 3e 0e 9b 11 bd 6c d5 a9 3e 6e c0 0d 3e
       0.19482818 -0.035548262 0.3317064 0.13842937
000290 dc e6 71 3c 41 d0 52 3e 30 55 92 3b 62 62 30 bb
       0.014764514 0.20587255 0.0044657215 -0.002691411
0002a0 61 21 fc 3d 17 26 7c 3e 43 e5 c6 3c ee e7 fa 3d
       0.12311054 0.24623905 0.024279242 0.12251268
0002b0 ac bc 65 3e ad c7 51 3e 89 5a 3b 3e d6 5d 0b bd
       0.22435254 0.20486327 0.18296255 -0.034025036
0002c0 a4 32 ac bc 38 2a 29 3d 78 87 8b bd 95 f1 48 bd
       -0.021020241 0.04130003 -0.06812948 -0.049058516
0002d0 85 d2 de 3d b2 07 3b 3d a0 01 23 3e 7e 0b 36 3e
       0.10879997 0.045661636 0.15918589 0.17777821
0002e0 4a c8 96 bd 01 5d 7e 3d 76 af 34 be ca b1 b7 3d
       -0.07362421 0.062100414 -0.17645058 0.089694574
0002f0 da 8d 9f bd f4 7e 1b 3d 48 73 7f bd 37 3f 28 3e
       -0.07790728 0.03796287 -0.0623658 0.16430365
000300 58 01 b1 3d d8 c1 0b 3d 3b 5d 47 bc fa 39 7f 3e
       0.086428344 0.03412041 -0.012168224 0.2492446
000310 df 3f fa 3d 04 a3 06 3d 9f 47 6b 3e c3 e4 80 bb
       0.12219214 0.032870308 0.2297654 -0.0039335205
000320 fa 3b da 3c 3b 64 c6 3d 54 f2 92 bd 0c dc 81 3e
       0.026639927 0.09687086 -0.07175127 0.25363195
000330 3b e6 05 3d a0 e7 c7 3c c2 6e 55 3e b1 ba c0 bc
       0.032690268 0.02440244 0.20843032 -0.023526521
000340 8e 11 96 3d 63 17 7b 3d d2 58 17 3e 1b 20 26 bd
       0.07327567 0.0613016 0.14779976 -0.040557962
000350 9d f1 b8 3d 71 78 72 3e ad b5 1a 3b e2 27 3c 3c
       0.09030459 0.23678757 0.0023606822 0.011484118
000360 c8 12 bf bd 2e e9 b6 bc 36 ce c0 3d 55 02 25 3d
       -0.09329754 -0.022327986 0.094143316 0.040285427
000370 04 cd 7f 3e b6 82 87 3d ac 71 16 bc b2 af 58 3e
       0.24980551 0.06616728 -0.009182375 0.21160772
000380 bc 18 9b 3e 38 d8 b7 3d 5c 34 49 3e 27 12 a8 3d
       0.30292308 0.08976787 0.1964888 0.08206587
000390 78 d4 51 3e 7e b9 86 3d 84 f6 25 3e 6a 7f 8b 3e
       0.20491207 0.065783486 0.1620732 0.27245647
0003a0 0b fb 92 3d c7 1f b5 bc b2 9e 8c 3d 62 7b 84 3d
       0.07176789 -0.02210988 0.06866206 0.06468846
0003b0 e6 1f e8 3b 4d 4e c7 3d 2b f7 fe bd 4a 36 e7 3d
       0.0070838807 0.097317316 -0.12449487 0.11289652
0003c0 86 46 1f 3e a9 d2 0b 3e bf 79 88 3e e0 ea ac bd
       0.15554246 0.13654579 0.26655385 -0.08443236
0003d0 16 f4 c7 3d c6 21 6c 3e 19 07 5d 3d 17 9a 47 3a
       0.097633526 0.23059759 0.053961847 0.0007614209
0003e0 02 8d 69 3e c8 9c 5e 3d 58 18 96 bd 1a 94 d8 3d
       0.22807696 0.054348737 -0.07328862 0.10575123
0003f0 2f d8 39 bd 64 e4 18 3d 59 ee 0d 3e fb 87 22 bd
       -0.045372184 0.037327185 0.13860454 -0.039680462

discrete_action_output_shape f4 [1, 2]
000000 00 00 c8 41 00 00 20 41
       25.0 10.0

network_body._body_endoder.seq_layers.0.bias f4 [256]
000000 35 23 db bc f8 ef 9d bd f0 7d 55 bd f0 91 ec bc
       -0.026750186 -0.07711786 -0.052122056 -0.028878182
000010 42 bc 20 bd 39 93 9f bd b2 77 fa bb f8 ab c7 bd
       -0.039242037 -0.07791752 -0.0076436633 -0.09749597
000020 7b db 19 bc 40 e2 8c bc 44 8d d6 3b 76 e0 a9 3b
       -0.009390707 -0.017197728 0.006547602 0.0051842285
000030 90 9f 8d bd 20 16 0d bd ae fd 28 3b b3 08 e4 bd
       -0.069152 -0.03444493 0.002578597 -0.11134472
000040 3d 3d ea bc 94 35 f4 bc c5 41 89 bd d2 02 bb 3c
       -0.028593654 -0.029810704 -0.06701998 0.022828493
000050 ba e7 67 3b 89 34 5f bc b8 e3 48 bd 18 4a d0 bc
       0.0035385923 -0.013623365 -0.049045295 -0.025425956
000060 73 1c 4c 3c 18 62 b8 bc d7 30 d6 bc a9 0d 4f bc
       0.012457955 -0.022507712 -0.026146336 -0.012637534
000070 fa ca 55 bb 14 fc 9d ba b0 7f 80 bd 03 c6 81 bd
       -0.0032622204 -0.0012053275 -0.062743545 -0.06336596
000080 0c 88 a3 bc 69 99 df 3b 65 25 9d bc f6 2e 77 bd
       -0.019962333 0.006823708 -0.01918287 -0.06034752
000090 88 86 7e bd 1b 0c 75 bb 9b 5f 1e bc 9e ae f5 bc
       -0.062140018 -0.0037391249 -0.009666349 -0.02999049
0000a0 8d 39 7a bd 16 e8 d0 bd 07 3c 9c bd 3a 7c de bd
       -0.06109004 -0.10200517 -0.07628637 -0.10863538
0000b0 bb 0c cd bd 5a 5e ca 3b ed 9b c4 bd f7 86 d4 bc
       -0.10012194 0.0061757984 -0.09600053 -0.025943263
0000c0 e3 6c ef bc 6c 91 35 bd 29 0f 6b bd 84 ae 0a be
       -0.029226726 -0.04432814 -0.057387505 -0.13543135
0000d0 45 5c c8 bd 83 38 56 bd ec 7d bf bc 12 37 a9 3c
       -0.09783224 -0.052299988 -0.023375474 0.020656142
0000e0 c8 62 a9 bb 44 32 9f 3c 14 46 92 bd 03 b4 94 bc
       -0.0051692463 0.019433148 -0.071422726 -0.018152243
0000f0 53 89 7a bd ce e7 da bd 66 40 f6 bd eb ae 26 bc
       -0.06116612 -0.106887445 -0.12024002 -0.01017354
000100 40 25 e5 bb 6b 1e 5e bc 3b 10 7e bc c9 f3 d7 bb
       -0.006992966 -0.013557057 -0.015506799 -0.0065903408
000110 b8 55 80 bd ba 25 1e bc 21 eb 96 bd 1a b5 27 bd
       -0.062663496 -0.009652549 -0.07369066 -0.040944196
000120 5a e2 48 bd a4 75 dd bd 8c ab 40 bd 8f 15 1e bd
       -0.04904399 -0.10813454 -0.0470386 -0.03859478
000130 ed 2a 64 bd 24 3f 56 bd 0d fd 9a bd fe 45 37 bd
       -0.055705 -0.05230631 -0.07567797 -0.044744484
000140 55 0c fd bc 75 ef c2 bc f3 2a e4 bd a7 b5 12 3d
       -0.03088967 -0.023795823 -0.111410044 0.03581777
000150 48 1c 5c bd 2b 55 b9 bc 42 17 99 bc 97 0a 33 bd
       -0.05373791 -0.022623619 -0.018687848 -0.04371127
000160 ca 24 e0 bd 6b aa 2e bc 01 76 56 3a 46 7a d3 bd
       -0.10944517 -0.010660748 0.0008181036 -0.10326056
000170 e4 49 51 bd c1 20 69 bc 16 c5 83 bd 74 92 67 bd
       -0.05109586 -0.014229001 -0.064340755 -0.056536153
000180 b4 60 bc bc f7 47 7c bd 6f c7 85 bc 94 04 e4 bc
       -0.02299533 -0.06159207 -0.016330449 -0.027834214
000190 51 72 c4 bd 81 d8 d2 bd 93 75 28 bd 38 f2 81 bd
       -0.095921166 -0.10295201 -0.041127753 -0.06345028
0001a0 e7 6e 90 bd be f4 b7 bd a4 28 ea bb 29 1c b6 3c
       -0.07052403 -0.08982228 -0.007145958 0.022230225
0001b0 d7 04 8d 3b 3b 71 b2 bd 7d c2 a9 bd 86 d8 ba bd
       0.0043035555 -0.08713003 -0.08289049 -0.0912333
0001c0 14 3c c1 3b 97 c3 26 bd e3 b2 98 bd 57 a9 06 3c
       0.0058970544 -0.040713873 -0.07455995 0.008219085
0001d0 7f f6 c3 bb 6f 55 41 bc 3e c1 05 3b 64 5e 6f bd
       -0.0059803124 -0.011800154 0.002040937 -0.058439627
0001e0 27 2e cc bd bb e6 e9 bd 99 0c f4 bc 9d 8f ef ba
       -0.0996974 -0.114209615 -0.029791163 -0.0018277053
0001f0 de 9a 2c bd c6 2c 78 bd 2e 32 61 bd e8 eb 65 bd
       -0.04213988 -0.060589574 -0.054979496 -0.05613318
000200 e2 45 0f be fd cf bd bc 21 c4 f4 bd 42 f4 af bd
       -0.13991502 -0.023170466 -0.11951471 -0.0859151
000210 f8 f6 1c 3c 69 22 05 be 8b 11 8e bd 8e 97 75 bd
       0.009580366 -0.13001408 -0.0693694 -0.059958987
000220 0a 60 e8 bb 32 47 c6 bc 39 f7 38 bd 21 4b 30 bd
       -0.007091527 -0.02420387 -0.045157645 -0.0430404
000230 1e a9 72 bb c1 58 2b bd 16 69 01 3d af cf 16 bc
       -0.0037027071 -0.04183269 0.03159436 -0.009204789
000240 c3 35 fb bd 93 6c e1 bd 47 66 02 bd 4a c4 a4 bb
       -0.122661136 -0.11007037 -0.03183582 -0.0050282823
000250 81 b6 97 bc a8 9d 13 3b c1 3d 71 bd b9 46 99 bd
       -0.018519642 0.002252439 -0.058896784 -0.074841924
000260 25 55 2f 3b b2 24 8c bc 12 30 a6 bd 02 ea a8 bd
       0.002675363 -0.017107341 -0.081146374 -0.082477584
000270 20 a8 ab 3c 22 09 e3 bb 83 4b e2 bd 02 86 2d 3b
       0.020954192 -0.006928579 -0.11049559 0.002647758
000280 01 41 ae bc 36 34 1a 3c 88 59 da bd 6c 79 2b bd
       -0.02127123 0.009411862 -0.10661608 -0.041863844
000290 18 85 80 3c 9b 51 86 bd 6b ff cc bc 83 f2 cc bb
       0.015688464 -0.06558534 -0.025024137 -0.0062544956
0002a0 c9 18 f2 bb 67 f6 00 3c 49 c9 ec bc 12 a5 29 bc
       -0.0073882085 0.007871247 -0.028904574 -0.010354297
0002b0 f8 0e 79 3b 3b 8d 24 bd be 93 ad 3b ea 9c 33 bb
       0.0038003307 -0.04017375 0.0052971533 -0.002740676
0002c0 1e 5c 81 bd 7b a0 c5 bc fb 9f d6 bd 26 ec 89 bc
       -0.06316398 -0.024124375 -0.104797326 -0.016836237
0002d0 fe 00 b3 bb 6d bc 05 3c 6e 76 37 bd 9e 68 e9 bc
       -0.0054627648 0.0081626 -0.044790678 -0.028492268
0002e0 23 36 60 bc 77 53 b8 bc 79 ad 12 bd f9 91 da bc
       -0.013684782 -0.022500737 -0.035809968 -0.026680933
0002f0 8d 34 94 b9 e1 4d b0 bd 20 1c a9 bc cd 04 a7 3a
       -0.00028267913 -0.08608604 -0.020643294 0.001274252
000300 54 96 a8 bd 83 73 d3 bc 07 39 d2 bc b5 c9 62 bc
       -0.08231798 -0.025811916 -0.025661958 -0.013842036
000310 2f 60 93 3c 21 08 4a bd 1f 1c 14 bb 38 85 2c bd
       0.0179902 -0.04932416 -0.002259977 -0.042119235
000320 5c 6e 9c bd fb e0 8e bd ab 06 44 bd 67 2e b7 bc
       -0.07638237 -0.06976505 -0.04785792 -0.022360994
000330 dc 81 45 bd 72 a7 5e bd c2 19 e1 bd f7 fd 82 3c
       -0.048219547 -0.054358907 -0.10991241 0.01599024
000340 b2 63 7e bd fe 8d 9c bd 3a 30 64 bd 5b 30 e0 bb
       -0.062106796 -0.0764427 -0.055710055 -0.006841702
000350 76 94 32 bc 68 32 96 bd dd 18 03 3c cb cd 0c bd
       -0.010899654 -0.07333833 0.008001533 -0.034375947
000360 8d c2 5c bd eb 55 a0 bd d4 ab 00 be f0 81 6b bd
       -0.053896476 -0.078288876 -0.12565547 -0.057496965
000370 b2 68 66 3b 8a 54 44 bd ec 2e 85 bd 3f ba c5 bc
       0.0035157618 -0.047932185 -0.0650309 -0.02413666
000380 11 a6 4e 3c ca bb 21 3b c9 bb af bd 1c a8 33 bc
       0.0126128355 0.0024678581 -0.08580739 -0.010965373
000390 1c d8 03 3b d2 11 9f bc f9 ea b7 bd 1b 27 cf bd
       0.0020117825 -0.019417677 -0.08980364 -0.10114881
0003a0 b0 f5 71 bd f3 20 04 be 36 4d ac bc ce 10 15 bd
       -0.059072196 -0.12903194 -0.02103291 -0.03639298
0003b0 72 0e cf bd d9 ce 8d bd f6 f7 80 3c 6e ac 05 bb
       -0.10110177 -0.06924219 0.015743237 -0.0020396966
0003c0 91 5f 67 bd 0f 28 b1 bd f6 69 fb bc 64 61 0c be
       -0.056487624 -0.08650219 -0.030690175 -0.13709027
0003d0 2a e9 56 bd af 0d 5c bc 00 c4 bd bc 0b 16 0d bd
       -0.052468456 -0.013430997 -0.02316475 -0.03444485
0003e0 21 d5 8e bc fa e3 75 bd 8a de 98 bd b8 6a 23 bd
       -0.017435612 -0.06003187 -0.07464321 -0.039896697
0003f0 66 f2 8f 3c cd b2 e1 3c 0d 66 9d bd 12 90 74 3c
       0.01757164 0.02755108 -0.0768548 0.014926927

network_body._body_endoder.seq_layers.0.weight f4 [256, 175]
000000 a4 79 cf 3c 3f 38 04 3e ba bc d9 3d 79 9d a6 bd
       0.025326557 0.12912081 0.106317 -0.08135504
000010 4a 20 66 3e 0a bf df 3d 3e ba 86 3e 57 11 6c 3d
       0.22473255 0.1092511 0.26313967 0.057633724
000020 cb 41 c9 3d 87 99 dc bd b9 bc 3c 3d 59 1e 3d 3e
       0.09827002 -0.107714705 0.046078417 0.18468608
000030 12 9b c7 bd c5 53 be bd b4 8a 4d be 0f f6 48 3d
       -0.09746374 -0.092933215 -0.20072442 0.049062785
000040 0f 0e 0c 3e ce 5b b3 bc 16 43 2b 3d f9 e6 46 3d
       0.13677238 -0.021894362 0.041812025 0.048560116
000050 90 8c 9a 3e 98 91 2e bd 52 9c 8d bd a6 93 2d 3d
       0.30185366 -0.042619318 -0.06914581 0.042377137
000060 8f f4 e6 bc ba 7c 1c 3d b4 5a a6 bd 5d da 5b 3e
       -0.028192786 0.038204886 -0.08122769 0.21470018
000070 e3 43 12 bd ae 3f 12 bd d5 e5 33 be 08 a5 81 3e
       -0.035709273 -0.03570526 -0.17568143 0.2532122
000080 27 ab 3c 3e e7 14 8e bd de a5 76 bd 64 5c 2e bd
       0.18424664 -0.069375806 -0.060216777 -0.04256858
000090 00 62 ce 3b ec bc 4a bd c6 bd 16 3e 1f 55 74 ba
       0.0062983036 -0.049496576 0.1472083 -0.00093205454
0000a0 07 30 f1 3d 9f 9a 46 be fc 5a 81 3d 7e bb 15 3e
       0.117767386 -0.19394921 0.06316182 0.14622304
0000b0 2d 85 96 3e dd fd d6 3c a5 0a bb 3d 9c 7e 91 3c
       0.2939848 0.026244098 0.0913289 0.017760567
0000c0 3b 12 33 3e 98 c1 88 bd 00 89 1d be 6f 6a 00 3e
       0.17487423 -0.0667755 -0.15384293 0.12540601
0000d0 32 90 5d bd e2 e1 78 3e b2 31 3f bd 22 de f0 3d
       -0.054092593 0.24304917 -0.046678253 0.117611185
0000e0 5a a6 6d bc 17 16 17 3e 54 8a 8f bd 86 a7 b7 bd
       -0.014504993 0.1475452 -0.07008806 -0.089674994
0000f0 43 39 de 3c 14 fc 1a 3e 78 6b 97 bd 52 5f 58 bd
       0.027126914 0.15135223 -0.07393545 -0.05282528
000100 70 86 8e 3d e6 19 29 3d de 8a 9e 3c 58 33 98 3d
       0.06959236 0.041284464 0.019353326 0.07431668
000110 2b fb 29 3d 5d 82 d0 3d 90 75 25 bd 39 1a bd bc
       0.041499298 0.10181115 -0.04039532 -0.023083793
000120 50 7b 47 3e fb 92 5e be 15 63 4f 3a b1 34 1a 3e
       0.19480634 -0.21735756 0.0007911188 0.15059163
000130 47 65 bb 3d f2 9f 13 3c 7f a2 3d 3e 0b 3d ab bd
       0.091501765 0.009010302 0.18519019 -0.083612524
000140 6d 7b 24 3e 62 37 9e 3d dc 96 69 be 03 08 f7 3c
       0.16062708 0.07725407 -0.22811455 0.030155187
000150 7b 4a 88 be 6f 42 e1 3d f5 3d fe bd 08 8c 2b 3e
       -0.26619324 0.10998999 -0.12414161 0.16752636
000160 02 0f 05 3e c0 a3 96 3d a0 65 ce 3d ef 6a 21 bd
       0.12994006 0.073554516 0.10077977 -0.03940862
000170 c5 b7 03 be aa 70 df bd 8f ed a0 3d e0 04 2f be
       -0.12863071 -0.10910161 0.07857811 -0.17091703
000180 82 72 bf 3d 72 57 b0 3d 0e 6c 10 3c 1b 1a 1d bb
       0.093480125 0.08610429 0.008814825 -0.002397186
000190 72 bc 67 3d 53 ba cc bd d8 5f a5 3d 8c f5 5d ba
       0.0565762 -0.09996476 0.08074921 -0.00084670703
0001a0 88 2a 0d 3d c0 0b 56 be 53 1b 42 3e fe 9d d0 3d
       0.03446439 -0.2090292 0.18955736 0.101863846
0001b0 bb b3 bb bd 26 71 0c 3d d8 0f 74 bd 63 07 5a be
       -0.0916514 0.034287594 -0.059585422 -0.2129188
0001c0 00 4f 3d 3d 5f b8 c2 bd f0 f0 bf 3d 64 65 1b 3e
       0.04621792 -0.09507822 0.09372127 0.15175396
0001d0 f7 f4 35 be ed 80 17 bd 17 dc 10 3d e4 f9 94 bd
       -0.17769228 -0.036988188 0.035366144 -0.07274225
0001e0 48 92 8b 3d 65 fd cb 3d 19 c1 3e 3d cf f7 48 3d
       0.0681501 0.099604405 0.04657087 0.049064454
0001f0 b5 1b 20 be 13 21 b0 bd 88 5a 30 3d 1a e2 b9 bd
       -0.1563557 -0.086000584 0.043055087 -0.090763286
000200 a8 c8 07 be d2 f3 33 bd 88 5f c7 bd d4 3c d3 3d
       -0.13260138 -0.043933697 -0.09735018 0.103143364
000210 aa 13 ed bd af fd 46 3c 56 7d f8 3b 93 b5 0a bd
       -0.11576016 0.012145444 0.0075833006 -0.03386457
000220 0c 5c 0d 3d c6 5d 42 be 6b 5e ed bc 66 ec 2d bd
       0.03451161 -0.18981084 -0.028975686 -0.042461775
000230 0f be 2c 3c 62 7d ca bc a8 f6 a4 3d 26 0e e3 bb
       0.01054336 -0.02471799 0.080548584 -0.006929177
000240 69 0f 06 3e 63 80 60 be 68 7d 6f be d6 fe 1a be
       0.13091816 -0.21923976 -0.23387682 -0.15136275
000250 7c b0 31 be 47 34 34 3d 73 70 66 3d 2b 08 37 be
       -0.1735248 0.043995168 0.056259584 -0.1787421
000260 cd 2d f1 3c 37 40 0f be d4 0d 35 bc ba e5 da bd
       0.029440785 -0.1398934 -0.01105066 -0.10688348
000270 4f 1e 0a bc a6 d0 c7 3a 62 c3 4b be 4e 8b d2 3c
       -0.008430078 0.0015244677 -0.19898751 0.025701191
000280 c9 7f 4b be 8c a8 53 be 82 cd 01 bd 44 bc 18 be
       -0.19872965 -0.20669764 -0.03169013 -0.14915568
000290 90 9d 44 be c9 6d 18 be 11 58 b0 bd 4a 89 a5 bd
       -0.1920073 -0.1488563 -0.08610547 -0.080828264
0002a0 fc 24 e1 3d d6 9e b3 bc 86 7f c5 bd df 8c c6 3a
       0.10993382 -0.021926325 -0.09643464 0.0015148184
0002b0 91 90 4b bd b0 39 d4 3d ed a0 58 3d 37 71 04 3e
       -0.049698416 0.103625655 0.052887846 0.12933813
0002c0 ad 8d 0a 3e d7 d9 62 3e ad b8 f4 bb 6e 87 4e bc
       0.13530608 0.22153412 -0.007468304 -0.012605531
0002d0 1b f6 c6 3d c2 e2 78 bc f5 13 10 bd 43 b6 af 3c
       0.0971491 -0.015190782 -0.035175283 0.021449214
0002e0 17 3b 8f 3d 7e 9a 12 3d 92 15 67 bd 30 f5 44 bd
       0.06993692 0.035791866 -0.056417055 -0.04808539
0002f0 32 4a b0 3c 60 80 32 be f8 78 94 bd 8c 59 a3 3c
       0.021519754 -0.17431784 -0.072496355 0.01994016
000300 a9 f2 c2 bd df 50 b9 bc 86 63 86 3e 09 73 62 3d
       -0.0951894 -0.02262157 0.26247805 0.055285487
000310 1c 60 bc 3d 73 0c 96 3b db 52 78 3e 11 5c 40 bd
       0.09198019 0.004579121 0.24250357 -0.0469628
000320 0f 99 11 3e 2a f5 04 3e e9 ac 48 3e 80 b9 27 3e
       0.14218543 0.12984148 0.1959721 0.16379356
000330 7b de 5e 3e 8d a1 e9 bd f5 3f 0a be b6 ed 88 be
       0.21764557 -0.114077665 -0.1350096 -0.2674386
000340 6c b9 a0 3e ae 5b 8a bd 38 d2 56 3e 5a de 3b be
       0.31391466 -0.06755768 0.2097863 -0.18346539
000350 15 14 27 3d 6b 3f 5e bd a2 2f 7f 3e a2 f5 7a 3d
       0.040790636 -0.0542597 0.24920514 0.06126941
000360 64 7c ee 3c 70 d9 4b 3d 2a 6f ee 3d 33 51 89 3d
       0.029112048 0.04976791 0.116422966 0.06704941
000370 88 a9 95 3c 80 f7 3b 3d ee f9 9e 3d d8 de 50 bd
       0.018269315 0.04589033 0.07762514 -0.05099377
000380 02 d2 5b 3e 88 d4 b4 3c e3 30 60 3e 01 78 43 3e
       0.2146683 0.022073999 0.21893649 0.19088747
000390 24 4e d0 3d f3 47 fe bd 19 7d cf bd c1 d6 74 be
       0.10171154 -0.12416067 -0.10131282 -0.23910047
0003a0 15 84 23 3e 58 be 8d 3d a8 c6 33 3e 33 33 00 3e
       0.15968354 0.06921071 0.1755625 0.12519531
0003b0 fb c7 45 bd 00 7a 3b bb 97 2e 34 3c 3f bf 37 3e
       -0.04828642 -0.0028606653 0.010997436 0.17944048
0003c0 7f 1b ab 3d aa 79 ab 3c 04 33 9a 3d 23 68 d8 bc
       0.08354854 0.020932037 0.07529262 -0.026416844
0003d0 07 83 fe 3d 45 c9 b7 bc 7b 8f 0a 3e ab 19 bb bd
       0.12427335 -0.02243484 0.13531296 -0.09135755
0003e0 55 f7 51 bd 62 06 59 bc 78 01 1c 3e ac a4 1b 3e
       -0.051261265 -0.013246151 0.15234935 0.15199536
0003f0 fb 61 bf 3d 98 99 88 bd 53 c8 95 3e 44 c4 a6 3d
       0.0934486 -0.06669921 0.29254398 0.081429034

network_body._body_endoder.seq_layers.2.bias f4 [256]
000000 37 f7 f5 3b 5e da 5b be c5 fa 1e be b6 06 dd bd
       0.007506277 -0.21470019 -0.15525348 -0.10792296
000010 6e b0 fb bd 09 50 26 3c 91 4e 52 bd ee e0 aa bd
       -0.12289511 0.010150918 -0.051344458 -0.08343683
000020 35 17 11 bc 9f 57 06 be 7e 6c a1 bd 5e 2b a5 bd
       -0.008855631 -0.13119362 -0.07882021 -0.08064912
000030 1b 52 2e bd f9 33 b1 bd 58 19 96 bd aa 21 b1 bd
       -0.04255877 -0.08652491 -0.07329053 -0.08648999
000040 eb 3a 2f bc a3 68 12 be e6 91 84 bd b9 a2 e6 bd
       -0.0106951995 -0.14297728 -0.064731404 -0.11261506
000050 9d 7a 3c bd 40 e9 04 bd 2d 6f 64 bc 5e df de bd
       -0.04601537 -0.032449007 -0.013942522 -0.10882448
000060 6a 2a 29 bd fa 8e 7a bd 9d 11 8e bd be c0 d3 bd
       -0.041300215 -0.06117151 -0.06936953 -0.10339497
000070 b5 18 0d bd 04 9f 16 be 9c 41 d9 bd 3f 59 00 be
       -0.03444739 -0.14709097 -0.10608217 -0.12534045
000080 18 f1 14 be 1f d0 a8 bd ff 3e ca bd 60 56 6e bd
       -0.14545095 -0.08242821 -0.09875297 -0.058187842
000090 1f 21 08 be fa 8e c5 3c 61 be ad bd 45 83 a3 bd
       -0.13293885 0.024116028 -0.084835775 -0.07984022
0000a0 84 e0 b0 bd 04 30 f9 bd 58 21 36 bd e8 1f a9 bd
       -0.08636573 -0.121673614 -0.044465393 -0.08258039
0000b0 05 cf de bd dd e2 76 3c da 6f f8 bc bf 6c 15 bd
       -0.108793296 0.015068737 -0.030326772 -0.03648066
0000c0 c5 14 c6 bc 6e 08 a3 bd 6b 95 88 bd fb 13 c0 bd
       -0.024179826 -0.07960592 -0.06669124 -0.09378811
0000d0 48 41 9c 3c b1 1e 89 3c 2b e8 8a bd dd b8 25 be
       0.019074097 0.016738268 -0.06782564 -0.16183801
0000e0 31 2e a1 bd de fe ca bc b9 eb 87 bd 03 6b c5 bd
       -0.078701384 -0.024779733 -0.066367574 -0.096395515
0000f0 5c 50 0b be 3a 6d bd bd 33 b9 9a bd a7 45 4c bd
       -0.13604873 -0.09249349 -0.07554855 -0.049871113
000100 a3 73 3f bc 93 17 09 be bb 76 88 bd 99 1a b3 bd
       -0.011685285 -0.13387899 -0.06663271 -0.087453075
000110 56 33 48 bd 09 a6 0d bd 9a 3f 25 bd b0 dd 26 be
       -0.048877083 -0.03458217 -0.04034386 -0.16295505
000120 8f d0 b9 bd 15 49 2d be 87 8b c6 bd 93 7f a1 bd
       -0.090729825 -0.1692241 -0.096945815 -0.07885661
000130 2d 83 f2 bd 00 7d 72 3d f3 4a 61 bd 31 e3 a3 bd
       -0.11841426 0.05920124 -0.055003118 -0.08002318
000140 c5 32 31 be 95 1b ac bd 1f 35 94 bd f2 bb 89 bc
       -0.17304523 -0.08403698 -0.072366945 -0.016813252
000150 8a 2b 1e be e1 bc a7 bd ab 7f 58 be f4 3c 72 bd
       -0.15446296 -0.08190323 -0.21142451 -0.05914016
000160 95 75 08 bd f7 ba ce bc 63 1a c1 bd 81 e5 1d be
       -0.03331526 -0.025235636 -0.09428861 -0.1541958
000170 29 af d6 bd f2 0d 98 bd 5c b0 fe bc 87 e2 a2 bd
       -0.10482628 -0.07424535 -0.031089954 -0.07953363
000180 d7 de 2a bd 13 46 9b bc 2e bf 48 3b a5 26 3f be
       -0.041716423 -0.018954312 0.003063153 -0.18667085
000190 03 db c8 bc 74 46 82 bc 45 30 ba bc 78 6e 8a 3b
       -0.024518495 -0.015902735 -0.022728095 0.0042245947
0001a0 12 30 fb bc 2a 8d 6c bd 5c e7 17 bd 99 b6 7a be
       -0.03066257 -0.057751812 -0.037085876 -0.24483718
0001b0 21 e3 4c be f2 ea 74 bd 15 c7 ea bc be 0a 14 be
       -0.20008518 -0.059794374 -0.028659383 -0.14457223
0001c0 0f 8d 83 bd cb 72 a2 bd 80 98 4a be 64 9e 00 be
       -0.06423389 -0.07932051 -0.19784737 -0.12560421
0001d0 5e a7 e9 bd de 42 c0 bd a9 10 ff bd ba 10 a4 bd
       -0.11408876 -0.09387754 -0.124543495 -0.08011003
0001e0 5b 88 fb bd 8e d6 ff bc a3 64 a5 bd 5e 01 e0 bc
       -0.12281867 -0.031230237 -0.080758356 -0.027344402
0001f0 5a c3 ac bd 0f 8f b0 bd 47 b1 85 bd f6 0b 9d bc
       -0.08435698 -0.08621036 -0.065279536 -0.019170742
000200 17 1f 1b be 09 34 42 be 49 1d 89 bd 9c c3 20 bc
       -0.15148579 -0.18965162 -0.06695039 -0.009812262
000210 7e 3e 8c bd fd b7 af bd 72 9d fc bc 5f b3 00 be
       -0.06847857 -0.08580015 -0.030836795 -0.12568425
000220 fa d0 85 bd 05 37 cd bc 65 73 0e be 21 80 b0 bd
       -0.06534 -0.02505065 -0.13911207 -0.08618189
000230 7d 51 18 bd fb df f8 bc 81 71 ae bd 51 4d fa 3b
       -0.03718709 -0.03038024 -0.08517743 0.0076386114
000240 80 e8 a0 bd 47 7a 1f bd 74 1d 94 bd 0f 3a 2f bd
       -0.07856846 -0.038934972 -0.0723218 -0.04277998
000250 a0 4a b8 bd 42 b0 bc bd 0c b3 c0 bd 5d db c8 bd
       -0.089986086 -0.09213306 -0.094091505 -0.09807465
000260 17 b8 ca bd 61 fe 64 bd c2 65 b2 bc f1 5d 71 bd
       -0.098983936 -0.055906657 -0.021777038 -0.05892748
000270 8e 04 d6 bd 46 c8 77 bd 4f ca 80 bd e9 e3 48 bd
       -0.104500875 -0.06049373 -0.06288587 -0.049045477
000280 c2 e2 dc bd f3 c1 4d bd 08 17 24 bd ac 38 73 bd
       -0.10785438 -0.050233793 -0.040061027 -0.05938022
000290 47 ca 47 bd 25 bf 2e bd 22 14 df bd a7 62 1b bd
       -0.04877689 -0.04266276 -0.10892512 -0.03793588
0002a0 33 cc d8 bc c6 0a d3 bd 24 d7 52 bd a5 86 c6 bd
       -0.026464557 -0.10304789 -0.051474705 -0.0969365
0002b0 dd 90 91 bd 6b 1f d7 bc 71 39 b5 bc 46 cb 53 bd
       -0.071077086 -0.026260098 -0.022122117 -0.05170753
0002c0 ff 9e 82 bd 21 67 88 bd ce e3 2c bd 2a 84 26 be
       -0.06377982 -0.06660295 -0.04220944 -0.16261354
0002d0 b3 e4 9f bd a0 eb ea bd 87 f5 9f bd 75 c5 93 3d
       -0.07807293 -0.11470723 -0.078105025 0.07215396
0002e0 2d ea ee 3c b6 35 1b be 1a 6c 06 bc 96 94 db bd
       0.029164398 -0.15157208 -0.008204484 -0.107217
0002f0 c8 52 28 be 7e e0 b8 bd ae a5 38 bd 88 19 ce bd
       -0.16437829 -0.090271935 -0.04507988 -0.100634634
000300 8b 89 f0 bd a1 7b 19 bd 1c cf 45 bd 19 ea 07 be
       -0.11744984 -0.037471417 -0.048293218 -0.13272895
000310 76 58 fc bc 4e 63 5b bd ac d4 70 bd de 77 80 bd
       -0.0308039 -0.0535615 -0.05879657 -0.06272863
000320 c5 6a 08 be ae 8d e9 bd a8 17 0a be 1d e6 d9 bd
       -0.1332198 -0.114039764 -0.13485587 -0.10639594
000330 a3 ae d0 bc 2c 1a 18 be 6c c6 bc bd f0 ba c9 bd
       -0.025473898 -0.14853734 -0.092175335 -0.098501086
000340 e1 fe 36 be af ef aa bc cc 5b ec bd 54 31 74 bd
       -0.17870666 -0.020866243 -0.11540946 -0.059617355
000350 ce 04 88 bd 0f 43 11 be 44 b6 a7 bd c6 c6 ae bd
       -0.066415414 -0.14185737 -0.08189061 -0.08534007
000360 1f 74 83 3c 58 8e 22 bd 7a 68 15 be 6a 8e 9f bd
       0.016046582 -0.03968653 -0.14590636 -0.07790835
000370 e3 77 25 bd f7 57 e6 bc d5 48 23 bd 77 27 7a bd
       -0.040397536 -0.028118117 -0.03986438 -0.061072793
000380 f6 2a c5 bd 85 89 c0 bd 16 27 69 bd b7 0c e8 bd
       -0.09627335 -0.0940123 -0.05692204 -0.1133055
000390 9a 56 7d bd 74 3d 79 bc f7 9c 76 bd 63 5d 82 bd
       -0.061850168 -0.0152124055 -0.060208287 -0.06365468
0003a0 cf 50 db bd 1a f1 ab bc 22 26 cc bd a8 3b 95 bd
       -0.107087724 -0.02098899 -0.09968211 -0.07286769
0003b0 9a d6 e7 bd 5d 64 86 bc f9 23 7c bd 1f 13 1f bd
       -0.11320229 -0.016405279 -0.061557744 -0.038836595
0003c0 e4 1e ab bd 99 4a 70 bd ec 6f cf bd c7 c8 c7 bc
       -0.08355501 -0.058664892 -0.10128769 -0.02438773
0003d0 ec 79 d9 bc f1 8f 8a bd 08 ff eb bc 31 65 ad 3c
       -0.026547395 -0.06765736 -0.028808132 0.021166416
0003e0 64 1d ee bd a7 90 7c bd 12 71 75 bd 5c f2 2a be
       -0.116266996 -0.06166139 -0.059922285 -0.16694015
0003f0 f5 4d bf bc 6b 7b 5a bd 3c a7 ce bc 1d 73 6c bd
       -0.023352602 -0.053340357 -0.025226228 -0.057726968

network_body._body_endoder.seq_layers.2.weight f4 [256, 256]
000000 ec 83 95 3d 8a 5a be 3d b5 1e 6d bd 4e c1 25 be
       0.07300553 0.09294613 -0.057890613 -0.16187021
000010 5c 95 65 be 56 82 69 3e 7e 08 4c be 4a db cd 3d
       -0.22420257 0.22803625 -0.19925115 0.10051592
000020 8b aa c4 3d 72 58 3f 3d d7 d6 35 3d 53 df 11 3e
       0.09602841 0.046715207 0.04439434 0.14245348
000030 cb 03 94 bd f6 35 24 be 2b ad 9c bd 6a 57 9a 3e
       -0.07227286 -0.1603621 -0.07650217 0.30144817
000040 d9 78 93 39 75 e5 90 bd 64 ba 99 bd b4 de 22 3c
       0.00028128063 -0.070750155 -0.07506254 0.009940792
000050 75 39 2b 3d d8 12 48 be 9d a2 77 3c 44 6e 11 bd
       0.041802842 -0.19538438 0.015114454 -0.035505548
000060 c1 6c ff bb b9 e2 0d be c7 7b 01 3e 17 66 71 bc
       -0.007794947 -0.13856019 0.12644874 -0.014733813
000070 9f 01 35 bd b8 b2 f6 bb a8 67 21 bd 46 46 34 be
       -0.044191 -0.007528629 -0.039405495 -0.17604932
000080 48 43 70 3d 8c ee 17 be 53 52 48 3d 4e 30 4f bd
       0.058657914 -0.14837092 0.048906635 -0.050583176
000090 23 88 0d be af db 65 be 84 ca f5 3d 36 53 76 3e
       -0.13821463 -0.22447084 0.120015174 0.2405518
0000a0 c7 0e 5f bc ea 62 6c bc 40 ec da 3d db 84 cf 3d
       -0.013614363 -0.01442788 0.10689592 0.10132762
0000b0 b5 15 c3 3c 02 f5 cc 3d fe e3 79 be 0c d1 cc 3b
       0.023814062 0.10007669 -0.24403378 0.0062505063
0000c0 19 53 cb bd 22 42 f5 bd 4a 1d cb bd 7e 13 83 bc
       -0.09927959 -0.119755045 -0.09917696 -0.016000506
0000d0 ae ab f1 bd a8 33 05 3d ea 0c 3b 3c 02 a5 a9 3c
       -0.118003234 0.032519966 0.011416653 0.020708565
0000e0 ee f3 21 bd 39 e6 10 3e e9 e7 ab bd 20 cd 79 be
       -0.03953927 0.14150323 -0.08393843 -0.24394655
0000f0 9d 53 46 be 1a ea 9e be f2 63 d7 3d b9 dc 21 3d
       -0.19367833 -0.3103798 0.1051711 0.03951714
000100 ad 61 65 be 17 d3 11 3e e6 74 2a bd f3 f2 6d bd
       -0.22400542 0.1424068 -0.04161539 -0.058093023
000110 f3 56 88 bd ed 8f 56 3d 2d 35 39 bd c7 cb 7d 3d
       -0.06657209 0.052383352 -0.045216728 0.061961915
000120 79 dd 1f 3e e2 c1 44 be 44 15 09 3e 00 84 81 3d
       0.15611829 -0.19214585 0.13387018 0.06324005
000130 44 16 00 be fd 24 c3 3d 40 d3 49 be b4 63 fc bd
       -0.12508494 0.09528539 -0.19709492 -0.12323704
000140 12 db 12 3d fd 55 7f 3d d7 eb ab bd 98 13 51 bc
       0.035853453 0.062337864 -0.08394592 -0.012761019
000150 4b 10 58 3d 58 fa 44 be d3 72 08 bd aa 29 2b bc
       0.052749913 -0.19236124 -0.03331263 -0.010446945
000160 37 ed a3 3d e0 2a 09 3e 2a e0 d2 3d b9 2b 75 3d
       0.080042295 0.13395262 0.10296662 0.05985615
000170 9a 5b 58 be 22 05 f4 bd 71 15 08 be dd 61 a4 bc
       -0.21128693 -0.119150415 -0.13289429 -0.020066196
000180 da 45 a1 bc cb b7 4c bd 79 c3 4c 3e b9 d3 e9 3d
       -0.019686628 -0.049979966 0.19996442 0.11417336
000190 fd 36 b0 be 60 92 0d bd 9f f7 84 be ed 68 43 bd
       -0.34416953 -0.034563422 -0.2597017 -0.047707487
0001a0 a6 4b 6c be 81 53 df 3d eb d7 2c be d6 54 94 3d
       -0.23075733 0.10904599 -0.16879241 0.07242744
0001b0 f0 26 03 bd 03 12 a3 3d 1f ad d8 3d f1 41 79 3e
       -0.032019556 0.0796242 0.10579895 0.24341561
0001c0 e0 71 bb bd 21 9f 57 be 7f 31 05 be d6 a3 0c 3d
       -0.09152579 -0.21056797 -0.13007163 0.034335934
0001d0 e1 2f e9 3d 4f 18 3b be 0d e2 38 bd e5 60 9b 3d
       0.11386085 -0.18270992 -0.045137454 0.075868405
0001e0 4e 5a 12 3d 34 c8 8f 3c 8e c2 7a 3e 2e b3 4d be
       0.035730653 0.017551519 0.24488279 -0.20087883
0001f0 5e ac 98 3c c1 1b 40 be e0 3f f0 3d f4 42 8a 3e
       0.018636879 -0.18760587 0.11730933 0.27004206
000200 b8 ea 2f be d1 26 39 be c9 1c 94 bc e2 02 a7 3c
       -0.17179382 -0.18081214 -0.018080132 0.020387117
000210 11 b4 94 3b ce 50 f1 bc f4 06 5d 3e 05 e6 c5 bd
       0.004538067 -0.029457476 0.21584684 -0.09663013
000220 4a c1 dd be b8 b3 7c be 33 d8 94 bd 7f 2b db bc
       -0.4331153 -0.24677932 -0.07267799 -0.026754139
000230 d5 f8 7b be 67 4d 08 be 1e 76 e7 3c f7 bc 4c be
       -0.2460664 -0.13310777 0.028254565 -0.1999396
000240 36 7a 4a 3e 46 80 41 3e 8c e9 e1 bc a4 71 43 3d
       0.19773182 0.18896589 -0.027577184 0.047715798
000250 05 bd 03 3e 27 89 41 be f0 9d 99 3d 2a 62 53 bc
       0.12865074 -0.18899976 0.07500827 -0.012901822
000260 8e 34 04 3d e8 20 e2 3b 27 f9 11 bd ad 19 b8 bc
       0.032276683 0.0069008954 -0.035638 -0.02247318
000270 05 15 d0 3d 41 3a 29 3d 04 16 a3 bd 00 f3 b7 bc
       0.10160259 0.04131532 -0.079631835 -0.022454739
000280 69 0c 8b 3a c3 6b 08 be dd 03 c0 3d 10 ff 2b bc
       0.0010608557 -0.13322358 0.09375737 -0.010497823
000290 89 6f 9c bd d5 18 10 3e bb 25 62 bd 6e c7 7c bd
       -0.07638461 0.14071973 -0.055211764 -0.06171363
0002a0 07 5e db bc 32 71 62 be 99 9f 79 3d f7 94 1e bd
       -0.026778234 -0.22113493 0.06094322 -0.038716283
0002b0 06 04 72 be 9c 72 6c be 94 b3 07 bd 39 ab a9 bd
       -0.23634347 -0.23090595 -0.033130243 -0.08284611
0002c0 13 94 d0 bd 53 41 f7 bd d2 19 b4 bd 3f b3 d0 bb
       -0.10184493 -0.120730065 -0.08793987 -0.006369024
0002d0 d6 35 96 bd 7a c8 08 3e f9 3d e4 3c 33 41 a8 3d
       -0.07334487 0.13357726 0.027861582 0.08215561
0002e0 93 a5 48 bc 74 a9 19 be a5 25 38 be 81 ae 65 3b
       -0.012246507 -0.15006047 -0.1798311 0.003504664
0002f0 5e 8f 7a be 02 e6 99 3c 75 ad c2 3d 3c 30 3a 3e
       -0.24468753 0.018786434 0.095057406 0.18182462
000300 f9 6c 9e 3d 66 7c 17 be eb b7 b8 3d d0 08 94 bd
       0.07735629 -0.14793548 0.090194546 -0.07228243
000310 76 80 e5 bd 37 5d 92 bb 9c 79 04 be 5e 4b 51 bd
       -0.112061426 -0.0044666785 -0.12937015 -0.051097266
000320 05 bc c8 bd 4e ba 05 be bc 3a 41 3e 1b 39 25 be
       -0.09801487 -0.13059351 0.18870062 -0.16135065
000330 eb 5f 23 be 81 dc 00 3d 17 36 d3 bd 7c 67 61 be
       -0.15954559 0.03146029 -0.10313051 -0.22012132
000340 29 98 f9 bb 1e 13 6b 3c e0 7c 1a be f6 37 0f 3e
       -0.007617016 0.01434782 -0.15086699 0.13986191
000350 c7 80 32 3e d7 62 cf 3c 42 a4 1d 3d 92 9f 8b be
       0.17431937 0.025315685 0.038486727 -0.2727018
000360 35 7a 26 3e 49 fa 09 be ee 61 d7 3d d7 cb cc bd
       0.16257556 -0.13474382 0.105167255 -0.09999817
000370 1e b9 f1 bc 71 3c 2b be ef 0f de bd df 3a 95 bb
       -0.029507216 -0.16722275 -0.10842883 -0.004554137
000380 c7 d4 3e 3e 56 ca 22 be c3 55 05 be 9d 10 f2 bd
       0.18635856 -0.15897498 -0.13020997 -0.11819575
000390 65 9f 03 be be b1 2c be 66 18 fe bc 35 92 84 3c
       -0.12853773 -0.16864678 -0.031017493 0.016182998
0003a0 69 c1 4f bd 10 b7 6f 3d 8b 14 9c bd f7 52 91 3d
       -0.05072156 0.05852419 -0.07621106 0.070959024
0003b0 db b4 1f bc 5f bb 55 3e 8f 6f b1 3d a8 e7 d0 bd
       -0.009747709 0.20872258 0.08663856 -0.10200435
0003c0 a5 3c c8 3d be 5d 23 3e 84 40 8f bd 45 f3 f9 bd
       0.09777192 0.15953729 -0.06994727 -0.12204603
0003d0 e8 f8 ab 3c 10 fb 01 3d f7 ac e4 bd 62 3b 3c bc
       0.020992711 0.031733572 -0.11165803 -0.011488767
0003e0 b7 73 ff bd ed f3 e0 3c a8 ea 2c be c8 ff 06 3d
       -0.12473243 0.027460063 -0.1688639 0.032958776
0003f0 c9 2d 89 be b4 9c e5 bd 12 a3 e0 3d c1 dc 8f 3d
       -0.26792744 -0.112115294 0.10968603 0.07024527
