results/Islands/Islands/Islands-499974.onnx (onnx, 426642 bytes, 11 tensors)

action_model._discrete_distribution.branches.0.bias f4 [20]
0.09576367 0.017027557 0.010856885 0.024897737 -0.0027322376 0.058165573 -0.0128821395 -0.06756539
0.013004464 0.04004328 0.07221526 0.026357016 -0.0053890897 0.06281327 0.010062891 -0.041999426
-0.029376201 0.083580956 0.0058190837 -0.037340116
00000000: be1f c43d 607d 8b3c 14e1 313c 57f6 cb3c
00000010: 570f 33bb 063f 6e3d 9c0f 53bc b95f 8abd
00000020: ad10 553c 6c04 243d 98e5 933d abea d73c
00000030: f696 b0bb 3ea4 803d d3de 243c 9707 2cbd
00000040: 5ca6 f0bc 7e2c ab3d 03ae be3b f3f1 18bd

action_model._discrete_distribution.branches.0.weight f4 [20, 256]
-0.08140509 -0.000543493 -0.067685805 -0.037646994 0.08421797 -0.11202396 0.026280887 -0.0016289323
0.06747538 -0.09725198 -0.027646258 0.07851663 -0.1038299 0.025990017 0.07245866 -0.026375249
0.020628082 0.011923346 -0.12897307 -0.17239583 0.11740839 -0.01178032 -0.012173533 -0.11842846
0.010501685 0.017693315 0.18617015 0.2077067 0.06546566 -0.11605087 0.04529464 -0.008050909
0.10603078 -0.11600602 0.047877807 -0.18860547 -0.038314268 0.07000277 0.09314388 0.014403668
-0.12458877 -0.035901014 0.05079509 0.08075827 0.07985877 0.0430884 -0.09679657 -0.013154118
0.03960829 0.03622745 0.08211314 0.0014472391 -0.13644373 0.15586407 -0.038958378 0.051061567
-0.118557714 -0.00580826 0.059048623 0.11145662 0.054081965 0.16481684 -0.0016173839 0.0030067796
-0.07585989 0.12082187 -0.09879075 0.094805874 0.06291856 0.024995385 0.10015288 0.16001713
-0.12535591 0.10585118 -0.016898775 -0.020304287 -0.017316634 0.06353388 -0.06090052 -0.0424562
-0.15786125 0.035160556 -0.05259706 0.04408915 0.06021247 -0.19841406 -0.011349278 0.056608535
0.2763778 -0.2763214 -0.031853937 0.026182022 0.08905969 -0.12743834 -0.07039196 0.07488551
0.14038078 -0.08311262 -0.03948308 -0.05133485 0.07392891 -0.04148965 -0.06415692 0.1788347
-0.06876521 -0.08490294 0.0037721675 -0.0938071 0.045015637 -0.07542589 -0.09294432 -0.077806465
0.18042262 -0.12925144 0.012398646 -0.08995105 0.14567724 0.0433739 0.038330007 0.0032505726
0.1230761 -0.17624761 0.042608 0.007004301 -0.08126547 0.012232907 -0.15069732 0.0069887736
0.0018715269 -0.008963998 0.035418294 0.085557446 0.06772527 0.10337251 -0.056084357 -0.21041006
-0.05986056 -0.06011822 0.13579777 0.14246148 0.008715392 0.14570385 -0.002568868 0.041111562
0.14122637 0.024986817 0.07951218 0.02803883 -0.07672196 0.013600257 -0.3873969 0.05326632
0.01520815 0.18016465 0.081213705 0.09215491 -0.090942726 0.084550574 -0.26024798 0.13124616
-0.026271947 0.14714485 -0.062359113 0.05472271 -0.10114338 0.059540447 -0.058598243 0.0016683395
-0.15723574 0.011623695 -0.012383631 -0.062698096 -0.12285465 -0.0032768692 0.12981574 0.07433644
0.11306489 -0.122485586 0.124957316 0.14242588 0.10608158 0.024756417 -0.050006006 0.059636924
0.03007564 0.10525432 0.045186136 -0.037003722 -0.018054081 -0.052248813 0.04274743 -0.027024053
-0.076644674 0.06197169 -0.08449064 -0.09467617 0.035472758 -0.09113929 0.083716705 -0.22608228
-0.017400954 -0.02992845 0.03268502 0.25644618 -0.16169144 0.11120344 -0.09661406 0.04870038
-0.0657626 -0.09634907 0.066913 -0.20853025 0.043570228 -0.053879034 0.103956565 -0.011110365
-0.0042948546 -0.034670237 -0.10267863 -0.10867159 -0.07120749 -0.05070259 -0.026130907 0.04066511
0.1250657 0.20448977 0.02424273 0.017506855 0.025016407 0.04897629 0.057781275 0.06309434
0.0498793 -0.02482803 0.110048145 0.10307674 0.07900168 0.10891455 0.06557173 -0.080655105
-0.11219462 -0.16749072 -0.11127594 0.01855071 -0.148983 0.07813637 0.0040461747 0.20448147
-0.120015614 0.015125702 0.037200794 -0.087501355 0.08693441 0.05547098 -0.1518334 0.004159296
00000000: b6b7 a6bd 3379 0eba db9e 8abd bc33 1abd
00000010: 797a ac3d d16c e5bd 044b d73c e681 d5ba
00000020: 8830 8a3d 0c2c c7bd 687a e2bc 54cd a03d
00000030: c5a4 d4bd 04e9 d43c 3565 943d e810 d8bc
00000040: 39fc a83c 235a 433c 8411 04be 8888 30be
00000050: cf73 f03d 3e02 41bc 8073 47bc 9f8a f2bd
00000060: 420f 2c3c 92f1 903c 63a3 3e3e 11b1 543e
00000070: dc12 863d 14ac edbd df86 393d f6e7 03bc
00000080: aa26 d93d 9094 edbd 851b 443d cb21 41be
00000090: 6cef 1cbd 9d5d 8f3d 38c2 be3d 5dfd 6b3c
000000a0: 6628 ffbd f10c 13bd 830e 503d 9864 a53d
000000b0: ff8c a33d 767d 303d 483d c6bd 5f84 57bc
000000c0: 4d3c 223d 3c63 143d ef2a a83d 49b1 bd3a
000000d0: e8b7 0bbe d59a 1f3e d292 1fbd ef25 513d
000000e0: 63ce f2bd 3753 bebb f8dc 713d 5e43 e43d
000000f0: 0d85 5d3d bfc5 283e 66fe d3ba 640d 453b
00000100: 6e5c 9bbd 7571 f73d ce52 cabd 9529 c23d
00000110: 72db 803d 1fc3 cc3c f41c cd3d 88db 233e
00000120: 4d5d 00be 81c8 d83d 4d6f 8abc 2d55 a6bc
00000130: 9ddb 8dbc 0d1e 823d d372 79bd 8de6 2dbd
00000140: 61a6 21be 8404 103d 0470 57bd d396 343d
00000150: 5aa1 763d 0e2d 4bbe 52f2 39bc 5ade 673d
00000160: 6481 8d3e 007a 8dbe 4679 02bd ae7b d63c
00000170: ed64 b63d 327f 02be a929 90bd 935d 993d
00000180: fbbf 0f3e f336 aabd 03b9 21bd 7e44 52bd
00000190: 0a68 973d 0df1 29bd b464 83bd 7220 373e
000001a0: c6d4 8cbd 98e1 adbd 7836 773b f01d c0bd
000001b0: 5162 383d e478 9abd 9759 bebd ff58 9fbd
000001c0: b5c0 383e 7d5a 04be b123 4b3c 4238 b8bd
000001d0: 6a2c 153e d5a8 313d edff 1c3d 8f07 553b
000001e0: 530f fc3d 417a 34be ba85 2e3d 5684 e53b
000001f0: 836e a6bd 886c 483c 6650 1abe 1502 e53b
00000200: 064e f53a bcdd 12bc c612 113d be38 af3d
00000210: 8cb3 8a3d f7b4 d33d b6b8 65bd bc75 57be
00000220: 5930 75bd 863e 76bd 920e 0b3e 6ce1 113e
00000230: 01cb 0e3c 6433 153e 745a 28bb 9964 283d
00000240: a59d 103e 27b1 cc3c 48d7 a23d b0b1 e53c
00000250: 6720 9dbd 9dd3 5e3c e358 c6be c92d 5a3d
00000260: 9b2b 793c 157d 383e 5f53 a63d b7bb bc3d
00000270: 2e40 babd da28 ad3d 393f 85be 6565 063e
00000280: 4438 d7bc 24ad 163e 456c 7fbd ec24 603d
00000290: 4324 cfbd afe0 733d b604 70bd 2fac da3a
000002a0: 6802 21be 4f71 3e3c b7e4 4abc dc67 80bd
000002b0: 389b fbbd bec0 56bb 6bee 043e b43d 983d
000002c0: 918e e73d b9d9 fabd 9fe9 ff3d 17d8 113e
000002d0: 4d41 d93d f8cd ca3c 19d3 4cbd d945 743d
000002e0: 3061 f63c 948f d73d 1915 393d 3791 17bd
000002f0: 27e6 93bc da02 56bd ee17 2f3d 8c61 ddbc
00000300: e2f7 9cbd 07d6 7d3d 6e09 adbd 94e5 c1bd
00000310: e24b 113d 3ca7 babd aa73 ab3d 1d82 67be
00000320: 728c 8ebc 822c f5bc bae0 053d ea4c 833e
00000330: 7192 25be a1be e33d 98dd c5bd 0d7a 473d
00000340: 8bae 86bd a952 c5bd af09 893d f488 55be
00000350: b276 323d 43b0 5cbd 2ee7 d43d 4008 36bc
00000360: dabb 8cbb 6102 0ebd 2c49 d2bd 368f debd
00000370: 3cd5 91bd 85ad 4fbd 7c10 d6bc 7590 263d
00000380: 3911 003e c465 513e b198 c63c 896a 8f3c
00000390: 35ef cc3c 5d9b 483d 0fac 6c3d 9b37 813d
000003a0: 3d4e 4c3d 2764 cbbc ec60 e13d e619 d33d
000003b0: a2cb a13d 970e df3d 794a 863d 812e a5bd
000003c0: 4bc6 e5bd b082 2bbe a4e4 e3bd a9f7 973c
000003d0: 008f 18be f605 a03d c695 843b 9763 513e
000003e0: bfca f5bd cbd1 773c dc5f 183d e933 b3bd
000003f0: ab0a b23d 8a35 633d 377a 1bbe b44a 883b

action_model._discrete_distribution.branches.1.bias f4 [8]
-0.130962 -0.13255592 0.089882135 0.087316565 0.15261953 0.030492868 -0.036164526 -0.102122
00000000: e71a 06be bdbc 07be 2014 b83d 07d3 b23d
00000010: 4b48 1c3e 2ecc f93c 4121 14bd 5725 d1bd

action_model._discrete_distribution.branches.1.weight f4 [8, 256]
-0.09004287 0.1413101 0.27512395 0.29765925 0.02610737 -0.09550914 0.031610887 -0.1440812
-0.11126701 -0.10531492 0.0005771845 0.06777601 0.15287882 0.026904108 -0.20642509 -0.11074511
0.096273236 -0.2769706 -0.050080325 -0.036474172 0.049105596 0.15200716 0.18580377 -0.06127985
0.21677442 0.067352824 -0.089206934 -0.045040444 0.01347755 0.043075442 0.19203073 0.17381993
0.07244808 0.2684466 -0.009867473 0.2238944 0.14189214 0.034033045 -0.07746205 -0.033769663
0.20119348 0.107373595 -0.055418797 0.06798024 -0.117031865 0.1626281 0.11478384 0.018026153
0.039970115 -0.07633353 0.11867472 0.19917645 0.012021116 0.021902818 -0.06881931 0.17959948
0.1682472 -0.048453424 -0.055773534 0.11535246 -0.0068811704 0.1738708 0.14918518 -0.072795525
0.042870793 -0.04734945 0.06954815 0.10852112 -0.03633788 0.051701494 0.058752064 0.014911824
0.04237835 0.10372017 0.040848013 0.083383955 0.16093564 0.03498848 -0.06124418 -0.13075198
-0.015748788 0.12737222 0.06567994 -0.081704445 0.1274814 0.07655841 -0.046561975 -0.022066245
0.051540427 0.1363401 -0.060989276 -0.003357127 -0.1581432 0.06463927 0.10831783 0.060808394
0.11225191 0.21602999 -0.051227473 0.05062549 0.23009135 0.031616636 -0.07227611 0.009238677
-0.028530924 0.264382 0.032573983 0.09645162 -0.027251046 0.0042219465 0.10489855 0.056694344
0.066565864 -0.028631825 -0.026508192 0.049871136 0.017067019 0.07495351 0.0060296874 0.18618426
0.016666917 -0.024857257 -0.076730534 0.01805258 0.03341442 0.12519413 0.13442846 -0.052725334
0.03380409 0.13962626 0.044860806 0.16472505 0.0063116695 0.063419014 0.108577386 -0.03583106
0.013886959 -0.013456168 0.113155484 0.004984753 0.050935782 0.01658703 -0.001447493 -0.18161753
0.051090587 -0.017002203 0.116321474 0.1388794 -0.06884855 -0.115584746 -0.034323465 0.046059247
-0.0087365955 0.060520876 -0.04105307 0.10359204 -0.05288684 0.16745001 0.14016546 0.04823159
0.047784448 0.13903433 0.022958228 -0.008086525 0.21593423 -0.023128089 -0.23608644 -0.08124303
0.07362255 0.32053673 0.10763135 0.13961813 0.10082983 -0.19508204 0.17192718 0.088184245
0.06720903 0.0562221 0.051965393 -0.2036149 0.093641534 0.012970532 0.124394186 0.019355292
-0.006122884 0.077233054 -0.06874216 0.10829489 0.12003791 -0.044247843 -0.07264792 -0.17318065
0.0872681 -0.09115784 0.22660312 0.1541661 0.052942872 0.057330105 0.13805066 0.0053898776
0.121589705 0.012083399 0.057208188 -0.016706469 -0.013039414 0.18919869 0.069920756 -0.022152783
0.2749936 0.09295895 -0.040018603 -0.090535864 -0.08827703 0.11902803 0.043132477 0.0048775477
0.19290572 0.101173915 -0.06058707 -0.1706883 0.07093146 -0.063624054 0.30000857 -0.037321016
0.2550231 0.07475725 0.20591748 0.22281446 0.00803211 0.118589155 0.2216587 0.08027801
-0.08200234 0.19826132 0.027626028 0.1259551 0.06571685 0.2730406 -0.04822128 0.10134367
0.05019924 0.075011574 -0.045461595 0.06232375 -0.053233683 0.15703024 0.26320598 0.13539402
0.17605917 -0.0026570896 0.19521102 -0.08050641 -0.009785155 0.10293128 -0.03152782 0.062003534
00000000: 6568 b8bd 98b3 103e 0cdd 8c3e cb66 983e
00000010: 20df d53c 4c9a c3bd 6b7a 013d 068a 13be
00000020: f5df e3bd 59af d7bd 324e 173a 26ce 8a3d
00000030: 448c 1c3e 0166 dc3c 1961 53be 55ce e2bd
00000040: e72a c53d 17cf 8dbe 0721 4dbd f165 15bd
00000050: f322 493d c4a7 1b3e 5843 3e3e 9400 7bbd
00000060: 1dfa 5d3e 47f0 893d 20b2 b6bd 547c 38bd
00000070: f1d0 5c3c e06f 303d b4a3 443e dafd 313e
00000080: a95f 943d d571 893e 2eab 21bc 9344 653e
00000090: 2c4c 113e 3c66 0b3d 6ca4 9ebd 0f52 0abd
000000a0: aa05 4e3e b0e6 db3d d2fe 62bd 3939 8b3d
000000b0: 67ae efbd fb87 263e ca13 eb3d 95ab 933c
000000c0: b4b7 233d c154 9cbd bb0b f33d e9f4 4b3e
000000d0: 37f4 443c 8a6d b33c 23f1 8cbd ede8 373e
000000e0: fe48 2c3e 1977 46bd ca72 64bd e93d ec3d
000000f0: 717b e1bb 300b 323e 00c4 183e d215 95bd
00000100: 4999 2f3d 7ff1 41bd 436f 8e3d 5240 de3d
00000110: 07d7 14bd f2c4 533d 01a6 703d b950 743c
00000120: ec94 2d3d 3e6b d43d 3f50 273d 35c5 aa3d
00000130: 50cc 243e 1550 0f3d 2ddb 7abd d9e3 05be
00000140: 9a03 81bc dd6d 023e 3483 863d a954 a7bd
00000150: 7c8a 023e a8ca 9c3d c5b7 3ebd 45c4 b4bc
00000160: 0e1c 533d bd9c 0b3e e4cf 79bd 3f03 5cbb
00000170: 4bf0 21be 9861 843d bdd5 dd3d 3912 793d
00000180: 54e4 e53d f736 5d3e e6d3 51bd ac5c 4f3d
00000190: 119d 6b3e 7280 013d 7f05 94bd d25d 173c
000001a0: afb9 e9bc 145d 873e 4c6c 053d 6d88 c53d
000001b0: 963d dfbc 4158 8a3b 0dd5 d63d 5438 683d
000001c0: af53 883d 4a8d eabc b527 d9bc ad45 4c3d
000001d0: 22d0 8b3c 3a81 993d af94 c53b 16a7 3e3e
000001e0: 0f89 883c 72a1 cbbc e624 9dbd 01e3 933c
000001f0: 8fdd 083d e432 003e 9da7 093e 85f6 57bd
00000200: 2876 0a3d 30fa 0e3e f7bf 373d afad 283e
00000210: 1fd2 ce3b d4e1 813d d25d de3d 97c3 12bd
00000220: 2186 633c 4277 5cbc 10be e73d 2457 a33b
00000230: 0aa2 503d 86e1 873c ceb9 bdba f2f9 39be
00000240: 5d44 513d 3448 8bbc f439 ee3d 6736 0e3e
00000250: 7800 8dbd b2b7 ecbd c396 0cbd 9fa8 3c3d
00000260: f023 0fbc bde4 773d 4427 28bd 1028 d43d
00000270: df9f 58bd 0478 2b3e 8987 0f3e 7d8e 453d
00000280: a0b9 433d 045f 0e3e e512 bc3c 587d 04bc
00000290: dd1d 5d3e 1e77 bdbc a5c0 71be bf62 a6bd
000002a0: 6bc7 963d 641d a43e d36d dc3d 0ef8 0e3e
000002b0: df7f ce3d 96c3 47be ae0d 303e f199 b43d
000002c0: e3a4 893d 2549 663d aad9 543d 6d80 50be
000002d0: 22c7 bf3d 5b82 543c 61c2 fe3d fd8e 9e3c
000002e0: 79a2 c8bb 5d2c 9e3d b1c8 8cbd b6c9 dd3d
000002f0: 70d6 f53d 3a3d 35bd 6fc8 94bd 4556 31be
00000300: 9eb9 b23d f6b0 babd a60a 683e b8dd 1d3e
00000310: a0da 583d f9d2 6a3d 275d 0d3e 929d b03b
00000320: 0604 f93d 73f9 453c 2253 6a3d 01dc 88bc
00000330: 44a3 55bc 4dbd 413e 9d32 8f3d c179 b5bc
00000340: f6cb 8c3e 4361 be3d 8cea 23bd de6a b9bd
00000350: 96ca b4bd f8c4 f33d aeab 303d d6d3 9f3b
00000360: 1489 453e 4534 cf3d 262a 78bd eac8 2ebe
00000370: 8344 913d 544d 82bd b99a 993e ecdd 18bd
00000380: 6392 823e 541a 993d 08dc 523e 7929 643e
00000390: 1c99 033c dfde f23d 80fa 623e cc68 a43d
000003a0: d8f0 a7bd 0405 4b3e fb4f e23c 60fa 003e
000003b0: 8e96 863d facb 8b3e ad83 45bd 458d cf3d
000003c0: b89d 4d3d ab9f 993d f035 3abd 3047 7f3d
000003d0: 900b 5abd 89cc 203e efc2 863e bba4 0a3e
000003e0: db48 343e 9122 2ebb 66e5 473e 8be0 a4bd
000003f0: ea51 20bc a3cd d23d 5123 01bd 6bf7 7d3d

action_model._discrete_distribution.branches.2.bias f4 [3]
0.29426658 -0.93599933 -0.018872958
00000000: 1caa 963e a79d 6fbf 769b 9abc

action_model._discrete_distribution.branches.2.weight f4 [3, 256]
0.0021008616 -0.01795652 0.011627864 0.026238304 -0.04171597 -0.016336739 -0.012642349 -0.03816003
0.1353459 -0.05395011 -0.0065263454 0.013193252 -0.117304794 -0.07438624 -0.13230722 -0.17319624
0.021758389 0.07815441 -0.016491894 0.0017389402 0.09837271 -0.023009578 0.043947678 0.021009766
0.025970783 0.03866311 -0.00091870973 -0.077078216 0.00821269 -0.20431371 0.040111758 -0.027647175
0.08851298 -0.11475255 -0.14671697 -0.08278106 0.055528123 -0.05707747 0.08333954 -0.13936637
-0.12915854 0.065745525 -0.049565744 -0.07917484 -0.008614558 -0.025039846 -0.09030157 -0.06255933
-0.12607595 -0.09960998 -0.06509716 0.092458785 0.090214774 -0.019515788 -0.011140143 -0.010231421
-0.06885539 0.034073196 0.064169094 0.03914751 -0.057559647 0.0017163148 -0.06874626 0.0846493
0.13183662 -0.012361423 -0.032139614 -0.1626485 -0.015225125 -0.009742144 -0.00015792345 -0.163062
-0.02082728 0.0743258 -0.11814646 -0.110836215 -0.027157959 -0.1526294 -0.12285314 -0.056496248
-0.03860896 -0.07245872 0.008611658 0.00972743 -0.02834544 -0.045293365 0.08739417 -0.002655434
-0.09622498 -0.09185404 0.06116593 0.038693517 -0.005647246 -0.011284991 0.09203178 -0.02782654
0.033783227 -0.018045833 0.024778454 -0.111936495 0.016853957 -0.038753726 0.035175465 -0.014112776
-0.01076463 -0.0846999 -0.009297255 0.08759908 0.012807484 -0.05442085 -0.07949763 0.022997778
-0.09477834 0.067986175 -0.07451091 -0.2408732 -0.047234084 -0.09898605 -0.013244775 0.014827766
0.035550132 -0.046241775 0.023101449 0.22720852 -0.024151029 0.020057479 -0.0318521 -0.03869545
-0.06660998 -0.09923599 0.030801892 -0.021674553 0.03709309 -0.03758649 -0.060234904 -0.15066646
0.09918857 0.040417757 0.038553804 -0.00890205 0.1262605 0.006263875 -0.13587554 -0.10167414
0.057765417 0.007529779 -0.029247437 -0.0639108 -0.040017076 0.097165115 0.013316247 -0.14358646
-0.08713516 0.014577885 -0.11190091 0.11123956 0.081046216 -0.039296225 0.11738196 0.09288587
-0.036838267 0.011995721 -0.031225365 0.064381234 -0.07760906 0.0802123 0.058240913 0.1251505
-0.19600226 -0.06092563 -0.097803496 -0.1343382 -0.027138732 0.039288435 0.028181385 0.05927346
-0.010686729 0.03751092 -0.052230753 0.028866487 -0.03750072 -0.0070289597 0.0103439195 0.06414688
-0.09663531 -0.021497266 -0.02591039 0.061350025 -0.08506343 0.075216405 -0.073255025 -0.048826925
-0.035731476 -0.015597502 0.015493051 -0.004744993 0.07615359 -0.12771156 0.10006332 -0.0630045
-0.052955374 0.11263567 0.02941328 0.04298137 -0.14558002 -0.003075834 0.022398975 0.04556914
-0.09559261 -0.16804017 0.039254878 -0.072777584 -0.103657834 -0.16464707 -0.007792771 0.020815853
0.12857899 -0.034344334 -0.13661385 0.12251855 -0.10332448 -0.07144096 0.047176104 0.051744394
-0.018674232 -0.047930855 -0.10700626 -0.06462369 0.05866965 -0.086799696 0.08612945 -0.027924106
0.1523187 -0.060556524 0.069193706 -0.0054546813 -0.09049644 0.032471754 0.028050212 0.07319741
-0.037013043 -0.18401581 -0.101968236 -0.05725753 -0.011220836 0.009661981 -0.06427893 -0.077298604
-0.037320677 -0.04577706 -0.036604892 0.09394165 -0.078490414 0.03691499 -0.046364386 0.088907175
00000000: 9cae 093b 8d19 93bc cc82 3e3c b6f1 d63c
00000010: 5dde 2abd a0d4 85bc db21 4fbc b14d 1cbd
00000020: 1e98 0a3e cafa 5cbd f4da d5bb 8228 583c
00000030: 7f3d f0bd d057 98bd 8b7b 07be 5b5a 31be
00000040: a63e b23c 6b0f a03d 021a 87bc 27ed e33a
00000050: a277 c93d 957e bcbc 7b02 343d ac1c ac3c
00000060: aec0 d43c 365d 1e3d 91d5 70ba 2fdb 9dbd
00000070: 858e 063c 9d37 51be 3a4c 243d 547c e2bc
00000080: 4b46 b53d 6303 ebbd f93c 16be 1e89 a9bd
00000090: 7571 633d 11ca 69bd ecad aa3d 0fb6 0ebe
000000a0: 2342 04be 97a5 863d 7305 4bbd 6b26 a2bd
000000b0: 1324 0dbc 5d20 cdbc 08f0 b8bd 1b1f 80bd
000000c0: 0e1a 01be 5100 ccbd a951 85bd 085b bd3d
000000d0: 86c2 b83d 93df 9fbc 2585 36bc b1a1 27bc
000000e0: 0e04 8dbd 5690 0b3d 166b 833d 2459 203d
000000f0: aac3 6bbd f8f5 e03a d7ca 8cbd 9d5c ad3d
00000100: 2e00 073e 9187 4abc d4a4 03bd 548d 26be
00000110: cd72 79bc 839d 1fbc 4198 25b9 baf9 26be
00000120: f99d aabc 2038 983d c5f6 f1bd 19fe e2bd
00000130: 5e7a debc e24a 1cbe 6d9a fbbd 9c68 67bd
00000140: 6e24 1ebd 3d65 94bd e917 0d3c cc5f 1f3c
00000150: b234 e8bc 8985 39bd b7fb b23d ca06 2ebb
00000160: 9a11 c5bd f91d bcbd 2089 7a3d 187d 1e3d
00000170: 880c b9bb afe4 38bc 287b bc3d 7cf4 e3bc
00000180: 4860 0a3d dbd4 93bc 2ffc ca3c f63e e5bd
00000190: 4f11 8a3c 3abc 1ebd 2614 103d 4639 67bc
000001a0: 215e 30bc 2477 adbd 8453 18bc 2567 b33d
000001b0: 7bd6 513c 66e8 5ebd a7cf a2bd d665 bc3c
000001c0: 251b c2bd 563c 8b3d 2d99 98bd 77a7 76be
000001d0: 8778 41bd 33b9 cabd 9d00 59bc 29f0 723c
000001e0: 049d 113d 0468 3dbd 403f bd3c 5aa9 683e
000001f0: 61d8 c5bc 954f a43c 5977 02bd 1f7f 1ebd
00000200: d06a 88bd 3d3c cbbd 4054 fc3c d58e b1bc
00000210: edee 173d 4bf4 19bd e0b8 76bd 4f48 1abe
00000220: 6123 cb3d 178d 253d 98ea 1d3d e7d9 11bc
00000230: 6f4a 013e 3141 cd3b f522 0bbe 883a d0bd
00000240: 6e9b 6c3d 5dbc f63b 5298 efbc aae3 82bd
00000250: f2e8 23bd 81fe c63d 632c 5a3c 5408 13be
00000260: eb73 b2bd 15d8 6e3c 4e2c e5bd 91d1 e33d
00000270: 8ffb a53d 14f5 20bd f465 f03d f23a be3d
00000280: b9e3 16bd b389 443c 56cc ffbc 4fda 833d
00000290: 80f1 9ebd 5946 a43d 068e 6e3d 7427 003e
000002a0: d1b4 48be 278d 79bd 334d c8bd f48f 09be
000002b0: 0c52 debc e9ec 203d a6dc e63c bac8 723d
000002c0: 6417 2fbc 0da5 193d eaef 55bd 6979 ec3c
000002d0: 5b9a 19bd 3053 e6bb 8b79 293c 705f 833d
000002e0: bce8 c5bd 091b b0bc 0742 d4bc 2a4a 7b3d
000002f0: bc35 aebd 0f0b 9a3d bb06 96bd befe 47bd
00000300: 2b5b 12bd aa8c 7fbc 91d6 7d3c e37b 9bbb
00000310: 6af6 9b3d d2c6 02be ffed cc3d 8108 81bd
00000320: bce7 58bd 88ad e63d 1ef4 f03c 3c0d 303d
00000330: ee12 15be ee93 49bb 0e7e b73c b5a6 3a3d
00000340: 0fc6 c3bd b912 2cbe b9c9 203d 6a0c 95bd
00000350: 8f4a d4bd 3e99 28be 805a ffbb 0286 aa3c
00000360: 36aa 033e a5ac 0cbd 80e4 0bbe 01eb fa3d
00000370: c99b d3bd a34f 92bd bb3b 413d eef1 533d
00000380: b4fa 98bc 2553 44bd 1926 dbbd 6d59 84bd
00000390: 964f 703d 0ac4 b1bd a364 b03d 18c1 e4bc
000003a0: 6ff9 1b3e 1e0a 78bd 6eb5 8d3d 2fbd b2bb
000003b0: 3356 b9bd 1a01 053d 8fc9 e53c 86e8 953d
000003c0: fd9a 17bd a46e 3cbe b9d4 d0bd df86 6abd
000003d0: 99d7 37bc 494d 1e3c aca4 83bd bb4e 9ebd
000003e0: 91dd 18bd ba80 3bbd 03ef 15bd 7b64 c03d
000003f0: 95bf a0bd 2c34 173d 95e8 3dbd f714 b63d

discrete_action_output_shape f4 [1, 3]
20.0 8.0 3.0
00000000: 0000 a041 0000 0041 0000 4040

network_body._body_endoder.seq_layers.0.bias f4 [256]
-0.17328343 -0.06434509 -0.014951589 -0.057346042 -0.024073778 -0.006640807 -0.010172294 -0.0201846
-0.094373986 0.03760301 -0.00751269 -0.09222781 -0.025569826 -0.06982586 -0.10231395 -0.045954105
-0.053915218 0.000562483 -0.043755434 -0.07346415 -0.089174695 -0.10520714 -0.033106815 -0.08069325
-0.024785252 -0.04497313 0.04085335 -0.02033298 -0.034644462 -0.040488508 0.004064848 -0.03694131
-0.028122444 -0.0025433884 -0.06716341 -0.041620534 -0.014373994 -0.01598726 0.017601104 -0.11894516
-0.08858655 -0.068653606 0.021486722 -0.0313642 -0.07040425 -0.0099858185 -0.06474635 -0.019144326
-0.0028130526 -0.0052912417 -0.012311108 -0.037812583 -0.023000373 -0.0329503 -0.034317087 0.010373081
-0.07439856 -0.031851772 -0.029464448 -0.04421236 -0.003217268 -0.028768243 -0.031500887 -0.032662544
-0.017763598 -0.057889644 -0.030348625 -0.044272497 -0.05967552 0.009650501 -0.08220531 -0.00078564975
-0.03743045 -0.020234702 -0.047657844 -0.0523717 -0.027347287 -0.07151507 -0.015224462 -0.096059486
-0.02824899 -0.009473298 -0.028627254 -0.030667037 -0.0027875078 -0.056572285 -0.037781633 -0.037646376
-0.06615124 -0.047129728 -0.08295414 -0.092781775 -0.00721066 -0.04981429 -0.082619116 -0.007745165
-0.044344336 0.004392729 -0.022651024 -0.008063599 -0.007334866 0.008711298 -0.0100630475 -0.06069341
-0.018272733 -0.009408319 -0.08319566 -0.033198994 0.0024317866 -0.042373575 -0.041351423 -0.013263429
-0.055179026 -0.028582724 -0.038696297 0.012218185 -0.009805917 -0.048079785 0.0059801186 0.0075438954
0.0111643495 -0.054090977 -0.09077712 -0.04508858 -0.08143534 0.01965915 0.007940784 -0.013194485
-0.07314693 -0.012030062 -0.04648069 -0.058473337 -0.017556628 0.026404424 0.0037592007 -0.025632929
0.0033440061 0.00982051 -0.07545778 -0.026701681 -0.033210736 -0.03643327 -0.040412888 -0.0039962376
-0.03466399 -0.012655818 -0.011288774 -0.07628878 -0.046001676 0.014113342 0.046645336 -0.050648883
-0.077802405 0.06400762 -0.025470762 -0.021253588 -0.13642721 -0.06882137 -0.017324392 -0.0023553679
-0.0049984744 -0.054480422 -0.07506204 -0.017944755 -0.023730831 -0.06926568 -0.094287075 -0.036537312
-0.023230974 -0.05945213 -0.14035763 -0.004258651 -0.02653599 -0.024195457 -0.09339958 -0.00019023212
0.0044830805 -0.048515 -0.0020435427 -0.04671047 -0.12518078 -0.04970543 -0.010641476 -0.026712304
-0.0040151356 -0.0017991599 -0.075681776 -0.01795481 0.003239203 -0.02963806 -0.016278334 -0.1643951
-0.023326537 -0.15129937 -0.038321868 -0.005407008 -0.0726428 0.008378109 -0.06947501 -0.019094007
-0.008956601 -0.017355734 -0.012693915 -0.012792601 -0.046567984 -0.025071295 -0.02643835 0.010470807
-0.06292036 0.0050652307 -0.029106991 -0.018638682 0.0701321 -0.057436924 -0.022264339 -0.031375907
-0.02573263 -0.01680995 -0.0440793 -0.032089245 -0.012910044 -0.009728712 -0.16705382 -0.034562573
-0.00947481 -0.0709548 -0.060565837 -0.041713826 -0.04435101 -0.007829549 -0.023717985 -0.021194236
-0.029087208 0.0005155083 -0.049856514 -0.020847535 -0.043069 0.0073952465 -0.068806805 0.029709866
-0.015831383 -0.07007562 -0.0045519345 -0.07518961 -0.034489185 -0.07950564 -0.12296076 -0.020603672
-0.00275065 -0.20261303 -0.028269658 -0.03451288 -0.08345488 -0.005797087 -0.07655771 -0.074052125
00000000: 3671 31be 5cc7 83bd 82f7 74bc afe3 6abd
00000010: 5f36 c5bc 209b d9bb b2a9 26bc 2d5a a5bc
00000020: 2647 c1bd 9d05 1a3d 032d f6bb efe1 bcbd
00000030: d077 d1bc dc00 8fbd fa89 d1bd 5f3a 3cbd
00000040: 34d6 5cbd 9873 133a e638 33bd 5f74 96bd
00000050: 39a1 b6bd d776 d7bd 039b 07bd 8142 a5bd
00000060: 710a cbbc bf35 38bd d855 273d 5a91 a6bc
00000070: 5ae7 0dbd 47d7 25bd 6b32 853b c54f 17bd
00000080: 0a61 e6bc faae 26bb f88c 89bd 4b7a 2abd
00000090: e780 6bbc b7f7 82bc 3130 903c 8599 f3bd
000000a0: dd6c b5bd 439a 8cbd ec04 b03c bf77 00bd
000000b0: 1a30 90bd 8f9b 23bc bc99 84bd 90d4 9cbc
000000c0: 315b 38bb 2762 adbb 88b4 49bc 5ee1 1abd
000000d0: 476b bcbc e5f6 06bd 1390 0cbd dbf3 293c
000000e0: 465e 98bd 0177 02bd 6d5f f1bc 0518 35bd
000000f0: cdd8 52bb 61ab ebbc 1307 01bd 29c9 05bd
00000100: f784 91bc b11d 6dbd ae9d f8bc 1457 35bd
00000110: 516e 74bd 231d 1e3c 425b a8bd 10f4 4dba
00000120: ac50 19bd 3fc3 a5bc df34 43bd b583 56bd
00000130: 6b07 e0bc 7e76 92bd 0670 79bc d6ba c4bd
00000140: 6d6a e7bc e435 1bbc b483 eabc 7039 fbbc
00000150: 9fae 36bb 57b8 67bd eac0 1abd 1633 1abd
00000160: 4d7a 87bd 1a0b 41bd dce3 a9bd 5f04 bebd
00000170: 6647 ecbb 120a 4cbd 3634 a9bd 27cb fdbb
00000180: 68a2 35bd e2f0 8f3b a48e b9bc 2f1d 04bc
00000190: 5159 f0bb d5b9 0e3c 7bdf 24bc a799 78bd
000001a0: b3b0 95bc 5a25 1abc 7c62 aabd abfb 07bd
000001b0: 9c5e 1f3b ea8f 2dbd 1c60 29bd da4e 59bc
000001c0: 6703 62bd 5126 eabc 0280 1ebd c82e 483c
000001d0: ffa8 20bc 4fef 44bd dff4 c33b c832 f73b
000001e0: adea 363c 808e 5dbd 5be9 b9bd ceae 38bd
000001f0: 92c7 a6bd 3a0c a13c 101a 023c ae2d 58bc
00000200: 0fce 95bd bd19 45bc 8962 3ebd bd81 6fbd
00000210: ebd2 8fbc 174e d83c ec5c 763b 26fc d1bc
00000220: 1d27 5b3b 34e6 203c 9c89 9abd 7cbd dabc
00000230: fb07 08bd 0d3b 15bd fc87 25bd dff2 82bb
00000240: d4fb 0dbd 595a 4fbc 8df4 38bc 4b3d 9cbd
00000250: 416c 3cbd a63b 673c 2e0f 3f3d 3475 4fbd
00000260: de56 9fbd 6d16 833d 0fa8 d0bc 011c aebc
00000270: 93b3 0bbe 38f2 8cbd e2eb 8dbc 845c 1abb
00000280: 3eca a3bb dd26 5fbd 20ba 99bd e100 93bc
00000290: 2967 c2bc 2adb 8dbd 9519 c1bd 26a8 15bd
000002a0: e24e bebc 1484 73bd e9b9 0fbe 278c 8bbb
000002b0: 0162 d9bc 8d35 c6bc 4748 bfbd 0c79 47b9
000002c0: cee6 923b aab7 46bd f5ec 05bb 7a53 3fbd
000002d0: 642f 00be ec97 4bbd 9659 2ebc c3d3 dabc
000002e0: 6691 83bb cad1 ebba 0cff 9abd f715 93bc
000002f0: cf48 543b 84cb f2bc 245a 85bc 3057 28be
00000300: 4b17 bfbc 39ee 1abe 64f7 1cbd 452d b1bb
00000310: c0c5 94bd 5644 093c ea48 8ebd 096b 9cbc
00000320: b5be 12bc 9d2d 8ebc 23fa 4fbc 0f98 51bc
00000330: 12be 3ebd 5162 cdbc 3d95 d8bc bf8d 2b3c
00000340: 64dc 80bd 3cfa a53b c971 eebc 26b0 98bc
00000350: 6ba1 8f3d fb42 6bbd b463 b6bc 0684 00bd
00000360: 3dcd d2bc 05b5 89bc 7f8c 34bd 0370 03bd
00000370: a684 53bc 2d65 1fbc 2810 2bbe 7c91 0dbd
00000380: 3c3c 1bbc c050 91bd e213 78bd 1edc 2abd
00000390: 68a9 35bd 8247 00bc 384c c2bc 899f adbc
000003a0: 4c48 eebc 2d23 073a 5836 4cbd 73c8 aabc
000003b0: 1f69 30bd d353 f23b 95ea 8cbd 1b62 f33c
000003c0: d1b0 81bc cf83 8fbd 6528 95bb 03fd 99bd
000003d0: 8844 0dbd dad3 a2bd dad2 fbbd 08c9 a8bc
000003e0: 4044 34bb ca79 4fbe c595 e7bc 615d 0dbd
000003f0: 64ea aabd 7ef5 bdbb 4aca 9cbd a4a8 97bd

network_body._body_endoder.seq_layers.0.weight f4 [256, 124]
-0.04950246 0.028866723 -0.019222828 0.037334453 0.022154428 -0.024954988 0.1443313 0.3233011
0.15938726 0.1145718 0.019222414 -0.102167085 0.06319663 0.16598435 -0.014308601 0.41750124
0.1286421 0.19514728 0.07928637 0.077703156 0.051222 0.24074714 -0.047138557 0.23484124
0.19192235 0.14732489 0.093690686 0.017044075 -0.068233214 0.08922331 0.31488508 0.09989164
0.12353187 0.11276322 0.055465084 -0.09406053 -0.03296025 0.32934284 -0.07387506 0.22053957
-0.0062978393 -0.010628963 0.10683207 0.108817615 0.18229225 0.06433188 0.12808001 0.116845824
0.33420742 0.12157021 0.063905954 -0.002388635 0.14655396 -0.14810722 0.16008443 0.03399626
0.08931999 -0.019339744 0.03577898 0.0060971915 0.3445831 -0.06480419 0.088334136 0.074262105
-0.07799707 -0.055288423 -0.17417103 -0.12108656 -0.14644246 -0.060519822 -0.29693428 -0.18740682
-0.08794567 -0.19462898 0.048221014 -0.15080437 -0.10310227 -0.024435291 -0.06227984 -0.2205716
-0.25866735 -0.2553948 -0.033112846 -0.12731054 -0.015782848 -0.03990937 -0.013696649 -0.17782211
-0.044717077 -0.06248118 -0.18158667 -0.14432454 -0.10956266 -0.106126584 -0.28302068 -0.2438337
-0.11181836 0.055285387 -0.09594991 -0.1376708 -0.20663235 -0.0518638 -0.4093112 -0.060567047
-0.10261323 0.005969393 -0.034469552 -0.41300368 -0.10349765 -0.0035998754 -0.13028245 -0.15590864
0.051528957 -0.22416745 -0.18168043 -0.15522319 -0.05817234 -0.06695025 -0.0489974 -0.12615374
-0.30254555 -0.122829296 -0.06290738 -0.17936355 -0.19653882 -0.038426377 0.014368379 -0.1939991
0.14578164 -0.103490844 -0.00031611737 0.081699416 0.07446911 -0.21591331 0.16134183 0.08963398
-0.016771825 0.02273406 -0.14867537 -0.003760704 0.07875203 -0.019002836 -0.17007414 -0.13700578
0.34216022 0.25260553 0.08322715 0.24121417 0.048909098 -0.07447083 -0.02839669 0.117602296
0.45713276 0.3012842 0.15835883 0.031941455 -0.07811585 -0.065382734 0.0825094 0.15386909
-0.055876255 0.10860499 0.1109532 -0.04728284 -0.20777494 -0.1780678 0.07001857 0.1993239
-0.11480317 0.017714487 0.09679637 0.38895917 0.09561696 -0.061286718 -0.1059488 0.16374443
-0.11029371 0.02955152 0.06499609 0.0041029584 -0.052479893 -0.16626461 -0.12078712 0.44398022
0.46117514 -0.05244836 -0.09555379 0.10553178 0.0003904639 -0.09224115 0.0044533075 -0.13603851
-0.06154194 0.12988643 -0.058467355 -0.10090496 -0.19869834 -0.31336308 0.012829517 0.06447714
-0.097771555 0.045799628 -0.00091741857 -0.05018733 -0.022131706 0.10258753 0.17285712 -0.2677689
0.05910601 -0.2195237 -0.035387084 -0.086652905 0.055678505 -0.19181399 0.18826292 -0.01431868
0.0080449255 -0.031910636 0.042065516 -0.043157745 -0.13478915 -0.018150374 -0.14843677 -0.08175722
-0.12931386 -0.18764704 0.050575957 -0.15799534 -0.21848333 -0.29973128 0.1890228 -0.11722378
-0.048183866 -0.13525292 -0.09834174 -0.07484552 0.07141376 -0.14663887 -0.0500782 -0.08893229
-0.1785637 0.0056359824 -0.038866516 -0.16994444 0.11952019 -0.030587478 -0.09698856 0.0098901745
0.10018996 0.2373834 0.053094674 0.34989566 0.43117684 -0.28672177 -0.013769348 0.19913009
00000000: 17c3 4abd e879 ec3c 3179 9dbc 03ec 183d
00000010: 347d b53c 676e ccbc 96cb 133e b987 a53e
00000020: 6a36 233e 9fa4 ea3d 5378 9d3c fa3c d1bd
00000030: 3c6d 813d cdf7 293e 9f6e 6abc b9c2 d53e
00000040: c1ba 033e b0d4 473e e460 a23d d522 9f3d
00000050: 29ce 513d 6b86 763e 5c14 41bd 397a 703e
00000060: 4b87 443e 56dc 163e e7e0 bf3d 04a0 8b3c
00000070: dbbd 8bbd b6ba b63d 9e38 a13e fd93 cc3d
00000080: 47fe fc3d 67f0 e63d 5b2f 633d cfa2 c0bd
00000090: 5401 07bd a09f a83e cf4b 97bd 20d5 613e
000000a0: 1b5e cebb 1a25 2ebc c6ca da3d c5db de3d
000000b0: d2aa 3a3e 6fc0 833d 6827 033e dd4c ef3d
000000c0: 3c1d ab3e cdf9 f83d 20e1 823d a58a 1cbb
000000d0: 3e12 163e 6ba9 17be 2ced 233e aa3f 0b3d
000000e0: 66ed b63d 626e 9ebc fb8c 123d f3ca c73b
000000f0: 326d b03e 0fb8 84bd 87e8 b43d bb16 983d
00000100: eebc 9fbd 1d76 62bd e459 32be 3bfc f7bd
00000110: 03f5 15be a2e3 77bd c507 98be 93e7 3fbe
00000120: dc1c b4bd d24c 47be 6683 453d 766c 1abe
00000130: 4827 d3bd 852c c8bc 2519 7fbd 86dd 61be
00000140: 0c70 84be 1bc3 82be 56a1 07bd b25d 02be
00000150: 084b 81bc 0278 23bd e967 60bc 0017 36be
00000160: 4129 37bd 44ec 7fbd dbf1 39be d0c9 13be
00000170: 6362 e0bd e558 d9bd 16e8 90be 8baf 79be
00000180: 0601 e5bd ee72 623d 6381 c4bd 93f9 0cbe
00000190: 6e97 53be 236f 54bd 3d91 d1be 2715 78bd
000001a0: e326 d2bd e69a c33b f22f 0dbd 3875 d3be
000001b0: 93f6 d3bd e3eb 6bbb c368 05be 84a6 1fbe
000001c0: 0710 533d 278c 65be 6f0a 3abe d4f2 1ebe
000001d0: 1f46 6ebd 361d 89bd 7fb1 48bd 722e 01be
000001e0: 40e7 9abe ed8d fbbd 96d5 80bd 14ab 37be
000001f0: 7941 49be fa64 1dbd 5969 6b3c b3a7 46be
00000200: c847 153e 02f3 d3bd 8ebc a5b9 0652 a73d
00000210: 4383 983d 6118 5dbe cb36 253e 0592 b73d
00000220: 1165 89bc c83c ba3c 5b3e 18be 2576 76bb
00000230: bf48 a13d d6ab 9bbc ea27 2ebe 3e4b 0cbe
00000240: a02f af3e 8355 813e ff72 aa3d d900 773e
00000250: e854 483d 2a84 98bd 2da0 e8bc 79d9 f03d
00000260: 4e0d ea3e ec41 9a3e d128 223e 0bd5 023d
00000270: 34fb 9fbd 62e7 85bd b0fa a83d dc8f 1d3e
00000280: 80de 64bd 4b6c de3d 6e3b e33d a7ab 41bd
00000290: f4c2 54be 6857 36be e565 8f3d 901b 4c3e
000002a0: ed1d ebbd f91d 913c 2d3d c63d a825 c73e
000002b0: d3d2 c33d c807 7bbd affb d8bd 9fac 273e
000002c0: abe1 e1bd 0716 f23c ac1c 853d 1c72 863b
000002d0: 28f5 56bd 4541 2abe 3d5f f7bd 6051 e33e
000002e0: 261f ec3e 17d4 56bd b5b1 c3bd 0c21 d83d
000002f0: 2db7 cc39 eee8 bcbd 0ded 913b ae4d 0bbe
00000300: 6713 7cbd f300 053e 777b 6fbd 42a7 cebd
00000310: 9477 4bbe 2071 a0be e532 523c 970c 843d
00000320: 743c c8bd 6498 3b3d eb7e 70ba 3b91 4dbd
00000330: 8d4d b5bc 6919 d23d 7501 313e 0119 89be
00000340: 2519 723d d2ca 60be 0cf2 10bd 1477 b1bd
00000350: 250f 643d e36a 44be ffc7 403e e698 6abc
00000360: ddce 033c bab4 02bd e44c 2c3d 2dc6 30bd
00000370: 2b06 0abe 18b0 94bc cfff 17be 5470 a7bd
00000380: da6a 04be 8c26 40be bc28 4f3d 88c9 21be
00000390: 18ba 5fbe 6176 99be 318f 413e 0513 f0bd
000003a0: 725c 45bd be7f 0abe 6567 c9bd 9c48 99bd
000003b0: 6141 923d 8028 16be cc1e 4dbd 2222 b6bd
000003c0: 67d9 36be 0cae b83b 7f32 1fbd ea05 2ebe
000003d0: 00c7 f43d 9792 fabc f0a1 c6bd 660a 223c
000003e0: 6530 cd3d a214 733e cd79 593d 8625 b33e
000003f0: 36c3 dc3e 32cd 92be d598 61bc c2e8 4b3e

network_body._body_endoder.seq_layers.2.bias f4 [256]
-0.07297068 -0.0151603995 -0.1009219 -0.10367306 -0.073921084 -0.045849007 -0.1909947 -0.074502796
0.02955412 -0.12799525 -0.13972913 -0.06628067 -0.07802976 -0.08401462 -0.11156203 -0.13716507
0.058914978 -0.08833106 -0.17319348 -0.047131512 -0.018927354 -0.11091547 -0.117291294 -0.15420452
-0.0341517 -0.038753413 0.0034350432 -0.012646886 -0.038102213 -0.09489792 -0.026530702 -0.12924567
-0.05195096 -0.16170491 -0.08742438 -0.056323312 -0.009654901 -0.057488777 -0.042935673 -0.12820885
-0.0930656 -0.048008546 -0.023991683 -0.15177327 -0.12824982 -0.07100011 -0.08106239 -0.09655963
-0.09367163 -0.008015443 -0.070329696 -0.11690563 -0.07448889 -0.15608498 -0.1488514 -0.133299
-0.048516594 -0.07767313 -0.08589209 -0.081519455 -0.10494916 -0.03616642 -0.088953786 0.25946873
-0.04620537 -0.20738783 -0.07526122 -0.12062746 -0.14798391 -0.12883627 -0.13062763 -0.09032684
-0.14003083 0.012084693 -0.16352049 -0.16390489 -0.09708814 -0.06681807 -0.07429343 -0.085012466
-0.13371402 -0.07635141 0.0012772252 -0.033075556 -0.15786627 -0.09757757 0.0011146839 -0.12945925
-0.11840967 -0.052910738 -0.109300114 -0.051252745 -0.08121257 -0.08417085 -0.009986316 0.011581558
-0.029650545 -0.082899034 -0.062170908 -0.06784876 -0.15403669 -0.09032819 -0.08199219 0.0433663
-0.06645438 -0.1426541 -0.077237934 -0.05097044 -0.011955697 -0.103597134 -0.05748995 -0.101045854
-0.044770755 -0.07182056 -0.054082472 -0.12668753 -0.08062331 -0.24799918 -0.13273007 -0.0021206022
-0.014727788 -0.14666575 -0.051108155 -0.0806848 -0.04429419 -0.07020084 -0.059386283 -0.16210774
-0.058993205 -0.057080496 0.055726033 -0.08212008 -0.1615423 -0.038095366 -0.06872355 -0.11000803
-0.11050146 -0.09175115 -0.07877334 -0.023143828 -0.040287595 -0.06411383 -0.06768167 -0.09921694
-0.032378267 -0.13128304 0.02273764 -0.04738608 -0.05553292 -0.04117856 -0.043253563 -0.10160125
-0.14586678 -0.10648041 -0.08325464 -0.08505962 -0.08652139 -0.03262846 -0.08916556 -0.0656063
-0.07009628 -0.14665313 -0.07036789 -0.054841936 -0.073721886 -0.057077654 0.052837566 -0.10561823
-0.076365344 0.00706673 -0.09670963 -0.07475606 -0.10844062 -0.19831052 -0.015843892 -0.012148177
-0.043151602 -0.0015102826 -0.08866081 -0.012038753 -0.085707985 -0.16497932 -0.1463737 -0.1007455
-0.11006241 -0.08170632 -0.109986246 -0.06804884 -0.15005118 -0.0786306 -0.11149061 -0.17577796
-0.046382442 -0.12340545 0.040487837 -0.048664268 -0.06252507 -0.083911605 -0.051772896 -0.10287814
-0.040495966 0.006277646 -0.060467724 -0.08244688 -0.06512813 -0.10742458 -0.07739441 -0.02703261
-0.11250219 -0.15986043 -0.13871488 -0.08583693 -0.042360295 -0.033451635 -0.006142061 -0.017435173
-0.044965535 -0.084172346 -0.07972891 -0.07024932 -0.10600379 -0.040934015 -0.04981166 -0.13663399
-0.083385035 -0.102862604 -0.08786099 -0.06890853 -0.029249068 -0.0640841 -0.040230513 -0.14320377
-0.067105524 -0.0958036 -0.123156555 -0.10797282 -0.12467748 -0.037863426 -0.041780394 0.1839877
-0.080018766 -0.14104022 -0.09211553 -0.09045396 -0.05781095 -0.017124938 -0.047317203 -0.07480989
-0.10780591 -0.17904085 -0.018071096 -0.04036135 -0.06001314 -0.04648363 -0.053915367 -0.05424764
00000000: a771 95bd 5363 78bc 24b0 cebd 8b52 d4bd
00000010: f063 97bd 2bcc 3bbd 1d94 43be ec94 98bd
00000020: 7b1b f23c 3011 03be 2715 0fbe 29be 87bd
00000030: 11ce 9fbd db0f acbd a27a e4bd 0075 0cbe
00000040: d550 713d eae6 b4bd a259 31be f90c 41bd
00000050: 8a0d 9bbc a627 e3bd 6b36 f0bd cae7 1dbe
00000060: a7e2 0bbd e6bb 1ebd 761e 613b e234 4fbc
00000070: 1111 1cbd d759 c2bd ea56 d9bc fa58 04be
00000080: 88ca 54bd f995 25be 8e0b b3bd 46b3 66bd
00000090: 972f 1ebc 5a79 6bbd 51dd 2fbd 2e49 03be
000000a0: 2d99 bebd 9ca4 44bd 358a c4bc 746a 1bbe
000000b0: ec53 03be 8168 91bd 0a04 a6bd 0ec1 c5bd
000000c0: e9d6 bfbd 3453 03bc 0409 90bd 386c efbd
000000d0: a28d 98bd bed4 1fbe 806c 18be 887f 08be
000000e0: 56b9 46bd 1713 9fbd 31e8 afbd acf3 a6bd
000000f0: 96ef d6bd 3d23 14bd 672d b6bd 16d9 843e
00000100: d841 3dbd 7a5d 54be 8e22 9abd 880b f7bd
00000110: 1889 17be a8ed 03be 40c3 05be 47fd b8bd
00000120: 3e64 0fbe e0fe 453c ea71 27be afd6 27be
00000130: 26d6 c6bd ead7 88bd 2727 98bd 041b aebd
00000140: 54ec 08be 215e 9cbd 9168 a73a 3c7a 07bd
00000150: b2a7 21be c0d6 c7bd 961a 923a f790 04be
00000160: c580 f2bd eeb8 58bd bdd8 dfbd 66ee 51bd
00000170: c752 a6bd c461 acbd a59d 23bc 93c0 3d3c
00000180: b3e5 f2bc f8c6 a9bd eca6 7ebd 4af4 8abd
00000190: cbbb 1dbe fcfd b8bd 85eb a7bd dda0 313d
000001a0: 3c19 88bd eb13 12be ec2e 9ebd 61c6 50bd
000001b0: d4e1 43bc bc2a d4bd 957a 6bbd 21f1 cebd
000001c0: 8a61 37bd a816 93bd 9585 5dbd 60ba 01be
000001d0: d51d a5bd 7ff3 7dbe 64ea 07be cdf9 0abb
000001e0: d24c 71bc 8c2f 16be c956 51bd 133e a5bd
000001f0: d36d 35bd 75c5 8fbd 083f 73bd 92ff 25be
00000200: dca2 71bd 3dcd 69bd fb40 643d 932e a8bd
00000210: 586b 25be e309 1cbd efbe 8cbd e44b e1bd
00000220: 974e e2bd 07e8 bbbd eb53 a1bd 2098 bdbc
00000230: 9b04 25bd 1d4e 83bd b09c 8abd 4032 cbbd
00000240: 139f 04bd 106f 06be 4a44 ba3c e817 42bd
00000250: 7d76 63bd daaa 28bd a62a 31bd 5114 d0bd
00000260: 1a5e 15be 6712 dabd 6981 aabd bd33 aebd
00000270: 2032 b1bd 6ca5 05bd 6f9c b6bd 995c 86bd
00000280: a38e 8fbd 3d2c 16be 0a1d 90bd f0a1 60bd
00000290: 80fb 96bd 42ca 69bd 346c 583d 5f4e d8bd
000002a0: 6f65 9cbd 0790 e73b b30f c6bd b519 99bd
000002b0: 1e16 debd ea11 4bbe 0dcb 81bc 2609 47bc
000002c0: bcbf 30bd adf4 c5ba cc93 b5bd 313e 45bc
000002d0: ab87 afbd 57f0 28be fde2 15be a853 cebd
000002e0: 6768 e1bd a555 a7bd 7840 e1bd 315d 8bbd
000002f0: 04a7 19be 1409 a1bd 3055 e4bd 23ff 33be
00000300: 84fb 3dbd ffbb fcbd 93d6 253d 2f54 47bd
00000310: 250d 80bd d9d9 abbd d10f 54bd c6b1 d2bd
00000320: 19df 25bd b6b4 cd3b 01ad 77bd e9d9 a8bd
00000330: e661 85bd 6b01 dcbd f680 9ebd 7e73 ddbc
00000340: 8c67 e6bd 74b2 23be 460b 0ebe 46cb afbd
00000350: fd81 2dbd 9504 09bd 5843 c9bb 35d4 8ebc
00000360: c82d 38bd 8d62 acbd e948 a3bd e0de 8fbd
00000370: 8418 d9bd 6daa 27bd 5007 4cbd c8e9 0bbe
00000380: c6c5 aabd a1a9 d2bd 76f0 b3bd ea1f 8dbd
00000390: be9b efbc 863e 83bd c0c8 24bd 02a4 12be
000003a0: 9f6e 89bd ae34 c4bd 8139 fcbd db20 ddbd
000003b0: e856 ffbd ae16 1bbd eb21 2bbd 4667 3c3e
000003c0: e1e0 a3bd d96c 10be 11a7 bcbd ed3f b9bd
000003d0: 2dcb 6cbd 9949 8cbc afcf 41bd ed35 99bd
000003e0: 58c9 dcbd 7c56 37be d609 94bc f151 25bd
000003f0: 57d0 75bd 9e65 3ebd 5cd6 5cbd c632 5ebd

network_body._body_endoder.seq_layers.2.weight f4 [256, 256]
-0.14816214 -0.094862595 -0.13021612 -0.07289991 0.10326933 -0.09451097 -0.071746424 -0.046087775
-0.05287862 -0.07875463 -0.09715026 -0.1678154 0.04187264 -0.08453939 0.09999956 0.050769497
-0.14933275 0.18188433 -0.16971643 -0.119815886 -0.023265498 0.15125485 -0.17092723 0.12935984
0.27431303 -0.09035756 -0.06856527 -0.07451348 -0.2079238 0.13864578 -0.19084236 0.26154616
0.10123975 0.103783436 0.009680868 0.11409463 0.004270106 -0.112474516 0.11430105 -0.0053828103
-0.15209389 -0.012972526 -0.24150977 0.2543248 0.08042444 0.13449715 0.030587088 0.01663637
-0.1840546 -0.17985718 -0.051757995 -0.07979526 -0.0034411792 0.052314173 0.04140056 0.018436186
-0.16297565 -0.03349741 -0.22254078 -0.10152853 -0.013696508 -0.016161932 -0.21142367 0.09893925
0.09031897 -0.14834106 0.09835903 -0.053001143 -0.20256372 0.01867073 -0.24485233 -0.16013603
0.2905977 -0.110453926 -0.054443892 0.00538563 0.084047705 -0.16945295 0.08196298 -0.08550757
-0.062461797 -0.05359539 0.072548054 -0.05334467 -0.035576005 -0.07999721 -0.13592058 0.13714203
0.12453491 -0.08691622 -0.04760552 0.18842831 0.14628664 -0.17104155 -0.2513976 -0.15224786
0.023854213 0.22037388 0.1900864 -0.015925221 0.11423705 0.10081154 -0.02631207 -0.16550002
-0.049468193 -0.38437456 -0.04934084 -0.06060926 0.024529876 -0.20533969 0.059217606 0.14810169
0.067153655 0.18580753 -0.06863643 -0.23035032 0.1397206 -0.06879326 -0.061185762 -0.11261507
0.05541945 0.056948844 -0.086377196 -0.11563553 0.11344113 -0.30447733 -0.064082004 -0.035062037
-0.20574532 0.065080665 -0.14638668 -0.054952033 -0.03586372 -0.12120764 -0.074379705 0.120345436
0.028561521 -0.13165505 0.08285993 -0.044152226 0.04317105 -0.16082937 -0.08153301 -0.18039408
-0.21773162 0.060602397 -0.23246415 -0.108747885 -0.021697132 -0.11296675 0.040646598 -0.17097704
-0.11460292 -0.052557997 -0.016535956 -0.09098311 0.10615524 0.1666787 0.09755145 -0.06757603
0.10787021 0.03530795 0.08968102 0.069848076 -0.061356097 -0.20623566 -0.19911464 0.16639607
-0.058240324 0.1958798 -0.10044252 -0.025454616 -0.042621396 -0.0111206435 0.14760146 -0.04346044
-0.048205703 0.16688888 -0.037860222 0.050125025 -0.16261992 0.17047764 -0.16262618 -0.020801721
0.14863594 0.23617244 -0.06265016 -0.17126457 -0.045952413 -0.13966149 -0.09640603 -0.04079178
-0.22553894 -0.21744174 0.123729944 -0.23841791 0.07031292 -0.0011966113 -0.007368624 -0.0056965034
0.07745654 0.3366895 0.032249745 -0.06568725 -0.03160445 -0.07388461 -0.024293311 0.026767345
0.07665788 0.13114247 0.13115701 -0.14521651 0.10250132 0.14410459 0.06821538 -0.063789085
-0.2102897 -0.08572378 0.16693272 0.24756503 0.042555224 0.057842214 0.08186638 -0.06003775
-0.17939457 -0.039064847 0.01606141 -0.03830328 -0.049832653 -0.0077733197 -0.39022124 -0.118932836
-0.0046803067 0.07658282 0.06363231 -0.051126175 -0.103161804 -0.002887454 0.06238809 -0.09993843
-0.085573845 -0.22902757 -0.102683224 -0.1286296 -0.1654209 -0.038695805 0.10613106 0.23589239
0.102426834 0.14596592 0.0443303 -0.014639865 -0.15036575 0.15979898 -0.028156085 -0.21960932
00000000: d1b7 17be 5247 c2bd 6057 05be 8c4c 95bd
00000010: df7e d33d f88e c1bd caef 92bd 89c6 3cbd
00000020: 4097 58bd 1c4a a1bd b7f6 c6bd cdd7 2bbe
00000030: a582 2b3d fd22 adbd 92cc cc3d adf3 4f3d
00000040: afea 18be e33f 3a3e 25ca 2dbe 0862 f5bd
00000050: 4997 bebc 8de2 1a3e 8c07 2fbe e876 043e
00000060: c272 8c3e 620d b9bd f36b 8cbd 869a 98bd
00000070: fae9 54be 29f9 0d3e 2e6c 43be 61e9 853e
00000080: c956 cf3d 698c d43d 819c 1e3c 72aa e93d
00000090: 3fec 8b3b 0a59 e6bd ab16 ea3d 4962 b0bb
000000a0: 80be 1bbe b88a 54bc 564e 77be dc36 823e
000000b0: 92b5 a43d 9fb9 093e c691 fa3c ff48 883c
000000c0: cf78 3cbe 7b2c 38be 3100 54bd b36b a3bd
000000d0: 6885 61bb 6347 563d a293 293d 7c07 973c
000000e0: 17e3 26be 9534 09bd bbe1 63be 31ee cfbd
000000f0: 5167 60bc 0766 84bc 727f 58be a9a0 ca3d
00000100: 27f9 b83d b8e6 17be 7670 c93d ba17 59bd
00000110: dd6c 4fbe 5cf3 983c 92ba 7abe b3fa 23be
00000120: 39c9 943e ab35 e2bd 8f00 5fbd f079 b03b
00000130: 3421 ac3d 1385 2dbe 35dc a73d 981e afbd
00000140: f1d7 7fbd d786 5bbd 1394 943d f17f 5abd
00000150: 25b8 11bd 94d5 a3bd c42e 0bbe f66e 0c3e
00000160: 290c ff3d 2201 b2bd 01fe 42bd 5af3 403e
00000170: 2acc 153e 8425 2fbe 30b7 80be dde6 1bbe
00000180: e969 c33c b1a9 613e 02a6 423e 9c75 82bc
00000190: 1df5 e93d 4876 ce3d 698c d7bc d678 29be
000001a0: 299f 4abd becc c4be 9f19 4abd 6a41 78bd
000001b0: e1f2 c83c 9144 52be 298e 723d f8a7 173e
000001c0: db87 893d 5444 3e3e 4291 8cbd f4e0 6bbe
000001d0: eb12 0f3e 7be3 8cbd ec9d 7abd bba2 e6bd
000001e0: 81ff 623d 3143 693d 87e6 b0bd 52d2 ecbd
000001f0: d353 e83d 74e4 9bbe 6d3d 83bd 369d 0fbd
00000200: e7ae 52be 0349 853d 64e6 15be 6215 61bd
00000210: d6e5 12bd b63b f8bd 6354 98bd ab77 f63d
00000220: daf9 e93c 95d0 06be 78b2 a93d f7d8 34bd
00000230: 20d4 303d 74b0 24be c7fa a6bd 3ab9 38be
00000240: 0af5 5ebe 383a 783d 150b 6ebe 36b7 debd
00000250: 2fbe b1bc 1d5b e7bd 0c7d 263d 9b14 2fbe
00000260: f0b4 eabd 0e47 57bd 6a76 87bc 5a55 babd
00000270: eb67 d93d d2ad 2a3e 0ec9 c73d 4d65 8abd
00000280: 0feb dc3d 129f 103d afaa b73d 820c 8f3d
00000290: 8850 7bbd 712f 53be b5e4 4bbe bb63 2a3e
000002a0: 688d 6ebd b794 483e cfb4 cdbd 3386 d0bc
000002b0: c693 2ebd 5c33 36bc d624 173e 9303 32bd
000002c0: 5873 45bd ebe4 2a3e 5213 1bbd e64f 4d3d
000002d0: d685 26be b191 2e3e 7a87 26be 5f68 aabc
000002e0: 0534 183e 30d7 713e ba4e 80bd fb5f 2fbe
000002f0: 9938 3cbd 6c03 0fbe 8670 c5bd 4815 27bd
00000300: aef3 66be 0ca9 5ebe 2066 fd3d d323 74be
00000310: 3800 903d 9dd7 9cba 8074 f1bb bca9 babb
00000320: 89a1 9e3d 9162 ac3e 4f18 043d 0987 86bd
00000330: ab73 01bd d050 97bd c402 c7bc 3147 db3c
00000340: cefe 9c3d 364a 063e 064e 063e a3b3 14be
00000350: 36ec d13d 2790 133e 81b4 8b3d daa3 82bd
00000360: 2f56 57be f38f afbd 69f0 2a3e b081 7d3e
00000370: 634e 2e3d f5eb 6c3d 90a9 a73d 25ea 75bd
00000380: 36b3 37be 7602 20bd 3893 833c e6e3 1cbd
00000390: 531d 4cbd 55b7 febb 14cb c7be 0f93 f3bd
000003a0: 425d 99bb 74d7 9c3d a851 823d ae69 51bd
000003b0: 7f46 d3bd 703b 3dbb a78a 7f3d 85ac ccbd
000003c0: 5741 afbd 3486 6abe 954b d2bd 7ab7 03be
000003d0: 1964 29be 7e7f 1ebd 3e5b d93d c68d 713e
000003e0: 29c5 d13d 1778 153e b093 353d 0bdc 6fbc
000003f0: 7bf9 19be 58a2 233e 97a7 e6bc 44e1 60be
