results/ShooterSimple_Apresentacao_2/ShooterSimple/ShooterSimple-499963.onnx (onnx, 89698 bytes, 11 tensors)

action_model._discrete_distribution.branches.0.bias f4 [5]
00000000: 9e28 283e b676 ed3d ec73 48be e3e7 94bd
00000010: 0491 c33c
0.16421744 0.11594908 -0.1957547 -0.072707914 0.02387286

action_model._discrete_distribution.branches.0.weight f4 [5, 128]
00000000: bb8a c83d b8c2 a53c d7bf aabc 45f5 fd3c
00000010: 84e2 613d e743 4b3d c8a5 8dbd 6c68 b8bd
00000020: 1975 0dbd 6676 53bc 4840 8b3c e134 6b3d
00000030: ae90 f73d c4fd 583d 6ec9 433a a761 b43d
00000040: 4d5b cebb e317 cabc bd3e 443d 9814 0ebd
00000050: 28fe eabd a39d 5c3c b2d5 d9bd f0c2 45bd
00000060: 48b3 823d 54e4 1c3e 7538 f0bd 551e b9bc
00000070: 0586 17be 23c1 9abd b31d c1bd afd7 2fbe
00000080: 728d 6e3d 3521 fb3c 267c adbd baff 173c
00000090: d593 05be 9dad 1fbc 1187 583d ea15 b93d
000000a0: 7b4e 433d 3420 353d c457 0ebe 7273 29bd
000000b0: 9774 943d 0e6e 253c d68c 09be 3a4c 163e
000000c0: 737a a6bd a31d a73d f651 dabd 21b2 b3bd
000000d0: 7af8 b1bd 32a9 85bc ee4a a33d 983c 85be
000000e0: 3325 6a3d 385f 47bd 005e 103e 1034 2bbe
000000f0: 0659 663d b78c 08bd 08fb cc3c b21f 2d3e
00000100: 0e03 713d cd0d 183e 969c f13b a126 263d
00000110: c767 963c 9a6f dd3d 9322 94bc f635 0a3e
00000120: 6e5d 993d 04ee 9f3b 6941 0f3e 4467 2dbd
00000130: 9bf2 6cbb 85d8 15be 4e85 14be e1ce e2ba
00000140: 0907 70ba a107 9d3c 559d e03c d8a0 90bd
00000150: 1453 2f3d 72c5 88bb d570 77bd f9b9 79bd
00000160: c876 a1bc 69d4 433c 6cc2 d63d 1fc7 1d3c
00000170: 6618 34bd 3adb c4bd c38e 54bd c08b 56bc
00000180: 1623 16be 547d b7bd 8b82 8cbd 57f6 eb3c
00000190: dcb9 e1bd 0754 c13d 1da9 c23c afcd 683c
000001a0: b49e 40bd 7e11 03be 9d0c bb3d fb53 f2bb
000001b0: 99c3 9e3d a6c0 9e3d b490 9cbd 77c9 adbc
000001c0: 5e62 123d 7017 27be c33c 06be 1334 e3bd
000001d0: c2d8 4e3c b1d9 a03d a69e ae3d 42a2 113d
000001e0: 06ef 55bb 560a 3e3d 2c35 3c3e 07d1 a43d
000001f0: e091 e7bd 8d8b 34bd 1b6c 1f3c 3272 243e
00000200: 305e 51be c14b 22bd c8b5 86bd 8a12 063d
00000210: 4ecb 7ebd cd7a 77be f7d3 e43c a68b 063d
00000220: 14ac cdbd eb26 7abc 0040 ddbd a4c3 e4bd
00000230: 1cb5 803d 568e 15bc c269 ddbd 9ea0 e8b7
00000240: 9373 e2bd baa0 abbd d226 3eba 89d2 1e3e
00000250: 0250 b8bd e656 02be 7728 b53e 7118 3fbe
00000260: 4664 34bc 7f1d 243b 5f66 af3c 06c7 3abd
00000270: 2522 07be 0885 3bbe f1ee 13be e8ed b43d
00000280: 2688 aebd 4064 ed3d b4d0 4ebe 6fce a2bd
00000290: 308b f0bd 1b2b 5bbd 319a 0b3d b0e0 4d3c
000002a0: 717e 533e e52a 26bd 731f 28be a947 25be
000002b0: 50f2 c5bd 8989 86bd 2b10 b1bd 088c 1cbe
000002c0: 056f 0f3d 2221 a5bd 12ac 1cbd 9413 1fbe
000002d0: 9410 893d 8d3c b43c f047 8b3d 8531 b53a
000002e0: 8f52 d8bd 5273 493d cd31 183d efe8 9bbd
000002f0: f773 09bd 9ada 8dbd 9e86 233e 123f 71bd
00000300: a3d2 21be 9dfb c3bd 2b67 e3bc 569e f2bd
00000310: d7a6 02be a488 1dbd fcfa 04bc dde1 163d
00000320: b94b 2fbe 93cb 2e3d 8994 ad3c 0915 27be
00000330: 096b 16be e073 8c3d bc73 bebd 4d6f d03b
00000340: 8b87 03bd 3536 7abd 83ab a7bd cf97 21be
00000350: 1c8b 18be 63a8 933c e9cf 2cbc ba1d 1bbe
00000360: d319 1fbe e377 83bd b0b1 5ebb 0121 c0bd
00000370: b7d7 8abc 9736 41be 25e5 02be ca7d d8bd
00000380: 9707 503c 9642 a83b 8b8e f03d 212c d7bd
00000390: 1584 0cbe 9580 f8bd ac91 723e a629 b4bd
000003a0: c81a 62be 695e 73bb 03c6 0d3e 3830 a23e
000003b0: dd77 f6bd bd47 8f3d c94b 02be b9fa 37bd
000003c0: 2c17 b73d e999 f33d c57d 3e3e d9c8 433d
000003d0: 0460 e0bc a527 26be 7ba6 0dbe 3f8c e13d
000003e0: 84e0 c8bd f2b2 553d 1dce 47bd 9eed a63d
000003f0: 4346 7e3d 8461 86bd e07c 0cbe 25ab dcbd
0.09792086 0.02023445 -0.02084343 0.031000743 0.055147663 0.049625304 -0.06916386 -0.09004292
-0.0345355 -0.012906646 0.016998425 0.057423476 0.12088142 0.052976385 0.0007468675 0.08807688
-0.006297505 -0.024669593 0.047911394 -0.03468761 -0.11474258 0.013465318 -0.10636462 -0.04828161
0.063818514 0.15321475 -0.11729518 -0.022597471 -0.14797218 -0.07556369 -0.09429493 -0.1717212
0.05824036 0.030655483 -0.08470945 0.009277279 -0.13044675 -0.0097459825 0.052863184 0.09037383
0.047682267 0.044220164 -0.13900667 -0.041369863 0.072488 0.01009704 -0.13432631 0.14677516
-0.08128824 0.0815995 -0.10660164 -0.0877421 -0.08689971 -0.01631603 0.07973276 -0.26022792
0.057164382 -0.048674792 0.14098358 -0.16719079 0.056237243 -0.03333732 0.025022045 0.16906622
0.058840804 0.14849015 0.007373403 0.040564183 0.018360032 0.10812302 -0.018082893 0.13497147
0.074885234 0.0048806686 0.13989796 -0.04233481 -0.0036155346 -0.14633377 -0.14503977 -0.0017304086
-0.0009156322 0.019168677 0.027418772 -0.070619285 0.04280384 -0.004173928 -0.06041034 -0.060968373
-0.01970996 0.011952498 0.10486302 0.009629994 -0.04396858 -0.09612127 -0.05189396 -0.013094842
-0.14661822 -0.08959451 -0.068608366 0.028803987 -0.11021778 0.09439855 0.02376228 0.014209195
-0.04702635 -0.12799641 0.09133265 -0.007395265 0.07752151 0.077515885 -0.076447874 -0.02121423
0.03573834 -0.16317534 -0.13109116 -0.11093917 0.012624921 0.07854021 0.085263535 0.03555513
-0.003264369 0.046396576 0.18379658 0.08047681 -0.1130712 -0.0440784 0.009730364 0.16059187
-0.20446086 -0.039623026 -0.06577641 0.032732524 -0.062205605 -0.24167939 0.027933104 0.032848023
-0.10042587 -0.015268068 -0.10803223 -0.11170128 0.06284544 -0.009128174 -0.10811187 -2.7731348e-05
-0.110572 -0.083802655 -0.00072537095 0.1551 -0.08999635 -0.12728462 0.35382435 -0.18661667
-0.011010235 0.0025041995 0.021411119 -0.04559996 -0.13196619 -0.18312466 -0.14446618 0.088344395
-0.08522062 0.11591387 -0.20196801 -0.0794953 -0.11745298 -0.053507905 0.034082595 0.012565777
0.20653702 -0.04056825 -0.16418247 -0.16140617 -0.09665358 -0.065692015 -0.08645662 -0.15287793
0.035017986 -0.0806296 -0.038250037 -0.15534812 0.06692615 0.02200153 0.0680083 0.0013823962
-0.10562622 0.049182244 0.03715687 -0.07612788 -0.03355786 -0.069264606 0.15969321 -0.05889804
-0.15803008 -0.09569476 -0.027759155 -0.118466064 -0.12758957 -0.03846039 -0.00811648 0.036836494
-0.1711873 0.042674612 0.021188991 -0.16316618 -0.14689268 0.06858039 -0.09299418 0.0063609243
-0.032111686 -0.061086852 -0.0818701 -0.15780567 -0.14896816 0.018024629 -0.0105476165 -0.15148059
-0.15537195 -0.06419351 -0.0033980422 -0.09381295 -0.016948564 -0.1886848 -0.12782724 -0.10570867
0.012697122 0.005134891 0.11745938 -0.10506464 -0.1372226 -0.121339 0.23688382 -0.08797006
-0.22080529 -0.003713513 0.13845067 0.31677413 -0.12034581 0.06996105 -0.12724222 -0.044916842
0.089399666 0.118945904 0.18602665 0.047798965 -0.027389534 -0.1622606 -0.13833039 0.11013078
-0.09808448 0.05217261 -0.04878055 0.08150791 0.062078726 -0.065615684 -0.13719511 -0.10774831

action_model._discrete_distribution.branches.1.bias f4 [4]
00000000: 1324 3b3d e701 a33c 7055 7b3c f7d7 a8bd
0.0456887 0.019898368 0.015340194 -0.08244317

action_model._discrete_distribution.branches.1.weight f4 [4, 128]
00000000: e6c8 19be 816f 25bd 7854 c53d 4c78 fa38
00000010: 6f62 c5bb 44b7 ba3d 704f 923c 9366 b7bd
00000020: 7f55 c9bd 4ed5 15be 72ba 2cbd dfce b73d
00000030: 3164 0bbe 7824 f6bd 3e55 7c3d 8d8a 99bc
00000040: 70c7 333d 7af8 bcbd 7777 293e c9b4 843d
00000050: 3b99 90bd 6149 653d ef4f 613d 3fe9 683d
00000060: 2b43 213e d820 823d 026f 9abd 290d 1bbe
00000070: ce30 19bd 30b4 bdbd a7e3 81bd c3fc 8dbc
00000080: 5c58 a2bd f328 633d 3330 a1bd 7207 7ebb
00000090: eee2 aabd 4808 4b3c dbb2 ebbc c579 723b
000000a0: 7203 0dbe 7a0d b8bd 58c3 1a3e be84 62bd
000000b0: d567 a13d 02a9 d0bd d881 06bc dfdc 463e
000000c0: 0cba 69bd 66e0 afbd cee4 19bd 79f2 0f3d
000000d0: 18fa 22be b4c0 59bd 51f5 cd3c 8601 7fbd
000000e0: 48d5 ee3d dac6 cdbd e622 c0bd 22a3 f7bd
000000f0: 83b4 66bd 7adc 02bd 439e 2b3d 83fb f03d
00000100: 853a d8bd 6c1c 60bd 18d2 2b3c 1e63 e7bd
00000110: 0270 12bd 3366 e23c b551 03be 0985 72bd
00000120: 2618 0fbe b4c5 f7bc bd62 2b3e f7c2 baba
00000130: c44e 92bd e1f7 a6bb bfd9 2fbd 1598 e03c
00000140: ce98 be3d bbea 23be ebc4 3a3e 2e55 adbc
00000150: ae43 05be b172 57bc ee05 6bbc 9c48 aabd
00000160: ebc9 573d 7c77 f5bd f1db 9ebb f8ef 153e
00000170: 73b5 903d a231 43bd 0e7c 1abe 75b5 91bc
00000180: 7113 8e3d 92b0 10be 7396 aa3d 21c7 ad3d
00000190: ee3c aabd a30c 44bd 0547 ae3d 18c3 f4bd
000001a0: 1960 f03d 9887 483b 3d3c 15bd b669 1b3c
000001b0: 0e3a f3bd 0583 98bd 976f bdbc a4d0 cdbd
000001c0: 2dfe b63d c686 32be dcda e2bd 4756 e53d
000001d0: 1a4f b5bc de93 743d d253 28bd bb7e 123e
000001e0: f083 adbc 2d4c c9bc dca0 0b3c ee28 ef3c
000001f0: 7936 62be 9660 9d3d 6404 69bd b406 91bc
00000200: d2a3 3b3d 3bdd b43b 9f87 da3d 316d 243d
00000210: 565d 713d 882e 1bbd f780 2fbd 4f8e 493d
00000220: 38fd d83d 32c0 a43d f8c0 2bbd 3498 14bd
00000230: 5463 8b3d 3cdb 743d b312 05be f1a3 babc
00000240: bca0 333d 0e1e ae3d 0d08 9cbc 90c0 223d
00000250: eba4 b6bc d5c7 1ebc a946 7dbc 450f c0bd
00000260: 4bfe 50bd 5e18 fc3c b506 f7bc a45f 183e
00000270: 2cdd 1f3d 1461 8bbd 29fa ecbd 02a6 49bd
00000280: efcc d43d ca2f 07be 3cb1 8dbd c61a ed3d
00000290: 7cec 793d 4a83 5ebd 1275 0a3e 6f96 ea3c
000002a0: 7c9c 4e3d d985 4d3e c2ad eebd 2338 90bd
000002b0: 80c1 3cbd cd06 be3d 4347 6b3c cff5 46bc
000002c0: 61d4 a53d 908e 2c3e 90ba 19bd 8301 78bd
000002d0: 7cc5 4b3d 969a 1c3d 2543 82bc 0871 bdbd
000002e0: 4685 b9bd 9848 2e3d 259a 47bd 2c0c 903d
000002f0: d6f7 85ba 6d46 5b3c a4f7 193e 0f0e e9bc
00000300: 52a0 0e3c 5729 123e f0a6 233e 8fc0 45bc
00000310: 1cda ed3d c705 803c f005 03be 3ca3 d53d
00000320: 26fa 773d a2d4 b2bd adc7 a6bd f8a6 30bd
00000330: 701a 19bd 9bc0 f63d 5a1c f0bc 4087 8abd
00000340: 5d22 a23d eba8 873d 3c26 81bc 657a 05be
00000350: ccba b23d 2a31 323c 98c3 c63d 8dee 573d
00000360: 9cf9 883d 3df4 8f3d 889a 05bd 6593 e9bd
00000370: 38d0 ab3d 1e81 72bd 8ed6 3d3d 9095 83bd
00000380: 965e 84bd ea30 b53d e873 21be 210b 1cbd
00000390: 2aa0 22bd 526b 513d ddc5 32be 0167 433e
000003a0: c231 9fbd 135a a93d aaa4 01be 549f 29bc
000003b0: 608c d33d 0bd8 b43d dc6e 03bc e566 313c
000003c0: a90b b7bc 6e32 763d e401 413d 8402 dabd
000003d0: 069e 1d3d 633c 44bd 554e bdb9 205b 51bd
000003e0: 63cb a93d 87c3 d7bc f2ef aebc 9255 553d
000003f0: ede4 d83c 755d b33c f2c8 213d 7c45 793c
-0.15018043 -0.04038954 0.09635252 0.00011943336 -0.006023697 0.091169864 0.017860144 -0.08955111
-0.0983076 -0.1463215 -0.042169996 0.089750044 -0.13612439 -0.120186746 0.06160473 -0.018742824
0.04389137 -0.09227081 0.16549478 0.064797945 -0.070604764 0.055978183 0.05500787 0.056863066
0.15748279 0.06353921 -0.07540704 -0.15141739 -0.03740006 -0.09262884 -0.06342249 -0.01733244
-0.079270095 0.055458974 -0.078705214 -0.0038761762 -0.08344065 0.012392111 -0.028771808 0.003699885
-0.13770846 -0.089869455 0.1511358 -0.055302374 0.078811325 -0.10188486 -0.008209668 0.19420193
-0.057062194 -0.085877225 -0.03757172 0.03514335 -0.15915716 -0.05316229 0.02514139 -0.062257312
0.11661774 -0.100476936 -0.09381656 -0.12091662 -0.056324493 -0.031948544 0.041898977 0.11766722
-0.10558037 -0.054714605 0.010487102 -0.11298202 -0.03575135 0.027636623 -0.12824138 -0.059208903
-0.13974056 -0.03024564 0.16736884 -0.0014248778 -0.071439296 -0.0050954674 -0.04293227 0.027416268
0.09306489 -0.16007511 0.1823918 -0.02115878 -0.13014099 -0.013149903 -0.0143446755 -0.083146304
0.0526828 -0.119856805 -0.0048479964 0.14642322 0.07065859 -0.047654755 -0.15086386 -0.01778672
0.06937302 -0.14129856 0.08329477 0.084852464 -0.08312403 -0.047863614 0.0850964 -0.11951274
0.11737079 0.0030598398 -0.0364344 0.009485653 -0.118763074 -0.07446865 -0.0231245 -0.10049561
0.08935199 -0.17434224 -0.110769 0.11198097 -0.022132445 0.05971133 -0.041095562 0.14306156
-0.021181077 -0.024572456 0.008522239 0.029194321 -0.22091092 0.07684438 -0.056888953 -0.017703392
0.045810528 0.005519537 0.10670399 0.040143196 0.058926903 -0.037886173 -0.0428476 0.04920798
0.10595173 0.08044471 -0.041932076 -0.036277965 0.06806055 0.05977939 -0.12995414 -0.022783251
0.04385446 0.08501826 -0.019046808 0.039734423 -0.022295436 -0.009691198 -0.015458741 -0.093779124
-0.051023763 0.030773338 -0.030154565 0.14880234 0.039029285 -0.068056256 -0.11571152 -0.049230583
0.103906505 -0.13201824 -0.069185704 0.11577372 0.061016545 -0.054324426 0.13521221 0.028636185
0.050442204 0.2007059 -0.116542354 -0.07041957 -0.046082973 0.09278641 0.014360252 -0.012143566
0.08097149 0.16851258 -0.037531435 -0.060548317 0.049748883 0.038233362 -0.015901158 -0.092500746
-0.09058623 0.0425497 -0.048730988 0.070335716 -0.0010220956 0.01338349 0.15035874 -0.028449086
0.0087052155 0.14273582 0.1598165 -0.012069835 0.11613867 0.015627755 -0.12795234 0.10431525
0.060541295 -0.08731963 -0.08143554 -0.043127984 -0.03737873 0.12048455 -0.029310394 -0.06764078
0.079167105 0.066240154 -0.015765302 -0.13034971 0.08727035 0.010875979 0.09705275 0.052717734
0.06688234 0.07029007 -0.032618076 -0.114050664 0.08389324 -0.059205167 0.046347193 -0.06425011
-0.06463353 0.0884722 -0.15766871 -0.03809655 -0.039703526 0.05112774 -0.17458291 0.19082262
-0.077731624 0.082691334 -0.1266047 -0.010352928 0.10329509 0.088302694 -0.008022036 0.010827755
-0.022344427 0.060106687 0.047120944 -0.10645011 0.03848078 -0.04790915 -0.0003610725 -0.051112294
0.08290746 -0.026338352 -0.02135465 0.05208356 0.026476348 0.02189515 0.039498277 0.01521432

action_model._discrete_distribution.branches.2.bias f4 [2]
00000000: ab62 be3c b862 bebc
0.023240408 -0.023240432

action_model._discrete_distribution.branches.2.weight f4 [2, 128]
00000000: bbf5 473c 549d 083c e41b e5bb 271c 813e
00000010: a26c 5b3e 6d28 323d 32ad 9dbd 88d2 783d
00000020: 9cb6 f6bd 68d8 80bb 63b9 aebb 7658 a4bd
00000030: 5c9f d0bc cf98 5d3d e0d4 fd3d 4e52 223d
00000040: c9cf 553d 85c1 883d 1cae 2bbc 76bb ddbc
00000050: fc3e 4c3d 108c 0e3d a4f6 d6bd d38f 2fbb
00000060: 65be b43c 6ffd 7d3d ec55 243c b93a e2bc
00000070: 914a cdba f05c 5ebd dc4e 76bc 514d 98bd
00000080: 2bf3 183d 5c93 d9bb 9a94 c43b d03c 953e
00000090: 4cb4 63bd 8fce 9abd 417b 07bc e4fa 1a3c
000000a0: ae13 01be a72c f13c a9ed 0cbe d14f 28bd
000000b0: 72f2 293c e461 c63d 1a57 9fbc 4479 8f3c
000000c0: 9f17 00bd f54a 3ebd 0041 b3bc 8534 50bd
000000d0: 56a1 133c 458e 60bd e13c f03c 9122 0ebe
000000e0: 317c 46b6 5807 2fbd 98ce 20bd 599a 213e
000000f0: f78c 53bd b4d7 e33b ebbd 3fbd 3299 13bd
00000100: 40ff 0bbd 1ba4 a43d ff5c b63d c1d9 513d
00000110: a13c 103c eadd cebb 10ec 393d 86aa 2dbc
00000120: 61fb c9bc b830 ffbb 8f97 ca3d ce4c 1dbc
00000130: 7dc6 3fbd 7aba 1dbc f961 b7bd c1e4 523d
00000140: 62d2 ca3c caa5 593d 2953 56bd 4747 833d
00000150: d253 d53c eca5 4e3d 428c 04bc 7501 e2bb
00000160: 930a dbbc 18e5 98bc d68e b13d 9209 933d
00000170: 8bb3 de3c 5247 b9bd 28bc cbbc e167 713c
00000180: b845 893c f112 033d 5884 8abc bf76 c23d
00000190: b540 0d3c d46e 7b3d 9d74 b1bd 120e 3f3d
000001a0: fd9a d03b 19d8 a9bd 3f69 1dbd bf70 c5bd
000001b0: b609 373c af1f 5cbc d5bd 50bd adf0 af3c
000001c0: e522 bbbd 8fdd 6f3d cb95 babc 7627 a83c
000001d0: d0fb 3e3c 0048 cbba 38a9 a1bc 4f20 92bd
000001e0: 06c1 e03d 1617 87bc 07b0 e4bc 780c 9a3d
000001f0: 8b16 7dbc 54d1 2cbd ff82 b03c e7e4 693d
00000200: 377e 8fbc 9cc6 50bc 534e 033c c1bc 81be
00000210: 8460 61be 7d91 55bd 67ae b33d a4d8 65bd
00000220: 229e fd3d a6b0 483b f9d0 4e3b d683 813d
00000230: 6648 873c 6eb3 51bd f79c 02be 311f 14bd
00000240: e49e 85bd ce71 6abd b293 263c c6b4 623c
00000250: 5d50 3dbd ac33 f9bc af40 d93d fbf0 ac3b
00000260: e47c 8abc 4650 97bd 7834 87bc caf6 643d
00000270: ded9 08bc bcbe 6e3d 80df ab3c 464b 973d
00000280: bad1 00bd 01c1 1ebb 2750 ebbc 9712 9cbe
00000290: c1ea 8c3d 28aa ab3d 6cbc 033d d855 e1bb
000002a0: e566 fc3d 64d3 9cbc d3ac f83d f58d 5e3d
000002b0: b66d ce3b b00d 06be de71 c83a 0986 90bc
000002c0: 99f5 163d 6f6f 493d 2ee1 913c ec47 ea3c
000002d0: 1958 05bc 893c 903d 80e2 863a a571 143e
000002e0: d8a1 9ebb ef26 ed3c 80ec 813d cc4a 28be
000002f0: 43c8 7c3d 5d27 c8bc 37ab 413d 49f7 fb3c
00000300: ea3f 173d 34d4 82bd 6b10 9dbd a7f4 36bd
00000310: 7ae9 10bd 1046 9b3c 66ca 6ebd 26ec b33b
00000320: 7602 d33c c1ad eabb b3b0 a4bd cde0 b33c
00000330: 7bd3 303d c8a6 123d 8b72 903d 63dc 2fbd
00000340: 7492 0cbd fbc7 42bd 3843 1c3d 4c85 4ebd
00000350: 9029 f4bc d163 e1bc 53b9 493c 19af 27bb
00000360: 60f9 9e3c ad05 1e3c 3149 a3bd 167e 98bd
00000370: a246 80bc 8592 b73d 178e c43c 54de c9bc
00000380: 7aa7 33bd dbae 21bd a61a d23c de3c afbd
00000390: c24a 0fbc 905d 8cbd 1247 a13d dee8 25bd
000003a0: 1eb7 70bc b4a8 a33d 471a 173d b286 ec3d
000003b0: 684d 03bc 74c0 9f3c 2bf3 2e3d d12d 85bc
000003c0: 40a2 c53d fd2d 52bd 7b28 533c 7c73 a5bc
000003d0: cbed e7bc 02b4 393c df28 c83b 4620 933d
000003e0: f8d1 d8bd 4994 2e3d d761 b03c bb22 83bd
000003f0: 66fa e139 e897 1e3c 66ea 17bd 9b5b 80bd
0.012204583 0.008338291 -0.00699185 0.2521679 0.21428159 0.043495584 -0.0769905 0.060747653
-0.12046549 -0.0039320476 -0.0053321584 -0.08024685 -0.025466613 0.054100808 0.12394118 0.039629273
0.052200112 0.06677536 -0.010478523 -0.027066927 0.049864754 0.034801543 -0.10496262 -0.0026788607
0.022063443 0.06200927 0.010030251 -0.027615892 -0.0015662481 -0.05428785 -0.01503345 -0.07436622
0.037341278 -0.006639881 0.00599916 0.2914796 -0.055591866 -0.07558929 -0.008269132 0.009459231
-0.12605163 0.029440237 -0.13762535 -0.041091744 0.010372745 0.0968664 -0.019450713 0.017513879
-0.031272527 -0.046458203 -0.02188158 -0.050831337 0.009010633 -0.05482318 0.029325904 -0.13880374
-2.9576588e-06 -0.042731613 -0.039259523 0.15781535 -0.051648106 0.006953204 -0.04681198 -0.03603477
-0.034178972 0.08039113 0.08904456 0.051233057 0.008803518 -0.0063130753 0.045391142 -0.010599738
-0.024656 -0.00778779 0.09892189 -0.009600831 -0.046820153 -0.009626979 -0.08954234 0.051487688
0.024758521 0.053136624 -0.0523254 0.064100794 0.026040945 0.050451204 -0.008090081 -0.0068971463
-0.02673844 -0.018663928 0.08669822 0.0717956 0.027185222 -0.090468064 -0.024869993 0.014734239
0.016756877 0.032000486 -0.01690881 0.09495305 0.008621384 0.06138499 -0.0866482 0.046644278
0.0063661323 -0.082931705 -0.03843045 -0.09640645 0.011171749 -0.013435288 -0.050962288 0.021477068
-0.09137515 0.058560904 -0.022776505 0.020526629 0.0116567165 -0.0015509129 -0.01973401 -0.071350686
0.10974316 -0.0164905 -0.027915968 0.075219095 -0.015447269 -0.04219182 0.021546839 0.057103064
-0.017516239 -0.012742665 0.008014279 -0.2533932 -0.22009474 -0.0521407 0.08773499 -0.056114808
0.12383677 0.0030622869 0.0031557663 0.06323974 0.016514014 -0.051196508 -0.1275519 -0.03616256
-0.065244466 -0.05723744 0.010167049 0.013837045 -0.04621922 -0.030420147 0.106080405 0.0052777505
-0.016905256 -0.07388358 -0.016504511 0.05589942 -0.008352725 0.058287367 0.020980597 0.07387404
-0.03145001 -0.0024223926 -0.028724743 -0.30482933 0.06880713 0.08382064 0.032162115 -0.0068766885
0.12324313 -0.019143768 0.121423386 0.0543346 0.0062996997 -0.13091159 0.0015292724 -0.017642038
0.036855314 0.049178537 0.01780757 0.028598748 -0.00813868 0.07042796 0.0010290891 0.14496477
-0.0048410706 0.028949229 0.06343937 -0.16434783 0.061714422 -0.024432832 0.047282424 0.030757563
0.036926188 -0.06388131 -0.07669147 -0.044666912 -0.03537891 0.018954307 -0.05829849 0.0054907976
0.02575801 -0.0071618264 -0.08041515 0.02195778 0.043170433 0.035803586 0.07053097 -0.042934787
-0.034319356 -0.047553997 0.038150042 -0.05042009 -0.029804975 -0.027513416 0.012312251 -0.0025586544
0.01940602 0.009644908 -0.079729445 -0.07445924 -0.01565868 0.08963493 0.023993535 -0.024642147
-0.04386089 -0.039473396 0.025647473 -0.08556531 -0.008745851 -0.06853783 0.07874884 -0.040505283
-0.014692096 0.07991162 0.036890294 0.115491286 -0.008014061 0.019500948 0.04271237 -0.016257199
0.09650087 -0.05131339 0.012888069 -0.020196669 -0.02831163 0.011334421 0.006108388 0.0718389
-0.10586923 0.042621884 0.021531029 -0.06403109 0.00043101906 0.009679772 -0.037088774 -0.06267472

discrete_action_output_shape f4 [1, 3]
00000000: 0000 a040 0000 8040 0000 0040
5.0 4.0 2.0

network_body._body_endoder.seq_layers.0.bias f4 [128]
00000000: f92e 4e3c 90f3 dfbd 02df 0cbd 5b0a 87bd
00000010: e6cd 28bd fb68 30bc b361 8ebd 1528 80bc
00000020: 91d2 6fbb 3027 693d 8f2d 34bd cff1 afbd
00000030: c011 88bd af1e 02be 0215 eebd 38b1 abbd
00000040: a1be 4b3c e814 22be 1901 eabc f61d 7bbc
00000050: 97fb 5dbd 77d3 aa3b 706d a0bd dc82 89bd
00000060: 93da 453d a1a2 d5bd 1c60 8c3b 3580 d3bc
00000070: 2c21 0abd 6966 f13c 1658 f33c cd71 bf3d
00000080: d254 393d 57d9 47bd 24a3 63bc a26c 6bbc
00000090: 3d27 a4bd cd09 5239 545a 21bd 8c85 52bd
000000a0: e3c8 a7bc b983 c1bd ccd6 183d 5dcb 1e3d
000000b0: d468 72bd db41 003e 0ab2 f7bd e8ae 64bd
000000c0: da25 42bd 81ea 44bd 3a5f c0bd 63c7 133d
000000d0: 6c51 babd 9b7c c0bd 6dcd e9bb d857 ac3d
000000e0: 3e3c d5bd c11b 12bb 5198 3bbe 2ca5 d7bd
000000f0: 0762 e6bd b3b5 323d 6c2a 033b 397b 03bc
00000100: cbc2 973d 2520 a4bc e2aa babd f599 0bbe
00000110: 6d68 7dbd a92f acbd 83cf 013d 0fa6 d5bd
00000120: 7520 953c fed1 46bc e6d6 953d 8102 a4bd
00000130: a5df 0f3c ce14 9fbd 18b6 6fbd 3967 26bc
00000140: dbf8 7bbd c517 dd3c f8e7 1bbe e508 243d
00000150: 45b5 27bd a68b 223c da66 37bd bff4 16bc
00000160: f13c 0abe 9aef 9fbc 3c9f 94bd 313a 9dbd
00000170: 02c8 cc3b 34c5 21bb c7aa 5b3d 27f1 6abd
00000180: b723 3bbe d2c7 d7bd 9688 113d e5ea f83c
00000190: 08a0 d3bc 568a 5cbc 8e9c 43be a542 95bd
000001a0: df06 6a3c 9b8a 49bd c068 be3d 0b25 383b
000001b0: 0244 c03d f49a 81bd 945f 5b3c ddc2 89bd
000001c0: d4fb 70bc 6219 e43c b3c4 c6bc 0858 33bd
000001d0: f747 41bd a00d 0d3d fcde 5a3c 4a10 85bd
000001e0: 8a57 b83c 9dab af3c 79ec 223c f578 01bd
000001f0: e711 80bd c844 37bd 9df8 e2bc 104c bdbc
0.012584441 -0.10935128 -0.034392364 -0.06593772 -0.041211985 -0.010767217 -0.069522284 -0.015644113
-0.0036594013 0.056922138 -0.04398876 -0.08591043 -0.066440105 -0.12707017 -0.11625101 -0.08383411
0.012435586 -0.15828288 -0.028564977 -0.015326967 -0.054195013 0.005213197 -0.078333735 -0.067144126
0.04830415 -0.104314096 0.004283918 -0.02581797 -0.03372304 0.029467778 0.029705089 0.09347878
0.045246907 -0.048791256 -0.013893876 -0.014369162 -0.080152966 0.00020030812 -0.039392784 -0.05139689
-0.020481532 -0.09448952 0.03731422 0.03876816 -0.059182003 0.12525122 -0.12094505 -0.055830866
-0.04739938 -0.048075203 -0.09393163 0.036078822 -0.09097561 -0.093987666 -0.0071350844 0.08415192
-0.10411881 -0.0022294375 -0.18319823 -0.10529551 -0.11249166 0.043630313 0.00200143 -0.008024984
0.07410201 -0.020034859 -0.091146246 -0.13632949 -0.061867166 -0.08407528 0.03169204 -0.10432064
0.018203953 -0.012135027 0.07316379 -0.0800829 0.008781348 -0.0776764 -0.058523268 -0.010156446
-0.061516624 0.026988873 -0.15225208 0.040047545 -0.040944356 0.00992099 -0.04477582 -0.009213625
-0.1349981 -0.01952343 -0.07256934 -0.07677115 0.0062494287 -0.0024684193 0.053629663 -0.057358887
-0.18275343 -0.105361596 0.03553065 0.030385444 -0.025833145 -0.013460716 -0.1910269 -0.07288102
0.014283865 -0.04920445 0.09297323 0.0028098251 0.093879715 -0.06328383 0.013389487 -0.0672662
-0.014708478 0.027844135 -0.024263715 -0.043785125 -0.04718777 0.034436822 0.013358828 -0.064972475
0.02250268 0.021444136 0.009944075 -0.031609494 -0.062534146 -0.04474333 -0.027706439 -0.023107558

network_body._body_endoder.seq_layers.0.weight f4 [128, 27]
00000000: 8c99 463f 610f 27be 3d1e c3bc d571 8d3e
00000010: d107 423e 055d 893d 82bd 8ebd b40c 773e
00000020: 0a25 3e3e 37da e43e af97 a0bd 6619 44bd
00000030: 7ce8 483e ef1f 373e 876c 84bd dbaf 3abe
00000040: eacf e938 f0b3 153e 8af0 22be 4a8f 9f3d
00000050: 4204 ad3e b3aa 593d afee 093e 7c3e 483f
00000060: f377 85bd 26a1 e03d 550f 513d 2ae9 763d
00000070: b89a 63be 60c8 9ebe 6393 d6be f5c3 1abe
00000080: 591e 21be 0bff b13b 423e b0be 995c cc3c
00000090: 36dd 24be cb17 76be 13e9 693e 2e93 76be
000000a0: 7267 85be 94ab 1bbe adac c2be 768a 87bd
000000b0: d519 19be b341 bd3e a90a 8cbd 2c1f d7be
000000c0: 9bc3 80bd 5bc7 633e 3985 0abe f8e7 793d
000000d0: 04d2 663e 532b 6cbe 7a06 e93d 64a5 0fbe
000000e0: b769 8dbe d8de 0ebf bc62 2abe 53cf a4be
000000f0: edae bdbe 221c f4bd 54d1 413e 858e 02be
00000100: 5273 eabd 7088 c3bd 8511 ad3c 93d8 f03d
00000110: cba1 933d 2e2c 593e 2cdc a4be ce3d 043e
00000120: 9808 6c3d 5f98 c93e 8c57 9abe 5c41 1f3e
00000130: 1349 ad3d db1d ac3e 2971 8ebe 9887 d3bd
00000140: 1cd2 813e 2d20 ddbe be33 9fbc b261 bdbc
00000150: 81dc 88be f4c9 cebd 8a21 283e 7564 41be
00000160: c576 20bd 6d4e 84be 74a2 863e a886 5dbc
00000170: 9b4e 45be 3e50 ac3c 6255 87bd 6d72 16bd
00000180: beea 013e 1430 82be 2549 a9bd 55dd 73bd
00000190: 7e32 8c3d 6e23 ab3e cfb9 a0bd eb2c 4b3e
000001a0: 1b80 023e 0221 c33b a1a2 063e 6d91 9d3d
000001b0: 65e7 21be 8030 303e cd0b 663e 0e77 14bf
000001c0: 190e 05bd 96d0 c5bc 816c b23e b177 023e
000001d0: 8976 38be 258e cdbe 0bd8 efbd c2e1 ac3e
000001e0: f377 0f3d 605c 4bbd 3abf 3c3e 8486 5c3d
000001f0: 3677 89be a904 cc3c 7d8e dc3d 06be dd3d
00000200: 49bd 55bd efcf 4f3c 7a36 11bc 2684 f5be
00000210: 9b69 003e 3dc8 e03d c700 7d3e d0cb 95be
00000220: dda8 8d3e 8692 033d 3acc 113e c33e 25be
00000230: 6872 543e 1edb 003c 5420 dc3d b9ed a23e
00000240: 15a1 1b3e 723b fabe 7208 acbd b6aa 62be
00000250: 2c06 843e adc4 0fbd 239c c23c 26e7 a4be
00000260: 8e55 513d b798 1d3c 7035 86ba 3466 dfbe
00000270: 2c25 2cbe 6d49 ae3e f0e8 0a3f 4b3c 783e
00000280: 8808 54be ebf8 8fbe abf7 953d 6e64 c63c
00000290: 5fbb cbbd 5867 8d3d 6b08 513d 0f95 393e
000002a0: 5901 f6bc 3773 6fbe 73e9 d9bc 4641 50bd
000002b0: ab41 b3be c164 2b3d b045 923e b9ac 8fbd
000002c0: 7c27 8ebe aee7 5dbe 660d 5c3e fc9f 85be
000002d0: 85a2 5fbd 52af 67be 003f 73be 8439 3a3e
000002e0: 4867 d63d c31e 473f 0e28 aebe b64a 8fbe
000002f0: 83ef 3f3e 1781 013e a112 e13d cf97 c0be
00000300: acf5 17be 7088 b63d 4271 1abe 2cd7 1bbe
00000310: 37e7 29be 7c0a 9e3d b99c 0bbc 738f 87be
00000320: 28d7 15be 45de 903d b81d 49be b49d 123e
00000330: 14cd 813d 5bf7 e2bd 7544 73be 41e6 1fbe
00000340: a9cd 0fbe 8cfd 86bc e001 c2be 2e77 eabc
00000350: 9149 223f 6c8d df3e 1314 163c b450 973e
00000360: adf0 a1be a387 be3d 9889 a1bd 0ec6 53be
00000370: 8e96 123e 6b7c 12bc 7954 693d 22d3 f53b
00000380: 62f2 e03d 7ad5 8e3e bc8c 843c 9d93 dbbd
00000390: 862f b5bd 5fea 2ebe 2360 153e b7da 9fbd
000003a0: bf0e 9e3d a90a 09bf 8b9c 8fbe 51cd f0be
000003b0: 6e6e 67be 5562 733e 294f ee3d 1e5f bfbd
000003c0: 73e3 83be 0416 413e 17b3 f03c 2b18 c43e
000003d0: 79b4 423d 6e3a cdbe 8082 123e 2cc6 523d
000003e0: 9b28 6fbc 33cc bf3e ce17 08bd c5ce 473b
000003f0: 6beb 983e dba2 483d b596 433e 5379 b73e
0.77578044 -0.1631446 -0.02381813 0.2762591 0.18948294 0.06707195 -0.069697395 0.2412594
0.18568817 0.44697735 -0.07841431 -0.047875784 0.19619936 0.17883275 -0.064660124 -0.18231146
0.00011149033 0.14619422 -0.15912071 0.07791002 0.3379231 0.053141307 0.13469957 0.78220344
-0.06517019 0.109682366 0.051040012 0.060280956 -0.2222699 -0.3101225 -0.41909322 -0.15113814
-0.15734233 0.005432015 -0.344225 0.024946498 -0.1610001 -0.24032514 0.22842817 -0.24079582
-0.26055485 -0.1520217 -0.38022366 -0.06618206 -0.1495126 0.36964187 -0.06837971 -0.4201597
-0.06287309 0.22244017 -0.13527383 0.06101224 0.22541052 -0.23063402 0.113781884 -0.14027935
-0.27619717 -0.5580878 -0.16639227 -0.32189426 -0.3704752 -0.119194284 0.18927509 -0.1274968
-0.11447777 -0.09547508 0.021126518 0.11760058 0.07208594 0.2120826 -0.32199228 0.12914202
0.057625383 0.39374062 -0.30144918 0.15552276 0.084612034 0.33616528 -0.2782071 -0.10328597
0.25355613 -0.4318861 -0.019433852 -0.023117874 -0.2673073 -0.10097113 0.16419044 -0.18885978
-0.039175767 -0.25841084 0.26295817 -0.013520874 -0.19268267 0.021034356 -0.06608082 -0.03673022
0.12687203 -0.25427306 -0.08265904 -0.05953725 0.06845568 0.33425468 -0.0784794 0.19841354
0.12744181 0.0059548626 0.13147976 0.076937534 -0.15810926 0.17206001 0.22465439 -0.57994163
-0.032484148 -0.024147313 0.34848407 0.12740971 -0.18013968 -0.4014751 -0.11711129 0.3376599
0.035026502 -0.049648643 0.18432322 0.05383922 -0.26848763 0.024904566 0.10769365 0.1082726
-0.05218247 0.012683853 -0.008863086 -0.47952384 0.12540285 0.109756924 0.24707328 -0.2925706
0.27667895 0.032122158 0.14238063 -0.16137223 0.20746768 0.007864742 0.107483536 0.31821993
0.15198167 -0.48873478 -0.08400048 -0.22135434 0.2578596 -0.035099674 0.023756092 -0.32207602
0.051106982 0.00961893 -0.0010239314 -0.43632662 -0.16811055 0.34040394 0.54261684 0.2424175
-0.2070638 -0.28119597 0.073226295 0.02421781 -0.099478476 0.06904477 0.05103342 0.18123268
-0.03002994 -0.23383795 -0.026600575 -0.0508435 -0.35011038 0.041844133 0.28568792 -0.07015366
-0.277645 -0.2167041 0.21489486 -0.2609862 -0.05459835 -0.22625473 -0.23754501 0.18186003
0.10468918 0.77781314 -0.34014934 -0.27986687 0.1874371 0.126469 0.10989881 -0.3761582
-0.1483981 0.08912742 -0.15082267 -0.152188 -0.16592108 0.077168435 -0.008521252 -0.2647663
-0.14632857 0.070736445 -0.19640243 0.14317971 0.06337944 -0.110823356 -0.23756583 -0.15615179
-0.14043297 -0.016478322 -0.37892056 -0.028621282 0.63393503 0.43662584 0.0091600595 0.2955376
-0.31628934 0.093032144 -0.07887572 -0.2068102 0.14315245 -0.008940796 0.056965325 0.0075019756
0.10983731 0.27897245 0.016180389 -0.107215144 -0.08846955 -0.17081593 0.14587454 -0.078053884
0.07717656 -0.5353189 -0.2804912 -0.47031644 -0.2260072 0.2376798 0.11636192 -0.09344314
-0.25759467 0.18856055 0.029382272 0.3829969 0.047535393 -0.4008364 0.14307594 0.051458523
-0.014597083 0.3746048 -0.033225827 0.0030488234 0.2986711 0.048983436 0.19100459 0.3583475

network_body._body_endoder.seq_layers.2.bias f4 [128]
00000000: 479a 43be 64ff cabd 4b97 36bd a027 ad3d
00000010: f2b6 103e 3a59 adbc 9fc9 f9bd 2302 b2bd
00000020: e0b0 563d 1534 d7bd 0ff5 94bd 5c8f c8bd
00000030: 4527 5fbd 0d65 35bd 5ada 9bbc f5e7 93bd
00000040: da17 09be 7776 99bb dfd1 a03c 8d36 633d
00000050: 226e 0bbe 23d2 dcbd 3808 ef3c 0856 98bd
00000060: a9aa bbbd f03f 853d ca77 5bbe 9149 b6bb
00000070: ba5c 0dbe d213 cd3b 15d6 69bc 1f13 8abd
00000080: 9cf1 a3bd 3326 89bc b139 96bc 97d3 d83d
00000090: 702b 89bd ab7c 6cbd 44fb f73b 0ab9 00be
000000a0: 59af 463d 88e0 053b 7a33 d2bc fba0 ecbd
000000b0: eee6 b7bd aa70 35bd c26e e0bd be9e b9bb
000000c0: d793 6abd c914 a93c 1e84 03be 326b 64be
000000d0: 4a3c 9fbd 2879 1cbe d229 c1bc a554 14bb
000000e0: 9d19 e2bd 5eaa 95bd 35a7 573c c02e 593d
000000f0: bc79 15be 7199 92bc d6d5 943d 999e a9bc
00000100: 19e2 1dbe 3be5 41bd d443 72bd 7bfa 0abe
00000110: c35f b6bd fcf0 2c3d f799 b13c 198f 4f3d
00000120: 3bee 1cbc 8bb3 7cbd a674 0abd f3fe 1ebe
00000130: e7c4 4dbe 1c30 37bd 7004 f7bd 9e59 06be
00000140: b20e 1b3b e233 a1bd fe12 34bd 3ab2 a4bd
00000150: f5f9 98bd 0b88 e0bd 0faa 8cbd 375e 20be
00000160: 13fb 6dbd b761 16be 14d0 4f3c 998a bfbd
00000170: ee00 7fbd 157e 2f3c 4b14 acbd 39f8 1dbd
00000180: a2ee ebbd 9526 b3bd 8912 d5bd 6314 17bd
00000190: cfdd 20be 64b9 50bd 4e1e 3f3c 1585 97bc
000001a0: 113d 06be 62c5 74bd bb71 af3c 2086 f63d
000001b0: b996 c4bd b003 3b3d 7480 12be e527 42bd
000001c0: 0f37 48bd ba34 f73c 4457 083b 6936 c5bd
000001d0: c9d8 7ebd 2ad0 31bd 41be eebd c5bc c5bc
000001e0: 4bdf 913d 35dd 68bd ee53 cfbd c900 b43c
000001f0: ea94 3f3d c624 9cbd 17ed 5abd 4772 3d3a
-0.19101821 -0.09911993 -0.044577878 0.084548235 0.14132288 -0.02116071 -0.12196659 -0.08691814
0.052414775 -0.10507981 -0.07273304 -0.09792969 -0.05448081 -0.044285823 -0.019025017 -0.07221977
-0.13388005 -0.0046833116 0.019631324 0.055471946 -0.13616231 -0.10782268 0.029178724 -0.07438284
-0.0916341 0.06506336 -0.21432415 -0.005562969 -0.13804904 0.0062584663 -0.014272233 -0.06741928
-0.08005068 -0.016741848 -0.018338056 0.105872326 -0.06697738 -0.05773608 0.007567795 -0.12570587
0.04850707 0.002042802 -0.025659312 -0.11554142 -0.08979593 -0.044296898 -0.109586254 -0.0056646755
-0.057269897 0.020639794 -0.12843367 -0.22306517 -0.07775171 -0.15280592 -0.023579512 -0.002263346
-0.110400416 -0.073078856 0.013162424 0.0530231 -0.14597219 -0.017895432 0.072673485 -0.020705508
-0.1541828 -0.04733775 -0.059146717 -0.13572113 -0.08904984 0.042222008 0.021679861 0.050673578
-0.009578283 -0.061694663 -0.03380265 -0.15526943 -0.20094644 -0.044723615 -0.12061393 -0.13120124
0.0023659882 -0.07871224 -0.043963425 -0.080418065 -0.074695505 -0.10963448 -0.068683736 -0.1566094
-0.05810077 -0.14685713 0.012683887 -0.09352607 -0.062256746 0.010711213 -0.08402308 -0.0385668
-0.11520125 -0.08747593 -0.10403926 -0.036884677 -0.15709613 -0.050958052 0.01166494 -0.018496076
-0.13109232 -0.05975855 0.021416536 0.12037301 -0.095990606 0.045657814 -0.14306813 -0.047401328
-0.048880633 0.03017651 0.0020803967 -0.096295185 -0.06221846 -0.04341141 -0.11657382 -0.024137864
0.07122668 -0.056851584 -0.1012343 0.02197303 0.046772875 -0.076242015 -0.053448763 0.00072268065

network_body._body_endoder.seq_layers.2.weight f4 [128, 128]
00000000: 1ee6 52bd 31c3 653e 4563 d8bc b39c 973d
00000010: c54a b73c fe50 64bd 67b7 75bd c7cc d4bc
00000020: 7bc3 2eba 22d2 f9bc fe6e 943e b946 20bc
00000030: 6ef9 123e 3601 c43d 48c4 133e ea0f 8b3d
00000040: 88bb 31bd ddf8 adbc 06cd 52bc 2107 053e
00000050: fb4c 0dbd 52ce 203e 209f 2a3e aa28 4a3e
00000060: ba84 923d 656f b0bc ccfa 1abd 0314 dcbd
00000070: eebc 6abe 2a82 bc3d 41eb 0c3d 3300 00be
00000080: 3173 2bbd 91d9 da3c c860 7bbd 6803 24be
00000090: 2291 893d 6765 4abe fbaf 1abe 7aaf 953d
000000a0: 07eb f9bc 580e d6bd 60e8 dc3d 8301 893c
000000b0: 992f 903c 3f47 11bd 27de acbd 2a7b 15be
000000c0: 83b7 683b 7223 cebe d4e3 223e fd90 edbd
000000d0: 656d 0d3e dcbc 02bd 9431 9ebb 7312 e3bd
000000e0: 522f 1dbe 938d 73be ba2e 273e f8f9 9d3c
000000f0: ffb9 143e 02cc 063e 5475 653c 7a47 6b3d
00000100: cfd3 38bd e58e 0abc 21a2 61bd 3ce4 47be
00000110: 81d8 553e b2b1 4c3d d41b 823d 19d0 a53d
00000120: ed2a 423e dc20 273c a925 b0bd b0d3 943c
00000130: ec30 e7bc d945 603e 4991 a5bd 6180 bb3e
00000140: 6053 223e def1 8cbd 1c1d adbb 863f 893d
00000150: 0224 1fbe b3d5 19bb 0eaf 68bd 38c1 043d
00000160: dd0c fc3d f42b 0bbe 8ff6 5f3e 9c33 80bd
00000170: 4817 04be 027e cd3c ca92 14be b906 253d
00000180: d249 343e e02d 1bbc 11f4 75bd 05e1 1a3e
00000190: 942d ea3d 9bbd 06be a4c4 72bd 8b70 93bc
000001a0: c6b4 d0bd 7216 0bbb d521 28be e545 5abe
000001b0: f89d 23bb 4e3d 9d3d e34b b23d 08d8 27be
000001c0: d7fa 0abe 995f b5bd 87e0 40bd f70b 1d3e
000001d0: 78b1 963b 0aa5 1bbe 5edc 6f3d 4926 153c
000001e0: 83bd fabc e475 2fbc 4b24 95bc cdb3 69be
000001f0: d64c 3c3b c23c 82bb becf 0fbe 6088 e5bc
00000200: fab8 0bbe ee80 01bd 9eff bd3c d41e 273e
00000210: 7150 9cbd f591 98bc 12e5 603d 2b36 babd
00000220: b0fb a3bc 4fd3 04be d2f8 9a3d f99d aebe
00000230: 981c 5cbe bfd1 433d 6b51 2e3e 20df 183e
00000240: 61d3 08be 9dd8 223e a696 f13d 15a0 313e
00000250: 4d1a 333d f896 aabb 3ebb 3c3e ee30 da3d
00000260: 9bcd 5e3d 50ff 0b3d accc d2bc e7be 81bd
00000270: d6e3 fa3c 0d31 d53d e630 ca3b c7b2 d8bd
00000280: 37e0 04be 179d 373e 2b8a 8d3d 8b31 b3bc
00000290: 7cde a73d ed29 9c3d 5636 d5bd d005 9e3e
000002a0: c3be 7e3d d685 103e e5c0 083e d112 07be
000002b0: a765 a73d 11ef afbd 224f 893c 48e5 a83d
000002c0: a1c2 4c3c a1bb 31bc 1a25 bd3d fcb1 8d3b
000002d0: 77ef 56bd 42a5 8b3c 5fa7 253c ceb7 90bc
000002e0: 7158 d7bd dc9f 343e 3ff1 533e 255a d83d
000002f0: be95 b23d 1d1a 41bb 8334 3dbe 36b5 26bd
00000300: 7841 16bd a994 f5bc db3b 34bd c782 dcbd
00000310: 03f2 31be 7206 4b3e 30b8 0e3d 9a7d 9dbd
00000320: 18ca ffbd 12b5 a23d bad6 ab3c 31cd a4bc
00000330: 38ba 1c3e 9679 2b3e bc22 f43d 0522 aabe
00000340: 94de f5bc 2cfb 16be d3a8 743d c077 db3c
00000350: 4188 b5bd 1cec 1a3c a875 69be da22 bf3d
00000360: 0e19 2bbe d82e e9bd 2860 f5bd 746d 023d
00000370: dd20 2bbd 5a8b 163d 6f95 88be 380c d0bd
00000380: 14cf d5b9 4a41 1a3e d0a2 8b3c 410c 84bc
00000390: 3ef7 b53d 8f36 69bc edcb f7bc 1009 d4bc
000003a0: 65bb 07bd b788 1d3d 97ae ac3d 6b39 fabc
000003b0: 93d2 1bbd 82f8 ea3d ea1a 7b3e 14ca 83bc
000003c0: 7c6a 013d c2bf 3dbe cb41 f13d 7f07 3d3e
000003d0: a019 12be 5ad2 e93b 2d19 95bd 4d92 2d3d
000003e0: 90c6 06be 9c81 88bc e34f 0cbe b358 003d
000003f0: f14f ff3d 8822 fc3d c2de 82bd fc77 0d3e
-0.051488988 0.22437741 -0.026414523 0.07402935 0.02237452 -0.055741303 -0.05998936 -0.025976552
-0.0006666702 -0.030495707 0.2899093 -0.009782487 0.14352962 0.095705435 0.14430344 0.06790145
-0.043391734 -0.021236831 -0.012866264 0.12991 -0.034497242 0.15703705 0.16662264 0.19742075
0.07154222 -0.021537492 -0.037836835 -0.107460044 -0.22923633 0.09204514 0.034404043 -0.12500076
-0.041857902 0.026715072 -0.061371595 -0.16016924 0.06717135 -0.19765244 -0.15106194 0.0730886
-0.030507578 -0.104519546 0.107865095 0.016724354 0.017600821 -0.035468336 -0.0844081 -0.14597765
0.0035509772 -0.40261418 0.15907222 -0.1159992 0.13811262 -0.03191839 -0.0048276875 -0.11087503
-0.15350083 -0.23784475 0.16326419 0.019284233 0.14524077 0.1316376 0.014005024 0.057441212
-0.04512387 -0.00845692 -0.05508626 -0.19520658 0.20883371 0.04997415 0.06352964 0.08096332
0.18961687 0.010200705 -0.08600933 0.018167347 -0.02822157 0.21901645 -0.080843516 0.36621383
0.15852118 -0.0688207 -0.005283011 0.06701569 -0.1554108 -0.0023473322 -0.05680757 0.03241083
0.12307141 -0.13590986 0.21871398 -0.06259844 -0.12899506 0.0250845 -0.1450912 0.040289614
0.17606285 -0.009471387 -0.060047213 0.151249 0.114344746 -0.13158266 -0.059269562 -0.017998
-0.1019073 -0.0021223095 -0.16419156 -0.21315725 -0.0024965983 0.076777086 0.087058805 -0.16391003
-0.1357225 -0.088561244 -0.047089126 0.15336595 0.0045987926 -0.15199676 0.058559768 0.009103366
-0.030607944 -0.01070926 -0.018205782 -0.22822495 0.0028732321 -0.003974528 -0.14044091 -0.02801913
-0.13644782 -0.031617098 0.023193177 0.16320354 -0.076325305 -0.018624285 0.05490596 -0.09092363
-0.020017475 -0.12971233 0.0756699 -0.341049 -0.21495283 0.04780745 0.17023246 0.14928865
-0.13361885 0.15902944 0.11796312 0.17346223 0.043726254 -0.005205985 0.18430802 0.10653864
0.0543953 0.03417903 -0.02573236 -0.0633524 0.030626219 0.10409746 0.00617038 -0.10580974
-0.12976156 0.17931019 0.06911119 -0.02187421 0.081967324 0.07625184 -0.104107544 0.3086381
0.062193643 0.14113554 0.13354833 -0.13190772 0.081736855 -0.0859052 0.016761366 0.08246857
0.012497575 -0.010847957 0.09235592 0.004324196 -0.052474465 0.017046575 0.010110705 -0.01766577
-0.10514916 0.17639107 0.20697497 0.10564069 0.08719967 -0.0029465028 -0.18477063 -0.04070016
-0.03668353 -0.029978113 -0.044002395 -0.10767131 -0.17377476 0.19826677 0.034843624 -0.07689972
-0.12489718 0.07944693 0.020976413 -0.020117374 0.15305412 0.167456 0.119206876 -0.3322908
-0.03001336 -0.14744252 0.059731316 0.0267905 -0.08863879 0.009455707 -0.22798789 0.09332819
-0.16708776 -0.11385888 -0.11981231 0.031842664 -0.041779388 0.03675399 -0.2667651 -0.101585805
-0.0004078081 0.15063968 0.017045408 -0.016119124 0.08885048 -0.014234199 -0.030248607 -0.025883228
-0.033137698 0.03846046 0.08431738 -0.030544957 -0.038042616 0.1147318 0.24521986 -0.01608757
0.031595692 -0.18530181 0.11780127 0.18459891 -0.14267588 0.0071356716 -0.072801925 0.04237585
-0.13161683 -0.016663365 -0.1370235 0.03133459 0.124664195 0.12311274 -0.06390144 0.13815302
