results/ShooterSimple_Apresentacao_2/ShooterSimple/ShooterSimple-893.onnx (onnx, 89698 bytes, 11 tensors)

action_model._discrete_distribution.branches.0.bias f4 [5]
00000000: 47c0 923b 91ed 52ba d343 97bb d28e 16bb
00000010: 8f0f 6d3a
0.0044784877 -0.00080462644 -0.0046162396 -0.002297331 0.0009043151

action_model._discrete_distribution.branches.0.weight f4 [5, 128]
00000000: 382b f73a 9469 e6bb 91d0 423c 3752 14bc
00000010: 34ce 3dbc e41f b8b8 43fa f93a e599 4f3b
00000020: dc0b b8bb acfa 81bb 7b1e 5bbb 67f5 f6bb
00000030: 15bd a5bb e5fa 0338 64dc 883c f3cb c0bb
00000040: 7da2 f63b 3e6f 363c 2e81 68bc 3633 d73b
00000050: 44c1 d03b 08bf 15bb d6dd 843a 7423 4dbc
00000060: 0c0d 87bb 9522 4d3c 4f7c 4fba 8627 06bb
00000070: afda 42bb e1c6 d039 6507 f139 5705 bd3b
00000080: 87e2 13bc 27ac 84bc 095c 013b 6f13 583a
00000090: 899c 3fbb 73c8 ba3b 295c 16bc 8ef5 d5bb
000000a0: fb1e 8fbc a917 743a 3db7 b43b 7cdb f03b
000000b0: 482a 39ba 8eeb 943b d298 553b 4c88 a53b
000000c0: fec1 5b3b 2d40 3cbc 2d28 79b8 d78f edb9
000000d0: 3335 3d3a 0e06 193c e4b2 513c 8633 64bb
000000e0: f2ba fe3b 7bad a9bb 188e 20bc bd37 8239
000000f0: 7f0d 3b3c 39ec a5bb 7384 3f3c 20eb 393b
00000100: 139f bc3b 74aa bbbb e3b9 8bbb d068 b6bb
00000110: 1ddf 483b 40b7 e1ba ebc6 933b 0c47 80bc
00000120: a1f4 6dbc e097 9e3b 5d95 aebc 06c2 fd3b
00000130: 5098 2dbc 5ab3 e43b a9a4 24bc 7395 f8bb
00000140: a7f9 a63b 44d4 bfbb 33b1 203c 83a4 8ebc
00000150: 9f4f f4bb ad4c 10bc 380e 53bc 2dc1 c2bb
00000160: e969 e13b c6cd 8e3c cde5 173b c411 013c
00000170: 57df 423c 5868 993b 1db8 2639 6bf9 773b
00000180: 6898 a2bb 5268 65bc 1f03 86bc 5527 633c
00000190: 2bce 99bc f73f 843b 75c7 80ba a750 7a3c
000001a0: 344a 893b 4416 b23b 0128 27bc 89ac 54bc
000001b0: b2a4 ddba dd60 96bb 992e 00bb f37d 223c
000001c0: 35b8 54bc 0fd9 8c3a acbc 063c 9dfc a33b
000001d0: 82ab 78bc 8bf9 7ebb 0c23 26bc 6f16 0ebc
000001e0: f8ca 6c3c 75fc 873b ca40 75bc f853 afbc
000001f0: ad17 04bc d338 1a3c bc69 81bc aad7 d03b
00000200: 2770 5d3c 5774 a83a 13d2 16bc ebb7 c63a
00000210: 8b46 8f3b 7831 8a3c d482 34bc 4a09 513b
00000220: 3816 833c efc3 c6bb 4226 8f3c 4f8a 3bbc
00000230: 9ad7 1e3c 7810 a0bb 1dc4 b0bc 417e 023c
00000240: 7882 5dbb e09d 443c eaf9 3d3a 05fd b33c
00000250: f1b2 15bc 22ce 643c a469 56bb 4bad c83b
00000260: 6377 d4bc f3b5 efba af0d 16bb 256f 013c
00000270: f0e2 8d3c 1744 12bb 008b b0bb 8e27 6f3c
00000280: 4b73 2f3c 4038 21bc 9b09 00bb 4def b13b
00000290: cad5 ffbb 422c 37bc 9252 8dbc 9ec9 86bb
000002a0: 3b35 ce3a 2cc1 fbbb f82b 6b3c a6b9 f53b
000002b0: fba2 0fbc 8475 753b 5027 853b 258f 2b3c
000002c0: 9dd7 7f3b d7bb 073c 9b4a 1cbb 0d1b b5ba
000002d0: c624 6dbb 0f1d d3bb 4008 01b9 a8d6 f0bb
000002e0: 6d98 b439 d7d9 66bb a5fc 3f3a 329b 56bb
000002f0: 1f38 a0bc bf87 faba de20 a2bb 5631 7bbc
00000300: 1a0e 993c d7f4 2ebc 9ad2 b63b 123f fcba
00000310: 289b 50bc e741 0db9 cd86 403c d8d0 aa3a
00000320: 6fb2 5c3b 3de3 bb3b 334e 513b 8ff4 1ebb
00000330: 5a61 213c 71d3 98bc a1f8 fcba 3df7 4fbc
00000340: 97a1 f13b 0fa0 07bc 4287 3d3c eeef 02bc
00000350: 4887 00bb 4795 9d3b 33bf 2b3b 623d e0bb
00000360: 304c dcba ff0d 9b3b c7ec 183b 0551 40bb
00000370: 08bb 873c 7b39 ad3b d429 89bb 1694 8bbb
00000380: 18ee 51bc 24d2 1fbc 46d5 e7bb 9b1f 8f3c
00000390: 52c7 07ba 276a ccba a625 5cbc c6d9 db3a
000003a0: 31b0 bebc 0cd9 77bc 03de b53b 3e99 f8bb
000003b0: fcd1 9fbc dee2 0e3c 54c7 f239 6063 9c3c
000003c0: b828 70bb d38c 79bc 75f9 e839 6437 5fbc
000003d0: 2fc1 ccbb 42ee 4bbc d799 4abc 615f dd3b
000003e0: cbbf 163b 4066 9c3b 97b1 ff3b 49ce 3abb
000003f0: c94c 083c dbd6 dc3b d94a 1fba e15d 83bc
0.0018857485 -0.007031629 0.011890546 -0.009052805 -0.011584807 -8.779744e-05 0.0019071776 0.0031677422
-0.005616648 -0.00396665 -0.0033434916 -0.0075365785 -0.0050579407 3.1466498e-05 0.016706653 -0.0058836876
0.0075266943 0.011134921 -0.014190955 0.006567384 0.0063706953 -0.002284946 0.0010136913 -0.01252066
-0.0041214284 0.012520452 -0.0007914947 -0.0020470335 -0.0029732396 0.00039821028 0.0004597261 0.005768459
-0.009026176 -0.01619537 0.0019738695 0.0008242642 -0.002923759 0.005700165 -0.009177246 -0.0065295165
-0.017470827 0.0009311387 0.005515008 0.0073503833 -0.00070634903 0.004544682 0.0032592309 0.0050516482
0.0033532376 -0.01148991 -5.9403643e-05 -0.00045311332 0.0007217705 0.009339822 0.0127989985 -0.003482075
0.0077737505 -0.005178151 -0.009799503 0.0002483706 0.011416792 -0.0050635603 0.011689293 0.0028368905
0.005756268 -0.0057271067 -0.004264103 -0.005566694 0.0030650564 -0.001722075 0.004509797 -0.015658878
-0.014523656 0.0048398823 -0.021311456 0.0077440767 -0.010595396 0.006979388 -0.010049024 -0.007586175
0.005095679 -0.0058541615 0.009807873 -0.01741243 -0.0074557806 -0.008807343 -0.012881808 -0.0059434385
0.0068790806 0.017432105 0.0023177743 0.007877771 0.011894069 0.004681628 0.00015899581 0.0037837874
-0.004962016 -0.014001923 -0.01635891 0.013864358 -0.018775066 0.0040359455 -0.0009825068 0.015278018
0.004189754 0.005434783 -0.010202409 -0.012980589 -0.0016910045 -0.0045891837 -0.0019559024 0.009917724
-0.0129833715 0.0010745841 0.008223694 0.005004479 -0.015177609 -0.0038906063 -0.010140192 -0.008672341
0.014452688 0.0041499683 -0.01496906 -0.021402344 -0.008062285 0.009412962 -0.015797488 0.0063733654
0.013515509 0.0012852055 -0.009205359 0.0015161013 0.004372423 0.016869292 -0.01101752 0.0031896406
0.016001806 -0.0060658376 0.017474297 -0.01144655 0.009694958 -0.0048847757 -0.02157789 0.007964672
-0.003379969 0.012000531 0.0007247018 0.021971235 -0.009136901 0.0139651615 -0.0032716775 0.0061241738
-0.025935834 -0.0018288478 -0.002289634 0.007900034 0.017320126 -0.0022318417 -0.005387664 0.014596833
0.01070864 -0.009840071 -0.0019536975 0.005430138 -0.007807468 -0.0111799855 -0.017251287 -0.00411339
0.0015732417 -0.00768294 0.014353745 0.0074989377 -0.008766885 0.0037454078 0.0040635243 0.01047114
0.0039038428 0.008284531 -0.002384818 -0.0013817266 -0.0036185249 -0.006442673 -0.00012305472 -0.007349808
0.0003444584 -0.0035225058 0.0007323719 -0.0032746312 -0.01955801 -0.0019113942 -0.0049477657 -0.015331587
0.018683482 -0.010678492 0.005579305 -0.0019244871 -0.012732305 -0.00013471358 0.011750889 0.0013032211
0.003367569 0.005733876 0.003193748 -0.0024254655 0.009849871 -0.01865551 -0.0019300171 -0.012693224
0.0073739993 -0.008277907 0.0115678925 -0.007991774 -0.0019611884 0.004809055 0.0026206493 -0.006843255
-0.0016807374 0.004731893 0.002333449 -0.0029345166 0.016568676 0.005286393 -0.0041858945 -0.0042595966
-0.012813114 -0.009754691 -0.0070749847 0.017471125 -0.00051795423 -0.0015595601 -0.01343671 0.0016773276
-0.023277374 -0.015127432 0.0055501475 -0.0075866273 -0.019509308 0.008721082 0.00046306348 0.019090354
-0.0036645364 -0.015231329 0.00044436348 -0.013624046 -0.006248615 -0.012446942 -0.01236578 0.006755755
0.00230025 0.0047729313 0.007803153 -0.0028504303 0.008319088 0.00673948 -0.0006076522 -0.016035976

action_model._discrete_distribution.branches.1.bias f4 [4]
00000000: 5a51 0bbb 63a3 3f3b 6f73 5e3a 2d7b 94bb
-0.0021258206 0.0029241673 0.0008485829 -0.0045312853

action_model._discrete_distribution.branches.1.weight f4 [4, 128]
00000000: 3f7c e1ba 72d3 443c aadd 25bc 0edb c2bb
00000010: 55f1 533c 6820 d93b 05d5 713c 968c f33b
00000020: 9871 53bc f5ac 0e3c e3b4 023b fba6 4a3b
00000030: ee5f 4ebc 5c90 e53b c29b 5dbc a727 18bc
00000040: 51f4 473c b633 cbbb cb0c 363c 10b5 573b
00000050: 85b9 f53a 4d4c 71bc f693 ebbb 4f2e 9a3c
00000060: 7894 513b 398e d0b9 783d ba3a 0474 903b
00000070: e2e2 a7ba ce38 7dbc f308 debc a7e0 433c
00000080: 31d8 90ba 4dbc 313c 0710 013c e9d9 0d3c
00000090: 3f17 2abc fab5 b03b 9551 843b 65ce e3bb
000000a0: c28f 9bbb ecee 283c 9587 24bb 72a7 8d3b
000000b0: 2164 123b a472 a4b9 79d2 c0bb 1860 b6ba
000000c0: e8dd d63b b1c1 a439 30bf 2a3c 8310 78bc
000000d0: 1018 093a 0209 f63b 95b0 ddbb 6689 f5bb
000000e0: 1166 03bc 52e3 b03b c1d6 a33b 5de1 e4bb
000000f0: 6bf4 1c3b a448 783c 9a8b f53b 9d85 83bb
00000100: 1716 a43c 4132 4bbc bfb6 6bbb f076 9abb
00000110: f614 23bb 6c65 4d3c 8598 cfbb 4910 283b
00000120: f0fe 463c 55ad 88bc 5f46 2dbb 9ca5 973b
00000130: 640e bc3b 0c20 16ba e8d9 7d3b ec58 773c
00000140: b92a 643b 5994 d93b d010 d83b 9437 08bb
00000150: b0ed 913b a518 343c 2a2a c23b 564f d6ba
00000160: b5d0 2abc 4c8f d63a 468d 473c a2a7 543c
00000170: 45c3 953c c504 98bc 9485 563a 62d5 863b
00000180: f34f 713c 27c8 cf3b 372d 923a c6c0 d13a
00000190: a459 bf3c 4c39 563b ef5b a13c 2a65 7dbb
000001a0: 7195 b5bb 16a1 55bc 5062 cb3b 7dcf b03c
000001b0: 621c a5b9 47ef 143c 4fcd efbb 2a02 703c
000001c0: 8778 e43a 16e7 ab3c 3741 44bc 846d 653b
000001d0: 1225 6aba 2e39 8bbb 3713 023c d18d b03b
000001e0: 8737 f7bc 51b9 0bbc 9ebb b7bb a772 843b
000001f0: b6ba 373b 4553 d3ba 0abf 143c 203f d2bb
00000200: 40fc 6bbc 93c7 c9bc ae97 803c 465a ab3c
00000210: a4a6 16bc 7c9a 52bb 391b 04bc b271 a4bc
00000220: b84a 86ba fc04 983a 4986 99bb 60d7 563b
00000230: 8cc9 d33a 5dfd ecba 11dd 86bc 79fa 7ebb
00000240: 1b05 3fbc 0f44 9dbb 3aaa a8bb be3f fd3b
00000250: 5b24 6b3c 9432 343b 2790 2abc 90fa afbb
00000260: 4386 a0bc f631 c7bb 4db7 35bb 129a 3dbc
00000270: 1798 4c3c 2a2b 7c3c 69e6 253c 5eca 34bb
00000280: 4284 c8bc 11b5 a2bc 49f3 353c c41a 17bc
00000290: e598 f33b 8ae1 8dbc 18f0 45bc 45d5 1dbc
000002a0: 7aca 9938 89ea ebbb 286f 293c 4643 2dbb
000002b0: 2b13 c13a 268c 72bc add1 bd3b 165d 2a3c
000002c0: 1a44 46bb a1b5 feba aa6c 8bbb 75a4 093c
000002d0: 0bd1 aabc 5ec1 1bbc 579a 613c e638 1cbc
000002e0: 8daa 5b3b 5cb0 9cbb 0c7b bcbb 224d fa3a
000002f0: d857 99bb 5348 96bb 7567 ad3b 7710 4dbb
00000300: 84b0 03bc c049 a9bc 0726 293c ab5f f4bb
00000310: 72fc 24bc d4d6 90bb 6b2a 62bc 435f 1c3c
00000320: 84c6 4dbc 2828 913b 664c adbb dbe3 51bc
00000330: 1023 eebb 4925 6f3c 0024 8fbb 8bf1 6dbc
00000340: 4dde cebb 3d60 d73b aeb6 953b 37e9 c4bb
00000350: 1672 70bc 4d4e 6ebb 141d 2abc 0f10 8ebb
00000360: 7bee 913b 5fcd 643c cdcc 89bc 4d10 72bc
00000370: a08a 2d3a 067b 9b3c 9b7a 02bb 6f5d f63b
00000380: 14a8 9fbb 1b16 593c b07c 23bb f467 323a
00000390: 9a79 18bc 0d32 a83b a24e 1ebc e4d9 d43a
000003a0: 59c2 36bb 3a88 813c a184 3fbb 0251 03bb
000003b0: 8cb7 283c 5a23 42bb c753 14b9 8738 21bc
000003c0: 88c3 723b 5ebf 253c a195 ee3a a3d7 82bb
000003d0: 732b f33b 0bb4 2abc 5eff be3a 0a5d 2fbb
000003e0: b3ba 413c 2dcb 4c3b f508 e83b 6859 f13b
000003f0: 18be 13bc 89ed c9bc fbf5 aabc 1622 c93b
-0.0017203166 0.012013303 -0.01012365 -0.0059465235 0.012935956 0.0066261776 0.0147602605 0.0074325306
-0.012905501 0.008708228 0.0019944243 0.0030922282 -0.012596114 0.0070057344 -0.013525905 -0.009286798
0.012204246 -0.006201233 0.0111114485 0.0032914318 0.0018747306 -0.014727664 -0.007189269 0.01882091
0.0031979363 -0.00039778816 0.0014208993 0.0044083614 -0.0012808705 -0.015455438 -0.027103877 0.011955417
-0.0011050758 0.010848117 0.007877356 0.008657911 -0.010381519 0.005392787 0.0040380456 -0.0069520944
-0.004747362 0.01031087 -0.0025105227 0.0043229396 0.0022337514 -0.00031365931 -0.0058844653 -0.0013914136
0.006557215 0.0003142483 0.010421559 -0.015140655 0.0005229721 0.007508398 -0.006765435 -0.007493186
-0.00801994 0.0053981924 0.004999966 -0.006984873 0.0023949395 0.015154038 0.0074934484 -0.0040137307
0.020030065 -0.012402118 -0.003596708 -0.0047138855 -0.002488432 0.012536388 -0.0063353204 0.0025644472
0.012145743 -0.016684214 -0.002643965 0.0046278965 0.00573902 -0.0005726821 0.0038734619 0.015096884
0.0034815504 0.006639999 0.006593801 -0.002078508 0.0044533834 0.010992204 0.0059254365 -0.0016350548
-0.010425736 0.001636961 0.012179678 0.01297942 0.018281588 -0.018556962 0.0008183357 0.0041147927
0.014728534 0.0063409987 0.0011152391 0.0016002886 0.023358174 0.003268796 0.019697158 -0.0038665035
-0.0055414964 -0.013038894 0.006206788 0.021583313 -0.000314924 0.009090251 -0.007318176 0.014648953
0.001743094 0.020984214 -0.011978439 0.0035007903 -0.00089319155 -0.0042487597 0.0079391515 0.0053879996
-0.030177845 -0.00852807 -0.0056070825 0.004041988 0.0028034872 -0.0016122839 0.00907875 -0.0064162165
-0.014403403 -0.024631297 0.015697327 0.02091707 -0.009195004 -0.0032135537 -0.008063131 -0.020073745
-0.0010245657 0.0011598165 -0.0046851975 0.0032782182 0.0016158088 -0.0018080879 -0.016462835 -0.0038906618
-0.011658932 -0.004799373 -0.0051472457 0.007728546 0.01435193 0.0027495967 -0.010410345 -0.0053704455
-0.019595271 -0.006078954 -0.0027727664 -0.011572378 0.012487433 0.0153911505 0.010125735 -0.002758644
-0.024477128 -0.01986173 0.011105367 -0.00922269 0.007433998 -0.01731946 -0.012081169 -0.009633367
7.333323e-05 -0.0071995896 0.010341443 -0.0026437803 0.0014730444 -0.014803922 0.0057928176 0.01039817
-0.0030252994 -0.0019432792 -0.004254897 0.008401026 -0.020851633 -0.009506552 0.013769708 -0.00953505
0.0033518404 -0.004781766 -0.005751973 0.0019096474 -0.0046796612 -0.0045862584 0.005291874 -0.0031290331
-0.00803769 -0.02066505 0.010324008 -0.0074576936 -0.010069953 -0.0044201408 -0.013804059 0.009544197
-0.012559537 0.004429836 -0.0052886484 -0.012810673 -0.0072673634 0.014596292 -0.004368305 -0.01452292
-0.0063131214 0.006572752 0.0045688963 -0.0060092467 -0.014675638 -0.003636259 -0.010382909 -0.0043354104
0.004453478 0.01396498 -0.01682129 -0.014774394 0.0006620083 0.01897956 -0.0019909504 0.0075184624
-0.0048723314 0.013249899 -0.0024946146 0.00068056514 -0.009306336 0.0051329196 -0.009662302 0.0016239253
-0.0027886836 0.015812028 -0.002922334 -0.0020037298 0.010297667 -0.0029623122 -0.0001414559 -0.009840137
0.0037042815 0.010116426 0.0018202552 -0.003992991 0.007420951 -0.010418902 0.0014571955 -0.0026758336
0.011824298 0.0031249032 0.007081146 0.0073653944 -0.00901749 -0.024649398 -0.020869246 0.0061380966

action_model._discrete_distribution.branches.2.bias f4 [2]
00000000: 598a a7ba 598a a73a
-0.001278232 0.001278232

action_model._discrete_distribution.branches.2.weight f4 [2, 128]
00000000: d949 34bc 6d72 0e3c af56 b43a 637b 33bb
00000010: a523 a9ba 8f71 4abc e819 dc3b fee4 473b
00000020: 9274 023c 938c 88bc 4ae0 883c 3210 1abc
00000030: b47b 0a3c 7768 9fbb c3da faba 7996 acbb
00000040: c53b c4bb d883 88bc 3c91 4d3c 9bc4 5abc
00000050: 468f 24bb a8e8 993a f0de 0f3c 5833 1bbc
00000060: 1ca6 0b3a 9dc9 87bc fcba 8439 8f2b 583b
00000070: 8bbb ad38 75a0 0b3c af19 97ba 783a a6ba
00000080: 8a08 49bb 4007 57bc c141 973b c13a 153a
00000090: 9250 8eb9 1305 9c3b 82ab f0ba aa10 93bc
000000a0: 3e93 9fbc 8af0 a8bb 45fd 183c af2a 3abc
000000b0: ef15 b43b 5903 46bc fab9 afbc df25 8f3b
000000c0: 1ef6 1cbc 38b4 97bb 6cea d8bb 2fe0 f939
000000d0: afdd b5bc 471e e63b 8b0f 74ba 2e67 c7bc
000000e0: 4ec0 183c ddd9 9c3a df6f 883a b2b0 313b
000000f0: 060d 153c eea5 3f3c 80f2 d83b 5f25 09bc
00000100: de53 2236 95d1 11bc dc16 353c e28e 3dba
00000110: 4e99 33ba 48f3 14bb 5b6a e7bb a1f6 453b
00000120: 1ecc 9fb8 2ec5 b83b 1560 ce3c dea3 0fbc
00000130: a503 78bb 290e 84bb d0fd d2bb b277 2dbc
00000140: 3852 a13b 73b3 f93b 8d0a 783b 2865 c13b
00000150: 42a4 02bc e07b 013c f864 1b3c 4497 a3bb
00000160: 1819 703a 99bf 21bb 406c 893b 150b af3b
00000170: 9620 903b 52b7 babb 91c4 e43b 918f cc3b
00000180: 2cba 6b3c 853a 2a3a 874b 2bbb d738 78bc
00000190: df04 14bc 58bc 67bb 3b65 4ebc 0f46 5abc
000001a0: eb65 14bc caa6 67bb 615b dcba 2562 ddba
000001b0: b48a 45bb a8be b43b 2f51 0a3c 3f32 393c
000001c0: 782e 83bb 9a1f 12bc ad3e 1fbc 3c55 2c3c
000001d0: 0c62 993c 4cbe 33bc 55a2 2c3b 028e bcbb
000001e0: 39b2 d33b 20e1 093c c996 7ebc 9e22 3b3b
000001f0: 6887 ba3b da74 353b bf31 203c f696 5ebc
00000200: 6049 a9ba ca03 4eba 66ae ba3b 753d a33b
00000210: c9bd 513b 7eb5 87ba 3e4d 463c 6a05 18bb
00000220: 769d 663a 6946 d2ba 1cc1 663c 7527 d53c
00000230: 852f 56bc 1e35 0bbb 53ee 42bc 9f7e 283c
00000240: d293 923c d163 333c c8b3 1d3b 4b14 563c
00000250: 1ffc 4dbb 2ed7 ce3b dfd6 463b bb8d b43c
00000260: 70e6 ce3c 861e 5e3c ca3f 1d3c 3c81 3cbb
00000270: d362 f83b a51e 67ba 123a ebbb 1ed3 223b
00000280: 1a13 03bc 99b5 663c 52d3 773b 7379 f43b
00000290: c67f dbbb 96a9 92bb 1f5e 813b 7e42 4e3c
000002a0: fbdc af3c d8af ac3b 9dad 8b39 902f 1b3c
000002b0: 972f 993c 7375 2c3c a8c8 4a3b b785 1dbc
000002c0: c2e6 a83b 59dd 0ebc b0ba bcbb 3c11 c5bb
000002d0: bf5f 8d3c 974b 21ba 41e0 293b a029 1e3b
000002e0: c4f1 b9ba 1de9 4b3c 6e97 e4bb 9e58 f23b
000002f0: e18c 9a3b 4ea9 143c e90a 653c 5e95 5abc
00000300: 4961 9db8 a7af 4aba e707 813c 5143 e93b
00000310: 650e 6b3b 1481 d2ba 88fb 28bc e3c1 133c
00000320: 6873 e6bb 0a58 09bc 9447 17bc 2dff dcba
00000330: 64df c2bc 0acf 46bc b2b2 8e3c 44d0 1f3c
00000340: f39a 5e3c 00f0 debb edd0 ef3b 3eee b1ba
00000350: e04d b9bb bff8 9b3b 7a41 5a3b fd69 ee3b
00000360: 6005 09bc 714b 8eba c8a6 61ba 2e6d 23bb
00000370: ef2f 03bb 9151 d73b 5943 503b 01ec 993b
00000380: 67ff 7fbc 8d3c ae3b 0b79 c6bb 615a 9dbb
00000390: 2dc9 233b 692a 193c 2dc0 b8bb b1fe 38bc
000003a0: 2bbc 89bb 1c81 0bbb 05c8 a23b 3f06 333c
000003b0: 165b 1c3a d1ed 2cbb b174 1c3c 88fa 013b
000003c0: e1b2 0ebb 870a 45bc e7ec 9abb a932 8c3c
000003d0: 0c40 a739 56c7 483c 7be3 a9bc 3b59 2a3c
000003e0: ceb7 beba 167c 4c3b 5304 103c 8d1e 11ba
000003f0: 4a04 75bc 5f96 4c3b 735e ff3b b31b 313a
-0.011003935 0.008694273 0.0013758744 -0.0027386777 -0.00129043 -0.012356176 0.0067169555 0.003050148
0.007962363 -0.016668594 0.016708512 -0.009403275 0.008452345 -0.004864748 -0.0019138682 -0.005266961
-0.0059885704 -0.01666443 0.012546834 -0.013352538 -0.0025109812 0.0011742311 0.00878118 -0.0094726905
0.00053271814 -0.016575629 0.00025316316 0.0032984947 8.2842154e-05 0.008522143 -0.001152804 -0.001268222
-0.0030675256 -0.013124287 0.004615993 0.0005692654 -0.0002714438 0.004761347 -0.001836166 -0.017952282
-0.01947939 -0.0051556276 0.009337728 -0.011362716 0.0054957788 -0.012085759 -0.021450985 0.0043685283
-0.009580163 -0.004629638 -0.006619742 0.0004766001 -0.022200434 0.0070226523 -0.00093101774 -0.024341192
0.009323193 0.0011966784 0.0010409317 0.0027113375 0.009097343 0.011697276 0.006620705 -0.008370726
2.4188698e-06 -0.008900066 0.011052813 -0.0007231069 -0.0006851152 -0.0022728015 -0.007062239 0.0030206817
-7.6197306e-05 0.00563874 0.0251923 -0.008767096 -0.003784397 -0.0040300083 -0.006438948 -0.01058762
0.0049231313 0.007620269 0.0037848086 0.0059019513 -0.007973732 0.007903069 0.009484522 -0.0049923975
0.00091590127 -0.0024680851 0.0041938126 0.0053418973 0.004398416 -0.005698123 0.0069814404 0.0062427004
0.014387649 0.00064937054 -0.0026137547 -0.01515027 -0.0090343645 -0.0035360064 -0.012597377 -0.013322367
-0.009057502 -0.0035347217 -0.0016811901 -0.0016890211 -0.0030142488 0.005515892 0.008442207 0.0113034835
-0.0040033422 -0.008918667 -0.009719533 0.010518368 0.01872351 -0.010970663 0.0026341875 -0.0057542333
0.006460455 0.00841549 -0.01553888 0.002855457 0.005692411 0.0027688057 0.009777485 -0.013585797
-0.0012915544 -0.0007858841 0.0056970594 0.0049816915 0.003200399 -0.0010353772 0.012103377 -0.0023196586
0.0008797267 -0.0016042712 0.014084127 0.026019791 -0.013072853 -0.0021241377 -0.011897641 0.010284095
0.017892752 0.010949091 0.0024063457 0.013066362 -0.0031430793 0.0063122725 0.0030340475 0.022040239
0.025256366 0.013557082 0.009597728 -0.0028763553 0.00758014 -0.0008816517 -0.0071785534 0.0024845074
-0.00800016 0.014081382 0.0037815166 0.007460767 -0.0066985814 -0.0044757826 0.0039479877 0.012589095
0.021467676 0.0052699856 0.00026641498 0.009471789 0.01869945 0.010526049 0.0030942354 -0.0096144
0.0051544616 -0.008719766 -0.0057595596 -0.0060140174 0.01725757 -0.00061529264 0.002592102 0.0024133697
-0.0014186432 0.012445715 -0.0069760596 0.007395818 0.004716501 0.0090735685 0.013979652 -0.013341276
-7.504464e-05 -0.0007731863 0.015750838 0.0071186204 0.0035866734 -0.0016060197 -0.010313876 0.009018394
-0.0070328005 -0.008382807 -0.009233374 -0.0016860716 -0.023788162 -0.012134323 0.017419193 0.009754244
0.013586747 -0.0068035126 0.007318607 -0.001357503 -0.0056550354 0.0047598775 0.0033303187 0.0072758184
-0.008363098 -0.0010856224 -0.0008607921 -0.0024936902 -0.0020017584 0.006571003 0.0031778424 0.0046973233
-0.0156248575 0.005317277 -0.00605691 -0.004802034 0.0024991736 0.00934849 -0.0056381435 -0.011291192
-0.0042033396 -0.0021286672 0.004967692 0.010926782 0.00059645006 -0.0026386867 0.009549306 0.0019833166
-0.00217741 -0.012026436 -0.004727948 0.017114 0.0003190044 0.012254557 -0.020738354 0.010397251
-0.0014550628 0.003120189 0.0087900935 -0.00055358635 -0.014954636 0.0031217558 0.0077932416 0.00067561417

discrete_action_output_shape f4 [1, 3]
00000000: 0000 a040 0000 8040 0000 0040
5.0 4.0 2.0

network_body._body_endoder.seq_layers.0.bias f4 [128]
00000000: 014c 6cbb 5e5d 3cbb 4439 983b 2a21 21bb
00000010: 1288 ea37 992d cf3b 27e6 4c3b 63d2 a73b
00000020: c840 0dbc 6dcd b9bb 0c5e 1ebb 1a84 1cbb
00000030: 9754 bdba 207a 033b 59f1 02bc 0aee 27bc
00000040: 4443 1e3c d8e9 8337 b3ac aebb 24ba 01bb
00000050: 6209 213b 8a83 0bbb c213 873b 822b c13b
00000060: ed02 15bb 2bbd 06bc a586 333a 7d47 9bba
00000070: a190 cc3a b4a9 923b 1996 8bbb 4ed6 ac3b
00000080: bc7e b639 ae81 cbba 5966 1f3a 03bd ce3b
00000090: 10ee 7b3a 32d7 cfbb 6a97 fc3a 28c6 63bc
000000a0: bc79 01bb f301 60b9 9103 ab3b 856a bcbb
000000b0: 91a6 64bb 7000 1a3b f5f7 473b 9570 553a
000000c0: 0170 fdbb 044c cdba d180 7bbb 6798 91bb
000000d0: ede5 ff3a 092d 003c b2b7 1e3b 81c4 dfb9
000000e0: 668d a33b 54de 9c3b 47a5 b7b9 9383 dd3a
000000f0: 4fed 0d3c ee85 57bb dac0 34bb 3a54 4a3b
00000100: a1b5 013c 9007 bbb7 4e31 a1bb 4766 5c3b
00000110: a7af f13b 887c d2bb 1f29 da3a b0c9 3b3b
00000120: a856 28ba 9ef5 b73b 007e 083c 77c7 913b
00000130: 77ec debb c3bf 07bc fa7e c73a f398 a5ba
00000140: 03a5 c8b9 ad23 37bb d151 103b 03a0 573b
00000150: b9d8 dc3a 5ae3 3b3b 55e1 e238 8107 453c
00000160: 2369 083b 4f6a ceba 1f4a ab3b 86ac c9ba
00000170: f9a7 a13a c609 37ba 7f58 d13b 24be e6bb
00000180: 649c 84bb 2a2d e23b 0fac a33b c8c3 9f38
00000190: ebb1 433b de51 f8ba b6b2 6c3c b52e 11ba
000001a0: 1297 0e3b 3fdb 1e3b b2bd 8abb f6f7 4a3b
000001b0: 6782 713b 3299 443b 4975 39bc bb92 dabb
000001c0: a289 dc38 f099 503b f9eb 523c 60f9 1ebb
000001d0: e3e1 82bb bf0b 4b3c 93c3 4cbc 0f11 b63b
000001e0: 1a83 2abb d47c d6bb 2b23 8ebb 90c5 bebc
000001f0: 8838 923b c2bb 043c dd98 ea3b 0a17 4b3b
-0.0036056044 -0.0028742175 0.0046454985 -0.0024586418 2.7958336e-05 0.0063225743 0.0031265111 0.0051215156
-0.008621402 -0.0056702406 -0.0024164943 -0.002388245 -0.0014444765 0.0020061806 -0.007992112 -0.010249624
0.009659592 1.5725309e-05 -0.005330646 -0.0019794786 0.0024572243 -0.002128812 0.0041222284 0.005895079
-0.002273734 -0.008223812 0.00068483717 -0.0011846867 0.0015607068 0.0044757966 -0.0042598364 0.0052745705
0.0003480817 -0.0015526318 0.00060806196 0.006309153 0.0009610364 -0.006342792 0.0019271199 -0.013902225
-0.0019756397 -0.00021363031 0.005218931 -0.005750003 -0.003488932 0.0023498796 0.0030512784 0.0008142081
-0.007734299 -0.0015662913 -0.003837634 -0.0044432166 0.0019523479 0.007823237 0.0024218378 -0.0004268028
0.0049912212 0.0047872458 -0.0003502762 0.0016900174 0.008662536 -0.0032886225 -0.0027580769 0.0030872957
0.007916839 -2.2295659e-05 -0.0049192077 0.0033630298 0.0073756757 -0.0064235367 0.0016644335 0.002865415
-0.0006421604 0.0056139966 0.008330822 0.004448827 -0.006803091 -0.008285466 0.0015220337 -0.0012634083
-0.00038269916 -0.0027944848 0.0022021423 0.003290177 0.0016849256 0.0028669448 0.00010818491 0.012025715
0.002081462 -0.0015748235 0.005227342 -0.0015386499 0.0012333385 -0.00069823524 0.0063887234 -0.0070417095
-0.0040469635 0.0069023566 0.004994876 7.618178e-05 0.0029860686 -0.0018945297 0.014446905 -0.0005538271
0.0021757525 0.0024239568 -0.004234039 0.003097055 0.0036851407 0.0029998538 -0.011319467 -0.0066703237
0.000105160536 0.0031830035 0.012873643 -0.0024257526 -0.003994213 0.012392937 -0.0124978 0.0055562328
-0.0026018084 -0.0065456424 -0.0043376884 -0.023287565 0.0044623055 0.008101406 0.007159336 0.0030989074

network_body._body_endoder.seq_layers.0.weight f4 [128, 27]
00000000: 6483 45bc ce16 ebbd bc52 a3bd f588 2cbe
00000010: 6a36 9dbb 1c4b 36be e663 163e b147 753e
00000020: bd14 853e c2ea b7be 3132 3bbe e356 673c
00000030: cf70 cdbd 2513 a0be e578 d63e a743 673e
00000040: b20f d9bc dabe 99be 12dd abbd 1f89 c2bd
00000050: dfd2 023e 1807 7ebe 7d6a 49bd 4b61 ef3d
00000060: 32a2 033f 1d15 0bbe d916 513d 8531 91bd
00000070: 436f 7dbe 26ff 22be 4be7 4cbe e181 e33d
00000080: 9b60 053e 3660 d23c a8cb 0bbe be0e bd3d
00000090: a98b 5dbe e30f 7abe fb1c 193d d6b1 28bd
000000a0: 0b99 043e 07a7 a6be a295 de3d 65cd 4d3d
000000b0: 5764 ebbe 4e0b c13d 920c babd 28b4 953d
000000c0: 9a8f 7abe bc32 1c3d beff 183e 0420 c9bd
000000d0: 9ea7 2fbe 3c63 303e 4283 043e c066 073d
000000e0: b299 883d 75ff 403e 47fb b03d 168d 63bd
000000f0: 0d4c f83d b00a da3d f6d7 923d 1944 56bd
00000100: 39eb ae3d 0775 873d 3292 61be d1fa 913d
00000110: c9bb 4ebe 30d8 a23d 4a61 4c3e aaeb b9be
00000120: b8aa 2e3d 1708 5cbd 441a 1c3c fe3b 373d
00000130: 95c7 06bd fbf9 84bc 2c97 da3e b1da b53e
00000140: 1aeb 183e 8c95 dbbc b10b 61be 7639 623d
00000150: d3fb 4e3e ea78 60bd 71e6 8e3d 64ed 9d3d
00000160: ead4 b8bd b9ac 3e3e c0e2 193d e8f0 693b
00000170: b7c7 9d3e cc6e 19be 6678 ed3e 5fbc a3be
00000180: 9396 aa3e 3405 3a3e e5fa 4a3d a5d2 033d
00000190: 8524 063c 775b 0f3e b421 77be f79e 97bd
000001a0: 0373 9dbe 0080 963c c6dd a5bd 2d2b 0d3e
000001b0: 5381 e93d 0453 6cbd d96c f23e 8142 03be
000001c0: 9cbc 6cbe 915a 443e 3e38 773e 2ec4 3f3c
000001d0: 5cad be3c 9bf3 00be f7f4 20be f8aa 52be
000001e0: 4f56 f83d bbc0 c4bd 2e2a 6bbe 012c e2bd
000001f0: 9515 ca3d 3064 133e e363 30be 7127 afbe
00000200: 9e92 043f 1165 50be 003d 633e 980e c63d
00000210: b048 1dbe 8bd8 cfbe 8131 4f3e a895 413e
00000220: ca85 643e d349 2abc e28e d1bd 4c62 803d
00000230: 2b41 a03e 8038 6e3e 1bfe dabd 3307 d63d
00000240: 0d7f 8cbb 6d86 e73b d359 293c 21e3 42bd
00000250: 23d1 073d 9fe0 b7bc f60b 6a3c 8417 0abe
00000260: 0274 b63d ca7d d83d 8113 89bc 789d 00be
00000270: 89e0 6c3e ca14 1ebd 4c89 7ebc f868 8bbe
00000280: 2100 6fbe 8d4f 483c 251b a53e 0242 28bc
00000290: ba5d cdbd 2000 18bd 4e39 b9bd 7674 afbd
000002a0: ce88 0a3e f019 35bd 2651 4b3e aa7d d5be
000002b0: 150d 243d d95e 19be 61e1 7c3e 68a3 c63c
000002c0: 476c f33d 2c15 06be de88 8b3e 2a43 a8bc
000002d0: e0ef 893d b2a0 c73d e2bd 24be 384e ad3d
000002e0: dfac 5fbe 2cbb 7a3e c02c 1f3e 8ea2 10bd
000002f0: f062 9fbd b8dc 743e d1b4 96be 9a41 a83d
00000300: eab5 e6bd 0261 18be a7bb 4fbd 4e62 42be
00000310: 578d 6c3e 6114 bfbe 51bb 603d dbdf f63d
00000320: 349a 4cbd 1cb1 ca3c 4b17 f43d 418f 98bd
00000330: 7f38 cb3d cb0b e2be c170 71be 4c15 74bc
00000340: 68cb ac3d 579d b13d 7214 2fbd f978 6b3d
00000350: 58eb afbd 88c7 2d3d eb99 4fbd e818 d23d
00000360: defe 8bbc 4acd 513e dbae f73d 0f6b c7bd
00000370: 6642 8d3d 9bab 58be ea84 16be 9597 58be
00000380: e6aa 47bd 1aa4 67bd 18e7 2f3e ccea 01be
00000390: dbf7 a6bd 33c3 3a3d c610 e63c 2b5d ba3b
000003a0: eaf1 7fbe 80aa 02be 8d97 773d 41b6 b4be
000003b0: 9577 533c 2b28 01bd a2cc 293e 8a51 c6bd
000003c0: b589 87be 1d98 a53d c98c 0d3e 7c0b 89be
000003d0: ccf5 d8be 599c e33e f512 9e3d 225a 85bd
000003e0: 2b0c 2f3e bf79 843e e6ad 1b3e 7dc9 703c
000003f0: 836b 55bd 0594 e23e a103 d33e 8f63 48bc
-0.012055252 -0.11478959 -0.07974765 -0.1684912 -0.0047977464 -0.1780209 0.14686546 0.2395313
0.25992385 -0.35921293 -0.18280865 0.0141198365 -0.10031282 -0.31264606 0.4188911 0.22584401
-0.026496742 -0.3002842 -0.08391775 -0.0949881 0.12775753 -0.24807394 -0.04917382 0.11688479
0.51419365 -0.13582273 0.05104718 -0.07089523 -0.24749474 -0.15917644 -0.20010106 0.11108757
0.13025133 0.025680643 -0.13651907 0.092313275 -0.21635307 -0.24420123 0.037381154 -0.041185223
0.12949006 -0.32549307 0.10868384 0.050244708 -0.4597499 0.09425984 -0.09084429 0.07309753
-0.24468842 0.03813432 0.14941308 -0.098205596 -0.17153785 0.17225355 0.12940696 0.033056974
0.0666994 0.18847449 0.08641677 -0.055554472 0.121238805 0.1064657 0.071700975 -0.052311037
0.08540959 0.06614118 -0.22028425 0.071279176 -0.20188822 0.07951391 0.19958988 -0.3631261
0.04264328 -0.053718653 0.009527747 0.044734947 -0.03290518 -0.016232481 0.4269346 0.3551841
0.14933434 -0.026804708 -0.21977116 0.05523058 0.20213251 -0.054802813 0.06977547 0.07711294
-0.09024985 0.18620576 0.03756976 0.003569657 0.30816433 -0.14983672 0.4638092 -0.31979653
0.33318004 0.18166047 0.049555678 0.03218331 0.008187418 0.13999735 -0.2413395 -0.07403367
-0.3075181 0.018371582 -0.080989406 0.13786002 0.1140162 -0.057696357 0.4734867 -0.12818338
-0.23118824 0.19175173 0.24142548 0.011704488 0.023276024 -0.12592928 -0.15718447 -0.20573032
0.12125837 -0.09607073 -0.22965309 -0.11043549 0.09867398 0.14393687 -0.17225604 -0.3420978
0.5178622 -0.20351054 0.22191238 0.09670752 -0.1535976 -0.40594897 0.20233728 0.18904746
0.22316661 -0.010393578 -0.10232331 0.06268749 0.3129972 0.2326374 -0.10692998 0.10450592
-0.0042876066 0.0070655853 0.010336357 -0.04757989 0.033158433 -0.022445975 0.014285078 -0.13485533
0.089088455 0.10570867 -0.016732933 -0.1256007 0.23132528 -0.038594045 -0.015535664 -0.27228522
-0.23339893 0.012225998 0.32247272 -0.010269644 -0.100276425 -0.037109494 -0.09044133 -0.08567135
0.1352875 -0.04421419 0.19855174 -0.41697437 0.04005154 -0.14977588 0.2469535 0.02424784
0.11885887 -0.13094014 0.2725286 -0.020539839 0.06735206 0.09747447 -0.1608806 0.08462185
-0.21843289 0.24485463 0.15544415 -0.035311274 -0.07782543 0.23912323 -0.29434827 0.082156375
-0.11265166 -0.14880756 -0.05071607 -0.18982813 0.23100792 -0.37320235 0.05486614 0.12054416
-0.049951747 0.024742655 0.11918505 -0.074491985 0.09922885 -0.44149622 -0.23578168 -0.014897656
0.08437234 0.08672588 -0.042744108 0.057488415 -0.0858981 0.042426616 -0.050683897 0.10258657
-0.017089304 0.20488468 0.12093898 -0.09737217 0.0689743 -0.21159212 -0.1469914 -0.21151574
-0.048746966 -0.056552984 0.17177999 -0.12687224 -0.081527434 0.045596313 0.02808417 0.005687376
-0.24994627 -0.12760353 0.060447264 -0.352953 0.012906929 -0.031532448 0.16581967 -0.09683521
-0.2647225 0.08085654 0.13823237 -0.26766574 -0.42375028 0.4445522 0.077184595 -0.06511332
0.17094485 0.25874135 0.15203056 0.014696476 -0.052104484 0.44253555 0.41213706 -0.012230768

network_body._body_endoder.seq_layers.2.bias f4 [128]
00000000: abf5 24bb 98ab f239 beea ac3b 876b b2ba
00000010: 19a5 d53b b6c0 4cbb 05f0 b3ba dc40 1ebb
00000020: b6d5 27ba bbcd 2438 98fd a4bb 7837 ec3a
00000030: 0b7e 37bb 1e48 503c ae60 d93b 762f e5bb
00000040: 0e45 063c 3aad b0ba 58e4 7b3b 8994 a4bb
00000050: 46ac 0a3b 7a6a e93a 2c90 06bb 07fb 1b3c
00000060: e04f 583b 94b7 8e3b 5ab2 0b3a b120 94bb
00000070: 0d0c 0cbb 91de 5a3b 773e ae3a d397 41bb
00000080: 0f2b d33a dc55 f93b 314e 213c 8afb 9dba
00000090: 1b78 1fbb b4a2 963b 3266 c3bb 564b 083b
000000a0: ab3e 4dbb 7ddd 84bb 9669 853a 9a3c aab9
000000b0: b903 6cbb 2889 e539 905c 26bb 538f 64bb
000000c0: 53a3 d5ba 551d f43a 4148 a2bb ee45 223c
000000d0: 5e7d baba 1c33 413c 52b7 283b 2507 38ba
000000e0: 9bbe 0cbb bdb9 9f3a 91ea 6ebb f931 0dbb
000000f0: fdc3 893c 61aa f3ba 6470 2dbb d042 81b9
00000100: bf43 83ba 92d9 913b c173 0abb da08 12bc
00000110: 7967 d43a dc6a c6bb 9699 a5bb 8ccd e8ba
00000120: 9195 3cbc eb8b 78ba fe01 223c 81fc db3b
00000130: 568e bcbb 1c01 153c 1b2a 31bb edce b338
00000140: eb91 80ba 2201 35bb 6ad8 7fbb ca1a 61bb
00000150: 07d8 4f3b 7858 50bb 0e25 e9bb 4374 e3bb
00000160: 6813 823a 1387 923b f0c9 023c 8bcb ab3b
00000170: f57b 943b b7cb 643b 3e2a 13bb 3812 92ba
00000180: e52e cabb e09a 8abb 1282 dbba cb89 643b
00000190: ef2f a9bb e83e f63a 3a33 783c c52e b83b
000001a0: 7e3e 983a 5fb8 ca3b f618 74bb b546 bcbb
000001b0: 1d99 9b3b c311 113b 165a 87b8 c29f 4cbb
000001c0: e1fa 05bc 722b 5439 c71f 23bb 8193 4dbb
000001d0: 37fa 64bb 446c 5f3b 157d 483b d845 553b
000001e0: 5c30 303b 16fd 8c3b 003d a53b f044 43bc
000001f0: 024c 913b 79f0 06bb e0bf 1d3c e043 7ebb
-0.0025170844 0.00046285684 0.005277007 -0.0013612368 0.0065199253 -0.0031242794 -0.0013728148 -0.0024147546
-0.000640239 3.929225e-05 -0.0050351135 0.0018021902 -0.0027998711 0.012712507 0.0066338396 -0.006994183
0.008195175 -0.001347936 0.0038435664 -0.0050225896 0.0021159812 0.0017808222 -0.002053271 0.009520299
0.0033006594 0.0043553803 0.00053290057 -0.0045204987 -0.0021369488 0.003339682 0.0013293762 -0.0029539957
0.0016110855 0.007609112 0.009845302 -0.0012053114 -0.0024333063 0.0045970324 -0.0059631104 0.0020796857
-0.003131787 -0.004054724 0.0010178562 -0.00032470078 -0.003601296 0.00043780473 -0.0025384761 -0.0034875467
-0.0016299285 0.0018624464 -0.004952461 0.009904368 -0.0014228036 0.011791971 0.0025744033 -0.00070201076
-0.0021475914 0.0012186092 -0.003645573 -0.0021544679 0.016817087 -0.0018590206 -0.0026464695 -0.00024654577
-0.0010014697 0.004450985 -0.0021126124 -0.008913243 0.0016205154 -0.006055219 -0.0050537093 -0.0017761453
-0.011510269 -0.00094812986 0.00988817 0.0067134504 -0.0057542725 0.009094503 -0.0027033153 8.573928e-05
-0.0009809112 -0.0027619083 -0.0039038905 -0.0034348243 0.0031714456 -0.0031791013 -0.007115013 -0.0069413497
0.0009923996 0.0044716685 0.007982716 0.00524277 0.0045313784 0.0034911463 -0.0022455598 -0.0011144346
-0.006170141 -0.0042298883 -0.0016747138 0.003487217 -0.005163185 0.0018787058 0.015148932 0.0056208097
0.0011615304 0.0061865295 -0.0037246323 -0.0057457336 0.004748477 0.002213583 -6.4540814e-05 -0.0031223153
-0.00817749 0.0002023408 -0.0024890767 -0.0031368437 -0.0034939179 0.003409163 0.0030592133 0.003254285
0.0026884293 0.004302631 0.005042672 -0.011918291 0.0044341097 -0.002059011 0.009628266 -0.003879778

network_body._body_endoder.seq_layers.2.weight f4 [128, 128]
00000000: f781 b63c dea7 923c e910 06bb 0cee bc3d
00000010: 199a 78bd 13f5 d33c 4fdb 04be c821 c43c
00000020: c6c6 2b3e cbe5 5ebd f342 a7bd 2dc1 623e
00000030: fbe7 8dbd 043b 08be 8e28 1a3e 698c 9fbd
00000040: ecee 5bbd f4ba c9bb 9d46 8fbd 1c1f 873d
00000050: 2282 823d 1bea 673c d4e3 613e 3a69 43bd
00000060: 13b1 1cbe 136d ebbd ce92 4a3d 7602 ab3d
00000070: c0b3 c93d 1d1a d2bd 4e57 8f3d 0d09 9bbc
00000080: f329 65bd 9b62 85bc 6310 1dbd 38c9 943b
00000090: ddb2 313c 6940 853c 45ec 3a3e ce93 543d
000000a0: a6b8 d73b d86f d93d daf3 50bd b930 793d
000000b0: dda8 77bd 2d3b 8ebd 7b6d 783d 51de dbbd
000000c0: 833f ce3c 5c33 513d 6ff0 c4bc 5b13 aa3c
000000d0: abbe 133e bb31 603e e6d6 c93d 9bb7 a73b
000000e0: 2f08 563e e9e4 f7bc b4bb 8b3d 9455 61bd
000000f0: 2ab0 9fbd c53c e7bd 452e ad3d bc54 babd
00000100: 2b03 03bd eff0 b3bd 81e6 393e 17d9 043d
00000110: 2396 773d b515 ce3d f172 c03d 7aa6 07be
00000120: cea3 2b3d fd39 c6bd 0ee2 b8bd dbcb cbbc
00000130: ef71 cdbd 3b95 2b3d f766 d83c ce10 1b3d
00000140: f39d 203c 54a0 0bbe f96e 6dbd 6933 bbbd
00000150: b035 703d f3ef 16bd 99e3 f1bd 7326 bf3d
00000160: 5b91 1a3d 66c4 83bd c667 fd3c 38c9 1dbc
00000170: 1d71 43be b333 24bd 8476 f13c 3fb5 643d
00000180: 6c3f c4bd 3c0d 38bc 5844 7a3c 7c1b 90bd
00000190: c36a 643c 0fae c4bc 97f3 87bb 05d1 adbd
000001a0: 6d65 7bbb 0876 f63d 3763 9b3d 1195 18be
000001b0: 17a5 e2bd b19b f1bb 53a4 c23d e9e6 7abd
000001c0: 6786 a53d d8a6 bd3d f89a 0c3d b94e 9fbb
000001d0: 9545 2abe ae13 043e d36e 003d ba1b 323d
000001e0: 0dc3 e6bc 1f60 16be 4215 d73d b36f afbd
000001f0: 7fe2 143e 0c06 933d 4d61 103e 8521 8a3d
00000200: 5335 90bc b708 aabc 62bb 3bbe 3167 be3d
00000210: 5d1e af3c ebc6 2e3e 57db 97bd f01b 37bc
00000220: a589 1abe e91a 103d f4c8 60bd 0d93 643d
00000230: 62d2 9dbc 288d 6c3d 51d2 52be 825b b8bd
00000240: 3419 22bc b82b e43d 7d7e 92bd 531d b8bd
00000250: 3c6f 833d 0f0b 753d 015a c2bd 89ad 16be
00000260: 768c 0dbe 3c40 7dbd 6873 9cbc d136 c0bd
00000270: 6785 823b 3d1d ac3c dc6e a93c 5c38 49bd
00000280: 124d cf3d d91f b5bd c3a7 cb3c 6dbc 8fbd
00000290: 0699 fe3c 7a95 783d bc4b 493c 29f1 06bd
000002a0: c8de b13c 9478 a1bd ba5c 5a3a 38b2 a93c
000002b0: d6af 5bbd 3804 9cbd ed66 b43c 978e 49bc
000002c0: d90f 8e3b 355a b0bd edeb f73d 54f8 08bc
000002d0: 493d bcbb 78df 893d ac8a bdbd 60be 183e
000002e0: ef98 863d 4628 fe3d ff57 63be a37e df3d
000002f0: 0436 8b3d ceba eabb 9a04 9cbc 9d60 f23d
00000300: cf4c 063c f97e 68bd 15ed 60bd c361 fdbd
00000310: 52e2 e73d 98b7 95bd 50b6 c5bd fec3 fcbd
00000320: 5e72 a6bd 5bdb fabb 6779 88bd 4dcf 4ebe
00000330: 3474 aabb e82e 283c 9507 cd3b dde3 503d
00000340: 2e05 9b3d 88d0 c1bc 2bc7 fcbc 5428 9a3d
00000350: c81f c7bd 37d1 203e f419 8e3d a974 473d
00000360: 8afb f2bd 8de5 433e 7246 1c3d 488b 59bd
00000370: 60f2 d43c 3b8c fdbc 60d3 4a3a 49ba 463e
00000380: 3645 c2bd 3c78 ffbd 0c01 12be b443 54be
00000390: 7360 f13a 6ece 0e3e a2e3 0cbd 5e05 363d
000003a0: 310b 21be b03e fabd 8334 1abc aa3b 373c
000003b0: ddbe 62bd 2664 e63d 1083 43be bbf5 d73d
000003c0: 98be 353e 0e7c 3ebd b182 40bc d9dd 1dbd
000003d0: 9c3f 553d a389 41bd e880 eb3d 952c 0b3d
000003e0: 844d b9bd 62ed 17bd 938f 573d 7167 a5bb
000003f0: e945 4d3b e057 163e b35f 693c e9e1 873d
0.022278769 0.017902311 -0.0020456857 0.09225091 -0.060693834 0.025873696 -0.12974285 0.02394189
0.16775045 -0.054418366 -0.081670664 0.22144003 -0.069290124 -0.13303763 0.15054533 -0.07790453
-0.05369465 -0.0061563198 -0.0699589 0.065977305 0.06372477 0.014154936 0.22059566 -0.047707774
-0.15301923 -0.11495414 0.04945641 0.08350079 0.09848738 -0.10258887 0.06999074 -0.018925214
-0.05594821 -0.01628237 -0.038345706 0.0045405887 0.010845867 0.016266065 0.18254192 0.05189877
0.006583291 0.106170356 -0.051013805 0.06083748 -0.060463775 -0.06944881 0.060651284 -0.10735763
0.02517677 0.05107437 -0.024040429 0.020761183 0.14428203 0.2189397 0.09855442 0.005118323
0.2090156 -0.03026052 0.06822911 -0.055013254 -0.077972725 -0.11290888 0.08456091 -0.09098193
-0.031985443 -0.08786189 0.18154337 0.032433596 0.060445916 0.10062734 0.09396923 -0.132471
0.041904263 -0.09679029 -0.090274915 -0.02487748 -0.10031497 0.041890364 0.026416285 0.037857823
0.009803283 -0.13635379 -0.05796716 -0.09140665 0.05864495 -0.036849927 -0.11810989 0.093335055
0.037736278 -0.064339444 0.030933272 -0.009630494 -0.19086118 -0.040088367 0.029475458 0.055836912
-0.09582409 -0.011233624 0.0152750835 -0.07036492 0.01394147 -0.024008779 -0.004148911 -0.08487133
-0.0038360015 0.120342314 0.07587283 -0.14900614 -0.11066645 -0.007373296 0.095039986 -0.06125537
0.08082276 0.092603385 0.034327477 -0.0048616794 -0.16628106 0.12898132 0.03135569 0.043483473
-0.02816918 -0.14685105 0.105021015 -0.08566227 0.14539526 0.07178888 0.14099617 0.067446746
-0.017603552 -0.020756109 -0.183332 0.09297026 0.021376783 0.17068069 -0.07414883 -0.011176094
-0.1509157 0.035181914 -0.054879144 0.0558043 -0.019265357 0.057751805 -0.20588042 -0.09001829
-0.009893704 0.11141151 -0.07153032 -0.08989968 0.06417701 0.059825 -0.09489823 -0.14714636
-0.13823113 -0.061828837 -0.019097999 -0.093854554 0.003983188 0.021010036 0.020682745 -0.049126014
0.10122122 -0.08843965 0.024860268 -0.07018361 0.031078827 0.060689427 0.012286123 -0.032944832
0.021712676 -0.078843266 0.00083298574 0.020714864 -0.053634487 -0.07617992 0.022021735 -0.0123020625
0.0043353853 -0.086109556 0.12105546 -0.008359987 -0.0057446104 0.067320764 -0.09254965 0.14916372
0.065721385 0.12410025 -0.22201537 0.10912826 0.06797412 -0.007163382 -0.019045163 0.11834834
0.0081970235 -0.056761716 -0.0549136 -0.12372162 0.11322464 -0.07310408 -0.09653914 -0.1234207
-0.081272826 -0.0076555437 -0.06663781 -0.20196266 -0.005201841 0.01026509 0.0062570074 0.050998557
0.07569347 -0.023659006 -0.03085669 0.07527223 -0.09722859 0.15704809 0.06938544 0.04869524
-0.118643835 0.19130535 0.03815312 -0.053111345 0.02599448 -0.030950656 0.0007737186 0.19407
-0.09485857 -0.12474105 -0.14258212 -0.20728952 0.0018415585 0.13945934 -0.034396775 0.044438712
-0.15726925 -0.12218988 -0.009411934 0.011183659 -0.055357803 0.112495705 -0.19092965 0.10544916
0.17748487 -0.046505027 -0.011749909 -0.03854165 0.052062616 -0.0472504 0.11499196 0.033978064
-0.09047988 -0.03709162 0.052627157 -0.0050477316 0.0031322187 0.14681959 0.014244008 0.06634886
