results/ShooterSimple_Apresentacao_2/ShooterSimple/ShooterSimple-499995.onnx (onnx, 89698 bytes, 11 tensors)

action_model._discrete_distribution.branches.0.bias f4 [5]
00000000: e60d 38be 4015 c13d ff89 19bc fce3 0d3e
00000010: bbb1 d73c
-0.17974052 0.09427881 -0.00937128 0.138565 0.026329866

action_model._discrete_distribution.branches.0.weight f4 [5, 128]
00000000: f808 a8bb 9a25 c8bc 2c26 0bbd 7608 323d
00000010: 457b 6cbd 09a2 bfbc 5c3b 183c abdd 21be
00000020: 2c4f b93d 2d84 083e df32 88bd a3f4 5fbd
00000030: 4f1d c73d 943f 383e e207 b63d 938b 883e
00000040: 8ad3 51bd 4752 02be 37b7 5d3e ee2f 003d
00000050: 862b 97bd 0981 f4bd bc99 903d 1cf5 c73d
00000060: d3a6 3b3d 001e 953d 0b0f 203d c40a 993d
00000070: 4029 af3d 1670 e83c 1b9a ea3c 951b b0b9
00000080: da29 513c 60f5 6b3d 2850 3ebc 9ffe 153e
00000090: 2d7b 0d3e 05e2 04be 42e4 943d 24fe acbc
000000a0: c7cd a83d 8d59 6d3e e063 153e 136a 273d
000000b0: c147 b0bc 3c1b ef3d 6810 b83c 23b4 a9bc
000000c0: 4341 f73c 34fe ac3d c436 47bd 135c e8ba
000000d0: a10d 1b3e 3e66 253d 3390 55bd 1d24 d1bd
000000e0: 0696 7b3d 37aa ae3b 2541 cf3b 3a15 353d
000000f0: bc1d 03bd 24db 2d3e 4a74 67be 4eaf 42bb
00000100: 06f9 603d c0b9 6a3e cba1 56ba 3f30 b93d
00000110: 0b86 e93c a297 4bbd 525f f23d a2e4 47bd
00000120: 8cab c7bd 0bcb 283d 130c 1c3e 07e3 303e
00000130: 5f0d d1bc 67ab d03c 888f 633d a71e c53c
00000140: d80d 9c3d 264a 02bd 9c59 103e c0c5 9ebb
00000150: 5763 5cbc bfc7 183d 3165 003e 1362 0b3d
00000160: 307f 0c3d 4a2a 6d3d f4ac 233d 0671 9a3c
00000170: 4151 b0bc 63b5 b5ba dfdb ba3d 5006 ef3d
00000180: 4b1b a4ba 5811 3e3c 813e 8cbc e630 df3d
00000190: aa03 f13c 0aaf 043e 10c9 1ebe 2a96 0a3e
000001a0: 239d 3f3e 2efc bb3d 2953 da3d acfc 92bd
000001b0: de95 97bd 095b a03d 0ae0 b23d cd85 ff3c
000001c0: 92bc 0d3e 506d b2bd cd34 2e3d 8ce6 9dbc
000001d0: 9d1d 733d cf7c 3c3b 4a1b 573d 1598 f03d
000001e0: cabe 08bc ed02 c63d a880 863d b1a0 c5bd
000001f0: 6394 363d 75b3 c43d 7cf3 a33d 5fd7 733b
00000200: d537 803d fe65 9a3c a702 b23d d46c ed3d
00000210: 9770 4b3e 8874 f23c 8454 8e3c 2061 453c
00000220: bb37 5a3c e44e 363e 5dc0 d3bc fb77 9c3c
00000230: e266 153e 10f5 fa3d aa48 16be d733 c23c
00000240: b552 d63d 458e eb3c 4b80 ab3d 06a1 733d
00000250: 6761 95bd 0b07 aabc 5f68 d9bc e5ca 8d3d
00000260: 6560 043d 5f97 57bd 34a5 a9bd a6ba cbbc
00000270: 44a9 dfbd 0176 1e3e a1b6 b33d 71d5 69bd
00000280: c5cb fb3d d3a2 fe3c d532 b53d 9994 3b3d
00000290: aaaf 243e 39e9 033d 1c31 003e 8399 c43d
000002a0: 0b74 ab3d 0b74 043e 3bd3 cd3d d0e9 103e
000002b0: 141f 4dbd f730 02be 7739 be3d 87e5 123d
000002c0: 3b24 443e a307 3e3d 2398 253c 0fea 29be
000002d0: 602b bf3b e2e6 fc3d 4a13 7b3d 5f70 eebb
000002e0: 2780 33bd 18c8 06bc 2ee7 8cbd 21c9 323d
000002f0: c532 533e daf5 133e 254e cd3d 6f85 6abb
00000300: f275 8a3d a5bd af3d 9050 8b3d 701d 2f3e
00000310: 990d 103e d2f2 ae3d 3ae9 003e f2a7 363e
00000320: 40d9 4c3b b6d6 3a3e 09e3 a3bb dcc7 3b3e
00000330: 89d2 8a3d 5d8c a13d 1ba9 073d be9e 5c3e
00000340: b411 6c3d ce44 473d 5813 153e d64b 0abe
00000350: 287f 73bd c565 a1bd bcd6 2c3e 4817 6cbc
00000360: b659 2b3e 0bec 4d3e 93ae b53d f4b1 3c3c
00000370: 9395 f73d 55a0 9bbc c79b e73c 6c33 bbbd
00000380: 6ca9 75bd 4c74 6b3d 46f5 8a3c 9f5c 1f3d
00000390: bb52 3cbd 36aa 553d 8f8f 27be 621c f5bd
000003a0: 26e6 eebd 03ff ca3d fa71 563e b35f 5d3e
000003b0: 7962 b53d a8b1 103e e03f 053d 0e16 28bd
000003c0: 0df4 223e 646b 4a3e 4083 1abd 0493 ad3d
000003d0: 9b72 f73d a998 d4bd b481 11bd 29eb 8e3c
000003e0: 658f 203e 39b7 18bd e010 8dbd 49a3 323d
000003f0: ae00 71bc 9cdc 293c f542 003e 6bdf 00bd
-0.0051280223 -0.024431992 -0.03397195 0.0434651 -0.057734746 -0.023392694 0.009291496 -0.15807216
0.09048304 0.13331671 -0.06650328 -0.054676663 0.09722387 0.17993003 0.08888222 0.26668987
-0.05122713 -0.12726699 0.21651922 0.03129571 -0.07381348 -0.11938674 0.070605725 0.09763548
0.045813393 0.07281113 0.039076846 0.074727565 0.0855279 0.02837376 0.028637936 -0.00033589886
0.012766326 0.057607055 -0.01161579 0.14647911 0.13816519 -0.12976845 0.07270099 -0.021117277
0.08242374 0.23178692 0.1458888 0.040872645 -0.02151859 0.116751164 0.02246876 -0.020715779
0.030182486 0.08446923 -0.048636213 -0.0017727636 0.15141918 0.04038071 -0.052139472 -0.10211966
0.06142237 0.00533035 0.0063249045 0.044209696 -0.03201078 0.16978127 -0.22602955 -0.002970654
0.054924987 0.2292242 -0.0008187561 0.09042405 0.0285063 -0.049705155 0.11834587 -0.048802026
-0.09749517 0.041209262 0.15238981 0.17274104 -0.025519071 0.025472356 0.055556804 0.024062468
0.07619828 -0.031808995 0.14096683 -0.004845351 -0.013451419 0.037299868 0.12538601 0.034029078
0.034300983 0.057901658 0.039959863 0.018852722 -0.02152312 -0.0013863262 0.09123968 0.11671126
-0.0012520341 0.011600815 -0.017119648 0.108979985 0.029420692 0.12957397 -0.15506387 0.13533846
0.18712287 0.09178959 0.10660393 -0.071770996 -0.07401632 0.078298636 0.08734138 0.03119173
0.13841465 -0.08712256 0.042530823 -0.019274972 0.059354413 0.0028760915 0.05251626 0.11747757
-0.008346269 0.09668527 0.06567508 -0.0964979 0.044575106 0.09604541 0.08005425 0.0037207229
0.06260649 0.018847462 0.08691912 0.11593023 0.19867168 0.029596582 0.017374285 0.012047082
0.013318951 0.17803532 -0.025848562 0.01910018 0.14590028 0.12253773 -0.14676157 0.02370636
0.10464994 0.028754363 0.08374079 0.059479736 -0.07293969 -0.020755311 -0.026539026 0.06923465
0.03231849 -0.052634593 -0.08283463 -0.024869274 -0.10920957 0.15474702 0.08775068 -0.05708832
0.12294725 0.0310835 0.08847586 0.04579601 0.16082636 0.03220484 0.12518734 0.095995925
0.08371743 0.12934892 0.10050055 0.14151692 -0.050078467 -0.12713991 0.09288304 0.035863426
0.19154446 0.046394 0.010107073 -0.16593193 0.005834028 0.12348725 0.061297692 -0.0072765793
-0.043823387 -0.008226417 -0.068800315 0.043648843 0.20624836 0.14449254 0.100246705 -0.00357851
0.067607775 0.08581094 0.068024755 0.17101073 0.14067687 0.08542408 0.12588969 0.17837504
0.003125742 0.18245968 -0.00500143 0.18337959 0.06778438 0.078881 0.033120256 0.2154493
0.05763407 0.0486496 0.1455816 -0.13505492 -0.059447438 -0.07880739 0.1687879 -0.014409848
0.16733441 0.20109574 0.08871188 0.011517037 0.12089076 -0.01899735 0.028272523 -0.09140667
-0.059976026 0.057483956 0.016962659 0.03890669 -0.045977335 0.05216428 -0.16363357 -0.11968304
-0.11664991 0.09911921 0.20941916 0.21618538 0.08856673 0.1413027 0.03253162 -0.041036658
0.1591341 0.19767529 -0.037722826 0.08475307 0.12082406 -0.1038068 -0.035524085 0.017446117
0.156797 -0.03728411 -0.06887984 0.043612752 -0.014709635 0.010367539 0.12525542 -0.031463068

action_model._discrete_distribution.branches.1.bias f4 [4]
00000000: 4a57 223d 98aa 713a 12b9 393d 1b49 a6bc
0.039634027 0.0009218841 0.045342512 -0.020298531

action_model._discrete_distribution.branches.1.weight f4 [4, 128]
00000000: 2dba 313b e62b b03d 3539 94bb 8489 963d
00000010: 088a 313c 1246 393c 7250 46bd 2ba9 e53d
00000020: 2e19 16be e532 92bd 5f40 41be 6f44 1d3c
00000030: 28f9 88bb f911 cc3c f6ca bdbc b071 1cbe
00000040: 9ebd 29bd 4bbd 94bd c9af d73c f810 1bbc
00000050: 8e14 04bc e7bd aabd 5577 833d 4d2d 70bd
00000060: bda0 323d 0354 323e 30a3 30bd 92f2 1d3d
00000070: 8da6 18be 5ef3 113d b093 d63c 3b67 a5bb
00000080: 1321 aebc bfd7 773c ce88 e4bc 99f0 533d
00000090: 92d8 1cbe 5bcf 10be b3aa cfbc 55cb d03d
000000a0: eea8 fa3c c52b f53d 5fea 683d bb79 2a3d
000000b0: 6246 df3c 14c4 3fbb 640c c53c cfe8 1bbc
000000c0: 921f 84bd e773 fe3d 9f2a 703d 855a 163e
000000d0: 35c1 a23a a89b c53d 2ade de3d b34c f93c
000000e0: d848 85bc 622f 0fbd 4f92 493d d665 a73d
000000f0: d840 163d d2e8 ca3c eccf b13d 2a87 003e
00000100: bd59 0e3d 8329 553d 21b9 8bbc 1e72 433c
00000110: fd4c 263e 44f1 9d3d 303c b7bd 8db8 8f3d
00000120: f36c a0bb 2ee0 06bd 0074 0c3a a7ff 70bd
00000130: 0010 bdbc 025a dcbd 69d1 bbbd f1d8 97bb
00000140: 798c 27bd 5951 32bc 93b4 cebd 9f2b a53d
00000150: 0abc 713d 7adf 95bc 4655 ddbb d5d9 32bd
00000160: 1df5 eebb dac0 173d f200 813d 1780 063d
00000170: 5b4f 4a3d b8ba df3d 2f72 6b3b 69fd c43d
00000180: 99c1 e1bc 1b9f cbbd b91b f73c eb3b ba3c
00000190: 72e8 4c3c fd37 d9bd 1aef c53d 7d0d 07be
000001a0: 4883 e7bd ba21 4fbd 9643 8b3d 73a0 483d
000001b0: 0d79 063e e239 38bd 2f6c 46bd 10b1 9e3d
000001c0: 94d8 fc39 f9d4 49bc 4769 81bd 4277 733d
000001d0: b66b 84bd 8053 bb3d 3d03 6f3b 35ba eebb
000001e0: 74c0 f7bc a831 9b3d 7fef a33d 161e fc3c
000001f0: 9e51 523d 8fee a0bb 9bdc c73d 116a f3bc
00000200: ba82 e83c 62a2 b93d b30a a0bd 6973 eb3c
00000210: 001d 303d c215 abbd 9666 7e3d e667 0e3c
00000220: 8b35 f03d 27c4 553e 9ea0 64bc 7042 28bd
00000230: 7878 8abd b885 603d b029 f23d ca53 cf3d
00000240: 2bb7 37bc 2107 85be 3594 8d3c c888 273e
00000250: c9b4 913d 81ae 78be 4c68 093e dffb 25bd
00000260: 0bd4 c8bd 1460 073e 3755 ab3d 857e 26bd
00000270: 6169 11be a9c8 a93d 8515 5a3d f953 9abd
00000280: 4c3e f83d 1bb8 a2bb efbb e4bc e5a7 bf3d
00000290: 628c 47bd 0b2d 47bd fbc1 b5bc 3cb8 9d3b
000002a0: e53b 943d 7564 ac3d 75d0 e03b a575 293e
000002b0: 2ebc 45bd 2d9a 163c 6aee 90bd 1dcb b7bd
000002c0: 98d9 823d bfc2 4b3d 1e58 9f3b a261 383c
000002d0: dae9 323e 0f0f 253e 0282 143c f055 d93d
000002e0: 4fce 38bc d592 0f3e 72bd e63d 4de6 86bd
000002f0: 66f4 033d 4650 65bd 08c8 a33d 66db 8c3d
00000300: 3981 d5bd 4f13 febc 13d5 02be c075 693c
00000310: c5eb 03bd 31ce 3dbb 5bc6 433b 9d5e 343c
00000320: e57c 193d 0a0f 123e 9b0f 80bc 0258 e33c
00000330: 148c 2cbe 7525 513d 7b18 503a 3edb 243d
00000340: 8217 103d c05a 1a3e 01f8 c4bc 8661 bbbd
00000350: 05e2 93bd fc2f dbbd 1469 0dbb 8d7e c13c
00000360: d0c5 333d 02d5 c4bb e802 423e 11a3 bcbd
00000370: 4a74 e73d b081 693d 138f 8cbd 30cc 81bc
00000380: 0a84 2ebc de0e c4bd 5e5d 08bd 3f2a 503e
00000390: 2600 b5bd 6948 0f3e 1b87 73bc 4350 0abc
000003a0: c822 793d 5f29 c03d d9bf 903d b36f ffbc
000003b0: 0c6e b73d 40c7 a6bd 4064 483d d6ea 3fbd
000003c0: a762 143e bed6 31bc 8dbd 05be db7e 563d
000003d0: 4d26 fb3d 6dce a43c 50be f4bd 36e4 5bbd
000003e0: 1a81 b3bb 4708 aebc ce12 b6bd f881 c23d
000003f0: c348 9f3c c029 c73c bf05 973d f46c 123e
0.0027119026 0.08602123 -0.004523421 0.07350448 0.010836132 0.01130821 -0.048416562 0.11213907
-0.14658043 -0.071386136 -0.18872212 0.009598835 -0.0041800924 0.024910914 -0.023168068 -0.15277743
-0.0414406 -0.07262667 0.026328938 -0.009464495 -0.008061541 -0.08337002 0.06419245 -0.058636952
0.043610323 0.1741486 -0.043124378 0.03856141 -0.14907284 0.035632484 0.02619347 -0.0050477064
-0.021256005 0.0151271215 -0.027897265 0.051743124 -0.1531699 -0.141416 -0.02534995 0.101950325
0.03059813 0.11971239 0.05686414 0.041619997 0.02725524 -0.0029261159 0.02405376 -0.009515955
-0.06451334 0.1242445 0.058634397 0.14682968 0.0012417199 0.0964883 0.10882218 0.03043208
-0.016270086 -0.034957297 0.049211796 0.081737205 0.036682934 0.02476922 0.08682236 0.12551561
0.03475355 0.05204154 -0.01705605 0.011929063 0.16240306 0.077120334 -0.08947027 0.07017622
-0.0048958003 -0.03292864 0.00053578615 -0.05883756 -0.023078918 -0.10759355 -0.09170801 -0.0046340157
-0.04090545 -0.010883653 -0.100930355 0.08064961 0.05901722 -0.018295038 -0.00675455 -0.043664772
-0.0072924034 0.037049152 0.062990084 0.032837 0.049392086 0.10924286 0.0035926213 0.09618647
-0.027558135 -0.09942456 0.030164586 0.02273365 0.012506591 -0.10606382 0.09664746 -0.13188739
-0.11304337 -0.050569274 0.068 0.04898114 0.13132115 -0.044977076 -0.048443016 0.07748616
0.0004822655 -0.012318843 -0.06318908 0.059439905 -0.06465857 0.09146786 0.0036470436 -0.007285381
-0.030243136 0.075778306 0.08004665 0.030776065 0.051347367 -0.004911251 0.09758874 -0.029713662
0.028382648 0.09064175 -0.07814541 0.028741555 0.042996407 -0.08353759 0.062109552 0.0086917635
0.117289625 0.20875607 -0.01395431 -0.041078985 -0.06761259 0.054815024 0.118243575 0.10123403
-0.011213104 -0.25982 0.017282585 0.16360772 0.0711456 -0.24285318 0.13418692 -0.040523406
-0.09806069 0.13220245 0.08365863 -0.040648002 -0.14200355 0.08290226 0.05324318 -0.07535548
0.12121257 -0.0049657947 -0.027921645 0.09358195 -0.048717864 -0.04862694 -0.022187224 0.004813222
0.072379865 0.08417598 0.0068607875 0.16548784 -0.048275165 0.009192032 -0.07076724 -0.08974288
0.06389159 0.04974627 0.0048627993 0.011253746 0.1747202 0.16119026 0.009064199 0.106120944
-0.011279657 0.14020856 0.112666026 -0.06586895 0.0322155 -0.055984758 0.07997137 0.068777844
-0.10425038 -0.031015066 -0.12776594 0.014249265 -0.03220727 -0.002896201 0.0029872868 0.011008886
0.037472624 0.1426355 -0.015632441 0.027751926 -0.1685031 0.051061112 0.0007938218 0.04024815
0.03517867 0.15073681 -0.024044039 -0.091494605 -0.07220844 -0.10702512 -0.0021577524 0.023619914
0.04388982 -0.006006838 0.18946421 -0.0921079 0.11301477 0.057008445 -0.06863227 -0.015844434
-0.010651598 -0.09573148 -0.033292167 0.20328616 -0.08837919 0.13992466 -0.014863755 -0.008441987
0.060824186 0.09382891 0.07067842 -0.031181192 0.08956537 -0.08143473 0.04892373 -0.046854816
0.14490758 -0.010854421 -0.13060589 0.052367073 0.12263165 0.020117963 -0.11950362 -0.053684436
-0.0054780366 -0.021244181 -0.088903055 0.09497446 0.019443875 0.0243119 0.07374143 0.14299375

action_model._discrete_distribution.branches.2.bias f4 [2]
00000000: 7246 ebbd a346 eb3d
-0.11488046 0.11488082

action_model._discrete_distribution.branches.2.weight f4 [2, 128]
00000000: 0108 033e 475d 33bb 44bf 7cbd 58e3 b6ba
00000010: 1216 fe3c f611 90bd 3655 c5bd 548c da3b
00000020: 2100 413d febc 8c3d f5f0 293d 1546 c6bd
00000030: 5221 2ebd 98f5 94bd f353 e43c 820b bd3d
00000040: 02d4 aebc 691f d3bd 1a24 57bd 3760 963d
00000050: 362f fe3c d2ce 52bd d6a2 5ebd c01e 57bc
00000060: 2d51 8dbd ebab 4d3d 04ae e6bd be03 9b3d
00000070: 43fb 283d 7f7a 17bd 5850 99bd a475 98bc
00000080: 4463 693d 98c8 9abd bd5e 2cbc f245 753d
00000090: a6a3 04bd 0546 9b3d 216d 113d 3256 dcbd
000000a0: c926 96bd 1ef7 013d c5a4 84bd c64b 02be
000000b0: f670 13bd bcb9 96bc 8d8f 09bd 1875 0d3e
000000c0: 9a6b 033c c533 e13a f20a e6bc 2bcb 9b3d
000000d0: a53c cdbc 47a9 923c 14e5 f7bd 5614 95bd
000000e0: b816 343d 41f9 56bd 6f9e bf3c e08d c3bd
000000f0: 38ce b7bc 0248 abbd 222d 06bd 8f30 89bc
00000100: 4f33 2f3e fdee c1bd 3f3f bcbc 5d2e 52bd
00000110: 176a 21be dcb0 de3b 1349 59bb 2e48 17bd
00000120: 5912 db3c bc8b 88bc f245 223c ad77 3f3d
00000130: d9b7 04be dcd6 fb3b 04b5 dd3d 809d 74bc
00000140: 6f5c db3d 7743 573b 2f61 83bd 98f3 87bd
00000150: 967c 02be 15c4 ccbc 69c6 043d dba9 86bd
00000160: 7a27 903b b4a1 93bc 9f08 febc 40fc aebc
00000170: f212 cdbd 7a3a 163e 0051 a03d d357 b9bd
00000180: 8a5b dc3c ac5f 913d baa5 6a39 86c1 ae3d
00000190: 0425 2f3e 430c c93c 711c dcbc 2fcb a4bd
000001a0: ac92 683e 7502 653d f800 d6bc 53f2 6c3b
000001b0: ea38 49bd 10cd 003d a7df 733d 77a0 9b3d
000001c0: 7442 5cbd a8df a53b af4a 7a3d c1ba 333c
000001d0: 2344 083e 21da e0bc bb70 16bc 53f0 913a
000001e0: c657 933d 8899 ee3c b684 cfbd 7691 0b3c
000001f0: f012 c8bd 9957 3b3d 53e8 1bbd d6b0 723d
00000200: 06e0 fbbd 7470 633c d390 793d bbb9 02ba
00000210: 06d2 b6bc 4021 8b3d 2f7b b83d 4017 043b
00000220: aa78 4cbd 6697 acbd 79d9 7cbd 85a2 f23d
00000230: 2d48 373d 894b a13d 81ee 05bd ac23 b8bd
00000240: 7e9c 013d 4c9f d23d 142a 5a3d 4944 b9bd
00000250: 8a1e b4bc 406a 8f3d 3ed8 493d ca95 603c
00000260: 4f86 853d 5d7f 5dbd 51eb d23d 410c a7bd
00000270: 447b 0dbd f87f e73c 791f 9b3d 8457 b13b
00000280: 4ac3 48bd 137c a63d 95c9 053d 95f2 90bd
00000290: 6eca 253d 58bc acbd 4d3f 4abd b6b2 db3d
000002a0: 5276 713d 07e1 37bc 279c 3c3d 2342 133e
000002b0: c655 e73c ea18 123d c70e 383d ba24 fcbd
000002c0: 50f4 efbb d975 593c d71c d73c 3ce3 8abd
000002d0: 030f d33c 00a6 febb bc77 043e b0a7 9f3d
000002e0: f582 10bd f57b 4c3d 5bb1 01bd 6dce b23d
000002f0: 712f 0e3d 6ac1 a03d b5c5 2a3d 0777 b53c
00000300: d90f 35be a8d9 ea3d d53b 3f3d 7d98 a53d
00000310: b1cb 203e 4d18 d43b 1c63 bebb 6c6d 6f3d
00000320: 9332 a1bc e260 773c c81d 6c3c 0d06 f1bc
00000330: 5d35 073e 3729 d5bb f96f d4bd 6c15 813c
00000340: 97a2 01be 382b 58bc e259 663d 3881 433d
00000350: 546a 0c3e c650 d63c f428 b5bc 07be 573d
00000360: 8b27 04bc 40d5 203c 506b ea3c 385e 103d
00000370: 2329 b83d 5731 11be c942 9fbd 239a d63d
00000380: 3110 25bd d52b 9bbd 1cb3 8c3c daac c6bd
00000390: 9b8e 0ebe 5714 acbc fd7e b23c 5449 8d3d
000003a0: 19d6 49be ba91 41bd 697b 1a3d 8254 afbb
000003b0: 56dd 963d eca9 0cbd 3569 34bd 9e64 84bd
000003c0: c5e3 463d 9999 4ebb 29a3 5ebd 5e03 11bd
000003d0: 279f 02be 9533 113d 70a4 7c3c 509a 68bc
000003e0: cf1c 7fbd b1f6 0ebd d358 c73d 3e74 bfbc
000003f0: b51a 993d 70ba 41bd 0261 463d fb2a 8cbd
0.12796022 -0.002736883 -0.061705843 -0.0013953252 0.031016383 -0.07034676 -0.09635393 0.0066695604
0.047119264 0.06871985 0.04148956 -0.09681336 -0.042512245 -0.07273406 0.027872061 0.092307106
-0.021341328 -0.103087254 -0.052524664 0.0734257 0.031028371 -0.05146677 -0.05435451 -0.01312989
-0.06900249 0.050212782 -0.112636596 0.07569073 0.041255247 -0.036982056 -0.074860275 -0.018610783
0.056979433 -0.075577915 -0.010520634 0.05988116 -0.03238263 0.075817145 0.035504464 -0.10758628
-0.073316164 0.03172981 -0.0647674 -0.12724218 -0.0359964 -0.018399112 -0.033584166 0.13814199
0.00802126 0.0017181566 -0.028081391 0.076071106 -0.025053332 0.017902983 -0.1210424 -0.072792694
0.04396698 -0.0524838 0.023390977 -0.09548545 -0.0224372 -0.08363344 -0.032757886 -0.016746787
0.17109416 -0.094694115 -0.022979377 -0.051313747 -0.15763126 0.0067959856 -0.0033155128 -0.03693407
0.026742147 -0.016668193 0.009904372 0.04674499 -0.12960757 0.0076855253 0.108255416 -0.014930129
0.1071099 0.0032846609 -0.06415021 -0.06638259 -0.12742838 -0.024995843 0.03241578 -0.06575366
0.004399237 -0.018021442 -0.03100997 -0.021360517 -0.10013379 0.14670745 0.078279495 -0.09049954
0.026899118 0.07098326 0.00022377717 0.085330054 0.17103964 0.02454198 -0.02686903 -0.08046567
0.22712201 0.055910546 -0.026123509 0.0036155179 -0.049126543 0.031445563 0.059539463 0.075989656
-0.053774312 0.0050620623 0.06110638 0.010969819 0.13307242 -0.027447762 -0.0091821505 0.0011134244
0.07194476 0.029125944 -0.101327345 0.008518567 -0.09769237 0.045737837 -0.03806336 0.059250675
-0.122985885 0.013881791 0.06092913 -0.00049867824 -0.022316944 0.06793451 0.090078704 0.002015546
-0.04991976 -0.084273145 -0.061730836 0.118474044 0.044746567 0.07875735 -0.03269816 -0.08991179
0.031643383 0.1028429 0.053262785 -0.090462275 -0.021987218 0.070026875 0.04927849 0.0137075875
0.06519758 -0.05407654 0.10298789 -0.08156634 -0.034541383 0.028259262 0.07574362 0.005412044
-0.049014367 0.08129134 0.032662947 -0.07077519 0.040476255 -0.08434361 -0.049376775 0.10727446
0.05895073 -0.011223084 0.046047356 0.14380698 0.028239142 0.03566829 0.044935968 -0.123116925
-0.0073228255 0.013272726 0.02625887 -0.06781623 0.025763994 -0.0077712536 0.129363 0.07795656
-0.03528114 0.049922902 -0.03166328 0.08730779 0.034713212 0.07849391 0.041692454 0.022151483
-0.17681827 0.11467296 0.04668792 0.080857255 0.15702702 0.0064726234 -0.0058101546 0.058453962
-0.019677436 0.015098782 0.014411397 -0.02942183 0.1320395 -0.0065051573 -0.103729196 0.015757285
-0.1265968 -0.013193898 0.056238063 0.047730654 0.13712436 0.026161563 -0.022114255 0.05267146
-0.008066068 0.009816468 0.028615624 0.035246104 0.08992221 -0.14178978 -0.0777641 0.10478618
-0.040298644 -0.0757672 0.01717525 -0.097009376 -0.13921587 -0.021005793 0.021789068 0.06898752
-0.19710578 -0.047258116 0.03771535 -0.0053506503 0.07366435 -0.034341738 -0.044045646 -0.06464504
0.04855706 -0.0031524657 -0.05435482 -0.0354036 -0.12756024 0.035449583 0.015420064 -0.014196947
-0.062283333 -0.034903232 0.09733739 -0.023370858 0.07475797 -0.04729694 0.048432358 -0.068441354

discrete_action_output_shape f4 [1, 3]
00000000: 0000 a040 0000 8040 0000 0040
5.0 4.0 2.0

network_body._body_endoder.seq_layers.0.bias f4 [128]
00000000: 62bb c6bd 7805 ac3b f7ca 293d a0fb 763d
00000010: b5bf c43d db73 60be a943 dcbd 6b10 94bd
00000020: d0e5 e03c cb89 25be c710 41bd 3b3c 49bd
00000030: 1f72 15be fbfc 123d 6b6d 133e 35bf 363d
00000040: 75c5 29be 2116 4abe 46d0 bdbd e63d 20be
00000050: 7cbe 15bd aad2 babc 5736 0cbd ef0a d0bd
00000060: b4d3 01be 1061 9a3c 7c2f 033c d6d6 3bbd
00000070: c49b 073e ac37 32bd 2d31 74bd 81d9 cebd
00000080: a141 263d 6195 7f3d 17b9 f3bc f16c c0bc
00000090: 16c7 bbbc b877 d33a ee0d 3d3d 52aa a93c
000000a0: d7e5 dbbd 97d0 413d dff0 a0bd 06ce bb3d
000000b0: fedc 0b3c 0f4c 4c3d 320d 92bd c4a3 c63d
000000c0: cf75 69bd fcaf c5bd 7064 7b3d 24d5 f5bd
000000d0: 147a bdbd 0236 f73c 01da 52be 53e6 50bd
000000e0: e2e7 913d a391 87bc f7ce d53d d2d3 a1bd
000000f0: 9098 d3bd 4ff9 85bd 6266 c93c 8790 95bb
00000100: 14c7 6f3d 6c7e 92bd c831 a0bd 9a2a 1ebd
00000110: 0861 fbbd 70b2 cc3c 62a4 ee3d 348a acbd
00000120: f5cd 99bd 0206 5e3c f970 013a 0eb6 11be
00000130: 9454 1f3d 5e64 ba3d d708 f9bd d2c4 22be
00000140: 3fbf 0d3e 45a6 f73c 1307 0c3d 6af9 c03d
00000150: 3b85 0c3d 6959 bebc bc5b d3bc e940 3dbe
00000160: 53d6 6abc e0ae b1bc 961b 0dbe d779 59bd
00000170: 696e b9bd 5785 7d3b 58d4 80be 6422 13be
00000180: 5b94 a7bd 48f9 0fbd be45 d0bd 86aa fe3c
00000190: 5036 c23c fc91 62bc 7f56 32bc e609 9abc
000001a0: 2acc 893d 0c67 2dbd ce97 633d 833c 68bc
000001b0: d36a 86bb 9c09 c93c 2eb1 3ebe a744 9bbd
000001c0: 49a5 82bb 800a bb3d 1235 7fbd adc4 9ebd
000001d0: b4f8 6cbd c4db aabd fe43 4a3d 95c6 76bc
000001e0: 471e 4dbe aed9 903b ffe3 143e 83cd 0fbe
000001f0: 6256 653d 7de5 f73d d4ed 3abc a6dd b338
-0.09703709 0.0052496754 0.041453328 0.060298562 0.09606878 -0.21919195 -0.10755093 -0.07229694
0.027453333 -0.16165845 -0.04713514 -0.049129706 -0.14594315 0.035885792 0.14397208 0.044615943
-0.1657923 -0.19735004 -0.09268241 -0.15648612 -0.036558613 -0.02280553 -0.03423151 -0.101583354
-0.12678415 0.018845111 0.008006927 -0.04585918 0.13243014 -0.043510124 -0.05961721 -0.10100079
0.040589932 0.06239832 -0.029751344 -0.023489447 -0.02292208 0.0016133701 0.046155863 0.020711098
-0.10737198 0.047318067 -0.078584425 0.09170155 0.008536575 0.049877223 -0.07131423 0.096992046
-0.056997117 -0.09652707 0.06137508 -0.12003544 -0.092518 0.03017712 -0.20590974 -0.051000904
0.07124306 -0.016548937 0.10439866 -0.0790173 -0.10331833 -0.065416925 0.024584953 -0.004564348
0.058539465 -0.07153019 -0.07821995 -0.038614847 -0.122743666 0.02498743 0.11652447 -0.08424798
-0.07509986 0.013551237 0.0004937794 -0.14229605 0.03889902 0.09101175 -0.12159889 -0.15895393
0.13842486 0.03023065 0.034186434 0.09422572 0.034306746 -0.023235993 -0.025800578 -0.18481793
-0.014333325 -0.021689832 -0.13780054 -0.05309471 -0.09054262 0.0038684213 -0.25162005 -0.14368588
-0.081825934 -0.035149843 -0.10169552 0.031087171 0.023707539 -0.013828751 -0.01088488 -0.018803548
0.06728394 -0.0423346 0.055564694 -0.014174583 -0.00410209 0.024540715 -0.18622276 -0.07581454
-0.0039869887 0.09132862 -0.06230647 -0.07752357 -0.05785437 -0.08342698 0.04938125 -0.015061994
-0.20031081 0.0044204807 0.14540099 -0.1404324 0.055990584 0.12104318 -0.011409242 8.5766704e-05

network_body._body_endoder.seq_layers.0.weight f4 [128, 27]
00000000: 2540 69bd 4bb6 eabc 04c4 eabd b798 653e
00000010: 64d7 b1be 4592 463c cb5f 27be 338c 033d
00000020: 0fba 15be 6f71 f3bd b5ac 833e 76fb 8bbd
00000030: e323 a5bd 96e8 80bb 6346 f9bd 5be0 e23d
00000040: 1717 9a3d c633 c73d d5bc 883e 0d84 b0be
00000050: 3f2d 51be e04b c0bd 2eb0 9bbe d073 34be
00000060: a9bb 883d ba1d 1b3e bc69 52be bea8 9cbe
00000070: 2973 f73d 5a9f 743d dc08 1ebf 378d 423e
00000080: 02e8 8bbe f956 8b3d fbc6 bdbc b022 ef3c
00000090: ed25 69be 0bdb 4ebe 3a9c c13e eeef f5be
000000a0: a83c 103e 17dc fbbd c767 a8bd ad9e 1c3e
000000b0: 972b 10be 4c09 87be 02bf 473d de96 2e3e
000000c0: c186 29be 9874 f33e b263 8f3e 8bd1 a2be
000000d0: 19c8 5d3d 1be8 b63e 6bbf 233e 39ae 09bd
000000e0: 2f3b 80bd 0d95 9abd 3851 a7bd 21c9 473d
000000f0: bdef 94be 5f83 86be d9f0 19be ace8 813e
00000100: fe0d 1cbc 5c44 963e a3cf bcbd cef1 4d3d
00000110: faa6 873d 2cb0 d9be 01de 71bd 7e72 963b
00000120: a609 d4be 1582 3ebd dcb6 00bd 69ef 463a
00000130: dd00 4abe 4a61 2f3e 673d 813e caea 053e
00000140: 3fef 9d3a 78b1 a13e 5191 6eb8 280d e73e
00000150: 18f7 8c3e a42b 7cbe 9e3f c9bc 9eeb 1b3e
00000160: 9707 1d3e e232 30be 7c0b 663d be28 d93e
00000170: d94c 4b3e 13b1 973c 8800 adbe cd45 aa3e
00000180: 1d3c 86be 71eb dc3d 40c4 333d 8eaf f03d
00000190: e005 353c 26e6 0bbd c505 a33d 10b1 d83d
000001a0: 76f2 e3be 5db3 993e 6e24 933e 451c 87be
000001b0: 547d 5e3e cdbe 403e 5fa9 1c3e 64de 093e
000001c0: 0dcc f0bd 8c75 ac3e 3648 7b3e fd4d 95be
000001d0: 1107 d73d 125b 51be d30e 6f3c 90c5 f93e
000001e0: bd5d 0ebe 6045 863e f1c4 00be 5943 7fbe
000001f0: dae2 663e 4bd7 433e b6b5 983e 933a 273d
00000200: fd00 143f 5448 513e 5b9e ab3e cc7b fe3c
00000210: 9909 f23c 5952 6c3e 0e17 323d 47a8 ccbe
00000220: c553 22be 8328 c7be 17ba c2be 8365 38be
00000230: b397 ddbe d110 813d 3848 05bf ea9c 7ebd
00000240: 68bd 5d3d f8d5 bfbd 6849 83be 7f08 ca3d
00000250: 7e2a a8be 03e7 18be 888e 563d af0b 21be
00000260: 5d3f 0bbf 0ee7 9fbd 4fa4 94be 0646 81bd
00000270: 9abb bc3d c3bd 4abd 560d e2bd bd26 3d3e
00000280: d9f0 5f3c 1ac0 523e 0361 60be 14ea 2fbd
00000290: 7a6b 7cbd 2587 14be 09b4 81be be69 a6be
000002a0: bb3b eb3d 8c91 78be c1f4 93be 5e5c 883d
000002b0: 3a06 2e3e cd20 3f3e 1596 383e fa7a 55bd
000002c0: 0a33 49be 4800 d5be 48f9 6abe 45d7 3ebe
000002d0: 337e aa3d f892 f8bc 7276 c2be f433 07be
000002e0: 8c74 9a3d 0eb3 2bbe d894 f4bd b3a5 99be
000002f0: e47f 493d eb98 c4be 1440 e8be b60e d2be
00000300: dba0 dbbe ea27 823c 3975 09be fa23 b83d
00000310: 64b3 4abe d9a4 353d 4540 3d3d faae d5be
00000320: 5190 8dbe 0c86 613d 83d1 56bd 298c 9e3d
00000330: 0fcf 8fbd 9c04 db3d 6739 3d3e fb2d 39be
00000340: ea96 113d 0592 62bd c43d b3bd c36d e23d
00000350: 279e ffbc a047 8f3d 58e1 28be 58d2 9abe
00000360: 9127 a13e 030e cfbe c28c 473d 7170 0d3e
00000370: 9482 77be 4d87 87be e871 673e ad8f cabe
00000380: eb47 c83c 5391 243e 1fb4 41be 1066 c6be
00000390: 6d97 24be 3a16 30be 63bf 2abe 08e7 6e3d
000003a0: f32a 7e3b 2f89 3a3d 6bf8 e3be a8f3 f8bd
000003b0: 5e70 25be d909 203e 1f31 a4be 47a9 12be
000003c0: 6c59 dd3e 54a3 493e 7b5f babe 052e 64be
000003d0: 8e19 f3bc 021b 073e b32f 98be 76d4 7c3c
000003e0: 3710 aebd 08a2 0abe b7c0 243e 25f0 7dbe
000003f0: 410b debc a923 c9be d183 80bd 53c7 a4be
-0.05694594 -0.028651377 -0.11463168 0.22421537 -0.34734643 0.012119834 -0.16345136 0.032116126
-0.14621757 -0.1188687 0.25717703 -0.06835072 -0.080634855 -0.0039339764 -0.12171628 0.11077949
0.07523935 0.09726672 0.26706567 -0.34475747 -0.20427416 -0.09389472 -0.30407852 -0.17622304
0.06676418 0.15148059 -0.20548147 -0.3059749 0.12082512 0.059722282 -0.6173227 0.18999182
-0.27325445 0.06803698 -0.02316617 0.029191345 -0.22768374 -0.20200746 0.37814504 -0.48034614
0.14085639 -0.12297838 -0.08222919 0.15294905 -0.14079128 -0.2637428 0.048766144 0.17049739
-0.16555311 0.4754989 0.2800575 -0.31800494 0.054145906 0.35723957 0.15990989 -0.033613417
-0.062612884 -0.075479604 -0.08169788 0.048775796 -0.29089156 -0.26272103 -0.15033282 0.25372827
-0.00952482 0.2934903 -0.09219291 0.05027943 0.06623645 -0.4251722 -0.05904961 0.0045912853
-0.4141361 -0.046510775 -0.03142439 0.00075887755 -0.19726892 0.17126957 0.2524216 0.13077846
0.001204945 0.3158071 -5.687896e-05 0.45127225 0.27532268 -0.24626023 -0.024566468 0.152266
0.15334927 -0.1720691 0.056163296 0.42413896 0.19853534 0.018517053 -0.33789468 0.3325638
-0.26217738 0.107870944 0.04388833 0.117522344 0.011048764 -0.034155034 0.07960085 0.10580647
-0.4452092 0.30019656 0.2873873 -0.26388755 0.21727496 0.18822785 0.15298985 0.13463742
-0.117576696 0.3368343 0.24539265 -0.29161063 0.10499395 -0.20444897 0.014590937 0.4878354
-0.13902946 0.26224804 -0.12575127 -0.24928035 0.22547475 0.19125096 0.29826134 0.040827345
0.5781401 0.20437747 0.33519253 0.03106489 0.029545592 0.23078288 0.043479018 -0.39972135
-0.15852268 -0.38898095 -0.380326 -0.18007474 -0.432798 0.063020356 -0.5206332 -0.062161364
0.05413571 -0.09366983 -0.25641942 0.09864902 -0.3284492 -0.14931874 0.052382022 -0.15727113
-0.5439356 -0.07807742 -0.29031608 -0.06312184 0.0921547 -0.049497377 -0.110377 0.18471809
0.013668262 0.20581093 -0.21912007 -0.042947844 -0.061625935 -0.14504679 -0.25332668 -0.3250255
0.11486002 -0.24274272 -0.2889767 0.06658243 0.16994563 0.18664856 0.18026002 -0.052119233
-0.19648376 -0.41601777 -0.22946656 -0.18636806 0.08324852 -0.030343518 -0.37980992 -0.13203412
0.07541761 -0.16767523 -0.11942452 -0.3000923 0.04919423 -0.38397917 -0.45361388 -0.4102685
-0.4289616 0.015888173 -0.13423623 0.08991237 -0.19794995 0.044346664 0.04620387 -0.4173506
-0.27649167 0.055059478 -0.0524459 0.07741577 -0.07021915 0.106942385 0.18478929 -0.18083946
0.035544313 -0.055315036 -0.08752015 0.11056092 -0.031203343 0.06996083 -0.16492212 -0.30238605
0.314755 -0.40440378 0.04871822 0.13812424 -0.24170905 -0.26470414 0.22602046 -0.3956274
0.024448356 0.16071062 -0.18916367 -0.38749743 -0.1607339 -0.17195979 -0.1667457 0.058325797
0.0038782924 0.045540985 -0.44525465 -0.12155849 -0.16156146 0.15628757 -0.32068726 -0.14322387
0.43232286 0.19691211 -0.3640097 -0.2228318 -0.029675271 0.13193896 -0.29723892 0.015431514
-0.084991865 -0.13538373 0.1608914 -0.24798639 -0.027104976 -0.3928502 -0.06275142 -0.32183322

network_body._body_endoder.seq_layers.2.bias f4 [128]
00000000: 06f1 153d d345 0a3e 423c 82bd ed74 e83c
00000010: 2797 db3c 0f79 dfbd 5364 ac3d 3a2a 9d3d
00000020: 8330 0fbe 0fc9 f83c 0577 46bd 6dd5 90bd
00000030: 1523 97bd b8a7 36bd efe2 673d 40b3 863d
00000040: b3c7 f53d 68b7 97bd 08a4 b73d 2899 57bd
00000050: ad3f 27bd 36a7 e1bd b4db 993d 24e3 4c3c
00000060: 09ac f9bc 73fd 17bd 164f 1ebd 354e 67bd
00000070: ab29 46bd 00bb 9bbc 18f2 bbbc c0b9 61be
00000080: cbbe a9bd 0459 25be c864 d2bd a71c 953d
00000090: c355 c73d a4c5 46bd c538 b0bc 5b6c 0b3e
000000a0: 49df c83b 5673 b6bd 414d a3bd ec5e 413d
000000b0: cac5 a0bb 35ab 13be 2d15 78bb b9a9 bdbc
000000c0: bc2b b03d 3f54 7ebd 575f fbbd d7e3 69bd
000000d0: 54f9 e43c f63e 253d e767 a83d 1f79 5c3d
000000e0: c4c0 1dbe d69c 293d 1b90 9f3d 10e0 39bd
000000f0: 9422 723d 485d c43c e50a 1a3e d60b 4fbd
00000100: 412b 82bd 15df a1bd fe87 863d 698c 893c
00000110: d0d9 203e 8db4 da3c a890 d5bc 2a3c c23d
00000120: 7162 26bc 4b67 47bc b34e e0bd a4f5 ed3c
00000130: fd6e a7bd 9856 3c3c 807a bc3b 9471 973c
00000140: 2bd5 853c 93fd 743d 08c3 8cbd 81c4 853b
00000150: 205a ee3d 29a6 febd 3362 95bb 46e4 45bc
00000160: bde4 d5bc ff15 873b a1c1 873d 1bdb ddbd
00000170: dd73 3b3c da79 83bd 33e1 85bd 736a f4bb
00000180: 7b27 eebd eb01 ed3c c29a 20be d1be d83d
00000190: 6f61 9dbd e289 2abd 2387 a63d ccbb e43c
000001a0: 23f0 8e3d affa bbbc f628 743d 8066 f53c
000001b0: c1e9 c33d a046 38bd b53a 68be add7 013b
000001c0: eb16 f53a 191a c83d 4fa7 a3bd 56e9 ba3c
000001d0: 5a13 0b3d 0713 3abd ed72 a0bd 023e 38bd
000001e0: b242 bc3d 03ba 78bd 7c52 803b 6374 78bc
000001f0: 7604 6c3b 575f 47be b570 623d 85bd 6e3c
0.03660681 0.13503198 -0.063591495 0.028376067 0.026805473 -0.10911762 0.08417573 0.0767407
-0.1398335 0.03036931 -0.04845335 -0.07071958 -0.07379738 -0.044593543 0.056612905 0.06577158
0.1200098 -0.07408029 0.08966833 -0.052636296 -0.04083221 -0.11018221 0.07512608 0.012505326
-0.03047754 -0.037106942 -0.03864964 -0.05647107 -0.04837958 -0.019010067 -0.022942588 -0.22043514
-0.08288344 -0.16147238 -0.10273129 0.072808556 0.097331546 -0.04852833 -0.021511445 0.13615553
0.0061301333 -0.08908717 -0.079737194 0.047209665 -0.004906391 -0.14420779 -0.0037854419 -0.02315222
0.08602092 -0.062092062 -0.12274044 -0.05710205 0.02795092 0.040343247 0.08222943 0.053826448
-0.15405566 0.041409336 0.07791158 -0.0453797 0.059115008 0.023970261 0.15043218 -0.050548397
-0.06355906 -0.07903878 0.06568907 0.016790586 0.15708089 0.026697421 -0.026069954 0.09484132
-0.010155306 -0.012170623 -0.10952511 0.029047795 -0.08175466 0.011495255 0.005751908 0.018486775
0.016336998 0.05981214 -0.06873137 0.004082263 0.11638284 -0.12434036 -0.0045588254 -0.01207835
-0.026110047 0.004122495 0.06628729 -0.10832807 0.011441198 -0.06419726 -0.06537094 -0.007458979
-0.11628624 0.028931579 -0.15684035 0.1058327 -0.076845996 -0.0416354 0.08131244 0.02792158
0.06979396 -0.022946684 0.059609376 0.029956102 0.095660694 -0.04498923 -0.22678645 0.001981239
0.0018698847 0.09770603 -0.07990896 0.022816341 0.033954002 -0.045428302 -0.0783442 -0.04498101
0.091924086 -0.06072427 0.003916083 -0.0151644675 0.00360134 -0.19469963 0.055283267 0.014571552

network_body._body_endoder.seq_layers.2.weight f4 [128, 128]
00000000: fae4 d2bc b2fc d33d d297 43be 60b2 f9bd
00000010: 45d1 64be 3265 9dbd a3fd 333e ed88 e03d
00000020: f506 be3d ede6 223e aafd a33d 1a8e 7dbd
00000030: 64dd 08be 7fc9 96be aaf6 85bd 8004 aa3d
00000040: 3a2e bd3c 4332 ce3d 4d13 163d 37dd 0abe
00000050: 395d 433e 7eb5 0abe f845 d03d 3d8b 1cbd
00000060: 03ed e6bd bb0d 93bd c61d 9ebd b006 263e
00000070: c102 15be c413 c93d 7a51 15bd fbed 6cbd
00000080: 105c af3d bcbf 453d ebac 993d cf51 ec3d
00000090: 3919 1d3d 4798 333e bdfa 89bd 26d2 63be
000000a0: 14d5 9d3d 3fec 3cbd 5a3a 9c3d 7d6e 9d3c
000000b0: 944d f1bd 930a b53d 50d7 4a3d 5274 733d
000000c0: c84a 5e3c 94b3 033e 1a9b aa3c ac70 1dbe
000000d0: fcc8 fc3c dcf8 b43d 5a16 8f3d 8e2b 833c
000000e0: 2d1d debc bbb4 033d 9672 673c a1d4 173e
000000f0: ea61 a63d 1703 d13d 7b0a 46be 9464 1d3e
00000100: c2b7 8dbc 8c19 813a d4a9 823d c02d febd
00000110: 9fec 403e 2ff4 863d bf9a b3bc 1ae9 56be
00000120: e454 acbd 6253 103d a6c3 a1bb 7c7f a0be
00000130: be2b 36bd 26dc 153d 6453 1d3e b19d 57bd
00000140: e09c 07be 8330 a2bd 83e4 8ebd f2fb f0bd
00000150: c855 ff3c 661b 5f3e d88b a8bc 2348 55bd
00000160: 4375 b33d a245 bb3d 6900 36be 3dc6 b33d
00000170: d94c 0fbe 3218 3dbe 30df b23d 6c8d bb3d
00000180: 2cf2 6f3e a791 9a3e 70c9 963e a021 903c
00000190: f227 083e 7d8a 6abd a3ab 98bd 95f9 cfbd
000001a0: a639 a0be 438a 95bc 9f9d 6bbe 8ea8 dbbc
000001b0: c740 4abb 9a50 c0bc 7b47 95bc dceb 3f3e
000001c0: aad3 bebd b6c9 8bbe 96c1 65bd 0e19 94bd
000001d0: 74fb 11be 2312 8e3d e07f dbbd 9229 823d
000001e0: b3bd 67bd 2075 14be 47fd 3bbe 8367 643d
000001f0: f529 ab3b 34a7 7abc f49d 16be 03fe 42be
00000200: 93aa 4ebe 4626 153e 3664 e73c 8b64 87bd
00000210: d4d1 023e eeaf ed3d 774b a23c 8fa4 56bd
00000220: b395 723d 4a6c 4ebd 4ecb 093e d8e4 f3bc
00000230: 2162 2ebe c13c b23d e31c 443d eed5 033e
00000240: a0ca 363e fb76 403d 4c6f 643c e713 f73d
00000250: 2d27 5f3e f0ad aebc 4ba4 143d c3b1 e2bd
00000260: 5317 54bd 2698 4c3a 77e1 933d 642e 6d3d
00000270: 9754 a63d 1a50 093e 4d0a dbbd bc1a 22be
00000280: 5851 c1bd fa13 463e 6f36 a13d ab98 dbbd
00000290: f110 213e 6f82 6e3d 9d36 bdbd d9ad 91be
000002a0: 2f30 13be 4827 083e 0756 0eba b9d6 7bbb
000002b0: ba69 71bc a072 453e 635b 80bd 7b35 1bbe
000002c0: 38cc de3d 3b4f 133e ce4e a53d e479 9dbd
000002d0: 495b d1bd b3f7 2e3e 9170 fbbd 9d25 523d
000002e0: 1c36 063e ea6d a7bd 03be 0fbc 963a 99bd
000002f0: a674 31bd a799 f23d 36ac 9dbd 2175 713d
00000300: 24b2 983d 4cee adbd 5680 313e deae 923d
00000310: 60a2 02be dc8e 8abc d4b2 383d 1e46 43be
00000320: 5f74 9bbd 134a 8f3b 89f1 a03c 6c42 0ebe
00000330: f380 963e 8b5f fd3d b53e 9d3c b9d1 163e
00000340: 9a12 653d 03a8 493e 0204 06be 30aa 27bd
00000350: 43d4 d6bd 79e7 333d 6bd6 293d 20f2 4fbe
00000360: 7b8c 98bd 4ed8 933d 4428 81bc 2e9a 0ebe
00000370: e636 15be 86af 8c3e 89fb 1d3c b76a 933d
00000380: b259 6abc ee5e 3cbd cb49 943b c25e ed3c
00000390: a4a1 643d dc3a a83d 1c44 6abd bcd4 f8bd
000003a0: b63c 91bc b37a 4a3e 9acf c23d e3fc 303e
000003b0: 032c 813c f39c 033e efdf cabd 6ed9 22be
000003c0: 857b 3fbc f4c3 babd 7059 3a3d 65f7 fc3d
000003d0: e5a8 be3d 9679 7fbd cc3a a0ba 77e6 27bc
000003e0: a482 e33d 8e55 14be 68b4 e7bd 437c 81be
000003f0: 9b9e be3d 5267 b83d d51f 32be 846a 6fbe
-0.02574395 0.10350932 -0.19100884 -0.121922255 -0.22345455 -0.07685317 0.17577223 0.109636165
0.09278671 0.15908404 0.08007367 -0.061903097 -0.13365704 -0.29450604 -0.06541188 0.083016396
0.023093332 0.100681804 0.0366395 -0.1356095 0.1907853 -0.13545796 0.101695955 -0.038218725
-0.11275675 -0.07180353 -0.077205226 0.16213489 -0.14551832 0.09818223 -0.036454655 -0.057844143
0.085624814 0.048278555 0.075036846 0.11539041 0.038354132 0.17538558 -0.06737278 -0.22248134
0.07706657 -0.04612374 0.07628317 0.019217724 -0.11782375 0.088399075 0.049521744 0.059437104
0.013567634 0.12861472 0.020825911 -0.15375012 0.030857556 0.08836529 0.06986685 0.01601198
-0.027113521 0.03215478 0.0141264405 0.14827205 0.081241444 0.102056675 -0.19339935 0.15370399
-0.017299537 0.0009849533 0.063800484 -0.1241107 0.18840264 0.06589543 -0.021924375 -0.20987359
-0.08414629 0.03523577 -0.004936653 -0.31347263 -0.04447531 0.036586903 0.15363842 -0.05264062
-0.13243437 -0.07919409 -0.06977179 -0.11766805 0.031168833 0.21787795 -0.020574495 -0.052070748
0.087626 0.09144141 -0.17773594 0.08778045 -0.13994159 -0.18466261 0.08733976 0.091578335
0.23432225 0.3018925 0.2945056 0.017594159 0.13296488 -0.05726098 -0.07454612 -0.10155026
-0.31293982 -0.018254405 -0.23009346 -0.026813772 -0.0030861364 -0.023475934 -0.018222561 0.18742317
-0.093177155 -0.2730233 -0.05609282 -0.07231341 -0.14256078 0.06937053 -0.107177496 0.06355585
-0.056577396 -0.14497805 -0.18358336 0.05576278 0.0052235075 -0.015298653 -0.14708692 -0.1904221
-0.20182256 0.14565381 0.028246026 -0.06610974 0.12775356 0.116058215 0.019811375 -0.05240303
0.059224796 -0.05039624 0.13456461 -0.029772207 -0.1702962 0.08702994 0.04787911 0.12874576
0.17850733 0.04698847 0.013942551 0.12064343 0.21792288 -0.021323174 0.036289494 -0.110690616
-0.051780056 0.00078046543 0.072207384 0.05790557 0.08121603 0.13409463 -0.10695324 -0.15830511
-0.09439343 0.19343558 0.078717105 -0.107224785 0.15729119 0.05822986 -0.09238932 -0.28452948
-0.1437385 0.13296235 -0.0005429689 -0.0038427545 -0.01473468 0.19282007 -0.06267431 -0.1515712
0.108787954 0.14385693 0.080716714 -0.076892644 -0.102224894 0.17086677 -0.1227733 0.051305402
0.13106579 -0.08175261 -0.00877333 -0.074818775 -0.043324135 0.11845713 -0.07698862 0.058949593
0.07455853 -0.08492717 0.17334113 0.071622595 -0.12757254 -0.016913824 0.04509242 -0.19069716
-0.075905554 0.004372844 0.019646423 -0.13892525 0.29395255 0.12371739 0.01919494 0.1472844
0.055925943 0.19692998 -0.13087466 -0.040933788 -0.104897045 0.04392192 0.04146425 -0.20307207
-0.074486695 0.07218991 -0.01576627 -0.13926002 -0.14571723 0.27477664 0.00964249 0.071980886
-0.014303612 -0.04598897 0.0045253984 0.028975848 0.055818215 0.082143515 -0.05719386 -0.12149951
-0.017729145 0.19773369 0.09512253 0.17283969 0.015768057 0.1285284 -0.09905993 -0.15903255
-0.011687164 -0.09119406 0.04549545 0.12351874 0.09309558 -0.062371813 -0.0012224554 -0.010247818
0.11108902 -0.14485762 -0.11313707 -0.25290117 0.09307595 0.09004082 -0.17394955 -0.23380476
