Assets/_Project/Trained/RollerBall.onnx (onnx, 75044 bytes, 8 tensors)

action_model._continuous_distribution.log_sigma f4 [1, 2]
00000000: 7fe5 ca3c 10c1 b7bc
0.024767635 -0.022430927

action_model._continuous_distribution.mu.bias f4 [2]
00000000: 4c17 983b f582 da3b
0.004641449 0.0066684433

action_model._continuous_distribution.mu.weight f4 [2, 128]
00000000: e389 e53c 2cc5 453d a965 853d f3f6 9c3c
00000010: 0902 5fbd 1cef c4bd d08c bbbc a165 27bc
00000020: 2042 4dbd d6af 6dbc 5675 b7bd f615 2bbd
00000030: fd68 51bd d688 073d a532 023d 217a e33c
00000040: a3b9 61bc 109a 35bd 756f 423d 1e17 803c
00000050: df99 edbb a25d 85bb aabb 353d 0263 37bb
00000060: 6d86 11bc 042c 0abd 5a46 adbc 6951 183d
00000070: 352d 503c f706 08bd dff0 03bc f81f 033c
00000080: 5dea 093d 27d7 edbb c832 64bb ac86 9f3d
00000090: 97d2 553d b203 853c 0c36 b23c de0a 22bb
000000a0: ec7a cd3c 0b55 6cbc 0f3a 89bd db01 1b3d
000000b0: dedc f53c 3ce4 593d a846 2dbc 4767 01bd
000000c0: fea0 dd3c a110 80bb 7559 073b b315 fd3c
000000d0: bff8 dbbc 90da fcbc cb7c 653d 97e3 293d
000000e0: d746 51bd 0e7c d138 e8de 32bd 6289 823c
000000f0: 863a 8abd 2da4 f83b d591 9b3d e87f 37bd
00000100: 1aea 193a 3ef7 923c bb18 81bc 4fd2 5a3c
00000110: eef2 b9bc f97a 743d 0872 fd3c 5b01 993d
00000120: c96d 893c d17c 743c bd79 4bbd 1d81 e93c
00000130: e390 873c 87c1 edbb 1f5b a73c a0f6 243c
00000140: f975 34bc 8243 31bd 041c eeba c62e ccbc
00000150: ca1c 5f3c ae09 5d3d 94fa 533b bed5 9bbc
00000160: 1654 893c e307 3f3d d5bc 1d3d dfbe 90bd
00000170: 78c1 493c 31e7 3bbd 2924 e13c 5dd9 593b
00000180: 0794 183d b58f a23b 9a9a cabc 54cb 523d
00000190: 06e8 563c e0f5 3cbc b606 89bc f1b8 043d
000001a0: 833a 0a3d d1c0 ff3c 87f4 b8bc 4e64 d7bb
000001b0: 16e1 8bbd 02a0 1abd c45d fb3b e6ec 8fbc
000001c0: 8381 1d3d e469 323a 34b0 633d 2f25 0e3d
000001d0: 6995 23bd ed3e 823c f67e 35bb 588e a8bc
000001e0: f2b0 f4bd b2ea 30bd bcb7 963b 531a 7cbb
000001f0: 95fb 00bd 20e9 fa3c bd65 4fbb 2a4f 6abd
00000200: d473 003b 17e8 39bd f68b c23c 44f9 033d
00000210: 7267 943c 177b fe3b fc2a c1bb 2702 a73c
00000220: 6c2f 14bd b485 29bb 11e6 7abc 315a 0e3d
00000230: cf2f 68bd c7d5 883c b65f 393b ea81 733c
00000240: 461b b3bc 21aa d3bb 174b cf3c eac9 e13c
00000250: 10d4 65bd a0a6 7f3c f26d 7d3c ee24 393d
00000260: 15c3 4dbb 5dde db3c 4de5 e23c 8b0d 173d
00000270: 3aff dd3c c09b 53bc d54b 2abc 1ac5 df3c
00000280: 9bb5 c2bc cc7c c23c c93f 79bb bedb 3f3c
00000290: 5f70 513c 789f 9a3c 57b0 b9bc 467a 033d
000002a0: 3451 9fbd 0028 4537 24d1 1dbc 4e97 a1bb
000002b0: ba34 a2bc b585 0f3c 44e9 553c c58f 83bd
000002c0: f330 873c 0a9a 12bc f2d6 273c d7fa 10bd
000002d0: 8477 9abc 88e8 7e3b 7bf9 6e3c 01e8 153d
000002e0: e628 663b e8b7 d5bb dbfe 693b eb27 b1bc
000002f0: b80d b6bb 97d8 c53b 8bb0 a03b 054e 19bd
00000300: 0124 cfbc bd63 21bc 6166 693d 4312 323d
00000310: a232 853c 4b8e c8bc ae67 4a3d 3c1e 993d
00000320: 792d 86bb 5a10 d5bb 0008 4ebd f1d1 56bc
00000330: c69e 2ebd 3892 223d b125 a83c ccc5 203d
00000340: d27b b83c c0c7 44bc 332b 2ebd bc9e 413c
00000350: 479c 1c3c 3e0f 073c 070c 04bd fc2a 293c
00000360: 98be 19bd f2fc 7bbd b32f 203b 1864 86ba
00000370: a283 23bc dd75 22bd f311 a3ba eed1 23bd
00000380: ebd7 84bd 5d6b a6bc f130 9e3c 0a7f a73c
00000390: da5f 81bd c69e 39bd b14a 10bd bc13 19bb
000003a0: 7240 483d 55a9 b2bc 0590 40bc 438d 26bd
000003b0: e395 93bd ff6f db3b 4f66 933d a3db a6bd
000003c0: 9429 9a3b 10fd f7bc ea15 ae3d 1dc6 a2bc
000003d0: f088 41bc 4276 943b de6a 91bd 25ea 713c
000003e0: a1be 92bc db2e 753d 5903 2ebd b837 543d
000003f0: 1676 9ebc a0d0 eebc ca34 11bd 96e8 943c
0.028019851 0.04828374 0.06513531 0.019160723 -0.0544453 -0.09615919 -0.022894293 -0.010217101
-0.05011189 -0.014507255 -0.08957927 -0.04176899 -0.051125515 0.03308948 0.03178658 0.027768197
-0.013777169 -0.04433638 0.047469575 0.015636023 -0.007251009 -0.00407 0.044368424 -0.0027982597
-0.008882147 -0.033733383 -0.02115171 0.037187014 0.012706091 -0.033209767 -0.008053034 0.008003227
0.033670772 -0.007258314 -0.0034820307 0.077893585 0.052202787 0.016237114 0.021754287 -0.0024725716
0.025083028 -0.014424573 -0.06700527 0.037843566 0.030012544 0.053196177 -0.010575928 -0.031592634
0.027054306 -0.0039082323 0.0020652686 0.030894136 -0.02685201 -0.030865937 0.056027215 0.041476812
-0.05109295 9.9890036e-05 -0.04366961 0.01593465 -0.06749444 0.0075879307 0.07596175 -0.044799715
0.00058713707 0.01794016 -0.015758863 0.013355806 -0.022698846 0.05968759 0.030938163 0.07470962
0.016775982 0.014922337 -0.049676646 0.028503949 0.01654858 -0.0072557363 0.020429192 0.010068566
-0.011014455 -0.04327727 -0.0018166308 -0.024924647 0.013617704 0.05396431 0.00323454 -0.019022819
0.016763728 0.04663838 0.038510162 -0.07067656 0.012314193 -0.04587478 0.027483063 0.003324113
0.037250545 0.004960979 -0.024731923 0.05146344 0.013116842 -0.011533231 -0.016726833 0.032402936
0.033747207 0.031219872 -0.022577537 -0.0065732365 -0.06830041 -0.03775025 0.00767109 -0.017569017
0.03845359 0.000680594 0.055587962 0.03470343 -0.03993741 0.015899146 -0.0027694083 -0.020575687
-0.11947812 -0.043192573 0.0045995396 -0.003846784 -0.031489927 0.03062874 -0.0031646334 -0.057204403
0.001960029 -0.045387354 0.02374838 0.03222014 0.018115733 0.0077661383 -0.0058950167 0.020386769
-0.036178038 -0.0025867047 -0.015313641 0.034753982 -0.05668622 0.0167035 0.0028285808 0.014862517
-0.02186359 -0.00645949 0.02530436 0.0275621 -0.05611044 0.015603691 0.015468108 0.045201235
-0.0031396796 0.02683943 0.02769723 0.03687815 0.02709924 -0.012915552 -0.010394056 0.027315665
-0.023768237 0.023741148 -0.0038032404 0.011710105 0.012783139 0.018874869 -0.022667093 0.03209903
-0.0777916 1.1751428e-05 -0.009632383 -0.004931367 -0.019800533 0.008759906 0.013056103 -0.06423906
0.016502833 -0.008947859 0.010244118 -0.03539547 -0.018855818 0.0038895924 0.014585848 0.03659821
0.0035119592 -0.0065221675 0.0035704884 -0.02162548 -0.0055558346 0.0060377824 0.004903858 -0.03742792
-0.025285723 -0.00985044 0.0569824 0.043474447 0.016259495 -0.024481913 0.049415283 0.0747647
-0.004094776 -0.0065021934 -0.0503006 -0.013111577 -0.042631887 0.039690226 0.020525785 0.039251134
0.02251998 -0.012010515 -0.042521667 0.01181763 0.009558744 0.00824338 -0.032238033 0.01032519
-0.03753528 -0.061520524 0.0024442493 -0.0010253219 -0.009980114 -0.039663184 -0.0012441262 -0.039995126
-0.064864956 -0.020314867 0.019310446 0.02044632 -0.0631711 -0.045317434 -0.03522748 -0.002335771
0.048889585 -0.02180926 -0.011753087 -0.04066206 -0.07206323 0.0066967006 0.07197248 -0.08147361
0.0047046635 -0.030272037 0.085002735 -0.019869858 -0.011812434 0.004530699 -0.071004614 0.014765297
-0.017913165 0.059859138 -0.04248366 0.05181095 -0.019343417 -0.029152215 -0.035450734 0.018177312

action_model._discrete_distribution.branches.0.weight f4 [1, 128]
00000000: 6570 94b9 9f85 92bb 2b6c f3bb a5bc 49bb
00000010: 4bad aabb d212 37bc 5b06 32bc c3af 2dbc
00000020: 8aa6 32bc 42ac babb 7ece abba 6f30 223c
00000030: cbe7 583a a2cd 59bc d196 a6ba 417a 8c3b
00000040: fe67 17bc 7dd2 3a3c 2faf 1ebc a154 08bb
00000050: 501a 16bb 2f46 de38 dfd8 c6bb 463e 00bc
00000060: ab76 2cbc 5583 d3bb 1fec a43a d587 72bc
00000070: 8400 aab8 0cb4 043c 11d5 22bc 51c6 4bbb
00000080: 839c a03a f441 bbbc 2b99 c739 05b2 433c
00000090: 4086 c2bb c31a 793c d442 9d3a 6735 eeba
000000a0: fe80 013c 1497 c4bc 3288 e03b 25d0 7d3b
000000b0: 4163 0cbb 1d2e 50bb 18fb bbbb dc95 333c
000000c0: 2801 fa3b 60f9 eb39 cdbc 8d3b 4b11 913b
000000d0: 4738 d23b b2b4 d83b 461c 27bc c2af dc3a
000000e0: 0552 e2bb fb28 d73b 27d8 073c 21f9 86bc
000000f0: 66dd 94bb 792d 09bc b16a 44bb b449 08bb
00000100: 7763 a2bb 8706 6c3b d763 c73b 7ee1 a5bb
00000110: 552d 3d3c 0bc0 b13b b5a6 ef3b 2c5e 0abc
00000120: 9d52 1bbc c850 5b39 728b 91bb 57f0 99ba
00000130: ccac bc3b f39d 57bc 0b0b 0c3b c240 083c
00000140: 588f 7abb 3d8b 26bc 4721 a3bb 504e 77bb
00000150: 25f1 5d3b e3d1 b3bb f504 5bbc 7008 93bb
00000160: f012 61bc 205e 13bc 4013 713c 55f8 0d3a
00000170: 8f78 853c 67bd c43b 6743 873b 8ede 073c
00000180: 8f20 6fbc 9f01 6a3b 209a 7f3c 2d39 3cbc
00000190: e153 99bc 76ff 86bc 05c6 75bc a748 0cbb
000001a0: 6f18 3ebb cbdb 6ebc f2ea 2cbc a607 27bc
000001b0: 8b3a e9b9 8f2b 90bc 9a46 5cba 147b 043b
000001c0: 5e98 11bb 06fa 17bc 38a1 883b 9ad2 053c
000001d0: db8f 6cbb 1b71 b63b ec58 8abc f646 03bc
000001e0: 6f1a 84bc 5334 323c ca8c 543b 8ea8 a73b
000001f0: 29c2 073c 77b9 4e3c bf32 443c ab5d c13c
-0.000283125 -0.0044714953 -0.007428666 -0.0030782607 -0.0052086464 -0.011173921 -0.010865773 -0.010600987
-0.010903964 -0.0056968043 -0.0013107804 0.009899243 0.0008274286 -0.013293656 -0.0012709742 0.0042870347
-0.009241102 0.011402723 -0.009685322 -0.0020802396 -0.0022903867 0.000105988576 -0.0060683335 -0.007827347
-0.0105263395 -0.006454865 0.0012582577 -0.014802893 -8.106328e-05 0.008099567 -0.009938494 -0.0031093548
0.0012253675 -0.022858597 0.00038070357 0.011944299 -0.005936414 0.015204134 0.0011998066 -0.0018173874
0.007904289 -0.02399782 0.0068521732 0.00387288 -0.0021421465 -0.0031765767 -0.00573672 0.010961022
0.0076295324 0.00045008492 0.0043254853 0.0044271103 0.0064154 0.0066133374 -0.010199612 0.0016837048
-0.00690675 0.0065661645 0.008291281 -0.016476216 -0.0045429943 -0.008372658 -0.002997082 -0.0020795884
-0.004955705 0.0036014633 0.0060849 -0.005062281 0.0115464525 0.0054245046 0.007313574 -0.008445304
-0.009480146 0.00020915561 -0.004441672 -0.00117446 0.0057579037 -0.013160217 0.0021368887 0.008316221
-0.0038232412 -0.010165033 -0.004978332 -0.0037735887 0.0033865657 -0.005487667 -0.013367881 -0.00448709
-0.013737425 -0.008994609 0.014714062 0.00054157275 0.016292838 0.006004024 0.004127908 0.008292807
-0.014595165 0.0035706533 0.015600711 -0.011488241 -0.018716754 -0.016479235 -0.015000825 -0.002140561
-0.0029006263 -0.01457877 -0.010554062 -0.010194695 -0.0004448484 -0.017598895 -0.00084028544 0.0020214962
-0.0022216062 -0.009275919 0.0041696094 0.008167887 -0.0036096487 0.0055676824 -0.016888104 -0.008012524
-0.016125886 0.010876733 0.003243255 0.005116529 0.0082860375 0.01261746 0.011974989 0.023604235

network_body._body_endoder.seq_layers.0.bias f4 [128]
00000000: 076c c6b9 5f85 2139 4ff8 cc3c 2ca2 3cbd
00000010: 5554 1dbb dd4d ebba f916 853c 40ba acbc
00000020: e0b7 433c a56c f43b 4659 bb3c 3a3a 163d
00000030: e689 323d c0a6 19bc 5660 8a3c 7de6 56bb
00000040: 8ca3 7fbb acd0 c63c cd54 0abd ce69 40bb
00000050: f577 a73c c26f 863c 3ab1 173c cdf5 343d
00000060: 2191 12bd b6a1 ec3b 6194 b4bb 4446 36bc
00000070: cfaf 4ebc 174b bfbc 9e84 81bb d90b 8f39
00000080: d99e 46bc d33e 0f3d b824 343c b41c 123c
00000090: de5b 8dbc c0b5 1a3c e91e 18bd 71fa 6e3a
000000a0: c245 6ab8 9050 22bc 95cf 38bd dfef 723a
000000b0: 9194 9e3c fb9d e13c 2888 97bc 7d8d 503c
000000c0: e401 9a3c a363 f4bc cfaf fb3c c3a8 273d
000000d0: 20ee b23c 8f67 13ba b2b1 b33b f215 083c
000000e0: f764 1b3c b389 bf3b a757 e53b 287f ceb9
000000f0: 9481 1e3d dbeb 82bc 3bdd 5dbc 7577 95bc
00000100: f335 e1bb c28e 66bc ee5d fa3c d53e 993c
00000110: 35d3 bc3b fd71 7bbc 64d5 c7bb 1012 86bb
00000120: f255 2cbc 23c9 b63c 0821 133c 642b c9bc
00000130: 266d eabc 1153 1dba b0f3 c53c d712 823c
00000140: f7a6 853c 6224 2f3d 74a6 15bd 295e dd3c
00000150: 18fc 643d 6e8f b53c 42f2 393d de4d 233d
00000160: cf0b e33c 5fa2 4ebb 0980 2dbc f9de 043d
00000170: 86a0 b13c adc0 933b 034c ae3c 391c 0fbc
00000180: b6ac 9f3a a253 7abb bf66 d53c 73b2 c43c
00000190: d3a1 83bc eb8a bb3c 5e8b a53c b3fa 863c
000001a0: 0a8c 963c 6626 5abc 0866 f2ba 27a3 03bd
000001b0: c16e 733b 3c7d 0e3c ea9d 443d 15b0 1a3d
000001c0: 77a7 193d 065b f8bc 84c6 1e3b ab47 093d
000001d0: bc54 2abc 71e9 1c3c 61b3 1e3c 5ea7 583b
000001e0: 5cdf 40bd 4532 ae3c 9068 9bbc b3f8 87bc
000001f0: 38eb a6bc 92c0 343c 555e 083d b13c e1bb
-0.0003784599 0.00015403841 0.025020747 -0.046053097 -0.0024006565 -0.0017952282 0.016246306 -0.021084905
0.011945695 0.0074592405 0.022869717 0.036676623 0.04358854 -0.009378135 0.01689164 -0.003279119
-0.0039007394 0.024269424 -0.03377228 -0.002935994 0.020442942 0.016410712 0.009258563 0.044179726
-0.035782937 0.007221426 -0.005510852 -0.011125151 -0.012615158 -0.023351235 -0.003952577 0.00027283913
-0.012122833 0.034972023 0.010995083 0.008917976 -0.01725572 0.009442747 -0.037138853 0.0009116298
-5.5854915e-05 -0.009906903 -0.04511984 0.0009267311 0.019357951 0.027541151 -0.018497542 0.012729046
0.01879973 -0.029832667 0.03072348 0.040932428 0.021842062 -0.00056230364 0.0054838294 0.008306013
0.009484521 0.0058452724 0.0069989744 -0.0003938612 0.038697794 -0.015981605 -0.013541515 -0.018245438
-0.0068728863 -0.014072122 0.030562367 0.018706718 0.0057624825 -0.015347001 -0.006098436 -0.0040915087
-0.010518538 0.022312706 0.008980043 -0.024556823 -0.0286165 -0.00060014526 0.02416405 0.015878124
0.016314967 0.042759307 -0.036535695 0.027022438 0.055904478 0.02216312 0.04539705 0.03986918
0.027715592 -0.0031529886 -0.010589608 0.032439206 0.021682989 0.0045090527 0.02127648 -0.008734756
0.0012182209 -0.0038196822 0.02604997 0.024010872 -0.016068375 0.02289339 0.020208057 0.016476965
0.018377323 -0.013314819 -0.0018493542 -0.032138016 0.0037144872 0.00869685 0.04800216 0.03776558
0.037513223 -0.03031684 0.0024227211 0.033515614 -0.010396179 0.009577141 0.009686322 0.0033058743
-0.047088012 0.021264205 -0.018970758 -0.016598081 -0.020375833 0.01103224 0.033293087 -0.00687369

network_body._body_endoder.seq_layers.0.weight f4 [128, 8]
00000000: 8b63 94be c927 eebe 3bfd a93d 6fcf 873f
00000010: c2a3 a4bd db76 e53e e41a 8d3d 6b77 3ebd
00000020: 1d94 91be d571 19be 83f2 47be 0dc0 7f3c
00000030: 1876 24be 8ba4 29be 62fb 2f3e 4c92 c6bd
00000040: c821 0f3f 84a6 013e 9ae6 1a3f 140e b03d
00000050: 7084 33bf 8d4f 9cbe 7751 9f3d c37d e6bd
00000060: d9cc fe3c 5121 a9bd c9c9 4d3d 45e4 7c3f
00000070: a2ee 2a3f 9669 9e3e 04eb e03c a951 2abf
00000080: ca70 bfbe 1d29 fd3c 28ab 5abc c636 c9be
00000090: df93 993e 158e f93e 8de2 493e 61d5 243e
000000a0: 5d2f c13b d198 593e 79a3 e13c 5ccb df3e
000000b0: 2135 853e a4e5 a03e 6a98 363e c4a6 37bf
000000c0: 1079 61be 86dd e2be 5115 cebe 0ba9 aebe
000000d0: 6169 4c3e b283 aa3e 7a2c 2cbe 1226 12bf
000000e0: 2373 a73d 5be6 ffbe b820 a1be 5bbf 803e
000000f0: 35fe fdbd 00e1 0ebf ee49 23bf 8b58 12bf
00000100: 59be eb3c 3b77 dabe d465 e03e 58b5 a33d
00000110: c0a2 a1be 0222 da3c 0ac5 29bd 6a19 f03e
00000120: c94c fabe 3e9f 28bd 7fc6 3fbe 1090 973e
00000130: c0de 133f f30f f43e 1c17 06bd ef41 12be
00000140: 259a 983e df42 9c3e 251d bbbe 178b bdbe
00000150: 5dcd 69be 19da bb3e 5db1 783e 236d 9abe
00000160: 1ec5 0f3c 9701 ec3d 0a0d 0b3f e64d 9cbe
00000170: 7566 a9bc b4c0 80be 35d2 63bd 7873 9ebe
00000180: bba7 203f b18b 58be 279e 733e 2f32 f6bd
00000190: 4c00 bbbe 27c0 9a3e c6da f9bd 1ce3 a4be
000001a0: a3ab a8bd ed4f 1b3d b7d9 913e 2d76 f4be
000001b0: 0a87 4a3f ca4e d8be c387 5c3e f681 06bf
000001c0: 5d8b a9bc f0cd 5a3e bfd0 173d 46eb 0fbe
000001d0: e4f7 7abe 4b10 0f3f a5c5 92be 03c0 c8bd
000001e0: 5ffd 08be 4aee 8abe 3433 60bc 09fc c53d
000001f0: 305d b8bd 6e35 66be 811b 9f3e 7fdb b73e
00000200: 34cd f5bd d29a 203e 63bc 9cbd b30a 14be
00000210: a16c db3e 2add 843e b5f1 95bd a386 6b3e
00000220: 2a78 6a3f f89a 7d3d 3a04 683e 5581 da3b
00000230: ab15 f03e 3cdb 8e3e b70e abbe b3e0 993c
00000240: bc54 9ebe 49ce edbe 81ce 873d 740c dd3e
00000250: 1ae8 0dbf 0715 cc3e 2eb6 1cbe 816f a23e
00000260: 42a3 b1bd 3052 07bf 071b a9be f398 ad3d
00000270: 9511 8a3e 9e60 6ebe 1644 1dbe a8da e53d
00000280: 3777 6c3e 9c1b f2bc e482 423e c554 ccbe
00000290: d228 003e a3dc 563d 5ee1 8ebc 8e3f febe
000002a0: f9f3 f73d ebde 56be 6ce5 b63e 8b31 1abe
000002b0: eb95 e63c 3e23 5ebd f7ef 5fbe 4bf9 77be
000002c0: 385f e73d 7816 023e 3286 b5bd 67c3 4bbf
000002d0: 1ba5 62bd 8585 ab3d 0f3e e4bd 14c6 c2bd
000002e0: fea7 73be 3caa e9be 6bf1 cb3e 9009 163f
000002f0: 04e5 fc3c 297c cdbd ec49 113f d8d7 84bd
00000300: c818 783e 2dad 493f 7948 2ebe 8336 313f
00000310: 51db 9e3e 80d5 ba3e 257a c7be cbea c53d
00000320: 01a0 adbd f443 0d3f 5115 95be 8901 1dbf
00000330: b3c4 babe f485 6bbd d196 1fbe 6411 c73c
00000340: 8675 f4be b901 c5be 2874 603d 6ab1 9d3d
00000350: 2d79 203c f72a a03e a7b5 903e 0e44 053f
00000360: eb94 86bd 6729 413c 0674 89be c377 433e
00000370: 1a5c 28bf de32 343f 0032 0f3e cf39 6fbe
00000380: 77d2 c73d 3688 c83e 3908 7fbe 131c 5abe
00000390: 1fbc 5e3e 78e9 a2be 5782 3fbe 9014 e4bc
000003a0: a9e3 20be f333 9c3e dfd2 46be 1d6e 65bd
000003b0: c5ac bd3e 38a6 343e 4a06 92be c27b 543f
000003c0: 0ef8 84be 3351 1f3f 39e1 553e 7307 f7bc
000003d0: 0b54 173f f5f3 083f a510 06be e298 3bbd
000003e0: 9fd0 f83a c600 21be 680a 8d3e 413d 393f
000003f0: 326c 24bf 0484 9dbc 7dde 19bf 3f5b 073f
-0.28982195 -0.4651473 0.08300253 1.0610179 -0.08039047 0.44817242 0.068898946 -0.046500605
-0.28433314 -0.1498483 -0.19526105 0.015609753 -0.16060674 -0.16566674 0.17185739 -0.09695873
0.5591092 0.12661177 0.6050812 0.08596435 -0.7012396 -0.30529442 0.0777921 -0.11254456
0.031103538 -0.08258308 0.050241265 0.9878581 0.66770375 0.3093993 0.027455814 -0.66530854
-0.3739074 0.030903393 -0.013346471 -0.392996 0.2999563 0.48741212 0.19715329 0.16097023
0.0058955387 0.21249701 0.02754377 0.43709838 0.26017097 0.31425202 0.17831579 -0.7173884
-0.22018838 -0.44309634 -0.40250638 -0.34113345 0.19962074 0.333036 -0.16813841 -0.5708934
0.081762575 -0.49980435 -0.31470275 0.25145993 -0.12402002 -0.5581207 -0.6378468 -0.57166356
0.028777288 -0.4266909 0.4382769 0.07993573 -0.3156948 0.026627544 -0.041447677 0.4689439
-0.48886707 -0.04116749 -0.18728064 0.29602098 0.57761765 0.47668418 -0.032736883 -0.14282964
0.29805103 0.3051977 -0.36545673 -0.3702018 -0.22832246 0.36689833 0.24286409 -0.3016139
0.008775024 0.11523741 0.5431677 -0.30528182 -0.020678738 -0.2514702 -0.05562039 -0.3094747
0.62755936 -0.21147038 0.23790799 -0.120212905 -0.36523664 0.30224726 -0.12199931 -0.3220452
-0.08235862 0.03791802 0.28486416 -0.4774641 0.79112303 -0.4224761 0.21536164 -0.52542055
-0.020696336 0.21367621 0.03706431 -0.14054593 -0.24508625 0.55884236 -0.28666416 -0.09802248
-0.13377903 -0.27134925 -0.013684083 0.096672125 -0.09002149 -0.2248132 0.3107567 0.3590965
-0.1200203 0.1568406 -0.076531194 -0.14457206 0.42856315 0.25949985 -0.073214926 0.23000579
0.91589606 0.061915368 0.22657862 0.0066682496 0.4689153 0.27901638 -0.33409664 0.018783903
-0.30924022 -0.46446446 0.06631184 0.43173563 -0.55432284 0.39859793 -0.15303871 0.31725696
-0.08673717 -0.52859783 -0.33028433 0.084764384 0.2696654 -0.23279044 -0.15358004 0.11223346
0.23092352 -0.02955418 0.18995243 -0.39908424 0.12515572 0.05245651 -0.017441448 -0.49657863
0.12107081 -0.20983474 0.3572191 -0.15057962 0.028147658 -0.05423283 -0.21868883 -0.24216191
0.112974584 0.12703884 -0.08863486 -0.79595035 -0.055333238 0.08375076 -0.11144649 -0.09510437
-0.23794553 -0.4563769 0.39832625 0.5860834 0.030870922 -0.10033447 0.5675342 -0.064864814
0.24228203 0.7877987 -0.17019834 0.69223803 0.310267 0.36491013 -0.38960376 0.09663924
-0.08477784 0.55181813 -0.29117826 -0.6133047 -0.36478195 -0.057500795 -0.15584876 0.024300285
-0.47745913 -0.38477877 0.054798275 0.07699855 0.009794516 0.3128278 0.2826359 0.5205697
-0.065713726 0.011789656 -0.2684633 0.19088654 -0.65765536 0.7039012 0.13983917 -0.23361896
0.0975694 0.3916642 -0.2490548 -0.21299772 0.2175145 -0.31818748 -0.18702064 -0.027841836
-0.15711845 0.30508384 -0.19416378 -0.056013215 0.37045875 0.17641532 -0.28520423 0.8300134
-0.259705 0.62233275 0.20886697 -0.03015492 0.59112614 0.5349725 -0.13092287 -0.045800097
0.0018983072 -0.15722951 0.27547002 0.7235909 -0.6422759 -0.019227989 -0.60105115 0.52873605

network_body._body_endoder.seq_layers.2.bias f4 [128]
00000000: c76b 3c3a 78b8 e93c 6b36 183d 85e7 653c
00000010: b593 3b3c e928 fb3c 0d63 12bc c4f0 353a
00000020: 076d dd3c c2a6 dabc 0f92 9e3c 477f 803c
00000030: 5bc0 bb3c cedf 273c 9fa7 ef3c d382 913c
00000040: 6aa3 23bc 30db 81bb 0e45 ad3c fb0e 3b3c
00000050: 50f0 373c ec9e 4dbc 3f56 8f3c 5ae3 8d3b
00000060: aef1 dabc cadf 223b 26c9 843b 185c 013c
00000070: cde9 713c f26c 20bb 73c3 77bc da7a 053b
00000080: e8b1 013c be9e c53b 53cd d9bb 4639 d73c
00000090: 0920 193d 7769 a73a ddfe 263c bf7e 50bb
000000a0: d416 5f3d ea78 183b 4a68 323b c732 833c
000000b0: 529e af3c efde 603c 6e98 793b c655 9d3c
000000c0: ce47 353c 7ecf 4dbc 6b95 86bb 10f4 363c
000000d0: 0743 253c 678f 4c3c 72b2 123d f677 e53c
000000e0: 4f9b 8b3c acd0 7cbc e465 113b 0e24 29bc
000000f0: 84c1 a23c 8633 3cbc 41a5 413c 4b8a 663c
00000100: 3bdb a0bb ad25 40bc c96d 723b 25de b43c
00000110: d7f8 b5bb 302d 0f3d 8311 cb3c 3cbd 813d
00000120: 27b1 923b 3410 a5bc 0c3c 343c 020d df3b
00000130: 45da 11bc 8b00 653b 831b 933c d69f 4a3b
00000140: d778 443c 2fef 103c 4a85 5d3c ce78 4b3c
00000150: fe53 d5bb b4e4 443c 4736 6b3b 1d3a a8bc
00000160: 82c1 a73b 5836 e13c 0203 743c 7d90 a73c
00000170: 365c e23a 60f9 d23c f6a2 5f3c a25b 9b3c
00000180: a3d9 213d f31d 89bc 811c 7cbb 7989 1e3d
00000190: db6c 133d c374 423c 0528 b9bb fc09 363c
000001a0: 4a59 063d 18a6 dc3a cd63 aabb df8a 1a3b
000001b0: 61ff d03c 16b5 f23b eb26 073d 3746 053d
000001c0: 4b5e 233b 4d2b 80bb bb24 693d 3921 af3c
000001d0: ae83 8f39 05a1 5dbc 35bc 6f3c 9748 4cba
000001e0: 5b7b b73c 3e23 063d 2b93 bbbb cc71 053d
000001f0: 5632 6e3c c9ca 553c 7ec2 27bc aa33 133c
0.0007187691 0.028530344 0.037161272 0.014032249 0.01144879 0.030659156 -0.008934748 0.0006940479
0.027029527 -0.026690844 0.019356756 0.01568569 0.02291887 0.01024623 0.029254733 0.017762577
-0.009987691 -0.0039628968 0.021151092 0.011417146 0.011226729 -0.012550097 0.01749718 0.004330081
-0.02672657 0.0024852627 0.004052299 0.007895492 0.014765215 -0.0024479 -0.015122282 0.0020367415
0.007915951 0.0060308864 -0.006646791 0.026272427 0.037384067 0.001277252 0.0101926 -0.0031813828
0.05446513 0.002326543 0.0027222806 0.016015423 0.021437798 0.0137250265 0.003808524 0.019205939
0.011064483 -0.012561677 -0.0041071675 0.0111665875 0.010086781 0.012485362 0.03581471 0.028011303
0.01704183 -0.015430611 0.0022185976 -0.0103235375 0.019867666 -0.0114868935 0.011819185 0.014071058
-0.004908947 -0.011727733 0.0036991707 0.022078583 -0.0055533457 0.034955204 0.024788624 0.06334922
0.0044766846 -0.020149328 0.011000644 0.0068069706 -0.008902137 0.003494295 0.017957455 0.0030918024
0.011991701 0.008846088 0.013520548 0.012418939 -0.006510257 0.012017418 0.0035890506 -0.020535523
0.0051195035 0.027491733 0.014893295 0.02045464 0.0017269913 0.025753677 0.013649693 0.018964592
0.039514195 -0.016737914 -0.0038469138 0.038705323 0.035992485 0.0118686585 -0.0056505227 0.011110779
0.032799996 0.0016834168 -0.0051998855 0.0023581309 0.0255124 0.007406841 0.0329961 0.032537665
0.002492803 -0.003911412 0.056919795 0.021378146 0.00027373194 -0.01352716 0.014632274 -0.0007792799
0.022397688 0.032748453 -0.005724331 0.03257923 0.014538368 0.013048836 -0.010239242 0.008984486

network_body._body_endoder.seq_layers.2.weight f4 [128, 128]
00000000: 64fc 7c3d e608 5abe 299c 1c3d 1c83 36bd
00000010: f8f2 87bd 85e6 f8bd f737 28bd 1f25 9fbd
00000020: a51b a3bd 1b46 8e3d ecc7 0ebd 40d1 39bd
00000030: 5eb5 29bd 3680 cebd 6095 c23d 9f97 11be
00000040: 6873 a33d cf6c 133e a582 abbd 6381 29be
00000050: c77f 1d3e c4a1 f5bc d379 f13d a8fd 99bd
00000060: 2c10 bbbc 3db3 133e 3447 ae3c 674f 053d
00000070: 83e4 a13d 7616 09be d52e 253e f636 503e
00000080: b2ac 05bd 43eb 24be 7d5a d7bc cac7 9dbd
00000090: d8ee 23be d477 aebc 5f96 463d 1be1 b2bd
000000a0: 339d 203e b2fa 13bd c496 02bc d216 07be
000000b0: 550e b0bc 7e0b 26bd 1685 313d 974b a33c
000000c0: 17ef 0f3d 60bc 27bb ef98 1b3e 4025 ecbd
000000d0: 921a 63bc 7bff d63d 0501 1f3c 7272 a2ba
000000e0: a9b3 a03d 7791 e4bc b078 26be 919e 413e
000000f0: 6a1a 7a3d 9c21 55bd 65ba 42bd 1f65 803d
00000100: 1377 8dbd b1eb 4f3d 1c84 233e 023c ae3a
00000110: 2359 08be 4f65 0ebd 6fe4 573d a539 483e
00000120: fdba b43c 5b64 493d 088b b8bd 2b54 debd
00000130: 34d8 303e 693e 6fbc 99a0 1d3e a0dd 16bc
00000140: 9634 913d e849 31bd 6b43 c4bd 225b 073c
00000150: 9fa6 67bb 4abc 02bd f53b 713d 0ee1 fa3d
00000160: 058c 15be b447 8c3d f331 2cbe ebaf 123d
00000170: 22e8 333e 525f 5abd 12f8 afbd 3b88 5b3d
00000180: 5ea0 51bd 6205 a13b bac8 b2bd dcf1 903d
00000190: b142 263e 20f8 50bc 0f41 f5bc 6fdf 6a3d
000001a0: 15d7 bebc b4bc 433d 25d6 303e 1d19 fa3d
000001b0: 9d24 a4bc 0092 7f3d ed4b dd3d c6a1 153d
000001c0: dfcb bd3d 0b0e 3b3d 448c 56bc 43ca 243e
000001d0: d737 9c3c 48bf c63c 589f a9bc a3f6 d93d
000001e0: 5a71 243d f19f b8bc 43ae 1ebd 0137 913d
000001f0: af8d 9c3d 6748 153e dc77 943d c88a 7d3d
00000200: faa4 a0bd 8ab8 afbd 7d59 1cbe 6202 653c
00000210: b41a fe3c 12d1 383d d263 973d 1ab8 03bd
00000220: 43aa 9cbd 6c6d e53d f13f 043e ced1 2bbe
00000230: 9157 b7bc dd58 b9bd 8bc6 953d 90a7 a8bd
00000240: 0aa3 3bbe f392 b03d 2481 5b3d cf60 083e
00000250: 53ac c5bd 0bc7 b9bd bcd4 a23d f99c 053d
00000260: effd 3b3e b44e cabc 003c 11bd 572a acbd
00000270: 4f7c a3bd 6668 383d 1dca 7bbd 28b5 97bd
00000280: 5ce2 86bc 6266 f63b 1fa6 03bd 32ef 5f3d
00000290: 9ef6 92bc 31ce 863c ef93 9eb9 d28f c8bc
000002a0: ec49 32be bc98 aebd 094b 5d3d 6a22 42be
000002b0: 29ca 193d 2f03 de3d 4dff a8bd 26cb dfbd
000002c0: 7783 f73d 8dce a43c 0dc7 cabd 80df f4bc
000002d0: 60e3 8fbd 1052 193e 3284 8a3d c9a5 bebc
000002e0: 079e 0f3c b0d8 813d d14b 17be a5f9 be3c
000002f0: 5c5a bd3d e878 143d db59 26bb 0c77 55bd
00000300: 7902 503e d20c 673c 9c7b 31bd 97fb b1bd
00000310: 8f76 a4bd 2af6 4c3d 24ec 133d ca63 3ebd
00000320: bd85 9bbb 5ef6 ffbc 104b 14bc 6250 1bbc
00000330: cdc3 3ebd 7a59 33bd 1ade 543d 6fd1 31be
00000340: d4ec 053e b64c 0b3c 2cea 89bd baef 70bd
00000350: c5b1 1b3e e2a2 efbd 7ecb c5bd a66f b1bd
00000360: 6d5d eebc d721 2fbd e46c a33c 2519 e5bd
00000370: 2b3f 9b3e d9f2 303d c27c 1c3e a6a4 dfbc
00000380: f108 41bd 1783 e5bc 5596 1f3d 2d9a 293c
00000390: 6e40 26be a407 02be 204d d63c adc8 203e
000003a0: d0b0 9ebd 1843 2d3d 030e 09be 8b8e d7bc
000003b0: f059 f6bc af38 be3d ae66 19bd fa8a 883e
000003c0: c469 903d ea1a 1a3e fa8a c3bc a04a 3d3d
000003d0: 1965 913c a8a2 f8bd f295 863d 5cdf cf3d
000003e0: bdd3 acbd 3e77 b33d de45 45bd c3a3 bd3b
000003f0: a9ec 553d a126 f5bd 3d2c 6ebd 7f1c 283d
0.061764136 -0.21292457 0.038234863 -0.04455863 -0.066381395 -0.12153343 -0.041068997 -0.07770752
-0.07964257 0.06946965 -0.03485863 -0.045365572 -0.04143273 -0.10083048 0.09501147 -0.14217995
0.07980996 0.14396976 -0.08374528 -0.16553263 0.15380774 -0.029984362 0.11790814 -0.07519084
-0.02283486 0.14423843 0.021274187 0.032546427 0.07904913 -0.13387474 0.16131146 0.20333466
-0.0326354 -0.1610537 -0.026288265 -0.07704122 -0.1600908 -0.021297373 0.04848325 -0.08734342
0.15684967 -0.036127754 -0.007970516 -0.13192299 -0.021491209 -0.040538304 0.04333981 0.019933505
0.035140123 -0.0025594458 0.15195058 -0.115305424 -0.013861315 0.10497948 0.009704833 -0.0012393727
0.078467675 -0.027901394 -0.16256976 0.18908145 0.061060347 -0.052034006 -0.04754104 0.06269287
-0.06907477 0.050761882 0.15968364 0.001329303 -0.13315253 -0.034764584 0.052708086 0.1955324
0.02206182 0.049167972 -0.09010893 -0.108558975 0.17269975 -0.014602282 0.15393294 -0.009208113
0.07090108 -0.043283373 -0.095831715 0.008261474 -0.0035347117 -0.031917848 0.05889507 0.12249957
-0.14604194 0.06849614 -0.16815929 0.0358123 0.1756902 -0.05331356 -0.085922375 0.053596716
-0.05117833 0.0049139718 -0.08729692 0.07077381 0.16236378 -0.01275447 -0.029938249 0.05734199
-0.023295918 0.047787383 0.1726919 0.12211821 -0.02003699 0.062395096 0.10805497 0.036531232
0.09267401 0.04566769 -0.013094965 0.16092782 0.019069595 0.024261132 -0.020705864 0.10642745
0.040147163 -0.022537204 -0.038740408 0.07090569 0.076442115 0.145784 0.07249424 0.06189993
-0.07843967 -0.0858012 -0.15268512 0.013977619 0.031018592 0.04512126 0.07392086 -0.032157995
-0.07649662 0.11202511 0.12915017 -0.16779253 -0.022380622 -0.090501525 0.0731326 -0.08235085
-0.18323913 0.08621778 0.053589955 0.1331818 -0.09652009 -0.090711676 0.07950732 0.032620404
0.18358587 -0.024695732 -0.03545761 -0.08406513 -0.07982694 0.045021437 -0.061472047 -0.074076
-0.016465358 0.007519529 -0.032140847 0.054671474 -0.017939862 0.016455742 -0.00030246328 -0.024482641
-0.17411011 -0.085252255 0.054026637 -0.1895844 0.03754631 0.10840451 -0.0825182 -0.10927419
0.12085622 0.020118022 -0.09901247 -0.02989173 -0.0702579 0.1497271 0.067634955 -0.023272412
0.008765704 0.06340158 -0.14775015 0.0233124 0.0924575 0.036248118 -0.0025383148 -0.052115485
0.20313443 0.014102178 -0.043330774 -0.08690565 -0.08030426 0.050039448 0.036113873 -0.046481885
-0.0047461675 -0.031245407 -0.009051099 -0.009479614 -0.04657345 -0.043786503 0.051969625 -0.17365049
0.13078624 0.008502176 -0.06734118 -0.05882237 0.15204532 -0.11700989 -0.09657954 -0.086638734
-0.029097283 -0.04275688 0.019949384 -0.111864366 0.3032163 0.043200348 0.15281966 -0.02730019
-0.047127668 -0.02801661 0.038961727 0.0103517 -0.16235515 -0.12698227 0.026159823 0.15701552
-0.07748568 0.042300314 -0.13384251 -0.026313087 -0.030072182 0.09288155 -0.03745144 0.2666853
0.07051423 0.1504933 -0.02386998 0.046213746 0.017748402 -0.12140399 0.065715685 0.10150024
-0.08438823 0.08762978 -0.048162334 0.005787344 0.05222765 -0.119702585 -0.058147658 0.0410428
