Assets/_Project/Trained/Shooter_v1.onnx (onnx, 75056 bytes, 9 tensors)

action_model._continuous_distribution.log_sigma f4 [1, 3]
1.4221005 1.4314476 1.3656145
00000000: 6407 b63f ad39 b73f 75cc ae3f

action_model._continuous_distribution.mu.bias f4 [3]
0.01112978 6.969158e-05 -0.05083399
00000000: ae59 363c 6227 9238 4d37 50bd

action_model._continuous_distribution.mu.weight f4 [3, 128]
-0.023532119 -0.010109558 0.07826172 0.05027364 -0.013330515 -0.060707923 0.005623522 0.09635717
-0.0083081825 0.009700892 -0.05001173 0.00544713 -0.006951073 0.018315196 0.029700024 0.0057464433
-0.030409576 -0.021392092 -0.02990376 -0.019525645 0.00946204 -0.027840117 -0.04025795 0.07378526
0.031583734 0.084916726 -0.01984796 0.020351706 0.02759774 -0.019497223 -0.02332844 -0.03909524
0.0032606376 -0.006390196 -0.019237002 -0.027910441 -0.06009853 -0.013787309 -0.014400492 -0.05333125
0.09718277 -0.0058412496 -0.027368173 0.04249469 -0.030058464 0.07062677 -0.023045486 -0.10679825
-0.026082098 0.022653947 -0.023123473 -0.0029129512 0.04487722 0.0027603614 0.08742697 -0.037368413
-0.027294232 -0.035743393 0.022204477 -0.034115303 0.12546153 -0.077629454 -0.03758476 0.008162127
-0.06977525 -0.07740635 0.1050672 0.06325731 -0.058688898 0.0445548 0.09905988 -0.023004586
-0.12677237 0.039453264 0.0150283 0.021919517 -0.10497622 0.024160184 0.06262688 0.01443956
0.042358395 0.021671778 -0.054953195 0.0018348412 -0.038462695 -0.07663815 -0.014030361 0.02141358
-0.035100333 -0.072057724 -0.021141673 -0.06250751 0.029154379 -0.01602618 0.09697225 0.06858731
-0.026080046 -0.1131485 -0.025382314 0.06881139 0.07158819 0.04418227 -0.005809454 -0.012817187
0.06508468 0.015412794 -0.103560284 -0.02808854 -0.03074872 -0.057124592 0.061633103 0.049299695
-0.024498627 -0.07059538 -0.025815507 -0.012660025 -0.059313823 -0.01743317 0.025260162 0.10313006
-0.0010426734 -0.03133157 0.010046563 -0.0013829035 -0.033970136 0.033511274 0.1289315 -0.09078679
0.024092032 0.04514909 -0.109947704 -0.0036069895 -0.09875018 -0.08715874 0.040524784 0.053436447
-0.00038091862 -0.026373137 -0.036398847 0.086026944 -0.059716735 0.07451158 -0.0041481135 0.024087451
0.066511646 -0.016058331 0.02088561 -0.028128147 -0.16422187 0.06392406 -0.08303264 -0.053792376
-0.011338182 -0.040884588 -0.0016358414 0.040647857 0.0357247 0.028692894 0.019428402 -0.016100118
0.018879237 0.015510725 0.008179594 -0.036451936 0.03817727 -0.006849976 -0.018559912 0.0016898133
-0.004410779 0.05222321 0.046099696 -5.37636e-05 0.06964122 -0.12052413 0.025851952 -0.15481544
0.04722027 -0.023413029 0.047662526 -0.0032461528 -0.091342025 0.045534216 0.062485065 -0.060007486
0.06143422 -0.023177115 -0.00012417468 -0.022984784 -0.083544455 -0.14355913 0.056186512 0.046747904
0.03477662 0.04037609 -0.016387425 0.024155837 0.051242415 -0.0077050785 -0.036510248 -0.03245575
0.011751396 -0.03030317 0.012747716 0.101374865 -0.04421383 0.012721518 0.0887059 -0.029699937
-0.07653629 -0.031286072 0.064123444 0.0067122304 -0.15609507 -0.11374316 -0.040915757 -0.041713756
0.027287535 -0.006679184 0.011678258 0.038342524 0.095076755 0.033993278 0.05508816 -0.062768325
0.04038972 0.030807042 0.0023307034 -0.03055857 -0.045127917 -0.078746356 0.062912494 0.004323122
-0.048070688 -0.015198033 -0.0314213 -0.01746796 -0.017709177 0.060573634 0.060583018 -0.0046398966
0.004761124 0.038729228 0.025856819 -0.0147783505 0.020793276 0.009522946 -0.025415914 -0.03082636
0.07830034 0.11205653 -0.02856799 -0.06529729 0.04520334 -0.018839223 0.062474605 -0.021541981
00000000: 6ec6 c0bc 8fa2 25bc ae47 a03d bbeb 4d3d
00000010: 3b68 5abc dfa8 78bd 8645 b83b e856 c53d
00000020: 0b1f 08bc 7df0 1e3c 1ad9 4cbd d77d b23b
00000030: d4c5 e3bb c009 963c 774d f33c a94c bc3b
00000040: 811d f9bc 783e afbc bbf8 f4bc 3ff4 9fbc
00000050: ac06 1b3c f510 e4bc 85e5 24bd ba1c 973d
00000060: f25d 013d d2e8 ad3d 3098 a2bc 9fb8 a63c
00000070: a814 e23c a4b8 9fbc 491b bfbc 5522 20bd
00000080: 6cb0 553b d964 d1bb eb96 9dbc 70a4 e4bc
00000090: e029 76bd 2ae4 61bc 0bf0 6bbc de71 5abd
000000a0: c307 c73d f467 bfbb 3833 e0bc e90e 2e3d
000000b0: 2b3d f6bc c5a4 903d e3c9 bcbc 0ab9 dabd
000000c0: 20aa d5bc c594 b93c 706d bdbc 36e7 3ebb
000000d0: 2dd1 373d 2ee7 343b e90c b33d 9f0f 19bd
000000e0: 2798 dfbc aa67 12bd 2ae6 b53c 7dbc 0bbd
000000f0: fd78 003e 31fc 9ebd 7af2 19bd 71ba 053c
00000100: 54e6 8ebd 3887 9ebd 792d d73d 0c8d 813d
00000110: c563 70bd 187f 363d e8df ca3d 1d74 bcbc
00000120: 9ed0 01be bf99 213d 4239 763c 8f90 b33c
00000130: c6fd d6bd 94eb c53c 8642 803d e793 6c3c
00000140: ff7f 2d3d 0389 b13c 9a16 61bd 0e7f f03a
00000150: 0f8b 1dbd 76f4 9cbd 99df 65bc 886b af3c
00000160: 5ec5 0fbd 0093 93bd 4d31 adbc f003 80bd
00000170: 2ad5 ee3c 5649 83bc 6399 c63d 8177 8c3d
00000180: d2a5 d5bc 67ba e7bd 92ee cfbc fcec 8c3d
00000190: d49c 923d 78f8 343d 3b5d bebb 2eff 51bc
000001a0: 1e4b 853d f285 7c3c 6a17 d4bd f019 e6bc
000001b0: bde4 fbbc 7afb 69bd fe72 7c3d 7aee 493d
000001c0: 58b1 c8bc 5094 90bd 0b7b d3bc fe6b 4fbc
000001d0: 0df3 72bd 02d0 8ebc 66ee ce3c da35 d33d
000001e0: 50aa 88ba 8855 00bd 579a 243c 8b42 b5ba
000001f0: 4524 0bbd 1e43 093d 9e06 043e 6dee b9bd
00000200: a75c c53c 41ee 383d 432c e1bd 3e63 6cbb
00000210: 893d cabd 4880 b2bd 51fd 253d 2de0 5a3d
00000220: 08b6 c7b9 7a0c d8bc f516 15bd e52e b03d
00000230: 8999 74bd 8799 983d e6ec 87bb 0c53 c53c
00000240: 4237 883d c38c 83bc 4c18 ab3c 006d e6bc
00000250: c729 28be 9eea 823d 040d aabd 6555 5cbd
00000260: c8c3 39bc 9976 27bd bb69 d6ba 5e7e 263d
00000270: 1054 123d 5c0d eb3c 5028 9f3c 65e4 83bc
00000280: a1a8 9a3c b220 7e3c b403 063c a04e 15bd
00000290: c55f 1c3d c375 e0bb f50a 98bc ba7c dd3a
000002a0: 4c88 90bb 01e8 553d 09d3 3c3d 3a80 61b8
000002b0: 0ea0 8e3d 5bd5 f6bd 79c7 d33c f087 1ebe
000002c0: 0b6a 413d aecc bfbc c839 433d 68bd 54bb
000002d0: 8711 bbbd 1682 3a3d 57f0 7f3d 69ca 75bd
000002e0: 73a2 7b3d efdd bdbc e334 02b9 964a bcbc
000002f0: 5b19 abbd 2a01 13be d423 663d bb7a 3f3d
00000300: ee71 0e3d 6661 253d ec3e 86bc 76e2 c53c
00000310: 91e3 513d e27a fcbb c58b 15bd 52f0 04bd
00000320: ed88 403c 5b3e f8bc ccdb 503c a09d cf3d
00000330: 9019 35bd ea6d 503c 70ab b53d 484d f3bc
00000340: 0fbf 9cbd d325 00bd 2753 833d 45f2 db3b
00000350: 63d7 1fbe 2df2 e8bd 4897 27bd 0bdc 2abd
00000360: 1c8a df3c 0edd dabb 2a56 3f3c 0d0d 1d3d
00000370: 9ab7 c23d 893c 0b3d 1fa4 613d ae8c 80bd
00000380: b16f 253d 0d5f fc3c b7be 183b f755 fabc
00000390: 0dd8 38bd c545 a1bd 44d8 803d faa8 8d3b
000003a0: c5e5 44bd 2c01 79bc 9fb3 00bd f818 8fbc
000003b0: d612 91bc 0f1c 783d e625 783d 460a 98bb
000003c0: 3403 9c3b 8aa2 1e3d aed1 d33c e520 72bc
000003d0: a956 aa3c 2106 1c3c 0935 d0bc 9087 fcbc
000003e0: ee5b a03d e57d e53d 6b07 eabc 96ba 85bd
000003f0: 2327 393d b754 9abc 5fe5 7f3d cf78 b0bc

action_model._discrete_distribution.branches.0.bias f4 [2]
-0.09223422 0.09223352
00000000: 4be5 bcbd ede4 bc3d

action_model._discrete_distribution.branches.0.weight f4 [2, 128]
-0.008363658 0.027467875 -0.048129596 0.0096052075 0.021954218 0.025814885 -0.045974128 -0.030549591
0.011798138 0.038140215 0.039044265 -0.006433479 -0.029568618 0.015240034 -0.027996838 0.042286348
-0.10679116 -0.0017069763 -0.08233662 -0.015984342 0.074646205 -0.060004555 0.031509247 -0.035950564
-0.015037784 0.0662441 -0.012567592 0.086942784 0.012534283 0.033099737 -0.028255062 0.05740139
-0.03515666 0.037210677 0.016220605 0.03093887 0.041844305 -0.01718866 0.0064039845 0.027982973
0.022221422 -0.06911116 0.021117365 0.08544689 -0.055387255 0.012993608 -0.027192265 0.0017458729
-0.028977416 -0.058086053 -0.039403148 -0.048003495 0.061512947 -0.027675206 0.015552256 -0.024287751
0.042740088 -0.007834856 0.049220916 -0.06734168 0.05815964 0.049270336 -0.09686346 0.0098408265
-0.010856174 0.021325186 -0.021307541 -0.051446903 0.0017496055 -0.06369417 0.033275604 -0.08287327
0.02515017 -0.053967252 0.014735187 -0.010313129 0.047848847 0.020811118 0.08625361 -0.01748204
-0.0026217508 0.053235505 -0.02599692 -0.01745615 -0.005372038 -0.14464307 0.04849207 0.010647144
-0.08007154 0.025243802 -0.028728945 -0.051635083 0.051390383 -0.053574126 -0.017067306 0.055943217
-0.039538447 0.01701052 -0.040723544 -0.033664066 -0.037911832 0.032114178 -0.0675041 -0.06911111
-0.029272186 0.04118008 0.029833743 -0.019951379 -0.020709252 0.030389585 0.042380564 -0.014233467
-0.003161427 0.03335101 -0.05874704 -0.10630364 -0.024300905 -0.0047477987 -0.018224185 -0.025086617
0.042870194 -0.06743902 -0.0800148 -0.16923617 -0.0068854825 -0.046605036 -0.08800669 -0.035570394
-0.004645271 -0.01998774 0.05270754 -0.0009490862 -0.01391047 -0.023735877 0.019991713 0.026080342
0.0006914095 -0.024270698 -0.04246891 0.0043909564 0.032215536 -0.009070899 0.032694776 -0.034868658
0.08714011 0.009774615 0.07698889 0.013652844 -0.097866036 0.045713775 -0.032851465 0.042931776
0.027862491 -0.077417254 0.005941613 -0.07492725 -0.0067226947 -0.031692374 0.045770086 -0.045348365
0.042966127 -0.027050452 -0.037631195 -0.008593949 -0.036025707 0.014481807 -0.002088387 -0.033349067
-0.016775379 0.0744412 -0.027263483 -0.08376499 0.035124052 -0.007751115 0.01670023 -0.0030263758
0.025926635 0.07065945 0.047650687 0.056917287 -0.061288822 0.021406561 -0.004766917 0.026486136
-0.02640406 0.0041389884 -0.045317594 0.0568026 -0.05854444 -0.048653033 0.10661498 0.0025556625
0.010448833 -0.02490819 0.0015877839 0.05630907 -0.00093192473 0.059452377 -0.026898038 0.085047685
-0.03683563 0.051443726 -0.010679277 0.031669267 -0.05185829 -0.019748176 -0.091776736 0.012291809
0.010672723 -0.0488031 0.02713871 0.0054776953 0.01062766 0.12252738 -0.03786004 -0.018381216
0.07405897 -0.025385264 0.052571613 0.056396715 -0.049606886 0.050456796 0.02207413 -0.020032905
0.02330485 -0.037362043 0.05037836 0.013208201 0.059822675 -0.0339095 0.05593916 0.07545802
0.024608735 -0.04974392 -0.019741576 0.03273514 0.010302061 -0.022877686 -0.025965024 0.018593887
0.001278053 -0.04667199 0.052024502 0.0965383 0.007178309 0.012877235 0.008784015 0.021990718
-0.03382843 0.09073982 0.0912227 0.17147103 0.01823794 0.050551333 0.09199918 0.032871626
00000000: b907 09bc 4f04 e13c 8a23 45bd 295f 1d3c
00000010: 55d9 b33c bd79 d33c 5e4f 3cbd 2343 fabc
00000020: fa4c 413c ea38 1c3d e1ec 1f3d efcf d2bb
00000030: e339 f2bc 56b1 793c a059 e5bc 7334 2d3d
00000040: 53b5 dabd 9fbc dfba 1aa0 a8bd 98f1 82bc
00000050: 1ce0 983d 56c7 75bd d70f 013d e640 13bd
00000060: 0a61 76bc fdaa 873d 4de8 4dbc 0f0f b23d
00000070: 985c 4d3c 9793 073d 2977 e7bc b81d 6b3d
00000080: 6e00 10bd 396a 183d 13e1 843c 8373 fd3c
00000090: ef64 2b3d 3ccf 8cbc 84d8 d13b 8c3c e53c
000000a0: b309 b63c 278a 8dbd 53fe ac3c c7fe ae3d
000000b0: bfdd 62bd 24e3 543c 50c2 debc c6d5 e43a
000000c0: 0c62 edbc a4eb 6dbd 3265 21bd 509f 44bd
000000d0: 00f5 7b3d 1db7 e2bc e4ce 7e3c 1bf7 c6bc
000000e0: 3b10 2f3d c55d 00bc df9b 493d 6fea 89bd
000000f0: cd38 6e3d b1cf 493d 5a60 c6bd 6b3b 213c
00000100: 18de 31bc 28b2 ae3c 278d aebc fdb9 52bd
00000110: 0553 e53a 1772 82bd 004c 083d 76b9 a9bd
00000120: bb07 ce3c c40c 5dbd db6b 713c 66f8 28bc
00000130: 27fd 433d 147c aa3c bca5 b03d 7f36 8fbc
00000140: aed1 2bbb 790d 5a3d 7ef7 d4bc 3300 8fbc
00000150: ec07 b0bb 501d 14be 9f9f 463d 5c71 2e3c
00000160: 8cfc a3bd 17cc ce3c f758 ebbc 4f7f 53bd
00000170: b97e 523d 8b70 5bbd bcd0 8bbc b724 653d
00000180: 11f3 21bd a559 8b3c bbcd 26bd 55e3 09bd
00000190: 7049 1bbd 288a 033d 973f 8abd 208a 8dbd
000001a0: 39cc efbc 72ac 283d e565 f43c 1371 a3bc
000001b0: 73a6 a9bc 94f3 f83c 3e97 2d3d 7d33 69bc
000001c0: f22f 4fbb 129b 083d bca0 70bd b9b5 d9bd
000001d0: b112 c7bc 6c93 9bbb e34a 95bc 7382 cdbc
000001e0: a898 2f3d 781d 8abd cdde a3bd 3f4c 2dbe
000001f0: 9d9f e1bb ece4 3ebd da3c b4bd 43b2 11bd
00000200: 5c37 98bb 54bd a3bc dde3 573d 19cc 78ba
00000210: bde8 63bc be71 c2bc a9c5 a33c 71a6 d53c
00000220: b53f 353a 58d3 c6bc e1f3 2dbd 03e2 8f3b
00000230: 70f4 033d 1c9e 14bc f5ea 053d 70d2 0ebd
00000240: 8476 b23d b525 203c 5aac 9d3d 2eb0 5f3c
00000250: fd6d c8bd 5e3e 3b3d 428f 06bd 3bd9 2f3d
00000260: e13f e43c f08c 9ebd ddb1 c23b 7573 99bd
00000270: 0d4a dcbb ddcf 01bd 6a79 3b3d 35bf 39bd
00000280: 40fd 2f3d e998 ddbc 2b23 1abd a2cd 0cbc
00000290: b18f 13bd 1a45 6d3c 52dd 08bb 0899 08bd
000002a0: 856c 89bc a174 983d ab57 dfbc fb8c abbd
000002b0: 3dde 0f3d 11fd fdbb ecce 883c 2956 46bb
000002c0: 1864 d43c e7b5 903d 5e2d 433d 1a22 693d
000002d0: fd09 7bbd d05c af3c cc33 9cbb 74f9 d83c
000002e0: 544d d8bc 5aa0 873b f19e 39bd d8a9 683d
000002f0: 4bcc 6fbd 6748 47bd f458 da3d e77c 273b
00000300: 9531 2b3c 430c ccbc 301d d03a 57a4 663d
00000310: 694c 74ba 5684 733d 4659 dcbc 7b2d ae3d
00000320: f5e0 16bd a8b6 523d 22f8 2ebc a2b7 013d
00000330: 5c69 54bd edc6 a1bc 71f5 bbbd 9563 493c
00000340: a5dc 2e3c c2e5 47bd 0052 de3c 3d7e b33b
00000350: a31f 2e3c a3ef fa3d 2113 1bbd 3494 96bc
00000360: 3bac 973d c2f4 cfbc 5555 573d 3e00 673d
00000370: 9730 4bbd c9ab 4e3d ced4 b43c 0c1c a4bc
00000380: d0e9 be3c f108 19bd 8a59 4e3d 3667 583c
00000390: 9f08 753d b0e4 0abd 7620 653d bc89 9a3d
000003a0: 4298 c93c 48c0 4bbd 16b9 a1bc 4815 063d
000003b0: fac9 283c fc69 bbbc 9ab4 d4bc 3552 983c
000003c0: 5884 a73a 212b 3fbd a517 553d dfb5 c53d
000003d0: 0538 eb3b 0afb 523c d4ea 0f3c e125 b43c
000003e0: ae8f 0abd ccd5 b93d f8d2 ba3d 1a96 2f3e
000003f0: bb67 953c ea0e 4f3d 116a bc3d 66a4 063d

network_body._body_endoder.seq_layers.0.bias f4 [128]
0.003743057 -0.014465236 -0.059501734 -0.049691997 -0.16706741 -0.008176998 0.15520519 -0.01770587
0.029583614 0.02359491 -0.10507838 -0.025817309 -0.10388524 0.116582885 0.033880454 0.09428663
-0.09120371 -0.01586696 -0.09868323 -0.10254605 -0.020708952 0.015041963 -0.08647024 -0.06028208
-0.009265663 0.05523323 -0.009523571 -0.05200856 -0.059233613 -0.027905514 -0.0024528091 -0.09425736
-0.10701366 0.07068509 -0.07025001 -0.08969146 -0.09746915 -0.06009306 -0.08149134 0.01762617
-0.06698082 -0.12860487 -0.045288473 0.101437956 0.050610993 0.03262699 -0.024391143 -0.005297696
-0.0013534178 -0.14521067 -0.082456626 0.07284282 0.0235421 -0.0087785125 -0.057521034 0.13098152
-0.010101958 0.016003972 0.08660028 -0.012475115 -0.075686775 0.036409304 0.08105366 -0.09565116
-0.124021135 0.061116003 -0.007774742 0.20432052 0.071005814 -0.115981795 0.07055778 -0.09246224
0.13167273 0.023077887 -0.0047341534 0.16726226 0.09825508 -0.023330795 0.10250712 -0.08353078
0.05224781 0.07568746 0.046686023 -0.06036029 -0.026812298 0.04110844 0.009325087 0.06984471
0.005275798 0.09746867 -0.16513687 -0.054699592 -0.01589392 0.071480826 -0.033047292 0.07088678
-0.0533646 0.05866949 -0.08281303 0.082323685 0.030698897 -0.12504739 -0.06294447 0.04398849
-0.045051623 -0.034855835 0.030693918 0.08796311 -0.05488427 -0.04384442 -0.008697046 -0.06983287
0.117385425 0.0869977 0.16094346 -0.002948325 -0.052435976 0.059923522 -0.00032388588 -0.055828888
0.051599644 0.055524923 0.14604184 -0.045138367 -0.042098757 0.11220832 -0.020340677 0.10985583
00000000: 134e 753b 99ff 6cbc 17b8 73bd d689 4bbd
00000010: b813 2bbe d1f8 05bc 1cee 1e3e e70b 91bc
00000020: 5659 f23c 1d4a c13c 5533 d7bd d27e d3bc
00000030: c9c1 d4bd 02c3 ee3d 3bc6 0a3d 5919 c13d
00000040: 03c9 babd 6dfb 81bc 6f1a cabd aa03 d2bd
00000050: d2a5 a9bc 9172 763c 4f17 b1bd 58ea 76bd
00000060: 02cf 17bc 3d3c 623d c008 1cbc ee06 55bd
00000070: f29e 72bd 1b9a e4bc 4fbf 20bb 010a c1bd
00000080: fa29 dbbd 58c3 903d 3ddf 8fbd 28b0 b7bd
00000090: e89d c7bd 2424 76bd efe4 a6bd c264 903c
000000a0: 3d2d 89bd ffb0 03be 6880 39bd b4be cf3d
000000b0: 794d 4f3d e1a3 053d efcf c7bc 4c98 adbb
000000c0: 2a65 b1ba 1bb2 14be 05df a8bd 9e2e 953d
000000d0: 5ddb c03c c0d3 0fbc 2d9b 6bbd 0520 063e
000000e0: af82 25bc c31a 833c 7d5b b13d 6d64 4cbc
000000f0: ab01 9bbd ec21 153d 76ff a53d c1e4 c3bd
00000100: cbfe fdbd c654 7a3d 43c3 febb 6639 513e
00000110: 7f6b 913d dd87 edbd 9980 903d d85c bdbd
00000120: 37d5 063e d60d bd3c f520 9bbb cc46 2b3e
00000130: f639 c93d 3920 bfbc 41ef d13d 3012 abbd
00000140: cd01 563d 0702 9b3d d839 3f3d 5a3c 77bd
00000150: 77a5 dbbc 5361 283d 40c8 183c be0a 8f3d
00000160: 9ae0 ac3b a79d c73d a419 29be ae0c 60bd
00000170: f733 82bc 8a64 923d 995c 07bd 172d 913d
00000180: d794 5abd 6b4f 703d e199 a9bd 5299 a83d
00000190: 417c fb3c 6c0c 00be 08e9 80bd 462d 343d
000001a0: 0d88 38bd fec4 0ebd d071 fb3c 0126 b43d
000001b0: 54ce 60bd 3596 33bd 0e7e 0ebc 8904 8fbd
000001c0: c567 f03d da2b b23d 5dce 243e af38 41bb
000001d0: 1bc7 56bd 5e72 753d 3acf a9b9 d5ac 64bd
000001e0: 265a 533d 1a6e 633d fe8b 153e 02e3 38bd
000001f0: bf6f 2cbd 7acd e53d 7ea1 a6bc 18fc e03d

network_body._body_endoder.seq_layers.0.weight f4 [128, 6]
-0.19719447 -0.084158786 0.04330166 0.29917082 -0.018357515 0.14670381 -0.012934382 -0.29732296
0.2083611 -0.37195197 0.61896026 -0.70037746 -0.44680437 0.4489152 -0.74574834 -0.33121657
-0.09224976 0.24547619 0.105369575 0.0735839 -0.087464765 -0.50720567 -0.09128168 0.4954431
-0.16687623 0.412465 0.32500187 -0.25262815 -0.28830364 0.2704264 0.1325604 -0.26200834
0.28636393 0.15964453 0.7051356 -0.24839967 0.58027667 0.502113 0.01673161 0.030950092
-0.0688083 -0.06851767 -0.58622044 -0.09106062 0.20568812 0.22221884 0.36126724 -0.07108246
0.42395404 -0.14152075 -0.1139244 -0.46397468 0.17176215 -0.40058422 -0.22457775 0.47692198
-0.11269181 -0.19333659 0.016389094 0.44825703 0.1524309 0.2399098 0.4997705 0.44606
0.36279058 0.037291534 -0.2650561 0.2799957 -0.5261026 0.7909745 0.093647055 0.07929383
0.4772969 0.45833737 0.68796176 -0.23754686 -0.08203198 0.3684503 -0.02181948 -0.20501252
-0.34410208 -0.55741835 -0.09114856 0.05233221 0.31172654 -0.4845257 -0.2873765 0.44280517
-0.22302628 -0.33551696 -0.72576755 -0.5860999 -0.1657206 -0.05740441 0.05470293 0.012007372
0.13648522 0.7663084 -0.010652642 0.06630054 -0.11850646 0.32947907 0.47999546 -0.30473733
-0.044207104 0.5396131 -0.50826406 0.6110897 0.3372362 -0.12579659 -0.1668303 -0.17025752
0.089112304 0.48093703 -0.31860673 0.20943803 0.2710062 0.18159297 -0.57795334 0.12148076
-0.39515656 0.5578417 0.87838364 -0.47759166 0.100823484 -0.3567789 -0.030020468 -0.21356386
0.50451994 0.68434066 -0.46630546 -0.46399128 -0.65216625 -0.06311632 0.59507024 0.0037576617
0.42925048 -0.27044424 -0.48918095 -0.09902038 -0.67699724 0.18321283 -1.4102509 0.5315139
-0.05888955 1.0341544 0.3399846 -0.72119296 -0.17784351 -0.20649652 -0.55575806 -0.30994892
-0.39409745 -0.5509428 -0.3813227 -0.21223404 0.20384543 -0.03921033 -0.4328679 0.013222319
0.24959968 -0.13443507 -0.3264553 -0.12123967 -0.48831868 0.58887666 -0.62620956 0.4102601
-0.51677626 -0.06968209 -0.2960359 -0.36697045 -0.22226284 1.0835357 0.16010852 -0.7859975
-0.7381052 0.23847678 0.59145564 0.26557085 -0.49464345 -0.013874561 -0.07547919 0.7491849
-0.5928284 0.014316633 0.0017060916 -0.0054485877 0.099964276 0.2782413 -0.037134934 -0.20662063
0.13821885 -0.38777736 0.44296297 0.3520591 -0.7972219 0.38713315 0.16901715 0.3560278
0.0018527205 -0.73390704 -0.2873908 -0.048497353 -0.3190809 0.44155777 0.73790985 0.2548427
-1.0761075 1.0856642 0.50558925 -0.22765195 0.51297456 0.1998813 -0.4991362 0.55538887
0.36048827 0.053321667 -0.013625825 0.15524963 0.43697622 0.4648185 -0.43323445 -0.46063226
0.4518027 0.026213074 -0.3826455 0.16872069 -0.44266838 -0.20166399 -0.4500998 -0.6983945
0.14725618 0.027310017 0.85872066 0.17976475 -0.041962616 0.6529043 -0.48098806 -0.1085163
0.2737509 -0.13630794 0.13298714 -0.43952507 0.16638272 -0.1749533 0.22222036 -0.11319141
0.055706546 0.005840601 0.2889985 0.043229226 -0.035731345 0.74116814 0.024076726 -0.22984678
00000000: 59ed 49be 715b acbd 155d 313d eb2c 993e
00000010: 8062 96bc 8639 163e bbea 53bc b73a 98be
00000020: 9d5c 553e 7d70 bebe 2e74 1e3f f04b 33bf
00000030: 8bc3 e4be 37d8 e53e 5de9 3ebf 3895 a9be
00000040: 71ed bcbd 1c5e 7b3e 01cc d73d 28b3 963d
00000050: ba20 b3bd 3bd8 01bf e4f1 babd b8aa fd3e
00000060: 9ae1 2abe 9d2e d33e a566 a63e 7a58 81be
00000070: 899c 93be 5475 8a3e eabd 073e f525 86be
00000080: 4b9e 923e db79 233e c483 343f 7c5c 7ebe
00000090: 038d 143f 7a8a 003f bb10 893c 0c8b fd3c
000000a0: 5eeb 8cbd fe52 8cbd 8b12 16bf fe7d babd
000000b0: e89f 523e 568d 633e 05f8 b83e ae93 91bd
000000c0: 8110 d93e d1ea 10be 3251 e9bd 178e edbe
000000d0: 6be2 2f3e 6019 cdbe b6f7 65be 1e2f f43e
000000e0: f7ca e6bd 07fa 45be 6c42 863c f281 e53e
000000f0: d916 1c3e eaaa 753e ebe1 ff3e fa61 e43e
00000100: b0bf b93e 02bf 183d 6fb5 87be 995b 8f3e
00000110: a9ae 06bf 4e7d 4a3f 07ca bf3d ce64 a23d
00000120: 4260 f43e 32ab ea3e 431e 303f 7c3f 73be
00000130: 6200 a8bd 85a5 bc3e c4be b2bc cdee 51be
00000140: 262e b0be f8b2 0ebf 19ac babd 4d5a 563d
00000150: 9f9a 9f3e c113 f8be 0323 93be 5cb7 e23e
00000160: 0061 64be e1c8 abbe e7cb 39bf a50a 16bf
00000170: a9b2 29be e320 6bbd 2e10 603d 92ba 443c
00000180: c8c2 0b3e ca2c 443f 6b88 2ebc 94c8 873d
00000190: 84b3 f2bd 7bb1 a83e f7c1 f53e 8806 9cbe
000001a0: 8212 35bd 1624 0a3f 981d 02bf 6070 1c3f
000001b0: 39aa ac3e d2d0 00be 90d5 2abe fd57 2ebe
000001c0: 8380 b63d 613d f63e 6c20 a3be ec76 563e
000001d0: 53c1 8a3e 82f3 393e c0f4 13bf e8ca f83d
000001e0: f651 cabe b7ce 0e3f c0dd 603f e586 f4be
000001f0: 8b7c ce3d b9ab b6be 7ced f5bc 7cb0 5abe
00000200: 3828 013f f330 2f3f 97bf eebe 4490 edbe
00000210: 5ef4 26bf 2143 81bd 8656 183f 1a43 763b
00000220: b8c6 db3e ab77 8abe ed75 fabe 32cb cabd
00000230: b14f 2dbf 259c 3b3e 1a83 b4bf 4c11 083f
00000240: 2b36 71bd 2c5f 843f 7612 ae3e 1aa0 38bf
00000250: 9c1c 36be d373 53be 2946 0ebf a0b1 9ebe
00000260: 24c7 c9be 960a 0dbf bb3c c3be e153 59be
00000270: dbbc 503e 039b 20bd dda0 ddbe 6da2 583c
00000280: 0f97 7f3e 59a9 09be 2625 a7be 814c f8bd
00000290: e804 fabe 9fc0 163f 454f 20bf 9d0d d23e
000002a0: 734b 04bf 7cb5 8ebd 0492 97be 8de3 bbbe
000002b0: df98 63be 4cb1 8a3f 7df3 233e 2237 49bf
000002c0: 76f4 3cbf 4233 743e a369 173f e7f8 873e
000002d0: e841 fdbe 2052 63bc d594 9abd 95ca 3f3f
000002e0: 9ac3 17bf 5090 6a3c ef9e df3a 118a b2bb
000002f0: 12ba cc3d a575 8e3e cd1a 18bd 5c94 53be
00000300: 3e89 0d3e c18a c6be 0bcc e23e 1741 b43e
00000310: bc16 4cbf 5136 c63e d512 2d3e 4749 b63e
00000320: fcd6 f23a 55e1 3bbf e324 93be 29a5 46bd
00000330: 925e a3be dc13 e23e a9e7 3c3f be7a 823e
00000340: e4bd 89bf 0bf7 8a3f 4c6e 013f 981d 69be
00000350: 4d52 033f afad 4c3e c88e ffbe f72d 0e3f
00000360: eb91 b83e d267 5a3d da3e 5fbc c2f9 1e3e
00000370: 59bb df3e b1fc ed3e e8d0 ddbe fed7 ebbe
00000380: af52 e73e cdbc d63c 1cea c3be 1ec5 2c3e
00000390: 6ea5 e2be 0181 4ebe 7b73 e6be fbc9 32bf
000003a0: 53ca 163e 42b9 df3c 1ed5 5b3f 4014 383e
000003b0: fee0 2bbd bc24 273f 1144 f6be cb3d debd
000003c0: 1429 8c3e 4f94 0bbe c82d 083e 6e09 e1be
000003d0: 3b60 2a3e f526 33be bc8d 633e e6d0 e7bd
000003e0: 8c2c 643d 8362 bf3b 9df7 933e 2111 313d
000003f0: 085b 12bd 32bd 3d3f 8e3c c53c f45c 6bbe

network_body._body_endoder.seq_layers.2.bias f4 [128]
0.0017968816 -0.048786454 0.0055514798 0.078848444 0.041574515 -0.02184709 -0.06683763 0.063596554
-0.04279388 0.018564826 0.011447616 -0.058228955 -0.01081339 -0.04216874 0.05602061 0.03131001
-0.019421645 -0.0033045379 -0.03248776 -0.022032557 0.025769677 -0.0045671174 0.059924956 -0.008002903
0.049948048 0.0045378106 -0.058916327 0.0097910855 -0.016097054 -0.031720147 0.01668148 0.025286855
0.021195399 -0.0043493803 0.100004196 0.01254763 0.008371793 -0.029928295 0.02395468 0.010676313
0.12529834 -0.017158663 -0.027659556 0.1175234 -0.044976465 0.08000851 -0.0784524 0.08790085
-0.042767074 0.035712536 0.07419391 -0.031426847 0.0017231683 -0.00019481093 0.05373268 -0.014142327
0.023917194 -0.02062835 0.026464548 -0.028381491 -0.039730325 0.012407541 -0.0009135287 -0.060824156
-0.019407699 0.01502655 0.09277611 0.119422965 -0.015989989 -0.051787987 0.06748774 -0.041136805
0.011513444 0.10704874 0.052034643 0.021329772 -0.028582444 -0.04763733 0.0062330384 0.01668684
0.01549587 -0.056907345 -0.037199005 0.01146452 0.055834364 0.030586632 0.017915796 0.0028140154
-0.023708075 -0.04088397 -0.04945889 0.065266706 0.018629022 -0.012941463 -0.058057148 0.024951197
-0.0016696472 0.0032780664 0.017533725 0.09723716 -0.02333029 -0.04219793 0.031037413 -0.005112035
0.063445665 0.02923806 0.020812685 -0.08386301 0.112589754 -0.06382478 -0.037987176 0.05883308
0.024011992 -0.062819384 -0.027509635 0.004109222 0.007981711 0.020997543 -0.0146585265 0.11491023
-0.063521035 0.102942705 0.078397274 0.035328943 -0.015800338 0.040882986 0.06407628 0.022544982
00000000: 5785 eb3a 4ed4 47bd 30e9 b53b 4b7b a13d
00000010: 0a4a 2a3d abf8 b2bc 2be2 88bd e93e 823d
00000020: a348 2fbd 4315 983c c88e 3b3c 7c81 6ebd
00000030: a52a 31bc 21b9 2cbd de75 653d ed3e 003d
00000040: 241a 9fbc f290 58bb e311 05bd 9f7d b4bc
00000050: ee1a d33c c2a7 95bb df73 753d 9c1e 03bc
00000060: 5396 4c3d eab1 943b 3f52 71bd ca6a 203c
00000070: f8dd 83bc fcec 01bd 99a7 883c 6126 cf3c
00000080: f9a1 ad3c 3f85 8ebb 00cf cc3d 9394 4d3c
00000090: d829 093c 2f2c f5bc 9b3c c43c b4eb 2e3c
000000a0: 354e 003e 5390 8cbc 4b96 e2bc 1cb0 f03d
000000b0: 3e39 38bd 80db a33d a7ab a0bd 5c05 b43d
000000c0: 872c 2fbd 4f47 123d faf2 973d 70b9 00bd
000000d0: efdb e13a 2946 4cb9 cc16 5c3d 38b5 67bc
000000e0: feed c33c c9fc a8bc 2ecc d83c 4d80 e8bc
000000f0: 44bc 22bd 0049 4b3c e079 6fba c022 79bd
00000100: e5fc 9ebc eb31 763c 6701 be3d 0794 f43d
00000110: 70fd 82bc a41f 54bd 0337 8a3d 117f 28bd
00000120: e2a2 3c3c 5f3c db3d 4722 553d c6bb ae3c
00000130: bb25 eabc 5c1f 43bd 843e cc3b d7b2 883c
00000140: 64e2 7d3c ad17 69bd fc5d 18bd afd5 3b3c
00000150: 93b2 643d d190 fa3c 26c4 923c 586b 383b
00000160: 7037 c2bc f375 27bd 6895 4abd 8daa 853d
00000170: e49b 983c 6e08 54bc 55cd 6dbd 7466 cc3c
00000180: 10d8 daba d4d4 563b e3a2 8f3c 4724 c73d
00000190: 2a1f bfbc bdd7 2cbd 2c42 fe3c dc82 a7bb
000001a0: cdef 813d a884 ef3c 5d7f aa3c 5fc0 abbd
000001b0: 7595 e63d 91b6 82bd 7198 1bbd f5fa 703d
000001c0: ccb4 c43c 73a7 80bd e35b e1bc a7a6 863b
000001d0: b9c5 023c 0a03 ac3c 512a 70bc 0e56 eb3d
000001e0: 5117 82bd a0d3 d23d c08e a03d 15b5 103d
000001f0: b66f 81bc eb74 273d 6d3a 833d 41b0 b83c

network_body._body_endoder.seq_layers.2.weight f4 [128, 128]
0.020882051 -0.07686575 -0.16395597 0.094808765 -0.11460873 -0.04739423 0.05785951 0.18987507
-0.0030274773 0.039059013 -0.015613272 0.11131087 -0.07523371 0.05499139 -0.090302855 -0.10782403
-0.065316424 -0.11320312 0.08948306 -0.107475065 0.04812613 -0.05090305 0.0439947 -0.1878541
0.103391804 -0.050078895 -0.1840187 -0.058802307 0.08746235 -0.01837857 -0.06384079 -0.050822776
0.03294209 -0.055638857 0.043977972 -0.028937763 -0.019896673 0.12095488 -0.05015162 0.20767945
-0.070632055 -0.028144559 -0.055884246 0.0199194 -0.09054602 -0.00034345908 -0.022256605 0.032536812
-0.079713926 0.049634624 -0.06079084 0.08444291 0.0073054163 0.0810077 0.110538095 0.05111679
-0.043608665 -0.12244361 -0.14772318 -0.007880728 -0.08480057 0.04953283 -0.23670201 0.078352876
0.06306002 -0.18421458 -0.15231779 0.09009317 -0.04071745 -0.049014732 0.14520863 -0.1410001
-0.06489719 -0.18548453 -0.15196888 -0.068919815 0.05286925 -0.20285307 0.09743077 -0.036581147
-0.069514245 -0.31746528 -0.015577901 -0.004414698 0.018291026 -0.03488829 -0.11460849 0.08671532
-0.11305095 0.14124426 0.019164648 0.13053152 -0.061382245 -0.14742988 0.08490667 0.083192565
0.06257288 0.06611854 0.02826757 0.02464719 0.095994785 0.026737463 -0.0670282 0.09497904
-0.09621303 -0.10158063 -0.07984015 0.0389567 -0.18087605 0.11310703 0.011819179 0.13885777
0.06604529 0.11858663 -0.047524642 -0.1831021 -0.10457444 -0.12464091 -0.0754971 0.14559755
-0.054827005 -0.0036609124 -0.035081163 0.0010383307 0.0014533183 0.008235356 -0.029387157 -0.128652
-0.09268354 -0.060002074 0.24013433 -0.22986744 0.224017 -0.026783925 -0.21749054 -0.10075057
0.15316777 -0.10373482 0.03806146 -0.07785386 -0.067899734 0.0018894565 -0.032622065 0.058343507
-0.00065083854 -0.11330499 -0.16146891 -0.11672031 0.045915954 -0.06438236 -0.06720925 -0.032385245
-0.0076976214 -0.13806511 0.008345168 -0.059085123 -0.06947381 0.012964869 -0.09212539 0.16357723
-0.07450929 -0.019498786 -0.12880139 -0.035156164 -0.08702152 -0.078886546 0.13382068 -0.019432778
0.038606193 -0.078561306 -0.07857067 0.017876219 0.009241028 -0.035408426 0.16400059 -0.046773378
0.0871099 -0.037050117 -0.20482448 -0.041931715 0.07961668 -0.0154020265 -0.13883498 -0.20420231
0.10026642 -0.072460055 0.1709616 0.07831861 -0.11577512 -0.050182577 -0.058287516 0.043595284
0.061069906 0.05738809 0.114990495 0.06849828 0.03646589 0.01529315 0.064135924 -0.036663774
0.16297089 0.12068296 -0.29391357 -0.16222522 -0.1740857 0.06381466 -0.086495936 -0.08388279
0.023831086 0.0019405308 -0.13237372 -0.0876334 -0.28476053 0.088002376 0.17108475 0.058539975
0.0185278 -0.0066538495 -0.064171985 0.06272149 -0.0065502054 0.08846685 0.07886484 0.08855215
0.00034452404 -0.0032161907 -0.035430547 -0.30297872 0.0860136 -0.050012242 0.14505458 0.03247976
-0.03625787 0.06954758 -0.093112305 0.11768089 -0.16528586 0.07534639 0.06780719 -0.020351252
0.03623508 -0.049887203 -0.0043303138 0.07915147 0.05191152 -0.008501829 0.07086202 0.123626605
0.07432551 0.04370403 0.08421121 0.028414836 0.05463153 0.014787839 -0.05153156 0.084461115
00000000: d610 ab3c ca6b 9dbd 13e4 27be 192b c23d
00000010: fbb7 eabd 7420 42bd 18fe 6c3d 9c6e 423e
00000020: a468 46bb 58fc 1f3d cfce 7fbc f4f6 e33d
00000030: 2214 9abd a73e 613d b4f0 b8bd d8d2 dcbd
00000040: 9ec4 85bd 0ad7 e7bd e542 b73d e31b dcbd
00000050: e81f 453d b77f 50bd c933 343d d35c 40be
00000060: 15bf d33d 871f 4dbd 666f 3cbe b0da 70bd
00000070: 761f b33d a88e 96bc f6be 82bd 8b2b 50bd
00000080: 49ee 063d 92e5 63bd 3f22 343d e30e edbc
00000090: 59fe a2bc 31b7 f73d c96b 4dbd eca9 543e
000000a0: 8aa7 90bd 6b8f e6bc e1e6 64bd 022e a33c
000000b0: 3170 b9bd 4c12 b4b9 7c53 b6bc 5245 053d
000000c0: 0e41 a3bd ad4d 4b3d d1ff 78bd 68f0 ac3d
000000d0: 4662 ef3b 5de7 a53d cc61 e23d d75f 513d
000000e0: 009f 32bd b7c3 fabd bf44 17be 2b1e 01bc
000000f0: ecab adbd f0e2 4a3d 0362 72be 7977 a03d
00000100: 9d25 813d bfa2 3cbe 32f9 1bbe c582 b83d
00000110: 57c7 26bd acc3 48bd 92b1 143e 5562 10be
00000120: d1e8 84bd a8ef 3dbe bb9d 1bbe d525 8dbd
00000130: 6d8d 583d b7b8 4fbe c989 c73d 1dd6 15bd
00000140: 7c5d 8ebd cf8a a2be 743a 7fbc 2ca9 90bb
00000150: 10d7 953c 06e7 0ebd dbb7 eabd cd97 b13d
00000160: 4287 e7bd 56a2 103e 2eff 9c3c 0eaa 053e
00000170: f36b 7bbd dcf7 16be 8ce3 ad3d dd60 aa3d
00000180: 3626 803d 2869 873d 6491 e73c e7e8 c93c
00000190: ea98 c43d 8608 db3c 1546 89bd 5f84 c23d
000001a0: 560b c5bd 8109 d0bd 3c83 a3bd 1091 1f3d
000001b0: 9237 39be a9a4 e73d 3ba5 413c bb30 0e3e
000001c0: c142 873d 8cdd f23d 33a9 42bd 1e7f 3bbe
000001d0: 202b d6bd bc43 ffbd 399e 9abd 8617 153e
000001e0: 4892 60bd ebeb 6fbb 44b1 0fbd 9918 883a
000001f0: 457d be3a 96ed 063c 56bd f0bc 5abd 03be
00000200: ded0 bdbd bcc4 75bd c6e5 753e 5f62 6bbe
00000210: b664 653e f669 dbbc d7b5 5ebe 5156 cebd
00000220: 03d8 1c3e ec72 d4bd 55e6 1b3d d871 9fbd
00000230: 040f 8bbd a4a7 f73a b79e 05bd 9af9 6e3d
00000240: 099d 2aba 720c e8bd 1b58 25be 0f0b efbd
00000250: 5e12 3c3d e6da 83bd 01a5 89bd 64a6 04bd
00000260: 543c fcbb f160 0dbe 2cba 083c 3e03 72bd
00000270: 4948 8ebd 9a6a 543c 3dac bcbd ca80 273e
00000280: 5498 98bd ebbb 9fbc 83e4 03be e9ff 0fbd
00000290: 5738 b2bd 458f a1bd 4a08 093e 7d31 9fbc
000002a0: 8721 1e3d c0e4 a0bd a9e9 a0bd 2671 923c
000002b0: ae67 173c 6d08 11bd c5ef 273e 7195 3fbd
000002c0: ad66 b23d ddc1 17bd 82bd 51be 97c0 2bbd
000002d0: 120e a33d c858 7cbc c22a 0ebe 691a 51be
000002e0: 7b58 cd3d f065 94bd 8f10 2f3e 8265 a03d
000002f0: 821b edbd 3f8c 4dbd e4be 6ebd f890 323d
00000300: 7024 7a3d c60f 6b3d 2380 eb3d d448 8c3d
00000310: 425d 153d 1f90 7a3c b259 833d c12c 16bd
00000320: d7e1 263e a128 f73d d77b 96be 5e1e 26be
00000330: 8643 32be 43b1 823d c824 b1bd bdca abbd
00000340: 6939 c33c 6959 fe3a fa8c 07be 2479 b3bd
00000350: 22cc 91be 973a b43d d730 2f3e 9dc7 6f3d
00000360: 9dc7 973c 8908 dabb 9a6c 83bd 2074 803d
00000370: 1ba3 d6bb 1c2e b53d e483 a13d d45a b53d
00000380: 3ca1 b439 bac6 52bb 9f1f 11bd 0720 9bbe
00000390: e627 b03d a3d9 4cbd 3089 143e 7f09 053d
000003a0: 2283 14bd f66e 8e3d aab1 bebd ae02 f13d
000003b0: b240 29be 354f 9a3d 7fde 8a3d abb7 a6bc
000003c0: 3c6b 143d 8656 4cbd 4ee5 8dbb 2a1a a23d
000003d0: 2da1 543d 414b 0bbc 1b20 913d f22f fd3d
000003e0: f937 983d ff02 333d ed76 ac3d 3bc6 e83c
000003f0: 50c5 5f3d b148 723c c212 53bd f3f9 ac3d
