results/ShooterSimple/ShooterSimple/ShooterSimple-59681.onnx (onnx, 89698 bytes, 11 tensors)

action_model._discrete_distribution.branches.0.bias f4 [5]
0.06138209 -0.035696793 -0.06585047 0.007923864 0.009037243
00000000: c96b 7b3d cd36 12bd 9cdc 86bd 18d3 013c
00000010: f210 143c

action_model._discrete_distribution.branches.0.weight f4 [5, 128]
0.024374953 -0.044457633 -0.009243348 -0.046858948 0.04666145 -0.011063341 0.041653346 -0.003828695
0.01498527 0.0120908 -0.04857295 -0.03567087 -0.055401426 0.03994203 0.014897062 -0.06092269
0.040221017 -0.011028377 0.047224365 -0.01907149 0.025367819 0.0068466607 -0.055348758 0.011197279
0.059307784 0.060122397 0.031902995 0.009168534 -0.034342375 0.015244326 -0.014912216 0.0027593684
0.05780797 0.035787515 0.015186768 -0.044513416 -0.054562725 0.022984736 0.010060322 0.041520827
0.044428103 -0.043797683 0.0053164526 0.0014727421 -0.0062664817 0.00042664708 0.058852673 0.01690075
0.059123237 0.012158269 -0.021731084 -0.04355705 0.044605456 -0.014722726 0.018038066 0.029608428
0.00030647567 0.045052998 0.050977968 -0.09039784 0.008453493 -0.027070537 0.021573875 0.01979509
0.039549924 -0.035487168 -0.0049116733 -0.040865358 -0.005497754 0.009755103 -0.004841386 0.03320362
0.00607661 0.047841292 -0.010847668 0.0017461781 0.024382612 0.03105678 0.03867572 -0.061239406
0.059599794 0.025659524 0.003919459 0.002504361 -0.06116322 0.018685639 -0.13114662 0.0020707247
-0.012172609 0.038237084 0.007548152 0.0071836193 0.013566422 0.048509207 -0.016383652 0.046217952
0.06979241 0.052875433 0.073386095 -0.011172462 0.026282147 0.022271736 -0.016883062 0.0043521086
-0.025987776 -0.009926996 0.031750046 -0.06379025 0.0062691155 0.033059604 -0.0057436624 0.050590523
0.06728269 0.036156084 0.021834448 -0.03243136 0.044475716 0.015265639 -0.034428474 0.025980782
0.023771936 -0.042272884 0.025271583 0.03186822 0.022824187 0.015430982 0.015608664 -0.017047415
0.022924975 0.028208535 0.043245826 0.029215073 -0.020383611 -0.013073578 0.04855182 0.04665673
-0.059409622 -0.053670026 0.037906885 0.063647844 0.082335405 0.012291425 -0.013377836 0.055247065
0.0058104047 0.01988018 -0.052309513 0.0024860972 0.005115934 -0.045414448 0.05675051 0.03395019
0.008095063 0.021556454 0.01263159 0.032119296 0.002169816 0.010674728 -0.0031677242 0.042905204
0.00012878254 -0.00038396794 0.02777841 0.09222465 -0.017157357 0.055967283 -0.0063596303 -0.05709477
-0.0185955 0.05102473 0.016681207 0.051179506 -0.06654214 -0.0013861291 -0.019439785 0.007608558
0.056656078 0.0012093105 0.06675602 -0.010215491 0.008870557 0.062744714 0.01762189 0.017892554
0.017881012 0.033387154 -0.011618092 0.05326482 -0.03197464 0.013893405 0.055570673 0.017638128
0.017058458 0.022417167 0.03894445 0.08412517 -0.04765167 0.044445537 -0.0007062409 0.006492183
-0.015488519 0.02796131 -0.0053073973 0.042835843 0.0028062363 0.049181867 0.03605961 0.0038852554
0.02217563 0.028845664 0.010702073 -0.0015388797 0.029445201 0.0016310107 0.067209676 0.05576751
0.00013526378 -0.0006326131 -0.048064213 -0.027999396 -0.038242314 -0.04245052 0.0140088 -0.026581252
0.027478026 0.023171498 0.025685381 0.042379215 0.06555457 0.038002793 -0.05014134 -0.0074328943
0.034909036 0.06489095 0.016723625 0.022676239 -0.015483584 0.05494796 0.006964438 -0.043640543
0.015851226 -0.009935166 -0.06266884 0.01013816 0.002439566 0.018033573 0.008546997 0.020773796
-0.006718129 0.026262203 0.028815053 -0.012899375 0.046806056 0.01856074 -0.011110335 -0.03283628
00000000: fbad c73c 3519 36bd 6971 17bc 2bef 3fbd
00000010: 1420 3f3d 0443 35bc b39c 2a3d d8ea 7abb
00000020: c784 753c 7e18 463c 6ef4 46bd 9e1b 12bd
00000030: 9bec 62bd 419a 233d cf12 743c 128a 79bd
00000040: cbbe 243d 5eb0 34bc 566e 413d d03b 9cbc
00000050: 2cd0 cf3c f459 e03b 61b5 62bd cb74 373c
00000060: b8ec 723d e742 763d b7ac 023d 9e37 163c
00000070: 97aa 0cbd 56c3 793c 5e52 74bc 85d6 343b
00000080: 0dc8 6c3d ee95 123d ecd1 783c b353 36bd
00000090: 2a7d 5fbd 7c4a bc3c 0cd4 243c be11 2a3d
000000a0: 3efa 353d 3365 33bd a335 ae3b 0609 c13a
000000b0: 0f57 cdbb 9aaf df39 800f 713d 7173 8a3c
000000c0: 352b 723d 7a33 473c 6305 b2bc e168 32bd
000000d0: 36b4 363d 9737 71bc 91c4 933c 608d f23c
000000e0: 78ae a039 7e89 383d 46ce 503d 8122 b9bd
000000f0: 8580 0a3c 08c3 ddbc b2bb b03c 5029 a23c
00000100: 1aff 213d fe5a 11bd 1af2 a0bb 6f62 27bd
00000110: 8126 b4bb ded3 1f3c 7da4 9ebb 8500 083d
00000120: 4d1e c73b 3bf5 433d 6bba 31bc 04e0 e43a
00000130: 0bbe c73c ca6a fe3c 6f6a 1e3d 2cd6 7abd
00000140: ea1e 743d ec33 d23c ce6e 803b 3520 243b
00000150: 4986 7abd a012 993c 4d4b 06be ffb4 073b
00000160: 9f6f 47bc 7d9e 1c3d 7d56 f73b 9164 eb3b
00000170: b345 5e3c 97b1 463d 0237 86bc 094f 3d3d
00000180: 53ef 8e3d e993 583d 734b 963d b40c 37bc
00000190: a84d d73c 3773 b63c 594e 8abc 229c 8e3b
000001a0: 51e4 d4bc d7a4 22bc 560c 023d 76a4 82bd
000001b0: 276d cd3b 8269 073d 5535 bcbb 0238 4f3d
000001c0: 82cb 893d 6718 143d 28de b23c bfd6 04bd
000001d0: 2b2c 363d bb1c 7a3c df04 0dbd a6d5 d43c
000001e0: 5dbd c23c 5526 2dbd 5a06 cf3c 4088 023d
000001f0: caf9 ba3c 3bd2 7c3c 7bbb 7f3c 05a7 8bbc
00000200: 28cd bb3c 9615 e73c 8922 313d 7354 ef3c
00000210: 88fb a6bc 8f32 56bc 46de 463d 211b 3f3d
00000220: 8157 73bd 1ad5 5bbd 4044 1b3d cd59 823d
00000230: 779f a83d f961 493c b62e 5bbc bf4a 623d
00000240: 3565 be3b c2db a23c 8042 56bd caed 223b
00000250: 91a3 a73b 8004 3abd 3973 683d 5b0f 0b3d
00000260: 28a1 043c 2997 b03c baf4 4e3c 868f 033d
00000270: 7933 0e3b 0ee5 2e3c 9899 4fbb 5ebd 2f3d
00000280: cd09 0739 4e4f c9b9 8c8f e33c 47e0 bc3d
00000290: 968d 8cbc f33d 653d 7264 d0bb 35dc 69bd
000002a0: 9755 98bc 4fff 503d 07a7 883c 9aa1 513d
000002b0: 3f47 88bd c6ae b5ba 2f40 9fbc 3651 f93b
000002c0: 3410 683d ba81 9e3a 61b7 883d e05e 27bc
000002d0: d055 113c 4d80 803d c85b 903c 6893 923c
000002e0: 337b 923c f8c0 083d cf59 3ebc 362c 5a3d
000002f0: d7f7 02bd 2aa1 633c 139e 633d d67d 903c
00000300: 2ebe 8b3c 35a4 b73c 3784 1f3d d149 ac3d
00000310: 662e 43bd 860c 363d 0623 39ba 61bc d43b
00000320: 8fc3 7dbc 1e0f e53c ade9 adbb a374 2f3d
00000330: d5e8 373b ed72 493d 3eb3 133d c59f 7e3b
00000340: aba9 b53c be4d ec3c bf57 2f3c 3cb4 c9ba
00000350: 1037 f13c a3c7 d53a 3aa5 893d 796c 643d
00000360: 98d5 0d39 f2d5 25ba fbde 44bd fd5e e5bc
00000370: f9a3 1cbd 99e0 2dbd 2a85 653c edc0 d9bc
00000380: 9919 e13c 27d2 bd3c 266a d23c d495 2d3d
00000390: 7941 863d d1a8 1b3d 0161 4dbd a38f f3bb
000003a0: c7fc 0e3d 8ce5 843d fcff 883c 85c3 b93c
000003b0: dcae 7dbc 1d11 613d f135 e43b 6dc0 32bd
000003c0: 6eda 813c 1bc7 22bc 8558 80bd 861a 263c
000003d0: 20e1 1f3b 25bb 933c b408 0c3c cf2d aa3c
000003e0: c023 dcbb d523 d73c 8c0d ec3c e657 53bc
000003f0: b5b7 3f3d b10c 983c 1f08 36bc 567f 06bd

action_model._discrete_distribution.branches.1.bias f4 [4]
0.0049353633 0.021630194 -0.010226315 -0.015724884
00000000: d4b8 a13b ce31 b13c 468c 27bc 79d1 80bc

action_model._discrete_distribution.branches.1.weight f4 [4, 128]
-0.02241729 0.006440663 -0.011100314 -0.014384086 0.0074921446 0.012438415 0.014232854 -0.02058856
0.025476128 0.0036512357 0.04271089 0.0048021683 0.016115133 -0.009693837 0.06451644 0.007571062
0.01755501 -0.037102405 0.011892532 -0.043370813 0.0019011339 0.009100474 -0.031697057 -0.014215457
0.056939922 0.055303104 0.009474291 -0.0011102551 -0.06677833 0.037969865 0.044574544 0.012438756
0.026356898 0.009427167 -0.006037623 -0.009479815 -0.13213105 0.054634605 -0.06267718 -0.015336942
0.008036631 -0.04558311 0.0079547325 -0.00048254893 0.03358965 0.02696375 0.037803568 -0.017480232
0.070488974 -0.06102691 0.014167686 -0.019085076 -0.008267552 -0.031545617 -0.007362195 0.0078006084
0.018265987 -0.018717457 0.02685695 -0.056756184 0.0010112113 -0.061346803 -0.02177174 -0.0154420445
0.073114194 -0.037866678 -0.017021645 -0.02977355 0.047064435 -0.060590375 0.013078093 0.00766836
-0.02615438 0.023108298 -0.00049878086 -0.011201682 0.028887918 -0.027048767 0.013851599 0.0086155115
0.003301751 0.010008588 -0.0077118566 0.076915406 -0.054995928 0.053347822 0.00012834983 -0.027110763
0.018197326 0.027681537 0.061139308 -0.015900033 0.007766954 0.037861813 -0.03252632 0.013759477
0.015958747 -0.03755353 0.026333798 -0.015697692 0.013312032 -0.008155305 -0.026108447 0.024373665
-0.024386585 -0.013110689 0.006814815 -0.012319664 -0.036681958 0.030056646 0.023529086 -0.06949523
0.008331192 -0.018673308 0.024764104 -0.012431658 0.049876694 0.047610603 -0.049388126 0.030133821
-0.010735225 -0.007920487 0.043796588 0.012397634 -0.049495175 0.017949669 0.047779746 -0.06588773
0.030288579 0.00792969 -0.015841769 -0.012049122 0.01001474 0.019085702 -0.0076962765 0.017827991
-0.02564966 0.0260945 0.0034400227 -0.031059949 -0.043128893 0.005534713 0.02437107 -0.0031497336
0.036243796 0.018888252 0.044700578 0.06930842 0.027069222 0.0051482082 -0.012938303 -0.032307927
-0.044221696 -0.01735746 0.06786953 -0.06804841 0.104969114 0.006276579 -0.007100377 -0.035408523
0.010382431 0.020710865 0.009206477 -0.017492507 0.12190856 -0.045455575 0.09958837 0.012921793
0.043931887 -0.030522034 0.008992077 -0.0015687365 -0.044611055 -0.0010117872 -0.039506983 0.049816724
-0.12346951 0.05854101 -0.018038647 -0.0055438653 0.055797074 0.026964279 -0.0075267935 -0.023316188
0.0485644 0.017144155 -0.06296433 -0.014410371 -0.004389979 0.09683171 0.041597564 -0.048493613
-0.043206375 -0.03143346 -0.044115033 -0.0053066723 -0.018411271 0.022083398 0.0009055438 -0.023886828
0.018274307 -0.022910574 -0.01273738 0.0038348995 0.026825689 0.0054621547 -0.057327628 0.030084388
0.010172375 -0.09407277 -0.044146672 -0.051867772 -0.0063968534 -0.016408041 -0.0070427284 0.0009489088
0.005151189 0.023767056 0.00090287183 -0.041927442 -0.0011075113 -0.009652512 -0.019069616 -0.041863814
-0.009535714 0.063887924 -0.021231808 0.08195683 0.029590858 -0.004631703 0.060886398 0.035097897
0.015422554 -0.006106612 -0.03493584 -0.03690488 0.029628148 -0.00024943033 -0.03859888 0.08382233
0.029300382 0.05227549 -0.03307466 0.0013569617 -0.06584384 0.007740452 0.01210428 0.019267818
0.056778867 0.038714997 -0.008550169 0.039515533 0.020107903 -0.039482683 -0.014446029 0.036256608
00000000: 77a4 b7bc 320c d33b 17de 35bc 3bab 6bbc
00000010: aa80 f53b 7eca 4b3c eb30 693c 57a9 a8bc
00000020: 50b3 d03c 9249 6f3b 9df1 2e3d 825b 9d3b
00000030: e203 843c e6d2 1ebc 3221 843d ac16 f83b
00000040: 86cf 8f3c b1f8 17bd e5d8 423c 98a5 31bd
00000050: 782f f93a 281a 153c c6d4 01bd f3e7 68bc
00000060: d639 693d 8285 623d 0e3a 1b3c fb85 91ba
00000070: 14c3 88bd 4a86 1b3d cc93 363d edcb 4b3c
00000080: 6cea d73c 6774 1a3c 41d7 c5bb 3a51 1bbc
00000090: 5d4d 07be 89c8 5f3d e55c 80bd cc47 7bbc
000000a0: 13ac 033c 5bb5 3abd 9154 023c 9ffe fcb9
000000b0: 4d95 093d 15e3 dc3c ead7 1a3d b432 8fbc
000000c0: 865c 903d 5af7 79bd 951f 683c 4e58 9cbc
000000d0: a074 07bc fa35 01bd 913e f1bb 3f9c ff3b
000000e0: 8da2 953c 5a55 99bc 1b03 dc3c 2c79 68bd
000000f0: 9f8a 843a c946 7bbd a65a b2bc a100 7dbc
00000100: e5bc 953d 171a 1bbd fa70 8bbc a9e7 f3bc
00000110: a3c6 403d 9d2d 78bd 7f45 563c de46 fb3b
00000120: b641 d6bc 9d4d bd3c 9ec0 02ba 4287 37bc
00000130: 5ba6 ec3c 6095 ddbc d1f1 623c 1328 0d3c
00000140: 3162 583b 10fb 233c beb3 fcbb d385 9d3d
00000150: 6943 61bd 3f83 5a3d a595 0639 6417 debc
00000160: 8f12 953c 64c4 e23c 366d 7a3d c940 82bc
00000170: ef81 fe3b fd14 1b3d 523a 05bd 6e6f 613c
00000180: ebbb 823c bbd1 19bd fab9 d73c 7298 80bc
00000190: b61a 5a3c d49d 05bc 62e1 d5bc 48ab c73c
000001a0: 60c6 c7bc 37ce 56bc d04e df3b 6ad8 49bc
000001b0: d23f 16bd 5b39 f63c 12c0 c03c 8453 8ebd
000001c0: 8d7f 083c c4f8 98bc 17de ca3c 27ae 4bbc
000001d0: 814b 4c3d 5603 433d 344b 4abd 34db f63c
000001e0: cce2 2fbc eec4 01bc 0d64 333d 721f 4b3c
000001f0: 74bb 4abd 2f0b 933c b2b4 433d 25f0 86bd
00000200: c11f f83c 88eb 013c 99c6 81bc ae69 45bc
00000210: dd14 243c 9e59 9c3c 0c31 fcbb 020c 923c
00000220: 3c1f d2bc 22c4 d53c 0172 613b 6f71 febc
00000230: eca7 30bd 8a5c b53b d7a5 c73c c36b 4ebb
00000240: 6074 143d 89bb 9a3c f417 373d 93f1 8d3d
00000250: 46c0 dd3c 4db2 a83b 2dfb 53bc 5155 04bd
00000260: cf21 35bd 3b31 8ebc 2eff 8a3d f75c 8bbd
00000270: 0cfa d63d c3ab cd3b 48aa e8bb 8708 11bd
00000280: 121b 2a3c d5a9 a93c c3d6 163c 724c 8fbc
00000290: 32ab f93d a02f 3abd fdf4 cb3d eeb5 533c
000002a0: ecf1 333d 5809 fabc 8153 133c 109e cdba
000002b0: 15ba 36bd f29d 84ba 13d2 21bd 9f0c 4c3d
000002c0: 95dd fcbd b3c8 6f3d c9c5 93bc 50a9 b5bb
000002d0: 798b 643d 31e4 dc3c 52a3 f6bb 9701 bfbc
000002e0: 77eb 463d e671 8c3c 71f3 80bd 7a19 6cbc
000002f0: d0d9 8fbb b44f c63d 3562 2a3d 3da1 46bd
00000300: 2bf9 30bd 5fc0 00bd f7b1 34bd 98e3 adbb
00000310: 3cd3 96bc 3ee8 b43c 0462 6d3a 4fae c3bc
00000320: 00b4 953c f5ae bbbc 72b0 50bc f052 7b3b
00000330: 8cc1 db3c e0fb b23b 60d0 6abd 8973 f63c
00000340: 08aa 263c 39a9 c0bd 24d3 34bd 4d73 54bd
00000350: b29c d1bb 286a 86bc b0c6 e6bb 31c0 783a
00000360: 4ecb a83b 21b3 c23c b4ae 6c3a 1cbc 2bbd
00000370: ea29 91ba 9225 1ebc e237 9cbc 6479 2bbd
00000380: af3b 1cbc acd7 823d 54ee adbc fcd8 a73d
00000390: 8768 f23c 8ac5 97bb 0464 793d d0c2 0f3d
000003a0: e1ae 7c3c f919 c8bb e218 0fbd 9229 17bd
000003b0: bbb6 f23c f9c5 82b9 dc19 1ebd 0bab ab3d
000003c0: 5b07 f03c d31e 563d 4b79 07bd 14dc b13a
000003d0: 23d9 86bd 9ea3 fd3b 0851 463c 8bd7 9d3c
000003e0: f590 683d 9e93 1e3d 0216 0cbc 0adb 213d
000003f0: 54b9 a43c 98b8 21bd 0aaf 6cbc cf81 143d

action_model._discrete_distribution.branches.2.bias f4 [2]
0.06673019 -0.066730194
00000000: d6a9 883d d7a9 88bd

action_model._discrete_distribution.branches.2.weight f4 [2, 128]
0.019931827 -0.055616 -0.040863547 -0.08059334 -0.016396482 -0.032026675 -0.010175525 -0.022285573
-0.067746945 -0.08548542 -0.058297228 -0.029010527 -0.07048879 -0.002951733 0.008324076 -0.06868314
0.015546791 -0.0085871965 -0.0066503603 0.04956312 -0.0139056435 -0.012187598 -0.0549217 0.029641116
0.06223283 -0.0013378499 0.05781048 0.021880947 0.02526618 0.010612837 -0.015753215 -0.06727248
0.03216903 0.004719508 -0.029627584 -0.016087024 -0.013497633 0.042061634 -0.02512298 -0.011583406
0.0126001155 -0.046726543 -0.009885568 -0.070666686 0.0037997907 -0.06574891 -0.028700616 -0.009967877
0.0040222965 -0.06306695 -0.010390335 -0.06853309 -0.0037835925 -0.0050605005 0.034870997 -0.022732908
0.035662796 -0.023352548 -0.022288322 -0.061507136 0.027543224 0.077886455 -0.017285226 -0.0188009
-0.005553582 -0.020962894 0.0036665578 -0.050561663 -0.026582617 0.022754915 -0.067154884 -0.032975037
-0.0022718771 -0.024508664 0.08990429 -0.035397783 0.008819496 0.06354614 -0.027286341 0.06342848
0.005750753 -0.009439024 -0.044743847 0.04616794 -0.022471907 0.024501001 -0.085550986 -0.029405892
-0.08464626 -0.0029759926 -0.06408083 0.008239965 -0.04238613 0.014901559 -0.016586212 0.07642655
-0.021601617 0.009825354 0.003568689 -0.001121386 -0.047630686 -0.03148349 0.086896986 0.0555615
-0.01034645 -0.008903529 -0.010189811 -0.05639309 -0.0016735089 0.023777537 0.026467875 -0.0024234785
0.03624853 -0.0069587557 0.05667691 -0.05872476 0.03721547 0.036344774 -0.04028085 0.042878795
0.025336012 -0.045072954 -0.008645957 -0.024413835 -0.028621376 0.004363392 0.048470937 0.009049791
-0.014759957 0.04988324 0.041871935 0.093354434 0.019166043 0.023711942 0.01333832 0.019809736
0.06312915 0.08797946 0.06511294 0.025399197 0.056173664 0.012809454 -0.010064112 0.08434137
-0.007468204 -0.015515701 0.00538635 -0.053796377 0.011802006 0.030705787 0.061587457 -0.01874006
-0.059709508 0.0068646274 -0.050865114 -0.02097065 -0.027075216 0.009845241 0.035726715 0.063250475
-0.02595245 -0.0038776686 0.02138058 0.013073648 -0.012702523 -0.040413693 0.029539466 0.017600534
0.0005110825 0.04719222 0.014394435 0.077292986 0.0084676165 0.04411259 0.046570968 0.005721278
-0.0076305196 0.08116889 -0.0015588283 0.079446115 -0.002528063 0.0118127195 -0.022805667 0.012219049
-0.041604627 0.010315186 0.04626114 0.054812472 -0.048027165 -0.074623756 0.036158886 0.011741403
-0.014827449 0.015879655 0.011396692 0.057637025 0.014891866 -0.02158778 0.060079914 0.02882343
0.0038640758 0.038670726 -0.07458288 0.04217717 0.014955958 -0.04157379 0.011211089 -0.07935186
0.001750009 -0.0010513783 0.039980043 -0.033177163 0.022803592 -0.013967211 0.09697357 0.026872566
0.09046294 0.01775015 0.057255566 -0.017725468 0.046144694 -0.027140629 0.025526369 -0.060935512
0.04480825 0.0039015557 -0.004404127 -0.015015383 0.043528367 0.031949148 -0.06797527 -0.031455383
0.007841369 -0.0019361884 0.010859905 0.037923224 0.011389436 -0.048833013 -0.022026002 -0.009140719
-0.031177174 -0.00044503622 -0.053798806 0.0587165 -0.042291354 -0.049629528 0.007471678 -0.04257523
-0.013631682 0.054517187 0.0067154155 0.042918544 0.027496291 -0.001866814 -0.0390975 0.01721689
00000000: 1248 a33c 9acd 63bd 8960 27bd 1f0e a5bd
00000010: ea51 86bc 672e 03bd 3fb7 26bc 3c90 b6bc
00000020: e9be 8abd fb12 afbd 13c9 6ebd 7ca7 edbc
00000030: 6d5c 90bd dd71 41bb b561 083c bfa9 8cbd
00000040: f8b7 7e3c 50b1 0cbc 44eb d9bb b302 4b3d
00000050: 7fd4 63bc 7eae 47bc 94f5 60bd edd1 f23c
00000060: dae7 7e3d cb5a afba afca 6c3d ac3f b33c
00000070: 05fb ce3c 77e1 2d3c e30c 81bc 27c6 89bd
00000080: acc3 033d 1aa6 9a3b 8cb5 f2bc efc8 83bc
00000090: 2d25 5dbc d248 2c3d b5ce cdbc 53c8 3dbc
000000a0: b770 4e3c 5564 3fbd 14f7 21bc b2b9 90bd
000000b0: e905 793b 5da7 86bd 8e1d ebbc 4e50 23bc
000000c0: 78cd 833b 3f29 81bd 393c 2abc 145b 8cbd
000000d0: 26f6 77bb 8ed2 a5bb e4d4 0e3d 5d3a babc
000000e0: 2713 123d d84d bfbc 0096 b6bc e8ee 7bbd
000000f0: 54a2 e13c ef82 9f3d bf99 8dbc 5804 9abc
00000100: d3fa b5bb 60ba abbc a24a 703b bf19 4fbd
00000110: cac3 d9bc 8468 ba3c 8088 89bd d510 07bd
00000120: c6e3 14bb 65c6 c8bc be1f b83d 44fd 10bd
00000130: a67f 103c 7b24 823d 9b87 dfbc cae6 813d
00000140: d070 bc3b 23a6 1abc 5345 37bd 981a 3d3d
00000150: 0117 b8bc 53b6 c83c 5b35 afbd a0e4 f0bc
00000160: 055b adbd df08 43bb cf3c 83bd eb00 073c
00000170: 149d 2dbd ab25 743c cfdf 87bc 8685 9c3d
00000180: e0f5 b0bc 86fa 203c abe0 693b 78fb 92ba
00000190: 6518 43bd d5f4 00bd 0cf7 b13d 7594 633d
000001a0: 2884 29bc 1be0 11bc 2af3 26bc 71fc 66bd
000001b0: a459 dbba 1cc9 c23c 28d3 d83c 39d3 1ebb
000001c0: 5779 143d 4606 e4bb 0c26 683d 6089 70bd
000001d0: 406f 183d 42de 143d 88fd 24bd ada1 2f3d
000001e0: 788d cf3c 6b9e 38bd c6a7 0dbc 86ff c7bc
000001f0: 6077 eabc c9fa 8e3b 7689 463d 9345 143c
00000200: bfd3 71bc 5e52 4c3d e881 2b3d 9c30 bf3d
00000210: 1b02 9d3c 8c3f c23c f888 5a3c 0748 a23c
00000220: db49 813d 932e b43d ef59 853d fa11 d03c
00000230: 5b16 663d bfde 513c f2e3 24bc 2bbb ac3d
00000240: d6b7 f4bb 9135 7ebc fb7f b03b 9759 5cbd
00000250: 335d 413c b48a fb3c 2143 7c3d c184 99bc
00000260: f591 74bd abf0 e03b f057 50bd a4ca abbc
00000270: d8cc ddbc ef4d 213c 2d56 123d 7789 813d
00000280: 3c9a d4bc 7c20 7ebb 5326 af3c db32 563c
00000290: 3e1e 50bc d488 25bd c0fc f13c ff2e 903c
000002a0: 2afa 053a a14c 413d a3d6 6b3c c94b 9e3d
000002b0: c2bb 0a3c 67af 343d 33c1 3e3d 8f79 bb3b
000002c0: 7009 fabb e03b a63d 9951 ccba a5b4 a23d
000002d0: dcad 25bb 238a 413c f3d2 babc 6832 483c
000002e0: 9d69 2abd 0701 293c 527c 3d3d 0b83 603d
000002f0: 22b8 44bd 57d4 98bd 571b 143d 035f 403c
00000300: d4ee 72bc 0d16 823c 31b9 3a3c cd14 6c3d
00000310: 03fd 733c dbd8 b0bc 5b16 763d 1d1f ec3c
00000320: 6f3c 7d3b 3265 1e3d e9be 98bd f8c1 2c3d
00000330: d609 753c 4749 2abd b7ae 373c 3a83 a2bd
00000340: 8f60 e53a 67ce 89ba 1dc2 233d c7e4 07bd
00000350: 99ce ba3c bbd6 64bc 149a c63d db23 dc3c
00000360: a244 b93d c368 913c d084 6a3d 0035 91bc
00000370: 3802 3d3d 0656 debc ad1c d13c 8497 79bd
00000380: db88 373d 3eb1 7f3b 7f50 90bb 1503 76bc
00000390: cd4a 323d 1cdd 023d 9e36 8bbd 5cd7 00bd
000003a0: 1679 003c b4c7 fdba beed 313c 6255 1b3d
000003b0: c29a 3a3c 2005 48bd e06f b4bc f4c2 15bc
000003c0: 4667 ffbc c053 e9b9 235c 5cbd b680 703d
000003d0: b339 2dbd 5548 4bbd fad4 f43b 5d63 2ebd
000003e0: 6b57 5fbc 6a4d 5f3d fd0c dc3b 5bcb 2f3d
000003f0: e73f e13c e2af f4ba b324 20bd 6f0a 8d3c

discrete_action_output_shape f4 [1, 3]
5.0 4.0 2.0
00000000: 0000 a040 0000 8040 0000 0040

network_body._body_endoder.seq_layers.0.bias f4 [128]
-0.012173228 0.04742351 0.0009881544 -0.027826374 -0.008144769 0.03422009 -0.0036980072 -0.058296323
0.011208442 0.06295418 -0.022362271 0.008733871 -0.0015203006 -0.06175435 -0.017024454 -0.036641646
-0.050643213 -0.064857595 -0.02769049 0.042734154 0.01843451 -0.038474236 -0.039697055 -0.014600633
0.015813805 -0.046598572 -0.036197435 -0.014311009 0.005760013 -0.04434069 0.011051861 -0.04829798
-0.023715824 0.03133675 -0.078561544 0.010213312 -0.021856463 0.06340415 0.046235763 0.0028950335
0.0033857862 -0.00010434513 0.0005336027 -0.054082733 -0.01940344 0.020673731 0.0006248689 -0.043955535
-0.013439003 -0.016286967 -0.031198112 -0.027635012 -0.04184322 0.027958918 -0.028287508 -0.01183703
0.028234923 -0.0075867875 -0.009521143 0.01938801 0.017778141 -0.038772125 -0.023349812 -0.046516318
-0.027414763 0.028903238 -0.032060884 -0.056726497 -0.024328401 0.010059949 -0.0026121694 -0.027852125
-0.036625635 -0.04477392 -0.018731918 -0.018720808 -0.048525736 0.017321674 0.008485016 0.02734632
-0.07341138 0.008440074 -0.0049078837 0.057069395 -0.051443294 -0.0013245856 -0.01441884 -0.043575212
-0.014397821 -0.018054383 0.007317557 0.0020933077 0.00082955405 -0.01898489 -0.028737962 -0.030209161
0.037046265 -0.023957225 -0.02027833 -0.069444604 -0.050207388 -0.001514229 -0.002517227 -0.000701944
-0.017391812 0.008963098 -0.03798869 -0.042769548 -0.021243254 -0.02459677 -0.023099087 0.0038409175
0.028718643 0.043782637 -0.042545073 -0.0020647098 -0.0695737 -0.037037924 -0.118037924 -0.03245409
0.026835304 -0.0199961 -0.041652195 -0.03811983 0.044478446 -0.04714477 0.013042689 -0.038256727
00000000: 3872 47bc 283f 423d f684 813a 23f4 e3bc
00000010: a371 05bc 5d2a 0c3d 445a 72bb 20c8 6ebd
00000020: 9da3 373c 1fee 803d 1531 b7bc 8318 0f3c
00000030: d344 c7ba 21f2 7cbd de76 8bbc 8d15 16bd
00000040: 426f 4fbd 0fd4 84bd 2bd7 e2bc 020a 2f3d
00000050: f803 973c 2997 1dbd 6199 22bd 7e37 6fbc
00000060: f48b 813c 25de 3ebd c343 14bd b978 6abc
00000070: 7ebe bc3b 959e 35bd dd12 353c 1ad4 45bd
00000080: b047 c2bc f75a 003d e0e4 a0bd bc55 273c
00000090: 530c b3bc 09da 813d b661 3d3d 9aba 3d3b
000000a0: 11e4 5d3b ddd3 dab8 79e1 0b3a db85 5dbd
000000b0: f7f3 9ebc f55b a93c 3ece 233a b80a 34bd
000000c0: 442f 5cbc 3f6c 85bc 2f93 ffbc d262 e2bc
000000d0: cc63 2bbd 1a0a e53c 34bb e7bc 1af0 41bc
000000e0: ed4c e73c 969a f8bb 91fe 1bbc 9bd3 9e3c
000000f0: 77a3 913c 85cf 1ebd 1b48 bfbc e587 3ebd
00000100: ed94 e0bc 7cc6 ec3c 4652 03bd 0b5a 68bd
00000110: 5b4c c7bc 7cd2 243c ee30 2bbb 242a e4bc
00000120: c304 16bd dc64 37bd ae73 99bc 615c 99bc
00000130: ecc2 46bd 2fe6 8d3c bd04 0b3c 6405 e03c
00000140: b558 96bd 3c48 0a3c 50d2 a0bb 99c1 693d
00000150: 34b6 52bd b89d adba 003d 6cbc ec7b 32bd
00000160: d7e4 6bbc c9e6 93bc 1ec8 ef3b e02f 093b
00000170: 6e76 593a 3386 9bbc e06b ebbc 3479 f7bc
00000180: d3bd 173d f141 c4bc be1e a6bc f938 8ebd
00000190: 43a6 4dbd 1879 c6ba 10f8 24bb aa02 38ba
000001a0: 4679 8ebc f5d9 123c 079a 1bbd 1f2f 2fbd
000001b0: 5506 aebc 2a7f c9bc 4c3a bdbc e7b7 7b3b
000001c0: 5c43 eb3c 6c55 333d be43 2ebd 1550 07bb
000001d0: a87c 8ebd 14b5 17bd debd f1bd 94ee 04bd
000001e0: b6d5 db3c dcce a3bc 7e9b 2abd 8a23 1cbd
000001f0: 082f 363d e01a 41bd 01b1 553c 16b3 1cbd

network_body._body_endoder.seq_layers.0.weight f4 [128, 27]
-0.0024195754 -0.027712919 -0.08849934 -0.1517874 -0.12827136 0.4013133 -0.034578227 -0.050842375
-0.27184808 -0.091712415 -0.06706547 0.03371033 0.1314564 -0.16160356 -0.60027754 0.259815
0.16807371 0.19799563 -0.074376285 0.12812999 0.26712763 -0.16085553 -0.22806077 0.06599474
0.065998234 -0.03276513 -0.029093595 -0.11386687 0.16523832 0.13032144 0.3579702 0.1771179
0.13673402 0.01894938 -0.07649553 -0.0090351 -0.1565393 -0.26585272 -0.3942003 0.4428241
-0.1705756 -0.050831508 -0.02330147 0.1754088 -0.16491812 -0.26525685 -0.077493295 -0.26290098
0.20641848 0.018691078 0.2863825 0.07091476 0.059175495 0.03641721 -0.11069523 0.08040888
0.017621577 0.3596359 -0.06776774 -0.0662867 0.1496249 0.13460511 -0.05984793 0.4309658
0.32946783 0.0006175388 0.09416357 0.07160683 -0.10588827 0.12936924 -0.12046735 -0.2651638
-0.19737391 0.04360597 0.11963493 0.23149905 0.052030053 0.19511388 0.027144821 -0.02511298
0.0056297127 -0.11234632 -0.09271961 -0.0944067 0.03164629 -0.16880406 -0.25010252 -0.12836029
-0.32679445 0.2540193 -0.034553405 -0.3630917 -0.027773915 0.24996303 0.16773252 -0.3875839
0.6362324 0.11770943 0.17482354 -0.0576425 0.32136193 0.20881706 0.07086729 0.08634989
-0.38809872 0.22230771 0.34098157 -0.08482406 0.122894384 0.20718437 0.021863852 0.016594289
-0.35253477 -0.08949105 -0.07670077 0.19992822 0.12839721 -0.13419491 -0.0018423755 0.16279653
-0.023295375 -0.120983735 0.17879622 -0.37216225 0.101025335 -0.11564304 -0.16200283 -0.2666405
-0.14406697 -0.13473973 0.17187499 -0.032866377 -0.08061268 0.2609063 -0.21788903 0.20085736
0.16569573 0.13640368 0.053979743 -0.18797307 0.041665234 -0.02890847 -0.114672005 0.052849803
-0.010598276 0.17416316 -0.43887755 0.060182907 0.05032734 -0.011512864 -0.23854612 -0.07048185
-0.37669852 0.09619667 0.008297941 0.10382456 -0.38123667 -0.14335833 0.17689556 -0.07322576
-0.42829013 0.15634646 0.039397284 -0.19100371 -0.35373706 0.32049882 0.21751599 -0.2180806
0.24327834 0.036933027 -0.20527126 -0.12532371 0.21961305 -0.14957057 -0.08140442 -0.11066415
0.0014771486 0.18414465 0.19199666 -0.14195663 -0.099124216 -0.054374862 -0.40597305 0.102759756
0.09112363 -0.1255726 -0.16325584 -0.04722626 -0.16973205 -0.0063341903 -0.018734992 -0.13970357
-0.33882475 0.21135247 0.12400805 -0.009661352 -0.4130379 0.024905799 -0.022121595 0.2228591
-0.09728472 -0.05834622 -0.02812737 -0.021262595 -0.2692448 0.0019542382 -0.15963471 0.30890742
-0.034628633 -0.2424473 0.03109866 -0.19770831 0.15445846 0.035351925 0.035117418 0.08950224
0.08729671 -0.12136716 -0.054633595 -0.16889627 -0.114378005 0.16969699 0.12932327 -0.1750658
0.2576885 0.20536014 -0.04067938 0.28545827 0.4159672 -0.055337016 0.037444446 0.3748279
-0.09279414 0.25816435 -0.35499585 0.15154423 0.10811325 0.28510776 -0.14901412 -0.21663655
0.086023614 0.19493078 -0.24721 -0.54451007 -0.031076418 0.3499359 -0.16354069 0.25962597
0.33149487 0.1588696 0.028321292 -0.13444354 -0.087871626 -0.03753118 -0.102467306 0.013203653
00000000: bd91 1ebb 3406 e3bc 243f b5bd 286e 1bbe
00000010: 9159 03be f078 cd3e e6a1 0dbd 1840 50bd
00000020: ac2f 8bbe b8d3 bbbd 9f59 89bd d813 0a3d
00000030: 829c 063e 677b 25be caab 19bf 7906 853e
00000040: 841b 2c3e 5ebf 4a3e 9852 98bd 8234 033e
00000050: f4c4 883e 50b7 24be c388 69be 4028 873d
00000060: 152a 873d bb34 06bd b155 eebc 0933 e9bd
00000070: 3c34 293e fc72 053e df47 b73e 655e 353e
00000080: 0104 0c3e bb3b 9b3c b0a9 9cbd f507 14bc
00000090: d74b 20be d91d 88be 9fd4 c9be d7b9 e23e
000000a0: 5fab 2ebe b334 50bd b9e2 bebc 5d9e 333e
000000b0: 4ce0 28be bfcf 87be ceb4 9ebd f59a 86be
000000c0: 5e5f 533e 081e 993c baa0 923e c23b 913d
000000d0: 0162 723d 362a 153d 2eb4 e2bd 69ad a43d
000000e0: 205b 903c 3222 b83e d0c9 8abd 52c1 87bd
000000f0: 4537 193e ecd5 093e 1a23 75bd 8da7 dc3e
00000100: 02b0 a83e 54e2 213a d4d8 c03d 9aa6 923d
00000110: f3db d8bd 5f79 043e 96b7 f6bd 8dc3 87be
00000120: 631c 4abe 2c9c 323d 2803 f53d 160e 6d3e
00000130: 771d 553d efcb 473e d15e de3c bcb9 cdbc
00000140: 7479 b83b d415 e6bd c7e3 bdbd 4d58 c1bd
00000150: 8a9f 013d f9da 2cbe 700d 80be e170 03be
00000160: 9a51 a7be d10e 823e df87 0dbd 28e7 b9be
00000170: 1f86 e3bc 4ff6 7f3e 13c2 2b3e 6671 c6be
00000180: 20e0 223f a411 f13d f104 333e 8b1a 6cbd
00000190: 8d89 a43e 24d4 553e df22 913d 36d8 b03d
000001a0: e0b4 c6be a2a4 633e 2395 ae3e 3db8 adbd
000001b0: 0db0 fb3d 2428 543e d21b b33c bff0 873c
000001c0: 707f b4be 1547 b7bd 4b15 9dbd fcb9 4c3e
000001d0: 8f7a 033e 646a 09be dd7b f1ba 22b4 263e
000001e0: f1d5 bebc 52c6 f7bd 5b16 373e 0d8c bebe
000001f0: 5fe6 ce3d 42d6 ecbd 12e4 25be 1b85 88be
00000200: 4b86 13be 36f9 09be ffff 2f3e e59e 06bd
00000210: 4318 a5bd 8395 853e 4d1e 5fbe 8dad 4d3e
00000220: 24ac 293e 68ad 0b3e dd19 5d3d 037c 40be
00000230: 2aa9 2a3d 75d1 ecbc 28d9 eabd 0979 583d
00000240: 64a4 2dbc d457 323e 8fb4 e0be 5a82 763d
00000250: 0a24 4e3d 74a0 3cbc 6f45 74be ca58 90bd
00000260: a1de c0be c202 c53d 16f4 073c f9a1 d43d
00000270: 7431 c3be 87cc 12be 1c24 353e 63f7 95bd
00000280: d848 dbbe 4919 203e 0c5f 213d 7a96 43be
00000290: 061d b5be 6c18 a43e 83bc 5e3e 8550 5fbe
000002a0: f51d 793e 1647 173d a132 52be dc54 00be
000002b0: 3ee2 603e 0729 19be 5cb7 a6bd e3a3 e2bd
000002c0: e29c c13a 6a90 3c3e c69a 443e 145d 11be
000002d0: a301 cbbd 2db8 5ebd b3db cfbe b573 d23d
000002e0: 079f ba3d 1b96 00be 8a2c 27be 5370 41bd
000002f0: 3dce 2dbe 0a8f cfbb 207a 99bc 740e 0fbe
00000300: 707a adbe c86c 583e eff7 fd3d a64a 1ebc
00000310: b479 d3be 3f07 cc3c 5938 b5bc 2d35 643e
00000320: 363d c7bd 72fc 6ebd 5f6b e6bc e52e aebc
00000330: 74da 89be ad12 003b 4877 23be 1d29 9e3e
00000340: c1d6 0dbd 1b44 78be 9ec2 fe3c 0c74 4abe
00000350: 5c2a 1e3e 2ecd 103d 48d7 0f3d f34c b73d
00000360: 9ec8 b23d 588f f8bd 7ac7 5fbd 25f3 2cbe
00000370: 043f eabd 0cc5 2d3e 526d 043e 7344 33be
00000380: bfef 833e ee49 523e 6c9f 26bd 9627 923e
00000390: a7f9 d43e 11a9 62bd 595f 193d 71e9 bf3e
000003a0: db0a bebd 1e2e 843e 04c2 b5be 692e 1b3e
000003b0: 7b6a dd3d a5f9 913e 2897 18be f9d5 5dbe
000003c0: 262d b03d ef9b 473e 9e24 7dbe 0365 0bbf
000003d0: f993 febc cc2a b33e 3677 27be b2ed 843e
000003e0: b2b9 a93e b6ae 223e 0e02 e83c 91ab 09be
000003f0: 0af6 b3bd 4bba 19bd 61da d1bd 2254 583c

network_body._body_endoder.seq_layers.2.bias f4 [128]
-0.025904892 -0.033304695 -0.07276364 -0.01891651 -0.03478679 -0.033351507 -0.0009170537 -0.00553286
-0.0483359 -0.061182663 -0.06003513 -0.042063836 -0.04494271 -0.04077214 -0.018172245 -0.047399558
-0.043056313 -0.02768654 -0.007109044 0.048739143 -0.042060997 -0.037751745 -0.0127842575 -0.02757834
0.051531404 0.007927314 0.04206446 -0.02096502 0.004730631 0.021100445 0.0048839403 -0.07205265
-0.02899358 -0.01902064 -0.050290063 -0.046883468 -0.011289621 -0.008314964 0.015644196 -0.05815885
-0.0110941725 -0.047711845 -0.04506706 -0.06592295 -0.005854321 -0.021282831 0.0027311824 -0.011708104
0.009530751 -0.012042995 -0.02781858 -0.021503901 -0.019750273 -0.008332308 -0.036050238 -0.03768411
-0.036979876 -0.02667269 -0.026972095 -0.044490553 -0.004666448 0.034921132 -0.02676647 -0.044707894
0.02449982 -0.0599681 -0.022302398 -0.08987714 -0.022431415 0.0014109693 -0.071170695 -0.046025705
-0.017662475 -0.04379707 0.05681006 -0.0572417 0.0030599101 1.0349072e-05 -0.04740426 0.020316832
-0.022625573 -0.05388187 -0.02235167 -0.0011088387 -0.02157789 -0.017164811 0.029159654 -0.081140906
-0.06253076 0.01127282 0.010063617 -0.009691017 -0.033593945 0.025790123 -0.026184997 0.03428475
-0.045941595 -0.030744852 0.007585885 -0.001967895 -0.02893462 -0.05622428 0.07171929 0.020074276
-0.008119363 -0.043532 -0.01613443 -0.035866253 0.009750056 -0.010010627 -0.0036601103 0.004753493
0.023448749 -0.05127989 0.03329589 -0.026940083 -0.0014302155 0.01076245 -0.0018609315 -0.0008195992
0.0024260064 -0.047598798 0.016811233 0.0076448857 -0.04206095 -0.054210875 0.0107945865 -0.022448799
00000000: 7f36 d4bc 816a 08bd 1a05 95bd ccf6 9abc
00000010: 987c 0ebd 979b 08bd 6f66 70ba fe4c b5bb
00000020: ddfb 45bd ac9a 7abd 65e7 75bd 214b 2cbd
00000030: d915 38bd b000 27bd f6dd 94bc 0a26 42bd
00000040: d15b 30bd e2ce e2bc fcf2 e8bb b2a2 473d
00000050: 2748 2cbd 93a1 1abd 1075 51bc f9eb e1bc
00000060: 9812 533d 91e1 013c c94b 2c3d d5be abbc
00000070: 6903 9b3b d7da ac3c 7609 a03b 5790 93bd
00000080: f283 edbc 2cd1 9bbc f4fc 4dbd e108 40bd
00000090: 1af8 38bc 7d3b 08bc 4228 803c f937 6ebd
000000a0: 55c4 35bc 7f6d 43bd 3d98 38bd 9d02 87bd
000000b0: 9bd5 bfbb 5559 aebc a3fd 323b 59d3 3fbc
000000c0: de26 1c3c fb4f 45bc cae3 e3bc f328 b0bc
000000d0: 53cb a1bc 3c84 08bc 6aa9 13bd a75a 1abd
000000e0: 3678 17bd af80 dabc 95f4 dcbc ba3b 36bd
000000f0: 01e9 98bb 7609 0f3d 5b45 dbbc a01f 37bd
00000100: d9b3 c83c 1ca1 75bd 85b3 b6bc 8211 b8bd
00000110: 16c2 b7bc 46f0 b83a f1c1 91bd 7385 3cbd
00000120: e5b0 90bc 8e64 33bd aab1 683d 4676 6abd
00000130: c688 483b eda0 2d37 f82a 42bd 7c6f a63c
00000140: 4459 b9bc 3cb3 5cbd d91a b7bc 7456 91ba
00000150: 1dc4 b0bc 389d 8cbc 3ae0 ee3c 342d a6bd
00000160: 2110 80bd a2b1 383c dee1 243c 12c7 1ebc
00000170: ce99 09bd cf45 d33c eb81 d6bc 2b6e 0c3d
00000180: 412d 3cbd a1dc fbbc 0493 f83b cdf7 00bb
00000190: 4c08 edbc 6e4b 66bd 90e1 923d cf72 a43c
000001a0: 1407 05bc 9c4e 32bd 5a2c 84bc 7ee8 12bd
000001b0: b3be 1f3c 9d03 24bc 76de 6fbb 30c3 9b3b
000001c0: 9717 c03c dd0a 52bd 4561 083d 73b1 dcbc
000001d0: 1276 bbba fd54 303c 80ea f3ba 5fda 56ba
000001e0: a2fd 1e3b f5f6 42bd b6b7 893c f381 fa3b
000001f0: 1a48 2cbd 390c 5ebd c7db 303c 8be6 b7bc

network_body._body_endoder.seq_layers.2.weight f4 [128, 128]
-0.06408634 -0.05251162 -0.17443162 0.14931704 -0.17478603 -0.12455579 -0.1400274 0.0064410153
0.076047465 -0.09923301 0.025854222 -0.04745879 -0.17753513 0.021142775 0.06693289 0.034338865
0.0798915 -0.09264667 0.019331101 -0.15454978 -0.17043787 0.0021968926 0.11851639 0.07736815
-0.009799374 0.008217827 0.077627674 0.026343942 0.06520365 -0.10093665 0.009841102 -0.08059055
0.10808944 -0.119968295 -0.06973294 -0.08262143 0.0783337 -0.17642316 -0.0901404 0.09333518
0.01561921 0.09101492 -0.046197142 0.010480072 0.13055563 -0.10455411 -0.065026164 -0.035161275
-0.14319982 -0.038799424 0.0634013 0.08142514 0.12388817 -0.17571846 -0.057630107 0.27103576
-0.07877909 0.022045746 0.0077702207 -0.106114306 0.12774698 0.28519022 -0.052287545 0.039393336
-0.034810893 0.0006409963 -0.1744025 -0.12761475 -0.076618604 -0.16863827 -0.05390715 -0.076869875
0.026791167 0.023247808 -0.12495906 0.043878444 -0.0573938 0.21836896 -0.10278123 -0.075040735
0.024549173 -0.08462548 -0.038906995 0.18274394 -0.0143852085 -0.02260842 0.002149408 0.007443567
0.023280954 0.060405754 -0.11030286 -0.07904915 0.022524394 0.13399409 0.07554719 0.0056454437
0.1701023 0.099057764 -0.08346144 0.040658914 0.13285358 0.042621993 0.097508974 -0.0009590354
0.09635549 -0.026584107 -0.09611279 0.16824082 -0.09678826 -0.09935248 0.20296727 -0.015249088
0.06410196 -0.07325838 0.06777122 0.027273802 -0.03510198 0.10060514 -0.114895694 -0.02288068
-0.007375167 0.13094932 0.17741476 0.061790887 0.17655246 0.014414159 -0.050343838 -0.08660138
-0.025983626 0.00064899895 -0.12013529 -0.26083404 0.13450958 0.025071174 0.1274301 0.13815494
-0.0048056655 0.003607119 -0.03864335 0.030120028 -0.11847686 0.11714392 -0.020773385 -0.0006399523
-0.23101483 -0.085856915 0.118163235 0.011390508 0.08683735 0.0062080766 -0.0543378 0.03190689
0.1265514 0.09249634 0.028264197 0.13066533 0.09479903 0.21290019 0.09866835 0.060477193
0.0889948 0.04452053 0.0022121905 0.103663 -0.052014973 -0.078004375 -0.001316449 -0.05368358
0.0014152353 -0.033728667 -0.041324683 0.09471177 -0.030573798 0.14099403 -0.031140808 -0.017211942
0.1340786 0.11093038 0.08135799 -0.054813217 0.05573043 -0.088042416 -0.09650299 0.2074541
0.18688907 -0.07431129 0.03215918 0.09288668 -0.15005443 0.052124828 -0.08926135 0.21916729
0.028747868 0.16860479 -0.061755642 0.053101327 0.07578589 -0.005439282 -0.17319645 0.026228186
-0.08202967 0.12800255 0.11737087 0.17287543 -0.02486766 -0.02327593 -0.012104289 -0.04855191
0.027172634 0.037853703 -0.022082277 0.0009699941 0.10830604 0.27313545 -0.09071976 -0.016338712
0.11604002 0.2250145 -0.045815475 0.06491731 0.019497536 -0.037021577 0.04513573 -0.053511847
0.14137796 0.042382013 -0.05057787 0.04663694 0.14418678 -0.13197641 0.0021292863 0.1064644
0.01658862 9.267851e-05 0.08636262 -0.047295287 0.105352305 0.11604417 0.033737082 0.025167966
-0.019265318 0.06369818 0.1390469 0.059320368 0.1147104 0.23188765 -0.0032509998 -0.03754885
-0.018479912 0.0277587 0.038573965 0.017591475 -0.07010026 0.19190376 0.111483745 -0.006082297
00000000: b33f 83bd 6d16 57bd 349e 32be 91e6 183e
00000010: 1cfb 32be 1b17 ffbd 5863 0fbe 270f d33b
00000020: c6be 9b3d ad3a cbbd 3ccc d33c 2664 42bd
00000030: c5cb 35be 9d33 ad3c 1c14 893d e9a6 0c3d
00000040: 289e a33d 8abd bdbd 425c 9e3c 4c42 1ebe
00000050: 4487 2ebe bef9 0f3b b9b8 f23d 3173 9e3d
00000060: 8e8d 20bc 11a4 063c 42fb 9e3d 40cf d73c
00000070: 7e89 853d e0b7 cebd 933c 213c a90c a5bd
00000080: ff5d dd3d f0b1 f5bd 25d0 8ebd 6d35 a9bd
00000090: 6b6d a03d 46a8 34be 889b b8bd 8426 bf3d
000000a0: b7e7 7f3c 0866 ba3d 3739 3dbd 9cb4 2b3c
000000b0: 60b0 053e 7720 d6bd 702c 85bd 4505 10bd
000000c0: f9a2 12be 25ec 1ebd 8ad8 813d 39c2 a63d
000000d0: 15b9 fd3d 8aef 33be 8c0d 6cbd 33c5 8a3e
000000e0: ee56 a1bd 4899 b43c 569d fe3b 7552 d9bd
000000f0: 1bd0 023e 7404 923e 772b 56bd e85a 213d
00000100: de95 0ebd 8908 283a 9296 32be 71ad 02be
00000110: 37ea 9cbd 83af 2cbe becd 5cbd f46d 9dbd
00000120: 2679 db3c 3072 be3c 89ea ffbd e2b9 333d
00000130: c315 6bbd 1d9c 5f3e f77e d2bd f5ae 99bd
00000140: 591b c93c 2050 adbd f15c 1fbd 3a21 3b3e
00000150: f0af 6bbc 4b35 b9bc 15dd 0c3b 2ae9 f33b
00000160: b3b7 be3c 066c 773d 77e6 e1bd 85e4 a1bd
00000170: 1485 b83c bf35 093e 7cb8 9a3d 6afd b83b
00000180: 4c2f 2e3e ccde ca3d d5ed aabd f689 263d
00000190: c50a 083e 6694 2e3d c9b2 c73d c767 7bba
000001a0: 0756 c53d eac6 d9bc c8d6 c4bd 5247 2c3e
000001b0: ec38 c6bd 5079 cbbd a7d6 4f3e 50d7 79bc
000001c0: e347 833d 7d08 96bd a3cb 8a3d 4f6d df3c
000001d0: 18c7 0fbd 110a ce3d 6f4e ebbd 4470 bbbc
000001e0: 63ab f1bb 9417 063e 37ac 353e 7118 7d3d
000001f0: 2bca 343e 5d29 6c3c 5735 4ebd 105c b1bd
00000200: 9ddb d4bc 9521 2a3a 7e09 f6bd 0a8c 85be
00000210: e1bc 093e 1062 cd3c 097d 023e 7d78 0d3e
00000220: d878 9dbb 6a65 6c3b 7d48 1ebd 47be f63c
00000230: ffa3 f2bd 27e9 ef3d f22c aabc 79c2 27ba
00000240: 278f 6cbe c0d5 afbd 91ff f13d 419f 3a3c
00000250: c8d7 b13d 1f6d cb3b 5091 5ebd cdb0 023d
00000260: b196 013e b96e bd3d 518a e73c 22cd 053e
00000270: fe25 c23d 8202 5a3e a212 ca3d efb6 773d
00000280: e842 b63d 295b 363d 66fa 103b 444d d43d
00000290: a70d 55bd c2c0 9fbd b38c acba 50e3 5bbd
000002a0: 6b7f b93a 1227 0abd 1244 29bd 3ff8 c13d
000002b0: e775 fabc bd60 103e 021b ffbc 0f00 8dbc
000002c0: e74b 093e 782f e33d 059f a63d d383 60bd
000002d0: 9745 643d 954f b4bd 5ca3 c5bd d96e 543e
000002e0: d95f 3f3e 8530 98bd 58b9 033d 5f3b be3d
000002f0: dea7 19be d880 553d a8ce b6bd 646d 603e
00000300: a680 eb3c bca6 2c3e 7cf3 7cbd c780 593d
00000310: a235 9b3d 013c b2bb 695a 31be 7edc d63c
00000320: 2cff a7bd 1a13 033e 2460 f03d 4206 313e
00000330: 43b7 cbbc 2aad bebc 1151 46bc 5ede 46bd
00000340: 2599 de3c 7c0c 1b3d e4e5 b4bc 3447 7e3a
00000350: 8fcf dd3d 69d8 8b3e 48cb b9bd c3d8 85bc
00000360: 64a6 ed3d 336a 663e 02a9 3bbd 5ef3 843d
00000370: 4cb9 9f3c f0a3 17bd 3ee0 383d 3d2f 5bbd
00000380: 62c5 103e c398 2d3d be2a 4fbd 6006 3f3d
00000390: b3a5 133e d324 07be 7f8b 0b3b 020a da3d
000003a0: dce4 873c 655c c238 e3de b03d b4b8 41bd
000003b0: f3c2 d73d 91a8 ed3d e52f 0a3d 0d2d ce3c
000003c0: 4dd2 9dbc 3174 823d 5062 0e3e eaf9 723d
000003d0: 49ed ea3d f573 6d3e ba0e 55bb d3cc 19bd
000003e0: 2f63 97bc 3766 e33c bcff 1d3d ff1b 903c
000003f0: ba90 8fbd 6b82 443e 9751 e43d 014e c7bb
