results/Shooter/Shooter/Shooter-100024.onnx (onnx, 81200 bytes, 9 tensors)

action_model._continuous_distribution.log_sigma f4 [1, 3]
0.62768763 0.5911451 0.66216546
00000000: 23b0 203f 4955 173f ad83 293f

action_model._continuous_distribution.mu.bias f4 [3]
0.02902058 -0.048719857 0.013659514
00000000: 91bc ed3c 798e 47bd 27cc 5f3c

action_model._continuous_distribution.mu.weight f4 [3, 128]
0.005142868 -0.066916935 -0.0023515504 -0.023859723 -0.01529401 -0.037404336 -0.0067366734 -0.0103432685
-0.03656363 -0.020304013 0.03271372 -0.02081165 -0.022523109 -0.015850835 -0.021482727 0.036461625
0.00025559726 -0.007390017 0.014137776 0.033388533 -0.041520737 0.038639754 -0.007868916 -0.021062177
0.007707081 0.0046716626 0.037823383 -0.086561315 0.00040480046 -0.032143928 -0.0020976 0.029739073
0.0011970531 0.019598044 0.007726471 0.018246619 -0.05826222 -0.068240374 -0.04386761 -0.05308237
0.013885238 0.0019323123 -0.009200141 0.013394075 -0.02946204 0.0142103685 0.023374181 0.027079325
0.007525671 0.0013793181 -0.029318893 0.015823603 0.015458414 -0.033070136 0.006327633 0.0021849235
-0.0005001113 0.024613472 0.015273969 -0.025908383 0.008864232 0.009617946 0.03144205 0.019712072
0.012163743 0.00905962 8.069827e-05 0.035840955 0.011617873 0.0054532946 0.011080591 0.026744733
0.025356438 -0.01081378 -0.04491265 -0.026849717 0.0021329082 0.01605405 0.027410928 0.007114957
0.04952181 0.04431487 -0.029939452 -0.021672323 0.03289047 -0.020235267 0.026647765 0.019489625
0.045503333 0.0075812894 0.010209074 0.011002322 -0.013227469 0.013119144 0.03505277 0.031536285
0.044099633 0.04756858 -0.015716257 0.015504155 0.023146804 0.029840203 0.032860797 0.0012863061
-0.0021845563 -0.019468004 -0.046501834 0.059795767 -0.015611291 -0.06525898 -0.023434598 -0.03509624
-0.010020606 0.07467407 0.030070364 -0.0462552 -0.023379188 0.053138826 -0.009857257 -0.0030237143
0.02143167 0.0050400407 0.03191535 -0.040766116 0.013021508 0.016295256 0.035129275 0.0058331103
-0.009535871 0.01781158 -0.0050639943 -0.027255816 0.028089993 -0.050580043 0.035714023 -0.00035787266
-0.026555477 0.0065299915 -0.011211102 0.013346223 0.048422713 0.035950918 0.022108303 -0.010598769
-0.00542107 0.049921557 0.017839212 0.08256046 0.012931636 -0.017831627 0.00031641012 -0.0074413097
0.0181888 0.018133841 -0.00044223928 -0.056933805 0.040265653 -0.0033408077 -0.017523488 0.004609321
-0.030415596 0.02642969 -0.009575312 0.014975094 0.06646569 0.04974826 -0.0021314442 -0.0362591
-0.008386745 0.009863126 -0.021429202 -0.03966941 0.022845313 0.019884342 0.005999245 -0.0154519435
-0.012605052 0.0008611676 -0.006251792 0.03553222 0.015519981 -0.006997177 -0.027596856 -0.012745565
-0.017976323 0.016543437 -0.012298901 -0.017766694 0.010787155 0.026442425 -0.025049577 -0.013073894
-0.011350839 0.0059881895 -0.0011270681 0.019919954 0.018093865 0.020270398 -0.0014367639 0.023202669
0.005488751 0.050565228 0.04859578 0.013248909 -0.026965924 -0.00382792 -0.023371484 0.022943506
0.015274429 -0.012235741 -0.0047518206 -0.026405407 0.018088646 -0.056123745 0.008627321 -0.009750402
0.0012209994 -0.019835476 -7.595663e-05 0.0014452499 0.0340684 0.08926742 0.0037548586 0.014552412
-0.01905403 -0.004691846 0.006599905 -0.021948023 -0.0104465885 0.098533936 -0.010883527 0.010582779
-0.025981713 -0.025874007 0.006811048 0.08818369 0.042468116 0.057055403 0.018879598 -0.018225787
0.00093390327 0.031189153 0.005009474 0.029235275 -0.0018664416 0.010899906 -7.955212e-05 -0.014319614
0.014455841 -0.018042099 -0.00097394106 0.0059117833 -0.006530771 0.01766635 0.0147162955 0.00756131
00000000: 8185 a83b bf0b 89bd 781c 1abb 7775 c3bc
00000010: ba93 7abc 4a35 19bd 50bf dcbb d076 29bc
00000020: bfc3 15bd 9a54 a6bc d2fe 053d 327d aabc
00000030: 6282 b8bc 9cd9 81bc 8bfc afbc c958 153d
00000040: af01 8639 f527 f2bb 21a2 673c 6ac2 083d
00000050: a611 2abd b844 1e3d a0ec 00bc 968a acbc
00000060: ae8b fc3b bf14 993b b1ec 1a3d 0f47 b1bd
00000070: 663b d439 5aa9 03bd e377 09bb 5b9f f33c
00000080: 70e6 9c3a 148c a03c 562e fd3b ef79 953c
00000090: 5ea4 6ebd 9cc1 8bbd 86ae 33bd e66c 59bd
000000a0: e97e 633c a445 fd3a 30bc 16bc d372 5b3c
000000b0: 605a f1bc 9bd2 683c 367b bf3c 76d5 dd3c
000000c0: e799 f63b 3cca b43a 2d2e f0bc 80a0 813c
000000d0: 4a45 7d3c 8d74 07bd 0858 cf3b ef30 0f3b
000000e0: e719 03ba 31a2 c93c ab3f 7a3c d13d d4bc
000000f0: 493b 113c 9794 1d3c 61c9 003d 367b a13c
00000100: 704a 473c cd6e 143c 8e3c a938 f7cd 123d
00000110: e458 3e3c 8db1 b23b 5e8b 353c c517 db3c
00000120: 4eb8 cf3c 482c 31bc 54f6 37bd f0f3 dbbc
00000130: 43c8 0b3b c883 833c e28c e03c 9624 e93b
00000140: 62d7 4a3d 8283 353d 9543 f5bc 288a b1bc
00000150: 28b8 063d 6ec4 a5bc 6a4c da3c b5a8 9f3c
00000160: b461 3a3d 776c f83b f643 273c 1543 343c
00000170: 07b8 58bc aef1 563c 7e93 0f3d 312c 013d
00000180: d1a1 343d 45d7 423d 61bf 80bc 2405 7e3c
00000190: 5e9e bd3c 7173 f43c 0b99 063d 4599 a83a
000001a0: c62a 0fbb 5d7b 9fbc b578 3ebd 68ec 743d
000001b0: 80c6 7fbc 80a6 85bd eaf9 bfbc 13c1 0fbd
000001c0: 782d 24bc b8ee 983d 2056 f63c 1876 3dbd
000001d0: b685 bfbc 19a8 593d 5580 21bc 8229 46bb
000001e0: 7891 af3c ed26 a53b acb9 023d 5ffa 26bd
000001f0: 2a58 553c a17d 853c b7e3 0f3d ad23 bf3b
00000200: 583c 1cbc 97e9 913c ddef a5bb 9747 dfbc
00000210: fc1c e63c 052d 4fbd de48 123d dba0 bbb9
00000220: df8a d9bc 8af9 d53b c5ae 37bc 1eaa 5a3c
00000230: e556 463d 4541 133d 791c b53c 76a6 2dbc
00000240: 3ba3 b1bb 8c7a 4c3d 8a23 923c 7515 a93d
00000250: 36df 533c a213 92bc d9e3 a539 3bd6 f3bb
00000260: ae00 953c 6c8d 943c 5adc e7b9 6c33 69bd
00000270: 99ed 243d 74f1 5abb 6b8d 8fbc c909 973b
00000280: 212a f9bc 1483 d83c c5e1 1cbc 195a 753c
00000290: 2a1f 883d d5c4 4b3d b3af 0bbb 6c84 14bd
000002a0: 8f68 09bc f398 213c 4b8c afbc 647c 22bd
000002b0: 1826 bb3c 7de4 a23c 5195 c43b 262a 7dbc
000002c0: 6c85 4ebc fbbf 613a d5db ccbb 3c8a 113d
000002d0: 8547 7e3c 9348 e5bb cd12 e2bc c6d2 50bc
000002e0: 1543 93bc 1a86 873c 5481 49bc 758b 91bc
000002f0: 9bbc 303c c99d d83c c534 cdbc e333 56bc
00000300: dff8 39bc 9338 c43b 21ba 93ba 2c2f a33c
00000310: 9639 943c 1b0e a63c cc51 bcba 8613 be3c
00000320: fbda b33b 7c1d 4f3d 5e0c 473d f411 593c
00000330: a4e7 dcbc d7dd 7abb 8e75 bfbc 05f4 bb3c
00000340: 9941 7a3c 6b78 48bc 29b5 9bbb 2750 d8bc
00000350: a42e 943c 03e2 65bd 9b59 0d3c 26c0 1fbc
00000360: f109 a03a 027e a2bc e84a 9fb8 8a6e bd3a
00000370: 4e8b 0b3d d6d1 b63d 1314 763b 3d6d 6e3c
00000380: 3217 9cbc 0fbe 99bb 0444 d83b 57cc b3bc
00000390: 2b28 2bbc 29cc c93d d250 32bc 6463 2d3c
000003a0: 9ad7 d4bc baf5 d3bc 362f df3b a799 b43d
000003b0: 0cf3 2d3d edb2 693d 63a9 9a3c 3f4e 95bc
000003c0: 30d1 743a 6580 ff3c 8426 a43b d17e ef3c
000003d0: 63a3 f4ba 8595 323c 38d5 a6b8 d09c 6abc
000003e0: 31d8 6c3c 06cd 93bc 1450 7fba a2b7 c13b
000003f0: 1400 d6bb 05b9 903c 9e1c 713c dec4 f73b

action_model._discrete_distribution.branches.0.bias f4 [2]
0.00049121864 -0.00049073837
00000000: 20c5 003a e5a4 00ba

action_model._discrete_distribution.branches.0.weight f4 [2, 128]
0.010879552 -0.056638844 -0.025378732 0.020123402 -0.018359972 -0.049498625 -0.042211764 -0.019591762
-0.05175659 -0.08492551 -0.022098733 -0.04407993 -0.0400834 0.057110958 -0.09583296 0.018196901
-0.07216118 -0.0011163482 -0.03955716 0.0340162 -0.002853112 -0.0044977264 -0.0075666457 0.058437377
-0.07688193 0.055020966 -0.025435595 -0.0063839327 0.0039211586 0.04384056 0.025477352 -0.0013409329
-0.025266195 -0.02381339 0.004099301 0.029775327 0.06741311 0.020661386 -0.013850056 0.014822559
0.0111985 0.0077860905 -0.038035773 0.03261887 -0.004915573 -0.0075370288 0.007605367 0.0622482
0.05997433 0.0328293 -0.011421181 -0.024989225 -0.025842134 -0.051855505 0.00645306 0.018421536
-0.049067717 0.008540399 0.024433022 0.062014863 -0.0022642235 -0.0011281102 0.0039228643 -0.022358285
-0.045856737 0.024639921 0.001379605 -0.059559487 0.034211192 -0.04697056 -0.021495301 -0.04154629
-0.036115106 0.027843175 -0.030481499 0.046311285 -0.027361521 -0.014281082 0.0070287166 0.02274825
0.037299868 0.0391289 -0.016461892 0.032202896 -0.008435711 0.01275573 0.07182212 -0.010654517
-0.047705 -0.024656951 0.051454306 -0.052177925 -0.004874589 0.010817885 0.025798986 0.029996058
-0.05672533 0.053625748 -0.0105744675 -0.029298747 0.056166075 -0.07673567 0.022215651 0.043325722
-0.09507977 -0.054482177 0.053293467 0.02529693 -0.01759139 -0.049913187 -0.02676935 0.08437624
-0.011819491 0.083937 0.022116456 0.0415596 0.034295835 0.014151504 0.010792863 0.031496182
-0.05706472 0.028265454 -0.00051514374 0.035440855 0.112722285 -0.027844368 -0.018731771 0.024001664
-0.008496507 0.054231845 0.016333625 -0.02378464 0.003553301 0.050170768 0.046753943 0.0047169845
0.046691235 0.08182125 0.028905384 0.025668764 0.03826228 -0.056891706 0.09085583 0.008528735
0.08251304 0.018119177 0.04681953 -0.050517205 -0.0057020704 -0.0076247714 0.014169307 -0.063867636
0.065462865 -0.049607307 0.016007096 0.019702785 0.00048426798 -0.05738314 -0.032707088 -0.018727684
0.004524144 0.022066215 -0.015822666 -0.030621272 -0.05232865 -0.03875473 0.011528158 -0.0262832
-0.02242039 -0.008990535 0.027838657 -0.024229802 0.0071563325 0.00429485 0.001222778 -0.071523964
-0.047241766 -0.034443527 0.013628703 0.036649622 0.0066895727 0.048912924 0.0006181369 -0.01970927
0.049702764 0.0047729868 0.0029542828 -0.06247641 0.008181333 -0.003654932 -0.005199407 0.011973524
0.036591176 -0.038454223 -0.024317432 0.07014573 -0.04389107 0.042594522 0.021252694 0.03159554
0.0056833387 -0.014518813 0.028313948 -0.03341358 0.011344817 0.0049091037 -0.021284837 -0.039640468
-0.037167016 -0.041842338 0.031574145 -0.0068591028 0.0037836805 -0.02755228 -0.09817445 0.027794458
0.03857826 0.052299973 -0.04139704 0.03360275 -0.0021433854 -0.00526183 -0.0264065 -0.025978087
0.031429052 -0.029004652 -0.008654761 0.04419111 -0.040018044 0.05902656 -0.030697936 -0.04425549
0.09300554 0.038534403 -0.047135655 -0.006541314 0.014003155 0.040010337 0.030254856 -0.050958395
-0.0076901414 -0.067088634 -0.01578365 -0.069359824 -0.038679592 -0.024769623 0.00086053775 -0.048575964
0.05423336 -0.034100763 0.019363059 -0.024265522 -0.09876293 0.022580435 0.016595129 -0.013578406
00000000: 2640 323c 22fe 67bd 0fe7 cfbc d5d9 a43c
00000010: a767 96bc 12bf 4abd 3ee6 2cbd e77e a0bc
00000020: b8fe 53bd 6ded adbd 6708 b5bc 288d 34bd
00000030: 7e2e 24bd 2eed 693d 1244 c4bd ab11 953c
00000040: 3ec9 93bd 6e52 92ba b006 22bd 9254 0b3d
00000050: 47fb 3abb aa61 93bb a0f1 f7bb 085c 6f3d
00000060: 4674 9dbd aa5d 613d 4f5e d0bc 4f30 d1bb
00000070: 107d 803b 2992 333d e1b5 d03c 3ec2 afba
00000080: 0dfb cebc 4c14 c3bc 6e53 863b 63eb f33c
00000090: e20f 8a3d 1142 a93c 58eb 62bc 52da 723c
000000a0: ea79 373c 7622 ff3b 66cb 1bbd 5d9b 053d
000000b0: d112 a1bb 2ef9 f6bb 7136 f93b f8f7 7e3d
000000c0: a5a7 753d 0478 063d e81f 3bbc 34b6 ccbc
000000d0: e2b2 d3bc 7066 54bd 3174 d33b c3e8 963c
000000e0: 3bfb 48bd 08ed 0b3c c327 c83c 4c03 7e3d
000000f0: 5e63 14bb 19dd 93ba 5f8b 803b b928 b7bc
00000100: 46d4 3bbd a9d9 c93c ddd3 b43a a6f4 73bd
00000110: 0921 0c3d 3464 40bd ea16 b0bc 712c 2abd
00000120: 6fed 13bd 5f17 e43c 56b4 f9bc e7b0 3d3d
00000130: 4525 e0bc 33fb 69bc 2651 e63b 8a5a ba3c
00000140: bfc7 183d a045 203d 17db 86bc 2fe7 033d
00000150: f035 0abc 69fd 503c 7a17 933d 4990 2ebc
00000160: 5166 43bd 60fd c9bc c0c1 523d 85b8 55bd
00000170: 04bb 9fbb 803d 313c 6558 d33c 4bba f53c
00000180: d258 68bd aca6 5b3d 8840 2dbc ed03 f0bc
00000190: 660e 663d 9727 9dbd 99fd b53c 5076 313d
000001a0: 2fb9 c2bd b428 5fbd 404a 5a3d 823b cf3c
000001b0: d21b 90bc c571 4cbd 654b dbbc 73cd ac3d
000001c0: 8aa6 41bc 29e7 ab3d 922d b53c 663a 2a3d
000001d0: ca79 0c3d b6db 673c 8cd4 303c 2402 013d
000001e0: b2bc 69bd f48c e73c b60a 07ba 6e2a 113d
000001f0: f1da e63d df19 e4bc 5f73 99bc 239f c43c
00000200: ef34 0bbc 3622 5e3d 18ce 853c 01d8 c2bc
00000210: 80de 683b dd7f 4d3d 1081 3f3d ef90 9a3b
00000220: 4f3f 3f3d e691 a73d fcca ec3c 4d47 d23c
00000230: e9b8 1c3d 4707 69bd 9f12 ba3d 1bbc 0b3c
00000240: 99fc a83d ab6e 943c d6c5 3f3d 21eb 4ebd
00000250: 6fd8 babb 38d9 f9bb 6226 683c 09cd 82bd
00000260: 6511 863d 0831 4bbd 5021 833c bc67 a13c
00000270: 59e5 fd39 950a 6bbd def7 05bd cd6a 99bc
00000280: 453f 943b 35c4 b43c 899e 81bc 76d9 fabc
00000290: 9156 56bd 48bd 1ebd 99e0 3c3c de4f d7bc
000002a0: f7aa b7bc 094d 13bc e50d e43c 947d c6bc
000002b0: ab7f ea3b d0bb 8c3b 9f45 a03a 287b 92bd
000002c0: 9580 41bd a814 0dbd ec4a 5f3c ea1d 163d
000002d0: 3434 db3b eb58 483d 770a 223a 5675 a1bc
000002e0: 2095 4b3d b766 9c3b a49c 413b 44e7 7fbd
000002f0: ff0a 063c 9587 6fbb ca5f aabb 992c 443c
00000300: a1e0 153d 2d82 1dbd 5a35 c7bc 91a8 8f3d
00000310: 1fc7 33bd 9877 2e3d 211a ae3c 536a 013d
00000320: 4d3b ba3b 51e0 6dbc a7f2 e73c aedc 08bd
00000330: 9cdf 393c 8cdc a03b 8a5d aebc 0b5e 22bd
00000340: 713c 18bd df62 2bbd e453 013d 53c2 e0bb
00000350: a0f7 773b 52b5 e1bc b00f c9bd 34b1 e33c
00000360: 3d04 1e3d 7f38 563d f18f 29bd 0aa3 093d
00000370: 0a78 0cbb 6e6b acbb 7252 d8bc ffcf d4bc
00000380: c0bb 003d 2a9b edbc b3cc 0dbc bd01 353d
00000390: f6e9 23bd d6c5 713d 3d7a fbbc 3f45 35bd
000003a0: b079 be3d 40d6 1d3d 5111 41bd 8558 d6bb
000003b0: 7d6d 653c e1e1 233d 08d9 f73c c0b9 50bd
000003c0: 95fd fbbb c465 89bd b74c 81bc 860c 8ebd
000003d0: 7e6e 1ebd aae9 cabc b695 613a 97f7 46bd
000003e0: cd23 5e3d 3ead 0bbd 479f 9e3c 7dc8 c6bc
000003f0: 3844 cabd 9bfa b83c 82f2 873c f677 5ebc

network_body._body_endoder.seq_layers.0.bias f4 [128]
-0.032155287 -0.050615452 0.015662134 0.011937443 -0.0033561764 -0.039675217 0.004355105 -0.07206479
0.021770772 -0.0128985485 0.021257775 -0.070838876 -0.05532001 -0.030078026 -0.09955592 -0.019039864
-0.012378756 -0.056309275 -0.05144191 0.010049349 -0.016699659 0.0034174183 -0.014321807 0.030077793
-0.049997516 0.017442672 -0.009564516 -0.028964214 -0.016002323 -0.016838625 0.026285103 -0.047416076
-0.006361019 -0.00610658 -0.031140456 0.0013484354 -0.024096867 -0.019505264 -0.07488856 0.03234713
-0.020340228 -0.02033329 0.013385864 -0.011093984 0.016247751 -0.02721243 -0.033352297 -0.06526071
0.0073248628 0.0070032394 0.044597182 0.022169484 -0.007232592 -0.00787248 0.006096726 -0.019531077
-0.025799733 0.027988838 -0.04307137 -0.01756228 0.0006999747 -0.017886778 0.003036071 0.0061826757
-0.014042229 -0.08961071 0.012006669 0.033610415 -0.023028031 0.022920843 0.0010292429 0.0031955438
-0.016412372 -0.0381018 -0.094459616 -0.076471336 -0.05441186 -0.013032185 0.026578728 -0.068135716
-0.0156031735 -0.017927542 -0.027227927 -0.05591757 -0.035604563 -0.020871531 0.014245162 -0.020679545
-0.023538215 -0.022760803 -0.055179466 -0.034621723 -0.038187332 0.027714016 -0.04820347 -0.0009488729
-0.04448909 -0.036976464 -0.09189098 -0.02295829 -0.044789884 0.021739643 -0.015458907 0.043844853
0.005113935 0.022486933 -0.004108925 0.008008308 0.0045073354 0.011057274 0.026045648 0.012592235
-0.005978814 -0.072901264 0.058584064 -0.015536461 0.010192879 0.005400358 -0.08679523 -0.014108681
0.028081987 -0.0042736544 -0.00035209046 0.013279601 -0.019176856 0.021323081 -0.033478457 -0.03910755
00000000: 43b5 03bd 2652 4fbd e04d 803c 4495 433c
00000010: 4cf3 5bbb 7b82 22bd 45b5 8e3b b496 93bd
00000020: 9e58 b23c 6f54 53bc c924 ae3c f913 91bd
00000030: 3c97 62bd 3166 f6bc f9e3 cbbd 7df9 9bbc
00000040: 44d0 4abc 8ea4 66bd c1b4 52bd 06a6 243c
00000050: b9cd 88bc c4f6 5f3b 03a6 6abc b465 f63c
00000060: 32ca 4cbd efe3 8e3c 7db4 1cbc 5c46 edbc
00000070: 4e17 83bc 28f1 89bc db53 d73c 5c37 42bd
00000080: 1870 d0bb b519 c8bb 451a ffbc fcbd b03a
00000090: cb66 c5bc 81c9 9fbc 2c5f 99bd 6d7e 043d
000000a0: 8da0 a6bc 0092 a6bc 6250 5b3c 8bc3 35bc
000000b0: 011a 853c 9aec debc 6b9c 08bd 68a7 85bd
000000c0: 6705 f03b 6e7b e53b 89ab 363d c79c b53c
000000d0: 61ff ecbb 93fb 00bc 0bc7 c73b a3ff 9fbc
000000e0: f659 d3bc d948 e53c 9b6b 30bd c5de 8fbc
000000f0: 827e 373a 4b87 92bc d2f8 463b 0b98 ca3b
00000100: 6111 66bc d285 b7bd 9fb7 443c 13ab 093d
00000110: 48a5 bcbc 7ec4 bb3c a9e7 863a 546c 513b
00000120: 3d73 86bc a210 1cbd 0b74 c1bd 019d 9cbd
00000130: f8de 5ebd f284 55bc a2bb d93c bd8a 8bbd
00000140: 74a4 7fbc c8dc 92bc 1a0d dfbc d209 65bd
00000150: 17d6 11bd c6fa aabc 8a64 693c 2668 a9bc
00000160: 37d3 c0bc dd74 babc dd03 62bd 82cf 0dbd
00000170: 526a 1cbd 8108 e33c 0071 45bd c8bd 78ba
00000180: 313a 36bd a274 17bd 5731 bcbd 0613 bcbc
00000190: 9975 37bd 5617 b23c 5b47 7dbc a996 333d
000001a0: cc92 a73b 8436 b83c 29a4 86bb 4735 033c
000001b0: 45b2 933b 9229 353c af5d d53c a94f 4e3c
000001c0: ede9 c3bb 424d 95bd d8f5 6f3d a48c 7ebc
000001d0: 0800 273c 7cf5 b03b b3c1 b1bd 1928 67bc
000001e0: 320c e63c 030a 8cbb c898 b8b9 af92 593c
000001f0: c818 9dbc bead ae3c b520 09bd 3d2f 20bd

network_body._body_endoder.seq_layers.0.weight f4 [128, 18]
-0.0043577193 0.37738726 0.24003468 -0.35672745 -0.29588008 0.29847726 0.393399 0.046331856
0.12295383 -0.30018106 0.033241857 -0.47543326 0.0815866 -0.17896685 -0.52878666 -0.09105776
-0.22062987 0.38927668 0.1289315 -0.053932156 -0.2447257 -0.15884411 0.09130374 0.18556848
0.05480999 0.0025949974 0.0013825459 -0.2358664 -0.07060849 0.09808038 0.19900624 0.3012048
-0.20299077 -0.3435657 -0.40217295 0.08641755 -0.2275052 -0.3893723 0.6067518 0.032686032
-0.11482439 0.1716109 -0.2818301 -0.050283097 0.0745532 0.051837545 0.2276988 -0.1424501
0.033029888 0.030586058 0.115324706 -0.25628754 0.20550555 0.1719752 -0.07665222 -0.105486535
0.27068767 0.011207815 -0.030397877 -0.18933576 0.42646968 -0.08861098 -0.45211563 -0.30484152
-0.088980764 -0.06854003 0.95805514 -0.019264853 0.061767165 0.2379731 -0.052938417 0.04013888
0.21972615 -0.12228474 0.0784116 -0.28409982 0.48089305 -0.022630552 -0.14194578 -0.2323257
-0.07320472 0.17500183 0.013367824 -0.42775694 0.1229458 0.03311761 0.018354265 0.09162614
0.27751952 0.19616355 0.15784934 -0.15747043 0.10624903 0.13307193 -0.43929473 -0.008618737
0.23054025 0.3001098 -0.3410021 -0.023601452 0.2722841 0.25661448 -0.11656772 0.43377268
0.08777415 -0.028191667 0.32485062 -0.10249517 -0.20003222 -0.01714347 0.06433242 -0.31963477
0.17235513 0.050563443 -0.027172321 -0.016682658 -0.09262348 0.38140514 0.23785019 0.2550684
0.137276 -0.00029260048 -0.023881333 -0.031974826 0.5025415 0.20095785 0.17885168 0.2128228
0.24459901 -0.00082347885 -0.051005993 -0.7139507 0.6048813 0.43061867 -0.11941286 0.020683616
0.0883421 0.10090345 0.33204964 -0.14242652 -0.061492782 -0.15652859 0.32059756 -0.00069075805
-0.06046103 -0.18510899 -0.13199417 -0.44872743 -0.12727608 0.07017557 0.017167743 -0.01636173
0.2725774 -0.4079672 -0.20569393 0.05473946 -0.12367668 -0.22848955 0.31000936 -0.07184392
0.1656777 0.11401478 0.30884072 0.01536641 -0.22091913 -0.30711147 0.1027764 0.018877309
0.05140814 0.15035725 0.0080996165 -0.09341883 -0.29612568 0.2962001 0.19749098 -0.21094827
-0.4679542 -0.11746011 0.20225626 0.021416062 0.24664727 0.18420945 -0.11908541 -0.034368664
-0.07153159 -0.45601374 0.31182146 -0.2158557 0.090540476 -0.40334815 0.31794044 -0.19410615
-0.19739057 -0.2787805 -0.40981987 0.16509576 -0.18811136 -0.19551449 -0.2763398 0.0021177458
-0.6006915 -0.124006145 -0.52238214 0.31841338 -0.019397033 0.16947216 0.09052094 -0.7529199
-0.07498527 -0.41039607 0.013398013 -0.20942329 -0.50961196 -0.35169283 0.060133066 -0.2843779
-0.43749106 -0.1572354 -0.058814418 0.20456569 -0.0059750387 -0.22885439 -0.32636923 -0.1546282
0.21926767 -0.0066403365 -0.0833065 0.013053775 0.07662079 -0.24685222 -0.324401 -0.03186837
0.49978974 -0.14998592 0.07701669 -0.2853862 -0.025017101 -0.08249623 0.107626416 -0.05972331
0.16875474 -0.35215095 0.01304301 0.030919159 -0.29223692 0.31114486 -0.025962729 -0.018471627
0.09745933 0.110610895 -0.19152449 -0.22062689 -0.0018524809 0.15414657 0.7329688 0.035002552
00000000: 33cb 8ebb e738 c13e a7cb 753e fba4 b6be
00000010: 987d 97be 03d2 983e 986b c93e 79c6 3d3d
00000020: 38cf fb3d 55b1 99be 9d28 083d fd6b f3be
00000030: e016 a73d 1643 37be 905e 07bf 7e7c babd
00000040: ccec 61be 464f c73e 9e06 043e f7e7 5cbd
00000050: 6099 7abe 08a8 22be 75fd ba3d aa05 3e3e
00000060: 7180 603d d510 2a3b 8b36 b53a f686 71be
00000070: 2f9b 90bd 5ede c83d 4bc8 4b3e 8437 9a3e
00000080: d0dc 4fbe d8e7 afbe 9de9 cdbe affb b03d
00000090: 20f7 68be ce5b c7be 1654 1b3f cae1 053d
000000a0: 0d29 ebbd c5ba 2f3e 094c 90be a6f5 4dbd
000000b0: 59af 983d 9b53 543d e029 693e 70de 11be
000000c0: 594a 073d 9d8f fa3c 5c2f ec3d 1f38 83be
000000d0: 0c70 523e 441a 303e d7fb 9cbd 5309 d8bd
000000e0: 9397 8a3e fca0 373c f804 f9bc 3ce1 41be
000000f0: 3c5a da3e ac79 b5bd b37b e7be 3014 9cbe
00000100: 8c3b b6bd b75e 8cbd 1a43 753f 53d1 9dbc
00000110: 91ff 7c3d 38af 733e f4d5 58bd ab68 243d
00000120: e4ff 603e 6c70 fabd 4396 a03d 8875 91be
00000130: 9d37 f63e b563 b9bc 3c5a 11be cae6 6dbe
00000140: 5bec 95bd ae33 333e b804 5b3c f502 dbbe
00000150: 02cb fb3d 55a6 073d af5b 963c 7ca6 bb3d
00000160: 0a17 8e3e 19df 483e 42a3 213e ee3f 21be
00000170: 1799 d93d 0244 083e 3deb e0be 9a35 0dbc
00000180: be12 6c3e fea7 993e d497 aebe d557 c1bc
00000190: d268 8b3e f962 833e 0fbb eebd 7417 de3e
000001a0: efc2 b33d 36f2 e6bc d252 a63e fde8 d1bd
000001b0: 3fd5 4cbe 7670 8cbc b7c0 833d 2ba7 a3be
000001c0: dd7d 303e 9d1b 4f3d 7d98 debc 12aa 88bc
000001d0: 61b1 bdbd 8947 c33e 008f 733e 5398 823e
000001e0: 1492 0c3e 2c68 99b9 c9a2 c3bc 09f8 02bd
000001f0: 8fa6 003f e5c7 4d3e e524 373e 38ee 593e
00000200: 2a78 7a3e bbde 57ba a9eb 50bd 79c5 36bf
00000210: 80d9 1a3f 0d7a dc3e bb8e f4bd b070 a93c
00000220: b4ec b43d 78a6 ce3d 6902 aa3e 42d8 11be
00000230: dbdf 7bbd 0849 20be 5d25 a43e fd13 35ba
00000240: fca5 77bd 368d 3dbe 7b29 07be 9abf e5be
00000250: a954 02be 36b8 8f3d 5ea3 8c3c 0909 86bc
00000260: 448f 8b3e 14e1 d0be 6ea1 52be 7c36 603d
00000270: 334a fdbd 2af9 69be 8cb9 9e3e e822 93bd
00000280: 6aa7 293e 9580 e93d 5f20 9e3e 65c3 7b3c
00000290: a038 62be b73d 9dbe 6f7c d23d 96a4 9a3c
000002a0: 5891 523d 40f7 193e 41b4 043c 5f52 bfbd
000002b0: c99d 97be 8aa7 973e 133b 4a3e d302 58be
000002c0: b197 efbe ed8e f0bd 441c 4f3e bd70 af3c
000002d0: 1a91 7c3e 67a1 3c3e 0de3 f3bd 28c6 0cbd
000002e0: 277f 92bd a27a e9be 10a7 9f3e 4709 5dbe
000002f0: 496d b93d a683 cebe 17c9 a23e c3c3 46be
00000300: c120 4abe 51bc 8ebe e9d3 d1be dd0e 293e
00000310: 44a0 40be f334 48be 697c 8dbe e1c9 0a3b
00000320: ebc6 19bf eff6 fdbd d6ba 05bf 1407 a33e
00000330: 87e6 9ebc 1c8a 2d3e 0b63 b93d 5cbf 40bf
00000340: e191 99bd 6f1f d2be 5783 5b3c 0f73 56be
00000350: ee75 02bf 1511 b4be 174e 763d fb99 91be
00000360: d4fe dfbe 5102 21be 63e7 70bd ab79 513e
00000370: 42ca c3bb ce58 6abe de19 a7be db56 1ebe
00000380: b487 603e 2e97 d9bb 999c aabd 80df 553c
00000390: 5ceb 9c3d d4c6 7cbe e317 a6be 6888 02bd
000003a0: 71e4 ff3e e995 19be edba 9d3d 241e 92be
000003b0: aaf0 ccbc c9f3 a8bd 3d6b dc3d 6ea0 74bd
000003c0: 0bce 2c3e 214d b4be 59b2 553c 2d4a fd3c
000003d0: 14a0 95be 614e 9f3e caaf d4bc cf51 97bc
000003e0: c298 c73d f787 e23d ff1e 44be 04ec 61be
000003f0: f2ce f2ba 99d8 1d3e d8a3 3b3f d65e 0f3d

network_body._body_endoder.seq_layers.2.bias f4 [128]
-0.023479728 -0.023590568 0.032156363 0.00032200452 -0.038806666 -0.0111004915 -0.015776085 -0.016895154
-0.022058183 0.02046099 -0.032793574 -0.02931341 -0.021211833 -0.014848185 -0.0084134815 -0.017330714
-0.044543505 -0.006746172 -0.02575272 0.015957339 -0.0053600674 0.011278605 -0.070604295 -0.020224659
-0.020859106 0.030331934 -0.039903928 -0.043619152 -0.010920961 -0.01974594 -0.0061443364 -0.04817859
-0.012203066 -0.018014962 -0.0154880155 -0.0054922756 -0.0016043009 0.01663028 -0.0082918685 -0.039286695
-0.05933453 -0.012408906 -0.018308109 -0.010786526 -0.04412703 0.005391273 -0.012768265 0.040949058
-0.018682268 0.018491192 -0.061416045 -0.014104418 -0.010392547 -0.016123613 -0.040326305 -0.04111886
-0.015582351 0.021462956 -0.018293671 0.015069225 -0.015117802 0.006144107 -0.025995107 -0.017845636
-0.011116501 -0.010838479 -0.041057687 0.014396304 -0.024918357 -0.014201059 -0.01566151 -0.009989265
-0.036495797 -0.019675087 0.0050057634 0.013565625 -0.053885665 -0.022517717 -0.00043313712 -0.0012845002
-0.024466176 -0.030858276 -0.020676723 0.039881017 -0.03807768 0.027599445 0.017056959 -0.020361667
-0.010873025 0.01029745 -0.008718158 -0.013151575 -0.0059293155 0.003189616 -0.013831691 0.023882885
-0.02097054 0.04677382 -0.023279939 -0.011053727 -0.009712138 0.061602514 -0.03923437 -0.05404822
0.021178 0.0012393217 0.0147002535 -0.004282366 0.028464912 0.021725094 -0.017202483 0.03745983
-0.022401823 -0.011357183 -0.02112899 0.011635782 -0.013489933 0.02543903 -0.038246863 -0.02947298
-0.026031764 0.00012727895 -0.025238287 -0.010160134 0.011509764 -0.032505043 0.001661944 -0.03254785
00000000: 8f58 c0bc 0241 c1bc 64b6 033d b7d2 a839
00000010: bdf3 1ebd d6de 35bc d93c 81bc b567 8abc
00000020: 5db3 b4bc ce9d a73c 8e52 06bd ad22 f0bc
00000030: 70c4 adbc cd45 73bc b3d8 09bc 24f9 8dbc
00000040: 4073 36bd fe0e ddbb 5ef7 d2bc f7b8 823c
00000050: 81a3 afbb e6c9 383c fc98 90bd 2fae a5bc
00000060: b7e0 aabc ad7a f83c 4d72 23bd ffa9 32bd
00000070: d5ed 32bc 3dc2 a1bc 6e56 c9bb ea56 45bd
00000080: 5eef 47bc 1d94 93bc 72c1 7dbc 8cf8 b3bb
00000090: 6847 d2ba 3a3c 883c 9eda 07bc 16eb 20bd
000000a0: c408 73bd b94e 4bbc e3fa 95bc f8b9 30bc
000000b0: 8bbe 34bd 47a9 b03b fc31 51bc 33ba 273d
000000c0: 8e0b 99bc d77a 973c 648f 7bbd 3816 67bc
000000d0: 8045 2abc ab15 84bc 322d 25bd 406c 28bd
000000e0: 1e4d 7fbc 15d3 af3c 9cdc 95bc e9e4 763c
000000f0: a8b0 77bc 8154 c93b b1f3 d4bc 0331 92bc
00000100: fc21 36bc e093 31bc 1b2c 28bd 7ade 6b3c
00000110: 9521 ccbc 8fab 68bc 914c 80bc 04aa 23bc
00000120: 9e7c 15bd a62d a1bc 6307 a43b 5b42 5e3c
00000130: 37b7 5cbd 1377 b8bc ae16 e3b9 ad5c a8ba
00000140: 4a6d c8bc 7fca fcbc 3b62 a9bc 475a 233d
00000150: 57f7 1bbd 3b18 e23c 09bb 8b3c 83cd a6bc
00000160: c624 32bc a3b6 283c 9bd6 0ebc b479 57bc
00000170: b44a c2bb e008 513b 519e 62bc 0aa6 c33c
00000180: 69ca abbc e895 3f3d 92b5 bebc b11a 35bc
00000190: a91f 1fbc eb52 7c3d 38b4 20bd ab61 5dbd
000001a0: 7c7d ad3c bc70 a23a 55d9 703c 1753 8cbb
000001b0: 3f2f e93c d3f8 b13c 39ec 8cbc 7b6f 193d
000001c0: 0784 b7bc 7a13 3abc b416 adbc 02a4 3e3c
000001d0: e104 5dbc 8365 d03c bea8 1cbd 5271 f1bc
000001e0: 9140 d5bc 2f76 0539 86c0 cebc b176 26bc
000001f0: 7393 3c3c 0224 05bd 96d5 d93a e550 05bd

network_body._body_endoder.seq_layers.2.weight f4 [128, 128]
0.043185227 0.054602828 -0.06689455 0.062269773 -0.00992038 0.07824009 0.01046602 0.23410062
0.1705494 -0.113892145 -0.15052158 0.06064848 0.008822294 -0.016477477 0.032050833 -0.033518832
0.029917061 0.13382477 -0.04282345 -0.16339979 -0.016133849 0.03044774 -0.059320223 0.09577811
-0.17893896 -0.044570453 0.02531088 0.037593026 -0.252356 0.082743496 0.053646896 -0.08962167
-0.044286948 0.14703529 0.032074172 -0.17880742 -0.09587576 0.032466516 -0.016609333 -0.17287879
-0.013404001 0.021013798 -0.13642465 -0.08974771 -0.055003747 0.06825515 -0.07211172 -0.10421445
-0.046567384 -0.11826849 -0.0644804 -0.051284827 -0.20420353 0.055795845 -0.085040234 -0.0941356
-0.05406548 0.06656645 -0.10883267 0.051632624 -0.06695391 -0.103089176 -0.062947065 0.043829124
-0.1477823 -0.13665698 0.12352687 0.13330306 0.0127992695 0.023261834 0.013961828 -0.118021116
-0.07683244 -0.021295518 0.053105302 -0.039255653 -0.0025155945 -0.0071706916 0.06305359 0.05494581
0.13364239 0.018351752 0.025247326 -0.13656817 -0.016146475 -0.11257235 -0.08656114 -0.15868072
0.1482802 0.007062376 -0.02242121 0.11478949 -0.07193083 -0.06393889 0.0425888 -0.13167048
0.103791 -0.10745338 -0.059327025 0.051530167 0.005009958 -0.10827402 -0.10939775 -0.006311235
0.21271877 -0.1172189 -0.03500421 -0.04565274 -0.096517235 -0.13340497 -0.009175775 0.07786229
0.14176443 0.034566514 -0.09593836 0.05267983 -0.13529964 0.015690448 0.0060055745 -0.0897509
0.07123399 -0.11597318 -0.18076238 -0.030288365 -0.010655352 -0.023114696 -0.05340472 -0.105601124
0.022381527 0.020100083 -0.0074104546 -0.16723685 -0.0832823 -0.002465785 -0.020919211 0.027159823
-0.036585927 0.19669876 0.16355619 0.017513752 0.121225774 -0.0898406 0.08079827 -0.06280075
-0.04275209 -0.040979605 -0.02111993 -0.11075272 0.0774093 -0.09786157 -0.09241365 -0.15830709
-0.111187086 0.2528173 -0.023979833 0.02673441 0.07520818 0.051754557 -0.010879808 0.25004828
-0.1891388 -0.1595653 0.17984197 0.18805696 0.07351429 -0.024854237 0.14364704 0.107825786
-0.04090896 0.024464611 -0.08438811 -0.026217837 0.09894285 -0.020811124 0.057040617 0.12946309
0.07411829 0.10085631 -0.10985267 0.03693863 0.15200938 0.020956345 0.022008596 0.14468083
-0.11783783 -0.05916447 -0.06775445 0.02046576 0.05157815 -0.048650876 0.0005111541 0.15307258
-0.0055075707 -0.14640196 -0.012197746 0.011031788 0.08494298 -0.12506144 -0.066469066 0.23756367
0.060003422 0.02623294 0.047215335 -0.022368537 0.040465124 0.077938914 0.029372964 -0.08981439
0.15531015 0.06325812 0.04586839 0.058790144 0.048251826 0.10641594 -0.020930257 0.103648975
-0.13244787 0.082364224 -0.006140393 0.091617174 0.2023896 -0.09249344 -0.039594267 0.087407276
-0.062321603 -0.020407852 -0.021836618 0.11182887 0.014605286 0.14552926 0.0983575 -0.10413522
-0.1906227 -0.111932255 0.052695952 0.1197145 0.076912224 -0.09144043 -0.16949694 -0.07716602
-0.059131257 -0.004341599 -0.15708396 0.061834678 0.12241621 -0.14532058 -0.06265352 0.09441549
0.05583303 0.002295963 -0.038803373 0.059993554 -0.037501242 -0.17548834 0.012440213 -0.014872539
00000000: fee2 303d 37a7 5f3d 0300 89bd 970e 7f3d
00000010: 1789 22bc 573c a03d ab79 2b3c 13b8 6f3e
00000020: 80a4 2e3e 4940 e9bd 5422 1abe 8a6a 783d
00000030: 628b 103c c6fb 86bc bc47 033d 0b4b 09bd
00000040: a014 f53c 5c09 093e a467 2fbd 4652 27be
00000050: 222b 84bc 8a6d f93c c3f9 72bd 5027 c43d
00000060: c63b 37be 828f 36bd c358 cf3c 25fb 193d
00000070: ce34 81be 6c75 a93d d9bc 5b3d 918b b7bd
00000080: 3b66 35bd 6b90 163e 3560 033d 4b19 37be
00000090: 835a c4bd 9cfb 043d 4c10 88bc 2307 31be
000000a0: 749c 5bbc 2125 ac3c e7b2 0bbe a6cd b7bd
000000b0: 9c4b 61bd 5bc9 8b3d 4faf 93bd 636e d5bd
000000c0: 71bd 3ebd c036 f2bd 4d0e 84bd 0a10 52bd
000000d0: bb1a 51be 2f8a 643d 9329 aebd 2aca c0bd
000000e0: c473 5dbd fe53 883d aae3 debd bb7c 533d
000000f0: 221f 89bd 6b20 d3bd 64ea 80bd 2b86 333d
00000100: 3e54 17be cfef 0bbe a8fb fc3d 9980 083e
00000110: 07b4 513c 9a8f be3c 27c0 643c 0eb5 f1bd
00000120: 545a 9dbd f073 aebc f284 593d 89ca 20bd
00000130: acdc 24bb 1ff8 eabb 3e22 813d dc0e 613d
00000140: 8dd9 083e 6a56 963c 7bd3 ce3c 87d8 0bbe
00000150: 9d45 84bc 558c e6bd f846 b1bd 337d 22be
00000160: c4d6 173e 816b e73b afac b7bc c116 eb3d
00000170: 7950 93bd 65f2 82bd 9871 2e3d a0d4 06be
00000180: 6090 d43d 8510 dcbd e500 73bd 4c11 533d
00000190: 932a a43b c5be ddbd ed0b e0bd 7ace cebb
000001a0: f3d2 593e 7610 f0bd 9360 0fbd 5efe 3abd
000001b0: d4aa c5bd 509b 08be fd55 16bc 4476 9f3d
000001c0: b22a 113e 9e95 0d3d 557b c4bd cec6 573d
000001d0: fd8b 0abe 4189 803c 69ca c43b 52cf b7bd
000001e0: 20e3 913d 5983 edbd c619 39be 4e1f f8bc
000001f0: c993 2ebc 085b bdbc e8be 5abd 6745 d8bd
00000200: 7759 b73c eea8 a43c 66d3 f2bb 2340 2bbe
00000210: e98f aabd 0299 21bb c45e abbc 477e de3c
00000220: 20db 15bd 666b 493e 467b 273e 0079 8f3c
00000230: 3845 f83d 59fe b7bd 9079 a53d ae9d 80bd
00000240: d11c 2fbd 3bda 27bd b403 adbc 52d2 e2bd
00000250: c488 9e3d a66b c8bd 5e43 bdbd 411b 22be
00000260: 0eb6 e3bd 4571 813e 5b71 c4bc 1f02 db3c
00000270: bf06 9a3d 96fc 533d 3941 32bc 5406 803e
00000280: 9aad 41be 1665 23be 7e28 383e 0192 403e
00000290: a98e 963d 1d9b cbbc 3618 133e c4d3 dc3d
000002a0: 2790 27bd 026a c83c acd3 acbd cac6 d6bc
000002b0: 8da2 ca3d 177c aabc 6ca3 693d f991 043e
000002c0: 54cb 973d c18d ce3d 70fa e0bd f64c 173d
000002d0: 59a8 1b3e a4ac ab3c 5f4b b43c 3627 143e
000002e0: f654 f1bd 7156 72bd d8c2 8abd cfa7 a73c
000002f0: 9c43 533d 2446 47bd f9fe 053a 0fbf 1c3e
00000300: da78 b4bb 65ea 15be 0ed9 47bc acbe 343c
00000310: 96f6 ad3d 1b10 00be ef20 88bd e443 733e
00000320: 26c6 753d 76e6 d63c de64 413d 393e b7bc
00000330: c2be 253d 709e 9f3d 929f f03c 9bf0 b7bd
00000340: a009 1f3e 798d 813d 7ee0 3b3d efcd 703d
00000350: b5a3 453d 9af0 d93d ee75 abbc ea45 d43d
00000360: 6aa0 07be 93ae a83d 5a35 c9bb c9a1 bb3d
00000370: 383f 4f3e 336d bdbd 992d 22bd 9602 b33d
00000380: f044 7fbd 5e2e a7bc b5e2 b2bc 8906 e53d
00000390: 024b 6f3c 9f05 153e a86f c93d d944 d5bd
000003a0: 9932 43be bd3c e5bd b6d7 573d e02c f53d
000003b0: 2884 9d3d 1f45 bbbd 9b90 2dbe 3809 9ebd
000003c0: 9e33 72bd f943 8ebb 9eda 20be 5c46 7d3d
000003d0: 5ab5 fa3d ebce 14be 7d50 80bd e95c c13d
000003e0: 2db1 643d de77 163b 49f0 1ebd cdbb 753d
000003f0: e79a 19bd 37b3 33be 09d2 4b3c f3ab 73bc
