results/Shooter/Shooter/Shooter-26407.onnx (onnx, 428902 bytes, 9 tensors)

action_model._discrete_distribution.branches.0.bias f4 [5]
000000 6e b9 be ba 67 66 9b 3b d1 33 56 bc be 2f 99 3c
       -0.0014551112 0.004742432 -0.013073877 0.018699523
000010 ab dd 9c 3b
       0.004787167

action_model._discrete_distribution.branches.0.weight f4 [5, 256]
000000 9d 9c f7 bb 80 d9 4b bc 55 1b 86 bc 5a 86 9a 3b
       -0.0075565116 -0.012441993 -0.016370455 0.004715723
000010 e1 61 b9 3b ae 25 f4 3b 8e 77 bb bb a8 7f 9e bb
       0.00565742 0.007450781 -0.005721039 -0.004836995
000020 a9 d5 0a bc b3 42 3f 3c 45 88 20 bb d8 c0 96 3c
       -0.008473792 0.011673617 -0.0024495285 0.018402502
000030 78 d3 68 3c 1c f1 66 3c a8 48 f7 ba 6a 37 0f 3b
       0.014210574 0.014095571 -0.0018866258 0.0021853098
000040 89 fb eb bb 20 e8 58 ba 3d 8e ce bb 74 af 26 bc
       -0.007201616 -0.00082743354 -0.006303577 -0.010173667
000050 c2 28 7d bc a2 11 fc b9 64 e2 bf bc 2d c4 d8 bb
       -0.015451612 -0.00048078323 -0.023423381 -0.006615183
000060 c7 77 7d bb 20 28 d9 ba cc 61 a2 3b b8 2e bf bb
       -0.003867613 -0.0016567744 0.004955506 -0.0058344267
000070 c9 42 af 3a 46 80 73 3b eb 86 e8 ba d7 25 ed 3b
       0.0013371344 0.0037155314 -0.0017740404 0.007237177
000080 56 68 99 bb 59 35 20 bb 8b d8 52 39 ad 99 12 bc
       -0.0046816273 -0.002444586 0.00020107829 -0.008947772
000090 a2 7f 2a 3c 46 45 59 3d 88 e5 32 bc 6c 7e 63 3b
       0.010406407 0.05304458 -0.010918982 0.0034712804
0000a0 99 1a 3e 3b 8c 15 ed ba d7 99 03 bc 9d 74 40 bc
       0.0029007553 -0.0018088087 -0.008032284 -0.011746553
0000b0 a1 e5 7e bc 9d a2 2c bc d2 8a b8 3b 77 bc 9c bc
       -0.0155576775 -0.010536817 0.005631783 -0.019132836
0000c0 5c 6b 9c bc 6b a8 4b 3b 10 01 78 3a c5 a4 d1 bb
       -0.019094162 0.0031075727 0.00094606075 -0.006397816
0000d0 9c 01 fc 3a 58 79 7a bc 83 b8 25 3c bc a5 0d bc
       0.0019226554 -0.01528772 0.010114792 -0.008645471
0000e0 2a 6f 8d 3b b5 77 84 ba d5 07 ef bb 48 3b 94 bb
       0.0043162303 -0.0010106476 -0.007294635 -0.0045236684
0000f0 33 cd ae bb 64 3d 01 3c 03 d7 d4 3c 48 e4 2a 3b
       -0.0053345202 0.007888172 0.025981432 0.0026076008
000100 14 e9 11 3d d6 0a 10 bb 27 7f e1 3b d6 a0 3a bc
       0.03562267 -0.0021979115 0.006881613 -0.011390885
000110 e4 fe 2b bb 7a 16 a1 b7 03 e4 08 ba 9d 3a be 3b
       -0.0026244456 -1.9203162e-05 -0.00052219647 0.005805327
000120 80 09 b5 3b 1c 15 4d bc f1 d3 cb 3a f2 ce 85 bb
       0.005524814 -0.01251724 0.0015550834 -0.0040835077
000130 7d 45 62 3b 21 0b 8e bc 36 41 19 bc 39 cb 97 3b
       0.0034526282 -0.017339291 -0.009353926 0.0046323803
000140 78 14 8a 3b af 06 a3 3b a9 c1 48 bc de 61 50 bb
       0.004213866 0.004975162 -0.012253203 -0.0031796615
000150 1d 1a f3 39 43 44 0b 3c dd 81 f7 bb 72 cb 25 bc
       0.00046368028 0.008500162 -0.0075533227 -0.010119306
000160 65 6a 90 3a 46 e3 26 3a f4 bb 03 bc bc 68 83 3b
       0.0011018036 0.0006366264 -0.008040417 0.004010288
000170 1e fb 45 3a d4 ee c9 bb d5 c3 09 3c ee b7 87 bc
       0.0007552373 -0.0061625037 0.008408506 -0.016567197
000180 4e 94 82 3b 2b 92 49 bc f3 66 5e bb ba 20 57 37
       0.0039849645 -0.012302916 -0.0033935874 1.2822618e-05
000190 eb b7 84 3b 94 d5 ec bb 98 a9 80 ba d1 55 a5 3b
       0.004050245 -0.007227609 -0.0009816168 0.0050456305
0001a0 f9 1e eb bb af 36 a3 39 90 4b 1d bc dd b7 89 3b
       -0.007175323 0.00031130525 -0.009600535 0.0042028264
0001b0 6a b4 c9 3b d5 34 aa 3a 4a 23 c7 3b 7e c3 5b 3a
       0.0061555402 0.0012985716 0.006077205 0.00083833176
0001c0 6e 58 82 ba c8 de c8 bb fd d4 45 3a 5a f3 5f bc
       -0.0009944567 -0.006130073 0.00075466913 -0.013668859
0001d0 e5 e4 04 bb 0b 55 25 bc 13 2f 85 bc 00 96 f4 3a
       -0.0020278033 -0.010091077 -0.016257798 0.0018660426
0001e0 d1 b2 59 3a 92 84 af 39 d6 57 2a 3c 39 37 a2 bb
       0.0008304539 0.00033477374 0.010396918 -0.0049504307
0001f0 63 11 a0 bb 7c f8 30 bc 73 3d bf b8 c9 aa ae 3a
       -0.004884885 -0.010801431 -9.1190355e-05 0.0013326044
000200 d8 c1 b4 3b e0 2d ca 3b a7 cd 44 bb 81 62 2e 3b
       0.005516272 0.0061700195 -0.0030029805 0.0026609006
000210 75 04 3a 3a 24 2d bc bb 19 55 4d 3b bb 5d 15 bc
       0.0007096001 -0.005742686 0.003133124 -0.009116585
000220 f9 ef 5a 37 f7 f3 c8 bb 74 b0 1d 3b 82 88 f4 bb
       1.3049686e-05 -0.0061325985 0.0024061473 -0.007462562
000230 d8 09 d1 bb e4 13 6e bb 35 56 8c bb 10 18 83 3a
       -0.0063793473 -0.0036327774 -0.0042827376 0.0010001678
000240 fc 5c c9 3b e6 97 4b bc 9a ed 82 bc 6c 19 97 3b
       0.006145118 -0.012426352 -0.015982438 0.004611185
000250 e7 8b 0a 3c aa 55 10 bb c1 6e 73 3b 58 8d c6 bb
       0.008456207 -0.0022023716 0.0037144872 -0.00605933
000260 52 b5 f4 bb 25 3d ab 3b 91 cf f7 bb f5 e6 49 bb
       -0.007467904 0.005225795 -0.0075625856 -0.0030807827
000270 2e 14 39 3b e5 2b 16 bb c5 32 34 3b 67 db 8a ba
       0.0028240788 -0.0022914347 0.0027496081 -0.0010593951
000280 c9 50 ea bb 3a ef 60 ba 10 cf 24 3c dc 35 3d bb
       -0.0071507436 -0.00085805694 0.010059133 -0.0028871214
000290 a9 43 95 ba 5c c9 68 bb df a9 34 ba 1a fe d2 bb
       -0.0011387962 -0.003552041 -0.0006891768 -0.0064389827
0002a0 f0 f8 04 bc 85 03 1f bb ff 3b 0c bb 79 1e f0 3b
       -0.008115992 -0.0024263572 -0.0021398065 0.0073278514
0002b0 fa d2 08 3b ad e5 79 ba 3e af 8e bb b0 59 29 bc
       0.0020877705 -0.00095328205 -0.0043543866 -0.010336325
0002c0 ca 65 61 bc 0e b8 47 bc 94 2c c8 3a 5f 9f 4b bc
       -0.013757179 -0.012189878 0.0015272074 -0.012428134
0002d0 75 c1 32 bc ea 1a 45 bb 2b b8 51 3b 45 67 fd 3a
       -0.010910382 -0.0030075856 0.0032000642 0.0019333145
0002e0 26 02 7e ba a8 f9 86 b9 bb 38 5b 3b 8c c1 46 bc
       -0.0009689651 -0.0002574448 0.0033450562 -0.012131106
0002f0 c7 2e ad bd 47 dc cb 38 ca da 85 bb 12 f3 b4 ba
       -0.08456188 9.720824e-05 -0.0040849196 -0.0013805351
000300 56 ec 63 bb 50 98 b9 3b 9d 0d 4e bb 96 22 78 3b
       -0.0034778318 0.005663909 -0.003144122 0.0037862412
000310 5c 02 20 3c 2b c2 f1 bb 0d af 5d bb 4f 16 e9 bb
       0.0097661875 -0.007377883 -0.0033826262 -0.007113255
000320 e6 e9 69 bb 2e 88 ba bb 47 5c 7a ba ea eb 38 ba
       -0.0035692393 -0.0056925034 -0.00095504936 -0.0007054197
000330 f4 98 fb bb df bf 96 3b ce 76 24 3c b9 23 96 bb
       -0.0076781455 0.0046005095 0.010038091 -0.004581895
000340 17 cf 47 3c 80 6a 59 bb bc 81 ce ba 84 59 6f 3c
       0.01219537 -0.0033175051 -0.0015755217 0.0146087445
000350 1c 2d ee bb 9f 70 97 ba 81 6a a5 bc 8d d7 e5 bb
       -0.007268561 -0.001155395 -0.020192387 -0.007014221
000360 1f dc 19 3a f9 ec a4 bb df 0a 45 3a 4f 14 ae bc
       0.00058692874 -0.005033132 0.00075165735 -0.021249918
000370 33 39 f2 bb 69 85 4f bb 81 1b 34 bc 7c 64 31 3c
       -0.0073920726 -0.0031665212 -0.010992886 0.01082718
000380 8f 4c 79 bb 27 20 b8 3a fe 5f 4a bb a9 af 68 3c
       -0.0038040017 0.0014047668 -0.003087997 0.014202037
000390 cb 40 e3 bb d6 34 ed ba 6f f9 6f 3c 9f 41 40 bc
       -0.006935214 -0.0018097411 0.014646872 -0.011734395
0003a0 12 20 58 39 67 ff 22 3b 1b 06 14 3d bf ff 2f 3b
       0.00020611312 0.002487147 0.036138635 0.0026855317
0003b0 af 82 a5 3b 67 b9 c7 39 4d 84 d5 bb 3c c5 25 3b
       0.005050979 0.00038094373 -0.0065160156 0.0025294563
0003c0 0a a0 b3 ba c4 24 62 3c b1 76 88 bb 3c 10 79 bb
       -0.0013704312 0.013802711 -0.0041645397 -0.0038004061
0003d0 d4 ec 5f 3a 2d 91 30 3b 75 bf a1 bb fb 72 df bb
       0.0008542065 0.0026942 -0.0049361535 -0.0068191267
0003e0 d1 49 5c bb 86 4c 39 3b e6 7f 2f bc a8 fe 4f 3b
       -0.0033613334 0.0028274371 -0.010711646 0.003173748
0003f0 0a 75 70 3b 17 7e 16 3c b1 61 41 3b 93 3e d9 ba
       0.0036690854 0.009185336 0.0029507692 -0.0016574435

action_model._discrete_distribution.branches.1.bias f4 [2]
000000 6b 6d 5c bc d0 6d 5c 3c
       -0.013453822 0.013453916

action_model._discrete_distribution.branches.1.weight f4 [2, 256]
000000 b4 c7 a1 bb 1f d7 bd bc 07 2c 92 3b a0 50 cd ba
       -0.0049371365 -0.023173867 0.004460815 -0.0015664287
000010 36 fa 09 bc bf d4 70 bc 3c b7 b5 bb 13 e3 b8 ba
       -0.008421471 -0.01469916 -0.005545525 -0.0014105759
000020 66 71 16 bc c4 0f 43 bc d8 46 ba 3b b5 65 33 bb
       -0.00918231 -0.011905614 0.0056847148 -0.0027373855
000030 d2 61 80 ba cb a0 21 3b f2 50 54 3a 17 cf 6f bc
       -0.0009794778 0.002466249 0.000809922 -0.014636776
000040 fb 47 8b bb 1b 91 bb 3b 48 f7 d6 3b eb 9a 06 39
       -0.004250524 0.005724085 0.00656024 0.00012836947
000050 78 7f b7 ba 7b b1 8a 3b 93 61 cb ba 7f f7 92 bb
       -0.0013999781 0.004232583 -0.001551675 -0.0044850702
000060 3d c8 c2 3b ab 36 44 3a 58 b2 ad bc ab 66 b2 bc
       0.0059442804 0.0007484953 -0.021203205 -0.021777472
000070 7c 35 de bb e5 d2 2d bc 02 cc 76 3b 44 76 0b bc
       -0.006781278 -0.010609363 0.003765822 -0.008512083
000080 c8 d0 b5 bc 35 5f 90 bc cc 44 c1 bc 0a a0 67 bc
       -0.022194281 -0.017623523 -0.023592375 -0.014137277
000090 e9 fa 68 bc 6f 4a bb 3c 32 02 78 3c b3 a4 bf bb
       -0.014219978 0.022862641 0.015137242 -0.005848491
0000a0 aa 03 8c bc 7d ce 72 bb aa 54 60 bc 57 be b6 3a
       -0.01709159 -0.0037049346 -0.0136920605 0.0013942224
0000b0 2b 03 5e bb 28 61 79 bc 9f dd f5 bb 41 6d af bc
       -0.00338764 -0.015220918 -0.007503226 -0.021414401
0000c0 b1 18 d1 bb b0 a0 29 bc 6b 43 cc bb 9b fe 95 bb
       -0.0063811173 -0.010353252 -0.006233623 -0.0045774705
0000d0 25 6e d0 bb 5d e0 c8 bb 88 46 51 3b 5d 06 06 bc
       -0.0063607865 -0.006130262 0.003193291 -0.008180228
0000e0 90 4e 96 bc f8 9c 75 bc 16 2a 13 38 c4 42 f7 ba
       -0.018348008 -0.014991038 3.5086727e-05 -0.0018864502
0000f0 df ab 0c 3b b8 57 9f bb 1c 35 19 bd 5a 79 7b bc
       0.0021464748 -0.004862752 -0.037404165 -0.015348757
000100 f1 b4 a6 bb 69 49 93 3c d5 be b3 bc 3e 61 63 bc
       -0.005087488 0.01797934 -0.021941582 -0.013878165
000110 38 94 8a b9 5c eb 94 3b dd 67 1b bc 6a 2b b2 bc
       -0.00026431843 0.0045446586 -0.009485212 -0.021749217
000120 e3 e9 0b bb d0 36 e3 bc 42 0d 87 bc f8 12 1e bc
       -0.0021349124 -0.027736098 -0.016485814 -0.009648077
000130 36 a6 9b b9 c7 e9 23 bc 19 a4 55 bc ec 7b 93 bb
       -0.0002968774 -0.010004467 -0.013039612 -0.0045008566
000140 7d 85 c0 3a 68 28 a3 3c f8 85 0a bd f1 ea 52 bc
       0.001468822 0.019916728 -0.03381917 -0.012873397
000150 84 7e a0 3c c0 30 28 ba 60 94 64 bc 3c e6 15 bc
       0.019591577 -0.0006415956 -0.013951391 -0.00914913
000160 6a 08 bd 3b 7f 4c 0e 3b 09 55 1a bc e3 a8 bc bb
       0.0057688253 0.0021713076 -0.009419688 -0.0057574376
000170 3e 8e 6a 3a 5f f1 d0 ba 14 d5 8f bc 6f fc 0a bc
       0.00089475873 -0.0015941075 -0.017557658 -0.008483036
000180 b9 27 27 3c cc ab c5 ba fb 35 b6 3b b6 2c ad bb
       0.010202342 -0.0015081107 0.005560634 -0.005284871
000190 66 26 76 bb c0 37 0a bb 64 e1 fa 3b 34 45 d0 3b
       -0.0037559508 -0.0021090358 0.007656263 0.006355906
0001a0 d0 fa de bb f7 41 97 bc 77 b2 73 bc aa 61 df bb
       -0.0068048015 -0.018464072 -0.014874092 -0.0068170624
0001b0 47 e9 13 b9 65 75 97 bc 74 6b 6f bc 8e cc f5 3b
       -0.00014105915 -0.018488595 -0.014613021 0.0075011915
0001c0 67 db 8f 3b 82 5a a8 bb b3 fe 46 bc 5f d3 1e bc
       0.0043901685 -0.0051377425 -0.012145686 -0.0096939495
0001d0 56 2b 30 bc 4b 97 25 bc cf cb 27 3b 60 41 a0 3a
       -0.01075252 -0.010106872 0.0025603657 0.0012226515
0001e0 42 d6 d8 bb 6f f5 65 3b e8 11 7d 3b e8 c6 2f bc
       -0.0066173384 0.0035088917 0.003861541 -0.010728575
0001f0 d0 17 70 3b 5e 14 85 bb 10 b7 1f bc e2 6a 3b bc
       0.0036635287 -0.004061266 -0.009748235 -0.011439057
000200 86 8f 95 bc e4 77 6a 3b 86 93 cb bb 17 19 bc bb
       -0.018256914 0.0035777027 -0.0062126545 -0.0057402956
000210 2b ff 2c bc 7d 85 f7 3a be 85 3a bb 2b 37 1f ba
       -0.010558884 0.0018884387 -0.0028461064 -0.00060735893
000220 2e 66 4e bb 22 d6 8c bc 43 e5 0b bb 77 d0 9a bc
       -0.003149401 -0.01719195 -0.0021346367 -0.018898232
000230 e6 4f 0c 3a 16 07 2b bb d7 0b ed b8 a9 f5 d1 3b
       0.0005352482 -0.0026096753 -0.00011303246 0.006407459
000240 f3 6c 3c 39 eb 78 d9 bb f2 5e 0a bc a3 38 82 bc
       0.00017969664 -0.006636729 -0.008445488 -0.015896147
000250 ac 4e b1 b9 33 b6 97 3b 59 de b1 bb c4 12 e2 bb
       -0.00033818686 0.004629874 -0.0054281172 -0.0068992097
000260 ca f9 80 3b 84 69 18 bc 37 6c f5 bb b6 61 38 3b
       0.003936027 -0.009302501 -0.007489707 0.0028134412
000270 93 5e fe bb a8 b5 71 bc e1 ad 4b bc fd 9f 10 3b
       -0.007762739 -0.014752783 -0.012431593 0.0022068017
000280 dc 1a 13 bc bd f7 80 3b 86 fb 0d bb 6d 3f 33 bb
       -0.008978572 0.0039357827 -0.0021664812 -0.0027351037
000290 2b 1f 4c bc 7d 67 2e bb e6 2d db 35 7d 17 91 bc
       -0.012458603 -0.0026611977 1.633013e-06 -0.017711395
0002a0 a3 d9 28 3a b6 3d 0f bb 26 d2 94 bc d6 77 8c bc
       0.0006441122 -0.002185685 -0.018166613 -0.017146986
0002b0 81 bf 17 bb 1d 70 c5 bc 99 c6 e6 bb 76 78 3a bc
       -0.0023154917 -0.024101311 -0.0070427177 -0.011381259
0002c0 27 8e 87 bc d9 ac c1 bc b1 a9 38 bc 70 36 c9 3c
       -0.016547276 -0.02364199 -0.011270926 0.02456209
0002d0 37 2e 21 bc cd 9f 47 3b 0a 04 a2 bb e3 79 fc ba
       -0.009837679 0.003046024 -0.004944329 -0.0019262399
0002e0 58 fb b8 3b c3 23 d7 3b 3d 22 99 bb 0f d0 2a bc
       0.005645197 0.0065655424 -0.004673271 -0.010425582
0002f0 2f cd 0a bd fb 74 d3 3b c0 88 94 3b 29 68 02 bc
       -0.033887085 0.006453154 0.0045329034 -0.007959404
000300 1f 8e 53 3b 9d 7a bc 3a e7 fe 73 bc 91 6c a8 bb
       0.0032280756 0.0014379803 -0.014892316 -0.0051398952
000310 0e 26 cd 3b 80 2b 9d bb ae 67 00 3b 00 78 f2 3a
       0.00626064 -0.0047964454 0.0019593048 0.0018498898
000320 b5 dd a5 bc 75 1e e4 ba d6 2b 9f 3a a2 db d4 bc
       -0.02024732 -0.0017404096 0.0012143801 -0.025983635
000330 3d 59 50 bd 89 43 14 bc 2b 33 57 bc d8 c3 c4 bc
       -0.050866354 -0.009049305 -0.013134758 -0.024019167
000340 28 17 1b bc 93 51 d0 bb e6 d5 37 bc e3 d0 e6 b9
       -0.00946597 -0.0063573807 -0.011220431 -0.0004402465
000350 c9 86 b8 b9 53 f5 73 bc 77 04 aa bb 7d 2c 61 3c
       -0.00035195638 -0.014890033 -0.0051885205 0.013743517
000360 74 06 4b bb f9 39 ea bb 8f 6f 9a 3c 9e 5b 9d bb
       -0.0030979188 -0.007148024 0.018852023 -0.0048021814
000370 6a a0 00 b9 31 01 6c bc 6f 3b 85 bc 13 e5 ac 3b
       -0.0001226679 -0.014404581 -0.016263692 0.005276331
000380 10 69 36 bc fd 51 a4 bc 73 19 d3 3b 05 cb 63 3d
       -0.011133447 -0.020058626 0.006442243 0.055613536
000390 f3 89 ab 3b 77 9a 17 3c e2 28 85 3a 80 7c d6 3b
       0.0052349507 0.009253136 0.0010159279 0.0065456033
0003a0 95 b3 36 bc 10 7c 31 3b e8 57 11 3a 1c db 9a bb
       -0.011151214 0.0027082004 0.000554441 -0.004725827
0003b0 b7 6f 1e bc 38 93 e0 3b 9f ec bb bc 77 4e 0d bb
       -0.00967019 0.0068534873 -0.022939978 -0.0021561661
0003c0 e2 ba c4 bb d1 6b e4 bc ad f7 b2 39 a4 67 45 bc
       -0.0060037235 -0.027883442 0.00034135339 -0.012048636
0003d0 d8 06 5b bc f7 fc 1d bc 88 f5 3a bc bc 00 a1 bb
       -0.013368331 -0.009642831 -0.011411078 -0.0049134176
0003e0 b3 d4 e4 3b 5f 9c 29 bc 19 ba a3 bc ac 8b 53 3c
       0.0069833635 -0.010352223 -0.0199862 0.012911718
0003f0 dc 51 65 bc b6 df 01 3d b3 9f 13 3c ea 14 d4 bc
       -0.013996568 0.031707488 0.009010243 -0.025888879

discrete_action_output_shape f4 [1, 2]
000000 00 00 a0 40 00 00 00 40
       5.0 2.0

network_body._body_endoder.seq_layers.0.bias f4 [256]
000000 07 4c c8 bc f4 28 92 bc 5a 35 94 3b 4f 26 d7 bc
       -0.024450315 -0.017841794 0.0045229616 -0.026263384
000010 23 fb f2 bb 45 64 f7 bc 49 50 51 3d 28 29 59 bc
       -0.0074151917 -0.03019918 0.051101957 -0.013254441
000020 a7 ee ad bc 6b 12 89 3c e8 e0 34 bc d3 ad fb bc
       -0.021231962 0.016732415 -0.01103995 -0.030722534
000030 de a9 c9 3c e0 44 12 bc 1d 85 48 3b d9 94 e2 3c
       0.024617132 -0.008927554 0.003059692 0.027658867
000040 18 e2 83 3c 0d 15 99 bb b5 3e 21 b9 f6 9a ef bb
       0.01609902 -0.004671699 -0.00015377517 -0.007312174
000050 5d e8 48 3d b3 ea 64 bc e1 0d 8b 3c 8a f2 bb 3b
       0.049049724 -0.013971972 0.016974391 0.0057357
000060 c0 1b 8d bc 85 47 52 39 ee f9 b2 bc eb 13 1d bb
       -0.017225146 0.00020053804 -0.021847691 -0.002396817
000070 37 f4 b3 3c 8a b4 94 bb 4d d2 fb bc 6d 46 80 3c
       0.021967037 -0.0045381235 -0.030739928 0.015658582
000080 f1 49 e5 3b cc 51 d5 bc f6 fd e0 bc 31 93 a5 bb
       0.00699734 -0.02603998 -0.027464848 -0.005052947
000090 cc 5b 3e bc 4e b3 0c bd 3a 63 86 bc a3 75 1d bb
       -0.011618566 -0.034350686 -0.016404737 -0.0024026416
0000a0 1c 22 12 bb 75 1e 9f b7 25 79 59 3c 5d 9a ea bb
       -0.0022298163 -1.896846e-05 0.013273512 -0.007159515
0000b0 9e 2e 98 3c 3c 53 7e bc fe ed 49 ba 90 71 be bb
       0.018576916 -0.015522774 -0.0007703005 -0.0058118775
0000c0 44 4b ab 3c 83 89 08 ba 80 46 0b bd d1 af 22 3d
       0.020909913 -0.0005208479 -0.03400278 0.039718453
0000d0 a5 81 d9 bc cf f3 06 3d 57 71 f8 3c b7 b8 84 3c
       -0.026551077 0.032947358 0.030327482 0.01620136
0000e0 ba eb 5a bc 12 14 41 bb 81 d2 bc bc 73 07 25 3c
       -0.013361866 -0.0029461426 -0.023049595 0.010072577
0000f0 6e 2c 06 bd 1f 2a da bb 21 b0 c0 bc c6 bb fe bc
       -0.032757215 -0.0066578533 -0.023521485 -0.031095397
000100 b0 30 dd bc ce dd ff bb 06 e1 68 37 2a 54 4e ba
       -0.027000755 -0.0078084236 1.388067e-05 -0.0007870818
000110 91 9b 71 3c a4 62 de bc c8 53 5c 3d cd 88 1f bc
       0.014746563 -0.027146645 0.053790838 -0.009737206
000120 67 1e 9b bc 45 86 16 bb 7d 33 3a bc fa e3 20 3d
       -0.018935395 -0.0022968214 -0.011364815 0.039279915
000130 c6 36 01 bd 2b 6f 7e 3b e0 c5 97 3c 59 23 25 3c
       -0.031546377 0.0038823585 0.018526971 0.010079228
000140 17 86 9a 3c 72 28 00 3c a9 f7 8e bc 56 01 22 3b
       0.018862767 0.007822143 -0.017452078 0.0024720035
000150 82 05 93 3a ef 32 95 bb 31 9b b5 bb 7f 28 a8 bb
       0.0011216851 -0.004553191 -0.005542182 -0.0051317806
000160 9a cf 7e 3b 99 bd ff ba fe e5 b5 ba e5 cf 42 39
       0.0038881064 -0.001951146 -0.0013877747 0.00018578728
000170 46 48 78 bb 86 a7 a1 3b ff a9 b0 bb 09 b9 01 bd
       -0.0037884875 0.0049333004 -0.005391359 -0.031670604
000180 37 14 22 bc 1c 0c 8d bc e1 2f 2f 3a 40 ab 18 3d
       -0.009892515 -0.017217688 0.0006682855 0.03727269
000190 b7 f0 d6 bc 2e b9 c8 bc 50 bb e4 3b 9f 1f 08 bb
       -0.026237829 -0.024502363 0.006980337 -0.00207708
0001a0 26 9a b9 bb 4d 3e a8 bc 88 c9 14 bc fd 46 d9 bb
       -0.005664128 -0.02053752 -0.009081252 -0.006630777
0001b0 ac a2 e8 bc 25 69 f9 bb 2c ae 16 3c eb e9 b5 bc
       -0.02839788 -0.007611411 0.009196799 -0.022206267
0001c0 5d 63 cd bc 0c 8b ce bc cf 5d 6a 3c 17 77 31 3c
       -0.025071794 -0.025212787 0.014304592 0.010831616
0001d0 d3 9d 8e bc aa 05 3f bc 20 88 6f bd a8 5e 29 3c
       -0.01740924 -0.011659065 -0.05847943 0.010337509
0001e0 71 66 73 bc ae 39 f2 ba 34 f0 da 3b 43 17 44 bc
       -0.014855967 -0.0018480325 0.0066814665 -0.011968437
0001f0 73 f9 62 bc e6 7c 68 ba 50 a3 08 bd 03 f4 12 bc
       -0.013853419 -0.0008868709 -0.033358872 -0.00896931
000200 7c c9 a2 3c 52 2d de bc 49 ee c8 bb 4e 9a 84 bc
       0.019871466 -0.02712122 -0.0061319214 -0.01618686
000210 8a 0a 5c bc eb eb 1d 3c 2f 8d 36 3c 57 32 35 bc
       -0.013430247 0.009638767 0.011142059 -0.011059365
000220 1b 69 9c bc 7b 5e 71 bc 9f 86 c0 bc 55 dd 5f 3d
       -0.019093087 -0.014731999 -0.023501692 0.054654438
000230 92 4b b6 3b df 44 7f bb 61 c1 11 bd 01 1d 9d bc
       0.005563208 -0.0038950962 -0.03558481 -0.01917887
000240 5f 14 21 3d 98 e1 8f 3c 25 49 83 bc 79 07 8d bc
       0.039326068 0.017563626 -0.016026089 -0.017215477
000250 86 f5 05 bc 8b d0 22 3d e3 6f 31 3c 19 92 1e 3c
       -0.008176213 0.039749663 0.0108298985 0.009678387
000260 39 77 df bb f8 ab f0 bc 93 9d ad bc c1 56 7a 3b
       -0.0068196324 -0.029378876 -0.021193301 0.0038198682
000270 ef cb 66 3c fc 93 24 bc 4c 50 a5 bb 2c af 12 3c
       0.0140867075 -0.010045048 -0.0050449725 0.008952897
000280 bb c8 64 bb ae 20 26 bb bd ef b1 3c 41 3c 5e bb
       -0.0034909684 -0.0025349068 0.021720761 -0.0033910426
000290 a5 0e cc 3b 8f 1f 2f 3d 9c 0a 34 bc 9b 20 b5 3c
       0.0062273317 0.042754706 -0.010988858 0.022110274
0002a0 51 97 2c bc f8 0b 3c 3c 1d d5 7f bc 94 98 b0 3c
       -0.0105341235 0.011477463 -0.015614775 0.02155713
0002b0 70 d2 50 bc de e0 38 3c b1 55 92 bb 35 17 ce bc
       -0.012745485 0.011284081 -0.0044657816 -0.02515755
0002c0 f1 71 db bc e1 5c 79 bc 96 6e 07 bd 0e df 9a 37
       -0.02678773 -0.015219898 -0.033064447 1.8462099e-05
0002d0 1f e5 84 3c 0f af bd 3b c4 2f 6c 3c 47 d4 0a 3b
       0.016222535 0.005788691 0.014415685 0.0021183656
0002e0 a9 de 3e 3c 4e dd cd bc 9d 77 69 3a d2 14 bb bc
       0.011649766 -0.02512994 0.00089060684 -0.022837076
0002f0 cc 73 71 bc 22 68 ee 3b a3 1f 6d bc 4a f2 62 bc
       -0.014737081 0.007275597 -0.014472875 -0.0138517115
000300 a8 1f ee bb 0b af 23 3a 68 d9 0a bc e7 8a 90 bc
       -0.0072669573 0.000624404 -0.008474685 -0.017644359
000310 79 1b 0a bb 53 2c e6 3c 8f f7 1d 3b 83 5f d6 ba
       -0.0021073504 0.028097307 0.0024103855 -0.0016355369
000320 92 64 1d bc 5c 8a 59 3c c2 2c 86 bc 3e df 6c 3b
       -0.009606497 0.013277616 -0.016378764 0.0036143805
000330 02 02 c5 bc 8f bf 43 3c 61 2e 1c 3c de 70 3a bc
       -0.024048809 0.011947527 0.009532542 -0.011379449
000340 06 2d a4 3c 0b 20 1f bd 29 f5 9c bb a5 5a d5 3c
       0.020041 -0.038848918 -0.0047899676 0.0260442
000350 ce 17 21 b8 64 5b f4 bc ac ff 05 bd 52 40 f0 bc
       -3.840756e-05 -0.029828735 -0.03271453 -0.029327545
000360 5e 4a ad bc fc 26 45 bb 8b 2b 01 bd 5c a7 f8 bc
       -0.021153625 -0.003008305 -0.031535666 -0.03035324
000370 58 a7 dc 3c d1 db 4f bc 13 c8 04 bc d7 b0 3a 3c
       0.026935264 -0.012686686 -0.008104342 0.011394701
000380 98 7e e3 bc db 0b 83 bc d9 27 5e bc 67 f1 74 3c
       -0.027770326 -0.015996864 -0.013559305 0.014950133
000390 33 33 91 bc 0f 2e 84 3c b6 ba b0 bc d6 4e 68 bc
       -0.017724609 0.016135244 -0.021573406 -0.014178952
0003a0 9b 70 7b bc c7 a5 a4 b9 2a 7d 95 3b f9 06 02 3d
       -0.015346671 -0.0003140403 0.00456204 0.03174493
0003b0 c0 79 93 3b 07 5e a0 bc c0 b1 49 bb 51 19 9a 3b
       0.0045005977 -0.019576086 -0.0030776113 0.004702725
0003c0 df 72 4f bc cb 73 41 bc e4 64 85 bb 1d d7 e0 3b
       -0.012661665 -0.011807392 -0.004070865 0.006861581
0003d0 bf 11 68 bc 14 48 3b 3b 15 5b fe 3c 50 4b c5 bb
       -0.014164387 0.0028576897 0.03104929 -0.006020941
0003e0 21 c9 93 bc 90 b2 34 bd a4 ff 17 bc 8a b8 87 3a
       -0.018040242 -0.044115603 -0.009277258 0.001035468
0003f0 19 4b f2 bc 17 75 5b b4 50 f0 23 bd 06 fa f5 bb
       -0.029576825 -2.0438561e-07 -0.0400241 -0.0075066118

network_body._body_endoder.seq_layers.0.weight f4 [256, 151]
000000 a9 2f 3a be f8 0c 59 bc 40 33 9c bc e7 23 1b be
       -0.18182243 -0.013247721 -0.019067407 -0.15150414
000010 0b f7 e9 bd f8 9a 97 bd 7b 41 06 3e e7 7e 61 3e
       -0.11424073 -0.07402605 0.13110916 0.22021066
000020 78 62 96 bc 2c c2 0a be 5c 09 61 bd ee 58 b2 3d
       -0.0183575 -0.13550633 -0.054940566 0.08708368
000030 a0 b3 64 3e d5 3d 09 3d cb ee 19 3e c8 1b 00 bd
       0.22334146 0.033506233 0.15032499 -0.031276494
000040 b3 d3 4d 3d 25 02 b1 bd e2 c5 a1 bd 00 ae 47 be
       0.05025072 -0.08642987 -0.07899071 -0.1949997
000050 fa 1b a8 3d a9 a8 c7 bb c9 8b 1f be 67 77 28 be
       0.08208461 -0.006093104 -0.15580668 -0.16451798
000060 98 b9 a6 3c f1 09 31 bd 83 fb e2 bc 7a 79 77 bb
       0.02035217 -0.04322237 -0.02770782 -0.0037761615
000070 16 5a 7f 3d eb a4 43 bd 21 3e 2b 3d 75 7b 78 3c
       0.062341772 -0.0477647 0.041807298 0.015166153
000080 c6 17 ee bd 13 35 57 3a 2a 59 8f bd 83 77 8b bd
       -0.11625628 0.0008209508 -0.069994286 -0.068099044
000090 9c 57 75 bb 54 a8 ee bd 8b e7 d0 bd 8a 86 18 bd
       -0.0037436252 -0.116532 -0.10200413 -0.03723768
0000a0 82 d9 4a 3d 3b b3 b3 3c c8 a6 e1 bd aa 5d 8b bd
       0.049523838 0.02193605 -0.11018139 -0.068049744
0000b0 66 20 b3 bd 12 eb 6a bd 5c 07 dd bd 11 c7 fe bd
       -0.08746414 -0.057353087 -0.10792419 -0.12440313
0000c0 35 0f 2b 3e d6 d9 f2 3d 59 8d cd 3d d5 f1 80 3d
       0.1670502 0.11857955 0.100367256 0.06296126
0000d0 d6 e1 bb 3c be f3 7f bd e4 70 26 be 22 2c 82 ba
       0.022934835 -0.06248831 -0.16254002 -0.0009931365
0000e0 46 ac 02 be da 75 9a 3d 9a 31 e9 bd f2 02 29 bc
       -0.1276103 0.0754201 -0.11386414 -0.010315644
0000f0 96 9f fc 3b 3b 58 9a bd da 05 39 bd 74 62 62 3e
       0.007709454 -0.0753636 -0.045171596 0.2210787
000100 d7 99 de 3c 70 89 be 3d b2 43 3d be 24 6b 1b 3d
       0.027172966 0.09303558 -0.18482855 0.037943974
000110 66 fd 84 3d 72 f2 a4 bc 77 13 ad bd 0f ce e3 3c
       0.064936444 -0.020135138 -0.08450978 0.027808217
000120 f3 69 ae bd 07 49 9a 3d b8 32 4f bd e7 be 3f 3c
       -0.08516302 0.0753346 -0.05058548 0.0117032295
000130 40 3b d6 bd 54 15 ab bd af de 5a 3d e8 94 21 be
       -0.1046052 -0.083536774 0.053435024 -0.1577946
000140 b1 57 24 3e 8d ae c0 3d 14 e4 da bd f4 ed 2e bd
       0.16049077 0.09408293 -0.10688034 -0.0427074
000150 cc fb 93 3d 19 cd 09 bc a3 5a 80 bd 79 d3 56 bd
       0.07225761 -0.0084107155 -0.062672876 -0.05244777
000160 73 fd 01 3e 3a 3c 93 bd b5 db 8f 3b 0a e5 34 3d
       0.1269434 -0.07189222 0.004390205 0.04416374
000170 df c3 40 3d b4 7c 99 bd 35 2c 10 be 48 7b 68 3d
       0.047061797 -0.07494488 -0.14079364 0.056758195
000180 9a 99 05 bd 1f 04 fa 3c f9 06 ab 3d af 59 57 3d
       -0.03261719 0.030519543 0.08350939 0.052575763
000190 ca f1 90 3c 2c ad dd 3c 21 3b dd 3d 35 6b 94 3c
       0.017693419 0.027060114 0.108022936 0.018117527
0001a0 f2 51 ba bd 41 c3 41 be ed c1 8f bd 2c f7 a1 bd
       -0.09097661 -0.1892214 -0.0701941 -0.079084724
0001b0 e9 67 91 bd 53 0d 9f bd b6 04 a2 bd 10 31 ba bd
       -0.070998974 -0.07766213 -0.07911055 -0.09091389
0001c0 f8 8c 00 bd 24 6c d9 bd c8 43 82 3d 02 d5 e5 bd
       -0.03138444 -0.10616329 0.063605845 -0.11222269
0001d0 60 10 72 3d 97 41 28 bb b7 ba 91 bd 62 46 81 bd
       0.059097648 -0.002567386 -0.07115691 -0.063122526
0001e0 64 51 e0 bd dc 64 bc 3c ab f9 9c bc ac e3 d3 3c
       -0.10953024 0.022997312 -0.01916202 0.025865398
0001f0 71 41 c6 bd a9 96 b4 bc 24 d1 f0 3d 7b 50 53 be
       -0.09680451 -0.022044497 0.117586404 -0.2063617
000200 b6 bd 1a be bd dc bc 3d 65 29 5e 3d f6 23 d2 3d
       -0.15111431 0.0922179 0.054238696 0.10260765
000210 0b 77 8e 3d e0 c3 af 3d 2d 6a c0 3a 25 18 ee 3d
       0.069562994 0.08582282 0.001468008 0.11625699
000220 12 22 9f bc 9f 54 ac bc da 77 a5 3c e2 65 02 3e
       -0.019425426 -0.021036444 0.020198751 0.12734178
000230 f5 05 e8 3b 3e 3f 68 bd 7b c7 bc 3c d1 7f 08 3d
       0.0070807883 -0.056700937 0.023044338 0.03332502
000240 9e cf b2 bd b7 ca f7 3d 36 b4 88 3d c7 cb ee bc
       -0.08731006 0.12099212 0.066749975 -0.029149903
000250 ad 95 d5 3d 1b 5b 17 bd c4 95 ab 3d 5e 1d fa 3d
       0.10428939 -0.03695212 0.08378175 0.122126326
000260 58 c6 89 3c 66 33 c8 bd ad 40 35 3b bb 82 8f 3a
       0.01681821 -0.097754285 0.0027656958 0.0010948995
000270 4a 50 79 bc fd 4a fc 3c 16 c7 96 bc 8b bc 1e 3d
       -0.015216896 0.030797476 -0.018405478 0.038754027
000280 dc b8 9e 3d 3d 6b 8e 3c d3 54 d0 bd 1e 1b 27 3d
       0.07750103 0.01738512 -0.10172429 0.040797345
000290 0b d6 1d bd 41 4b b0 bd c6 ca 9a 3d 57 77 d8 3d
       -0.038534205 -0.086081035 0.07558207 0.10569637
0002a0 53 22 46 bd 31 3f 0e bd 6e de 89 3d 83 15 c8 bd
       -0.048372578 -0.034728233 0.06731878 -0.09769728
0002b0 97 e1 0b be 68 fe 25 be b8 ca da 3c 28 76 97 3d
       -0.13660274 -0.1621033 0.026707992 0.073955834
0002c0 9b 00 07 bd 45 86 80 3d e7 cf 32 3e e6 2d f8 3d
       -0.03295956 0.0627561 0.17462121 0.121181294
0002d0 08 31 95 3d e2 bb 2a bc cb d3 bb bd b0 6b 83 bd
       0.072847426 -0.010420771 -0.09171256 -0.06417024
0002e0 47 05 ea bd 37 f8 84 bd 62 02 aa 3a 03 85 81 3d
       -0.11426788 -0.06492656 0.0012970681 0.06324198
0002f0 b4 f9 54 bd 9b cc a4 bc 26 6e bb bd 6b 12 19 3d
       -0.051995948 -0.020117095 -0.091518685 0.03737108
000300 62 7a 71 bc 3b a9 39 3e 4c 60 5a ba 8a 2c 63 3d
       -0.014738651 0.18130963 -0.00083303894 0.055462398
000310 9f 6d 0c bb 38 0a a5 bd c9 6b c7 bd 51 e5 91 3d
       -0.0021427644 -0.0805859 -0.09737355 0.07123817
000320 81 1a b2 3c 2d 3e 2d 3d 30 5e b1 3d aa bb 32 be
       0.021741154 0.042295624 0.08660543 -0.174544
000330 f2 98 a1 3c 3d ca 2f bd cb 0a 12 3d 20 17 eb bd
       0.01972625 -0.04291748 0.035654824 -0.1147902
000340 87 7f 23 bd 28 01 c2 bd 3e a2 98 bd fc 6c ec bd
       -0.03991654 -0.09472877 -0.0745282 -0.115442246
000350 46 3d bd 3c b8 a1 88 3d 78 5f 36 bd c6 fa 1d be
       0.023100507 0.066714704 -0.04452464 -0.15427694
000360 78 66 6d 3c 84 64 30 bd 62 94 c7 3d 11 dd 15 bd
       0.0144897625 -0.04306461 0.09745099 -0.03658778
000370 52 55 1a bd ae 59 05 bd 4c 55 72 bd 36 5f 5d be
       -0.037679024 -0.03255623 -0.059163377 -0.21618351
000380 54 4f 22 bc 30 25 b6 bd 42 29 6f bd 62 e9 16 be
       -0.009906609 -0.08893812 -0.058388956 -0.14737466
000390 d9 e1 0e be f4 7b e1 3b e2 b6 f6 3c 4e 0f ed 3c
       -0.13953342 0.0068812314 0.030116502 0.028937962
0003a0 6e cc 94 3d 26 dd c0 3d 22 61 8a bd 4a b1 24 3d
       0.07265554 0.09417181 -0.06756808 0.04020814
0003b0 41 57 d0 bd 6c e8 92 bd 38 c1 b8 bd 2b 93 13 bd
       -0.10172892 -0.07173237 -0.090212286 -0.036029022
0003c0 a9 9c 29 bc 2a ab f6 3c a2 39 e2 3b 96 3c 0a 3d
       -0.010352292 0.030110914 0.006903843 0.033749186
0003d0 24 f2 07 3c 42 66 b2 3d 68 f9 1c 3e d4 35 31 3b
       0.008297477 0.087109104 0.15329516 0.002704014
0003e0 b5 22 f9 3c d9 e6 2a be 5e 36 b1 3d c3 f6 7b bc
       0.030412057 -0.16689624 0.08652948 -0.015378657
0003f0 80 d5 be bd 3b 6a 90 3d 06 06 9f bc 34 17 27 bc
       -0.09318066 0.07051512 -0.019412052 -0.010198403

network_body._body_endoder.seq_layers.2.bias f4 [256]
000000 41 6d fa bb 5b c4 5d bb 7d 03 05 bb 48 51 69 bb
       -0.0076424186 -0.003383896 -0.0020296269 -0.0035601426
000010 fc ea 5d ba e2 58 76 3c f3 58 9f bc 9c ea bf bc
       -0.00084654964 0.01503584 -0.019451594 -0.0234273
000020 ae 2d 86 3c e2 04 b1 bb 86 95 31 bc c5 e1 2e bc
       0.016379204 -0.0054021934 -0.010838872 -0.010673945
000030 11 04 35 bc 26 10 81 ba 26 d5 6f bb 05 8a a2 3b
       -0.011048333 -0.0009846732 -0.0036595552 0.004960301
000040 8b f8 57 bc bb 38 29 bc 14 90 b8 bb 04 14 13 bb
       -0.013181816 -0.010328467 -0.00563241 -0.002244235
000050 eb a1 06 bc 9b a0 cf bb 56 df aa bc ff cb 0e bc
       -0.008217315 -0.0063362843 -0.020858448 -0.008715629
000060 43 fc 32 bc 35 42 00 bc 43 e3 28 bc a0 8e fa ba
       -0.010924402 -0.007828285 -0.01030809 -0.0019115992
000070 b9 76 ae bb c0 e1 a1 3c 2a be 20 3c 1e 90 b9 3c
       -0.0053242114 0.019760966 0.009810964 0.022651728
000080 78 dd 36 bc f1 55 1f bc f9 f9 41 3b 61 0b 44 bc
       -0.011161201 -0.00972508 0.0029598458 -0.011965604
000090 39 6e 95 3c 13 0f 83 3c c4 96 9d ba c0 fa 48 bc
       0.018241035 0.015998399 -0.0012023081 -0.012266815
0000a0 bb fe 88 3c 23 ee 0d bc 88 a3 e0 bb fb 58 98 bc
       0.016723027 -0.008662733 -0.006855432 -0.018597117
0000b0 ee 3b 93 bb df cb 74 bc 50 7a cf bb d2 54 d2 ba
       -0.004493228 -0.014941185 -0.0063317195 -0.0016047007
0000c0 03 ba 53 3b 8b 48 50 3c ca d7 7d bb 10 02 37 bc
       0.0032306917 0.012712608 -0.0038733357 -0.011169925
0000d0 e2 f5 00 bc 40 33 3c bc d3 8e 83 bc c4 85 06 bc
       -0.007871123 -0.011486828 -0.016059315 -0.008210603
0000e0 34 7a 2b bc 9d 08 99 bc c4 d9 2a bc 32 e8 c9 bc
       -0.010466147 -0.018680865 -0.010427896 -0.024646852
0000f0 b4 2d 31 bc d8 b5 e4 bb ae 49 41 ba dd 5a 82 bc
       -0.010814119 -0.0069796853 -0.0007373345 -0.015912468
000100 dc d7 30 3c a3 25 fd bb 0f ac a1 3c c8 7b 27 3a
       0.010793652 -0.007725434 0.019735364 0.0006388989
000110 1c 6b 05 bc bd fa 99 bc e1 bc d3 bb 71 83 bd 3b
       -0.008143213 -0.01879632 -0.006461725 0.0057834913
000120 a7 9d 3e bc 3e ce 4d bb e1 27 d4 3b bd 0d d8 bb
       -0.011634267 -0.0031403448 0.0064744805 -0.0065934346
000130 4a e4 2a bc 18 46 a1 3b b3 ae 15 bc f9 32 98 bc
       -0.010430405 0.004921686 -0.00913589 -0.018578993
000140 cd 89 b4 bb af 3b 60 bc 55 7a 1b bc 20 66 7b bc
       -0.005509591 -0.013686105 -0.009489615 -0.015344173
000150 42 a2 e7 bb 99 b8 f2 bb d4 15 14 3c ba 1a 24 bc
       -0.007068903 -0.0074072597 0.009038407 -0.010016138
000160 1a 52 5b bc 1b d9 59 bc bc e9 5d 3c a5 10 3d bc
       -0.013386274 -0.013296391 0.013544496 -0.011539613
000170 64 02 8c bb a3 e0 29 bb 5e a1 d4 39 45 1c 0b bc
       -0.004272746 -0.0025921247 0.0004055602 -0.008490627
000180 0f 30 4c bc ca 17 e1 bb 1f 42 07 bb 11 01 1a bc
       -0.01246263 -0.006869291 -0.0020638776 -0.009399668
000190 2b f6 27 bc e0 4b aa ba b6 45 65 bb bc b3 74 bc
       -0.010251562 -0.0012992583 -0.0034984178 -0.01493543
0001a0 7f f5 f9 bb 08 13 7f bc 54 32 83 bb 01 cc 31 3b
       -0.0076281424 -0.015568502 -0.0040038023 0.0027129652
0001b0 ef 14 19 bc 89 7e 8e bc 4c 96 4c bc 12 75 74 bc
       -0.00934337 -0.017394321 -0.012487005 -0.01492049
0001c0 ea ce 0d bc 3e d6 ab bb 93 13 7f bc 12 38 a7 bb
       -0.008655289 -0.0052440455 -0.015568632 -0.0051031196
0001d0 8e 73 3d bc c4 03 0f bc 63 b9 56 3a a5 21 36 bc
       -0.011563195 -0.008728925 0.0008191077 -0.01111642
0001e0 72 a4 4b bc 16 df 9d bb ef 76 cf bb da 42 bb bc
       -0.012429344 -0.0048178537 -0.0063313167 -0.022859026
0001f0 42 12 02 bc fa bf dd 3c 7e 08 7a bc 73 fa 7b 3a
       -0.007938923 0.02706908 -0.015260814 0.000961221
000200 8b d0 6d 3b 8b 2b 81 bc a8 cf 67 bc 50 51 3b bb
       0.0036287631 -0.015767833 -0.01414863 -0.0028582402
000210 45 4d 3a 3c 2b 0e ea 3b 82 6c 37 bc 8c 87 39 bb
       0.011370962 0.0071428022 -0.011195304 -0.0028309552
000220 8b fd df bb f1 fc 95 b9 7c 1d 75 bc 7c 09 f1 bb
       -0.0068356446 -0.0002860795 -0.014960643 -0.007355867
000230 a0 32 07 3c de d5 4c bc a6 87 d3 bb b9 1f bf bb
       0.008251816 -0.012502162 -0.0064553795 -0.005832639
000240 69 44 ce 3c 0f 6c 1a bb ae 57 81 bc 17 73 ad bc
       0.025179105 -0.0023562943 -0.01578888 -0.021173043
000250 cd 0f 0b bc a8 d9 f7 bb e0 b7 24 bb 3e 0b 3d 3b
       -0.008487654 -0.0075637884 -0.0025134012 0.0028845812
000260 f9 78 50 bb fc 36 47 bc 77 9f 34 3b 5e e2 38 bc
       -0.0031810387 -0.012159105 0.0027560869 -0.011284439
000270 4d 45 89 bb 39 1c f5 3b 1e 94 97 bc 63 ce 0f bc
       -0.0041891695 0.007480171 -0.018503245 -0.008777234
000280 ea 4c ab 3c 4a 48 08 bc 0d c8 8b bc 07 af 03 bc
       0.020910699 -0.008318016 -0.017063165 -0.008037335
000290 03 23 38 bc 55 1c 55 bc 8a d4 a0 bc 54 01 b6 bb
       -0.011238816 -0.013007243 -0.019632597 -0.0055543575
0002a0 f0 56 1e bc e4 3f e8 bb ae 85 a1 3a cc e4 fe b9
       -0.009664282 -0.0070876945 0.0012323165 -0.00048617122
0002b0 d6 8d d3 bc 8b 07 3a bb 42 53 83 bc cc 1a 73 bc
       -0.025824469 -0.0028385844 -0.016030911 -0.014837932
0002c0 83 6a fe bb 49 19 44 3c be 15 88 bc 91 83 25 bc
       -0.007764162 0.011968919 -0.01661193 -0.010102169
0002d0 1f 23 fc bb 2c de 66 bc 1f ef 47 bc 6c f5 1e bc
       -0.0076946164 -0.014091056 -0.012203007 -0.009702068
0002e0 12 e1 9b bc 6a 0d 85 3c ed 30 8b bb 0e 0d 5a bc
       -0.01902822 0.016241748 -0.0042477758 -0.013308777
0002f0 a0 d0 ed ba 53 aa 2f b9 74 95 10 bb af 0b d7 bb
       -0.001814384 -0.00016752751 -0.0022061737 -0.006562672
000300 44 42 3b 37 5d 45 eb bb 42 13 16 3d d4 04 96 bc
       1.1161497e-05 -0.0071798996 0.03663946 -0.01831285
000310 b2 53 93 bb 15 4f 59 bc 48 94 04 bc 98 a5 a5 bc
       -0.0044960612 -0.0132634835 -0.008091994 -0.020220563
000320 e8 0b da 3c e1 11 9b bc 52 d1 5c bb 8d 40 3b 3c
       0.026617005 -0.018929424 -0.00336941 0.011428964
000330 8e 04 c2 3c 70 70 da bb db 4b e3 bb 63 3e a5 3a
       0.023683812 -0.0066662356 -0.006936533 0.0012607094
000340 84 92 38 3b f4 18 81 bc 89 f2 90 bb cf 8c 9a bc
       0.0028163502 -0.015758969 -0.0044234437 -0.01886597
000350 10 ca 74 bb 35 f3 ee 3c 3a e7 02 3c 4d d2 4d bc
       -0.0037351884 0.029168705 0.007989699 -0.012562347
000360 8b 7c 27 bc 08 20 30 3c 5e 19 a8 bb d1 20 71 bc
       -0.010222564 0.010749824 -0.005129977 -0.014717297
000370 e3 31 e0 39 af 29 a4 bc 28 5e 1c bc 55 16 82 bc
       0.00042761778 -0.020039408 -0.009543933 -0.01587979
000380 3a 94 5c bc 72 73 40 bc e0 0c c9 3b 0f 4e 6b bb
       -0.013463074 -0.011746274 0.006135568 -0.003590468
000390 af 73 85 bc 49 53 3e bb 67 b1 17 bc 43 75 c0 bb
       -0.016290514 -0.002904134 -0.009258605 -0.0058733537
0003a0 ad 4c 5d 3b 87 c0 b8 bc bb 39 12 3d ec f0 65 bc
       0.0033767626 -0.022552742 0.035699587 -0.014034491
0003b0 10 78 83 bc 82 06 8e bb 4e 83 1c 3c 8e f3 d9 bb
       -0.016048461 -0.004334272 0.00955279 -0.0066513484
0003c0 b6 94 31 bc b3 86 41 bb 73 46 3e 3b 7c d7 20 bc
       -0.010838678 -0.002952975 0.002903369 -0.0098170005
0003d0 23 d7 d7 3a a5 46 83 bb 89 fa 2b bc c8 57 c9 ba
       0.0016467314 -0.004006224 -0.010496744 -0.0015361244
0003e0 08 ce 29 bc cf 3b 46 bb d6 05 f3 3b 10 8c 31 bb
       -0.010364063 -0.003024805 0.007416467 -0.002709154
0003f0 ad a5 57 bc 50 d4 f1 bb f4 29 f1 bb bf 1a 2e 3a
       -0.013162059 -0.007380046 -0.0073597375 0.0006641559

network_body._body_endoder.seq_layers.2.weight f4 [256, 256]
000000 2e c2 16 bd 3f 43 4f bd ba c0 9c 3d 16 a1 16 bd
       -0.036806278 -0.05060124 0.07653947 -0.036774717
000010 d5 20 29 3d 53 59 95 bd 90 a9 08 be 7d 27 16 3e
       0.041291077 -0.07292428 -0.13345933 0.14663501
000020 48 34 37 3d 85 31 d8 bc 26 0c e4 3d 78 dd 1c bd
       0.044727594 -0.0263908 0.1113513 -0.038297147
000030 03 27 67 bc 6b 38 90 3d dc 37 8d 3d 1b 32 6b bd
       -0.014108422 0.07042011 0.0689542 -0.05742083
000040 80 af df bd 59 21 5f bd 43 df 91 bc 86 4e b0 bb
       -0.10922146 -0.054475162 -0.017806655 -0.0053804545
000050 03 b4 db 3c 39 ac 07 bd 6b a0 d1 3c bb 4b 83 3c
       0.026819235 -0.03312323 0.025589189 0.016027322
000060 a0 b7 84 bc e8 7b df 3d 50 ee 12 bc 96 4a 68 bd
       -0.01620084 0.10912305 -0.008967951 -0.056711756
000070 87 cb 20 3d 2b f9 e1 ba 2d a4 66 bd 1a fc 7c 3d
       0.0392566 -0.0017240396 -0.056308914 0.06176386
000080 51 16 e6 bd 51 da 01 be cf 7f 60 bc 30 1c 23 bd
       -0.11234725 -0.12680937 -0.013702347 -0.039821804
000090 86 c6 42 be 79 a8 8a 3d 01 5d cf bd 7c 05 c9 bd
       -0.19021043 0.06770415 -0.10125161 -0.09815499
0000a0 7a 35 13 bd 88 b8 19 bd e1 e5 37 bd 76 fd 73 3d
       -0.03593967 -0.0375295 -0.044896964 0.05956789
0000b0 c6 b1 2a 3e 80 07 0d be bb 22 0b bd 37 8c c2 bb
       0.16669378 -0.13772392 -0.03396867 -0.005937125
0000c0 84 5e 7b bd 13 cf de 3a 26 79 56 be c8 37 e7 3d
       -0.061369434 0.0016998969 -0.20944652 0.11289936
0000d0 cb f6 83 bc c3 17 97 3d 29 6f 84 bc f3 62 09 be
       -0.016108891 0.07377579 -0.016166287 -0.13416652
0000e0 8e a0 89 3c cd ca 8b bd 7c 5a 60 bc f5 86 ef bd
       0.016800191 -0.068257906 -0.013693448 -0.11695663
0000f0 91 3a 51 bd 4b b2 c1 3d 54 c9 c4 3d e5 05 af bd
       -0.051081244 0.09457835 0.09608713 -0.08546046
000100 3e bb ca bd 4c 04 92 3d 20 57 f3 3d 0d 1e f6 bd
       -0.09898995 0.07129726 0.11881852 -0.120174505
000110 c4 79 9d bd b2 c9 b3 bd 29 fc ed 3c 90 e0 50 bb
       -0.076892406 -0.08778705 0.029050903 -0.003187213
000120 96 3a 14 3c 55 17 f4 3b 31 34 4e bc f9 9f 84 bc
       0.009047171 0.0074490705 -0.012585686 -0.016189562
000130 66 cc 1e bc 66 3f cd bd 3e 9c 08 3d e0 9d ab bd
       -0.009692287 -0.10021858 0.03335213 -0.08379722
000140 58 24 8f bd 72 06 48 3d b0 cb a3 bc d8 7f 49 bc
       -0.06989354 0.04883427 -0.019994587 -0.012298547
000150 c8 87 ab 3d 4c d2 2b 3c a1 21 f7 bd a5 07 8d bd
       0.083755076 0.01048715 -0.12066961 -0.06886224
000160 62 61 04 3b 5c c9 7b bd 9b 64 1d 3d 7e e0 2f bd
       0.0020199646 -0.06147133 0.038426023 -0.0429387
000170 32 7b 06 3e 49 07 98 bd ee b9 75 bd 3b 44 63 3c
       0.13132933 -0.074232645 -0.05999177 0.013871248
000180 bf 18 bb 3d 60 02 60 3c 61 ac 93 bc 0e 99 f9 bb
       0.09135579 0.013672441 -0.018026533 -0.0076171225
000190 80 54 67 bd 5f 66 e8 3d 2e f0 dd bd d1 69 7f 3c
       -0.05647707 0.11347651 -0.10836826 0.015589193
0001a0 a9 f6 d8 3d 9e 19 2d 3a f4 09 83 3d 69 f4 bb 3c
       0.10593922 0.00066032435 0.06398383 0.022943692
0001b0 84 98 13 bd 6e 67 60 bc ed 28 38 bb da e2 86 3c
       -0.036034122 -0.013696535 -0.0028100566 0.016465593
0001c0 20 06 5b 3c aa b5 4a bd e7 00 be ba 9d 11 23 bd
       0.0133681595 -0.049489655 -0.0014496119 -0.03981172
0001d0 a4 2a 99 bd 03 a3 19 3d 93 7b 91 3d 76 06 d2 bc
       -0.07478836 0.037508976 0.07103648 -0.025637846
0001e0 c5 dd 0d 3e ce a1 26 3b 8b ec 84 bc d5 71 3b 3d
       0.1385413 0.0025426033 -0.016226074 0.045762856
0001f0 a5 b0 17 bd e9 c6 be bd b8 07 dd 3c de d7 51 bd
       -0.037033696 -0.09315283 0.02698122 -0.051231258
000200 84 61 80 3d 93 59 c8 bb a4 7d f1 bc 48 a9 0a bc
       0.062686 -0.0061141937 -0.029478855 -0.008463211
000210 de 4e b7 3d 07 43 78 3c 2b 2d 00 3d 86 24 a2 3c
       0.089505896 0.015152699 0.031293076 0.019792806
000220 86 86 40 bd ed 80 74 3d eb 56 0b bd ef bc 3c bd
       -0.04700329 0.059693266 -0.03401844 -0.04607862
000230 f7 2e 49 be 1b 52 54 bd e1 23 74 bd 45 81 ad bd
       -0.19646822 -0.051836114 -0.05960453 -0.08471922
000240 22 c0 a2 bd 47 8e 3f be 47 36 89 bd 85 cf 0a bd
       -0.07946803 -0.18706618 -0.06699806 -0.033889312
000250 3a 5a ba bd 0d e7 83 3c 24 a3 16 bd d3 4a ba ba
       -0.090992406 0.016101385 -0.036776677 -0.0014212973
000260 0e 0e ea bc 20 4d 73 ba f7 22 0e 3e 81 1c 03 3c
       -0.028571155 -0.0009281207 0.13880526 0.008002401
000270 fc ef be bd 0b 5c f1 bd 07 ef 15 bd a2 c6 0a 3d
       -0.09323117 -0.11785134 -0.036604907 0.033880837
000280 37 3f 1c 3d 32 b9 7f 3c 44 77 9e bd b5 01 64 3d
       0.038146224 0.015608119 -0.07737592 0.05566569
000290 23 de a5 bd c8 cb 74 3b 4e 38 ba bd 93 16 a7 bc
       -0.0809901 0.0037352908 -0.090927705 -0.020396506
0002a0 ef 1c 6a 3d a2 b0 71 3d 00 41 21 bd 04 58 3a 3c
       0.0571565 0.05900634 -0.03936863 0.011373524
0002b0 34 8c fc bb ed 79 16 3d 68 3f 97 3d a8 54 e3 bd
       -0.007707143 0.03673737 0.07385141 -0.11100131
0002c0 1d b8 94 bd 64 7b c9 bc c8 b3 eb 3d e6 62 b3 bb
       -0.07261679 -0.02459497 0.115089 -0.005474436
0002d0 7f 47 32 3c c0 60 06 bd 13 7a f5 bd 17 d8 30 3d
       0.010881304 -0.03280711 -0.119861744 0.04317483
0002e0 f4 d3 e6 bd 7c c6 dc bc 21 87 17 3c e4 98 06 be
       -0.112708956 -0.026950113 0.009248526 -0.1314426
0002f0 ba ff c8 bc c7 47 3f be be ce 14 bd 95 cf 9e 3d
       -0.024536002 -0.18679725 -0.036329977 0.07754437
000300 cc d5 9b bd 9f 1c 09 bc 78 91 1b 3e 86 2f 1c be
       -0.07609138 -0.00836864 0.1519221 -0.15252504
000310 4c b0 91 bd cb e6 26 bd 54 93 f2 3d 9f 3d 3a 3d
       -0.07113704 -0.040747445 0.11844507 0.045468923
000320 1b 0d 89 bd 2c 2b 7a bd e5 7e 7b bd 98 89 7b 3d
       -0.06691953 -0.06107633 -0.061400313 0.061410517
000330 4d 83 95 bd e4 8d 7f 3d 34 80 97 bd dd 17 d9 bd
       -0.07300434 0.062391177 -0.073975 -0.10600255
000340 74 4e af 3b 57 ea f9 3c 3a df 41 bc 55 64 82 3d
       0.0053499285 0.03050725 -0.0118330065 0.06366793
000350 b7 dc 4e 3c ec 1f aa bd 2f 1b f7 3d e9 61 e3 3d
       0.012625865 -0.0830687 0.12065732 0.11102659
000360 2b 11 f0 3c 73 d8 d6 3a 33 ec 0e bd 3f c7 62 bd
       0.029305061 0.0016391411 -0.034893226 -0.055365797
000370 3b 1a 06 bd b7 45 c3 3d 27 d0 9a 3c 61 50 be bb
       -0.03273986 0.095347814 0.018898083 -0.0058079218
000380 1b 66 72 3d e7 d0 29 3c dc f8 ae bb b9 13 27 bd
       0.059179407 0.010364748 -0.005339725 -0.040790293
000390 01 a1 2a bc f6 26 c3 bc 14 59 9f ba 66 d0 f4 3d
       -0.010414363 -0.023822289 -0.0012157285 0.11953811
0003a0 11 7f 99 bc a0 fd 21 3d 41 2e ac bc 5b c4 aa 3d
       -0.018737348 0.039548516 -0.02101815 0.08338233
0003b0 de c4 7f 3d a4 da ca 3b cf 6c e9 bc f7 f3 c1 3b
       0.062443607 0.006190615 -0.028494267 0.0059189755
0003c0 51 08 9d bc d7 92 84 bd 74 c6 ae bc 36 3d 73 3c
       -0.019169005 -0.0647332 -0.021334864 0.014846137
0003d0 30 24 f3 bd e7 c7 97 bb 5f 43 ee bd ab 1a a1 bd
       -0.118721366 -0.0046319845 -0.11633944 -0.07866415
0003e0 c6 d4 de bc 46 1d 89 bd 43 9c cf 3c f2 c6 8e bc
       -0.027201068 -0.066950366 0.025343066 -0.017428849
0003f0 ce 29 28 3d 33 82 37 3e 47 ec 37 3b 98 3a cb bd
       0.041055493 0.17920761 0.0028064416 -0.09923285
