results/Shooter/Shooter/Shooter-36390.pt (torch, 520935 bytes, 46 tensors)

discrete_act_size_vector f4 [1, 3]
0	0x40a00000	5.0
1	0x40800000	4.0
2	0x40000000	2.0

network_body._body_endoder.seq_layers.0.weight f4 [128, 27]
0	0x3c7bd7e5	0.0153712975
1	0x3d0d92ce	0.034563832
2	0xbc04d57f	-0.008107542
3	0x3e8fa4d0	0.2805543
4	0x3dbd248d	0.09235487
5	0x3df06354	0.11737695
6	0x3e11c419	0.14234962
7	0x3d4d9110	0.05018717
8	0xbe107e61	-0.1411071
9	0x3e220425	0.15821894
10	0x3f1454a1	0.57941633
11	0x3ea0abcb	0.31381068
12	0x3e0f46fa	0.13991919
13	0x3e4e3ce7	0.2014042
14	0x3e9dc9c4	0.30817997
15	0xbde55214	-0.11197296
16	0xbeb4fdb3	-0.35349807
17	0x3ddd66f0	0.108106494
18	0xbeb42a47	-0.35188505
19	0xbe836894	-0.25665724
20	0xbe028a07	-0.12747966
21	0x3e68d0a1	0.22735836
22	0xbe1dec1a	-0.15422097
23	0x3cac204f	0.0210115
24	0x3a093e4d	0.0005235419
25	0x3de3d129	0.111238785
26	0x3ccf925b	0.025338342
27	0xbdfb14d5	-0.12259833
28	0xbe63133a	-0.22175303
29	0x3daa3381	0.08310605
30	0x3e0d022c	0.1377036
31	0x3e370a9c	0.17875141
32	0x3db20b1a	0.08693524
33	0xbe0ef614	-0.13961059
34	0xbda5a53f	-0.08088159
35	0x3d16fd16	0.036862455
36	0xbdeec962	-0.116595045
37	0xbe95e8b1	-0.29279092
38	0xbdb8a494	-0.09015766
39	0x3e25b2a5	0.16181429
40	0x3d6fc409	0.058536563
41	0xbe1b01b1	-0.15137364
42	0xbe4200e7	-0.18945657
43	0xbe90ac1a	-0.28256303
44	0xbe65e1dd	-0.22449441
45	0xbe5d6e94	-0.21624213
46	0xbeb6569b	-0.3561295
47	0xbec78574	-0.38969004
48	0x3c13a635	0.009011795
49	0x3dc0be3b	0.094112836
50	0xbe3b1af1	-0.18271996
51	0x3db3ea74	0.08784953
52	0xbe4c759e	-0.19966742
53	0x3e4a7336	0.19770512
54	0xbd8d8d7a	-0.0691175
55	0x3ce5a969	0.028034883
56	0x3d3cc4a3	0.046085965
57	0xbe7e30f0	-0.24823356
58	0x3d96a3cc	0.073554605
59	0xbd2fccea	-0.04292003
60	0xbe919353	-0.28432712
61	0x3eab2ced	0.33432713
62	0x3ddb0be0	0.10695624
63	0x3e2b06b8	0.16701782
64	0xbe2cbdb7	-0.16869245
65	0xbea31db7	-0.31858608
66	0xbd3040ba	-0.043030478
67	0x3e1e40a4	0.15454346
68	0xbe3174d1	-0.17329718
69	0xbeb722a9	-0.3576863
70	0xbdc03ed3	-0.09386983
71	0xbe41c17f	-0.18921469
72	0x3eb011cd	0.3438858
73	0xbe7746d5	-0.24148114
74	0xbe820d92	-0.25400978
75	0x3e87aa74	0.26497233
76	0xbee02a6b	-0.43782362
77	0x3e8d8ca2	0.27646357
78	0xbe141dc0	-0.14464474
79	0x3cce1217	0.02515511
80	0x3ef48b7c	0.47762668
81	0x3d9ef4b2	0.07761516
82	0xbdd33189	-0.103121825
83	0x3c9cad80	0.0191257
84	0x3e129b41	0.14317037
85	0xbea71d3f	-0.326395
86	0xbe891d2b	-0.26780066
87	0x3eb5d8c3	0.3551694
88	0xbe0b7e6a	-0.13622442
89	0xbd243a13	-0.040094446
90	0xbe122e62	-0.14275506
91	0xbd61d234	-0.055132106
92	0x3e91920b	0.28431734
93	0xbe97f15b	-0.29676327
94	0xbd7bf267	-0.06151047
95	0x3ef6cbf1	0.4820247
96	0xbe127032	-0.14300612
97	0xbe57bec2	-0.21068862
98	0xbe5c97fd	-0.21542354
99	0x3e0aa412	0.1353915
100	0xbe1f5a00	-0.15561676
101	0x3d7bf640	0.06151414
102	0xbdcb8da1	-0.09939123
103	0x3d86ca2a	0.065815285
104	0xbc8a8d21	-0.016912999
105	0xbded41ff	-0.115848534
106	0xbce49f41	-0.02790797
107	0x3ea35983	0.3190423
108	0xbce835fa	-0.02834605
109	0x3d9ca197	0.07648008
110	0xbd147034	-0.036239818
111	0x3d3036e3	0.043021094
112	0xbd9fa040	-0.07794237
113	0x3e2e3f08	0.17016232
114	0xbdf83ce2	-0.121209875
115	0xbd9e5a68	-0.077320874
116	0x3dfdccdf	0.12392592
117	0xbb8aaaf7	-0.0042318064
118	0x3dc11c87	0.09429269
119	0x3ee3bcc5	0.44479957
120	0xbe4ea713	-0.20180921
121	0xbca1b4d0	-0.019739538
122	0x3d230c95	0.03980692
123	0x3cb776e0	0.022395551
124	0x3b66b682	0.0035203998
125	0xbe8ae699	-0.27129057
126	0xbe8890c9	-0.26672962
127	0x3ea369e5	0.3191673
128	0x3e2d637e	0.16932485
129	0xbe92f4b7	-0.28702328
130	0x3ea7004e	0.3261742
131	0xbe23e8a4	-0.16006714
132	0x3d43b261	0.047777537
133	0xbe4643e0	-0.1936183
134	0xbea6d032	-0.32580715
135	0x3e9cd3ae	0.3063025
136	0x3e818f40	0.25304604
137	0x3e86361b	0.26213154
138	0x3dbd3aea	0.092397526
139	0xbe4f7d82	-0.20262721
140	0xbb68dbb8	-0.0035531353
141	0x3e0108b6	0.12600979
142	0xbd4275c5	-0.047475595
143	0xbdee9db8	-0.11651176
144	0x3e81a179	0.25318506
145	0x3eb2f99b	0.3495606
146	0x3b08b8b3	0.0020862042
147	0x3dd0398f	0.101672284
148	0xbe8e6509	-0.2781146
149	0xbdc8c838	-0.09803814
150	0x3d8728a2	0.06599547
151	0x3d775095	0.060379583
152	0x3e2f6293	0.17127447
153	0xbe9c9f99	-0.30590513
154	0x3e8e18ac	0.27753198
155	0x3da148c4	0.07875207
156	0xbea06894	-0.31329787
157	0xbe00933c	-0.12556165
158	0xbe7b85d0	-0.24562764
159	0x3d08c3ff	0.03339004
160	0xbd444f44	-0.047927156
161	0xba32853e	-0.0006810016
162	0xbe264d79	-0.16240491
163	0x3d2d1c95	0.042263586
164	0x3da6f4be	0.081521496
165	0xbe08eba4	-0.1337114
166	0x3ea33c78	0.31882071
167	0xbd65084b	-0.055916112
168	0x3d2e9ca3	0.04262985
169	0xbe925bf4	-0.2858578
170	0x3d58cc79	0.052929375
171	0x3da0da76	0.07854168
172	0x3e8b5831	0.27215722
173	0xbe7b6cad	-0.24553175
174	0x3e2f03c4	0.1709128
175	0x3ec6769c	0.38762367
176	0x3e25a924	0.16177803
177	0xbda93e61	-0.08263851
178	0xbe31b2b6	-0.17353329
179	0x3d9147d0	0.07093775
180	0xbb083be1	-0.0020787644
181	0xbe4cab78	-0.19987285
182	0xbea13e35	-0.31492773
183	0x3e14b65b	0.14522688
184	0x3df04fcc	0.1173397
185	0xbb1825fa	-0.0023215995
186	0xbe6578c3	-0.22409348
187	0x3e1321cd	0.14368363
188	0xbe03b9c6	-0.12863836
189	0x3d6ea74a	0.058265008
190	0xbe70b5d1	-0.23506857
191	0x3dad6ec1	0.0846839
192	0x3e3808ea	0.1797215
193	0x3e5744d5	0.21022351
194	0xbe323e31	-0.17406537
195	0x3db4d548	0.08829743
196	0x3e851b0a	0.25997192
197	0x3e1e62d7	0.15467392
198	0x3d29b756	0.04143461
199	0xbd5c46d1	-0.053778473
200	0x3c8de51d	0.017321164
201	0xbe86e02e	-0.2634291
202	0xbde715be	-0.11283444
203	0xbc3d4d86	-0.011554128
204	0x3e9f768d	0.31145135
205	0xbe0b7a25	-0.13620813
206	0x3da45eda	0.08025904
207	0x3cef4e6c	0.0292122
208	0xbe57899b	-0.21048586
209	0xbe320770	-0.1738565
210	0xbe5cafa4	-0.21551377
211	0x3d9b3101	0.07577706
212	0x3e6d7713	0.23189954
213	0xbd4910a0	-0.04908812
214	0x3e1ad73a	0.15121165
215	0xbeaf8e31	-0.3428817
216	0x3d995124	0.074861795
217	0xbe8815cf	-0.2657914
218	0xbe3f5f9e	-0.18688819
219	0x3eb52b9f	0.35384843
220	0xbe465caf	-0.19371293
221	0xbe5d6ded	-0.21623965
222	0xbdf52f43	-0.11971905
223	0xbe5d66c0	-0.21621227
224	0xbd883a5b	-0.066517554
225	0x3e3287c3	0.17434601
226	0xbe93c873	-0.28863868
227	0x3d9bfcfe	0.07616614
228	0x3d7798a7	0.060448315
229	0x3dddebea	0.10836013
230	0xbd0eca67	-0.034860995
231	0xbe8ba6e7	-0.27275774
232	0xbe4d6b7e	-0.20060536
233	0x3c8870fc	0.016655438
234	0xbe0ae0ce	-0.13562319
235	0xbe2e49e4	-0.17020375
236	0xbeaf0ec6	-0.3419096
237	0x3d9e6fe8	0.07736188
238	0x3e2ec0e9	0.17065777
239	0x3de79ee4	0.11309603
240	0x3e2a77dc	0.16647285
241	0x3e83fcda	0.25778848
242	0x3e9bcf4d	0.30431595
243	0xbe54fb69	-0.2079903
244	0x3d8a3be9	0.06749708
245	0x3e231e4e	0.15929529
246	0x3b62333d	0.0034515404
247	0x3d505bfb	0.05086897
248	0x3ea087d9	0.31353644
249	0x3c7b6060	0.015342802
250	0xbe9d6745	-0.3074285
251	0x3e592765	0.21206434
252	0xbde2b15e	-0.11068986
253	0xbe97d5d4	-0.29655325
254	0xbe160590	-0.1465056
255	0xbd9a72f1	-0.075414546

network_body._body_endoder.seq_layers.0.bias f4 [128]
0	0xbcffe653	-0.031237757
1	0xbba7d028	-0.0051212497
2	0xbd70d0b5	-0.05879279
3	0x3cf01dc6	0.029311072
4	0xbb223179	-0.0024748726
5	0xb8ab7cbe	-8.1771504e-05
6	0xbc00d613	-0.007863539
7	0xbc8d33d2	-0.017236624
8	0xbd06c2ee	-0.032900743
9	0xbcba1d58	-0.02271907
10	0x3aa732ff	0.0012756287
11	0xb934a6e0	-0.00017228303
12	0x3d021f0f	0.0317679
13	0xbd0117af	-0.031516727
14	0x3cb53a76	0.022122603
15	0x3c8d1cfd	0.017225737
16	0xbc49a2b0	-0.012306854
17	0xbc7fc5c3	-0.015611115
18	0x3c5b9ea8	0.013404526
19	0xbc3f980d	-0.011693967
20	0x3bab6c09	0.0052313847
21	0xbcf3120c	-0.029671691
22	0xbd1c1d70	-0.03811401
23	0x3b83ee44	0.004026206
24	0xbc0deeb2	-0.008662866
25	0xbcf9a8a9	-0.030475931
26	0xb9db4a98	-0.00041826512
27	0x3b34295e	0.0027490477
28	0xbca22d6c	-0.01979705
29	0x3b904648	0.0044029094
30	0xbce0143c	-0.027353399
31	0xb917cd1e	-0.00014476894
32	0xbcca5066	-0.02469654
33	0xbb357ff9	-0.0027694686
34	0xbce19066	-0.027534675
35	0xbd003349	-0.03129891
36	0xbc4e819f	-0.012604146
37	0xbc54db1c	-0.012991693
38	0xbce6d97b	-0.028179875
39	0x3ccdf6d0	0.025142103
40	0xbc624ded	-0.013812524
41	0xbbf4a20f	-0.007465608
42	0xbb70c113	-0.0036736175
43	0xbbf1bcd7	-0.007377248
44	0xbc67bb58	-0.014143787
45	0xbcbe416f	-0.02322456
46	0xbb9e0dcb	-0.0048234216
47	0x3ae10a4b	0.0017169205
48	0xbca1c2f7	-0.019746287
49	0xbcc25666	-0.023722839
50	0xbbbc49c5	-0.0057460987
51	0xbcca8385	-0.024720917
52	0xbd6253a2	-0.05525554
53	0x3c1b5594	0.009480853
54	0xbb39f327	-0.002837369
55	0xbc0be9e5	-0.0085396515
56	0xbd47753c	-0.048695788
57	0xbc6b9d7d	-0.01438081
58	0xbc2f7f72	-0.010711538
59	0x3cd60edf	0.026130138
60	0xbc4a9095	-0.012363573
61	0xbba67e74	-0.0050809924
62	0x3d03c59b	0.032170873
63	0x3c8b5d20	0.017012179
64	0xbc5a8a08	-0.013338573
65	0xbcc8bf2f	-0.024505226
66	0x3c191b4b	0.009344886
67	0xbd24b83f	-0.040214773
68	0x3d072718	0.032996267
69	0xbbed2f1e	-0.007238283
70	0xbd5ac210	-0.05340773
71	0x3c3b3d2a	0.011428157
72	0xbc0a8c4f	-0.008456304
73	0x3c6ee77a	0.0145815555
74	0x3c3903d8	0.01129242
75	0xbc7fd887	-0.015615589
76	0x3c52f635	0.012876083
77	0x3be00cce	0.006837464
78	0xba7ed803	-0.00097215193
79	0x3cac7e4c	0.021056317
80	0x3cea5da2	0.0286091
81	0xbd52292b	-0.051308792
82	0x3c5717bc	0.013128217
83	0xbd4d7121	-0.050156716
84	0x3c6e9129	0.014560976
85	0xbd9da5c8	-0.07697636
86	0xbca298e0	-0.019848287
87	0x3c620178	0.0137942955
88	0xbbb31b26	-0.005465883
89	0x3bc3ee32	0.005979323
90	0xbc0397a1	-0.008031757
91	0x3ca7d096	0.020485204
92	0x3bdc81da	0.0067293467
93	0x3c2b4339	0.010453039
94	0x3ba45aa2	0.005015687
95	0xbc90b02f	-0.017662136
96	0xbc9e3199	-0.01931076
97	0x3c94a8b3	0.018146848
98	0x3c2d41e0	0.010574788
99	0xbcf2ed59	-0.029654192
100	0xbd0098b2	-0.03139562
101	0xbc603166	-0.0136836525
102	0xbc6511b5	-0.0139812725
103	0xbcc19fd5	-0.023635784
104	0x3c1fc9b8	0.009752683
105	0xbb0c24d1	-0.002138425
106	0xbd08b51e	-0.03337585
107	0xbb336892	-0.0027375561
108	0xbcf5861a	-0.029971171
109	0xbc5024e3	-0.012704107
110	0xbbf3016c	-0.007415941
111	0xbc39f02c	-0.011348765
112	0xbb6359bc	-0.0034690937
113	0xbc699f7f	-0.014259218
114	0xbc8a0b37	-0.01685105
115	0x3cee4724	0.029086657
116	0xbcb273ed	-0.021783793
117	0xbc66c03d	-0.014083919
118	0x3d009e63	0.03140105
119	0xbd2c0b09	-0.04200271
120	0xbbc91247	-0.006136212
121	0xbba55d12	-0.0050464952
122	0xbca5296e	-0.020161357
123	0xbcea8112	-0.028625999
124	0xbd002de8	-0.03129378
125	0x3b5096fa	0.003182827
126	0xbbd77b47	-0.006575975
127	0xbc31fe8b	-0.01086391

network_body._body_endoder.seq_layers.2.weight f4 [128, 128]
0	0x3d411904	0.047142997
1	0xbd8d033c	-0.068853825
2	0x3d0527a4	0.032508507
3	0xbc77df9d	-0.015128997
4	0x3e156791	0.14590289
5	0xbd07fa1f	-0.03319752
6	0x3da8fb69	0.08251078
7	0x3e081aac	0.13291425
8	0xbdcc0569	-0.099619694
9	0xbd35cbe1	-0.044383887
10	0x3d2de302	0.04245282
11	0xbc9917d9	-0.01868813
12	0x3cc59214	0.024117507
13	0xbd90b11b	-0.0706503
14	0xbcba657b	-0.022753468
15	0x3d98a7ff	0.07453918
16	0x3dc96adb	0.09834834
17	0xbd1381fb	-0.03601263
18	0x3a5bdf94	0.0008387503
19	0xbd4da0e9	-0.050202284
20	0xbbec4b72	-0.007211142
21	0xbcf88f6e	-0.03034183
22	0x3d1f8b9d	0.038951505
23	0x3e81e686	0.25371188
24	0xbdd67286	-0.10471062
25	0x3bb5ee70	0.0055521056
26	0x3bb55e84	0.005534949
27	0xbe18a45e	-0.14906451
28	0x3e47996f	0.19492124
29	0xbe072e4c	-0.13201255
30	0x3e2ad2ed	0.16682024
31	0xbbfe80a8	-0.007766802
32	0x3c14520a	0.009052763
33	0xbd39a13c	-0.04531978
34	0x3e0886e9	0.13332714
35	0x3e25185e	0.16122577
36	0x3d7c121f	0.06154072
37	0x3d53b06b	0.051681917
38	0x3d4d74ad	0.0501601
39	0xbbeea7fd	-0.0072832094
40	0x3d03cee1	0.032179717
41	0xbdb9accc	-0.090661615
42	0xbd01d2a2	-0.031695016
43	0xbe321fe5	-0.1739498
44	0xbdb41a9f	-0.0879414
45	0x3dbb2bf5	0.091392435
46	0x3d0d70b6	0.034531318
47	0x3d18b94b	0.037286084
48	0x3cadfa09	0.02123739
49	0xbd7f587e	-0.062340252
50	0x3b2d5f4d	0.0026454509
51	0x3ce78a63	0.02826423
52	0x3d2c31fa	0.04203985
53	0xbba4f716	-0.0050343378
54	0xbe067b29	-0.1313292
55	0xbc9c27dd	-0.019061977
56	0xbc8b99a9	-0.017041044
57	0x3da7e250	0.081974626
58	0xbd92f7d7	-0.07176178
59	0x3d4959d1	0.04915792
60	0x3d2975b4	0.041372016
61	0x3c8e97f6	0.017406445
62	0xbdb7e0d3	-0.08978429
63	0x3df9872e	0.121839866
64	0xbdd1b13c	-0.10238883
65	0xbd7150d9	-0.058914993
66	0xbe45005b	-0.19238417
67	0xbde63df0	-0.112422824
68	0xbd828c71	-0.06374443
69	0x3cdbec17	0.026845975
70	0xbdc35817	-0.09538286
71	0x3df23409	0.11826331
72	0x3c116eef	0.008876546
73	0x3ddd9b4f	0.108206384
74	0xbd62baf2	-0.055354066
75	0xbd977b31	-0.07396544
76	0x3e3fdd88	0.18736851
77	0xbb26301c	-0.0025358265
78	0xbdb0cd20	-0.086328745
79	0xbdaa876c	-0.08326611
80	0xbce1cff0	-0.027564973
81	0xbe5cec4a	-0.21574512
82	0x3d356566	0.044286154
83	0x3d95ce69	0.0731476
84	0xbc439bcd	-0.011939001
85	0xbe2c4bcf	-0.16825794
86	0x3b5119ce	0.003190625
87	0x3e2bdc40	0.16783237
88	0x3cbe7b02	0.023252014
89	0x3bdc619b	0.0067255027
90	0x3d013012	0.031539984
91	0x3e37adf9	0.17937459
92	0xbc8efa93	-0.017453467
93	0x3d83b2ef	0.06430613
94	0x3cbcbea6	0.023040127
95	0x3e43afbb	0.19110005
96	0xbc346781	-0.011011005
97	0x3da8c316	0.08240335
98	0xbd608c42	-0.05482126
99	0x3e331c4b	0.17491262
100	0xbdaf3ce8	-0.08556539
101	0x3dac2075	0.08404628
102	0x3cc5c550	0.024141937
103	0xbe3bcbcc	-0.18339461
104	0x3bd90228	0.0066225715
105	0x3d2126a1	0.03934348
106	0xbe1ea2c5	-0.15491779
107	0xbb6c821a	-0.0036088289
108	0x3dc52fcd	0.09628258
109	0xbcdd0368	-0.026979163
110	0x3d5928bd	0.053017367
111	0x3dbeee25	0.09322766
112	0xbc251984	-0.010076884
113	0x3e0c5980	0.13706017
114	0x3c0e241e	0.008675603
115	0x3d93664d	0.07197247
116	0xbdb242fa	-0.08704181
117	0xbe064a59	-0.13114299
118	0xbd047a69	-0.032343302
119	0x3c92cc7f	0.017919777
120	0xbd0e0989	-0.034677062
121	0xbd56b1ad	-0.05241554
122	0xbce431e9	-0.02785583
123	0x3ca95d8f	0.020674495
124	0xbcd7fec0	-0.026366591
125	0xbd5ea23a	-0.05435393
126	0xbd6fe49b	-0.058567625
127	0x3e345b76	0.17613015
128	0x3d923ef5	0.07140914
129	0xbdda8cb2	-0.10671367
130	0x3c1c58ed	0.009542686
131	0x3dfbbeb5	0.12292234
132	0xbbcc760a	-0.0062396573
133	0xbd87d4ee	-0.0663241
134	0x3e6eaf9a	0.23309174
135	0x3ded2133	0.11578598
136	0x3c986c86	0.018606436
137	0xbd1a2df1	-0.03764147
138	0xbcc562f4	-0.024095036
139	0x3d85f714	0.06541267
140	0xbdd0ad3c	-0.10189292
141	0xbe171e67	-0.14757691
142	0xbd2f8d5f	-0.04285943
143	0x3d27e317	0.040988054
144	0x3e07fef7	0.13280855
145	0xbe0bfcc7	-0.13670646
146	0xbe0a5a99	-0.13511123
147	0xbc853808	-0.01626207
148	0xbd14cc1c	-0.036327466
149	0xbd66a7e9	-0.056312475
150	0xbd908038	-0.07055706
151	0xbcf3ab55	-0.029744783
152	0xbc52d1c3	-0.012867394
153	0xbd994283	-0.07483389
154	0xbbbbbf06	-0.005729559
155	0x3d6ed643	0.058309805
156	0x3d1c5b13	0.038172793
157	0xbd7efc57	-0.06225237
158	0xbe86e19f	-0.2634401
159	0x3e61f826	0.22067317
160	0xbd130dfe	-0.035902016
161	0xbcd23799	-0.025661277
162	0xbe16a802	-0.14712527
163	0xbd8b0406	-0.06787877
164	0xbcb7f99c	-0.02245789
165	0x3e482ac6	0.19547567
166	0xbd63652c	-0.055516407
167	0xbd89fdd9	-0.06737871
168	0xbdc4915a	-0.09598036
169	0x3dbbba26	0.09166364
170	0xbbc8948e	-0.0061212247
171	0x3d36d84b	0.044639867
172	0xbe0d250c	-0.13783664
173	0xbda4f06a	-0.08053668
174	0xbc073b6f	-0.008253916
175	0x3ce03109	0.027367132
176	0xbd28a065	-0.04116859
177	0xbe155b2a	-0.14585558
178	0xbc95978d	-0.018260742
179	0xbd1b74ba	-0.037953116
180	0xbd986bb6	-0.07442419
181	0x3b9e1310	0.00482405
182	0x3855d60a	5.0982497e-05
183	0x3d006880	0.03134966
184	0xbd843523	-0.064554475
185	0xbe87d6ca	-0.2653106
186	0x3dc87585	0.0978804
187	0x3b859678	0.004076775
188	0x3be69ce8	0.0070377477
189	0xbe72451d	-0.23659177
190	0xbaac5686	-0.0013148345
191	0xbcd6de9e	-0.026229199
192	0x3d5273c6	0.05137994
193	0x3d75243f	0.05984902
194	0xbd30595c	-0.04305397
195	0xbd0720b6	-0.03299018
196	0xbdb4f3c1	-0.08835555
197	0xbe52fdce	-0.20604631
198	0xbd084741	-0.033271078
199	0xbe06c707	-0.1316186
200	0x3da36665	0.079785146
201	0x3e08f1b5	0.13373454
202	0x3d2e0d61	0.042493228
203	0xbe1c74bd	-0.15278907
204	0x3c06a727	0.008218563
205	0x3af70b4a	0.0018847969
206	0xbd206f39	-0.03916857
207	0x3d3b9616	0.04579743
208	0x3dc0169b	0.09379312
209	0x3e115773	0.14193515
210	0x3ce868e5	0.02837033
211	0xbda25bc9	-0.07927663
212	0x3c2f18c8	0.010687061
213	0x3d84cdb1	0.06484545
214	0xbd8624f8	-0.0655002
215	0xbdf914aa	-0.121621445
216	0xbd0443e6	-0.032291315
217	0x3de506fb	0.11182972
218	0xbe20371f	-0.15646027
219	0x3d2942b9	0.041323397
220	0x3dcd26fd	0.10017202
221	0xbc7f5529	-0.015584269
222	0x3dedcd8c	0.116114706
223	0xbd95023b	-0.07275816
224	0x3daec67b	0.08533951
225	0xbe123ffa	-0.14282218
226	0xbd044fbd	-0.032302607
227	0x3e2113c4	0.15730196
228	0xbd6c8b41	-0.05774999
229	0xbd83877e	-0.064223275
230	0xbdc8c544	-0.098032504
231	0x3dc5b29e	0.09653209
232	0xbd8c293b	-0.068438016
233	0xbd9ebaf5	-0.07750503
234	0xbd606cbd	-0.0547912
235	0xbdb24d2b	-0.08706125
236	0x3d6d09db	0.057870727
237	0x3db26918	0.08711451
238	0xbd4c5855	-0.049888927
239	0x3d228c7b	0.039684754
240	0xbcd59581	-0.026072266
241	0xbca65317	-0.020303292
242	0x3dd25a8a	0.10271175
243	0x3dee0dfe	0.116237625
244	0xbdc6e671	-0.09711922
245	0x3d9e01e5	0.07715205
246	0xbe224f8e	-0.1585066
247	0x3d9c06ab	0.07618459
248	0xbcf87927	-0.030331207
249	0xbe047ba4	-0.1293779
250	0xbe0f042d	-0.13966437
251	0xbd1387a6	-0.036018036
252	0xbce95e97	-0.028487487
253	0xbe0408c6	-0.12893972
254	0x3e258526	0.16164073
255	0x3de1bb2e	0.1102203

network_body._body_endoder.seq_layers.2.bias f4 [128]
0	0x3d189634	0.03725262
1	0xba8e260c	-0.0010845079
2	0xbd1fc3d9	-0.039005134
3	0xbc67b42f	-0.01414208
4	0x3c20c7a7	0.009813226
5	0xbc05a797	-0.008157632
6	0x3b1e6a57	0.002417227
7	0xbb2742d7	-0.0025522017
8	0xbc0a8aa2	-0.008455904
9	0xbd112443	-0.035434972
10	0xbb8f8cbc	-0.0043807905
11	0xbaf17d10	-0.0018424112
12	0xbc07d440	-0.00829035
13	0xbc7d5695	-0.015462537
14	0xbb24daa3	-0.0025154732
15	0x3c8afc20	0.016965926
16	0xbcc6186c	-0.024181567
17	0xba3b8cae	-0.0007154447
18	0x3740d3bc	1.149339e-05
19	0xbc961da1	-0.018324675
20	0x3d02203f	0.031769034
21	0xbc9fee6c	-0.019522868
22	0xbc761fac	-0.0150222
23	0xbc2028e4	-0.009775374
24	0xbcc0246d	-0.02345487
25	0xbc89e720	-0.016833842
26	0x3cc3a07f	0.023880241
27	0x3b41e7d5	0.0029587646
28	0x3b9d2de1	0.004796729
29	0x3c5df0cc	0.01354618
30	0x3c92ed27	0.017935349
31	0xbbcbca19	-0.0062191603
32	0x3c29f50a	0.010373363
33	0xbc8539a5	-0.016262839
34	0xbcae81ae	-0.02130207
35	0xbc87f564	-0.016596504
36	0xbd2249b3	-0.039621066
37	0x3d3904ba	0.045170523
38	0xbc7b2c8d	-0.015330446
39	0x3d39fc3e	0.045406573
40	0x3b8026f3	0.003910893
41	0xbccc43f2	-0.024934743
42	0x3b249cdf	0.0025117917
43	0x3d09647f	0.033543106
44	0xbccc83d0	-0.024965197
45	0xbbf6bb5e	-0.00752966
46	0xbc71bc73	-0.014754402
47	0xbb880134	-0.004150534
48	0xbcc9d3ce	-0.02463713
49	0xbb93cabd	-0.0045102523
50	0xbcda2a4b	-0.026631495
51	0xbcad5878	-0.02116035
52	0x3ca56c80	0.020193338
53	0xbc06f341	-0.008236707
54	0xbcd8ea43	-0.026478892
55	0x3bc22d20	0.0059257895
56	0x3c246cb9	0.010035687
57	0xbc9a2946	-0.018818509
58	0x3bf92c0e	0.0076041287
59	0x3bf95479	0.007608947
60	0xbc369569	-0.011144021
61	0xbd304926	-0.04303851
62	0xbcf497dd	-0.02985757
63	0xbcb60816	-0.022220653
64	0xbcd444fe	-0.025911804
65	0x3c5561c6	0.013023799
66	0x3bc6a0e2	0.006061659
67	0xbc9bbefe	-0.01901197
68	0xbced9f06	-0.029006492
69	0x3c686e42	0.014186444
70	0xbce1b642	-0.027552728
71	0xbc276760	-0.010217518
72	0xbc491afb	-0.012274499
73	0xbc303993	-0.010755914
74	0x3cfbc9dc	0.030735902
75	0xbcf32f54	-0.029685654
76	0xbd1234dd	-0.035694946
77	0x3c921213	0.017830884
78	0xbc86d6a3	-0.016459769
79	0x3c957c47	0.018247737
80	0x3ca4ad68	0.020102218
81	0xbd780993	-0.060556006
82	0xbce28194	-0.027649678
83	0xbc4e0c1f	-0.012576132
84	0xbd256ada	-0.040385105
85	0x3c38a2c8	0.011269279
86	0x3b4c3a55	0.0031162698
87	0xbcf67710	-0.03008607
88	0xbc4ac06d	-0.012374979
89	0xbcbcd1ab	-0.023049196
90	0xbc8784fe	-0.016542908
91	0x3be5ae56	0.007009308
92	0x3c95c1a6	0.018280815
93	0xbbc1f05a	-0.0059185447
94	0xbaa7a26e	-0.0012789497
95	0x3ca5d898	0.020244882
96	0x3ba09c70	0.0049014613
97	0xbbf472a2	-0.0074599544
98	0x3c1e8232	0.009674596
99	0xbd26d2dd	-0.04072844
100	0xbc97e2df	-0.018540798
101	0x3bf6dfcd	0.0075340034
102	0xbcd1a9a2	-0.025593583
103	0xbd02dbc9	-0.031947885
104	0xbd02e754	-0.031958893
105	0x3c162b04	0.009165529
106	0xbb4ffdd4	-0.0031736987
107	0x3b8e5eea	0.0043448107
108	0x3c5f6acb	0.013636301
109	0x3bac6317	0.005260836
110	0x3c60d3de	0.013722388
111	0xbbe5a62d	-0.007008335
112	0xbd5f7e2f	-0.054563697
113	0xbcc49277	-0.023995621
114	0xbabdb0ec	-0.0014472282
115	0x3c253e83	0.010085705
116	0x3d07f258	0.0331901
117	0x3d06950b	0.032856982
118	0xbd0ac8c5	-0.033882875
119	0x3c395931	0.011312769
120	0x3b72ca85	0.003704698
121	0x3ab54ecd	0.0013832689
122	0x3be624e0	0.007023439
123	0x3c5289eb	0.012850265
124	0xbd0cb5ef	-0.034353193
125	0x3cb84498	0.022493646
126	0xbc716f13	-0.014735955
127	0xbc6ac517	-0.014329216

action_model._discrete_distribution.branches.0.weight f4 [5, 128]
0	0xbb745157	-0.0037279928
1	0x3cb81640	0.022471547
2	0xb9a258f5	-0.00030965326
3	0xbcdfb20a	-0.027306575
4	0xbcdb4a3d	-0.026768798
5	0x3cac9b11	0.021070035
6	0xbc975cab	-0.018476805
7	0x3c60f1af	0.013729497
8	0x3cdf6feb	0.027275046
9	0x3c2420f3	0.010017621
10	0x3bfdb914	0.0077430103
11	0xbc31a817	-0.010843298
12	0x3b8869bd	0.0041629956
13	0x3cece1c6	0.02891625
14	0xbd4eb4ef	-0.05046552
15	0x3d1f57b1	0.03890199
16	0x3c4bc728	0.012437619
17	0xbc890a29	-0.016728478
18	0xbc2d3d2d	-0.0105736675
19	0xbc84b578	-0.016199812
20	0x3cc7eb8b	0.024404308
21	0x3c8c558c	0.017130636
22	0x3a769546	0.0009406399
23	0x3b6664f7	0.0035155395
24	0xbc920f4d	-0.017829562
25	0xbb9d9df2	-0.0048100883
26	0x3bfdc67b	0.007744608
27	0xbc985e88	-0.018599764
28	0x3d240f01	0.04005337
29	0xbd8b13ab	-0.06790861
30	0x3bd349da	0.006448013
31	0x3c7c1fe4	0.015388463
32	0xbc101f81	-0.008796574
33	0x3c1d991d	0.009619025
34	0xbb1588d6	-0.0022817156
35	0x3c9f33ca	0.019433875
36	0x3c391064	0.011295412
37	0x3cc990f0	0.024605244
38	0x3b0b3a52	0.0021244478
39	0x3c8a0e1c	0.016852431
40	0x3c045de6	0.008079028
41	0xbc010535	-0.007874777
42	0x3cc35090	0.023842126
43	0xbbf66d73	-0.0075203716
44	0xbc12b217	-0.008953593
45	0x3ca8da33	0.020611858
46	0x3bd54413	0.006508359
47	0xbcc0964e	-0.02350917
48	0x3caba8d8	0.020954534
49	0xbcafb431	-0.021448227
50	0xbb0437e0	-0.0020174906
51	0x3ca8770c	0.020564578
52	0x3cdd50d9	0.02701609
53	0x3a950990	0.0011370648
54	0xbc8407f6	-0.016117077
55	0x3cb23b49	0.021756785
56	0x3c3b77ac	0.011442106
57	0x3c9e4a4a	0.019322533
58	0x3c8669f8	0.016407952
59	0x3cfd30db	0.030907085
60	0x3cd67713	0.026179826
61	0x3c7fd8a0	0.015615612
62	0x3c526a2f	0.012842699
63	0x3b43fc75	0.0029905115
64	0x3bfae468	0.0076566227
65	0x3cdaf90d	0.026730085
66	0xbcf5bd5e	-0.029997524
67	0x3cab5636	0.020915132
68	0x3c7fcda3	0.015612992
69	0x3ccba6df	0.024859844
70	0x3b9806b9	0.0046394733
71	0xbc845186	-0.016152155
72	0x3c086fd6	0.008327445
73	0x3c352de6	0.011058306
74	0x3d1121d4	0.03543265
75	0x3c34db7b	0.011038656
76	0x3cbedca6	0.023298573
77	0xbbbaf806	-0.005705836
78	0xbcbabb88	-0.0227945
79	0x3c80cdcc	0.015723132
80	0x3b0aa193	0.0021153435
81	0xbca35b98	-0.019941136
82	0x3b19e836	0.0023484356
83	0xbc051a50	-0.008123949
84	0xbc5452dd	-0.012959209
85	0x3b739d57	0.003717264
86	0x3b18e292	0.0023328406
87	0x3c1b1735	0.009465982
88	0xbcb6db11	-0.022321256
89	0x3c811200	0.015755653
90	0x3c9fa8e6	0.019489717
91	0x3c487914	0.0122358985
92	0xbc1bc9c7	-0.009508557
93	0x3ce8e9a0	0.028431714
94	0x3bf0b2b4	0.007345522
95	0xbc47df41	-0.012199224
96	0x3ab3ca5a	0.0013716922
97	0x3be716ef	0.0070522944
98	0xbc20dd13	-0.009818333
99	0x3cada46f	0.021196572
100	0xbc223950	-0.00990136
101	0xbb861d69	-0.0040928614
102	0x3b401f06	0.0029315366
103	0x3c7ddf19	0.015495085
104	0x3cc4339d	0.023950392
105	0x3c342166	0.010994291
106	0x3a5d787c	0.00084484345
107	0x3ca05e5c	0.019576244
108	0x3cc4c4f5	0.024019698
109	0x3c9a4358	0.01883094
110	0x3c7a7145	0.015285795
111	0xbc9ad23b	-0.018899074
112	0x3cd8cb34	0.026464082
113	0x3c7b161a	0.015325094
114	0xbd18a1d9	-0.037263725
115	0xbccdb351	-0.025109919
116	0x3badffe5	0.005310046
117	0x3d39ded8	0.045378536
118	0x3c05d687	0.008168823
119	0xbd1ecf78	-0.038772076
120	0xbbfb2b30	-0.0076650605
121	0xbbce6a24	-0.006299274
122	0xbc50aee9	-0.012737014
123	0xb9b3ad02	-0.0003427044
124	0x3cdda240	0.027054906
125	0x3c7d64b0	0.0154659
126	0xbb0967bf	-0.0020966379
127	0x3b528d60	0.0032127723
128	0x3c3f1f57	0.011665187
129	0x3b08ce5a	0.0020874948
130	0xbd3b547e	-0.045734875
131	0x3c0fd1b8	0.008778028
132	0xbcca62f1	-0.024705382
133	0xbbeefd6e	-0.0072933948
134	0x3d927b51	0.07152427
135	0x3a832355	0.0010005037
136	0x3b2ac17a	0.0026055262
137	0xbb28f5ea	-0.0025781342
138	0x3d2b6f79	0.041854355
139	0x3cd94a38	0.026524648
140	0xbb91cfc6	-0.0044498174
141	0x3b08db0e	0.002088252
142	0x3c3a58e3	0.011373731
143	0x3bde54e7	0.0067850235
144	0x3ca5b096	0.020225804
145	0x3d2fc5a2	0.042913087
146	0xbca218b9	-0.01978718
147	0x3b232fb7	0.0024900266
148	0xbc3dccb3	-0.011584449
149	0xbb3fd3b4	-0.0029270472
150	0xbccf2e05	-0.025290499
151	0x3c6a46e1	0.014299125
152	0xbbe98b97	-0.007127236
153	0x3a3e71a8	0.0007264861
154	0xbcde190d	-0.027111555
155	0x3cdc079b	0.026859095
156	0xbca343f1	-0.019929858
157	0x3d39dde7	0.04537764
158	0xbce4336e	-0.027856555
159	0xbb0606b0	-0.0020450763
160	0x3ca8b99e	0.020596322
161	0xbc14828a	-0.009064326
162	0x3bd24005	0.006416323
163	0xbb2c5c14	-0.00263
164	0x3c18712b	0.009304325
165	0xbc1d8c6e	-0.009616001
166	0x3c00a6d1	0.007852272
167	0x3d7199df	0.058984634
168	0x3d160458	0.036625236
169	0x3c630591	0.013856308
170	0xbc7cefaf	-0.015438004
171	0x3d040e0f	0.03223997
172	0xbca53a3e	-0.020169374
173	0x3cf8084f	0.0302774
174	0xb9966107	-0.0002868252
175	0x3d91a08e	0.071107015
176	0xbb319762	-0.0027098288
177	0x3d4f24ff	0.05057239
178	0xbc077a1e	-0.008268861
179	0x3c5f2471	0.013619528
180	0x3d5a94b6	0.053364478
181	0xbcc82902	-0.024433617
182	0xbbdfc5ee	-0.006829015
183	0xbb6bcfca	-0.0035982006
184	0xbce16904	-0.027515896
185	0xbca954ae	-0.020670261
186	0xba02d996	-0.0004991529
187	0x3c9664e0	0.018358648
188	0x3c56a705	0.013101344
189	0xbb8cb1d0	-0.004293658
190	0xbc7bc47c	-0.01536667
191	0xbc29650a	-0.010339031
192	0x3c4c34f3	0.012463796
193	0x3cef2941	0.029194476
194	0x3d5284a6	0.051396035
195	0xbaa338bf	-0.0012452825
196	0xbc3f7cf7	-0.011687509
197	0x3cbdcabd	0.023167962
198	0x3cbeae71	0.02327654
199	0x3c86e6bb	0.016467443
200	0xbcaae60d	-0.02086165
201	0x3bead5da	0.0071666064
202	0xbb37da7a	-0.0028053806
203	0x3a33f650	0.00068650115
204	0x3d3f1e70	0.046659887
205	0x3d0a6b09	0.033793483
206	0x3b07131b	0.0020610753
207	0x3c177145	0.009243314
208	0xbc44d157	-0.012012801
209	0xbc30937c	-0.0107773505
210	0xbcc83354	-0.024438538
211	0x3cd2ff55	0.025756517
212	0x3cc3ef06	0.023917686
213	0x3cdc2208	0.026871696
214	0x3c82e684	0.015979059
215	0x3c701864	0.014654253
216	0xbcf573dd	-0.029962474
217	0x3ae29cd6	0.0017289172
218	0x3d069568	0.03285733
219	0x3cf13233	0.029442882
220	0x3d01a402	0.03165055
221	0xbb97af3d	-0.0046290443
222	0x3be95b82	0.0071215043
223	0x3d25ec2c	0.040508434
224	0xbc0eff91	-0.008727924
225	0x3c7f7cab	0.015593688
226	0x3cc9a9cc	0.024617098
227	0x3c133ffb	0.008987422
228	0xbb732401	-0.0037100317
229	0x3ccb45c0	0.024813533
230	0xbc71a050	-0.014747694
231	0xbc11e14b	-0.008903812
232	0xbba7e8de	-0.0051241955
233	0xbc81bfd2	-0.015838537
234	0xbc5aafae	-0.013347549
235	0xbcd813ae	-0.026376572
236	0xbc94bcc4	-0.018156417
237	0xbbd098ad	-0.0063658566
238	0x3cd4527b	0.025918236
239	0xbcf7c62c	-0.030245863
240	0x3c6ec910	0.014574304
241	0x3c69b335	0.014263918
242	0x3d5a8ed0	0.053358853
243	0x3b603afc	0.0034214845
244	0xbbc22330	-0.005924605
245	0x3cfddf95	0.030990401
246	0x3c61bd04	0.013777975
247	0xbcc5b067	-0.024131967
248	0x3d300d37	0.042981353
249	0x3be42ab0	0.0069630966
250	0x3ca128ca	0.01967277
251	0xbc461b5b	-0.012091483
252	0xbb77a452	-0.0037787152
253	0xbc45653a	-0.01204806
254	0xbc8ce9d4	-0.017201342
255	0xbb44e2fd	-0.0030042522

action_model._discrete_distribution.branches.0.bias f4 [5]
0	0xbbe735dc	-0.007055981
1	0x3cd27e4b	0.025694987
2	0x3c6414f9	0.013921016
3	0x3ca25af8	0.019818768
4	0xbcde45a0	-0.02713281

action_model._discrete_distribution.branches.1.weight f4 [4, 128]
0	0x3bb2bb97	0.0054544914
1	0x3c7dcc9f	0.01549068
2	0xbaf302e7	-0.0018540294
3	0xbcbd6bcc	-0.02312269
4	0xbcc49680	-0.023997545
5	0xbc99cf27	-0.018775536
6	0xbc6dcceb	-0.014514188
7	0x3b0133fd	0.0019714825
8	0xbbe791a7	-0.0070669237
9	0xbc2bacfb	-0.0104782535
10	0x3b76f853	0.0037684634
11	0xbc64fb76	-0.013975969
12	0xbbde385f	-0.0067816223
13	0xbca9121d	-0.02063852
14	0xbd044964	-0.032296553
15	0xbd2e4561	-0.042546634
16	0xbb4b491b	-0.0031018916
17	0xbcfef4c5	-0.031122575
18	0xbca0aafa	-0.019612778
19	0xbc38a2d6	-0.011269292
20	0x3c458418	0.012055419
21	0x3c0fd837	0.008779577
22	0x3be37535	0.0069414624
23	0xbb46e61e	-0.0030349563
24	0x3b29daac	0.0025917692
25	0xbbd492dd	-0.006487234
26	0xbb910fc1	-0.004426927
27	0xbc8357c8	-0.016033068
28	0xbc35b514	-0.011090536
29	0xba8aef27	-0.0010599837
30	0xbc74b411	-0.014935509
31	0xbac4ce12	-0.0015015027
32	0xbd32eec5	-0.04368474
33	0xbc4e0f8e	-0.012576951
34	0x3c0939e8	0.008375622
35	0xbc1548cc	-0.009111594
36	0xbc13c570	-0.009019241
37	0xbbe5e032	-0.0070152516
38	0x3a0317f5	0.00050008233
39	0x3c0410fb	0.008060689
40	0x3ca580fe	0.02020311
41	0x3b81640a	0.003948693
42	0xbc26adea	-0.0101733
43	0x3b29f6f8	0.0025934558
44	0xbcf2ee33	-0.029654598
45	0xbbca0cc3	-0.006166072
46	0x3b5f7b2a	0.003410051
47	0x3c4e9fba	0.012611324
48	0xbc434adb	-0.011919702
49	0xbc2a92f7	-0.010411016
50	0xbc17e57f	-0.009271025
51	0xbc8add15	-0.016951123
52	0x3c9dcaee	0.019261803
53	0x3b34e488	0.0027602036
54	0xbb001419	-0.001954323
55	0xbb43c0cc	-0.0029869555
56	0xbcabed19	-0.02098708
57	0xbc292156	-0.010322889
58	0x3bdc0fac	0.0067157354
59	0xbcbea569	-0.023272233
60	0x3a5670f2	0.00081802823
61	0xba634b50	-0.0008670585
62	0xbba626cf	-0.0050705443
63	0x3be42a19	0.0069630262
64	0x3b70a178	0.0036717337
65	0x3aa3c99b	0.0012495996
66	0x3c5ddaf3	0.013540971
67	0x3a38b021	0.0007045288
68	0x3c44f704	0.012021784
69	0x3c1b457b	0.009477015
70	0x3c47fb12	0.012205856
71	0xbcee06ca	-0.029055972
72	0xbcc06d7a	-0.023489702
73	0xbb466c6e	-0.0030277031
74	0x3c31195e	0.010809271
75	0xbbf3432b	-0.0074237785
76	0xb9fcf873	-0.00048250295
77	0x3c0da531	0.008645342
78	0xbc334ae4	-0.010943148
79	0xbb6b1c48	-0.0035875011
80	0xbbb4f3c0	-0.0055222213
81	0x3c026ec6	0.007960981
82	0xbbb9c574	-0.00566929
83	0xbc1d14bc	-0.009587463
84	0x3b23fef8	0.00250238
85	0x3c53acfc	0.012919661
86	0xbc130397	-0.008973024
87	0xbc769350	-0.0150497705
88	0xbc7a5b3b	-0.01528054
89	0xbc8c51c5	-0.017128835
90	0x3b4c5beb	0.0031182717
91	0x3cbc749a	0.023004819
92	0x3c61200c	0.013740551
93	0xbaabafde	-0.0013098677
94	0x3c31b34f	0.010845973
95	0x3b52f725	0.0032190767
96	0x3ca260d2	0.019821558
97	0xbbf399cc	-0.0074341055
98	0xbd1f815a	-0.03894172
99	0xbc9f4841	-0.019443633
100	0xbc199631	-0.009374187
101	0x3cc71cdf	0.024305759
102	0x3c04fa33	0.008116293
103	0xbc81bf0f	-0.015838174
104	0x3bf9acdc	0.0076194834
105	0xba49129c	-0.00076703145
106	0xbc8400f3	-0.016113734
107	0xbbe36ca6	-0.006940442
108	0xbc984d28	-0.018591478
109	0xbb36e7ba	-0.0027909116
110	0x3c6954d1	0.014241413
111	0xbc7b7c97	-0.015349529
112	0xbc1f4f9f	-0.009723573
113	0x3bb5cbea	0.00554799
114	0xbaf490e2	-0.0018658901
115	0xbd5b568a	-0.053549327
116	0xbd185c28	-0.037197262
117	0x3cd81e63	0.026381677
118	0x3c0a54b3	0.008443045
119	0xbc23f06e	-0.010006053
120	0xbbda96e5	-0.00667082
121	0xbcb8a34f	-0.02253881
122	0x3cbadcf2	0.022810433
123	0xbb389155	-0.0028162797
124	0xbc7761d5	-0.015099009
125	0xbd54477e	-0.051825993
126	0xbc269c7b	-0.010169144
127	0xbb918712	-0.0044411505
128	0x3c5a34c2	0.0133182425
129	0x3bfa3fb4	0.0076369885
130	0xbbe66637	-0.007031228
131	0xbc0a456d	-0.008439404
132	0x3ca1b2ba	0.019738544
133	0x3a0f19a1	0.0005458836
134	0x3b7d6b46	0.0038668676
135	0x3afa8a30	0.0019114669
136	0xbc4b353f	-0.012402832
137	0x3b8d09f8	0.004304167
138	0xbca0f8c2	-0.019649867
139	0x3b86ad3c	0.0041100066
140	0x3b996322	0.004681007
141	0x3c560de6	0.013064837
142	0xbc0a0bd2	-0.00842567
143	0xbd14e86e	-0.036354475
144	0xbc5f037e	-0.013611672
145	0xbc951dd0	-0.018202692
146	0x3ce62bbd	0.028097028
147	0xbb24aa44	-0.00251259
148	0xbcf84790	-0.030307561
149	0xba8f41cc	-0.0010929643
150	0xbc4d3c16	-0.012526533
151	0x3bab3648	0.0052249767
152	0x3b822021	0.003971115
153	0x3aac6494	0.0013152533
154	0x3c43a98a	0.011942277
155	0x3b10ea1b	0.0022112194
156	0x3cdc1735	0.026866535
157	0xbd25f5d7	-0.040517654
158	0x3c9b261b	0.018939069
159	0xbc32a765	-0.010904168
160	0x3ca0d8cb	0.019634625
161	0x3d12fc89	0.035885368
162	0x3bca21c3	0.0061685755
163	0xbbb46331	-0.0055049886
164	0x3c95e714	0.018298663
165	0xbd020d8d	-0.031751204
166	0x3b99d742	0.00469485
167	0xbd5969d1	-0.05307943
168	0xbd01894a	-0.03162507
169	0xbd3e3b66	-0.046443366
170	0xbb1d6d49	-0.0024021438
171	0x3bca9d6b	0.0061833165
172	0x3cc1d412	0.023660693
173	0x3bbc7416	0.005751143
174	0x3c5a1734	0.013311196
175	0xbce0ffce	-0.027465727
176	0x3ba38e1f	0.0049913074
177	0x3a1c7a39	0.00059691403
178	0x3aedde3e	0.0018147898
179	0xbba669da	-0.0050785365
180	0xbbd84de6	-0.006601083
181	0xbc8bbd78	-0.01705812
182	0xbbe2d98a	-0.0069229053
183	0x3bd07b67	0.006362367
184	0x3ca76a95	0.020436564
185	0xbb9de738	-0.004818823
186	0xb9f3358a	-0.00046388461
187	0x3d2675f1	0.04063982
188	0xbc2f290e	-0.010690941
189	0xbb0e8dca	-0.0021751993
190	0x3bfa209b	0.0076332814
191	0xbb900cf8	-0.0043960772
192	0xbba07d71	-0.0048977663
193	0x3aee57cf	0.0018184128
194	0xbd4c54b0	-0.04988545
195	0xbc081f19	-0.0083081955
196	0x3c80baaa	0.015714008
197	0xbc276d4e	-0.010218931
198	0xbc9998b4	-0.018749572
199	0x3c53a369	0.012917378
200	0x3c965143	0.018349295
201	0xba9f71d3	-0.001216466
202	0x3c8e81e7	0.017395927
203	0xbc2ca32a	-0.010536948
204	0xbc55cde2	-0.013049575
205	0xbc7ae1b5	-0.015312602
206	0x3cc5e594	0.024157323
207	0xba069d51	-0.00051351363
208	0xbc0ddc71	-0.008658514
209	0xbbaa5c48	-0.005198989
210	0xbcd89960	-0.026440322
211	0xbbd82d27	-0.0065971795
212	0xbc249ea2	-0.010047587
213	0xbcfd4b7c	-0.030919783
214	0xbc0be126	-0.008537566
215	0x3c28d667	0.010305024
216	0xbc581fa2	-0.013191136
217	0x3b70f6e1	0.0036768245
218	0xbd00a571	-0.031407777
219	0xbd2ad7b9	-0.041709635
220	0xbd14c565	-0.036321063
221	0x3ca504b0	0.020143837
222	0x3cfb323b	0.0306636
223	0x3ba13d2a	0.0049206214
224	0x3c8e6a96	0.017384809
225	0xbc5b93a1	-0.013401897
226	0x3d065833	0.032798957
227	0x3b2cb18c	0.0026350943
228	0x3c3ec480	0.011643529
229	0xbccba7db	-0.024860313
230	0xbbe804da	-0.0070806565
231	0xbbc58bc5	-0.0060286247
232	0xbcb856ad	-0.022502268
233	0xbca5b740	-0.020228982
234	0xbd074ef6	-0.033034287
235	0xbc4188ba	-0.011812383
236	0x3d0e12dd	0.03468596
237	0xbc0aaa92	-0.008463519
238	0x3b5ebbad	0.0033986375
239	0xbb643430	-0.0034821145
240	0xbb27994f	-0.0025573557
241	0x3d691295	0.056902487
242	0xbcd5c7e8	-0.0260963
243	0x3b8c0268	0.004272748
244	0x3d1d8a28	0.038461834
245	0x3cf97d05	0.030455122
246	0xbb7a68ce	-0.003820944
247	0x3c015555	0.00789388
248	0xbc61a9df	-0.013773411
249	0xba3daa9c	-0.00072352006
250	0xbd6d28db	-0.05790029
251	0xbb5cf452	-0.0033714962
252	0xbb19304c	-0.0023374734
253	0x3c706bc9	0.0146741355
254	0x3cce83ce	0.025209334
255	0x3c6c5a20	0.014425784

action_model._discrete_distribution.branches.1.bias f4 [4]
0	0xbc724cb7	-0.014788798
1	0xbb39c8f8	-0.0028348546
2	0x3c9d25f8	0.019183144
3	0xbba8f287	-0.0051558646

action_model._discrete_distribution.branches.2.weight f4 [2, 128]
0	0xbc99bf7e	-0.018768068
1	0x3cd1fd9f	0.025633631
2	0xbc09435b	-0.008377875
3	0x3c024daa	0.007953087
4	0xbb9bd9d4	-0.0047561917
5	0xbbb59bdb	-0.005542261
6	0x3c5ffbd6	0.013670882
7	0xbc8d66fa	-0.017261017
8	0x3c90481d	0.017612511
9	0xbc5c0917	-0.013429902
10	0x3c3aeb76	0.011408677
11	0x3c5e89aa	0.013582626
12	0xbbfc8203	-0.0077059283
13	0xbb360400	-0.002777338
14	0x3c9e1484	0.019296892
15	0xbd32b8a0	-0.043633103
16	0xbc973769	-0.018459039
17	0x3ca8d83a	0.020610917
18	0x3c70d187	0.014698393
19	0x3d13cd83	0.036084663
20	0xbddd5bd2	-0.10808529
21	0xbd2ae331	-0.041720573
22	0xbca9fa3b	-0.020749202
23	0xbc9ad124	-0.018898554
24	0xbb815be0	-0.00394772
25	0x3b9d5507	0.004801396
26	0xbc5d4fa9	-0.013507762
27	0x3cfdb5a7	0.030970408
28	0xbcc5bdb0	-0.024138302
29	0xbc78c734	-0.0151842125
30	0xbd27f4ba	-0.041004874
31	0xbc203863	-0.009779069
32	0xbbc79585	-0.006090822
33	0x3c4b4b13	0.012408036
34	0x3bcda985	0.006276312
35	0x3b10e428	0.0022108648
36	0x3c05104d	0.008121562
37	0xbd0e75f4	-0.034780458
38	0xbb182b6e	-0.0023219245
39	0x3c267ed2	0.010162072
40	0x3c6bf0ce	0.014400674
41	0xbd01c693	-0.031683516
42	0xbc2db7ab	-0.010602872
43	0x3d5366b6	0.051611625
44	0xbbafa3b9	-0.0053600934
45	0x3ccb9d1e	0.024855193
46	0x3c0176c5	0.007901852
47	0x3c9b97f1	0.01899335
48	0xb9b7f2ed	-0.00035085474
49	0x3d1eb65f	0.03874814
50	0x3afd2b66	0.0019315302
51	0xbbf86f66	-0.007581639
52	0xb9c6ac0d	-0.0003789369
53	0x399355c9	0.0002810194
54	0xbbe0c4a9	-0.006859381
55	0xbc3ac658	-0.011399828
56	0xbcc732a6	-0.024316143
57	0x3a38c3d8	0.0007048226
58	0xbc0e91ea	-0.008701781
59	0x3c1cc40e	0.009568227
60	0xbc84b6ce	-0.01620045
61	0xbc948186	-0.018128168
62	0xbbc43f45	-0.0059889876
63	0x3b75b83c	0.0037493845
64	0x3a8988ea	0.0010493074
65	0xbbb750d7	-0.0055943537
66	0x3c93881e	0.018009242
67	0xbd1aae99	-0.037764166
68	0xbbf7eb62	-0.0075659016
69	0x3b5440cd	0.0032387257
70	0xba82882f	-0.0009958799
71	0x3bd883f2	0.006607526
72	0xbbf5521c	-0.007486595
73	0xbc4536f3	-0.012037027
74	0x3bab472f	0.0052269916
75	0xbc90cb27	-0.017674996
76	0xbc59ce05	-0.013293748
77	0x3d1fa20e	0.038972907
78	0x3c8c6e12	0.01714233
79	0xbc647e37	-0.013946108
80	0xbc8fa962	-0.017536823
81	0x3c22b58a	0.009930978
82	0x3b85164d	0.0040614964
83	0x3c5d4c43	0.013506952
84	0xbaaf307d	-0.0013365891
85	0x3c5a3028	0.013317145
86	0x3cc53a81	0.024075748
87	0xbb2fc08e	-0.0026817652
88	0xbbb83721	-0.0056218063
89	0xbc80530b	-0.015664598
90	0xbb7aab18	-0.0038248952
91	0x3c75a2f7	0.014992467
92	0x3cef4fe5	0.029212901
93	0xbc68fe67	-0.0142208105
94	0x3c8d7255	0.017266432
95	0x3c812302	0.015763763
96	0xbd081afa	-0.03322885
97	0xbc84c426	-0.016206812
98	0x3c94a62a	0.01814564
99	0xbbef8194	-0.007309148
100	0x3b61861e	0.0034412215
101	0x3c5f3463	0.01362333
102	0xbb9d249c	-0.004795624
103	0xbc626bdf	-0.013819664
104	0xbc1738d0	-0.009229854
105	0x3bc8c822	0.0061273733
106	0xbb3bde1b	-0.002866632
107	0xbc5db97c	-0.013532992
108	0x3c1bd2e6	0.009510731
109	0xbc2a2b33	-0.010386276
110	0x3c89dfab	0.016830286
111	0x3bd48164	0.006485151
112	0xbcb7b5bd	-0.022425527
113	0xbb8ec3a8	-0.00435682
114	0xbc120603	-0.008912566
115	0x3ce3ffdf	0.02783197
116	0x3d10a6c6	0.035315298
117	0xbc94d64e	-0.018168595
118	0xbbe5cc61	-0.0070128893
119	0x3abe0208	0.0014496455
120	0x3d0c9473	0.03432126
121	0x3c179a98	0.009253167
122	0x3c628bbc	0.013827261
123	0xbc1278f0	-0.008939967
124	0xbc60f978	-0.013731353
125	0xbc5d2db8	-0.01349967
126	0xba31fc9f	-0.00067896576
127	0x3c427f5b	0.011871184
128	0x3c2931bb	0.010326798
129	0xbb123145	-0.00223072
130	0xbc43b18a	-0.011944184
131	0xbca37701	-0.019954206
132	0xbb9ea4f6	-0.004841442
133	0x3c1616db	0.009160723
134	0x3b0e3255	0.002169748
135	0x3c20f4c9	0.009823986
136	0x3c98e383	0.018663174
137	0xbc1773ba	-0.0092439
138	0xbc020020	-0.0079346
139	0xbc0dfdf4	-0.008666504
140	0xbc2312ee	-0.009953244
141	0x3c8ba6f1	0.017047377
142	0x3a2bf726	0.00065599603
143	0x3d0e6c1a	0.034771062
144	0x3bc16d43	0.0059029176
145	0xbc4ae3c2	-0.012383403
146	0xbc2adb4b	-0.01042826
147	0xbcb3d007	-0.021949781
148	0x3db3bea7	0.087765984
149	0x3b8b04ce	0.004242516
150	0x3cdd4f89	0.027015464
151	0x3cdec6b8	0.027194366
152	0x3b5006d8	0.003174236
153	0xbbd96de2	-0.0066354135
154	0x3b7a748b	0.0038216438
155	0xbd1dcf38	-0.038527697
156	0x3ce4cc53	0.02792946
157	0x3b3a6972	0.0028444198
158	0x3cd885f8	0.026431069
159	0x3b019b90	0.001977656
160	0xbbd9b633	-0.0066440343
161	0xbc201b9c	-0.009772208
162	0xbbf222eb	-0.0073894165
163	0x3c9b8b00	0.018987179
164	0x3bd10d23	0.00637974
165	0x3d6d95c9	0.058004174
166	0xbba51f17	-0.0050391066
167	0xbc11b218	-0.0088925585
168	0x3bf4570a	0.007456665
169	0x3ca76fa6	0.02043898
170	0x3d146d2d	0.03623693
171	0xbd46cbd6	-0.048534237
172	0x3ca8687d	0.020557636
173	0xbc2886d4	-0.010286052
174	0x3c1ead0a	0.00968481
175	0xbca94111	-0.020660909
176	0x3c8adfca	0.016952414
177	0xbd0b291a	-0.033974744
178	0x3c10bec1	0.008834542
179	0x3cefc9ee	0.029271092
180	0xbc2a2c77	-0.010386578
181	0x3c4f7777	0.01266276
182	0xba6a0d84	-0.00089284056
183	0xbca24b91	-0.019811423
184	0x3d04dc96	0.03243693
185	0x3bfdb638	0.0077426694
186	0x3b52c0a5	0.0032158282
187	0x3a8fd421	0.0010973254
188	0x3c3a6c2c	0.011378329
189	0x3c064ba0	0.008196741
190	0x3c55466d	0.013017279
191	0x3c08f043	0.008358064
192	0x3bfc4861	0.007699058
193	0x3b6185c2	0.0034412001
194	0xbd23ed0a	-0.04002098
195	0x3d1f0ea4	0.03883232
196	0x3c16e3cb	0.0092095835
197	0xbb17b867	-0.0023150684
198	0xbbbe7b4d	-0.0058130384
199	0xbca5ec26	-0.020254206
200	0x3b9ca032	0.004779839
201	0x3b50cbcc	0.0031859754
202	0x3c923bbc	0.01785075
203	0x3c5dd1d8	0.0135388
204	0x3c1f2b24	0.009714875
205	0xbd50b2ad	-0.05095165
206	0xbccbcd55	-0.024878183
207	0x3c456120	0.012047082
208	0x3c670cd8	0.014102183
209	0xb911f205	-0.00013918437
210	0xbc0d257e	-0.008614896
211	0xbc514a6b	-0.01277409
212	0xbc7b433c	-0.015335854
213	0x3ba8e233	0.005153918
214	0xbd3fda03	-0.04683877
215	0x3c50720a	0.0127225015
216	0x3b874a98	0.0041287653
217	0x3c3389fe	0.010958193
218	0x3c2a2300	0.010384321
219	0xbc205e29	-0.0097880745
220	0xbb8e7808	-0.004347805
221	0xbc70a280	-0.0146871805
222	0xbc0278f8	-0.0079634115
223	0xbccc9c4f	-0.024976877
224	0x3cf47f7c	0.029845946
225	0x3bf7423c	0.0075457375
226	0xbbb5b342	-0.005545051
227	0x3d07aa0a	0.033121146
228	0xbbc28eab	-0.0059374175
229	0xbc2ce69a	-0.010553027
230	0x3a37011c	0.00069810613
231	0x3cbbc365	0.02292032
232	0x3b965d59	0.0045887646
233	0xbbcb7854	-0.0062094126
234	0x3b3d854b	0.002891856
235	0x3b94e03c	0.0045433324
236	0xbc749e1c	-0.014930274
237	0x3c856f1c	0.016288333
238	0xbc4d88ee	-0.012544854
239	0xbc768f21	-0.015048773
240	0x3c424ad5	0.011858662
241	0xbc13beb0	-0.009017631
242	0xbc4d5c2a	-0.012534181
243	0xbccb083f	-0.024784205
244	0xbd0a2d14	-0.033734396
245	0x3c5aa5aa	0.013345161
246	0x3bd68f14	0.006547818
247	0xbb7eb238	-0.003886355
248	0xbd1a6965	-0.03769817
249	0xbc8247b2	-0.015903328
250	0xbc17127a	-0.009220714
251	0x3cc87b4a	0.024472851
252	0x3cb3aba4	0.02193243
253	0x3c9f7fd5	0.019470135
254	0x3c82d894	0.015972413
255	0x3ab19682	0.0013548883

action_model._discrete_distribution.branches.2.bias f4 [2]
0	0x3ba43c55	0.005012075
1	0xbba43b1d	-0.0050119297

exp_avg f4 [128, 27]
0	0x00000000	0.0
1	0xaa1aa1a7	-1.3734032e-13
2	0xaa1aa1a7	-1.3734032e-13
3	0x00000000	0.0
4	0xaa1aa1a7	-1.3734032e-13
5	0xaa1aa1a7	-1.3734032e-13
6	0x00000000	0.0
7	0xaa1aa1a7	-1.3734032e-13
8	0xaa1aa1a7	-1.3734032e-13
9	0x00000000	0.0
10	0xaa1aa1a7	-1.3734032e-13
11	0xaa1aa1a7	-1.3734032e-13
12	0x00000000	0.0
13	0xaa1aa1a7	-1.3734032e-13
14	0xaa1aa1a7	-1.3734032e-13
15	0x00000000	0.0
16	0xaa1aa1a7	-1.3734032e-13
17	0xaa1aa1a7	-1.3734032e-13
18	0x00000000	0.0
19	0x977f3dcc	-8.247294e-25
20	0xa9ecb7fd	-1.0512422e-13
21	0xab132ada	-5.228436e-13
22	0x2bb92d9d	1.3157701e-12
23	0xad250481	-9.380164e-12
24	0xabadf5d9	-1.2360626e-12
25	0x2a1aa1a7	1.3734032e-13
26	0x00000000	0.0
27	0x00000000	0.0
28	0x22d8c467	5.8754866e-18
29	0x22d8c467	5.8754866e-18
30	0x00000000	0.0
31	0x22d8c467	5.8754866e-18
32	0x22d8c467	5.8754866e-18
33	0x00000000	0.0
34	0x22d8c467	5.8754866e-18
35	0x22d8c467	5.8754866e-18
36	0x00000000	0.0
37	0x22d8c467	5.8754866e-18
38	0x22d8c467	5.8754866e-18
39	0x00000000	0.0
40	0x22d8c467	5.8754866e-18
41	0x22d8c467	5.8754866e-18
42	0x00000000	0.0
43	0x22d8c467	5.8754866e-18
44	0x22d8c467	5.8754866e-18
45	0x00000000	0.0
46	0x000003a1	1.302e-42
47	0x22a5eb7f	4.497268e-18
48	0x23ce4dd4	2.2367526e-17
49	0xa481cb59	-5.6289316e-17
50	0x25e753ad	4.0128813e-16
51	0x2473dcf6	5.2879387e-17
52	0xa2d8c467	-5.8754866e-18
53	0x00000000	0.0
54	0x00000000	0.0
55	0xaab0e8e3	-3.1425478e-13
56	0xaab0e8e3	-3.1425478e-13
57	0x00000000	0.0
58	0xaab0e8e3	-3.1425478e-13
59	0xaab0e8e3	-3.1425478e-13
60	0x00000000	0.0
61	0xaab0e8e3	-3.1425478e-13
62	0xaab0e8e3	-3.1425478e-13
63	0x00000000	0.0
64	0xaab0e8e3	-3.1425478e-13
65	0xaab0e8e3	-3.1425478e-13
66	0x00000000	0.0
67	0xaab0e8e3	-3.1425478e-13
68	0xaab0e8e3	-3.1425478e-13
69	0x00000000	0.0
70	0xaab0e8e3	-3.1425478e-13
71	0xaab0e8e3	-3.1425478e-13
72	0x00000000	0.0
73	0x95b758a2	-7.405295e-26
74	0xaa876961	-2.4053939e-13
75	0xaba85ecb	-1.1963428e-12
76	0x2c53db75	3.0106727e-12
77	0xadbccac4	-2.1463172e-11
78	0xac4705fc	-2.8282923e-12
79	0x2ab0e8e3	3.1425478e-13
80	0x00000000	0.0
81	0x00000000	0.0
82	0x28b21c42	1.9774225e-14
83	0x28b21c42	1.9774225e-14
84	0x00000000	0.0
85	0x28b21c42	1.9774225e-14
86	0x28b21c42	1.9774225e-14
87	0x00000000	0.0
88	0x28b21c42	1.9774225e-14
89	0x28b21c42	1.9774225e-14
90	0x00000000	0.0
91	0x28b21c42	1.9774225e-14
92	0x28b21c42	1.9774225e-14
93	0x00000000	0.0
94	0x28b21c42	1.9774225e-14
95	0x28b21c42	1.9774225e-14
96	0x00000000	0.0
97	0x28b21c42	1.9774225e-14
98	0x28b21c42	1.9774225e-14
99	0x00000000	0.0
100	0x92182e55	-4.801985e-28
101	0x288854b1	1.5135762e-14
102	0x29a98359	7.527893e-14
103	0xaa554b9f	-1.8944437e-13
104	0x2bbe12d5	1.3505539e-12
105	0x2a485fd3	1.7796814e-13
106	0xa8b21c42	-1.9774225e-14
107	0x00000000	0.0
108	0x00000000	0.0
109	0xa10dc038	-4.802706e-19
110	0xa10dc038	-4.802706e-19
111	0x00000000	0.0
112	0xa10dc038	-4.802706e-19
113	0xa10dc038	-4.802706e-19
114	0x00000000	0.0
115	0xa10dc038	-4.802706e-19
116	0xa10dc038	-4.802706e-19
117	0x00000000	0.0
118	0xa10dc038	-4.802706e-19
119	0xa10dc038	-4.802706e-19
120	0x00000000	0.0
121	0xa10dc038	-4.802706e-19
122	0xa10dc038	-4.802706e-19
123	0x00000000	0.0
124	0xa10dc038	-4.802706e-19
125	0xa10dc038	-4.802706e-19
126	0x00000000	0.0
127	0x801fda43	-2.925198e-39
128	0xa0d90016	-3.6761287e-19
129	0xa206e89e	-1.8283533e-18
130	0x22a9c0c5	4.6011644e-18
131	0xa4174598	-3.2801854e-17
132	0xa29f7837	-4.322432e-18
133	0x210dc038	4.802706e-19
134	0x00000000	0.0
135	0x00000000	0.0
136	0x2094e0e9	2.5221008e-19
137	0x2094e0e9	2.5221008e-19
138	0x00000000	0.0
139	0x2094e0e9	2.5221008e-19
140	0x2094e0e9	2.5221008e-19
141	0x00000000	0.0
142	0x2094e0e9	2.5221008e-19
143	0x2094e0e9	2.5221008e-19
144	0x00000000	0.0
145	0x2094e0e9	2.5221008e-19
146	0x2094e0e9	2.5221008e-19
147	0x00000000	0.0
148	0x2094e0e9	2.5221008e-19
149	0x2094e0e9	2.5221008e-19
150	0x00000000	0.0
151	0x2094e0e9	2.5221008e-19
152	0x2094e0e9	2.5221008e-19
153	0x00000000	0.0
154	0x00000004	6e-45
155	0x2063e96c	1.9304881e-19
156	0x218db136	9.601439e-19
157	0xa23249f5	-2.416265e-18
158	0x239ee0d7	1.7225618e-17
159	0x22277d09	2.2698913e-18
160	0xa094e0e9	-2.5221008e-19
161	0x00000000	0.0
162	0x00000000	0.0
163	0xa84f68f4	-1.1513566e-14
164	0xa84f68f4	-1.1513566e-14
165	0x00000000	0.0
166	0xa84f68f4	-1.1513566e-14
167	0xa84f68f4	-1.1513566e-14
168	0x00000000	0.0
169	0xa84f68f4	-1.1513566e-14
170	0xa84f68f4	-1.1513566e-14
171	0x00000000	0.0
172	0xa84f68f4	-1.1513566e-14
173	0xa84f68f4	-1.1513566e-14
174	0x00000000	0.0
175	0xa84f68f4	-1.1513566e-14
176	0xa84f68f4	-1.1513566e-14
177	0x00000000	0.0
178	0xa84f68f4	-1.1513566e-14
179	0xa84f68f4	-1.1513566e-14
180	0x00000000	0.0
181	0x162388d6	1.3210213e-25
182	0xa81ec1e4	-8.812805e-15
183	0xa9456601	-4.383126e-14
184	0x29f861ff	1.1030412e-13
185	0xab5d574d	-7.8636126e-13
186	0xa9e9560a	-1.0362204e-13
187	0x284f68f4	1.1513566e-14
188	0x00000000	0.0
189	0x00000000	0.0
190	0x2990116e	6.397908e-14
191	0x2990116e	6.397908e-14
192	0x00000000	0.0
193	0x2990116e	6.397908e-14
194	0x2990116e	6.397908e-14
195	0x00000000	0.0
196	0x2990116e	6.397908e-14
197	0x2990116e	6.397908e-14
198	0x00000000	0.0
199	0x2990116e	6.397908e-14
200	0x2990116e	6.397908e-14
201	0x00000000	0.0
202	0x2990116e	6.397908e-14
203	0x2990116e	6.397908e-14
204	0x00000000	0.0
205	0x2990116e	6.397908e-14
206	0x2990116e	6.397908e-14
207	0x00000000	0.0
208	0x1705acad	4.3192565e-25
209	0x295c8c2e	4.89714e-14
210	0x2a891d32	2.4356347e-13
211	0xab2c8735	-6.1294313e-13
212	0x2c99bea8	4.3696886e-12
213	0x2b22139f	5.758119e-13
214	0xa990116e	-6.397908e-14
215	0x00000000	0.0
216	0x00000000	0.0
217	0xab198371	-5.453893e-13
218	0xab198371	-5.453893e-13
219	0x00000000	0.0
220	0xab198371	-5.453893e-13
221	0xab198371	-5.453893e-13
222	0x00000000	0.0
223	0xab198371	-5.453893e-13
224	0xab198371	-5.453893e-13
225	0x00000000	0.0
226	0xab198371	-5.453893e-13
227	0xab198371	-5.453893e-13
228	0x00000000	0.0
229	0xab198371	-5.453893e-13
230	0xab198371	-5.453893e-13
231	0x00000000	0.0
232	0xab198371	-5.453893e-13
233	0xab198371	-5.453893e-13
234	0x00000000	0.0
235	0x14cf293c	2.0917923e-26
236	0xaaeb01e2	-4.1745692e-13
237	0xac121a7d	-2.0762552e-12
238	0x2cb7d6de	5.225028e-12
239	0xae23d30e	-3.7249363e-11
240	0xacacb3de	-4.9085033e-12
241	0x2b198371	5.453893e-13
242	0x00000000	0.0
243	0x00000000	0.0
244	0xaa9d9203	-2.7990118e-13
245	0xaa9d9203	-2.7990118e-13
246	0x00000000	0.0
247	0xaa9d9203	-2.7990118e-13
248	0xaa9d9203	-2.7990118e-13
249	0x00000000	0.0
250	0xaa9d9203	-2.7990118e-13
251	0xaa9d9203	-2.7990118e-13
252	0x00000000	0.0
253	0xaa9d9203	-2.7990118e-13
254	0xaa9d9203	-2.7990118e-13
255	0x00000000	0.0
