results/Shooter/Shooter/Shooter-60888.pt (torch, 444431 bytes, 42 tensors)

network_body._body_endoder.seq_layers.0.weight f4 [128, 6]
000000 0f 54 87 be ce cb 50 bf c1 70 fb 3d 02 08 ad 3e
       -0.2643132 -0.8156098 0.122773655 0.33795172
000010 21 b6 24 3d 84 51 55 3f 36 3a 14 3b 95 c1 89 3c
       0.040212754 0.8332751 0.0022617704 0.01681594
000020 41 c3 e7 bd b7 8b 35 3b 5e 9a 88 be d4 7b b8 be
       -0.113165386 0.0027701685 -0.26680273 -0.36031973
000030 5a 1b 84 3d f3 68 2d be 27 10 8c 3d 89 a2 3a 3e
       0.064505294 -0.16934566 0.06839018 0.18226065
000040 d3 62 71 bd 60 5f 0f bf 79 ba 37 3f 60 9f 24 bf
       -0.058932137 -0.56004906 0.7176891 -0.64305687
000050 dd 9b e1 3e 40 6e 37 3e fe 6b 29 be b7 8e 71 be
       0.44064227 0.17913151 -0.16545102 -0.23589598
000060 df 01 cd be 83 33 5c be 35 8b 26 be 12 57 4c bd
       -0.4004049 -0.21504025 -0.16264041 -0.049887724
000070 cb 17 af be fc ec 35 3f 32 62 f2 3e ab 17 46 3f
       -0.3419784 0.71064734 0.47340542 0.77379864
000080 02 a1 98 3d 99 b7 87 3e 8f 41 08 bf 83 fb 8e 3c
       0.07452585 0.2650726 -0.53225034 0.017453915
000090 a1 c7 98 3e 98 b5 2a 3f 80 79 d6 3e 14 65 ba 3e
       0.29839805 0.6668334 0.41889572 0.3640524
0000a0 3c 79 05 bf e4 85 c1 be cc f1 51 3e 09 10 de be
       -0.52138114 -0.37797463 0.20502394 -0.4337161
0000b0 ae a1 9f be e8 d4 92 3f 73 ff e4 3e dc dc 2e bf
       -0.3117804 1.1471224 0.44726142 -0.68305755
0000c0 89 4b 7d 3e d4 58 80 3e 3d 82 8f be 5f f7 0e 3e
       0.24735846 0.2506777 -0.2802905 0.13961552
0000d0 8e fb f9 3e b2 30 bd 3e 60 0c 02 bf 16 4d 27 3e
       0.48824733 0.36951214 -0.5080013 0.16338
0000e0 f9 35 18 3f 46 7c 7f 3e d1 05 9f be 4b 65 62 3d
       0.59457356 0.2494975 -0.31059125 0.05527238
0000f0 c9 7c 0f bf b1 72 9e be 3d f2 a7 be 61 c3 00 be
       -0.5604978 -0.30946878 -0.32802 -0.12574531
000100 ce f3 3b 3f 05 e3 0d 3f 7a b0 61 3e 08 ba 6f 3e
       0.7341889 0.5542453 0.22039977 0.23410809
000110 11 2f 19 bf e2 96 e0 be 98 3c d7 be 0c c0 85 be
       -0.5983744 -0.43865114 -0.42038417 -0.26123083
000120 cf 59 f0 bc b5 d8 ce 3e 06 47 33 bf 36 b3 c0 3e
       -0.0293397 0.4039971 -0.7003025 0.37636727
000130 5a 54 9a 3e 68 8f a1 3e e4 6d ba be 86 8f 9a be
       0.3014248 0.31554723 -0.36411965 -0.30187625
000140 27 aa 33 3f 1e 4e 0c bd 5c 4c 0e 3f e9 e8 b1 3e
       0.70181507 -0.034254186 0.55585265 0.3474801
000150 a3 41 fe 3e a1 b9 22 bf 33 28 7e bb d6 a7 d9 3c
       0.49659452 -0.635645 -0.0038781285 0.026569288
000160 30 96 4b 3f 14 71 a7 be 9c 49 37 3f d6 d1 6b 3f
       0.7952604 -0.3270346 0.71596694 0.9211706
000170 cc 7b 5d be 0b 46 a4 bd 05 29 72 3e 3a 89 13 bf
       -0.21629256 -0.08021172 0.2364846 -0.57631266
000180 83 5e 99 3e 04 79 7b 3e 4f 65 b6 bb 10 71 bd 3e
       0.2995492 0.24557883 -0.005566276 0.37000322
000190 f7 e2 0f 3e 69 0b 46 3f ab 60 24 bf a1 51 c9 3c
       0.14051424 0.7736116 -0.64210004 0.024575057
0001a0 3d e9 f8 bd 18 9a b2 3e 49 d2 85 3d da 2d 3e bf
       -0.12153862 0.3488319 0.06534249 -0.74288714
0001b0 ea f8 50 3e 67 2e c4 be f2 43 ab be 79 a7 38 3f
       0.20407453 -0.38316652 -0.33450276 0.72130543
0001c0 fc d1 21 bf b6 a1 93 3e 63 6e 7d 3d 54 fe 47 3e
       -0.63211036 0.28834313 0.06187285 0.19530612
0001d0 b8 0d b5 be ad e2 19 bd 38 84 87 3e 68 58 db bd
       -0.3536203 -0.03756969 0.26468062 -0.107102215
0001e0 0c 39 97 3e 88 ad a2 bd 15 5e c3 3e fa 7c 38 bf
       0.2953571 -0.07943255 0.38157716 -0.720657
0001f0 d1 34 cc 3e 5d 64 cf be 55 e8 d7 bd 53 c0 61 3b
       0.39884046 -0.4050626 -0.10542361 0.003444691
000200 e6 ba da 3d d9 33 85 bd 6d 53 08 bf 12 96 ce 3e
       0.10680179 -0.0650403 -0.532523 0.4034887
000210 8d ef 02 bf 73 62 8e be d9 ba db 3e 8a 90 39 bf
       -0.51146775 -0.27809486 0.4291599 -0.72486174
000220 4a fe 07 bf 6b ad 33 be 1a 9b cc 3e 9f 1c ba be
       -0.5312239 -0.17546622 0.39962083 -0.3634996
000230 63 db cc 3e 2b 1a d0 be b5 9e 13 bd 13 04 10 be
       0.4001113 -0.40644965 -0.036040027 -0.14064054
000240 10 bd 91 3f eb ae 71 be b8 32 42 be b5 2d a6 3d
       1.1385822 -0.23601882 -0.1896466 0.08114187
000250 38 7d f4 be e5 a7 a2 bd 4a d0 1d 3e 7e dd d8 3e
       -0.47751784 -0.079421796 0.15411487 0.42356485
000260 fb 13 f8 3e 0a fb 1b be d0 72 37 3d 4a e4 03 3f
       0.48452744 -0.15232483 0.044787228 0.51520216
000270 92 0c c9 bb 28 4e 07 be 0a fe 28 3e 4e 9c 04 3e
       -0.0061355317 -0.13213408 0.16503158 0.1295025
000280 93 45 2f 3f 73 45 55 3e 1b 29 fc be fc 94 6b 3e
       0.68465537 0.20827274 -0.4925011 0.23006052
000290 43 24 e0 3d 1d fa cd be 2a 16 00 be 81 45 82 3e
       0.109444164 -0.40229884 -0.12508455 0.25443652
0002a0 de 2f c7 3e e6 7d b2 bc 64 5b 0a bf 1d fd cb be
       0.38903707 -0.021788549 -0.540457 -0.39841548
0002b0 5a 5e b2 bd 88 6a 92 3d 1d 56 a9 be 69 0a dc be
       -0.087094024 0.071492255 -0.33073512 -0.42976692
0002c0 e6 e5 86 be 26 a1 dc 3d 53 8a 85 3f 9f 56 0a 3f
       -0.26347274 0.10772924 1.0432838 0.54038423
0002d0 80 ec 4a 3e 9d 59 d1 be 24 d3 6b 3d 18 00 b2 be
       0.1981678 -0.40888682 0.057574406 -0.34765697
0002e0 bd 42 c4 be 52 6d 0b bf 0d 31 92 bd dd 4d fa 3e
       -0.38332167 -0.54463685 -0.07138262 0.4888753
0002f0 9e a0 6c be 89 0f 80 3e 3d 1c 83 be 81 39 a2 3f
       -0.23108146 0.25011852 -0.25607482 1.2673799
000300 e0 8d 6f be 82 55 70 be 2d 5a c1 be ab 9a 6a bd
       -0.23393965 -0.23470119 -0.3776411 -0.05727641
000310 e1 d2 9e bd b9 a2 3a 3e 33 83 b0 bd 7d 57 d8 3e
       -0.07755066 0.18226136 -0.08618774 0.42254248
000320 1c 00 a3 3e 74 66 e2 3e 44 47 c0 3e 2c 12 20 3e
       0.3183602 0.4421879 0.3755437 0.15631932
000330 52 c9 f6 3e 52 b3 35 bf 05 be f7 be e7 af bc be
       0.4820047 -0.70976746 -0.4838716 -0.36852953
000340 b0 3c 93 bd f8 67 11 3d ff 2f 51 be 29 e6 1e be
       -0.071893096 0.035499543 -0.20428465 -0.15517487
000350 43 25 35 be 79 43 77 3d d2 61 52 3e 9e 3c 19 bf
       -0.17689995 0.06036708 0.20545128 -0.5985812
000360 16 f6 1c bf 6a dd e1 3e 9a b4 15 3f 2c 8e 3b 3e
       -0.61313 0.44114238 0.584787 0.18315953
000370 ca 0a b8 3d c7 e1 ad be 87 8b 6a be 67 a1 2c 3f
       0.08986433 -0.33961317 -0.22904788 0.6743378
000380 7b 2f 32 bf e0 27 83 3e 23 e8 3a 3e 73 a5 13 3f
       -0.696037 0.2561636 0.18252616 0.5767433
000390 65 61 f0 be ff 8d c1 3e 31 c1 48 bd 94 a9 8b be
       -0.46949306 0.37803647 -0.049012367 -0.27277815
0003a0 fd 3a 23 3f ed 6b 11 3d 10 2c 0b bf f2 f3 8a 3d
       0.63761884 0.035503317 -0.5436411 0.0678481
0003b0 d9 e9 96 3e 28 4a 83 3f 5b 63 d4 3a 87 18 87 be
       0.29475287 1.0257006 0.0016203927 -0.263859
0003c0 3a 5e 19 be 0a 79 42 bf ae 73 b9 3c e4 45 26 be
       -0.14977351 -0.7596594 0.022638168 -0.16237599
0003d0 05 75 ec 3e ae 26 d7 bd 47 97 89 bc 57 1f e5 3d
       0.4618303 -0.105054244 -0.016795767 0.11187618
0003e0 b8 54 a1 bc 46 6e ff 3e 1e 87 1e be fb 33 ed bb
       -0.019693717 0.4988882 -0.1548123 -0.0072388626
0003f0 21 bd a7 3e ae a3 5b bd b3 3e 2a 3f 92 9c e5 bd
       0.3276148 -0.053622894 0.6650192 -0.11211504

network_body._body_endoder.seq_layers.0.bias f4 [128]
000000 ae a0 bc bc 89 4f 52 3d ba 5f 81 3c 13 26 1e bd
       -0.023025837 0.051345382 0.015792716 -0.03861053
000010 f5 bc 01 bd d4 e2 57 3d ed 12 83 bb 21 e2 c4 3c
       -0.031674344 0.052706555 -0.004000059 0.024033608
000020 70 cd 5a 3c ce 0c bb bc 38 42 92 3c 93 6c f0 3b
       0.013354644 -0.022833254 0.017853841 0.007337162
000030 4e 48 95 3c 80 da 9e bc c2 85 5a 3d 2c 1b 89 3c
       0.018222954 -0.019391298 0.053350218 0.01673659
000040 13 dc 1a bd 59 12 92 bc f3 9f b7 3b b9 59 8d 3d
       -0.037807535 -0.017831014 0.005603784 0.06901879
000050 f6 34 db 3a 2d 23 0b bd 7d a2 c6 bc 6a 19 91 bd
       0.0016724158 -0.033969093 -0.024247402 -0.070849255
000060 68 d3 be 3c 2a 52 2a bd d4 94 5b bc 7f f6 f7 3a
       0.023294166 -0.041582264 -0.013402183 0.0018918066
000070 4c d0 5a 3d 0f df 73 bc f9 eb cc 3c 9a 17 5d bc
       0.053421304 -0.014884724 0.025014864 -0.013494397
000080 5c fc ad 3c d4 67 b8 bb 41 b0 4e 3c 1b f9 0a bd
       0.021238498 -0.0056276117 0.012615264 -0.03392897
000090 5b e5 8f bc 87 50 a1 bb 9e 8c a7 3d c1 75 76 bd
       -0.01756542 -0.0049229297 0.081811175 -0.060170893
0000a0 4e 88 3c 3c 18 17 19 3d 24 1b 7b bd d3 f8 a5 3d
       0.011507107 0.03737554 -0.06130518 0.081041
0000b0 78 f6 c6 bc 95 85 b4 bc bd 7e 2b bd b6 82 9a bc
       -0.024287447 -0.022036353 -0.041868914 -0.018861156
0000c0 59 83 98 3b f3 96 07 3b e1 66 1f bc 7d 76 0b bd
       0.0046543297 0.0020689338 -0.009729118 -0.034048546
0000d0 72 1b 40 bd 98 9c b0 bb 80 13 6c 3c 6a 5c 10 3d
       -0.046901174 -0.005389761 0.014408946 0.035244383
0000e0 95 f1 17 3c f7 5b ef 3c 6d ac 96 bc 38 7a d9 bb
       0.009273906 0.029218657 -0.018392766 -0.006636884
0000f0 42 fb a6 bc f8 4f f2 3b 33 c6 30 bb 60 0d 22 3c
       -0.020383481 0.007394787 -0.0026973605 0.009890884
000100 52 ff 4b bd 45 e0 16 bd 5d da 41 3d c4 2f 97 ba
       -0.04980404 -0.036834974 0.047327388 -0.0011534621
000110 c2 b9 64 bd 1c 25 6b 3b 3b b4 16 bd 23 b3 cc 3c
       -0.055841215 0.0035880273 -0.036792975 0.024987763
000120 50 0f 19 bd 2b 24 ec bb bb be 91 bc 7a f0 c1 bc
       -0.03736812 -0.00720646 -0.017791143 -0.023674238
000130 57 75 bb 39 bc 44 cd bb 78 50 a3 bc ec 4a 28 bd
       0.00035754844 -0.0062642973 -0.019935831 -0.041087076
000140 66 c7 12 bd e0 c7 a4 bc 3a 7a 18 3c 4a ab 69 bc
       -0.035834692 -0.02011484 0.009306485 -0.01426203
000150 dd 0d 0b bb 05 41 8e bb ce 34 dd bc 72 c1 a2 3d
       -0.002121798 -0.004341247 -0.027002718 0.07947053
000160 8f 86 44 bd 9c 8d d1 bb 98 83 4b bd 3c 7c e1 3b
       -0.047979888 -0.006395055 -0.049686044 0.006881265
000170 a2 5d 80 bc f4 82 1a bd d7 2d c4 3b 5d b7 6e bb
       -0.015669648 -0.037722543 0.00598691 -0.003642521
000180 42 d5 5b bc 05 2c 8e bd 21 58 4b bd a5 d0 d6 bb
       -0.013417544 -0.0694199 -0.049644593 -0.006555634
000190 ed e4 73 bc 01 ef ff bb f1 53 6b bc b2 b9 04 3d
       -0.014886123 -0.007810474 -0.014363275 0.032403655
0001a0 f6 83 0e bd a2 84 96 bb 3e 2d dc bc 0c ef ae bc
       -0.034793817 -0.004593448 -0.026877042 -0.02135422
0001b0 cb 9d ec 3c 8d 27 20 bb b4 d0 f4 3c 36 42 34 3c
       0.028883835 -0.0024437637 0.029884674 0.011002114
0001c0 b1 9b 6a 3c ba bc 24 3d bd 81 c7 bc 8b 61 02 bd
       0.014319346 0.040219046 -0.024353856 -0.031831305
0001d0 f9 f7 4c bc 18 2f e8 bc fc 16 11 3d f6 d6 d5 bc
       -0.012510293 -0.028342769 0.03542231 -0.026103478
0001e0 9b 77 9f bd 09 52 f1 bc 5b 9c 5a 3c 97 e2 82 ba
       -0.07786485 -0.029458063 0.013342942 -0.0009985742
0001f0 16 3e 3a bd 95 ff 3b bc 86 fa c1 ba 18 de 25 3c
       -0.045469366 -0.01147451 -0.0014799393 0.010123752

network_body._body_endoder.seq_layers.2.weight f4 [128, 128]
000000 f5 22 cc bd 88 b0 96 bc f2 1a a4 bd ad 2f d3 3d
       -0.09967605 -0.018394724 -0.08012952 0.10311828
000010 1b f6 16 be c6 01 60 bd 52 f1 09 3d 0c e7 d5 bc
       -0.1474232 -0.05468919 0.033677407 -0.026111148
000020 86 6b 11 3d e6 2b f6 bd 55 27 ea 3d ac 25 d6 bd
       0.035502933 -0.12020092 0.11433283 -0.10456404
000030 fb 50 5b be 79 ea 07 3d 98 18 38 3d b5 75 ee bd
       -0.2141761 0.033182595 0.04494533 -0.116435446
000040 cd 03 d3 bc 8d 96 84 bd 95 2b 78 bd 44 b2 bf bd
       -0.025758648 -0.06474028 -0.060588438 -0.09360173
000050 67 0f 9d bd 0a e1 05 3e 2b 8e 8e bd 4b a2 d1 bd
       -0.076689534 0.13074127 -0.0696071 -0.10236033
000060 53 cb 41 3e c3 9e 90 3d 4e c1 86 3d f9 ba cb 3b
       0.18925218 0.070615314 0.06579839 0.0062173572
000070 69 ed 98 3b ea dd c7 3d 69 de 89 3c 32 62 ae 3c
       0.0046669734 0.097591236 0.016829686 0.021287058
000080 3e cb 3a 3d 6b 03 eb 3a 60 59 08 be 45 6e 08 be
       0.045603983 0.0017930096 -0.13315344 -0.13323314
000090 cf fd 20 bd 8d c4 80 bd 0d 0d 93 bd 5c 9d 8b 3c
       -0.03930455 -0.06287489 -0.071802236 0.017042808
0000a0 9f bc e9 3d 78 8b 2b bd 29 40 05 bc 88 a6 18 3e
       0.1141293 -0.041881055 -0.008132973 0.14907277
0000b0 ba c5 03 be c6 e0 83 bd 8e 7b f8 3d dc 17 9c bb
       -0.12868395 -0.064393565 0.12132941 -0.0047635864
0000c0 f3 36 8c bd e9 c3 ed 3c a1 08 2c be 7e be 8d bc
       -0.06846418 0.029024081 -0.16800167 -0.017302748
0000d0 97 6c 22 3e 72 88 77 bd be eb a8 bd 37 e5 0f 3e
       0.15861736 -0.06043286 -0.08248089 0.14052282
0000e0 41 65 87 bc a9 43 82 3d 98 84 6c 3e 51 f4 86 bd
       -0.016527774 0.063605614 0.23097456 -0.065895684
0000f0 e6 60 b7 3c 6c f1 3b 3e 95 54 5d bc 18 1c 0b 3e
       0.022385072 0.18353814 -0.013508935 0.13584936
000100 a5 a4 7c bd 77 54 a7 3c 4a 62 0d 3d 98 48 57 bd
       -0.061680455 0.020426018 0.034517564 -0.052559465
000110 fb 4d a0 3d 81 61 1f 3c 77 e4 89 be 4c d4 9e bd
       0.078273736 0.009727837 -0.26932117 -0.07755336
000120 9c 90 6c bd 64 fd a1 bd 36 7d d3 3d 62 7c ce 3d
       -0.057755098 -0.079096586 0.103266165 0.10082318
000130 30 74 cc 3c 77 59 de bd 9f 9a 1c bc 3b 4e f2 3c
       0.024957746 -0.10856908 -0.009558349 0.029578319
000140 41 52 a5 bd d9 f6 b8 3b f4 87 f1 3d e2 b8 0f 3c
       -0.08072329 0.005644661 0.11793509 0.008772107
000150 3f 93 30 bd 1d 5e 1d 3d a9 c7 1e be 7e a9 fc bd
       -0.043109175 0.03841983 -0.15505852 -0.123370156
000160 6c 52 a2 3d c1 d7 e3 3d 6d 8e 0c 3d 4a 65 fd 3d
       0.07925877 0.11125136 0.034315515 0.12372835
000170 08 11 b1 bc b2 27 42 bd 57 f8 23 be c0 90 c9 3b
       -0.021614566 -0.047401138 -0.16012703 0.0061512887
000180 69 40 9c bd 0b 07 84 bd 9d 9b 81 3d 85 7c 45 3c
       -0.07629473 -0.06446656 0.06328509 0.012053614
000190 52 99 c9 bd cb 60 eb bb e2 c1 d0 bc 85 27 58 bc
       -0.09843697 -0.0071831695 -0.025483076 -0.013193016
0001a0 87 f6 01 bb a8 eb 5b 3b 66 a4 47 3d 2a cb e8 bc
       -0.001983078 0.003355721 0.048740767 -0.028417189
0001b0 41 40 15 be f4 91 f7 3c 6f 72 d8 bd 5a 6d 14 3c
       -0.14575292 0.030220963 -0.105687015 0.009059275
0001c0 90 d0 d0 3d 4b c6 8b bd ea 14 d9 3c a1 f3 af 3d
       0.1019603 -0.06824931 0.02649923 0.085913904
0001d0 6a 15 93 bd 46 1b 43 bd 53 c1 e3 bd 01 dc 2d 3c
       -0.07181819 -0.04763343 -0.11120858 0.010611535
0001e0 8d 28 02 be 26 c0 ed 3d 20 3f ca 3d 7c ad 87 bd
       -0.12710781 0.11608915 0.098753214 -0.066248864
0001f0 65 eb 0e be b7 6a 9d bb 67 d5 67 bd 84 89 9e bb
       -0.13956983 -0.004803981 -0.0566 -0.0048381705
000200 7d b6 a3 3d a0 14 9e 3c 76 08 a4 bd c4 03 57 3c
       0.07993791 0.019296944 -0.08009426 0.013123456
000210 c3 64 00 3d 0d 4b a8 3d f9 50 21 be 6b 39 7e bb
       0.031346094 0.0821744 -0.15753545 -0.0038791548
000220 4f 28 ea bd 2d 62 fe 3d 9b 9e fb 3b 03 48 9a be
       -0.114334695 0.12421069 0.0076788194 -0.30133066
000230 01 60 5c 3d 8f 72 60 3d 15 81 89 bd 17 a5 2c 3c
       0.053802494 0.05479675 -0.067140736 0.010537407
000240 ed fb 32 3d ad 19 82 bd a3 e4 45 3d a0 05 1b bb
       0.043697286 -0.063525535 0.048313748 -0.0023654476
000250 56 bc a0 3d 9a 00 d6 3c e5 ac d6 bd 4d 5b d4 3c
       0.07848422 0.026123334 -0.10482196 0.025922442
000260 4d 6c 85 be c7 2e a7 3d 75 45 cd 3b 2a 89 ec 3d
       -0.2605919 0.08163219 0.0062643834 0.115495995
000270 28 eb c8 3d 94 f7 2e bd 25 7b 00 3e 27 9a 2c bd
       0.098104775 -0.042716578 0.12546976 -0.0421392
000280 8f 60 81 bd 5d 04 f6 3d 33 24 bc 3d a3 55 20 3e
       -0.06317245 0.12012551 0.09186592 0.15657668
000290 34 d2 e9 3d c9 70 85 3d aa a6 5c bd 88 8b 23 3d
       0.11417046 0.06515653 -0.05386988 0.03992799
0002a0 ba 0e be bd 1b 53 36 be 8f 5d e4 3c e4 bc ff 3d
       -0.092801526 -0.1780514 0.027876643 0.124872
0002b0 4d cb 2a bd 69 90 c6 3d 26 90 16 3e d3 d7 39 bb
       -0.04169779 0.09695513 0.14703426 -0.00283574
0002c0 19 a4 1e bd 89 21 2b bd fc e2 1c 3e e0 6c 42 3d
       -0.038730714 -0.04178003 0.15320963 0.047467113
0002d0 52 34 55 bd ff bf 8c bc c6 1f 96 bd 5d 8b 10 bd
       -0.05205185 -0.017181395 -0.07330279 -0.035289157
0002e0 cd eb 2f 3c 4e 7f df 3d f9 e0 d8 bc 39 49 0b 3d
       0.010737372 0.10912953 -0.026474463 0.034005377
0002f0 f3 91 7d 3d d7 e2 81 3e 36 19 bf 3d fb 5c 7d 3d
       0.061906766 0.25368378 0.093309805 0.06185625
000300 c1 5e 16 3d 4c 09 af bd 9d 5f 0c bc cd c7 26 3e
       0.036711458 -0.08546695 -0.008567718 0.16287155
000310 46 25 8b bd fd 7e b8 3d 78 a8 27 3e 8a 08 90 bd
       -0.06794219 0.09008596 0.1637286 -0.07032879
000320 8b 4b ae 3d 6f 38 02 bb cf 97 33 be 91 e7 20 bc
       0.085105024 -0.0019870063 -0.17538379 -0.009820835
000330 ca 64 bf bd 1d f4 d9 bd 96 7e c1 bd 83 56 27 3d
       -0.09345396 -0.10642264 -0.094479725 0.04085399
000340 28 6f 9b bc 02 3b bc bc 61 44 3c 3d cd bf e3 3d
       -0.018973902 -0.022977356 0.04596365 0.111205675
000350 b0 a2 9f bd 12 6f 7b bd c9 6e 83 3d 0f 8a 55 bb
       -0.07794702 -0.06138522 0.06417615 -0.003258351
000360 3b bd 9c 3d b3 77 8d bd 69 36 49 ba a2 26 84 3d
       0.0765328 -0.069075964 -0.0007675649 0.06452681
000370 35 4c 2f 3e fa 40 28 3e 58 5c 3e bd 7e a5 66 bd
       0.17118914 0.16431037 -0.046474785 -0.05631017
000380 71 d3 ad 3c cd 14 85 3c 2d 69 1b 3e bb d3 2b be
       0.021218987 0.01624527 0.1517684 -0.16779988
000390 f6 91 bd bd 34 13 1e 3d a7 ea 65 bc 74 73 a0 bc
       -0.092563555 0.038592532 -0.014032996 -0.019586302
0003a0 31 8c 8c bd 8c d3 d8 bd 18 5c 58 bc e6 d4 87 3d
       -0.06862677 -0.10587224 -0.013205551 0.06632404
0003b0 57 9e 45 bd 3e 0f a9 bd e5 02 5d 3d b7 b9 98 3d
       -0.048246708 -0.0825486 0.05395784 0.07457297
0003c0 ed d0 a4 bc e0 38 b1 bd 46 17 aa 3d 93 91 25 bb
       -0.020119155 -0.08653426 0.0830522 -0.002526377
0003d0 f2 47 35 bc da e0 38 3e 90 48 c3 ba b5 95 d5 3d
       -0.011064516 0.18054524 -0.0014898945 0.10428945
0003e0 d7 31 86 3e a1 57 ce bd 6d 18 a7 bc eb 87 27 bc
       0.262099 -0.10075308 -0.02039739 -0.010225276
0003f0 4a 3f 86 3d 0d 23 8e 3c 31 a9 e9 3d 5c 2b 1a bd
       0.0655504 0.017350698 0.11409224 -0.037639007

network_body._body_endoder.seq_layers.2.bias f4 [128]
000000 92 50 0b 3c ab 77 10 bc bf 37 63 bc b1 e5 8f bc
       0.008503096 -0.008817594 -0.013868271 -0.01756558
000010 fa 6f 9b 3b 60 3a aa bc b9 21 08 3d ed 57 ca 3b
       0.0047435733 -0.020779788 0.033235285 0.0061750324
000020 4c 49 b8 bb 0e bc d3 3c ca 57 8c 3c 6c 4c ea bb
       -0.005623972 0.025846507 0.017131705 -0.0071502235
000030 77 3e 8e bc 40 a4 83 bc 97 f7 19 bc 70 dc b2 bc
       -0.01736377 -0.016069531 -0.009397409 -0.021833628
000040 e7 f4 00 bc 7d 5d 4d bc 84 f0 c6 3c e8 9d f0 3c
       -0.007870889 -0.012534496 0.024284609 0.02937217
000050 8f 8a dd bc 01 28 7e ba c9 9a 3a bb 74 b9 ad bc
       -0.027043609 -0.0009695292 -0.0028473607 -0.021206595
000060 ac 87 ce 3b b7 4c bc bc af b8 03 3d 2a aa c6 3b
       0.0063027944 -0.0229858 0.03215855 0.0060627656
000070 47 85 dd bb f3 01 06 bc 9c d6 24 bc 68 31 69 bc
       -0.0067602727 -0.008179176 -0.0100609325 -0.014232971
000080 91 cf d3 3c 08 9a 8c bc 62 96 89 3c 27 1e 93 3c
       0.025855811 -0.017163292 0.01679534 0.017958714
000090 d6 1c 49 bc 12 38 12 3c 7c 7e b3 bc 39 92 85 3c
       -0.012274941 0.008924501 -0.021910898 0.016305076
0000a0 1b 1d e3 3c 23 fa 5e bd e5 0f 85 bc ac da 8a 3d
       0.02772384 -0.054437768 -0.01624293 0.067799896
0000b0 92 6a e3 bc 39 25 45 3b 5c 5e 1a 39 0b 4e c3 bc
       -0.027760778 0.0030082 0.00014721736 -0.023840925
0000c0 45 85 33 3d ac fe a1 3c c6 75 a3 bc 49 d4 86 3c
       0.043828268 0.019774757 -0.01995362 0.016458647
0000d0 c6 b3 b4 3c 95 e3 ba 3c ef 2a 9b bc 7d 9b 89 3c
       0.022058379 0.022813598 -0.01894137 0.016797775
0000e0 6c 25 e1 3c 85 ba e8 3c cc 51 ae bc ca 38 0c 3c
       0.027483664 0.028409252 -0.021279238 0.008558461
0000f0 c2 09 39 bc 93 50 99 ba 65 09 57 ba b3 01 c8 bb
       -0.01129383 -0.0011696987 -0.0008202999 -0.006103718
000100 a7 5f 6a bb b9 96 a5 bc ce f4 45 bc d2 7b 08 bc
       -0.003576258 -0.020213472 -0.012082292 -0.008330302
000110 31 81 4b bc 88 05 65 bc 31 22 82 3b 4c 54 62 ba
       -0.012420938 -0.0139783695 0.003971361 -0.0008633777
000120 d5 53 2c 3d a2 08 ed bb 88 4a 96 bb a7 15 67 3d
       0.042072136 -0.007233695 -0.0045865215 0.056417134
000130 ff 94 8c bc 86 19 cb bc 6a 2d 4e bc 61 78 e6 bc
       -0.01716089 -0.024792444 -0.01258407 -0.028133573
000140 07 70 6c 3c 10 9b ed bc 7f 0c 8b bc c0 16 46 3d
       0.014431006 -0.029004604 -0.016973732 0.04836154
000150 63 67 80 3c 52 95 d9 bc b7 02 97 bc 59 fe da bb
       0.015674299 -0.02656046 -0.018433912 -0.0066831526
000160 14 6a 0a 3d 45 aa 99 3b d2 cd ba bc 80 93 e5 bc
       0.03379257 0.004689487 -0.02280322 -0.028024435
000170 09 3c 78 3c 2d 92 5b 3b 75 60 f2 bb fb 38 1f 3d
       0.015151032 0.0033503876 -0.0073967525 0.0388727
000180 23 a8 05 bd 40 11 2c 3d e2 20 cf 3b 3c 15 05 bd
       -0.03263105 0.04200864 0.0063210586 -0.032490954
000190 4e 02 ab bc ad 44 87 bc 76 b6 0f 3c c9 57 0a 3d
       -0.020875122 -0.01651224 0.008771529 0.033775125
0001a0 4e 93 35 bd 4b 61 27 3c ed 88 84 bc 35 6d 8d bb
       -0.044329934 0.010216068 -0.016178573 -0.004315997
0001b0 a6 6e 3d 3c f1 af 8b bc 58 5a 5f 3c 96 95 16 3d
       0.011562025 -0.017051669 0.0136323795 0.03676375
0001c0 06 f6 f8 bc 4f fb 14 3c 5d 62 7c bc 43 dc 08 bd
       -0.03039075 0.00909312 -0.015404311 -0.033413183
0001d0 3f 74 d4 3b a9 88 81 bc be a8 40 b9 97 1d 06 3d
       0.006483584 -0.015812235 -0.00018373408 0.032743063
0001e0 21 c7 3e bc f3 0a d4 3c d4 60 76 3d 84 e3 33 ba
       -0.011644156 0.025884127 0.060150936 -0.00068622106
0001f0 c7 8e 15 bd 6f f8 4d 3d 65 04 c8 3b 35 64 7b 3c
       -0.036513116 0.050285753 0.0061040395 0.015343715

action_model._continuous_distribution.log_sigma f4 [1, 2]
000000 fe 15 c1 3e 5f fc b0 3e
       0.3771209 0.34567544

action_model._continuous_distribution.mu.weight f4 [2, 128]
000000 06 5d d3 bc e1 62 94 bc 2c c5 35 bd d2 84 9c bc
       -0.025801193 -0.018113555 -0.04437749 -0.019106302
000010 2b 49 b6 3c aa 43 cf bc bb 68 b4 3c 33 a0 d2 3b
       0.022251686 -0.02530082 0.022022596 0.0064277886
000020 51 68 e1 bc c4 70 4e bd e1 ff 90 3d a3 52 fa bc
       -0.027515562 -0.05040051 0.07080055 -0.030556982
000030 e6 26 d8 bb 20 9c 4f bc 38 2c 83 bc 60 f8 cd bb
       -0.006596434 -0.0126715 -0.016012296 -0.006285712
000040 bc 14 07 3d e4 97 75 bc 4a fd 18 bc 18 d4 af 3c
       0.03297876 -0.014989827 -0.009337733 0.021463439
000050 73 f7 ff 3c d8 19 c6 bc 80 1c dc ba 30 9a c6 bc
       0.031245923 -0.024182245 -0.0016793162 -0.024243444
000060 b1 01 f1 3c 6f 35 a8 3a b3 b2 a9 3c f9 df 93 bc
       0.029419752 0.0012833307 0.020715093 -0.018051134
000070 8f 77 26 ba 0b 14 f8 bc 68 88 92 bc cc e3 dc bc
       -0.0006350213 -0.030282995 -0.01788731 -0.02696409
000080 49 03 47 3c 3e bd 27 3c 32 71 3b bd 3c e4 51 bc
       0.012146779 0.01023799 -0.04576225 -0.012810763
000090 99 26 07 3d f6 d3 fe 3a d9 70 eb 39 29 1f 0a 3d
       0.032995794 0.0019441831 0.0004490677 0.033721123
0000a0 c5 22 08 3d a8 4c 0e b4 e6 85 f9 bc 0b 87 a6 b7
       0.033236284 -1.3252668e-07 -0.030459356 -1.9851626e-05
0000b0 e4 91 56 3d 0f 0d 61 ba 7a a5 41 bc fb 7c 0f bc
       0.052385226 -0.0008585015 -0.011819238 -0.008757825
0000c0 d8 46 e8 3b 65 ca 7f bc 11 2b 16 3b 30 36 a3 bb
       0.0070885234 -0.015612219 0.0022913853 -0.004980825
0000d0 94 78 23 3d 90 47 23 bd 0d d5 c1 3c a7 80 b3 3c
       0.039909914 -0.03986317 0.02366116 0.021911932
0000e0 ca 8e 3b 3d 03 21 93 3d 43 9d b2 bc 9c ac eb b9
       0.04579047 0.07184031 -0.021803504 -0.00044951297
0000f0 a8 c1 34 bd 90 66 96 bc d7 7e 68 bd f0 c6 f6 bb
       -0.044129997 -0.018359452 -0.05676159 -0.0075310394
000100 ad 8f 14 3b 12 27 2f 3a 78 c7 16 bc 93 5e ad 3d
       0.0022668645 0.0006681542 -0.0092028305 0.08465304
000110 6d 1e df 3c 4e c0 81 3d 6c 6f fa 3c a9 44 6e 3d
       0.027236188 0.06335507 0.030570708 0.05817095
000120 18 80 c3 3d b1 44 a7 3c c0 46 16 ba db 3d af 3d
       0.09545916 0.020418497 -0.00057325885 0.0855672
000130 7e b9 8d 3c d9 f7 d1 bc b9 a1 ba bc 14 5f bc bc
       0.017300364 -0.025630878 -0.022782193 -0.022994556
000140 c0 9e b4 3c bc af 48 bc 48 eb 93 3a 48 58 26 3d
       0.022048354 -0.01224893 0.0011285329 0.040611535
000150 bd 04 46 3d 07 ee 40 bd c5 04 d9 bc e0 61 00 bd
       0.048344363 -0.047102 -0.026491532 -0.03134334
000160 eb a0 0f 3d 06 66 64 3c 98 14 98 ba 46 a8 04 3d
       0.035065573 0.01394034 -0.0011602817 0.03238704
000170 97 91 2c 3b 17 bb c2 bc 04 1b 9b bb 71 0e 28 3c
       0.0026331895 -0.023770852 -0.004733445 0.010257349
000180 a6 7a 81 3c d3 d4 0f bd 09 01 86 3d ff 5c dd 3b
       0.015805554 -0.035115074 0.06543166 0.0067554708
000190 e2 0e d6 3c 82 be e5 bc 11 0f 36 bc 2c e8 63 3c
       0.026130144 -0.028044943 -0.011111991 0.013910335
0001a0 7a 74 be bb 84 96 41 bd 6f 65 09 bd 75 f9 82 bc
       -0.005812225 -0.047262684 -0.033544 -0.015988091
0001b0 fe c1 d5 3c 50 94 d7 bc ca 61 11 3d d0 c9 7f bc
       0.02609348 -0.026315838 0.03549365 -0.015612081
0001c0 d3 a8 02 bc 16 1c 1e 3b 86 f2 0a bd 61 1e b5 bb
       -0.007974821 0.0024125627 -0.033922695 -0.005527303
0001d0 fc cb eb ba 82 06 ce bb 94 3d 1a bd e5 71 08 bd
       -0.0017989869 -0.006287397 -0.03765638 -0.033311743
0001e0 26 29 89 bc a0 38 19 3d 3c f8 24 3d 34 ba c3 39
       -0.016743254 0.037407517 0.040275797 0.0003733203
0001f0 a9 33 10 3c af bf 91 bd ac c0 41 bc 46 f6 0d bd
       0.008801379 -0.07116639 -0.011825722 -0.034658693
000200 0c 44 4e 3c 53 94 2a bd ba c6 67 bd 50 dc a3 bd
       0.012589466 -0.04164536 -0.056586005 -0.08001006
000210 4a 50 f0 3d cb e0 7c bc c8 76 68 bd 00 26 47 bd
       0.11734064 -0.015434454 -0.056753904 -0.048620224
000220 c4 2e 99 bc 4b 3f 96 3c 04 4a 08 bd 71 ac 37 bd
       -0.018699057 0.018340727 -0.03327371 -0.044842187
000230 2a 6b db 3a e4 3d c4 3c e7 36 eb 3b 2b 19 25 bd
       0.0016740311 0.023955293 0.0071781757 -0.040307205
000240 f5 27 ac 3b 29 b2 cb bc 05 e1 0a 3d 4f bc 15 bd
       0.0052537867 -0.024865227 0.033906 -0.03655654
000250 20 87 38 bc 94 11 36 bc 05 00 3d bd 3e c9 63 bd
       -0.011262685 -0.011112589 -0.046142597 -0.05561184
000260 28 1b 26 bd 0d 75 1e bd c3 26 3a bd 5d be 54 bd
       -0.040553242 -0.038685847 -0.045447122 -0.051939357
000270 96 ad 5d 3c 86 6e ab 3c c6 b4 35 bc 17 90 90 bc
       0.013530156 0.020926725 -0.011090463 -0.017646832
000280 f8 ee 31 3d 4d b8 45 bc a2 37 9f bb 6a d1 b1 bd
       0.04344079 -0.0120678665 -0.004858927 -0.08682521
000290 82 c3 b8 bc db 0d c2 3c 15 f7 aa ba 16 3a 86 bd
       -0.022554163 0.023688247 -0.0013043607 -0.06554048
0002a0 1a f2 95 bd e8 dd 28 bb 25 c5 64 3c 64 e2 0a 3d
       -0.07321568 -0.0025767032 0.013963019 0.03390731
0002b0 85 fc 67 bd 64 32 64 bd 77 2f 51 bd 69 04 b5 bc
       -0.056637306 -0.05571212 -0.051070657 -0.02209683
0002c0 6d 67 cb 3d dc c9 dc bc b4 89 a8 bc f6 ae be 3b
       0.09931836 -0.026951723 -0.020573474 0.005819197
0002d0 e9 fc 9b bd 90 88 65 bc 0f c2 46 3d 8b 2e 37 bd
       -0.07616598 -0.01400961 0.048524912 -0.04472212
0002e0 7c 52 74 bd ce eb 51 ba 24 ee 10 bd 75 e7 8e bd
       -0.059648976 -0.0008007855 -0.03538336 -0.06977741
0002f0 45 3f fb 3b e3 e5 89 bd cf 12 04 bc b6 68 8b bd
       0.0076674544 -0.067333005 -0.008061125 -0.068070814
000300 7f 6b eb bc 64 3e 42 bc 02 0f 3e bd 01 c2 8a 3c
       -0.028737782 -0.011855695 -0.04640103 0.016938211
000310 8e b5 9c 3a f9 1f 47 bd 99 51 38 bd 42 fd 8d bc
       0.0011955963 -0.048614476 -0.044999693 -0.017332677
000320 90 ce fd 3c 86 f8 17 bd bb 5d 28 bd 17 80 ca bb
       0.030982286 -0.037102245 -0.041105013 -0.0061798203
000330 17 34 01 bc 4b e2 e0 bb 06 b9 48 bd a6 ed 41 3c
       -0.007885954 -0.0068629137 -0.049004577 0.011836445
000340 13 80 90 bd ae 39 bd bc 32 a7 2f 3d c8 25 44 bd
       -0.07055678 -0.023098793 0.04288406 -0.047887594
000350 ea 1f 07 bd 3c 19 0f bd df 7b 0e bd be 6a ff 3a
       -0.03298942 -0.034936175 -0.0347861 0.0019486768
000360 82 66 3f bc 46 61 85 bd 0d f1 a2 bb 6f 42 0f bc
       -0.011682155 -0.06512694 -0.004972583 -0.008743866
000370 db c5 08 3d f9 13 36 bd d9 cf 95 3b c2 70 87 3d
       0.033391815 -0.04445264 0.0045718965 0.06613304
000380 e8 d6 00 3d 72 00 00 3d be a8 b9 bc ba 33 38 3d
       0.03145495 0.031250425 -0.02266347 0.044971205
000390 86 00 b7 bb 1b bb 32 bd 37 a7 41 bc 2f 87 7f 3d
       -0.005584779 -0.04363547 -0.011819652 0.06238478
0003a0 94 28 84 bc b7 4c 09 bd 66 50 1a bd 21 3b 88 bc
       -0.01613263 -0.033520427 -0.03767433 -0.016629757
0003b0 b7 dd 94 bd b2 ff 6f bd 85 ad b2 bd b5 dc 0e 3d
       -0.07268851 -0.05859346 -0.087245025 0.03487845
0003c0 d0 1e 45 3c fb 0c 62 bd 29 40 09 bd 7b 58 06 bc
       0.012031272 -0.05518816 -0.033508454 -0.008199806
0003d0 dd ef 5a 3d 96 ca 19 bc 35 39 c0 bc 67 95 97 3c
       0.053451408 -0.009386679 -0.023464778 0.018503858
0003e0 e9 fd 5a 3d df 84 32 bd 4d 27 93 3d 0f 85 1c bd
       0.053464804 -0.043583747 0.071852304 -0.038212832
0003f0 84 6f eb 3a 6e 00 3c bc a9 2e ad 3c be 3b b8 bd
       0.0017962311 -0.011474712 0.021140413 -0.0899577

action_model._continuous_distribution.mu.bias f4 [2]
000000 d2 a2 92 3c b7 3c 06 bc
       0.017899904 -0.0081931865

action_model._discrete_distribution.branches.0.weight f4 [2, 128]
000000 97 8a 57 3c b2 ad 05 bd e1 20 7d 3c 75 84 29 b9
       0.013155601 -0.032636352 0.0154497335 -0.0001616644
000010 fd 7b 96 3c 81 95 a5 bc d5 dc d7 bc e8 1e f3 bc
       0.01836967 -0.02021289 -0.026350418 -0.029677823
000020 1a 3e 26 3b bc d9 06 bd 41 e5 2e bd 5d d1 ec 3c
       0.0025366605 -0.03292249 -0.042699102 0.028908426
000030 ae 0d cb 3c 4b a9 03 3d 6d 3e e8 bb 92 1c 25 3d
       0.024786796 0.032143872 -0.00708752 0.04031045
000040 16 c5 2b bb 81 6c 05 3d 34 d8 65 bd 64 61 28 3d
       -0.0026210002 0.03257418 -0.05611439 0.041108504
000050 30 68 6b 3c d6 8f ba 3c 07 9f a0 3c 20 16 8b 3c
       0.014368102 0.022773664 0.01960708 0.016978323
000060 ed ed b1 bc 07 4a 86 3c 97 1f cb 3b bb ff 45 bd
       -0.021719897 0.01639272 0.006198834 -0.048339587
000070 a9 44 51 3c e2 50 33 3d 51 a5 36 3c 6d 12 10 3d
       0.0127727175 0.043778308 0.011147813 0.035173822
000080 f2 85 21 bc a6 a6 0d 3c 5a d8 17 3c 1d 7f 60 bc
       -0.009858595 0.008645689 0.009267891 -0.013702181
000090 d1 4d 8d 3d 9e 14 8e bc 0c ed 25 3d d0 0e e4 3c
       0.06899608 -0.017343815 0.04050927 0.027839094
0000a0 c9 4c 14 3d 59 71 ad 3b 25 76 06 bc 2d 39 15 3d
       0.03620604 0.005293053 -0.008206879 0.03643148
0000b0 f5 bf 03 bc 3c 52 83 3c 29 e2 2c 3d ba 1e f1 3c
       -0.008041372 0.016030423 0.04220787 0.029433597
0000c0 79 8a 52 39 13 7b e3 3d 66 5e 02 3c e4 c6 a7 bc
       0.00020078746 0.11107459 0.007957077 -0.02048058
0000d0 3a 08 65 3d 9c 3b a6 3c 30 2e 9d 3c c0 21 5a 3c
       0.05591605 0.020292096 0.019187063 0.013313711
0000e0 4b 99 ff bc fc 7d eb bb 76 1c 5b bd 02 f3 2c bb
       -0.031201025 -0.0071866494 -0.05349394 -0.002638996
0000f0 41 29 f4 bc 60 db d0 3c 47 91 d2 3b d2 49 1c 3d
       -0.029804828 0.025495231 0.00642601 0.038156338
000100 06 95 d8 3b ef 80 c4 bb 0f f0 ee bc db fe c5 bc
       0.006609562 -0.0059968154 -0.029167203 -0.024169376
000110 37 e4 c7 bb 66 7f bf bb 12 28 b0 bc 79 0e c6 bc
       -0.0061002034 -0.0058440445 -0.021503482 -0.024176823
000120 5e 15 69 3c f7 9e 41 3d 79 5e f3 bc 80 57 aa 3a
       0.014226286 0.04727074 -0.029708134 0.0012996048
000130 26 bb af 3c 7a d3 28 ba 01 59 fd 3c a3 41 0c 3c
       0.021451544 -0.0006440204 0.03092623 0.008560571
000140 da 91 12 3d 52 24 8e bc 90 ec 85 3c 35 aa be 3c
       0.035783626 -0.017351303 0.016348153 0.02327452
000150 d7 d6 5e 3b 95 ef 74 bc 68 5c 67 3c 78 a1 00 3d
       0.0034002566 -0.014949699 0.014121152 0.03140399
000160 c2 bc 08 3c 48 7e 2d bc f0 5d c2 ba c0 73 8e bb
       0.008345785 -0.01058919 -0.0014829021 -0.0043472946
000170 82 53 02 3d 6b 9d 38 bd 5d 6b 8d 3b 7e 7c b9 3a
       0.03181792 -0.045072 0.004315777 0.0014151481
000180 ea 0f 49 3b fb 1a 4c 3d 0d fd 7a bb 3d 59 81 3c
       0.0030679652 0.049830418 -0.0038297803 0.015789622
000190 50 6f 65 3d 29 bf 7b 3c 1f 2a 3c 3c cc ba a1 bc
       0.05601436 0.0153654 0.011484652 -0.019742392
0001a0 c7 89 0f 3d b9 90 a6 3b 30 a9 04 3c ac e6 d0 bc
       0.035043504 0.0050831703 0.008096978 -0.025500618
0001b0 1c 15 ba bc ca cf 14 3c b1 55 46 3c 67 fa 66 bd
       -0.022715144 0.009082744 0.012105391 -0.056391146
0001c0 e9 54 2e 3c 37 36 2c 3c 44 c6 e9 3b 03 14 45 bc
       0.010640361 0.010510973 0.007134231 -0.012028697
0001d0 48 92 75 3c 2f 57 93 3c 60 5d 24 3c 80 7f ed 3d
       0.014988489 0.017985908 0.010032028 0.11596584
0001e0 2a c3 7a 3d 86 f7 1d 3b a8 82 1c bd cc 10 04 3d
       0.06122128 0.0024103834 -0.03821054 0.03224258
0001f0 64 74 ce 3c 5b 55 9a 3d 70 c1 0f bc 47 af d1 bc
       0.025201984 0.075358115 -0.008774146 -0.025596274
000200 f0 74 39 bc 1a 0e c7 3c 6a 56 a4 bb 52 70 0a bc
       -0.011319384 0.024298716 -0.005015184 -0.008449631
000210 55 3f 68 bc ed 36 4c 3c c8 6b 92 3c b4 e6 81 3c
       -0.014175256 0.012464267 0.01787366 0.015857078
000220 7f 49 8d bc 04 04 07 3d 0e 9c 17 3d d2 01 f1 bc
       -0.01724696 0.032962814 0.03701406 -0.029419813
000230 79 86 2e bc 15 4c 4c bd 9c 00 f3 3a 7b 03 2b bd
       -0.010652178 -0.049877245 0.001853961 -0.041751366
000240 b2 0c 3d bc 58 dd d7 bc ae fd 69 3d 1d 48 a1 bc
       -0.011538671 -0.026350662 0.057126693 -0.019687707
000250 8a 1f 08 bd ea 2b 15 bc 55 e5 1a bd 6f ad 70 bc
       -0.033233203 -0.009104708 -0.037816364 -0.014689787
000260 93 0d 05 3d e2 3a 12 bc b2 65 01 bd 76 2b d5 3c
       0.03248365 -0.008925172 -0.031591125 0.0260217
000270 61 ab d5 bc 8e e8 13 bd f1 53 c1 b9 ef 8c 44 bd
       -0.026082696 -0.036110453 -0.0003687437 -0.047985967
000280 a9 dc e3 3c 31 14 39 3b 35 7a ef 3b d8 57 a5 3c
       0.02781518 0.0028240795 0.0073082694 0.020183489
000290 94 10 08 bd eb 50 26 3d fe ab 1c bd 6a 18 2b bd
       -0.033218935 0.040604513 -0.038249962 -0.04177133
0002a0 80 86 4a bd b5 2b d3 3c 11 d5 82 3c 2d 7a 58 bc
       -0.049444675 0.025777677 0.015970739 -0.013212723
0002b0 31 e6 cb 3c 96 55 31 bc 7c fa e3 bc f5 cd a6 bc
       0.024890037 -0.010823628 -0.027829401 -0.02036188
0002c0 ab 8c 7a 3c f6 50 e6 bd c0 06 3f bc 6a d5 40 3c
       0.015292327 -0.11245911 -0.011659324 0.011769632
0002d0 f7 fe 54 bd de 01 3b bc aa c8 90 bc ca f5 60 bc
       -0.052000966 -0.011414019 -0.01767381 -0.013730476
0002e0 64 e6 01 3c 55 86 b0 3b 3f 18 40 3d b8 d5 9f bb
       0.007928465 0.0053871074 0.046898123 -0.004877772
0002f0 62 3d 26 3d 89 a0 a0 bc 79 8e a5 bb ac a0 49 bd
       0.040585883 -0.0196078 -0.0050523845 -0.049225494
000300 17 4c 0c bc 99 ca e6 3a 28 9c cb 3c 2d db 06 3b
       -0.008563063 0.0017607986 0.024854735 0.0020577416
000310 57 ff 9d 3b d1 cb bb 3a 6b b3 16 3d 71 31 46 bb
       0.0048216986 0.001432771 0.0367922 -0.0030241872
000320 32 f5 dc bb 95 a1 64 bd c8 d5 d5 3c 4c 50 e4 3c
       -0.0067430967 -0.05581816 0.026102915 0.02787032
000330 00 cc 89 bc 35 eb b1 3c 2e 9e b8 bc f4 dd fb bb
       -0.016820908 0.0217186 -0.022536363 -0.007686371
000340 ac c3 e7 bc 58 a6 cc 3a 82 f9 d6 bb 92 80 d6 bc
       -0.028291546 0.0015613539 -0.0065605054 -0.026184354
000350 da f4 03 bc b4 84 a6 bc 12 6f 90 bc 2b 9f 7d bc
       -0.008053983 -0.02032695 -0.017631087 -0.015479843
000360 0b cf 52 bc 1b 5e 19 bc cd 73 5f ba 73 43 8b 3b
       -0.012866746 -0.009360815 -0.00085240306 0.004249984
000370 b1 fb db bc ec 65 39 3d ff 14 e7 ba 31 4b 05 bc
       -0.026853414 0.045263216 -0.0017630159 -0.008135603
000380 4e 88 4d 3c 0f 59 54 bd 5c 93 ff ba 72 bb 2c bc
       0.012544705 -0.051842745 -0.0019498873 -0.010542737
000390 61 6e 56 bd 9f 38 32 bc 8b 49 5d bc 9a f7 4b 3b
       -0.05235136 -0.010877757 -0.013506304 0.0031122924
0003a0 8d fa be bc 6b 02 a2 3b c0 f3 19 bb b9 83 b2 3c
       -0.023312831 0.004944136 -0.0023491234 0.021791326
0003b0 40 97 71 bb e4 84 c1 bc 0c 7d 8c bc 81 a7 47 3d
       -0.0036863834 -0.023622938 -0.01714947 0.04874373
0003c0 58 a2 11 bc 03 a5 1e bd 48 66 e3 bc db 5f 31 bc
       -0.008888803 -0.038731586 -0.027758732 -0.010826076
0003d0 99 bd 9a bc e9 34 af bc 10 ab 04 bc 98 bd ec bd
       -0.018889235 -0.021387534 -0.008097425 -0.115596
0003e0 62 aa 4e bd 36 a4 0b bc 02 1d 2c 3c 3e d8 19 bc
       -0.05045546 -0.008523038 0.010504963 -0.009389935
0003f0 e6 bc d4 bb 61 39 a6 bd 29 bc a3 3c a8 ad 20 3d
       -0.006492245 -0.08116413 0.019987183 0.03922811

action_model._discrete_distribution.branches.0.bias f4 [2]
000000 39 c3 2d bb 5f c7 2d 3b
       -0.0026514067 0.002651654

exp_avg f4 [128, 6]
000000 77 a7 77 ba 30 77 6c 37 e6 1e 2b 3c 27 0f 8a 3a
       -0.00094472565 1.4094447e-05 0.0104443785 0.001053308
000010 6f 6d 1e ba a1 dd 34 bd 5a 19 34 2e 25 3c 3e 2e
       -0.00060435286 -0.044156674 4.094978e-11 4.3254417e-11
000020 a2 57 49 b0 c1 04 7d 2f ed 04 48 2f a4 dd 84 b0
       -7.324791e-10 2.3011905e-10 1.8191644e-10 -9.667258e-10
000030 a0 2b 69 b4 7e 3e 12 33 a8 da 6b b6 4a da 58 34
       -2.1715687e-07 3.405011e-08 -3.5145003e-06 2.019598e-07
000040 84 4d 03 33 f6 9d 1d b5 5f e0 ab 3a 24 50 96 b8
       3.0571314e-08 -5.871692e-07 0.0013113132 -7.167485e-05
000050 da c8 e5 3c 9c d4 a2 ba 03 91 8c ba a1 9d ed 3c
       0.028049875 -0.0012422982 -0.0010724369 0.029005827
000060 5a 31 36 bb 26 6f 9a 39 e8 f8 2a bc 05 35 3a 3b
       -0.0027800412 0.0002945598 -0.01043532 0.002841295
000070 ea 18 be b8 27 ca be bd 58 14 ad 3a 49 7a ce 39
       -9.0645466e-05 -0.09315901 0.0013204915 0.0003938249
000080 5f 8c c3 3c 65 6a ed ba 20 8e 96 ba e8 4e ce bc
       0.023870645 -0.0018113373 -0.0011486448 -0.02518411
000090 42 ef b5 3a 12 d6 ce 39 a8 74 b2 bb fc ed 1b bb
       0.0013880508 0.00039450877 -0.0054460354 -0.0023792973
0000a0 d0 3d 84 39 65 b6 81 bb db 83 a6 a0 b8 e3 26 20
       0.00025223056 -0.0039585107 -2.8208748e-19 1.4136093e-19
0000b0 a4 2b 27 20 42 b1 a3 1f 00 b2 64 a0 6c 49 96 21
       1.415989e-19 6.9326434e-20 -1.9371246e-19 1.018383e-18
0000c0 f8 8e 96 39 4a 4a d0 b8 00 62 0c 3c e5 ac bc b9
       0.0002871675 -9.93205e-05 0.008568287 -0.0003598697
0000d0 4c 23 8b b9 93 96 35 3b e1 26 7b 38 d4 87 e4 b8
       -0.00026538444 0.0027708157 5.9879272e-05 -0.00010897187
0000e0 d3 cb b0 3c f0 95 09 b9 a0 33 59 ba 49 2f 3f bd
       0.021581566 -0.00013121194 -0.0008285586 -0.046675954
0000f0 3b ae 25 bb 69 84 8f 39 aa e7 30 bc d2 0e 2c 3b
       -0.0025280851 0.0002737374 -0.0107974205 0.002625395
000100 9c 9d b6 b8 82 10 8d bd 0a ff 46 ac 50 28 8b ab
       -8.707793e-05 -0.06887914 -2.8279067e-12 -9.887733e-13
000110 30 05 89 2d 55 25 9c ac c0 c7 9d ac 52 b8 ac 2d
       1.55774e-11 -4.4379314e-12 -4.484385e-12 1.963599e-11
000120 61 59 d4 38 54 22 af b8 48 31 a0 3b 4a 3d 29 38
       0.00010125596 -8.3510444e-05 0.0048886873 4.034982e-05
000130 0e 11 b4 b9 d1 e5 0a 3d 8f 09 36 ba dd a1 77 39
       -0.00034344982 0.033910576 -0.00069441734 0.00023616054
000140 59 63 94 3a 5c 3f 0b 3a fb 6e 83 b9 31 25 68 bd
       0.0011321112 0.00053118705 -0.00025068954 -0.056676093
000150 6a ac f4 b5 64 5b 27 34 9e 3c e2 b7 04 0d ee 35
       -1.8229596e-06 1.5586335e-07 -2.6969527e-05 1.773617e-06
000160 b5 f6 cd 34 9f 51 a9 b6 d9 00 92 a8 1f f0 df 26
       3.8363729e-07 -5.0460944e-06 -1.6209624e-14 1.5538818e-15
000170 14 b9 a1 a6 29 cd 80 28 27 11 78 26 20 4d 5a a9
       -1.1221785e-15 1.4299829e-14 8.606553e-16 -4.847262e-14
000180 48 ab 24 ba 88 3e 5a b9 a1 70 f6 3a 9f 8b 4e 3a
       -0.00062816264 -0.00020813395 0.0018801877 0.00078790815
000190 98 31 84 b7 3d 2c 88 bc 27 57 ca a9 59 8f a5 a8
       -1.575872e-05 -0.016622657 -8.9857206e-14 -1.8380847e-14
0001a0 81 db 56 2a f0 aa 6c a9 ac 6c 5f a9 13 1a 5d 2a
       1.9083174e-13 -5.255079e-14 -4.9610205e-14 1.963779e-13
0001b0 60 bf b1 b9 8d d5 4e b8 a4 10 a0 bb 17 9e 93 39
       -0.00033902656 -4.9313112e-05 -0.004884796 0.0002815581
0001c0 68 b1 80 39 04 eb 91 bc 92 67 48 b0 63 f6 0c 2f
       0.0002454624 -0.01781226 -7.290676e-10 1.282046e-10
0001d0 78 ce 77 b1 08 4b a7 30 a0 19 71 30 b6 0f bb b1
       -3.6060595e-09 1.2172174e-09 8.7711705e-10 -5.4442024e-09
0001e0 56 1b d4 39 15 21 87 38 97 d5 f3 3b 19 2c ab b9
       0.00040456158 6.443464e-05 0.0074412334 -0.00032648517
0001f0 6c 2f e2 b8 76 be a8 3b 26 cd 9d ba 34 5d 9e 37
       -0.00010785353 0.005149658 -0.0012039288 1.8878469e-05
000200 25 6f 0b 3c 39 e4 a5 3a 54 b4 04 ba 6e bf 92 bd
       0.008510386 0.0012656517 -0.00050622714 -0.071654186
000210 a3 ef 6e 3a d5 78 f8 b7 dd fa 6a 3c 5f bb 76 ba
       0.0009114688 -2.962017e-05 0.014342037 -0.0009412076
000220 d2 e1 fd b9 e1 21 7e 3c f2 88 e6 3a b1 e5 a1 b6
       -0.0004842417 0.015511007 0.001758842 -4.8249135e-06
000230 9c f2 07 3d cf 0d fe ba 10 ca c0 ba 8e 77 a6 3c
       0.033190355 -0.0019382777 -0.0014708657 0.02032068
000240 5f f1 62 38 53 dd c6 b6 94 06 53 39 2c b7 90 b8
       5.4107393e-05 -5.9266254e-06 0.00020124979 -6.9005735e-05
000250 bc e8 4c b8 68 17 9e 39 66 5a 31 ba 2e 80 f0 b8
       -4.885414e-05 0.00030153547 -0.00067654846 -0.00011467967
000260 0a cc 23 3c 07 24 66 3a e6 bc a9 b9 55 28 3a bd
       0.009997377 0.0008779172 -0.00032374932 -0.04544862
000270 bd 50 8f ba d4 38 64 38 a6 8c 06 3c ec 38 8e 3a
       -0.0010934096 5.441236e-05 0.008212244 0.0010850704
000280 64 07 0a ba d3 d1 86 bd 8b 01 ae ba d2 38 9b 39
       -0.00052653835 -0.065829895 -0.0013275606 0.00029606238
000290 b1 d8 54 3b d6 e4 b4 3a 6b 70 fc b9 74 1f 88 bd
       0.003247779 0.0013801109 -0.00048148943 -0.06646624
0002a0 06 ed e2 b8 82 7b 64 39 da f3 b7 3a 7a ac 32 38
       -0.00010820669 0.00021789785 0.0014034465 4.259914e-05
0002b0 39 59 b9 b9 5f 39 4b 3c ed ef e3 ba be 9d 3b b8
       -0.00035352426 0.012403815 -0.0017390229 -4.4731183e-05
0002c0 b4 ba 52 bb 5c e9 02 3b 32 c6 e7 b8 a9 57 0b bd
       -0.003215474 0.0019975519 -0.00011051855 -0.034019146
0002d0 b0 44 7c 38 fb 44 37 b5 b2 bd 61 3a 33 2c 81 b8
       6.0145452e-05 -6.827319e-07 0.00086113357 -6.159432e-05
0002e0 e3 ef 8c b7 ee 5f 34 39 f3 47 8f bb 78 a2 32 3a
       -1.6801006e-05 0.00017201874 -0.0043725907 0.0006814371
0002f0 32 a8 e7 bc ae f9 96 3b 4c 54 9b 39 79 35 d3 bd
       -0.028278444 0.004607401 0.0002962671 -0.103129335
000300 f3 a0 e6 38 f1 38 7a b9 d9 8a 37 3b 3e cf 54 38
       0.00010997234 -0.0002386307 0.0028006344 5.0737748e-05
000310 cf 54 dc b8 f6 bf f8 3c c5 75 64 3a a5 9f e1 b9
       -0.00010506214 0.030364972 0.0008715059 -0.0004303429
000320 a1 08 67 3c b1 31 77 ba 87 df 0b b8 31 9a 9b bc
       0.014101178 -0.0009429707 -3.334836e-05 -0.018994423
000330 2c 1c b7 37 b7 5d dd b7 cc 56 c7 39 ed d3 a8 38
       2.1828419e-05 -2.6388892e-05 0.00038020907 8.0503385e-05
000340 1f ac d2 b8 e7 d1 ab 3b 2c 1b 24 2b 3e c5 07 2a
       -0.000100456404 0.005243528 5.8302213e-13 1.2058841e-13
000350 3f 12 86 ab c4 4a be 2a e0 a9 b3 2a d1 cb b1 ab
       -9.526337e-13 3.380266e-13 3.1914662e-13 -1.2633177e-12
000360 9a b9 82 39 74 8a 4f 38 b2 21 7e 3c 1a 6c 2e b9
       0.00024933816 4.948159e-05 0.015510963 -0.00016634204
000370 44 91 2b ba c1 bd 2d 3c 43 51 40 ba 27 e3 e6 38
       -0.00065447786 0.010604323 -0.00073363277 0.00011009565
000380 69 24 1b 3a d1 2b 85 3a e2 16 4a b9 97 35 9a 3c
       0.00059182063 0.0010160153 -0.00019272746 0.018824382
000390 2f 48 f6 39 c4 27 6e ba a4 f1 91 3c 0f 8b a3 39
       0.00046974557 -0.0009084905 0.017815419 0.0003119339
0003a0 7f 76 34 ba 2d d6 13 3e 70 0a eb b7 76 f9 ac 38
       -0.00068841124 0.1443717 -2.8019043e-05 8.248065e-05
0003b0 9e 00 38 bb 6e 82 07 b9 ce 81 dd 38 72 1b 2f bb
       -0.002807654 -0.00012923192 0.00010562279 -0.002671924
0003c0 d2 7b 3d b8 1f 0f 84 37 41 41 82 ba d7 fb 29 38
       -4.5176428e-05 1.5742668e-05 -0.000993766 4.0527284e-05
0003d0 d9 7f 5d b6 12 18 e1 b9 90 24 cb b7 23 e8 84 b5
       -3.3005983e-06 -0.00042933278 -2.4216512e-05 -9.902327e-07
0003e0 47 0e 10 ba 07 e3 5e 37 46 4d 12 b7 29 53 1e bb
       -0.00054952916 1.328509e-05 -8.72027e-06 -0.0024158454
0003f0 b7 af 25 3a f7 e7 6d b7 8a 45 a0 3c 40 ef 1d ba
       0.0006320434 -1.4180309e-05 0.019564409 -0.0006024726
