results/Shooter/Shooter/Shooter-11779.onnx (onnx, 75056 bytes, 9 tensors)

action_model._continuous_distribution.log_sigma f4 [1, 3]
0	0x00000000	0.0
1	0x00000000	0.0
2	0x00000000	0.0

action_model._continuous_distribution.mu.bias f4 [3]
0	0x00000000	0.0
1	0x00000000	0.0
2	0x00000000	0.0

action_model._continuous_distribution.mu.weight f4 [3, 128]
0	0x3b5f4ce5	0.0034072932
1	0x3b0022de	0.0019552032
2	0x3cd6974d	0.026195193
3	0xbc431bbd	-0.011908469
4	0x3a9c71d3	0.0011935778
5	0xbc0790a0	-0.008274227
6	0x3bdd54eb	0.006754508
7	0x3d13238f	0.035922583
8	0x3c9c9833	0.019115543
9	0x3c324b1f	0.010882168
10	0xbc27ea62	-0.010248752
11	0xbcce89f5	-0.025212267
12	0xbbb0d442	-0.005396397
13	0x3cb8827c	0.022523157
14	0xbc20f9de	-0.009825198
15	0x3c0dad40	0.008647263
16	0xbc65bef8	-0.014022581
17	0x39a2c49d	0.00031045536
18	0x3abba35a	0.001431565
19	0x3ab5a45b	0.0013858186
20	0xbb34262e	-0.0027488577
21	0x3ca4dbe7	0.020124389
22	0x3b496f74	0.0030736597
23	0x3b6cf715	0.0036158015
24	0x3c482927	0.012216843
25	0xbc4cdde2	-0.012504073
26	0xbcdd935f	-0.027047811
27	0x3bb6bd24	0.0055767465
28	0xbd217db1	-0.03942651
29	0x3cd29cf2	0.025709603
30	0x3bb8804f	0.00563053
31	0x3c94fbbc	0.018186443
32	0xbd311120	-0.043229222
33	0x3cbebbb7	0.023282869
34	0xb8c90622	-9.585569e-05
35	0xbcf07163	-0.029350942
36	0xbcb11c73	-0.021620011
37	0xbc292b4c	-0.010325264
38	0x3a192437	0.0005841883
39	0x3ce0647b	0.027391663
40	0xbb7bada2	-0.0038403054
41	0xbcd4889d	-0.025944049
42	0x3c92b29b	0.017907431
43	0xbbf64fcb	-0.0075168363
44	0xbc7351c2	-0.014851036
45	0x3b02b06c	0.0019941581
46	0xbba0061f	-0.004883542
47	0xbc2cea98	-0.010553978
48	0xbbf70e3f	-0.00753954
49	0x3ccb392a	0.024807531
50	0xbac001f8	-0.0014649024
51	0xbc322912	-0.01087405
52	0xbbcd5952	-0.0062667513
53	0xbc57471d	-0.013139513
54	0xbc1923d6	-0.009346923
55	0xbc391e08	-0.011298664
56	0x3cdcfbb3	0.026975488
57	0xbb6044ef	-0.0034220775
58	0x3c88bb05	0.01669074
59	0x3d5434b8	0.05180809
60	0xbd00d0b8	-0.03144905
61	0xbb17ce5f	-0.0023163778
62	0xbd1042ef	-0.035220083
63	0x3c3b6de1	0.011439771
64	0x3c12dc1b	0.00896361
65	0xbc1df1ca	-0.009640167
66	0x3bd5c2e2	0.006523476
67	0x3cbf145e	0.023325142
68	0x3c929e0a	0.017897625
69	0xbb80214e	-0.00391022
70	0xbca05939	-0.019573795
71	0x3c88bb02	0.016690735
72	0x3c827b9d	0.015928084
73	0xbce11af3	-0.02747867
74	0xbbd88057	-0.006607096
75	0xbb7f5b6b	-0.0038964401
76	0xbb19cc6d	-0.0023467795
77	0x3c5f2300	0.0136191845
78	0x3c82c8f6	0.015964966
79	0xbc17d6db	-0.009267534
80	0x3ce7d90d	0.02830174
81	0x3ab2d5a9	0.0013643998
82	0x3bcd21eb	0.006260147
83	0x3b96fdd5	0.004607896
84	0xbd3237b9	-0.043510173
85	0x3c987d83	0.018614536
86	0x3c0421d1	0.008064703
87	0x3ca6a5a3	0.020342654
88	0x3d182ee0	0.03715408
89	0x3b79c70f	0.0038113033
90	0x3a09577d	0.0005239172
91	0x3be38a42	0.006943972
92	0x3ceead98	0.02913551
93	0xbc534315	-0.012894412
94	0xbcaddbb3	-0.021222925
95	0xbc30fdaf	-0.01080267
96	0xbd26a2db	-0.040682655
97	0x3bfa44b2	0.0076375837
98	0x3b165e08	0.002294423
99	0x3c76a022	0.015052827
100	0x3cb6167f	0.022227524
101	0x3c02199e	0.007940678
102	0xbd0ab0b7	-0.033859935
103	0x3c9425f1	0.018084498
104	0xbc961498	-0.018320367
105	0x3cea2f73	0.028587079
106	0xbbd50cd5	-0.006501774
107	0xbc027345	-0.007962053
108	0xbc4db180	-0.012554526
109	0xbd2b5853	-0.04183228
110	0xbc72ffcd	-0.0148314955
111	0xba7f77d8	-0.0009745336
112	0xbc154029	-0.009109535
113	0x3a8cb3e5	0.0010734765
114	0x3d18ea7b	0.037332993
115	0xbca00655	-0.01953427
116	0xbbb40058	-0.005493205
117	0x3c161ff2	0.00916289
118	0x3bd179aa	0.0063926773
119	0xba834a17	-0.0010016587
120	0xbb08bb0c	-0.0020863442
121	0x3bfce627	0.007717866
122	0xbc823618	-0.015894935
123	0xbc8dca23	-0.0173083
124	0xbd000ca0	-0.03126204
125	0xbbb2a712	-0.0054520452
126	0x3c9d8211	0.01922706
127	0xbbe38225	-0.0069430047
128	0x3b034fd4	0.0020036595
129	0xbc35b66d	-0.011090857
130	0x3ca521f2	0.020157788
131	0xbbd3838d	-0.006454891
132	0x3d0939d2	0.033502407
133	0xbba15b48	-0.0049242117
134	0xbcaa181f	-0.020763455
135	0xbc01c253	-0.007919866
136	0xbbba30c0	-0.005682081
137	0xbc3184bb	-0.010834868
138	0xb89c9410	-7.4662385e-05
139	0x3ca45eaf	0.02006468
140	0xbc54ee85	-0.012996321
141	0xbb2d2b97	-0.0026423687
142	0xbcbc752a	-0.023005087
143	0x3b813039	0.003942516
144	0x396b781d	0.00022456092
145	0xbc237655	-0.009976943
146	0x3c584388	0.013199694
147	0x3c0df1e5	0.008663629
148	0xbc8c0757	-0.017093344
149	0xbcfb8dd2	-0.030707274
150	0xbce40eff	-0.027839182
151	0xbc1b28fa	-0.009470219
152	0xbb461b0c	-0.0030228524
153	0x3b6568aa	0.0035005012
154	0x3cf1fe38	0.029540166
155	0xbb8c704a	-0.004285847
156	0x3c62bfc7	0.013839669
157	0xbc6e0c18	-0.014529251
158	0x3c8d7eb3	0.017272329
159	0x3b58bde0	0.0033072159
160	0xbad19e83	-0.0015992675
161	0xbc3a38f7	-0.011366121
162	0x3c0a6940	0.008447945
163	0x3c6b8e0f	0.014377131
164	0xbbe9eb93	-0.0071386783
165	0x3cb7a007	0.022415174
166	0xbd1d7bdf	-0.03844821
167	0x3bf23feb	0.0073928735
168	0x3c831ba7	0.016004397
169	0xbc320ed2	-0.010867791
170	0x3c1b3bc6	0.0094747
171	0xbc6c92dd	-0.014439312
172	0x3c437416	0.0119295325
173	0xbd0d6a23	-0.034525048
174	0xbcf6d738	-0.030131921
175	0x3cfa887a	0.030582655
176	0xbd0eb441	-0.034839872
177	0xba44f350	-0.0007513063
178	0xbc300c67	-0.010745144
179	0xbcabcd64	-0.020971961
180	0x3b734532	0.00371201
181	0xbcf6795d	-0.030087167
182	0xbc9b9aeb	-0.01899477
183	0x3c49532b	0.012287895
184	0x3d09878a	0.033576526
185	0x3c962b35	0.01833115
186	0xbd23bf9d	-0.03997766
187	0x3c03752b	0.0080235405
188	0xbc07408e	-0.008255137
189	0x3b175d57	0.0023096406
190	0xbb360a4d	-0.0027777136
191	0x3cc2e556	0.023790997
192	0x3c8d953c	0.017283075
193	0xbc902f63	-0.01760072
194	0x3cefa89a	0.0292552
195	0xbcf1183d	-0.029430503
196	0x3c96a592	0.018389497
197	0xbbf42bb0	-0.007451497
198	0xbc915972	-0.017742846
199	0x3bf0d0a0	0.007349089
200	0xbbd5bb2b	-0.0065225563
201	0x3c5bfce2	0.013426991
202	0xbd334ed3	-0.043776345
203	0xbc15d177	-0.009144179
204	0x3c72175b	0.014776076
205	0xbd0662ab	-0.03280894
206	0xbcaf1657	-0.021372957
207	0xbc0eca03	-0.008715156
208	0x3c9cd35b	0.01914375
209	0xbc3e201d	-0.011604336
210	0x3cc8e381	0.024522545
211	0x3b38970f	0.002816621
212	0x3c384f98	0.011249445
213	0x3cc437b2	0.023952339
214	0x3be7f817	0.007079135
215	0x3b93f9f9	0.004515883
216	0x3b84dfc8	0.004054997
217	0x3c49256e	0.01227699
218	0xbc247f93	-0.010040182
219	0x3bcac018	0.00618745
220	0xbcb7f5ef	-0.022456137
221	0x3b81a56d	0.003956488
222	0xbc0f3638	-0.008740954
223	0xbb98613c	-0.004650263
224	0xbcf65532	-0.030069921
225	0x3afbf4d2	0.0019222742
226	0x3c4c64c2	0.012475194
227	0x3c928556	0.017885845
228	0xbd087255	-0.03331216
229	0xbcdd6842	-0.027027253
230	0x3d0b0678	0.033941716
231	0xbc111ee4	-0.008857463
232	0xbba6b7f4	-0.005087847
233	0x3a338c11	0.00068491796
234	0xbc943ec2	-0.018096332
235	0xbc917001	-0.017753603
236	0xbc2c197e	-0.010504125
237	0xbc9187c1	-0.017764928
238	0xbd006236	-0.03134366
239	0x3d2697d3	0.040672135
240	0xb7002a0b	-7.639183e-06
241	0xbc5b3c07	-0.013381011
242	0xbc408169	-0.011749604
243	0x3c07d217	0.008289835
244	0x3a270805	0.00063717394
245	0xbba7b847	-0.005118403
246	0xbc1873cb	-0.009304951
247	0x3cbc79f8	0.023007378
248	0xbb9dd913	-0.004817137
249	0xbcadf75c	-0.021236114
250	0xbc9d6c4f	-0.019216685
251	0xba1444f2	-0.00056560256
252	0xbb2d604b	-0.00264551
253	0x3c916705	0.017749319
254	0x3bf81aeb	0.0075715682
255	0xbc199bc0	-0.009375513

action_model._discrete_distribution.branches.0.bias f4 [2]
0	0x00000000	0.0
1	0x00000000	0.0

action_model._discrete_distribution.branches.0.weight f4 [2, 128]
0	0xbb97a751	-0.0046281
1	0xbc8d9d77	-0.017287
2	0x3c3bcae5	0.011461948
3	0x3963270d	0.00021662955
4	0x3b15705f	0.0022802574
5	0x3b7dcd07	0.0038726942
6	0xbbab3627	-0.0052249613
7	0xbc32343f	-0.010876714
8	0x3c597cf7	0.013274423
9	0x3af2c392	0.0018521419
10	0xbc0003e0	-0.007813424
11	0x3b9eb453	0.0048432737
12	0xbafb379b	-0.0019166352
13	0xbaf1f21a	-0.0018458993
14	0xbad5e312	-0.0016318283
15	0xbbb9908b	-0.005662983
16	0xbb9443f4	-0.004524702
17	0x39abccbb	0.00032768198
18	0x3c7531bb	0.01496547
19	0xbb917993	-0.0044395416
20	0x3b25544b	0.0025227244
21	0x3b85b076	0.0040798737
22	0xbae91c75	-0.001778497
23	0x3c8ead1b	0.017416527
24	0x3c9ced50	0.019156128
25	0xbb857489	-0.00407273
26	0xbc4ba337	-0.01242905
27	0xbbe98983	-0.0071269884
28	0x3c056eb7	0.008144072
29	0xbc0af44f	-0.008481099
30	0x3b9da64f	0.0048110853
31	0x3bc9d743	0.0061596944
32	0x3afd1bd2	0.0019310659
33	0x3c01eba6	0.007929718
34	0x3b00f2be	0.0019675936
35	0x3c20a102	0.009804012
36	0xbba98a77	-0.005173977
37	0x3c1716f7	0.009221784
38	0x3ca8e2df	0.020615993
39	0x3aa2f600	0.0012432933
40	0x3bc56f0f	0.006025202
41	0xbb4a1bb8	-0.0030839276
42	0xbb6787d2	-0.0035328758
43	0xbc11a200	-0.0088887215
44	0xbc2c0cfa	-0.010501141
45	0xbc372849	-0.011179038
46	0x3c8e461b	0.017367413
47	0x3c79c84d	0.015245509
48	0xbb9ca0a8	-0.004779894
49	0xbb836aae	-0.00401052
50	0x3bac2cc1	0.0052543585
51	0xbc29a737	-0.0103548085
52	0xbc8faca3	-0.017538374
53	0x3c956bf7	0.018239958
54	0x3bc6582b	0.006052991
55	0xbc0117af	-0.007879182
56	0x3c2df49f	0.010617404
57	0xbc1b3151	-0.009472207
58	0xbbe0d557	-0.0068613696
59	0xbc2bdf12	-0.010490196
60	0x3ae305cb	0.0017320452
61	0x3cd70618	0.026248023
62	0xbb24c5c3	-0.002514229
63	0xbbad8b70	-0.0052961633
64	0xbb0fae91	-0.0021924118
65	0xbc612a2d	-0.013742966
66	0x3bc1a540	0.005909592
67	0x3b081f84	0.0020770738
68	0x3c23e009	0.010002145
69	0x3b9a376e	0.0047063148
70	0x3c04e76e	0.008111818
71	0x39f8a140	0.00047422387
72	0x3c09dacd	0.008413983
73	0x39bb1f63	0.00035690804
74	0xbb11fd2d	-0.0022276149
75	0x3cbe9eab	0.023269018
76	0x3bd305ea	0.006439914
77	0xb9ad2db2	-0.00033031177
78	0xbb3e5e84	-0.0029048035
79	0x3b283873	0.0025668412
80	0x3bfd3200	0.0077269077
81	0x39926068	0.00027919118
82	0xbc9a5c17	-0.01884274
83	0xbc318931	-0.010835932
84	0x3c07a6a2	0.008279474
85	0xbc583a97	-0.013197563
86	0x3c4ed7ad	0.012624663
87	0x3c584def	0.013202175
88	0x3ba13576	0.004919703
89	0xbae8073d	-0.0017702352
90	0xbb8b8c75	-0.004258687
91	0x3c0372c3	0.008022967
92	0xba15cd32	-0.00057144754
93	0x3c053b04	0.008131746
94	0xbb836b13	-0.004010567
95	0x3cb396fe	0.021922585
96	0xbbedbb0d	-0.007254964
97	0x3c800413	0.015626943
98	0xbc009bc6	-0.007849639
99	0x3b75407a	0.0037422464
100	0x3bf47835	0.007460619
101	0xba32d1c7	-0.00068214204
102	0x3b6194d7	0.003442099
103	0xbb4759df	-0.0030418558
104	0xbc8891ba	-0.01667105
105	0xbc471684	-0.012151364
106	0xbacb583b	-0.0015513966
107	0xbc471328	-0.012150563
108	0xbbe60b6a	-0.0070204036
109	0x3bf6b09f	0.007528379
110	0xbaf8b667	-0.0018975259
111	0x3c6fe023	0.014640841
112	0xbb15ad6a	-0.0022838959
113	0x3b9bade4	0.004750954
114	0x3bcb932d	0.006212613
115	0x3baf965e	0.0053585013
116	0xba5db8af	-0.0008458001
117	0xbc20dbaa	-0.009817997
118	0x3bac4905	0.005257728
119	0xbb89aaf7	-0.004201289
120	0x3cc0ebe5	0.023549983
121	0x3c3b8e4b	0.0114474995
122	0xbbbcc8e2	-0.005761252
123	0xbc4c4104	-0.012466673
124	0xbc3b7b1e	-0.011442928
125	0xbc0b891f	-0.008516579
126	0xbae65813	-0.0017573856
127	0x3b45a0cd	0.003015566
128	0xbaed331f	-0.00180969
129	0x3ae44b3a	0.0017417439
130	0x3c77c65f	0.015122979
131	0x3bd54c60	0.0065093488
132	0xbc11e5f2	-0.008904921
133	0x3b97e77b	0.004635749
134	0xbc7cb9dd	-0.015425173
135	0x3c791cb2	0.015204595
136	0x3bb9642f	0.005657695
137	0xbc16430e	-0.0091712605
138	0x3b67dbea	0.0035378882
139	0x3bb69b26	0.0055726944
140	0xbbe475cf	-0.0069720517
141	0x3bae4815	0.0053186514
142	0x3bd52bc0	0.0065054595
143	0xbbffbeea	-0.007804741
144	0x3b93a5f1	0.0045058657
145	0xba44291a	-0.0007482931
146	0x3a01029a	0.0004921347
147	0x3afb8a13	0.001919093
148	0xbc00dc66	-0.007865047
149	0x3c038ad9	0.008028709
150	0x3c1e55bb	0.009663994
151	0x3b98a95c	0.004658861
152	0xbc1ef253	-0.009701329
153	0x3c888b16	0.016667884
154	0x3b9a68d9	0.004712206
155	0x3bad40a7	0.005287248
156	0x3637bc09	2.7378576e-06
157	0xbc87e2e3	-0.01658768
158	0xbb4949a4	-0.003071406
159	0xbae3bee2	-0.0017375613
160	0x3be76732	0.0070618624
161	0x3b4c56ba	0.0031179623
162	0xbbfbc978	-0.007683929
163	0xbc2ab549	-0.010419198
164	0xbca475ed	-0.020075763
165	0xbc5552cd	-0.0130202295
166	0xbbca2940	-0.006169468
167	0xbc34d536	-0.011037162
168	0x3cc80293	0.02441529
169	0x3c170634	0.0092177875
170	0xbae4e80a	-0.0017464173
171	0x3c64ba02	0.013960363
172	0xbb904b68	-0.0044035204
173	0xbb81a56b	-0.003956487
174	0x3aaf5230	0.0013375934
175	0x3c4a3c6d	0.012343508
176	0x3c29eb55	0.010371049
177	0xbbf9a79d	-0.007618858
178	0x3c08e045	0.008354251
179	0xbc48ccfa	-0.0122559015
180	0xbafe45df	-0.0019399485
181	0xbc102342	-0.008797469
182	0x3c26b7f8	0.0101756975
183	0x3c5fd78a	0.013662228
184	0xbbd57f8b	-0.0065154484
185	0x3c0df5a9	0.008664527
186	0xbc3c4aeb	-0.011492471
187	0x3c8d9082	0.01728082
188	0x3bca4718	0.006173026
189	0xbb6dcbc2	-0.003628478
190	0x3b33fa2d	0.0027462349
191	0xbb042ff3	-0.0020170182
192	0x3a9bc912	0.0011885485
193	0xba6b8683	-0.00089845824
194	0xbb9113dc	-0.0044274163
195	0xba83223f	-0.0010004713
196	0x3c746698	0.014917038
197	0xbc090090	-0.0083619505
198	0x3b16762d	0.0022958622
199	0x3c2fed77	0.010737768
200	0xba1ec598	-0.00060566654
201	0x3c9f73a9	0.01946433
202	0xba4767db	-0.0007606723
203	0x3c940fad	0.018073881
204	0x3c7c132d	0.015385431
205	0x3b91ba68	0.00444727
206	0x3b244886	0.0025067641
207	0x3b96f67b	0.0046070195
208	0x3c62f028	0.013851203
209	0xbc24f425	-0.010067974
210	0x3b6164d5	0.0034392376
211	0xbbe964dd	-0.0071226195
212	0x3b89860f	0.0041968892
213	0xbbe1a660	-0.0068862885
214	0xbbdcf4da	-0.006743056
215	0x39e824cd	0.00044277907
216	0xbc18fc4c	-0.009337496
217	0xbb4b75f9	-0.003104566
218	0xbc8baedb	-0.017051151
219	0x3c207312	0.00979306
220	0x3c743e50	0.014907435
221	0x3b6aedf0	0.0035847388
222	0xbb9f7a32	-0.0048668617
223	0x3bcda65f	0.0062759365
224	0xbbe96c0b	-0.0071234754
225	0xbc1d8d37	-0.009616188
226	0x3bc8acbb	0.0061241067
227	0x388809a3	6.48678e-05
228	0x3cec7708	0.028865352
229	0xb8c0f1a5	-9.200283e-05
230	0xbc3229f9	-0.010874265
231	0xbbc1a25f	-0.0059092487
232	0xbb1634f2	-0.0022919741
233	0x3bd71522	0.0065637985
234	0xb98c27c4	-0.0002673251
235	0x3b0c41ff	0.0021401641
236	0xbb19fad1	-0.0023495445
237	0x3b47f50a	0.0030511045
238	0x3c91c6ef	0.017795054
239	0xbb921323	-0.0044578477
240	0xbc1d0e23	-0.00958589
241	0x3c4dc61d	0.012559441
242	0x3bbca3dd	0.0057568387
243	0xbc3a41da	-0.011368239
244	0x3c9740ac	0.018463455
245	0x3b08b7ef	0.0020861586
246	0xbb98f42a	-0.0046677785
247	0xbc231f38	-0.009956174
248	0x3bd00c68	0.006349135
249	0xbc845413	-0.016153371
250	0x3c3c7c0a	0.011504183
251	0xba4d113b	-0.0007822697
252	0x3c4bfe70	0.012450799
253	0x3b08330a	0.0020782375
254	0x3b256239	0.0025235547
255	0xbab624fe	-0.0013896523

network_body._body_endoder.seq_layers.0.bias f4 [128]
0	0x00000000	0.0
1	0x00000000	0.0
2	0x00000000	0.0
3	0x00000000	0.0
4	0x00000000	0.0
5	0x00000000	0.0
6	0x00000000	0.0
7	0x00000000	0.0
8	0x00000000	0.0
9	0x00000000	0.0
10	0x00000000	0.0
11	0x00000000	0.0
12	0x00000000	0.0
13	0x00000000	0.0
14	0x00000000	0.0
15	0x00000000	0.0
16	0x00000000	0.0
17	0x00000000	0.0
18	0x00000000	0.0
19	0x00000000	0.0
20	0x00000000	0.0
21	0x00000000	0.0
22	0x00000000	0.0
23	0x00000000	0.0
24	0x00000000	0.0
25	0x00000000	0.0
26	0x00000000	0.0
27	0x00000000	0.0
28	0x00000000	0.0
29	0x00000000	0.0
30	0x00000000	0.0
31	0x00000000	0.0
32	0x00000000	0.0
33	0x00000000	0.0
34	0x00000000	0.0
35	0x00000000	0.0
36	0x00000000	0.0
37	0x00000000	0.0
38	0x00000000	0.0
39	0x00000000	0.0
40	0x00000000	0.0
41	0x00000000	0.0
42	0x00000000	0.0
43	0x00000000	0.0
44	0x00000000	0.0
45	0x00000000	0.0
46	0x00000000	0.0
47	0x00000000	0.0
48	0x00000000	0.0
49	0x00000000	0.0
50	0x00000000	0.0
51	0x00000000	0.0
52	0x00000000	0.0
53	0x00000000	0.0
54	0x00000000	0.0
55	0x00000000	0.0
56	0x00000000	0.0
57	0x00000000	0.0
58	0x00000000	0.0
59	0x00000000	0.0
60	0x00000000	0.0
61	0x00000000	0.0
62	0x00000000	0.0
63	0x00000000	0.0
64	0x00000000	0.0
65	0x00000000	0.0
66	0x00000000	0.0
67	0x00000000	0.0
68	0x00000000	0.0
69	0x00000000	0.0
70	0x00000000	0.0
71	0x00000000	0.0
72	0x00000000	0.0
73	0x00000000	0.0
74	0x00000000	0.0
75	0x00000000	0.0
76	0x00000000	0.0
77	0x00000000	0.0
78	0x00000000	0.0
79	0x00000000	0.0
80	0x00000000	0.0
81	0x00000000	0.0
82	0x00000000	0.0
83	0x00000000	0.0
84	0x00000000	0.0
85	0x00000000	0.0
86	0x00000000	0.0
87	0x00000000	0.0
88	0x00000000	0.0
89	0x00000000	0.0
90	0x00000000	0.0
91	0x00000000	0.0
92	0x00000000	0.0
93	0x00000000	0.0
94	0x00000000	0.0
95	0x00000000	0.0
96	0x00000000	0.0
97	0x00000000	0.0
98	0x00000000	0.0
99	0x00000000	0.0
100	0x00000000	0.0
101	0x00000000	0.0
102	0x00000000	0.0
103	0x00000000	0.0
104	0x00000000	0.0
105	0x00000000	0.0
106	0x00000000	0.0
107	0x00000000	0.0
108	0x00000000	0.0
109	0x00000000	0.0
110	0x00000000	0.0
111	0x00000000	0.0
112	0x00000000	0.0
113	0x00000000	0.0
114	0x00000000	0.0
115	0x00000000	0.0
116	0x00000000	0.0
117	0x00000000	0.0
118	0x00000000	0.0
119	0x00000000	0.0
120	0x00000000	0.0
121	0x00000000	0.0
122	0x00000000	0.0
123	0x00000000	0.0
124	0x00000000	0.0
125	0x00000000	0.0
126	0x00000000	0.0
127	0x00000000	0.0

network_body._body_endoder.seq_layers.0.weight f4 [128, 6]
0	0x3eba7124	0.36414444
1	0x3f3c7d48	0.73628664
2	0x3f92043b	1.1407541
3	0x3f67f51f	0.906084
4	0xbed96656	-0.4246089
5	0xbdbd1a33	-0.09233513
6	0x3dc48b1e	0.09596847
7	0x3e000dce	0.12505266
8	0xbec54def	-0.3853602
9	0x3e1d89aa	0.15384546
10	0x3e4c8103	0.19971089
11	0xbe48cefe	-0.19610211
12	0x3eb0dd5f	0.34543893
13	0x3e133a89	0.14377798
14	0x3ecd1e4a	0.4006217
15	0x3d40abcb	0.047038835
16	0xbe21a9bf	-0.15787409
17	0x3d41615a	0.047211982
18	0x3ecbdc1b	0.39816365
19	0x3e370de2	0.1787639
20	0xbf178b54	-0.5919697
21	0xbf069b9f	-0.5258121
22	0x3d4e7770	0.050406873
23	0x3cf9f61f	0.030512867
24	0xbec5d566	-0.38639373
25	0x3ecd12d0	0.40053415
26	0xbf2e285d	-0.6803034
27	0x3f2dd3b2	0.67901146
28	0xbd7a0dbc	-0.061048254
29	0x3ec4e7c4	0.38458073
30	0x3b73ad4c	0.003718215
31	0x3ed04bde	0.40682882
32	0xbda022df	-0.07819151
33	0xbd9d5c1a	-0.076835826
34	0xbea58280	-0.32326126
35	0xbdf0d94a	-0.117601946
36	0x3e9f8fee	0.31164497
37	0x3e5332c1	0.2062483
38	0xbdbca5ff	-0.09211349
39	0x3e7f93f4	0.24958783
40	0x3c85de44	0.016341336
41	0x3defda37	0.11711543
42	0xbf082f59	-0.53197247
43	0x3f28742f	0.6580228
44	0xbdbbfc61	-0.09178997
45	0x3f14a291	0.58060557
46	0x3d73cc17	0.059520807
47	0xbd7c9799	-0.061668012
48	0x3f35290a	0.70765746
49	0xbe0f1211	-0.13971736
50	0x3e4b98b3	0.19882469
51	0xbd830257	-0.06396931
52	0x3c59b681	0.013288141
53	0xbe29528d	-0.16535397
54	0xbf0e0891	-0.5548182
55	0x3e69f301	0.22846605
56	0xbc94d0c8	-0.01816596
57	0x3e0ca1bf	0.13733576
58	0x3e685a5f	0.22690724
59	0xbeada110	-0.33911943
60	0x3f460d59	0.77364117
61	0xbdf5c5b1	-0.12000597
62	0x3ea82bd6	0.32845944
63	0xbd9d606e	-0.07684408
64	0xbf91df17	-1.1396207
65	0xbe9fb4ad	-0.31192532
66	0xbf0a3496	-0.5398649
67	0x3e278480	0.16359138
68	0x3f0c4249	0.54788643
69	0x3d9a636e	0.07538496
70	0xbf5cc9ff	-0.8624572
71	0x3cc5f7a3	0.024165934
72	0xbf1c4431	-0.6104155
73	0x3cf9464b	0.030429026
74	0xbe5388be	-0.20657632
75	0x3ed6c5d9	0.4194782
76	0xbf045f0f	-0.5170755
77	0xbf45e6a7	-0.7730507
78	0x3edf4d95	0.43613878
79	0x3cf8eee6	0.030387353
80	0xbe4794d6	-0.1949037
81	0x3bf30b9e	0.0074171564
82	0xbf43b74a	-0.7645155
83	0xbf000857	-0.50012726
84	0x3e94e755	0.29082742
85	0xbef65998	-0.4811523
86	0x3e52dd78	0.20592296
87	0x3e325dd0	0.17418599
88	0xbe8707a2	-0.2637301
89	0xbf0681cb	-0.525418
90	0xbf14d178	-0.58132124
91	0xbf02f36f	-0.511527
92	0x3f0e4640	0.55575943
93	0x3e6af4aa	0.22944894
94	0xbdf33b90	-0.11876595
95	0x3f40d6d9	0.7532783
96	0x3f1926dd	0.59824926
97	0x3ee9a24a	0.4563163
98	0xbc2a93df	-0.010411232
99	0xbeab8b46	-0.33504695
100	0x3e3a4589	0.18190588
101	0x3e40f171	0.18842103
102	0xbe644a83	-0.22294049
103	0xbe0a70d8	-0.13519609
104	0xbe7bba7c	-0.24582857
105	0xbe4782b9	-0.1948346
106	0xbeda40d0	-0.42627573
107	0x3f2f906b	0.6857974
108	0xbf321058	-0.6955619
109	0x3d967e48	0.07348305
110	0x3fa84f35	1.3149172
111	0xbe60eba4	-0.2196489
112	0xbe24dfbb	-0.16100971
113	0xbeb7a906	-0.35871142
114	0xbe656a3e	-0.2240381
115	0xbd970f91	-0.07376016
116	0x3f06aec3	0.52610415
117	0xbf15f832	-0.5858184
118	0x3e8caedd	0.2747716
119	0xbc33354d	-0.010938001
120	0xbd5e497f	-0.05426931
121	0xbed2e50d	-0.41190377
122	0x3df9e4d2	0.12201847
123	0xbf0959df	-0.5365276
124	0x3f01b532	0.5066711
125	0x3ec7827e	0.38966745
126	0x3e987fcb	0.29784998
127	0xbd806d16	-0.062708065
128	0x3e53b870	0.20675826
129	0x3eaa9730	0.33318472
130	0xbe203dea	-0.15648618
131	0xbf5fa703	-0.87364215
132	0xbf68e963	-0.9098112
133	0xbf250e67	-0.644751
134	0x3ee5e4b3	0.44901046
135	0x3ec40268	0.38283086
136	0x3ee3ad42	0.44468123
137	0xbe843310	-0.25820208
138	0xbedc8bc4	-0.43075383
139	0xbefaa941	-0.48957255
140	0x3eb55ad8	0.3542087
141	0x3f0815eb	0.53158444
142	0x3f2f6f28	0.68528986
143	0x3da8bedc	0.082395285
144	0x3e1e6778	0.15469158
145	0x3ed785ca	0.4209426
146	0x3d93d83b	0.07218977
147	0xbd7b0c04	-0.061290756
148	0x3e63fa37	0.22263418
149	0xbe852dff	-0.26011655
150	0xbd6b6f65	-0.05747928
151	0xbe5ae193	-0.21375112
152	0xbf13904e	-0.57642066
153	0xbef97b4f	-0.4872689
154	0x3e2b1a39	0.16709222
155	0x3f6ad944	0.9173777
156	0x3edd8056	0.43261975
157	0xbf4fffe0	-0.8124981
158	0xbf1a06c2	-0.6016656
159	0xbf1ef087	-0.62085766
160	0x3e89be3d	0.26902953
161	0x3ea470b5	0.3211724
162	0xbf1eb966	-0.62001646
163	0x3e41fdb7	0.18944441
164	0x3ece3d66	0.40281218
165	0xbe94c58b	-0.29056963
166	0x3eda54b0	0.42642736
167	0x3e967ba8	0.29391217
168	0x3d757cb4	0.05993338
169	0xbebdf443	-0.3710042
170	0x3e9b9f14	0.30394804
171	0x3d50d00e	0.050979666
172	0xbea2d2bf	-0.31801412
173	0x3edf84cf	0.43656012
174	0xbf1909e6	-0.5978073
175	0xbd97311b	-0.07382413
176	0x3de1022f	0.109867446
177	0x3dabd1cb	0.08389624
178	0x3c825445	0.015909323
179	0xbeeb4d58	-0.45957446
180	0x3df4b7c7	0.11949115
181	0x3e8bee7b	0.27330384
182	0x3e2303a6	0.1591936
183	0xbdfd5203	-0.12369158
184	0x3efd1daa	0.49436694
185	0xbf053d9c	-0.52047133
186	0x3f884c0e	1.064821
187	0x3d617843	0.05504633
188	0x3f01c323	0.5068838
189	0x3eb4b5ae	0.3529486
190	0xbcd2c24b	-0.025727412
191	0xbd420a35	-0.047373015
192	0xbf159e0b	-0.5844428
193	0xbc287dcf	-0.010283901
194	0xbee4f406	-0.44717425
195	0x3eeb03f9	0.45901468
196	0x3ed0ebed	0.40804997
197	0xbcbc69a3	-0.02299959
198	0xbe48ce7f	-0.19610022
199	0x3e9a198f	0.30097625
200	0x3e950215	0.2910315
201	0x3f8359a5	1.0261732
202	0x3ed4122e	0.4142012
203	0x3d3df2b4	0.046374038
204	0xbbbc99d1	-0.005755641
205	0xbcec5412	-0.028848682
206	0x3ea65791	0.32488683
207	0x3df3af8e	0.11898719
208	0x3ec86eeb	0.39147124
209	0xbe9ec430	-0.31009054
210	0xbeafb8fe	-0.34320825
211	0x3e2f1f34	0.17101747
212	0x3e990631	0.29887536
213	0xbf0675a0	-0.5252323
214	0x3ea7d47d	0.32779303
215	0xbe253522	-0.1613355
216	0x3e6a9c7c	0.22911257
217	0xbeea7fba	-0.45800573
218	0x3ee0ce03	0.43907174
219	0xbdec209d	-0.11529658
220	0x3efa0582	0.48832327
221	0x3e4d786a	0.20065466
222	0xbec65e4b	-0.38743815
223	0xbe00455a	-0.12526456
224	0xbda374d4	-0.079812676
225	0x3ef1df50	0.47240686
226	0xbd896113	-0.067079686
227	0xbe84cc34	-0.25937045
228	0xbe9918b7	-0.29901668
229	0x3f046f7e	0.51732624
230	0x3e7be9bc	0.24600881
231	0x3f002ab6	0.5006517
232	0x3efa2612	0.4885717
233	0xbced9e74	-0.02900622
234	0x3ee9d4ad	0.4567007
235	0x3ef8700e	0.4852299
236	0x3ee5f758	0.4491527
237	0xbf027bda	-0.5097023
238	0x3f386543	0.72029513
239	0xbea3727b	-0.3192328
240	0x3e1617b9	0.14657487
241	0x3eb99180	0.3624382
242	0x3e1739c4	0.1476813
243	0x3f36a69d	0.7134798
244	0x3f25ec2f	0.6481351
245	0xbeca4c70	-0.39511442
246	0xbe1dfa86	-0.15427598
247	0xbe01d8bd	-0.12680335
248	0x3b9253ab	0.0044655404
249	0x3dfcd138	0.12344593
250	0xbdec1551	-0.11527503
251	0xbf5d5788	-0.8646169
252	0x3f48112e	0.78151214
253	0x3f710793	0.9415218
254	0x3ebf7839	0.3739641
255	0xbee462c7	-0.4460661

network_body._body_endoder.seq_layers.2.bias f4 [128]
0	0x00000000	0.0
1	0x00000000	0.0
2	0x00000000	0.0
3	0x00000000	0.0
4	0x00000000	0.0
5	0x00000000	0.0
6	0x00000000	0.0
7	0x00000000	0.0
8	0x00000000	0.0
9	0x00000000	0.0
10	0x00000000	0.0
11	0x00000000	0.0
12	0x00000000	0.0
13	0x00000000	0.0
14	0x00000000	0.0
15	0x00000000	0.0
16	0x00000000	0.0
17	0x00000000	0.0
18	0x00000000	0.0
19	0x00000000	0.0
20	0x00000000	0.0
21	0x00000000	0.0
22	0x00000000	0.0
23	0x00000000	0.0
24	0x00000000	0.0
25	0x00000000	0.0
26	0x00000000	0.0
27	0x00000000	0.0
28	0x00000000	0.0
29	0x00000000	0.0
30	0x00000000	0.0
31	0x00000000	0.0
32	0x00000000	0.0
33	0x00000000	0.0
34	0x00000000	0.0
35	0x00000000	0.0
36	0x00000000	0.0
37	0x00000000	0.0
38	0x00000000	0.0
39	0x00000000	0.0
40	0x00000000	0.0
41	0x00000000	0.0
42	0x00000000	0.0
43	0x00000000	0.0
44	0x00000000	0.0
45	0x00000000	0.0
46	0x00000000	0.0
47	0x00000000	0.0
48	0x00000000	0.0
49	0x00000000	0.0
50	0x00000000	0.0
51	0x00000000	0.0
52	0x00000000	0.0
53	0x00000000	0.0
54	0x00000000	0.0
55	0x00000000	0.0
56	0x00000000	0.0
57	0x00000000	0.0
58	0x00000000	0.0
59	0x00000000	0.0
60	0x00000000	0.0
61	0x00000000	0.0
62	0x00000000	0.0
63	0x00000000	0.0
64	0x00000000	0.0
65	0x00000000	0.0
66	0x00000000	0.0
67	0x00000000	0.0
68	0x00000000	0.0
69	0x00000000	0.0
70	0x00000000	0.0
71	0x00000000	0.0
72	0x00000000	0.0
73	0x00000000	0.0
74	0x00000000	0.0
75	0x00000000	0.0
76	0x00000000	0.0
77	0x00000000	0.0
78	0x00000000	0.0
79	0x00000000	0.0
80	0x00000000	0.0
81	0x00000000	0.0
82	0x00000000	0.0
83	0x00000000	0.0
84	0x00000000	0.0
85	0x00000000	0.0
86	0x00000000	0.0
87	0x00000000	0.0
88	0x00000000	0.0
89	0x00000000	0.0
90	0x00000000	0.0
91	0x00000000	0.0
92	0x00000000	0.0
93	0x00000000	0.0
94	0x00000000	0.0
95	0x00000000	0.0
96	0x00000000	0.0
97	0x00000000	0.0
98	0x00000000	0.0
99	0x00000000	0.0
100	0x00000000	0.0
101	0x00000000	0.0
102	0x00000000	0.0
103	0x00000000	0.0
104	0x00000000	0.0
105	0x00000000	0.0
106	0x00000000	0.0
107	0x00000000	0.0
108	0x00000000	0.0
109	0x00000000	0.0
110	0x00000000	0.0
111	0x00000000	0.0
112	0x00000000	0.0
113	0x00000000	0.0
114	0x00000000	0.0
115	0x00000000	0.0
116	0x00000000	0.0
117	0x00000000	0.0
118	0x00000000	0.0
119	0x00000000	0.0
120	0x00000000	0.0
121	0x00000000	0.0
122	0x00000000	0.0
123	0x00000000	0.0
124	0x00000000	0.0
125	0x00000000	0.0
126	0x00000000	0.0
127	0x00000000	0.0

network_body._body_endoder.seq_layers.2.weight f4 [128, 128]
0	0xbe493637	-0.19649588
1	0x3d1d2552	0.03836567
2	0x3dc05f05	0.093931235
3	0xbd367175	-0.044541795
4	0xbd6ad3a7	-0.057330754
5	0x3c2d55a4	0.0105795
6	0xbdcb035f	-0.09912752
7	0x3e340c5e	0.17582843
8	0x3d561eca	0.052275456
9	0xbdb774a8	-0.08957797
10	0xbd456c57	-0.048199024
11	0x3c85b341	0.016320826
12	0x3d4c97db	0.04994951
13	0xbd5807bd	-0.052741755
14	0x3d805484	0.0626612
15	0xbd95202c	-0.07281527
16	0x3d2739a4	0.040826455
17	0xbdad6861	-0.08467174
18	0xbc3edd82	-0.011649491
19	0x3dcb36bf	0.09922551
20	0x3ca2ffe2	0.019897405
21	0x3ca5effa	0.020256031
22	0xbd536df8	-0.051618546
23	0x3d462903	0.048378956
24	0xbdafa3d6	-0.08576171
25	0x3e0f83f0	0.14015174
26	0x3d18f11b	0.03733931
27	0xbd864121	-0.06555391
28	0x3c44aa6b	0.012003521
29	0x3a96d240	0.0011506751
30	0xbd808c50	-0.062767625
31	0x3d1ce472	0.0383038
32	0xbe7752be	-0.24152657
33	0x3d1ac0a1	0.03778136
34	0x3e0e2e88	0.13884938
35	0xbdc55562	-0.09635426
36	0xbe1ec894	-0.15506202
37	0x3daaf823	0.083481096
38	0xbd33002c	-0.043701336
39	0x3dcd122e	0.10013233
40	0x3e33e483	0.17567639
41	0x3b1cea30	0.0023943298
42	0xbde95b2b	-0.11394342
43	0xb88a9002	-6.607176e-05
44	0xbdb9420e	-0.09045802
45	0x3d1163e8	0.03549567
46	0xbb4fae96	-0.0031689755
47	0xbd190022	-0.037353642
48	0xbd80bdfa	-0.06286235
49	0x3ddc1a3d	0.10747192
50	0xbdadf9cc	-0.084949106
51	0x3cbe16ef	0.023204295
52	0x3db700dd	0.089357115
53	0x3c86eb7e	0.016469713
54	0x3df10ba8	0.117698014
55	0xbcd5e85a	-0.02611177
56	0x3d3638db	0.044487815
57	0x3c508034	0.0127258785
58	0xbd70288f	-0.05863243
59	0xbc35d08f	-0.0110970875
60	0x3d451fb9	0.048125956
61	0x3c6472f2	0.013943421
62	0xbdd7f6d0	-0.105451226
63	0x3dff52a8	0.12466937
64	0x3da38263	0.07983854
65	0x3cbd3fa3	0.023101633
66	0x3d1a387f	0.037651535
67	0xbb4ca1f6	-0.0031224466
68	0xbc69d605	-0.014272218
69	0xbd5a2a56	-0.05326303
70	0xbc6175e8	-0.013761021
71	0x3dcf00c6	0.101075694
72	0xbdc8d575	-0.09806339
73	0x3d35ce5d	0.044386256
74	0xbc7a51b3	-0.015278268
75	0xbdbff4a6	-0.09372835
76	0x3e751cd2	0.23936775
77	0x3e42640b	0.18983476
78	0x3c8784e7	0.016542865
79	0x3d32f856	0.043693863
80	0xbdb6614e	-0.08905278
81	0xbddb769e	-0.10715984
82	0x3c193fad	0.00935356
83	0xbd296608	-0.04135707
84	0x3da0c58a	0.078501776
85	0x3dcf948c	0.10135755
86	0xbe05baa2	-0.13059476
87	0xbb49436e	-0.0030710357
88	0x3c100d00	0.008792162
89	0xbd13051a	-0.035893537
90	0xbc0a84af	-0.008454486
91	0x3e4f34fd	0.20235057
92	0xbd119bb0	-0.035548866
93	0xbc6ec799	-0.014573955
94	0x3c4129ba	0.011789734
95	0xbd0de91f	-0.03464615
96	0xbd4c1083	-0.049820434
97	0x3da9c76b	0.08289989
98	0xbdbbbe75	-0.09167186
99	0xbe0bcc70	-0.13652205
100	0xbdcee585	-0.10102371
101	0x3d1e2dce	0.0386179
102	0x3da4ad69	0.08040888
103	0xbe2b8249	-0.16748919
104	0x3e4c9e74	0.1998232
105	0xbe5ec4f1	-0.21754815
106	0xbc3c790d	-0.01150347
107	0xbbf08e6a	-0.007341196
108	0x3d0489ba	0.03235791
109	0x3dd9ced7	0.10635155
110	0xbd205287	-0.039141204
111	0x3e0349f3	0.12821178
112	0x3dfce2c3	0.12347939
113	0x3cee2cce	0.029074099
114	0x3ce40493	0.027834212
115	0x3dcaf807	0.09910589
116	0x3dd008dd	0.101579405
117	0xbcee22a0	-0.029069245
118	0xbe499707	-0.19686519
119	0xbdfdf3de	-0.124000296
120	0x3dad1ad2	0.08452381
121	0xbe02c6bb	-0.12771122
122	0x3e04ca94	0.12967902
123	0x3cbce242	0.023057107
124	0xbc82c1ee	-0.015961614
125	0x3e19e7f3	0.15029888
126	0x3db053f9	0.086097665
127	0x3d13c8d4	0.036080196
128	0x3d37b11d	0.044846643
129	0x3d820b3c	0.06349799
130	0x3d305082	0.04304553
131	0x3dcc2e84	0.0996981
132	0xbce64e6e	-0.02811357
133	0xba8108d9	-0.0009844556
134	0x3d33e4f9	0.043919537
135	0xbdb2206f	-0.086975925
136	0x3bf36095	0.007427285
137	0xbc5b2434	-0.013375331
138	0x3dfd51dc	0.12369129
139	0xbe609054	-0.21930057
140	0xbe28c0aa	-0.16479746
141	0x3d7b4e15	0.06135376
142	0x3cebbae5	0.028775642
143	0x3d81fa70	0.06346595
144	0x3d11e763	0.03562106
145	0x3d49f3bf	0.04930472
146	0xbe108c5e	-0.14116046
147	0xbcfb8824	-0.030704565
148	0xbcc1a3d3	-0.023637688
149	0x3dcff6f5	0.10154525
150	0xbcae8e01	-0.021307947
151	0x3dee9cae	0.11650978
152	0x3c8bf5f8	0.01708506
153	0x3d8cfb5c	0.068838805
154	0xbd82c510	-0.06385243
155	0x3da55cee	0.080743656
156	0x3dc3d445	0.095619716
157	0x3d19d518	0.037556738
158	0x3d8642bf	0.065556996
159	0x3e082958	0.13297021
160	0x3d1ecc26	0.03876891
161	0x3bd7b87e	0.0065832725
162	0xbd4445e7	-0.047918227
163	0xbd192c06	-0.0373955
164	0x3cd27139	0.025688754
165	0xbdb9b00f	-0.09066784
166	0xbca52f60	-0.020164192
167	0xbe1474bc	-0.14497656
168	0xbdcf8497	-0.101327114
169	0xbcec81c8	-0.028870478
170	0x3cc27b09	0.023740308
171	0xbda301b6	-0.07959311
172	0xbce9f8f4	-0.028561093
173	0xbe426bd3	-0.18986444
174	0xbd616e49	-0.055036817
175	0x3d82f1fe	0.063938126
176	0xbd10f4f7	-0.035389867
177	0x3d93a7b4	0.07209721
178	0xbc945ae1	-0.01810974
179	0xbdac70ca	-0.0841995
180	0xbdb8d212	-0.09024443
181	0xbd460a72	-0.048349805
182	0x3d67683c	0.05649589
183	0x3d678cd5	0.056530792
184	0xbd9b4725	-0.07581929
185	0xbb8cf8d1	-0.004302122
186	0xbd81fff5	-0.06347648
187	0x3e0bc53e	0.1364946
188	0x3e0aa6c7	0.13540183
189	0xbcecf686	-0.028926145
190	0x3cfef5d9	0.031123089
191	0x3b82f2e4	0.00399624
192	0x3d08d50c	0.033406302
193	0x3d235e8a	0.03988508
194	0xbd05f3a5	-0.03270306
195	0x3d189c6a	0.037258543
196	0xbe513bd7	-0.20432983
197	0x3dc50c70	0.09621513
198	0x3cdaa19f	0.026688395
199	0xbcb538b5	-0.022121767
200	0xbc19a923	-0.009378704
201	0x3d2b22f0	0.041781366
202	0xbc1dc21c	-0.009628799
203	0xbdac38c0	-0.08409262
204	0xbd46df1e	-0.048552625
205	0xbdfdb4ca	-0.123879984
206	0x3dc0ae59	0.09408254
207	0xbd298c51	-0.04139358
208	0xbd6c6c6b	-0.057720583
209	0x3db17ddb	0.08666583
210	0x3e57b511	0.21065165
211	0x3dbe40b0	0.09289682
212	0x3e27aaf4	0.16373807
213	0xbd679f76	-0.05654856
214	0x3dda8818	0.10670489
215	0x3bb9f447	0.005674872
216	0x3d81fc0f	0.063469045
217	0x3d09c2f5	0.03363319
218	0x3b1efda5	0.002426007
219	0x3c931876	0.017956
220	0xbc5ba617	-0.013406298
221	0xbcc71b7d	-0.0243051
222	0xbdd61dc3	-0.10454895
223	0xbb4235a6	-0.0029634028
224	0x3d3ec21f	0.046571847
225	0x3cdf365c	0.0272476
226	0xbd8043ef	-0.06262957
227	0xbe00745a	-0.12544385
228	0xbd6c29fd	-0.05765723
229	0x3b99eea5	0.004697638
230	0xbbc8c2d3	-0.0061267405
231	0xbdfe194b	-0.12407168
232	0xba897464	-0.0010486958
233	0x3d350133	0.044190597
234	0xbda72da7	-0.08163004
235	0x3d8d610e	0.06903277
236	0x3d353a94	0.044245318
237	0xbddfccfc	-0.109277695
238	0x3d47c196	0.048768602
239	0xbdcf9c6f	-0.10137259
240	0xbd9c3b3a	-0.07628484
241	0xbde74704	-0.11292842
242	0x3cd0697a	0.02544092
243	0xbda161cc	-0.078799814
244	0x3dbce418	0.09223193
245	0xbcf6e24b	-0.030137202
246	0xbce41735	-0.027843097
247	0xbdd98314	-0.10620704
248	0x3dcf4cea	0.10122092
249	0x3a4ea247	0.00078824576
250	0xbd8df13c	-0.069307774
251	0xbbb14465	-0.0054097646
252	0x3c450767	0.012025691
253	0xbe344337	-0.17603765
254	0x3dfcde14	0.123470455
255	0x3d17c74a	0.03705529
