results/Shooter/Shooter/Shooter-499971.pt (torch, 446031 bytes, 42 tensors)

network_body._body_endoder.seq_layers.0.weight f4 [128, 6]
-0.51817214 0.44778255 -0.11723712 0.64343506 -0.17670858 0.082057364 -0.7247384 0.06471181
0.69984096 -0.67613196 0.39643535 -0.045575585 -0.5901322 -0.36589682 0.3191757 -0.38316151
-0.07542002 0.19888985 -0.11233136 0.30813766 0.20009127 0.29177642 0.32416812 -0.58170325
0.15099998 -0.026250254 -0.5616354 0.006139693 0.4337078 0.24019477 -0.10374084 0.6406914
-0.0371898 0.39277858 0.84364223 -0.2766089 0.18529883 -0.06782604 0.012169276 -0.18123277
-0.7759107 0.17277008 -0.5085962 -0.54007745 -0.365775 0.9868251 -0.3068384 -0.13804163
0.038232107 -0.3764264 0.0040429183 -0.42477548 0.08996955 0.24714795 0.1471669 -0.5061612
-0.5700499 -0.5190243 0.009562471 -0.28726852 0.09881016 -0.009258393 -0.5387233 0.9808693
-0.010066715 0.29503375 -0.55477303 0.20639993 -0.07431872 -0.55123645 0.584375 0.30807185
0.11770128 -0.5203118 0.5504579 0.21489587 0.20440073 -0.47767395 -0.1360275 0.7196519
1.2958642 -0.1522526 0.21742648 -0.41560155 -0.047022574 -0.13841622 0.4285941 0.10118539
-0.051082816 0.24182719 0.07818502 0.38411662 0.04830311 -0.69310933 0.059726074 -0.12965772
0.41211402 -0.20165615 0.2025957 -0.45735183 -1.0380776 -0.43183744 0.33508667 -0.10789781
-0.05082279 0.71360886 0.17521013 0.37488502 -0.29032883 0.013271706 0.04481138 0.089608386
-0.940063 0.04092731 -0.11968848 0.63020754 0.4298686 0.3166412 0.36626506 -0.5890296
-0.3370367 0.62150514 -0.34868833 0.2981832 -0.02381015 0.44254455 -0.07430067 0.1075734
-0.12488192 -0.48327503 -0.18990763 0.10563138 -0.6178238 -0.10672001 -0.024939701 -0.1704659
0.16933812 0.15116593 -0.09399004 0.20403878 -0.27726716 -0.16447654 0.54163444 -0.43201724
-0.40085825 -0.16761017 -0.4288896 -0.68193996 -0.28278112 0.503163 -0.78230524 0.4577493
0.185384 -0.7465101 0.4253276 0.32350013 -0.084095605 0.03592451 -0.36249134 -0.3908075
0.5385062 0.41430318 0.4743249 -0.29260123 -0.3249203 -0.27058423 -0.5863423 0.09514197
0.22278623 -0.2376082 0.016447484 -0.40933082 0.419547 -0.008033737 -0.20151286 0.2352073
-0.30802727 0.1518548 0.30174127 0.36776632 0.016815657 -0.3295266 -0.07221287 0.14388578
-0.007873313 -0.6821095 -0.32580045 -0.20499855 -0.27879918 0.79216075 -0.38606542 -0.19367048
-0.18695433 0.041474264 -0.6973283 1.1436181 0.33903742 -0.18995039 0.005256775 0.6667448
0.42092246 0.09507431 -0.7381903 -0.6143596 0.6251686 -0.014745734 -0.4049561 -0.16942637
-0.10470389 -0.13931869 -0.7924981 -0.3986798 0.17679 -0.7278362 -0.24386686 0.090226166
-0.8131166 0.33742273 -0.26068395 0.41111577 -0.60054284 0.14159366 0.3799227 0.44961056
-0.6144098 0.10463604 1.0480692 -0.28585818 -0.50145143 -0.43778828 0.038386613 0.75592554
-0.62526876 -0.7097372 0.5586964 0.56133014 0.28424352 0.63921386 -0.07412712 -0.62686914
-0.407575 0.3610313 0.5415384 -0.49418208 0.9470706 0.16204871 0.22378767 -0.42920825
-0.51210576 -0.41749674 -0.10326393 0.7297532 0.13863246 0.13863519 -0.4335131 -0.26210347
00000000: eea6 04bf c143 e53e 041a f0bd 29b8 243f
00000010: 18f3 34be b10d a83d 7588 39bf a087 843d
00000020: c728 333f fc16 2dbf 93f9 ca3e 77ad 3abd
00000030: e712 17bf d456 bbbe ff6a a33e bf2d c4be
00000040: d075 9abd c8a9 4b3e fc0d e6bd 38c4 9d3e
00000050: bae4 4c3e b863 953e 5df9 a53e 81ea 14bf
00000060: bd9f 1a3e c60a d7bc 56c7 0fbf 7a2f c93b
00000070: f30e de3e 9ef5 753e 1476 d4bd 5a04 243f
00000080: 5554 18bd 461a c93e f0f8 573f af9f 8dbe
00000090: fabe 3d3e 61e8 8abd a561 473c 1595 39be
000000a0: 15a2 46bf a4ea 303e 5c33 02bf 8442 0abf
000000b0: dc46 bbbe 92a0 7c3f ec19 9dbe c95a 0dbe
000000c0: 4599 1c3d f6ba c0be 757a 843b 2c7c d9be
000000d0: f541 b83d 5a14 7d3e ebb2 163e c893 01bf
000000e0: caee 11bf c7de 04bf e9ab 1c3c dc14 93be
000000f0: fb5c ca3d 84b0 17bc c5e9 09bf 401a 7b3f
00000100: ddee 24bc aa0e 973e 9b05 0ebf 815a 533e
00000110: 6a34 98bd d51d 0dbf 9a99 153f 98bb 9d3e
00000120: 5e0d f13d 2733 05bf cfea 0c3f aa0d 5c3e
00000130: 6d4e 513e ae91 f4be cb4a 0bbe 1b3b 383f
00000140: e1de a53f 1be8 1bbe 0ca5 5e3e bac9 d4be
00000150: be9a 40bd fbbc 0dbe b070 db3e 493a cf3d
00000160: 373c 51bd 8ca1 773e 781f a03d efaa c43e
00000170: 7bd9 453d 9d6f 31bf 54a3 743d fec4 04be
00000180: 9c00 d33e f37e 4ebe 3f75 4f3e 052a eabe
00000190: badf 84bf cc19 ddbe 7b90 ab3e 87f9 dcbd
000001a0: 8f2b 50bd 12af 363f 496a 333e eef0 bf3e
000001b0: fba5 94be 9271 593c 238c 373d 9a84 b73d
000001c0: f8a7 70bf 65a3 273d 3c1f f5bd 4855 213f
000001d0: bd17 dc3e cc1e a23e 1887 bb3e a5ca 16bf
000001e0: 1390 acbe f61a 1f3f 4787 b2be 78ab 983e
000001f0: 810d c3bc 3395 e23e f32a 98bd 714f dc3d
00000200: 18c2 ffbd d36f f7be 2577 42be 4455 d83d
00000210: b329 1ebf 0590 dabd 584e ccbc 9d8e 2ebe
00000220: f966 2d3e 3ecb 1a3e da7d c0bd 8bef 503e
00000230: f6f5 8dbe 8a6c 28be 8ea8 0a3f 5d31 ddbe
00000240: 4b3d cdbe 00a2 2bbe 6b97 dbbe 9e93 2ebf
00000250: b0c8 90be 4acf 003f 2845 48bf 1e5e ea3e
00000260: 4ed5 3d3e 491b 3fbf 8ac4 d93e cfa1 a53e
00000270: 513a acbd 9425 133d 7798 b9be ec17 c8be
00000280: 8bdb 093f 8c1f d43e b7da f23e d4cf 95be
00000290: f45b a6be 048a 8abe 871a 16bf cbd9 c23d
000002a0: 1322 643e 904f 73be e0bc 863c cf93 d1be
000002b0: ddce d63e ef9f 03bc 6359 4ebe 2fda 703e
000002c0: c0b5 9dbe d37f 1b3e d57d 9a3e de4b bc3e
000002d0: fdc0 893c b6b7 a8be 57e4 93bd cb56 133e
000002e0: 11ff 00bc ba9e 2ebf 51cf a6be 24eb 51be
000002f0: c4be 8ebe 0ccb 4a3f 5eaa c5be 8e51 46be
00000300: f570 3fbe ebe0 293d 1c84 32bf 1462 923f
00000310: 5096 ad3e 5b82 42be 0641 ac3b caaf 2a3f
00000320: 2683 d73e 52b6 c23d 0afa 3cbf ac46 1dbf
00000330: 0d0b 203f 1798 71bc 6856 cfbe 1b7e 2dbe
00000340: fe6e d6bd 8fa9 0ebe 28e1 4abf c21f ccbe
00000350: 7008 353e 7953 3abf 3cb8 79be 7fc8 b83d
00000360: 6928 50bf acc2 ac3e 5e78 85be c47d d23e
00000370: 2dbd 19bf eefd 103e 3a85 c23e 5b33 e63e
00000380: f649 1dbf 6c4b d63d 2227 863f 015c 92be
00000390: 1f5f 00bf c925 e0be 483b 1d3d 5684 413f
000003a0: 9d11 20bf 56b1 35bf ba06 0f3f 55b3 0f3f
000003b0: 5e88 913e 85a3 233f f6cf 97bd 7f7a 20bf
000003c0: acad d0be 18d9 b83e 43a2 0a3f 6f05 fdbe
000003d0: 3873 723f 19f0 253e 9828 653e 2fc1 dbbe
000003e0: 5d19 03bf 22c2 d5be 0a7c d3bd 1bd1 3a3f
000003f0: abf5 0d3e 62f6 0d3e 6ef5 ddbe 6d32 86be

network_body._body_endoder.seq_layers.0.bias f4 [128]
0.055830542 -0.15075484 -0.14345494 0.032685004 -0.01571068 -0.0054934635 -0.08374328 0.080476426
-0.089762144 -0.087837555 0.0061780587 -0.1905763 -0.023233118 -0.120536484 -0.05716957 -0.039981484
-0.06374491 -0.18040502 0.087842554 0.022178667 -0.11713702 -0.16358295 -0.008304892 0.038042985
-0.19406037 -0.14393775 -0.069641285 -0.068995565 -0.13834584 -0.04762525 0.022036621 0.07032454
-0.0049920925 -0.020314518 0.06994115 -0.09367216 0.10918689 0.13788787 -0.08337609 -0.037493892
-0.0631397 -0.19140632 0.06589647 0.06326062 -0.041285306 -0.02588296 -0.07653629 0.06508211
0.045460787 -0.039166316 -0.1293302 0.009183517 -0.12426252 0.07528961 0.00045939183 0.03234299
-0.03779105 0.04618317 -0.11487721 -0.11805953 -0.16604018 -0.075204045 -0.05022962 -0.016208012
-0.05658302 0.035574175 0.0500024 -0.080082275 -0.0924659 -0.17229146 0.0707831 -0.0076946774
0.02608306 -0.1847551 0.038563248 0.06016958 0.017694315 -0.20682473 -0.002986113 0.028478336
0.0021487277 -0.011391539 0.0959117 -0.08914485 -0.118102856 0.078401215 -0.08390812 0.024316695
-0.08284316 -0.018717326 -0.096064985 0.009184045 0.065785475 0.17390662 0.124260366 -0.0059342645
0.03076436 -0.0055069453 -0.06689196 -0.13246158 0.053437345 -0.08177589 0.129252 0.02027073
0.017063646 -0.008012689 -0.16935991 0.01626231 -0.09819084 -0.06247703 -0.07345383 -0.07268758
0.02862862 0.09686813 -0.04602956 -0.056105223 -0.015404894 -0.06490712 0.07099205 0.083079465
0.06356515 -0.17811489 0.10486897 0.04656287 -0.16341528 -0.080964014 -0.098345116 -0.14689259
00000000: 91ae 643d 7a5f 1abe dae5 12be b6e0 053d
00000010: afb3 80bc 8302 b4bb 9981 abbd d3d0 a43d
00000020: 37d5 b7bd 2de4 b3bd 5071 ca3b 6f26 43be
00000030: 6153 bebc d5db f6bd a42a 6abd a0c3 23bd
00000040: b18c 82bd 18bc 38be cce6 b33d 09b0 b53c
00000050: 89e5 efbd 4a82 27be 3e11 08bc f6d2 1b3d
00000060: c3b7 46be 6b64 13be 17a0 8ebd 8c4d 8dbd
00000070: 88aa 0dbe b212 43bd 2586 b43c 5006 903d
00000080: b594 a3bb a26a a6bc 4e3d 8f3d 30d7 bfbd
00000090: 609d df3d 7a32 0d3e 15c1 aabd 3293 19bd
000000a0: 634f 81bd 0500 44be baf4 863d c98e 813d
000000b0: c81a 29bd 8008 d4bc 0fbf 9cbd c549 853d
000000c0: 1735 3a3d dc6c 20bd 236f 04be 7676 163c
000000d0: 597d febd 7031 9a3d 87da f039 157a 043d
000000e0: caca 1abd 902a 3d3d be44 ebbd 32c9 f1bd
000000f0: 7006 2abe 9404 9abd 93bd 4dbd aac6 84bc
00000100: 99c3 67bd 3ab6 113d 51cf 4c3d 2d02 a4bd
00000110: c35e bdbd 2c6d 30be bbf6 903d a223 fcbb
00000120: 24ac d53c 7130 3dbe 7ff4 1d3d 6174 763d
00000130: abf3 903c ddc9 53be aab2 43bb 664b e93c
00000140: abd1 0c3b 94a3 3abc 5a6d c43d 9391 b6bd
00000150: e9df f1bd d190 a03d 05d8 abbd ce33 c73c
00000160: ada9 a9bd 1455 99bc b8bd c4bd ad78 163c
00000170: 89ba 863d 9414 323e 387c fe3d 3874 c2bb
00000180: 8a05 fc3c 9b73 b4bb a7fe 88bd 02a4 07be
00000190: 1ee1 5a3d 1e7a a7bd a35a 043e cd0e a63c
000001a0: 0fc9 8b3c a747 03bc af6c 2dbe 8938 853c
000001b0: 4718 c9bd eae7 7fbd f66e 96bd 3add 94bd
000001c0: 9186 ea3c cc62 c63d 7e89 3cbd 97ce 65bd
000001d0: cf64 7cbc 06ee 84bd 4864 913d 9125 aa3d
000001e0: 722e 823d c063 36be 8bc5 d63d b5b8 3e3d
000001f0: 5656 27be 76d0 a5bd 2a69 c9bd 036b 16be

network_body._body_endoder.seq_layers.2.weight f4 [128, 128]
-0.07750532 0.040424205 0.05714816 -0.061272316 0.05538047 0.010533598 0.049641773 -0.03720556
0.0069473987 -0.021649754 -0.010060056 -0.06392386 -0.26190382 0.13784029 0.16921063 0.0769835
-0.082728885 -0.124265544 0.119145356 -0.06881619 -0.023026869 0.00930274 0.057707407 0.11535342
0.047408197 -0.10540223 0.010968854 -0.079547 -0.08001417 -0.11035046 0.024326127 -0.14421102
-0.016940687 0.02176961 -0.03775993 0.1087723 -0.08165968 0.015397989 -0.06602989 0.0041554146
0.04952396 0.16221929 0.06046897 -0.03683054 0.09838642 -0.046971582 -0.07398342 -0.069900975
-0.1041728 0.07927562 0.059895374 -0.0115401875 -0.019304337 0.08778181 0.13398641 -0.05375423
0.061552238 -0.05823341 0.055809394 -0.044717263 0.036084056 -0.048501946 -0.02212095 -0.23853134
-0.07750356 -0.08246563 -0.113086306 -0.09979073 0.16814536 -0.06722569 0.015935639 -0.0141343
-0.058646597 0.09851126 -0.019707195 0.10954996 -0.13762507 -0.037854124 0.10794915 0.0455864
0.2548119 0.07504034 -0.13799287 -0.059170343 0.11927543 -0.08031745 -0.027177326 -0.025729204
-0.16629502 0.01565908 -0.14443472 0.036480837 -0.03597877 -0.029078133 -0.12406067 0.03750717
-0.10888064 -0.039619826 0.07313607 0.089458466 -0.051407307 0.011743464 -0.037415046 0.039937846
-0.05642428 0.2024835 -0.043085154 0.08705178 -0.25372443 -0.109894335 -0.1776019 -0.009070938
-0.07883443 -0.07770317 0.09939907 -0.15768015 -0.13013023 -0.16502188 -0.33256087 -0.19335103
-0.08700205 0.13077301 -0.008553132 -0.056549538 -0.07822062 -0.01835135 -0.05398997 -0.0006197013
-0.07858687 -0.14736198 0.12752923 -0.076027624 -0.033886645 0.110925555 0.014765907 0.13970545
0.06288992 -0.0072752787 0.012650205 -0.15369189 0.11655714 -0.041483983 -0.06096756 -0.04370146
-0.0028147853 0.038828667 -0.12557173 -0.09669608 -0.055084307 -0.054785084 0.07435173 0.015734177
-0.2345901 -0.09850044 -0.08373314 0.0414791 0.053051338 0.014119799 -0.0061066286 -0.11732277
0.1106616 0.10442846 0.09395994 -0.034365572 -0.022669211 -0.07818679 -0.066272855 -0.015039901
0.012857808 -0.07405873 -0.13033871 -0.037895408 -0.04331848 0.05996117 -0.002288629 0.026551118
-0.06480231 0.07620504 -0.025823163 0.03780342 0.10407972 -0.035089593 -0.022333324 -0.09292738
-0.025392633 -0.0769232 0.06187912 0.08816307 -0.08933975 0.007227469 0.020515606 -0.00783142
-0.11718619 0.1736172 0.045782614 -0.021381272 -0.1733743 -0.07591504 0.06859965 -0.049848612
-0.08806274 -0.11047808 0.017940326 -0.056531157 -0.050460774 0.087022096 -0.17022187 0.13113679
-0.03869523 -0.23057757 0.1758568 0.15196738 -0.022275914 -0.10679642 0.056044232 0.10088684
-0.122476056 -0.04696339 -0.027750451 0.17579325 0.012646331 -0.10411615 -0.1215244 0.067020655
0.12401573 0.0856885 0.0009879245 0.14159548 -0.121796295 0.02202255 0.12866765 -0.010477581
-0.11904363 0.099675074 0.09360362 0.08329781 -0.1580235 -0.11290535 -0.12793343 -0.11741295
-0.057555165 -0.0068400092 0.08293416 -0.091055624 0.09480955 0.05067094 -0.05120236 -0.008506973
-0.07550177 0.037984535 -0.14688693 0.09342815 -0.030639077 0.08866977 -0.099964716 0.16288838
00000000: 1cbb 9ebd da93 253d 3014 6a3d aef8 7abd
00000010: a2d6 623d 1d95 2c3c 2c55 4b3d db64 18bd
00000020: 01a7 e33b d35a b1bc efd2 24bc 83ea 82bd
00000030: 4218 86be 0126 0d3e 8d45 2d3e 86a9 9d3d
00000040: c36d a9bd ef7e febd 7b02 f43d 81ef 8cbd
00000050: d8a2 bcbc 856a 183c 9a5e 6c3d 6a3e ec3d
00000060: 192f 423d 20dd d7bd b5b6 333c 8ae9 a2bd
00000070: 78de a3bd 6cff e1bd 9647 c73c 0eac 13be
00000080: 32c7 8abc 2e56 b23c 28aa 1abd 03c4 de3d
00000090: 313d a7bd d947 7c3c ae3a 87bd 252a 883b
000000a0: a3d9 4a3d d01c 263e 50ae 773d 9fdb 16bd
000000b0: d27e c93d 4665 40bd 9f84 97bd 3e28 8fbd
000000c0: 8d58 d5bd 425b a23d da54 753d 0e13 3dbc
000000d0: 2124 9ebc f3c6 b33d bc33 093e 652d 5cbd
000000e0: 331e 7c3d 2886 6ebd 6498 643d 7329 37bd
000000f0: e0cc 133d faa9 46bd ff36 b5bc 8f41 74be
00000100: 30ba 9ebd bde3 a8bd cb99 e7bd 155f ccbd
00000110: 4c2e 2c3e 9fad 89bd 758b 823c 8d93 67bc
00000120: 6a37 70bd 45c0 c93d fc70 a1bc bb5b e03d
00000130: 96ed 0cbe ed0c 1bbd 7214 dd3d ceb8 3a3d
00000140: b576 823e c0ae 993d 014e 0dbe 9a5c 72bd
00000150: ad46 f43d 7a7d a4bd fca2 debc 0dc6 d2bc
00000160: 3e49 2abe 7947 803c b2e6 13be ee6c 153d
00000170: 7a5e 13bd 4435 eebc 8513 febd 1ea1 193d
00000180: d0fc debd 6648 22bd 5dc8 953d 0036 b73d
00000190: 7890 52bd a867 403c 8540 19bd de95 233d
000001a0: 251d 67bd d657 4f3e 0f7a 30bd 3448 b23d
000001b0: 2be8 81be 4810 e1bd 46dd 35be 469e 14bc
000001c0: f273 a1bd d722 9fbd bd91 cb3d e876 21be
000001d0: dc40 05be 7ffb 28be 6b45 aabe d0fd 45be
000001e0: 212e b2bd 5ce9 053e 7022 0cbc 7da0 67bd
000001f0: 2232 a0bd 9255 96bc 9624 5dbd 7373 22ba
00000200: 27f2 a0bd 0fe6 16be 0697 023e 5fb4 9bbd
00000210: b9cc 0abd f02c e33d b4ec 713c f20e 0f3e
00000220: 6ecc 803d 7665 eebb ce42 4f3c 6861 1dbe
00000230: 83b5 ee3d 1ceb 29bd 1fb9 79bd 4d00 33bd
00000240: 4378 38bb cf0a 1f3d e095 00be 9808 c6bd
00000250: 15a0 61bd 5366 60bd b845 983d f6e4 803c
00000260: 6338 70be 99ba c9bd 487c abbd fde5 293d
00000270: 5c4c 593d bb56 673c 1d1a c8bb ec46 f0bd
00000280: 8da2 e23d 97de d53d 126e c03d eac2 0cbd
00000290: c8b4 b9bc 6520 a0bd 10ba 87bd eb69 76bc
000002a0: 8ea9 523c 1aac 97bd 8377 05be 3738 1bbd
000002b0: b86e 31bd d899 753d d3fc 15bb bb81 d93c
000002c0: 13b7 84bd 6311 9c3d 198b d3bc c2d7 1a3d
000002d0: c027 d53d 1bba 0fbd 60f4 b6bc b650 bebd
000002e0: 3604 d0bc e989 9dbd f674 7d3d d78e b43d
000002f0: c2f7 b6bd 67d4 ec3b 5810 a83c 5b4f 00bc
00000300: 50ff efbd b5c8 313e 8d86 3b3d c727 afbc
00000310: 0889 31be 5879 9bbd f97d 8c3d 0f2e 4cbd
00000320: 3d5a b4bd 5542 e2bd 97f7 923c 378d 67bd
00000330: f5af 4ebd a438 b23d a44e 2ebe b948 063e
00000340: e47e 1ebd 871c 6cbe ce13 343e 569d 1b3e
00000350: fa7b b6bc 15b8 dabd a38e 653d c29d ce3d
00000360: bad4 fabd af5c 40bd ea54 e3bc 2503 343e
00000370: 8f32 4f3c d93a d5bd c9e1 f8bd 2042 893d
00000380: f6fb fd3d 747d af3d 3f7d 813a 68fe 103e
00000390: 5670 f9bd a368 b43c 74c1 033e 29aa 2bbc
000003a0: 26cd f3bd 7222 cc3d 41b3 bf3d 0b98 aa3d
000003b0: ead0 21be ec3a e7bd fb00 03be 3376 f0bd
000003c0: f7be 6bbd 2822 e0bb 63d9 a93d 5f7b babd
000003d0: 822b c23d 558c 4f3d 91b9 51bd d560 0bbc
000003e0: aca0 9abd ac95 1b3d 8769 16be 4257 bf3d
000003f0: cdfe fabc 7f98 b53d 4dba ccbd 36cc 263e

network_body._body_endoder.seq_layers.2.bias f4 [128]
0.038568337 -0.020415809 0.02461648 -0.034059726 -0.013818209 -0.07895309 -0.02706689 -0.0360632
-0.09718154 -0.055033937 -0.06383294 0.006241351 0.05427377 -0.043075766 -0.00688735 -0.040237654
-0.09552335 -0.018850688 -0.025253834 -0.0052008494 -0.023196623 -0.082307845 -0.09163131 0.012437964
-0.025067346 -0.0328607 -0.083455935 -0.07949372 -0.01390024 -0.0400487 -0.0050961794 0.050780993
0.03014507 -0.08004252 -0.06845206 -0.071872614 -0.060476877 -0.056098267 0.033994824 -0.01215816
0.08375212 -0.018929318 -0.055958837 0.030418241 -0.0035326425 -0.06094593 -0.041871347 0.05881739
-0.07116968 0.040200252 0.03265892 -0.014016568 0.07339689 0.031004455 0.011376505 0.009227471
0.054751005 -0.04440499 -0.05545581 -0.015196291 -0.02701524 0.039772507 0.015095363 -0.033627138
-0.037760813 -0.07004666 -0.014787643 -0.052842256 -0.040363535 0.07775545 -0.045834877 0.036782127
-0.019346295 0.023611061 -0.050689578 -0.04013396 0.015847739 -0.014439358 0.070532486 0.0059587164
-0.0030716197 0.014498777 -0.06277793 -0.03065757 0.009307528 -0.10507193 -0.08980104 -0.0029032785
-0.06914809 0.021718705 0.0032952712 0.01006057 -0.024521776 -0.034973834 -0.004179832 -0.029085297
0.015076298 0.057152808 -0.0042038867 -0.022568386 -0.0053723254 -0.028228948 -0.05637427 0.05038014
0.023528533 -0.044158965 0.03747339 -0.023790214 -0.01715587 0.03914426 -0.06587122 -0.0819435
0.0128635885 0.013868574 -0.025117673 0.030271739 0.012285628 0.023572916 0.02099869 -0.008507238
0.016763518 -0.03822452 -0.08345885 0.026510322 -0.12201081 0.039257582 -0.07777952 -0.056931093
00000000: d5f9 1d3d 0e3f a7bc 80a8 c93c 3682 0bbd
00000010: c565 62bc 28b2 a1bd 62bb ddbc 02b7 13bd
00000020: 1e07 c7bd 446b 61bd d8ba 82bd 3f84 cc3b
00000030: 2c4e 5e3d 3770 30bd 48af e1bb 3dd0 24bd
00000040: bfa1 c3bd c26c 9abc 21e1 cebc e36b aabb
00000050: d806 bebc 0491 a8bd 32a9 bbbd 9ac8 4b3c
00000060: 095a cdbc f198 06bd f2ea aabd 9acd a2bd
00000070: d5bd 63bc 1b0a 24bd dafd a6bb bbff 4f3d
00000080: cbf2 f63c 55ed a3bd 9830 8cbd f331 93bd
00000090: 9ab6 77bd 4cc7 65bd 283e 0b3d 0533 47bc
000000a0: 3b86 ab3d a811 9bbc 1835 65bd ad2f f93c
000000b0: e883 67bb 71a2 79bd 4a81 2bbd 81ea 703d
000000c0: 69c1 91bd 05a9 243d 5cc5 053d bfa5 65bc
000000d0: 1c51 963d 0efd fd3c 8564 3a3c d22e 173c
000000e0: 9742 603d 02e2 35bd a225 63bd ddf9 78bc
000000f0: 114f ddbc 7fe8 223d 8b52 773c 9cbc 09bd
00000100: 15ab 1abd a074 8fbd df47 72bc 1f71 58bd
00000110: 3c54 25bd 403e 9f3d 5abd 3bbd dba8 163d
00000120: 1f7c 9ebc fc6b c13c e09f 4fbd 8263 24bd
00000130: 1ed3 813c 0f93 6cbc 5673 903d 5641 c33b
00000140: 3a4d 49bb 478c 6d3c b791 80bd 9625 fbbc
00000150: 9a7e 183c f42f d7bd 9ce9 b7bd ee44 3ebb
00000160: 849d 8dbd 6deb b13c 7af5 573b 17d5 243c
00000170: e4e1 c8bc b940 0fbd f9f6 88bb 4a44 eebc
00000180: 9402 773c 1019 6a3d c2c0 89bb 56e1 b8bc
00000190: 550a b0bb 6540 e7bc b5e8 66bd 685b 4e3d
000001a0: e9be c03c 08e0 34bd b37d 193d b2e3 c2bc
000001b0: 788a 8cbc bb55 203d 7de7 86bd fed1 a7bd
000001c0: cdc1 523c 0439 633c 94c3 cdbc 70fc f73c
000001d0: a949 493c fd1b c13c 7205 ac3c f161 0bbc
000001e0: a553 893c 5091 1cbd 79ec aabd 2d2c d93c
000001f0: cee0 f9bd 8fcc 203d de4a 9fbd 9430 69bd

action_model._continuous_distribution.log_sigma f4 [1, 3]
1.7999685 1.9806727 1.82138
00000000: 5e65 e63f af86 fd3f fb22 e93f

action_model._continuous_distribution.mu.weight f4 [3, 128]
0.038243312 0.068857804 0.06549897 0.09393048 -0.051072765 0.076898985 0.014919788 0.04960838
0.017774729 -0.000383048 0.0424188 0.011636116 0.104814604 -0.040298976 0.044742577 0.041262034
-0.030533135 0.025695622 0.09978099 -0.042897202 -0.001328881 -0.044171378 0.051174257 0.005165206
0.0038143417 0.034411408 -0.007015401 0.0076157185 0.15893027 0.05794986 0.014492343 0.002473663
0.012857441 -0.025969453 0.00092353707 0.0054767886 0.0059485943 0.06493035 -0.0036060316 0.07445173
-0.027158687 -0.04787084 0.024808219 -0.015253319 -0.08953804 -0.098573096 0.045326926 -0.009457177
-0.009188598 0.062422395 0.030619161 0.0024062288 0.02821017 -0.04484497 0.023888715 0.0040560835
-0.002335427 0.023135591 -0.036860593 -0.011350249 -0.0037713742 -0.037983745 0.06443834 0.00042333102
0.025951311 0.038637865 0.024103219 0.04578829 0.054986108 0.12957236 -0.11295982 0.03507542
-0.01216456 -0.026635269 0.013310066 0.024742387 0.062245164 0.01132127 -0.0008818905 0.06976051
0.053949233 -0.02812057 0.019479245 0.029861778 -0.03847986 0.02341618 -0.007050497 0.02953851
0.0070161796 -0.029910339 0.03396207 -0.0733135 -0.037384428 0.06610822 -0.052655913 0.0399848
-0.0010983706 0.11029699 0.021717757 0.045041833 0.042411674 -0.030291637 -0.026712703 0.0045547667
0.034470677 0.060902514 0.07378192 -0.016926568 0.0667885 -0.00014658325 0.02990059 0.0296127
-0.004066403 0.0044761216 0.037594713 -0.03649396 0.027038218 -0.094433874 0.09783378 0.009472896
-0.01999644 0.0819884 -0.020405022 -0.0642536 -0.00240866 0.051917896 0.033386685 0.036505986
0.022740219 -0.009152795 0.084906496 0.04727188 0.015535275 -0.0075006876 -0.06758031 0.073261
0.012649564 0.01440115 -0.037275605 0.03518957 0.15533176 0.06365736 -0.09525778 -0.008164248
0.041242145 -0.051289458 0.10940476 0.06900398 -0.018286519 -0.04990778 -0.028425213 -0.06818107
-0.14577502 -0.029941054 -0.004321805 -0.020593507 0.0018389107 -0.025464842 0.0027650662 -0.06923748
0.023683196 -0.007169004 0.024528792 -0.010445096 0.02553939 -0.021283569 -0.0678735 -0.05866939
0.10413783 -0.075409375 0.01612475 -0.029465357 0.04427631 -0.10341412 -0.041123856 -0.08399097
0.013499159 0.14490974 0.10098394 0.07258761 -0.10036762 0.049337015 -0.00917559 0.008523698
0.06517066 0.046564024 0.06030935 0.051093746 -0.036592916 0.07164474 0.014701886 0.034279857
-0.0021697152 -0.019589778 -0.04391235 0.020181894 0.002021073 -0.09760635 0.05159907 -0.07865607
-0.027097102 -0.06601607 -0.020357078 -0.034233365 0.011552331 -0.007853232 -0.071039565 0.0033542814
0.0030416925 -0.06218679 0.01662992 -0.054105002 0.044251554 0.033850282 0.08081717 0.07958006
-0.05380461 -0.019169044 -0.035320386 0.079700865 -0.097051285 -0.036641926 0.047930147 0.073954195
-0.044902332 -0.02023926 -0.017979588 -0.016498717 0.034477126 -0.019255387 -0.04020601 -0.09673298
-0.06778773 -0.016032629 -0.05438337 -0.055918943 0.04090346 0.0011623541 -0.019106442 0.00026443662
-0.043669455 -0.09063364 -0.033805333 -0.059569634 -0.050046682 0.042498212 0.04828352 -0.020896692
0.05327409 -0.031686805 0.028149096 -0.07910622 0.006338443 0.034240764 -0.004123177 0.008859374
00000000: 05a5 1c3d 5205 8d3d 5324 863d a05e c03d
00000010: ad31 51bd 377d 9d3d 2072 743c 2832 4b3d
00000020: 4f9c 913c d5d3 c8b9 56bf 2d3d 68a5 3e3c
00000030: 0aa9 d63d 8a10 25bd fe43 373d 6102 293d
00000040: a020 fabc a07f d23c fa59 cc3d fab4 2fbd
00000050: d92d aeba 0ced 34bd 199c 513d e340 a93b
00000060: 09fa 793b faf2 0c3d 73e1 e5bb 478d f93b
00000070: 9ebe 223e d55c 6d3d 4b71 6d3c 2e1d 223b
00000080: 04a8 523c e4bd d4bc 8619 723a a276 b33b
00000090: 6dec c23b 34fa 843d 2c53 6cbb 267a 983d
000000a0: e57b debc 3714 44bd 9b3a cb3c 0fe9 79bc
000000b0: b85f b7bd b1e0 c9bd baa8 393d 46f2 1abc
000000c0: c68b 16bc a0ae 7f3d 09d5 fa3c d2b1 1d3b
000000d0: 0419 e73c 5caf 37bd 44b2 c33c e5e8 843b
000000e0: f70d 19bb da86 bd3c 22fb 16bd 65f6 39bc
000000f0: 2929 77bb d894 1bbd 40f8 833d 87f2 dd39
00000100: d897 d43c bd42 1e3d 1d74 c53c 818c 3b3d
00000110: 1d39 613d 9eae 043e 7a57 e7bd 3eab 0f3d
00000120: dd4d 47bc 3532 dabc 7712 5a3c 8cb0 ca3c
00000130: c9f4 7e3d d97c 393c ab2e 67ba 99de 8e3d
00000140: dff9 5c3d 1c5d e6bc f092 9f3c b0a0 f43c
00000150: 0f9d 1dbd 4ad3 bf3c db07 e7bb bffa f13c
00000160: fbe7 e53b 8706 f5bc d01b 0b3d 6325 96bd
00000170: 6a20 19bd bf63 873d baad 57bd 1ac7 233d
00000180: 34f7 8fba 63e3 e13d 70e9 b13c c97d 383d
00000190: ddb7 2d3d 2b26 f8bc 99d4 dabc 2740 953b
000001a0: 2031 0d3d ea74 793d fa1a 973d 96a9 8abc
000001b0: 69c8 883d 24b4 19b9 15f2 f43c 5596 f23c
000001c0: 763f 85bb 6eac 923b eafc 193d b17a 15bd
000001d0: 417f dd3c 8c66 c1bd 145d c83d 3534 1b3c
000001e0: 93cf a3bc 89e9 a73d 6f28 a7bc 6497 83bd
000001f0: 9cda 1dbb dca7 543d 7ac0 083d 4d87 153d
00000200: b249 ba3c 9bf5 15bc 75e3 ad3d 29a0 413d
00000210: ab87 7e3c 54c8 f5bb 8c67 8abd dd09 963d
00000220: 1e40 4f3c cdf2 6b3c 4eae 18bd f022 103d
00000230: 4a0f 1f3e ca5e 823d 8316 c3bd 57c3 05bc
00000240: 86ed 283d e514 52bd 9a0f e03d f551 8d3d
00000250: 9ccd 95bc 1a6c 4cbd fedb e8bc 84a2 8bbd
00000260: 0c46 15be f146 f5bc ee9d 8dbb b7b3 a8bc
00000270: 9b07 f13a a59b d0bc 1d36 353b 61cc 8dbd
00000280: 4303 c23c f7e9 eabb 9bf0 c83c e821 2bbc
00000290: fc37 d13c e15a aebc 4301 8bbd 504f 70bd
000002a0: 3746 d53d 3b70 9abd 0d18 843c 5561 f1bc
000002b0: 135b 353d c8ca d3bd 7d71 28bd 7503 acbd
000002c0: 942b 5d3c 3863 143e abd0 ce3d d0a8 943d
000002d0: 8a8d cdbd 9c15 4a3d 3755 16bc fba6 0b3c
000002e0: 3278 853d ebb9 3e3d f006 773d ad47 513d
000002f0: 74e2 15bd 7aba 923d 2ee0 703c 0969 0c3d
00000300: c831 0ebb be7a a0bc 70dd 33bd 8054 a53c
00000310: fa73 043b d7e5 c7bd 8c59 533d 6f16 a1bd
00000320: befa ddbc 6f33 87bd e3c3 a6bc 4938 0cbd
00000330: fd45 3d3c d8aa 00bc 317d 91bd 81d3 5b3b
00000340: 2257 473b 93b7 7ebd 783b 883c 359d 5dbd
00000350: 1e41 353d 98a6 0a3d 7983 a53d dffa a23d
00000360: 3962 5cbd 6608 9dbc 1cac 10bd 353a a33d
00000370: d3c2 c6bd d815 16bd 6752 443d 4c75 973d
00000380: 82eb 37bd cecc a5bc ee49 93bc 5128 87bc
00000390: e337 0d3d 79bd 9dbc 0faf 24bd f11b c6bd
000003a0: 4bd4 8abd dc56 83bc 19c1 5ebd 430b 65bd
000003b0: 638a 273d 225a 983a 1d85 9cbc 15a4 8a39
000003c0: bede 32bd 219e b9bd 7677 0abd 4aff 73bd
000003d0: c0fd 4cbd 9b12 2e3d f1c4 453d 8a2f abbc
000003e0: ef35 5a3d 06ca 01bd ef98 e63c 7102 a2bd
000003f0: b7b2 cf3b 0b40 0c3d b71b 87bb e826 113c

action_model._continuous_distribution.mu.bias f4 [3]
0.052006178 -0.07617928 -0.026468994
00000000: 6e04 553d e203 9cbd 81d5 d8bc

action_model._discrete_distribution.branches.0.weight f4 [2, 128]
0.04351857 0.05009513 -0.033763714 0.12919761 -0.04337991 0.0029614645 -0.014661402 -0.05641815
-0.016859265 -0.0069284486 0.07812584 -0.017325863 0.00025707885 0.009069819 -0.038445905 -0.027313702
0.012112209 -0.029271917 -0.071679875 0.04682785 0.016288986 -0.040327776 -0.021438412 0.0883042
0.0074743927 0.03768658 0.07926285 0.028653365 -0.020695116 -0.029772947 -0.014887056 0.12741654
-0.005168643 -0.015718598 -0.039371833 -0.0391505 -0.027042061 0.052277453 0.13844791 -0.06808907
0.015180271 0.14731427 0.009635971 0.045489546 -0.019630559 -0.10625278 -0.026792224 0.13719195
-0.023429181 0.0016157592 -0.056444883 -0.0015451816 -0.03184776 -0.059126906 0.053101912 0.059693433
-0.026811574 -0.020945897 -0.04618185 -0.04946754 0.08641429 -0.01535469 0.017257499 -0.037331387
0.042618345 0.0021827305 0.0035431825 0.0018305795 -0.0012682922 0.14944926 -0.016973836 0.030409627
0.093041405 0.0915989 -0.055346474 -0.04053077 -0.08048372 0.08778855 0.09131628 0.04049519
0.018508984 0.12790272 0.055431753 -0.041212987 -0.03032813 0.0026360764 -0.02125908 0.121123835
0.016974345 0.015622315 0.01931718 0.015623522 -0.027517313 0.022118146 -0.007819253 -0.020382913
0.120683566 0.06155628 -0.014778239 0.040944424 0.038337722 0.04551684 -0.065009676 0.1599574
-0.05077172 -0.01943604 -0.04840706 0.06418929 -0.09700694 0.045276895 -0.038539756 -0.011580645
0.14666201 -0.060380306 -0.03204813 0.08289553 0.18897222 0.029938627 0.0027814978 0.17918493
0.029058782 0.0008664266 -0.039297756 -0.05201052 -0.054083604 -0.018354045 -0.030652773 -0.03454949
-0.052572098 -0.05232222 0.02046549 -0.10895175 0.03556485 0.023481125 -0.008281016 0.056196183
0.040076844 -0.0020276627 -0.08791344 0.013761358 0.0060396064 -0.020585824 0.03367801 0.01818592
-0.011093255 0.017081728 0.07204528 -0.03585028 -0.0053637745 0.053908005 0.04805436 -0.069086894
-0.008585338 -0.021561 -0.07428185 -0.03401657 0.03004634 0.03278525 0.0292673 -0.13244578
-0.008051963 0.02211291 0.027183639 0.043666705 0.034733664 -0.06687754 -0.13252157 0.07061454
-0.010351307 -0.1420597 0.0065308097 -0.040947407 0.020484282 0.1253486 0.039335955 -0.14633134
0.023291564 0.024190877 0.06221324 -0.0048643476 0.039292905 0.064303346 -0.04633532 -0.060433146
0.022093192 0.0152636105 0.042254817 0.047272637 -0.0963963 0.00880121 -0.017581828 0.05140063
-0.038611665 0.00228339 -0.009414304 -0.0064954557 -0.0039619873 -0.16098796 0.023527283 -0.007330956
-0.08526254 -0.093608566 0.04624742 0.03810417 0.07972433 -0.096602574 -0.10044505 -0.04106143
-0.023238672 -0.123510644 -0.058544397 0.03225742 0.03953056 -0.0030059475 0.025946666 -0.112230256
-0.022176301 0.013189408 -0.034784127 -0.0316165 0.030144513 -0.02815653 -0.00142352 0.044355318
-0.12279901 -0.07944975 0.0030273676 -0.030604614 -0.049472645 -0.033908725 0.070661485 -0.13607849
0.039827 0.0073057604 0.04279979 -0.07466046 0.09532207 -0.046395388 0.03785518 0.01211051
-0.13711871 0.056681577 0.06316607 -0.079617314 -0.17810728 -0.033504974 -0.015070083 -0.18237238
-0.026949937 -0.0038548606 0.04156857 0.06011591 0.033699155 0.019969622 0.013210942 0.043660823
00000000: 8740 323d 8d30 4d3d d24b 0abd 614c 043e
00000010: 22af 31bd 2115 423b 6136 70bc b816 67bd
00000020: 711c 8abc 0a08 e3bb 7100 a03d f8ee 8dbc
00000030: 8ac8 8639 9499 143c 7479 1dbd fcc0 dfbc
00000040: 4972 463c a9cb efbc e6cc 92bd 8fce 3f3d
00000050: 7b70 853c bd2e 25bd 9c9f afbc d5d8 b43d
00000060: c0eb f43b 3e5d 1a3d 9054 a23d 76ba ea3c
00000070: ce88 a9bc 65e6 f3bc d7e8 73bc 7b79 023e
00000080: b85d a9bb 4ac4 80bc 5c44 21bd 465c 20bd
00000090: 5087 ddbc e220 563d 4ac5 0d3e 4872 8bbd
000000a0: acb6 783c 8dd9 163e 31e0 1d3c 3f53 3a3d
000000b0: 44d0 a0bc 0f9b d9bd 5e7b dbbc 0c7c 0c3e
000000c0: 8eee bfbc e2c7 d33a c032 67bd b187 caba
000000d0: cc72 02bd 0e2f 72bd 6481 593d 1a81 743d
000000e0: f2a3 dbbc bb96 abbc 2e29 3dbd 7a9e 4abd
000000f0: faf9 b03d 3d92 7bbc 995f 8d3c cce8 18bd
00000100: 9390 2e3d 240c 0f3b bd34 683b 0ef0 ef3a
00000110: d33c a6ba 3a09 193e b70c 8bbc 9c1d f93c
00000120: 7e8c be3d 3498 bb3d fcb2 62bd 9803 26bd
00000130: a6d4 a4bd 7cca b33d 0804 bb3d 49de 253d
00000140: 27a0 973c eef8 023e 680c 633d f3ce 28bd
00000150: b372 f8bc 06c2 2c3b 8627 aebc c60f f83d
00000160: c80d 8b3c bdf4 7f3c 103f 9e3c cdf9 7f3c
00000170: fd6b e1bc 1d31 b53c 531c 00bc 11fa a6bc
00000180: f228 f73d 7022 7c3d 6d20 72bc 57b5 273d
00000190: 0408 1d3d de6f 3a3d cb23 85bd dfcb 233e
000001a0: 02f6 4fbd 5538 9fbc 7b46 46bd ad75 833d
000001b0: 93ab c6bd 4474 393d dddb 1dbd bfbc 3dbc
000001c0: 912e 163e 5751 77bd e644 03bd 22c5 a93d
000001d0: ef81 413e da41 f53c ca49 363b 417c 373e
000001e0: af0c ee3c e820 633a aff6 20bd fc08 55bd
000001f0: c586 5dbd 395b 96bc 861b fbbc c483 0dbd
00000200: d755 57bd d34f 56bd 3ea7 a73c 1822 dfbd
00000210: 73ac 113d 7d5b c03c 19ad 07bc f82d 663d
00000220: 9e27 243d 89e2 04bb f60b b4bd 5277 613c
00000230: e4e7 c53b 9aa3 a8bc f4f1 093d a3fa 943c
00000240: 7cc0 35bc fbee 8b3c 7a8c 933d bed7 12bd
00000250: 9ac2 afbb a4ce 5c3d a6d4 443d 6e7d 8dbd
00000260: 84a9 0cbc b2a0 b0bc 1521 98bd f554 0bbd
00000270: be23 f63c d449 063d fac1 ef3c de9f 07be
00000280: 61ec 03bc 2226 b53c 39b0 de3c dcdb 323d
00000290: e344 0e3d 17f7 88bd bcb3 07be 5b9e 903d
000002a0: 8798 29bc 1978 11be 6700 d63b 78b8 27bd
000002b0: a7ce a73c 625b 003e bd1e 213d e2d7 15be
000002c0: f3cd be3c f22b c63c 4fd3 7e3d 1b65 9fbb
000002d0: 99f1 203d 79b1 833d 1bca 3dbd bf88 77bd
000002e0: c8fc b43c 3914 7a3c 6313 2d3d f4a0 413d
000002f0: 6c6b c5bd f332 103c c407 90bc 7889 523d
00000300: 4427 1ebd eda4 153b 743e 1abc d5d7 d4bb
00000310: 8fd3 81bb 07da 24be 4abc c03c 8438 f0bb
00000320: 209e aebd d9b5 bfbd ef6d 3d3d 1e13 1c3d
00000330: 8246 a33d 92d7 c5bd 22b6 cdbd 0830 28bd
00000340: 075f bebc 26f3 fcbd 40cc 6fbd 5b20 043d
00000350: ccea 213d 6eff 44bb 1a8e d43c fad8 e5bd
00000360: 13ab b5bc 6318 583c cd79 0ebd 4e80 01bd
00000370: a0f1 f63c 86a8 e6bc 6895 baba ecad 353d
00000380: 0c7e fbbd 8db6 a2bd cd66 463b 87b6 fabc
00000390: d4a3 4abd e0e3 0abd f8b6 903d 2958 0bbe
000003a0: a321 233d 2965 ef3b d54e 2f3d 95e7 98bd
000003b0: 3838 c33d 1709 3ebd 090e 1b3d 296b 463c
000003c0: d968 0cbe f12a 683d 365d 813d 670e a3bd
000003d0: c161 36be 833c 09bd 82e8 76bc d3bf 3abe
000003e0: 1dc6 dcbc d4a1 7cbb ce43 2a3d 1a3c 763d
000003f0: 2008 0a3d 5597 a33c b572 583c b1d5 323d

action_model._discrete_distribution.branches.0.bias f4 [2]
0.14137514 -0.14150526
00000000: a5c4 103e c1e6 10be

exp_avg f4 [128, 6]
-0.0026679088 2.279186e-05 -0.046531912 0.00053694117 -0.0017014502 -0.17136542 0.0011504112 0.0008835714
-0.004830925 0.00030733738 6.387605e-05 0.04305264 0.00033902994 8.287624e-05 -0.01916738 9.718877e-05
0.00011080768 0.01534212 0.001405187 0.0017694499 0.012314658 0.0005649076 -0.00010623074 0.004146975
-0.0027442682 -0.0020482964 -0.038141217 -0.00048303662 -5.0488252e-05 -0.14542454 -1.5030631e-05 -2.0020794e-05
-0.00014421114 -6.410292e-06 1.2663061e-06 -4.651901e-05 -0.000124326 -0.0004969126 -0.0073252455 -0.0001553174
0.00019175882 0.012664812 4.9313276e-10 -5.306913e-09 2.7309596e-08 2.9072833e-09 -1.5924391e-09 5.200521e-09
-0.00011340326 -0.0016045438 -0.012933769 -0.00067894836 0.00091120123 0.05249624 -1.0009506e-15 3.5657326e-14
-1.9719217e-13 -2.352937e-14 1.0162404e-14 -4.2129427e-14 -0.002398934 -0.0022477345 -0.03739932 -0.0006997964
0.00039840807 -0.11641581 0.0006762245 -0.0003656251 0.020225797 -0.00034998267 0.00081296405 0.047402672
0.0012240466 0.00076211424 0.039988764 3.670498e-05 0.00053815136 0.033070322 0.0006821336 0.00076901296
0.012142937 0.00027567547 -0.00013685875 0.02059194 0.0022369989 0.0021003226 0.014016763 0.0007372402
-0.00031754107 0.09958624 0.00072055694 0.00090348447 0.0061132163 0.00028995733 -5.659078e-05 0.002108361
2.2618556e-06 -1.4946976e-05 -0.00043198117 -4.994767e-06 3.0271453e-06 -3.0308018e-05 -0.0022704469 -0.0016409999
-0.022173125 -0.00041470636 -0.00023900458 -0.09561544 0.0011119106 0.0005581514 -0.0035323363 0.00018700963
0.00013972854 0.067362696 0.0007645797 0.001150381 -0.0009480109 0.0004312575 -0.00024162213 -0.002888941
-0.0015421312 -0.0004901496 -0.029721767 6.767542e-05 -0.0006075597 -0.091791965 -0.0013828276 -0.0010034349
-0.022201825 -0.00022225332 -8.2246544e-05 -0.07406198 -0.0009542905 -0.00046647916 -0.023846906 -5.4630884e-05
-0.00020615952 -0.052338783 -1.7756012e-12 1.3506504e-13 -2.549514e-11 -2.2158941e-12 7.678258e-13 -7.7561655e-12
-0.0015059336 -0.0013516037 -0.023212198 -0.00040261936 0.00016449261 -0.07638895 -0.000996058 -0.0011651657
-0.031044936 -0.00028498727 0.00027776838 -0.047308397 -0.0023430611 -0.0021481365 -0.04587845 -0.00064992893
0.00030558475 -0.11267103 -0.00047585866 -0.00024705322 -0.0060008513 -1.4008539e-05 -0.0001251583 -0.027729778
0.00013963667 -3.6743266e-05 0.0073612155 -6.894186e-05 0.00016018724 0.007087802 -0.00062292616 -0.0006127782
-0.010789876 -0.00018294885 0.00010628794 -0.028267166 7.0231776e-10 -4.8760724e-09 1.9505922e-08 2.1187683e-09
-1.8438786e-09 3.9704555e-09 7.976682e-10 -7.534245e-09 4.0271754e-08 4.201432e-09 -2.288872e-09 7.713887e-09
1.8143698e-15 5.189387e-14 -3.052296e-13 -3.9638648e-14 1.4083654e-14 -7.0619326e-14 0.001337937 0.0016869066
0.011576517 0.0005399711 -0.00010780292 0.0038938613 -1.6566845e-11 -1.7996328e-11 -1.3496548e-10 -7.7619e-12
1.958713e-12 -4.9779757e-11 0.0016721996 0.0008485288 0.014676613 0.00017743313 0.00041377085 0.083168
-0.004194597 -0.0033319455 -0.06876401 -0.00089262886 0.00012898009 -0.21716587 -2.87654e-15 -2.9962164e-15
-2.533495e-14 -1.6096396e-15 3.86469e-16 -9.238322e-15 -3.4808952e-08 1.09491616e-07 -2.9233064e-07 -3.067813e-08
2.9616837e-08 -8.418289e-08 0.0014556532 0.0018314912 0.012566052 0.00058696256 -0.000113850285 0.004272651
0.002154393 0.0019345823 -0.00081473927 0.0006716229 -9.929592e-05 0.078362636 3.8121725e-05 7.31436e-05
-0.0040984433 3.254454e-05 -5.7458717e-05 0.0020413995 -3.8387753e-14 4.4699372e-14 -8.3836773e-13 -8.398363e-14
00000000: 15d8 2ebb 2631 bf37 3f98 3ebd 83c1 0c3a
00000010: 3203 dfba 6b7a 2fbe 65c9 963a 799f 673a
00000020: bc4c 9ebb 2022 a139 31f5 8538 f757 303d
00000030: d4bf b139 d8cd ad38 e904 9dbc d3d1 cb38
00000040: 6c61 e838 845d 7b3c 402e b83a e3ec e73a
00000050: 6bc3 493c 4f16 143a 32c8 deb8 59e3 873b
00000060: 2ed9 33bb b63c 06bb f739 1cbd 1440 fdb9
00000070: 59c3 53b8 2cea 14be 122c 7cb7 54f2 a7b7
00000080: 6237 17b9 fd17 d7b6 f2f5 a935 681d 43b8
00000090: 825d 02b9 3d43 02ba 9d08 f0bb b2dc 22b9
000000a0: de12 4939 1280 4f3c 228d 0730 1a58 b6b1
000000b0: 7096 ea32 78c9 4731 f8dc dab0 44b0 b231
000000c0: e9d2 edb8 8e4f d2ba 29e8 53bc 74fb 31ba
000000d0: aedd 6e3a 4c06 573d 8f40 90a6 1996 2029
000000e0: c604 5eaa 09ef d3a8 d111 3728 ecbb 3da9
000000f0: 6f37 1dbb ba4e 13bb 0830 19bd 8b72 37ba
00000100: 6de1 d039 6a6b eebd a844 313a 5fb1 bfb9
00000110: 92b0 a53c e17d b7b9 181d 553a 4e29 423d
00000120: 3070 a03a 9fc8 473a 42cb 233d acf3 1938
00000130: ba12 0d3a bf74 073d 36d1 323a 9697 493a
00000140: 2bf3 463c 8988 9039 be81 0fb9 6eb0 a83c
00000150: 9d9a 123b 91a5 093b 91a6 653c 5a43 413a
00000160: a47b a6b9 dff3 cb3d c2e3 3c3a d1d7 6c3a
00000170: 6051 c83b 6a05 9839 e35b 6db8 6e2c 0a3b
00000180: 62ca 1736 c6c4 7ab7 887b e2b9 b998 a7b6
00000190: f625 4b36 f93d feb7 c7cb 14bb d216 d7ba
000001a0: 6aa4 b5bc f26c d9b9 4e9d 7ab9 07d2 c3bd
000001b0: 87bd 913a e850 123a c57e 67bb 0418 4439
000001c0: 1884 1239 74f5 893d 136e 483a 62c8 963a
000001d0: ef83 78ba 671a e239 f25b 7db9 6354 3dbb
000001e0: 5621 caba 627d 00ba 107b f3bc f7ec 8d38
000001f0: a444 1fba 6dfd bbbd ff3f b5ba b085 83ba
00000200: 9ae0 b5bc ac0c 69b9 c77b acb8 cfad 97bd
00000210: 5a29 7aba c691 f4b9 965a c3bc 7723 65b8
00000220: 862c 58b9 3161 56bd c6e4 f9ab d911 182a
00000230: f441 e0ad 00ee 1bac ae1f 582b aa72 08ad
00000240: bf62 c5ba 4b28 b1ba 8227 bebc a816 d3b9
00000250: a67b 2c39 cf71 9cbd 298e 82ba 79b8 98ba
00000260: f351 febc 586a 95b9 71a1 9139 73c6 41bd
00000270: 0b8e 19bb c0c7 0cbb 0beb 3bbd fe5f 2aba
00000280: e436 a039 12c0 e6bd ab7c f9b9 ec86 81b9
00000290: caa2 c4bb 3806 6bb7 ed3c 03b9 8f29 e3bc
000002a0: 6f6b 1239 c81c 1ab8 5a36 f13b e194 90b8
000002b0: eff7 2739 cb40 e83b de4b 23ba d9a2 20ba
000002c0: 05c8 30bc f5d5 3fb9 e7e6 de38 8b90 e7bc
000002d0: 380d 4130 638a a7b1 fa8d a732 c499 1131
000002e0: b66b fdb0 7f6c 8831 e942 5b30 f66f 01b2
000002f0: 43f7 2c33 305c 9031 434a 1db1 0986 0432
00000300: 37bd 0227 8fb5 6929 39d4 abaa 4084 32a9
00000310: 64b5 7d28 4505 9fa9 b75d af3a 311b dd3a
00000320: 6eab 3d3c d98c 0d3a 4114 e2b8 2730 7f3b
00000330: 38b9 91ad 214c 9ead 6865 14af 7d8c 08ad
00000340: 09d5 092c 06ef 5aae b52d db3a ce6f 5e3a
00000350: 2d76 703c 580d 3a39 62ef d839 fc53 aa3d
00000360: d472 89bb c55c 5abb 25d4 8cbd 4fff 69ba
00000370: d43e 0739 bb60 5ebe cc46 4fa7 70e6 57a7
00000380: 6b32 e4a8 38f9 e7a6 c2c8 de25 3e6c 26a8
00000390: d980 15b3 a721 eb33 9ef1 9cb4 f6c2 03b3
000003a0: 1d68 fe32 09c8 b4b3 9ecb be3a a60e f03a
000003b0: d8e1 4d3c 64de 193a e8c2 eeb8 9801 8c3b
000003c0: b730 0d3b cf91 fd3a 3a94 55ba da0f 303a
000003d0: 173d d0b8 977c a03d e4e4 1f38 ac64 9938
000003e0: 3c4c 86bb 6f80 0838 d4ff 70b8 00c9 053b
000003f0: 11e2 2ca9 de4e 4929 c3fa 6bab 441d bda9

exp_avg_sq f4 [128, 6]
1.23991185e-05 1.261761e-05 0.0056441063 8.072349e-06 7.948458e-06 0.02559614 7.1382256e-06 1.1291554e-05
0.0074544875 4.522415e-06 5.8568485e-06 0.008886626 1.1816645e-05 1.603506e-05 0.010160522 6.7246738e-06
9.073853e-06 0.016123973 8.588466e-06 1.9090454e-05 0.008978711 6.4289256e-06 8.713065e-06 0.00020972698
1.3713568e-05 1.4346249e-05 0.00268579 8.454721e-06 1.1799011e-05 0.030608421 2.5744959e-07 4.441357e-07
8.702733e-05 1.5259475e-07 2.0155368e-07 2.2943464e-06 5.4891643e-06 6.4128644e-06 0.0061224755 2.839817e-06
3.983757e-06 0.004395374 2.0766828e-08 1.09069674e-07 8.760941e-07 5.2933775e-08 1.757999e-08 2.1916412e-07
2.1236143e-05 3.263861e-05 0.018900156 1.30201815e-05 1.7562705e-05 0.016743273 4.108951e-12 4.8381403e-12
5.670721e-12 7.152276e-13 8.1456595e-12 6.6409664e-12 1.0180211e-05 1.1358867e-05 0.0025281173 6.408283e-06
8.991279e-06 0.02285737 2.5315326e-06 3.164757e-06 0.0025750604 1.5792453e-06 2.193811e-06 0.0034567025
7.4137015e-06 1.2375852e-05 0.010763113 5.216576e-06 5.7649977e-06 0.0064644404 7.342414e-06 8.931504e-06
0.0058878097 4.0611862e-06 5.0267513e-06 0.008602876 2.3760354e-05 2.8698803e-05 0.021277696 1.4121352e-05
1.547325e-05 0.026655875 2.7778624e-06 3.50498e-06 0.0025932891 1.0661686e-06 2.941902e-06 0.00010735034
1.6927956e-06 2.2438896e-06 0.00096296193 6.6400105e-07 1.5808212e-06 8.89156e-05 2.5142861e-05 2.9958439e-05
0.024412218 1.455986e-05 1.6569944e-05 0.020580204 1.3069877e-05 1.6401633e-05 0.011512402 7.4007726e-06
8.991376e-06 0.015229332 1.32159e-05 1.6504338e-05 0.014290464 6.7045135e-06 9.999105e-06 0.0032354912
5.168817e-06 7.2465587e-06 0.0026264451 4.8291768e-06 4.710773e-06 0.012430791 3.201686e-06 4.283996e-06
0.00056999025 3.0585225e-06 3.3688245e-06 0.008110429 1.3519875e-05 1.7768598e-05 0.018347315 7.979166e-06
1.0030657e-05 0.012030979 5.168071e-10 1.1342163e-09 8.5266305e-10 1.8010028e-10 2.7806837e-09 2.5545127e-10
7.913081e-06 1.1089616e-05 0.0059232893 5.913718e-06 6.2871372e-06 0.01641422 1.0794859e-05 1.4470847e-05
0.008819736 6.895777e-06 9.481385e-06 0.017883405 1.3160822e-05 1.5309e-05 0.0073662316 7.971844e-06
1.0306003e-05 0.02653201 3.6860732e-07 5.3424776e-07 3.2550666e-05 3.7519297e-07 4.0356622e-07 0.001046493
9.319416e-07 1.2836289e-06 0.0009420198 5.133686e-07 6.8139593e-07 0.00078182045 3.7943066e-06 4.673932e-06
0.0030966487 2.5790755e-06 2.676661e-06 0.007890625 1.5505572e-08 1.150814e-08 1.8363242e-07 2.0519324e-09
2.366469e-09 6.6247946e-10 2.1600606e-08 9.3106976e-08 8.4170523e-07 1.00712285e-07 9.698845e-08 1.0444106e-07
5.0448223e-10 1.1919427e-09 2.63072e-09 3.4024386e-10 2.5981888e-09 4.1082782e-10 3.9167076e-05 5.202268e-05
0.04051607 2.0898227e-05 2.9022442e-05 0.007642845 3.4501004e-09 1.965818e-09 5.942208e-09 2.926037e-10
4.8816584e-10 4.3596624e-09 1.4065224e-05 1.8268474e-05 0.013418737 8.043769e-06 9.88008e-06 0.014427065
1.2504133e-05 1.8174449e-05 0.0030837858 1.1144202e-05 1.2849349e-05 0.036022242 1.2858264e-10 2.6364758e-10
1.7031975e-09 1.1738674e-10 4.252148e-10 1.4329954e-10 1.1245218e-07 4.792696e-07 0.00014228126 1.5877679e-07
9.8156555e-08 5.7787645e-07 1.5710293e-05 2.7451988e-05 0.0136248795 9.561143e-06 1.338737e-05 0.0006910452
2.2186749e-05 2.836194e-05 0.020387575 1.2795011e-05 1.5513444e-05 0.022742564 2.0142118e-06 2.3617356e-06
0.002202479 1.4391494e-06 1.3247393e-06 0.0031935482 3.5378024e-13 1.2557114e-12 1.0423274e-11 1.3034224e-12
00000000: cf05 5037 39b0 5337 32f2 b83b 7a6e 0737
00000010: 5e5a 0537 ffae d13c e484 ef36 db70 3d37
00000020: c644 f43b 40bf 9736 f285 c436 3699 113c
00000030: 1b40 4637 0783 8637 5178 263c 82a4 e136
00000040: e73b 1837 6c16 843c 2e17 1037 7024 a037
00000050: 721b 133c 0db8 d736 542e 1237 28ea 5b39
00000060: 5313 6637 acb0 7037 1404 303b c0d8 0d37
00000070: 5ef4 4537 83be fa3c 9a37 8a34 8c71 ee34
00000080: 7182 b638 edd8 2334 a76a 5834 92f8 1936
00000090: 902f b836 162e d736 0c9f c83b af93 3e36
000000a0: 36ac 8536 1207 903b bd62 b232 b039 ea33
000000b0: ba2c 6b35 4d59 6333 cf02 9732 6053 6b34
000000c0: 4524 b237 71e5 0838 80d4 9a3c 4171 5a37
000000d0: 9f53 9337 3029 893c 2492 902c 183a aa2c
000000e0: 5085 c72c 9451 492b ca4c 0f2d 82a8 e92c
000000f0: accb 2a37 f691 3e37 c5ae 253b bb06 d736
00000100: 40d9 1637 613f bb3c 66e3 2936 1c62 5436
00000110: 58c2 283b 75f6 d335 6339 1336 d889 623b
00000120: 36c3 f836 e1a1 4f37 c557 303c 0c0a af36
00000130: f470 c136 a8d3 d33b db5e f636 85d8 1537
00000140: 87ee c03b 5345 8836 77ab a836 14f3 0c3c
00000150: f950 c737 36be f037 904e ae3c bfea 6c37
00000160: 8dcc 8137 6c5d da3c 506b 3a36 1937 6b36
00000170: 2cf4 293b 4619 8f35 7e6d 4536 4621 e138
00000180: 0434 e335 bb95 1636 486f 7c3a ce3d 3235
00000190: 9a2c d435 3378 ba38 e2e9 d237 424f fb37
000001a0: 22fc c73c 1f46 7437 afff 8a37 d197 a83c
000001b0: b246 5b37 3d96 8937 849e 3c3c 2754 f836
000001c0: aad9 1637 7384 793c dcb9 5d37 cc72 8a37
000001d0: 8d22 6a3c 55f7 e036 d4c1 2737 890a 543b
000001e0: cd6f ad36 7727 f336 7020 2c3b 500a a236
000001f0: 3b11 9e36 84aa 4b3c 8cdc 5636 3fbf 8f36
00000200: 666b 153a 0441 4d36 f713 6236 9be1 043c
00000210: 6cd3 6237 c60d 9537 1c4d 963c 42de 0537
00000220: 5849 2837 951d 453c 110f 0e30 b0e2 9b30
00000230: d460 6a30 b905 462f 4e16 3f31 926f 8c2f
00000240: 6dc2 0437 8a0d 3a37 2718 c23b 736e c636
00000250: 19f6 d236 1d77 863c 911b 3537 d1c7 7237
00000260: a780 103c 4662 e736 3d12 1f37 3880 923c
00000270: 4dcd 5c37 d46b 8037 6e60 f13b cfbe 0537
00000280: f2e7 2c37 a859 d93c 01e5 c534 3a69 0f35
00000290: 0387 0838 216e c934 b8a9 d834 7a2a 893a
000002a0: 8a2a 7a35 2749 ac35 e1f1 763a 6cce 0935
000002b0: 2ce9 3635 15f3 4c3a b1a1 7e36 c5d4 9c36
000002c0: 25f1 4a3b 2e14 2d36 b0a0 3336 ae47 013c
000002d0: 1d31 8532 56b5 4532 7f2c 4534 fa01 0d31
000002e0: 5d9f 2231 d919 3630 3c8c b932 1af2 c733
000002f0: 8bf1 6135 2a47 d833 f747 d033 1449 e033
00000300: c8ab 0a30 c1d1 a330 1ec8 3431 110d bb2f
00000310: d28b 3231 e0da e12f 5447 2438 ed32 5a38
00000320: 2ef4 253d 9a4e af37 3875 f337 d570 fa3b
00000330: cf16 6d31 0917 0731 372c cc31 4fdc a02f
00000340: 9e2f 0630 ffcb 9531 adf9 6b37 403f 9937
00000350: 43da 5b3c baf3 0637 9fc2 2537 7f5f 6c3c
00000360: d8c8 5137 5575 9837 5719 4a3b fcf7 3a37
00000370: 8993 5737 0f8c 133d cc60 0d2f 19f1 902f
00000380: ef15 ea30 6e11 012f aac3 e92f 3c8f 1d2f
00000390: 3d7d f133 28a7 0035 5631 1539 3b7c 2a34
000003a0: 23ca d233 5e1f 1b35 99c9 8337 b248 e637
000003b0: e33a 5f3c cc68 2037 519a 6037 4227 353a
000003c0: ae1d ba37 cdea ed37 d803 a73c 27aa 5637
000003d0: de22 8237 9d4e ba3c e52b 0736 4f7e 1e36
000003e0: 7757 103b cc28 c135 b2cd b135 d94a 513b
000003f0: 1b29 c72a c5b9 b02b 415e 372d be70 b72b

exp_avg f4 [128]
-0.00055586756 0.00019920107 7.819584e-05 0.00021771506 -0.00042926296 -2.448992e-06 3.823015e-06 8.587982e-10
6.236761e-05 -6.766001e-15 -0.00033686467 0.00017408229 0.00024058518 9.65759e-05 0.00033774914 0.000110975336
-9.175371e-07 -0.00038731826 0.00019857731 0.00010234586 -0.00029664292 -0.00022363594 -0.00016532787 -7.0120044e-13
-0.00022478892 -0.0001194019 -0.00033927677 -8.580832e-05 3.340394e-05 -8.791012e-05 6.456944e-10 1.2453785e-09
-1.1209017e-14 0.00020602637 -2.8627844e-12 0.00031035813 -0.0006503389 -5.705223e-16 -1.2037721e-08 0.00022484823
0.0003472338 -9.211454e-07 -2.5398047e-14 -6.968143e-08 2.6151357e-09 0.00014097337 -0.00018710602 -1.2921155e-15
-0.00029549477 0.00012357398 0.00016073017 0.00018258026 1.8360454e-11 -4.1040335e-06 -1.0146779e-13 -0.0006487764
-1.6301785e-05 0.00017119953 0.000100785175 0.00024483225 -0.00018678684 -6.250319e-05 0.00017230559 0.00014240426
-0.00014442953 2.466329e-12 8.499715e-05 -7.248286e-07 0.00010023733 3.919365e-05 -1.3774936e-05 0.00022490602
-6.946637e-05 -2.6439653e-05 -4.447908e-05 -0.00020501508 -0.0005159942 -0.00055615 4.946685e-10 -0.000120004086
0.00019877416 -6.639771e-07 1.0412001e-07 0.00034641862 0.00016025476 -6.7945346e-13 0.00013932251 -3.367125e-06
4.9460214e-05 -0.00040383925 -0.000121668694 -8.301553e-09 -8.538038e-12 5.853849e-05 6.190592e-05 5.3888834e-05
3.362506e-16 1.0514816e-13 -6.02647e-06 -0.00045999963 1.4440735e-05 0.00057621667 6.74891e-05 -1.877663e-16
-0.00046790185 0.00012593796 -4.335092e-05 4.3976925e-08 -0.00023479146 -0.00023180882 8.303239e-05 0.00014437543
-1.1181537e-10 -1.2596353e-06 0.0001280497 0.00025874987 -0.0003005165 8.6243854e-05 -1.0384343e-06 -7.93924e-05
-2.6813366e-15 0.00016685286 -3.6140315e-07 -0.00025474414 5.6166118e-05 -0.00017638053 0.0003841718 -0.00070974504
00000000: a4b7 11ba a1e0 5039 12fd a338 714a 6439
00000010: b30e e1b9 5d59 24b6 7347 8036 8d10 6c30
00000020: 5bcb 8238 58c5 f3a7 369d b0b9 dc89 3639
00000030: 9845 7c39 cb88 ca38 ec13 b139 6ebb e838
00000040: ab4c 76b5 fa10 cbb9 3139 5039 84a2 d638
00000050: bd86 9bb9 d17f 6ab9 dd5b 2db9 d15e 45ab
00000060: 51b5 6bb9 6867 fab8 f5e0 b1b9 fef3 b3b8
00000070: 351b 0c38 635c b8b8 b47c 3130 dc29 ab30
00000080: 78ec 49a8 c808 5839 5773 49ac 90b7 a239
00000090: 817b 2aba 1e71 24a6 75ce 4eb2 3dc5 6b39
000000a0: ef0c b639 a144 77b5 e9c3 e4a8 c5a3 95b3
000000b0: f4b5 3331 40d2 1339 e431 44b9 a636 baa6
000000c0: a3ec 9ab9 a393 0139 ad89 2839 0473 3f39
000000d0: 1180 a12d 61b5 89b6 337c e4a9 a612 2aba
000000e0: d1bf 88b7 0684 3339 a15c d338 d45c 8039
000000f0: 36dc 43b9 2514 83b8 eeac 3439 5a52 1539
00000100: 0272 17b9 6f8d 2d2c 7f40 b238 d891 42b5
00000110: 8236 d238 dc63 2438 e61a 67b7 c0d4 6b39
00000120: 79ae 91b8 b9ca ddb7 0c8f 3ab8 51f9 56b9
00000130: c943 07ba 98ca 11ba 33f9 0730 b4aa fbb8
00000140: 086e 5039 293c 32b5 9598 df33 859f b539
00000150: 0f0a 2839 c83f 3fab 1a17 1239 c4f6 61b6
00000160: 8073 4f38 63ba d3b9 6228 ffb8 9e9e 0eb2
00000170: e833 16ad 3a87 7538 7dd3 8138 b206 6238
00000180: d5d5 c125 cac5 ec29 fc36 cab6 1b2c f1b9
00000190: 7c46 7237 3f0d 173a ef88 8d38 d57a 58a5
000001a0: b950 f5b9 370e 0439 b2d3 35b8 24e1 3c33
000001b0: 5a32 76b9 b511 73b9 ad21 ae38 7c63 1739
000001c0: 75e2 f5ae bd10 a9b5 1445 0639 d2a8 8739
000001d0: a48e 9db9 d1dd b438 5560 8bb5 787f a6b8
000001e0: ee35 41a7 39f5 2e39 df06 c2b4 2e8f 85b9
000001f0: e993 6b38 caf2 38b9 ab6a c939 2f0e 3aba
