results/Shooter/Shooter/Shooter-500028.pt (torch, 482895 bytes, 42 tensors)

network_body._body_endoder.seq_layers.0.weight f4 [128, 18]
00000000: 1901 023f a797 d2bd 746f 97be bcb1 c43c
00000010: dcae 723e 0730 bd3e 71ef e03e 047c 61bc
00000020: 158b 633d a0c6 9c3e 495e 40be 7b81 a9bd
00000030: 86fa c23e af29 1b3e d5be 5abe 978c 33bd
00000040: 2b5c 20bc 9a63 df3d 303b 89be aee0 8ebe
00000050: f797 9abd a600 2c3e 3208 643e 7c18 c63d
00000060: 75d6 e2be c7bf f1bb 4831 86bd 128a 033d
00000070: df66 79bd 9e0a b7bd 844a 6abb 25be c3bd
00000080: 2170 133e 0f43 923e 4fa2 64be 77a1 31bd
00000090: 674c 9f3d ecb0 e1bd 1105 613e d452 56be
000000a0: bef7 e83d 58f1 33bd 5ef4 33be d1b8 123e
000000b0: 7a15 f3bd 228c 58be 04b0 193e 7a3a 553d
000000c0: d239 a73e 404f 413e 104c eabe 7905 17be
000000d0: d71c 043c a2bd 223d 3e03 853e f90c a03d
000000e0: 7460 84bd 67ac 813e 5a66 71be 4404 27be
000000f0: aa28 a73e c80f e2bd 2cbb 3b3d bd72 2bbe
00000100: 23e2 ccbd cfbf 3b3e 218c 1abe 456f 55be
00000110: 1100 9b3e 7c13 2fbe a59a 193e a867 12be
00000120: e583 bc3e 340f 363c 40f4 b0be 3edb a93e
00000130: aab4 663e ebbc 25bd 3438 203e 70bf de3e
00000140: 4fd7 f23e fdc2 d3bd efaf b0be d37d ab3e
00000150: d111 453d 0859 ae3e b5c2 263e e873 6abd
00000160: ab0e bd3e 2f6c 61be b751 83be d6dd 2c3d
00000170: d1ff 833e b075 80be fda4 dbbd 4a89 f9bd
00000180: 90cc 0d3c 1162 bc3b 0726 e1be 4d6d 603e
00000190: 6b75 39be c25e 703d 3980 e33d 2929 1b3f
000001a0: a459 abbd 41a7 2abe 864b bebe 118c e03d
000001b0: ce98 cdbd 54f8 c83c bc46 efbd f170 7a3e
000001c0: 2a66 f6be 5723 ed3d 6234 0cbe cf06 413d
000001d0: 4466 ca3c f667 173d 68eb ebbe e672 963d
000001e0: 837a 853e f72f b5bb f7e5 bcbe 8622 b73d
000001f0: d0f0 cabe e89e 37be 3365 42be 46a0 aabe
00000200: a94b 853e 0f83 4f3c b8ce d53c a4d1 c33b
00000210: 9536 7dbe 3fd7 373e 0ee7 bdbe 0ca5 2ebd
00000220: 234b 083d 3956 c43d 7b4e b13e 656d 073e
00000230: 1960 873e c2e2 e73e 9dc0 423e e3a0 d13d
00000240: f325 4d3e f7d0 b6bd 3038 3dbe cde2 673e
00000250: b421 86be a269 053e 19d2 f53d 765c b13d
00000260: 2b8d 583e 8913 763d b2d9 cfbe d75c aa3c
00000270: a90a 773e 3e12 663d eef1 2cbd 97be fd3e
00000280: 2403 873b 4a84 9abe e77e 5f3e 8a02 8abe
00000290: 12c1 efbc ca0b 11bf 6c17 9a3d 4e31 6abe
000002a0: 303e eabd 32d2 a9bd 83f2 8dbe 476a 913e
000002b0: c936 a93d 6af1 d8be 211a 20be c792 b8bd
000002c0: e72e 993d caf7 4a3e 9d39 783d 9a74 2fbe
000002d0: 4f7e 68be 40dd 62bc 4601 82bd 41ba 0abf
000002e0: 0496 c73e 1d8c 25be 5b9c b43e 8d0a 193d
000002f0: fd70 91bd 16c4 c03d e3de 1e3e d748 4ebe
00000300: 5299 eebb 4069 81be 538e 103e c313 0e3e
00000310: 9141 aa3e 1117 79be 3378 25be bdc4 3fbe
00000320: 4374 db3a a05f ee3c ecdd 20be 047c 043f
00000330: b93d 81be 56f7 c43e 634c 59be 212b ce3c
00000340: 4e68 093e f3eb 5f3e ec0f 6cbd 9a90 403e
00000350: fb09 c0bd 9253 2f3e 52a9 4ebe 031b e7bd
00000360: 77e6 15be 025b ca3d a5a4 8c3d f5aa bfbe
00000370: c55e da3c 8f3c 98bd 92b9 fbbe 71e5 9f3e
00000380: f2aa b63d 2371 8ebb 0035 ffbe 039e 34bd
00000390: 23e5 133e 1a54 0d3e f013 f8bc 0ec3 c73e
000003a0: 7c55 5a3e 297e 59be 1140 f6bd f644 3d3e
000003b0: dba5 d73c 8ed4 32bd fc94 b53d 0fa8 0a3e
000003c0: 344f 703c 6083 2a3e d946 a8be a2c8 1a3e
000003d0: b955 9dbe 7b4e f43d 94a4 d7be 45c9 c6bd
000003e0: c25c b3bd 8d3a 123e 991d d13d 7be2 cfbe
000003f0: e1d1 043f f2e8 bf3e 3bcd 00be f8c3 943d
0.50782925 -0.10282832 -0.2957722 0.024010532 0.23699516 0.36950704 0.4393268 -0.013762478
0.05555256 0.3062029 -0.18785967 -0.082766496 0.3808176 0.1515262 -0.21361859 -0.04383525
-0.0097876 0.10907669 -0.2680297 -0.27905792 -0.07548516 0.16797122 0.22268751 0.09672639
-0.44304243 -0.007377598 -0.065523684 0.032114096 -0.06088912 -0.08937572 -0.0035749981 -0.095577516
0.14398243 0.28566787 -0.22327541 -0.043366875 0.077782445 -0.11020073 0.21974589 -0.20930034
0.11375378 -0.043931335 -0.17573687 0.14328314 -0.11869331 -0.21147206 0.15008551 0.05205772
0.326613 0.18877888 -0.45761156 -0.14748181 0.008063517 0.03973163 0.25979036 0.07814974
-0.064637095 0.25326845 -0.235742 -0.16310221 0.32648212 -0.11038166 0.045832798 -0.16742988
-0.1000407 0.18334888 -0.15092517 -0.20843227 0.30273488 -0.17097276 0.15000398 -0.14297354
0.36819378 0.011112023 -0.34561348 0.3317508 0.22529855 -0.04046337 0.1564644 0.4350543
0.47429892 -0.103399254 -0.34509227 0.33494434 0.048112694 0.340523 0.16285212 -0.057239443
0.36925253 -0.22013925 -0.2564828 0.042203747 0.2578111 -0.25089788 -0.107248284 -0.12184389
0.0086547285 0.005748995 -0.43974325 0.21916695 -0.18111198 0.058684118 0.11108441 0.6060968
-0.08366707 -0.16665365 -0.37166995 0.109642155 -0.10038911 0.024532475 -0.116834134 0.24457146
-0.4812482 0.11579006 -0.13691857 0.047125634 0.024706967 0.03696438 -0.46078038 0.07346134
0.26070032 -0.0055293995 -0.368942 0.08942132 -0.3963685 -0.17931712 -0.18983917 -0.33325404
0.26034287 0.012665524 0.026099548 0.005975919 -0.24727853 0.17953204 -0.37090343 -0.04263787
0.03327478 0.09586758 0.34630188 0.13225324 0.26440504 0.4529019 0.19018789 0.10235765
0.20034008 -0.08926576 -0.18478465 0.22645111 -0.26197588 0.13028577 0.120029636 0.08660214
0.21147601 0.060077224 -0.40595776 0.020796223 0.2412516 0.05616974 -0.04222291 0.4955947
0.0041202474 -0.30179054 0.21825753 -0.26955062 -0.029266868 -0.56658614 0.075239986 -0.22870371
-0.114376426 -0.08292045 -0.27724084 0.28401396 0.082624026 -0.42371684 -0.15634967 -0.090123706
0.07479649 0.19821087 0.06060182 -0.17134324 -0.22704433 -0.013846695 -0.06347899 -0.5419045
0.3898164 -0.1616673 0.3527554 0.037363578 -0.07101629 0.094124004 0.15514712 -0.20144974
-0.007281461 -0.25275612 0.14116792 0.13874726 0.33253148 -0.24325205 -0.16159134 -0.18727393
0.0016743023 0.029098332 -0.15709656 0.5175173 -0.25242403 0.38469952 -0.21220545 0.02516705
0.13418695 0.21867351 -0.05763237 0.18805161 -0.093769036 0.17121723 -0.20181778 -0.11284449
-0.14638697 0.098806396 0.06867341 -0.37435117 0.026656518 -0.07433426 -0.49165016 0.31229737
0.08919324 -0.004346983 -0.49845123 -0.044096004 0.14442877 0.13801613 -0.030282944 0.39016002
0.21321672 -0.21239533 -0.120239384 0.18483338 0.026324203 -0.04365974 0.08866307 0.13540672
0.014667321 0.16651678 -0.32866552 0.15115598 -0.30729464 0.119290315 -0.4211775 -0.09706358
-0.087579265 0.14280148 0.102107234 -0.40602478 0.5188275 0.3748241 -0.12578289 0.072639406

network_body._body_endoder.seq_layers.0.bias f4 [128]
00000000: d3a4 01bd aeff 783d b3e9 34bd e3f6 afbd
00000010: 22be 89bd b99d 913d 1cf3 df3d 7a35 92bd
00000020: 1c00 513d 5029 76bd 86ee c33c ed36 62bd
00000030: cd12 98bc b6d6 343d 537d 913d c31b a5bd
00000040: 60eb 873c 4008 0abb b5a3 dabd b8bf 25be
00000050: 406d 5cbd 6379 463d 4ffc c23d 1d42 03bd
00000060: ae3b fcbd 141f a43d 4f66 aa3c f38e 243d
00000070: fa0c 003e b7ce 3b3d b26d bd3d 122f 69bd
00000080: 61ec a7bd 54ae 5abd 3cf8 1dbd 3cc1 ce3c
00000090: fdcf 753d 4066 0bbe 3af7 0dbe dcfd cebd
000000a0: 044e 7fbc 24b7 a8bd 91a1 dabd 03e5 8ebd
000000b0: 8411 44be 8137 3abe 6e43 d63c 5211 92bd
000000c0: e356 b1bd eb6b 3dbe 02e9 363c 7adb 93bc
000000d0: e063 013a 7ee4 5fbd 6d3f 863d 3811 07bc
000000e0: 558d b03d 7725 3dbe b88f 983d bf36 e1bc
000000f0: 8b41 8c3d ae7b 4d3c c68e b4bc 0b9f 823b
00000100: 1829 8dbd b4b7 fc3d 535d 313c 2c34 5fbd
00000110: c651 dbbd 85f7 f4bd 6b8a 98bc e728 4d3c
00000120: 4dcc 57bc 300a c63c a641 34bd 0b19 3b3d
00000130: 6c93 333d 15e4 70bc 5168 afbd 5cfb c7bd
00000140: 26bd 6fbd f4a6 61be b776 a2bc 86f8 5dbd
00000150: 7d9e 1cbe 28f4 91bc 766e 4e3a 5e8c 57be
00000160: 13ae b4bc ccde 9fbd 25d8 4ebb 2124 253e
00000170: ec49 023c a79e f9bc 7433 e6bd 40c8 0abe
00000180: 68e6 cabd c62c 95bd 48ed cabd 21cd b5bb
00000190: c580 4ebd c81d 8ebd d593 ffbd 2886 20bc
000001a0: 80f5 a03c 05e0 64bd dae0 febc 522e 01be
000001b0: d5ec aabd a76e 93bd f967 313d 55f1 ffbc
000001c0: 0c3d 2e3d 3377 a93a be12 6abd ae04 eabd
000001d0: 6e29 2b3d 782a 72bb 2ab7 033e d1d0 f2bb
000001e0: 4502 a8bd 50a3 d03c fa97 1ebd a7ef 0a3c
000001f0: 96d3 48bd cd17 d3bc 1185 b3bc 8afa 2bbe
-0.03165133 0.06079071 -0.044168185 -0.08592012 -0.06725718 0.07110161 0.10935041 -0.07139106
0.051025495 -0.060097992 0.023917448 -0.055228163 -0.018563652 0.044150077 0.07103982 -0.08061936
0.016591728 -0.0021062046 -0.10675756 -0.16186416 -0.053815126 0.048455607 0.0952078 -0.032045472
-0.123160705 0.0801374 0.020800738 0.04017539 0.1250495 0.045851436 0.09249438 -0.056929655
-0.081993826 -0.05338891 -0.038566813 0.025238626 0.060012806 -0.13613224 -0.1386384 -0.101070136
-0.015582565 -0.08238056 -0.106753476 -0.06977274 -0.19147307 -0.18185236 0.0261552 -0.0713221
-0.086591505 -0.18498199 0.011163952 -0.01804899 0.0004935842 -0.054661267 0.06555066 -0.008243851
0.08620707 -0.18471323 0.07449287 -0.027491925 0.06848439 0.012541695 -0.022040736 0.0039862446
-0.06892604 0.12339726 0.010825473 -0.054493114 -0.107089564 -0.11961273 -0.01862069 0.012521959
-0.013171268 0.02417478 -0.04400792 0.04567818 0.043841764 -0.0147028165 -0.08564819 -0.0976474
-0.058529995 -0.22036344 -0.019831998 -0.05419209 -0.15294833 -0.017816618 0.00078747363 -0.2104964
-0.022055661 -0.07806167 -0.0031561938 0.16127063 0.007952195 -0.03047116 -0.11240283 -0.13552952
-0.09907228 -0.072839305 -0.09908539 -0.005548135 -0.050415773 -0.06939274 -0.124793686 -0.00979761
0.019648314 -0.055877704 -0.031113077 -0.12615326 -0.083459534 -0.0719884 0.043312047 -0.031243006
0.042538688 0.0012929201 -0.05714678 -0.11426674 0.041787557 -0.0036951583 0.1286284 -0.0074101468
-0.08203558 0.025468498 -0.038719155 0.008479989 -0.04902991 -0.025768185 -0.021914037 -0.16794792

network_body._body_endoder.seq_layers.2.weight f4 [128, 128]
00000000: 1e24 073d 8cc3 e53c a157 7dbe 2228 09bd
00000010: 177d 06be 60c2 143d ada9 8c3d 6bc4 883d
00000020: daa7 94bd 7e5f 153e fea2 3cbe 64aa 20bd
00000030: 1e2e cdbd 9edc fe3d 3b88 a9bd 2fe0 73bd
00000040: f94a 883e 08a4 e23d 1ac9 e6bd dac4 0c3e
00000050: d663 f63d b905 b6bd 7e7c 40be ebf9 d13d
00000060: 4f26 9c3d 7ee4 dcbd cc60 5f3e 47f9 523d
00000070: 135a 483d 2a22 cbbc 7776 40be 1048 4f3e
00000080: 014a a2bd 9446 1ebc 0918 c6bd 6d5c d0bc
00000090: d286 39bd b1e1 743d 748f 84bd 4eeb 4cbc
000000a0: 5ae6 a1bd b0e5 01bd 3fe6 28be 877e e6ba
000000b0: 11c8 073c 59c7 d3bd 0964 953d 3b3d 59bd
000000c0: f1c3 26bd 42c1 c8bd 94dd d93d a288 dcbd
000000d0: 43d7 0bbe 1241 e2bd f792 a9be 463e 0dbe
000000e0: 765c 03b8 354f 903c bb0a a9bd c34a b8bd
000000f0: 3e2c 39be cebb 8b3d 51d8 743d 6d7d 3fbe
00000100: 8091 93bd ecd3 64bd 256a bb3d 8817 08bc
00000110: 2eaf f9bc 9329 f2bd c5c3 aabd faa9 12bc
00000120: dcd2 0ebe 292c 723c 1163 343d cea3 12be
00000130: 4922 00bc a9a4 94bd aaca 76bd cfe9 50bd
00000140: 338b 993c de45 803c ef86 8abd 4454 e63c
00000150: ca6c c9bd 3ac6 25be dd01 1dbc d04b 04be
00000160: 2310 de3d 2b06 ecbc 7dc9 6a3d 6205 22bd
00000170: 1666 e3bd 636a 47be ba0d 96bb f185 edbb
00000180: 8843 a6bd bd89 03be cb1d 22bd 518b 9b3c
00000190: d9c2 5bbd b0b4 18be 5d6c 953c 5fb2 3abd
000001a0: c568 5dbd 4303 563d f136 18bb 9e52 2ebd
000001b0: ca41 fa3d 04c2 8b3c 793f 6e3d 862c 46bd
000001c0: cbf8 f6bd 12a7 febc 4140 87be 303a a2bd
000001d0: 1ece 11be ae6a 033e 250c f43c 38f2 d0bc
000001e0: 0d1f 1cbd a467 19be b290 42bd 561c 18be
000001f0: e6ff 5dbe f67b 973c 5064 f1bd 4baa 52be
00000200: 396b e63c fc57 d33d cd07 edbd dd1b 143e
00000210: b5d0 993c 9fc8 e73d ac87 b9bd 1143 b53d
00000220: b24c 1f3e 26a6 8d3c 41e1 b83b e7b5 1a3e
00000230: f0f1 3abe 98e3 30be ad20 8d3d 7d31 473d
00000240: c8a8 bd3d 7eb2 84bd 551f c0bd ed2b 6bbd
00000250: bdc0 b33c 550a c33b 78a2 db3d 7342 bc3d
00000260: f7aa 0ebd e00a 1d3d 3132 333d ca31 103e
00000270: e97e 673e 16e4 67bd e897 96bd 7b27 423e
00000280: 7b42 54bb e11f bfbd ef24 b33d 25a8 c13d
00000290: c90a a0bd 663a 913d 3594 4b3d b448 b4bb
000002a0: a3cb 5e3e 7d5c 8c3d d8dd bf3c ab66 a93d
000002b0: c58c 503d a279 49bd dfed 193d 63e3 a7bc
000002c0: 81c4 00be eb97 733d f621 74bb 1bc4 263b
000002d0: e7ca 0b3c 46c5 493d 7cee 383d c1db c9bc
000002e0: bc4c 42be 6d9b 963d 889b 39bd 72f3 9f3d
000002f0: e7a4 133e fe3e 883e 9ce4 1f3d 266b 133d
00000300: d589 d93c 2741 5e3e fad0 583e 663c 8dbd
00000310: 57c0 003e 35bc cd3c 661f 283e 36cc 5a3e
00000320: 731f 8d3d 7172 1bbe 34ac b23d dc15 23be
00000330: e100 b7bc ee8c 2fbd 84bd 043d 5126 1d3d
00000340: e510 d53c b029 613d 145c 1fbe 2000 eb3c
00000350: 99e6 1e3e 506e ee3d a9e3 0f3e 125e 8b3d
00000360: 6e24 553d fbf0 3f3e f516 133d 1d9f d4bd
00000370: 078c 493d b54c 1a3d 82d4 8dbc b6fd 333a
00000380: b953 1abd d738 953c f704 233d 7b51 253e
00000390: 8d34 533d 3698 e6bd 5b3a 423c 950e ecbd
000003a0: 8053 193e 7b25 bf3b 7593 f9bd 0c8f 55bb
000003b0: e786 283d ecc2 113e 380b 62be 2385 033e
000003c0: 4f4a db3d cc39 14be 1574 113e 8187 a13d
000003d0: 1a40 803e d8f0 e2bd abd0 ddbd 5441 c53d
000003e0: e336 84bd a974 1fbe 791e fb3d 966c 9a3c
000003f0: 8e67 6d3d 8c67 a3bd 3451 253c 706e 5bbb
0.03299343 0.028047346 -0.24740459 -0.03348554 -0.13133655 0.036318183 0.068683006 0.06678089
-0.07258578 0.14587209 -0.18421552 -0.039224997 -0.10018562 0.12444423 -0.08277937 -0.05953997
0.266197 0.11066443 -0.11268826 0.13746968 0.12030761 -0.0888781 -0.1879749 0.10252746
0.07624494 -0.10785769 0.21814269 0.05150726 0.048914026 -0.024796564 -0.18795191 0.20242333
-0.079242714 -0.009660382 -0.09672553 -0.025434697 -0.04529459 0.05978555 -0.06472674 -0.012507273
-0.07905264 -0.031713188 -0.16494082 -0.0017585316 0.008287446 -0.10340757 0.07294471 -0.05303691
-0.040714208 -0.09802486 0.10637966 -0.10768248 -0.13656335 -0.110475674 -0.33119938 -0.13793287
-3.1318945e-05 0.017615894 -0.08254 -0.08998635 -0.18083283 0.0682293 0.059776608 -0.1870019
-0.07205486 -0.055866167 0.09151105 -0.008306392 -0.03047904 -0.11824336 -0.08338121 -0.008951658
-0.13947624 0.014781036 0.04403979 -0.14320299 -0.007820674 -0.07257969 -0.06025187 -0.051004227
0.018743133 0.015658315 -0.06764018 0.028116353 -0.09835203 -0.16188899 -0.009582964 -0.12919545
0.108429216 -0.028811535 0.05732106 -0.039555915 -0.11103456 -0.19474177 -0.004579273 -0.007248633
-0.08118349 -0.12845512 -0.039579194 0.01898733 -0.053652618 -0.14912677 0.018240148 -0.045580264
-0.054054994 0.052249204 -0.0023226107 -0.04255926 0.122195795 0.017060287 0.058166 -0.048382305
-0.12059172 -0.031085525 -0.2641621 -0.07921255 -0.14238784 0.12833664 0.029790947 -0.025506124
-0.03811555 -0.14980942 -0.047501273 -0.1485456 -0.21679649 0.018491726 -0.11786711 -0.20572774
0.0281273 0.10319516 -0.115737535 0.14463754 0.018776277 0.11317562 -0.090590805 0.088506825
0.155566 0.01729114 0.0056420867 0.15108453 -0.18256354 -0.1727432 0.06890998 0.04863118
0.09260708 -0.06479357 -0.09380976 -0.057414938 0.02194249 0.0059521594 0.10724348 0.09192362
-0.034831014 0.03834045 0.043749038 0.14081493 0.22607006 -0.056614004 -0.073531926 0.18960373
-0.0032388258 -0.09332252 0.08747279 0.09455899 -0.07814557 0.07091217 0.049701888 -0.005501831
0.21757369 0.06853578 0.023421213 0.082715355 0.0509155 -0.049188264 0.037580367 -0.020494169
-0.1257496 0.059471052 -0.0037251688 0.0025446478 0.008532262 0.0492604 0.04514931 -0.02464092
-0.18974584 0.07353864 -0.04531434 0.078101054 0.14418374 0.2661056 0.03903638 0.035990857
0.026554981 0.21704541 0.21173468 -0.06896286 0.12573372 0.025114158 0.16418228 0.21366963
0.06890764 -0.15180375 0.087242514 -0.15926307 -0.022339286 -0.04285901 0.0324073 0.03836662
0.026009033 0.054971397 -0.15562469 0.028686583 0.15517654 0.11642134 0.14051689 0.06805052
0.052036695 0.1874427 0.035910565 -0.10381911 0.049205806 0.03767081 -0.017313246 0.0006866114
-0.0376775 0.01821558 0.039799657 0.16144364 0.05156379 -0.11259501 0.011854733 -0.11526219
0.14973259 0.0058333254 -0.12186328 -0.0032586483 0.041144278 0.14234513 -0.22074592 0.12843756
0.107075326 -0.14475173 0.14204438 0.078871734 0.25048906 -0.110810935 -0.10830816 0.09631601
-0.06455781 -0.15571846 0.122616716 0.018850606 0.057960086 -0.079787344 0.010090161 -0.0033482574

network_body._body_endoder.seq_layers.2.bias f4 [128]
00000000: 2ea1 7abb 9d50 403d 56b4 0f3d dc79 093b
00000010: e5c4 823d 5349 82bd 89b6 4fbb 443a de3c
00000020: 2e0e 77bd 17bf 7c3d d967 e6bd 7d8c de3d
00000030: 8d9e 243e c30e 6b3d a4d9 bcbd ca3e 5ebd
00000040: 4aab 763a c71f 203c 2983 aabc 4793 96bd
00000050: da54 29bd 76bd 90bb 4e92 66bd 2c12 77bd
00000060: 4a03 02bc 2d74 ad3c eab0 0ebc 4637 80bd
00000070: 049a 073b 94d8 903d 7461 183d 4a57 14bd
00000080: 0018 963c 2ff4 60bc 360a 5a3d 5758 b6bc
00000090: 1ecc 823d f855 89bb 1a01 39bd 2ebf cdbb
000000a0: b81b 52bd 237b 74bd 3511 eabb 06a1 983c
000000b0: 1e2d 193c d2ed 493d 1eba c43b 90bc 58bd
000000c0: b3de c4bb 102b d2bc 1450 8abc a943 c33d
000000d0: 15d6 893c 24af e5bc 61bd 5fbd 5110 77bd
000000e0: 1eb7 e23c c361 b93c 0832 753d 078c cdbd
000000f0: fb66 5dbc 79da 4d3d 12ae 093c 0ad8 e1bd
00000100: 7bfe 7fbc 8302 00bd f614 4a3c c58f 1f3c
00000110: d57f bbbc b7f3 7bbc 5f80 48bd 020c c03c
00000120: 8483 98bc d1bf 42bd 6154 b0bb b0d3 06bd
00000130: 266f e0bc d07c ddbd da6a 40bc e7e1 1f3c
00000140: 8861 1b3d 2222 8bbc c55a a2bb 26df 713d
00000150: d99b 89bd dd9f 7bbd 8b50 3c3c e11f 14bd
00000160: 89aa 30bc 2297 5fbd 0ce6 2e3c fe5b ca3c
00000170: 890c bb3d f90e 0ebc 63f2 b43c 36b7 eaba
00000180: f31e 863b 6fb0 1f3d 3755 e23d 044c 24bd
00000190: e95c c03c ac8e 703d 90f9 273d 4912 a1bc
000001a0: 9301 cf3d a258 f9bc 53c5 4a3d b8e6 c6bd
000001b0: fff3 c3ba 4698 a2bd 4ec7 ddbc 3b38 5bbc
000001c0: ca0f 2c3d 6343 2d3d b4c3 153e 95f9 47bd
000001d0: 48bd c13b bff4 093e ad87 33bd 1e48 b8bd
000001e0: 48c6 17bd 6120 efbb 8a0a acbd fe82 4d3c
000001f0: dc96 8dbb c70f 523d 04fe 6c3c ca9a b3bc
-0.0038243043 0.04695188 0.03508409 0.0020977175 0.06385211 -0.06361642 -0.0031694493 0.027127393
-0.060316257 0.061705675 -0.11250276 0.1086664 0.16076107 0.057387125 -0.09221199 -0.0542591
0.00094096793 0.009773201 -0.020814495 -0.0735231 -0.041340686 -0.0044171168 -0.05629187 -0.060320064
-0.0079353545 0.021173561 -0.008709172 -0.062605426 0.0020691166 0.07072559 0.037202314 -0.036216058
0.018321991 -0.013730093 0.053232394 -0.02225892 0.063865885 -0.0041911565 -0.045167066 -0.006278894
-0.051295966 -0.059687745 -0.0071431645 0.01863147 0.009349136 0.04929907 0.006003632 -0.052914202
-0.006007993 -0.0256553 -0.016883887 0.095343895 0.016825715 -0.028037615 -0.054623965 -0.060318295
0.027675208 0.022629624 0.059862167 -0.10036474 -0.013513322 0.05025718 0.008403318 -0.11027534
-0.015624638 -0.031252395 0.012334099 0.009738867 -0.022888104 -0.01537793 -0.04895055 0.023443226
-0.018617399 -0.04754621 -0.0053811525 -0.032916725 -0.02739675 -0.10814822 -0.011744225 0.009758449
0.03793481 -0.01698405 -0.004954668 0.0590507 -0.06719179 -0.061431754 0.011493812 -0.036163215
-0.010782846 -0.05458749 0.010674965 0.024702068 0.0913325 -0.008670562 0.022088235 -0.0017907384
0.004093045 0.03898662 0.1105141 -0.040111557 0.023481803 0.058729813 0.041009486 -0.01966204
0.10107722 -0.030437771 0.04950459 -0.09711975 -0.0014950036 -0.079392 -0.027072575 -0.013380106
0.042007245 0.042300593 0.14625436 -0.048822004 0.0059124567 0.1347227 -0.043830562 -0.0899813
-0.03705433 -0.007297561 -0.08400448 0.012543438 -0.0043209624 0.051284578 0.014464859 -0.021924395

action_model._continuous_distribution.log_sigma f4 [1, 3]
00000000: 1111 1b40 eb72 e73f 06e7 f13f
2.4229167 1.8081945 1.8898628

action_model._continuous_distribution.mu.weight f4 [3, 128]
00000000: 5258 9abc 1905 eabd 6390 aebd b25b 4bbb
00000010: ef27 0fbd 53b7 83bb 7ce0 6cbc d214 57bd
00000020: 28b7 89bd b759 5cbd 02fa 553c 55dc 97bd
00000030: 1757 d7bd 2986 8cbd f7b4 a6bb 3b62 49bd
00000040: bb44 d0bc ea88 923d 1bcb 9cbd fb2b 9fbc
00000050: 014f 43bc 1c8b 163b 6741 7cbd e427 d63c
00000060: 48db 50bd 1a5b 4bbd 7da5 86bd 894b 9bbd
00000070: feac 92bc 14e8 8a3d 2932 173d b81f 86bd
00000080: 71e4 c4bc a016 e7bd de4e 913d 4ef0 12bd
00000090: 1397 25bd df7a 20bd a0f7 9e3d 92d5 ce3d
000000a0: 7c96 9fbd 83d8 263c 05ec 49bd c602 debd
000000b0: b899 3bbd 2966 763c 8a8e 99bd b78b 55bc
000000c0: 5943 88bc b0e2 b1bd 6c7c c9bd e9b3 22bd
000000d0: f0e5 0e3d bff7 32bd 23a4 55bd 393e 2dbb
000000e0: d123 b33d 25bd f3bd d7fc 01bc 8ba2 65bc
000000f0: edb5 a4bd 4e4c a7bd 253d c5bd 547d 38bd
00000100: 3ad9 5ebd f7bf ffbc 356c 49bb fbcd 763d
00000110: 6287 38bd 43d3 87bd e831 9ebd 58ef dc3c
00000120: 2686 f4bc 9c63 27bd 80da 4a3c 046c 9ebd
00000130: af0c 97bd d366 5dbd fb8a f9bc 628b c8bd
00000140: 81be de3d bdcc 9cbc 3b75 91bc c7f2 2d3d
00000150: a146 6d3c 4703 883c 27e5 8c3d 15fb 01bd
00000160: 0694 69bd fdfc 38bd 78b2 713d 0333 92bd
00000170: 363a 1abd 95f5 50bd 447c 1ebe 54b4 93bd
00000180: e4d3 dbbd 36bc 91bc effc 7dbb 5d05 13bd
00000190: 5d10 9bbd 9e4b 8abc b2e9 b2bd 795a ef3d
000001a0: 1192 52bd 0a5c fabc efac 353d fdcc ab3d
000001b0: 54f5 54bd 8c1a 35bc da39 b3bc a038 513d
000001c0: 39ba 27bd 5267 a7bd 6b30 25be 6b16 a8bc
000001d0: 9d1b 17bd 5991 e63d 1050 0e3d 38c6 60bd
000001e0: 7c18 3bbc 387c 83bd 2afe 273d 0f52 84bd
000001f0: c980 b8bd 20ae 813d 0237 98bd 2bc1 d73c
00000200: f05f 25bd dc6f 08bd eb3b 0e3c ef0b 043e
00000210: 4f53 c4bd 25f2 e33c 75a0 583b a37f f53d
00000220: 1900 e63b 3e91 a9bc dd34 8b3d 6536 3bbe
00000230: 228c 79bd 6daa 4cbb 627d de3c 1177 a4bb
00000240: e0eb c7bc d9fb ba3c 84d5 633d 9ecb 31bd
00000250: e1e0 0abb 0fe9 8c3d 772b 6e3d 19a7 a23c
00000260: fbe1 8ebc e082 fe3c 11dc 41bc 81df 443c
00000270: d459 3cbc ff27 9b3d 2f40 1bbc 7b07 d03c
00000280: 6d5b 8cbd dab7 ab3d 0819 73bd 769d ab3d
00000290: b2cf ffbb 6cf8 843d 6c39 533d c3e6 50bd
000002a0: 4f12 63bc faa5 a13d 6145 25bb e849 b13c
000002b0: 132d 3cbc 3fb1 b5bd a7b4 83bc 307e 8dbc
000002c0: 5ae2 0f3e f3df f4bc 4f27 663c 8823 543b
000002d0: b520 ae3d a0b2 a7bb c394 f3bc c250 32bd
000002e0: 4cdd 1e3d 9b99 2dbc dbcf 0ebd 5dbb 9abd
000002f0: aabe 8d3c 486a 97bd 9042 9fbb f0fc eb3b
00000300: 681a 0dbd 774f a83d c488 78bd 5abc 7cbc
00000310: a1b8 e2bc 5328 153c ac05 c3ba ae5e b43d
00000320: 8bf5 bc3b 5c8f f33b 4726 a2bc 9e48 143c
00000330: 1161 823d 01d1 66b8 5991 17bd 6c57 7fbb
00000340: a9e8 d4bd dfd4 293d c630 433c 91ee 133d
00000350: ac4d 493c c41d 4abc 5a29 cabd 9816 ee3b
00000360: a9ee dbbd bae1 213d 47dc b33d d0d9 0bbd
00000370: e6a6 9cbd 7eb0 483d e5ca a7bd fe1c 1abc
00000380: a5c2 d03d df6f e6ba c6a9 00be 9748 f7bb
00000390: 3472 caba 4c03 c33d aa3e 463c 447b d73d
000003a0: 359a b3bb 8dd6 673b 8b45 22be 0242 60bb
000003b0: 7e8f 303d 4adc 52b7 eda3 2cbd 59c1 23bd
000003c0: f86f 28bd f71d 7bbb 0273 8c3d 0425 27bd
000003d0: 5536 19bd 424f 6dbd 05f4 c13d f0f6 f13b
000003e0: 24f8 dbbc 19c1 073c 86ed 9bbb 2ec0 0a3a
000003f0: 3052 f1bc a109 5fbc 9d56 24bb e9d5 bdbd
-0.018840943 -0.114267536 -0.08523633 -0.0031029996 -0.034950193 -0.0040196567 -0.014457818 -0.05251009
-0.067243874 -0.053796496 0.013060095 -0.07415072 -0.10514658 -0.068615265 -0.0050874907 -0.049165946
-0.025423398 0.071550205 -0.07655927 -0.019430151 -0.0119206915 0.00229711 -0.06158581 0.026142068
-0.050990373 -0.049647428 -0.06574533 -0.075827666 -0.017904755 0.06782547 0.03691307 -0.065490186
-0.02403471 -0.11283612 0.07095121 -0.035873704 -0.04042728 -0.03917968 0.077620745 0.10099329
-0.077923745 0.010183456 -0.04929735 -0.10840373 -0.045800894 0.015039005 -0.0749789 -0.013033799
-0.016633676 -0.08685815 -0.09838185 -0.039722357 0.034887254 -0.0436933 -0.052158486 -0.0026434793
0.08747066 -0.11901311 -0.007933817 -0.014015804 -0.08042512 -0.08168851 -0.09630803 -0.045041397
-0.054406382 -0.031219466 -0.0030734662 0.060255032 -0.045050986 -0.06632092 -0.077243626 0.026969597
-0.029849123 -0.04086648 0.012381196 -0.07735446 -0.07375466 -0.05405314 -0.030461779 -0.0979221
0.108761795 -0.019140596 -0.017756095 0.04246786 0.014482171 0.016603125 0.06879645 -0.03173359
-0.05702593 -0.045163143 0.05900809 -0.07138636 -0.03765317 -0.051015455 -0.15477091 -0.07212129
-0.10733774 -0.017789941 -0.0038755496 -0.035893787 -0.075714804 -0.01688176 -0.0873598 0.11687178
-0.05140883 -0.030561466 0.044354375 0.08388708 -0.051991776 -0.011053693 -0.021878172 0.051079392
-0.04094908 -0.08174004 -0.16131751 -0.020518502 -0.03689157 0.112581916 0.034744322 -0.054876536
-0.011419412 -0.06420177 0.041013874 -0.06460964 -0.09008939 0.0633204 -0.07432367 0.026337227
-0.040374696 -0.033309802 0.008681278 0.12895177 -0.09586202 0.027825424 0.0033054624 0.119872354
0.0070190546 -0.02069914 0.06797192 -0.18282469 -0.060924657 -0.0031229511 0.027159397 -0.0050190766
-0.024404466 0.022825168 0.055623546 -0.043407075 -0.0021191167 0.0688039 0.05814692 0.019855069
-0.01744174 0.031068265 -0.011832253 0.012016178 -0.011496026 0.07575988 -0.009475752 0.025394192
-0.068533756 0.08384676 -0.059350044 0.08379643 -0.0078067416 0.06492695 0.051568434 -0.05100132
-0.013859346 0.07892986 -0.0025218355 0.021641687 -0.011485356 -0.08871698 -0.016077353 -0.017272085
0.1405119 -0.029891944 0.014047458 0.003236981 0.08502332 -0.0051177293 -0.029734021 -0.043534048
0.038785264 -0.010595704 -0.034866195 -0.07555268 0.01730283 -0.073933184 -0.00486023 0.0072017834
-0.03444901 0.08218282 -0.060677305 -0.015425766 -0.027675929 0.009103852 -0.001487901 0.08807121
0.0057665757 0.0074328613 -0.019793643 0.009050516 0.0636617 -5.5030923e-05 -0.03700385 -0.003896202
-0.10395939 0.041462775 0.011913484 0.036116187 0.012286585 -0.012336198 -0.098711684 0.007265877
-0.1073888 0.03952191 0.08782249 -0.03414327 -0.07649021 0.04899644 -0.08192996 -0.009406326
0.101933755 -0.0017580948 -0.12564763 -0.007546495 -0.0015445412 0.09522113 0.012099901 0.10521558
-0.0054810294 0.0035375685 -0.15846841 -0.0034219031 0.043105595 -1.2568265e-05 -0.04214852 -0.039979313
-0.041122407 -0.003831742 0.068578735 -0.040806785 -0.03740533 -0.057936914 0.09470371 0.0073841736
-0.026851721 0.008285784 -0.0047585396 0.0005292919 -0.029458135 -0.013613136 -0.002507604 -0.09269316

action_model._continuous_distribution.mu.bias f4 [3]
00000000: 9db4 71bd e83e ecbc 4c17 cebd
-0.059010137 -0.02883859 -0.10063037

action_model._discrete_distribution.branches.0.weight f4 [2, 128]
00000000: edec d5bc 813e adbd 19b6 b93b eee3 153d
00000010: 846c 42bd 9ef9 9e3c e0a1 87bc 6985 273d
00000020: 86ec 513d 1f12 e0bc a8f7 3d3d 8ca1 003b
00000030: 46f7 873c 1688 29bd 0ba7 19bd 01a0 c0bc
00000040: ca7d d1bc e451 293d 445c 693d 5c32 0e3b
00000050: 56ac 1d3d 2295 913d 202c 56bd 9ddd 8abc
00000060: 3f8d d2bd 464c 99bd ca24 cc3c 0f63 49bd
00000070: 7191 773b 06d6 203d f340 c83c 537f 5abd
00000080: 07c2 1ebd d88e 3d3c 5813 d83c 763e 0b3d
00000090: c084 c9bd b6f1 b43c fac5 2cbd 18fb 923c
000000a0: 43be 20bd 565a f93c f755 333d e472 fa3c
000000b0: c16f abbc 2514 f33b 9fff b33c 6d06 fe3c
000000c0: e2d5 a0bc 7708 7b3d 2788 c5bd b19b 10bd
000000d0: b71b d8bc c666 39bd a63f d8bc af01 453d
000000e0: 9b74 c139 ec9e b6bd 2322 b3bc f558 acbb
000000f0: 4de0 6dbd da4d 0ebd 2fa2 81bd bfc1 1bbd
00000100: a782 43bc c0c8 36bb 7c54 67bd 2729 c73b
00000110: 23a6 4c3d a5f3 7cbd c821 78bd a4d1 0a3d
00000120: abb9 a8bd c5b1 8a3c 8468 b23c 7153 c4bd
00000130: 9bfc 9bbd c306 963c 3e70 24bd 8c91 32bd
00000140: 9e43 7a3c 24e9 c5bb d386 043d 7e0a 84bc
00000150: dce8 0f3c f1e3 553d 9b53 273d 7163 713d
00000160: f85c 85bd 4e6f 15bc 29de 313d 62d1 ab39
00000170: 8f97 d53c 4e25 053d 8c39 d93c 6b62 3fbd
00000180: d7cc aa3c 2c15 81bc da1e faba 8146 e6bc
00000190: 8b39 9dbd cfad 133d c5a5 8abd 4b63 8f3c
000001a0: dc6c 533d 9f5a e23b fab9 f83c 8eac 1cbd
000001b0: 84d8 253d 931c 0b3d 5747 78bd 399e 043d
000001c0: c8a7 90bd f022 aebd 718b 9d3c 3ebf 093d
000001d0: 28ee 49bd e442 d13c 4635 d53c 534c bcbd
000001e0: 8bed d9bc 716f 673c 4acb 173d d166 bfbd
000001f0: 519e f9bc 2b30 d4bb 245b 9fbd 5111 803a
00000200: d2d7 003d f291 c33d 1a47 82bc 229a 83bc
00000210: 3acf 9f3d 2f99 b4bc 498e 2a3c 6450 55bd
00000220: 2979 5bbd 64f2 2c3d 5f74 4bbd 9b35 42ba
00000230: 1004 56bb c8d6 0c3d 4887 df3c 7eb1 f83c
00000240: 677e 683c c77d 02bd 32f7 97bd 1b36 dcba
00000250: 6c69 09bd 74b9 07bd 8503 733d c4e9 243c
00000260: abae c33d 55a0 833d 4eef fabc 64b3 5c3d
00000270: 3f62 f3bb 120a 00bd dbf3 d3ba 39f9 343d
00000280: 082d 1e3d 919f ebbc 1e8d 2fbc f6aa d5bc
00000290: bdf6 d53d 6974 a0bc 86f7 a23c f997 6fbc
000002a0: a270 3f3d 0ad2 c7bc e56d 67bd 1b17 22bd
000002b0: 7dce 913c db55 50bc 12ff cfbc 6810 8ebc
000002c0: f76d 053d ed1d 47bd 1cbf b83d 3c3b 183d
000002d0: 3d62 013d d102 473d b04f 983c ecf1 acbd
000002e0: f56b 6abc 51e7 9b3d 5881 b139 dee1 263c
000002f0: 1dff 843d ab1c d43c e99a a63d c806 363d
00000300: 65cf 893c 17e1 d53c a70d 5f3d ca42 25ba
00000310: 651a 26bd 63c1 1a3d 9581 683d 88ff 59bd
00000320: a340 9c3d 05b3 f5bc 4567 43bd fad2 f73d
00000330: dbef 863d 270b 97bc acc7 223d 7f07 833d
00000340: e436 93bc ed86 83bb 153c efbc acf4 9abc
00000350: 0293 86bc 423b 63bd 9205 29bd ca36 2abd
00000360: d8cf 8c3d 03bd 823b 16bd aabc ab02 23bc
00000370: 258f c7bc 52af 97bc efe5 4bbd ecd8 363d
00000380: 8fb9 cfbc 506d ddba 10d3 57bb abdb 1a3d
00000390: ed06 9e3d 5df0 8dbd 9f8b 8b3d aa55 84bc
000003a0: d4fd f7bc 3651 943c 9a04 21bd 7c1c e93c
000003b0: 4093 42bd 20de febc f214 8a3d f131 1abd
000003c0: c416 b93d b4a3 b03d 24b4 0cbc 7004 d6bc
000003d0: 2749 b73d a312 0fbd bf3b 1fbd ce8d cc3d
000003e0: be93 223d c590 85bc 941a 4bbd 5cb9 8b3d
000003f0: 838a 303d 4813 463b 3440 9d3d f200 c73b
-0.026113952 -0.08459187 0.0056674597 0.036594324 -0.04746677 0.019406136 -0.01655668 0.040898714
0.051250957 -0.02735239 0.04637876 0.001962754 0.016597401 -0.041389547 -0.03751282 -0.023513796
-0.025572676 0.041337863 0.056972757 0.0021697497 0.03849443 0.07108523 -0.052288175 -0.016951377
-0.10280847 -0.07485251 0.024919886 -0.049166735 0.0037775899 0.03926661 0.024445033 -0.053344082
-0.038759258 0.011569701 0.026376411 0.033995114 -0.09839773 0.022087913 -0.042180993 0.017941996
-0.039243948 0.030438583 0.043783154 0.030572362 -0.020927312 0.007418173 0.021972476 0.031008923
-0.019633237 0.06128737 -0.096451096 -0.03530473 -0.026380403 -0.045264028 -0.026397537 0.04809731
0.00036898706 -0.08917031 -0.021866864 -0.005259628 -0.058075238 -0.034742214 -0.06329762 -0.038026568
-0.011933005 -0.0027890652 -0.056477055 0.006077904 0.049963128 -0.061755795 -0.06057909 0.033891335
-0.08238538 0.01693047 0.021778353 -0.09586228 -0.0761654 0.018313771 -0.040146105 -0.043595836
0.01527491 -0.0060397554 0.03235514 -0.016118284 0.008783545 0.052219335 0.040851217 0.058932725
-0.06511873 -0.009120775 0.04342476 0.00032771664 0.026073245 0.03250628 0.026516698 -0.046724718
0.020849628 -0.015757166 -0.0019082681 -0.02810979 -0.07676991 0.03605443 -0.06769899 0.017503401
0.05161749 0.0069077755 0.030362118 -0.0382505 0.04048969 0.033962797 -0.06061491 0.032377455
-0.07063252 -0.085027575 0.01923153 0.03362965 -0.04929939 0.025544591 0.02602638 -0.09194245
-0.026602527 0.014125691 0.037059106 -0.093457825 -0.030470999 -0.0064754686 -0.077810556 0.0009770786
0.031455822 0.09549321 -0.015903044 -0.016064707 0.07803197 -0.0220457 0.0104099 -0.05207862
-0.053582344 0.04222335 -0.049671527 -0.00074085005 -0.003265623 0.03438452 0.027286187 0.030358072
0.014190293 -0.031858232 -0.07420196 -0.0016800793 -0.033547804 -0.033135846 0.05932953 0.0100655
0.095548 0.06427065 -0.030631687 0.053882018 -0.0074274833 -0.031259604 -0.0016170697 0.04418299
0.038617164 -0.02876261 -0.010714797 -0.026082497 0.10447452 -0.019586759 0.019893419 -0.014623635
0.046738274 -0.024392147 -0.056501288 -0.039572816 0.017798657 -0.012715782 -0.025390182 -0.017341807
0.032575574 -0.048612524 0.09020826 0.037165865 0.031587828 0.04858667 0.018592685 -0.084445804
-0.0143079655 0.076124795 0.0003385644 0.010185687 0.064939715 0.025892576 0.081350155 0.04444006
0.016822526 0.026108308 0.05445638 -0.0006304203 -0.040552516 0.037782084 0.056764204 -0.05322221
0.07629516 -0.02999259 -0.047705907 0.121007875 0.065887176 -0.018437935 0.039741203 0.06397914
-0.01797051 -0.004013887 -0.029203454 -0.018915497 -0.01642752 -0.055476435 -0.041265078 -0.041556157
0.068755805 0.003989817 -0.020842116 -0.009949367 -0.024360249 -0.018516216 -0.04977983 0.044640467
-0.025357036 -0.001689354 -0.00329322 0.037807148 0.07716165 -0.06930611 0.0681374 -0.016154129
-0.030272402 0.01810513 -0.03931103 0.028455965 -0.04750371 -0.031111777 0.06742276 -0.037645284
0.09037545 0.08624974 -0.008587871 -0.026125163 0.089494996 -0.034929883 -0.038875338 0.099879846
0.03969168 -0.016304383 -0.049585894 0.06822464 0.043100845 0.0030223895 0.076782614 0.0060731107

action_model._discrete_distribution.branches.0.bias f4 [2]
00000000: 9a76 90bd 976b 903d
-0.070538715 0.07051771

exp_avg f4 [128, 18]
00000000: b9ec c339 3c87 9739 eb4a 363d 7238 6b3a
00000010: 6126 44bb a116 cf3d 61ac b539 735a 8c39
00000020: 8de1 2d3d e0ce 6e3a 2c9f 3dbb f2e8 cd3d
00000030: d7e4 a639 1f88 8339 2840 213d fd15 b13a
00000040: f3a2 08bb 1e4e a33d 6a9c 2f39 6ade b138
00000050: d501 563b 4321 ac38 feaf adb9 6a55 243c
00000060: 122c 2f39 f4d6 a438 6df6 76b9 1240 5c39
00000070: 024d 01b9 813d 8d3b 01bc a7b9 acbb bbb8
00000080: 1569 cebc 069e 57b8 bf30 213a b3d7 7bbc
00000090: df9a 8a39 7ec7 d138 f739 38ba 959f 7e36
000000a0: 0dfe 1e39 eb71 e5bb eaa3 8b39 8fd9 d538
000000b0: e1d0 05ba e0e6 8036 ce0d 1f39 5d75 e5bb
000000c0: 25a6 8c39 5d4f da38 259b a7b9 17ff 8136
000000d0: 5617 1f39 c881 e5bb ccf8 26ba 7ed2 b2b9
000000e0: e5c6 d2bb 1988 01ba 652b 143a df98 52bc
000000f0: 1543 37ba 37e5 bdb9 890e 24bc e59a d8b9
00000100: 76fc 493a 847b adbc 727f 16ba e6df 9ab9
00000110: 2bad 63bb f7e0 42b9 e451 613a 0584 c0bc
00000120: a311 bb3a 0997 003a 274a 87bc c80a 1dba
00000130: f3b7 213b 7c25 cfbd 1751 bb3a 678b 063a
00000140: 4ea7 95bc 919a 0cba 6761 263b be9f d8bd
00000150: 89ca ed3a 14ca 2e3a 98f5 c53a 8b6e a4b8
00000160: f009 243b 1c92 d6bd 609e f3ba 631f 4aba
00000170: a08b bdbb b61b f0b9 915a 253a d5a9 febb
00000180: 5a8b f3ba 1f12 4aba e1b8 c0bb 54f2 efb9
00000190: a367 253a c5e1 fdbb 09b5 feba bec0 53ba
000001a0: e899 22bc 42a0 0bba 3bd6 3e3a 7f69 27bc
000001b0: 188d 8b3a eeb3 e639 1d47 d6bb d007 c4b8
000001c0: 205b a33a e53d 4fbd 5e57 8d3a e3dc ed39
000001d0: 51a2 b6bb c174 42b9 cc81 8c3a 2345 3dbd
000001e0: 9f21 8f3a c805 f539 57fd 96bb f85c edb9
000001f0: c035 143a b50a 09bd 45ff a23a 75be 083a
00000200: 3f87 c63c e19b d539 d0d7 f5ba c47a 1a3d
00000210: e973 a73a e27e 143a ffa8 773c 8987 153a
00000220: acb6 f3ba 7d6b 0e3d d123 823a 2d90 f939
00000230: 729c 2e3b 76fb 3d3a 20d6 49ba 963c 0d3c
00000240: bb0e 3439 ee4b ac38 ddaf 453b 9ba0 8bb7
00000250: 4253 d2b9 f246 343c fc1e 0339 b053 5a38
00000260: 0f21 62bb 4aeb 15b9 6687 0cba ae48 6a3c
00000270: 1b32 0239 ecb8 5338 8405 71bb 3a18 6739
00000280: 31b4 1f39 4e27 46bb 2c3f 4ab2 1358 00b5
00000290: 0c32 e334 5bab e8b4 66b2 8a34 c638 b034
000002a0: 08ff 94b2 1cb2 fdb4 d688 6d34 5bab e8b4
000002b0: 66b2 8a34 c638 b034 07e7 1035 2e2b 8eb6
000002c0: f99b f3b8 4c33 72b4 dedd b535 6daa 26b6
000002d0: ec3e 8137 b91b b537 dcdd 9739 316e 8a38
000002e0: 5498 2e37 4920 a637 0176 7e37 2fc1 ab37
000002f0: cea2 b339 8c82 8a38 b1d6 3337 65da 9c37
00000300: c90e ce37 8ed9 9a37 196b 2a3a c986 9938
00000310: 6c65 1b36 c7ff 9239 66a3 073b 11d0 833a
00000320: c231 493d 9236 b83a 6161 6cbb 8adb d23d
00000330: 82d8 053b 2e76 823a 1688 273d 27de b73a
00000340: ffe5 6bbb 1b49 d53d 8f03 043b 7a64 813a
00000350: 6f6c 243d 9595 083b 2c17 16bb ce59 923d
00000360: bcc7 aa38 c56f c237 a316 af3a 89f6 8139
00000370: 29db 8c38 daf1 5339 e95e a638 5a41 b337
00000380: b000 fa3a 72c1 8239 e278 8938 a30a 8839
00000390: bf31 a238 e9ee ab37 981c f13a d4ea 8239
000003a0: 9321 8938 4392 7839 d908 88b9 c611 e9b8
000003b0: 7d72 c3bb cef6 65b9 b501 533a 9ff5 d2bc
000003c0: 81d5 84b9 2a5a dcb8 9b35 b2bb 0b9d a1b9
000003d0: 8ed0 263a 5133 b0bc 33a2 81b9 8da2 cfb8
000003e0: 5227 a4bb 5c24 45ba a5bc 56b9 fb28 b1b9
000003f0: ce0c f4b8 bf94 a9b6 a69e 0aba 06cb cdb9
0.0003736967 0.00028901722 0.04450504 0.00089729496 -0.0029930102 0.10111738 0.00034651443 0.0002677027
0.04245143 0.0009109806 -0.0028933985 0.100541964 0.00031832486 0.00025087685 0.039367825 0.0013510581
-0.0020849078 0.07973884 0.0001674757 8.4814455e-05 0.00326549 8.2077946e-05 -0.00033128256 0.01003013
0.00016705718 7.8601675e-05 -0.00023552189 0.00021004703 -0.00012331086 0.0043103104 -0.00031992796 -8.9518115e-05
-0.025196591 -5.1407165e-05 0.00061489263 -0.015371251 0.000264368 0.00010003055 -0.00070276804 3.7941838e-06
0.00015162695 -0.0070021055 0.00026634271 0.00010197155 -0.0005104673 3.8415747e-06 0.00015168564 -0.007002516
0.00026826668 0.000104098326 -0.00031968314 3.874196e-06 0.00015172115 -0.0070039965 -0.0006369471 -0.00034107635
-0.0064324015 -0.00049412396 0.0005652218 -0.01285383 -0.0006990892 -0.00036219668 -0.010013231 -0.00041314136
0.0007705161 -0.02117706 -0.0005741037 -0.00029539986 -0.0034740667 -0.00018585088 0.00085952715 -0.023500452
0.0014272224 0.00049053185 -0.01651485 -0.0005990681 0.0024676293 -0.101145715 0.0014291134 0.0005132467
-0.018268254 -0.00053636084 0.0025387646 -0.105773434 0.0018142025 0.0006667685 0.00151031 -7.8407196e-05
0.0025030337 -0.10477087 -0.0018586628 -0.00077103655 -0.005784467 -0.00045797013 0.0006307746 -0.0077717104
-0.0018580959 -0.0007708389 -0.0058814143 -0.0004576618 0.00063096936 -0.007747861 -0.0019432615 -0.0008077732
-0.009924389 -0.00053263095 0.00072798476 -0.010218023 0.0010646908 0.00044003077 -0.006539239 -9.3474635e-05
0.001246307 -0.050596137 0.0010783484 0.00045368736 -0.005573549 -0.00018544776 0.0010719835 -0.046208512
0.0010920054 0.0004673435 -0.004607837 -0.0004527343 0.00056537613 -0.033457477 0.0012435695 0.00052163686
0.024234412 0.00040742665 -0.0018756334 0.037714735 0.0012775633 0.0005664659 0.015115975 0.0005704095
-0.0018593869 0.034770478 0.0009928887 0.000476004 0.0026643542 0.00072472484 -0.00076994486 0.008620402
0.00017171625 8.215742e-05 0.0030164637 -1.6644879e-05 -0.00040116353 0.011003243 0.00012504676 5.205319e-05
-0.0034504568 -0.000142974 -0.0005360752 0.014299555 0.00012416432 5.0478542e-05 -0.003677697 0.00022038902
0.00015230548 -0.003023583 -1.1772311e-08 -4.781188e-07 4.231846e-07 -4.3338045e-07 2.5834305e-07 3.2823863e-07
-1.7345442e-08 -4.7254514e-07 2.2122126e-07 -4.3338045e-07 2.5834305e-07 3.2823863e-07 5.398037e-07 -4.2369566e-06
-0.00011616195 -2.2556668e-07 1.3550123e-06 -2.4835128e-06 1.5407299e-05 2.158979e-05 0.00028966262 6.6008775e-05
1.0406675e-05 1.9803776e-05 1.5167055e-05 2.0474747e-05 0.0003426284 6.604669e-05 1.0719218e-05 1.8698347e-05
2.4563999e-05 1.8459537e-05 0.0006500944 7.320714e-05 2.3155835e-06 0.0002803786 0.0020696758 0.0010056515
0.04911972 0.0014054349 -0.0036068785 0.1029578 0.0020423238 0.0009953433 0.040901266 0.0014027999
-0.0035995243 0.104143344 0.0020143723 0.0009871863 0.040142473 0.002084111 -0.0022901995 0.07146035
8.143435e-05 2.3178649e-05 0.0013358187 0.0002478848 6.716542e-05 0.00020212625 7.933175e-05 2.1368895e-05
0.0019073691 0.0002493966 6.555185e-05 0.00025947866 7.734028e-05 2.049604e-05 0.0018395362 0.00024970493
6.538923e-05 0.0002370561 -0.00025946533 -0.00011113616 -0.005964576 -0.00021931084 0.00080492656 -0.025751887
-0.00025336075 -0.00010507212 -0.005438519 -0.0003082532 0.00063634745 -0.021508845 -0.00024725645 -9.9008066e-05
-0.00500957 -0.00075203716 -0.00020478906 -0.00033790604 -0.00011637212 -5.053909e-06 -0.00052879227 -0.0003925191

exp_avg_sq f4 [128, 18]
00000000: 8b4e 3d37 45b0 2637 da5c 5b3b fa0d fd36
00000010: 55a2 0437 66ea 963c ddc8 4037 6d94 2737
00000020: 1c35 823b 1b14 fe36 6eee 0437 7042 953c
00000030: 5685 4337 cd22 2837 d2fd 923b 6bd7 fc36
00000040: 9ae8 0337 746f 913c 6fa5 fd36 3a23 aa36
00000050: 99a5 883b 45c9 8136 8f22 7036 0f1f 8c3b
00000060: 9118 0137 c4bb ab36 e285 ad3b 817c 8136
00000070: 1813 6d36 9c8c 803b c9ef 0d37 669e ce36
00000080: 2291 0e3c e175 9936 a7d8 8836 346f a23b
00000090: b90e 0936 e863 c635 7eb9 8a39 e7fd 8435
000000a0: ae0c 9c35 db4b 0d3b 3a73 0b36 f6d4 c635
000000b0: 71e6 f138 29d5 8535 32bf 9d35 1747 0d3b
000000c0: 8da5 0d36 66b4 c635 0028 8b37 6c50 8435
000000d0: d968 9f35 3e2c 0f3b 70b0 7037 e3e5 2537
000000e0: fd86 a23c ec0b 1b37 52fb 1b37 65f5 a03c
000000f0: 20c5 7637 a3a9 2937 d705 a43c 1669 2037
00000100: 8a69 1e37 ad48 a43c c711 7f37 fa9b 3337
00000110: 02d0 a83c d26b 2a37 18a0 2237 5fd0 a43c
00000120: 7ab7 c137 db26 9237 c97f da3c b40d 8237
00000130: 1a57 8237 b102 ea3c 66b7 c837 bb73 9537
00000140: 0aaf de3c f16c 8637 a5b2 8537 9037 f13c
00000150: cc09 cd37 080a 9637 1c2c e03c a7b1 8637
00000160: bab3 8837 ff44 ef3c a795 be37 7977 8237
00000170: e6ec 953b c1aa 1e37 3e26 4a37 3e56 cf3c
00000180: a2a1 c637 1e41 8437 9b51 223a 75e7 2437
00000190: 2881 5137 c94e e33c c55e d937 5ee0 9637
000001a0: 235f 7b3b 25f0 4837 f95f 6737 8d51 083d
000001b0: fdca 0e36 6947 e735 0e87 2338 5894 7035
000001c0: 30aa 0e36 79e5 473b 927e 1136 9b67 ea35
000001d0: 792b e737 04b5 7635 9626 0d36 c09e 433b
000001e0: be3b 1436 209a ed35 acc8 9d37 afac 7935
000001f0: 646e 0636 b5be 303b 5914 8e38 db79 4438
00000200: 409a 893d 4ac1 2138 c9c7 1e38 435a 913d
00000210: 6915 9138 14e5 4538 a339 813d 98d6 2338
00000220: 85b8 1d38 c47c 963d f34f 9338 528c 4638
00000230: 4217 883d a431 2738 9fdc 2038 cbcc 963d
00000240: fd1b 5835 ae57 2035 058f 3d3a 0337 2d35
00000250: d25b 1d35 7e73 2c3a 89f2 6235 3547 6535
00000260: cc78 0f3b 00a3 3835 921e 2635 0a29 1a3a
00000270: 75a1 6535 b9f0 6435 7a5d fc3a 85d3 4835
00000280: ef12 1a35 bbc8 ae39 e5a9 3434 1dd0 4633
00000290: 7cee d138 8d8b be32 d857 c733 42bf b335
000002a0: 5b7e 3534 8355 4333 a7b3 3c32 a24b b532
000002b0: 5b7c c333 d862 9835 f100 9834 309f bf33
000002c0: 96c7 203a d869 6034 b5a9 8934 9f72 f837
000002d0: 2777 5e35 0ec8 3935 175d e539 60d3 4434
000002e0: 35eb 2e35 ab21 5537 bd86 6435 237f 3a35
000002f0: 191b 103a 8542 4234 7876 3135 67e5 4937
00000300: 4872 9635 f1d2 5d35 d854 1b3b 327c 1635
00000310: 191f 8435 16b4 af38 c603 3138 90ca 0238
00000320: 139a 123d ef31 cf37 7054 dd37 ffb4 663d
00000330: 0a36 3438 335f 0338 8daa 0f3d a0d9 d037
00000340: 248e de37 d0ab 653d a6bb 3638 2ccb 0338
00000350: 3b12 103d f92d d337 9d3b db37 12bf 5f3d
00000360: d520 2136 05e6 0e36 d53c 873b 8f10 d935
00000370: 35d2 b635 5505 4e39 3dc3 2336 d7b0 1036
00000380: 6fa6 853b d3ec da35 af03 b835 d748 3e39
00000390: 0426 2636 67a9 1136 9dd5 7a3b cc02 dd35
000003a0: 34c8 b535 a4b7 3639 45d2 0a35 11b6 7c34
000003b0: fad3 243a 8cd5 e733 1ac0 5534 954c 103a
000003c0: b59f 0c35 a97f 7f34 2301 eb37 b5d0 e333
000003d0: 8779 4b34 685c df39 1573 0e35 5034 8134
000003e0: 9ce7 d937 d7d4 3e34 b158 aa33 3cb9 a336
000003f0: 444a 1f35 db3a ca35 2304 e13a 5c7b eb34
1.1283565e-05 9.935412e-06 0.0033472092 7.5416147e-06 7.905609e-06 0.018422317 1.1490859e-05 9.988534e-06
0.0039736163 7.5721305e-06 7.923327e-06 0.018220156 1.165395e-05 1.0021683e-05 0.004485824 7.535263e-06
7.862365e-06 0.01775334 7.5592466e-06 5.0704957e-06 0.0041701314 3.8679304e-06 3.5782903e-06 0.0042761634
7.694719e-06 5.118056e-06 0.005295501 3.8589938e-06 3.5326866e-06 0.003923012 8.460084e-06 6.1577184e-06
0.008701595 4.5734782e-06 4.0783375e-06 0.004957104 2.042316e-06 1.4781226e-06 0.00026459614 9.908662e-07
1.1626596e-06 0.0021560106 2.0779685e-06 1.4814129e-06 0.000115346986 9.97131e-07 1.1753057e-06 0.0021557265
2.1107e-06 1.4804652e-06 1.6588718e-05 9.858172e-07 1.1876938e-06 0.0021846439 1.4346195e-05 9.888291e-06
0.019839758 9.241496e-06 9.297235e-06 0.019648263 1.4708639e-05 1.0112682e-05 0.020022316 9.56121e-06
9.442107e-06 0.020054186 1.52033235e-05 1.07055475e-05 0.020606998 1.01578935e-05 9.693227e-06 0.02011889
2.309283e-05 1.742265e-05 0.02667226 1.5503589e-05 1.5537767e-05 0.028565736 2.392726e-05 1.7816075e-05
0.027183075 1.6024775e-05 1.5938023e-05 0.02944544 2.4442466e-05 1.7886065e-05 0.027364783 1.605677e-05
1.6296155e-05 0.029207705 2.2719452e-05 1.5552841e-05 0.0045753596 9.457291e-06 1.2049042e-05 0.025309678
2.3678705e-05 1.5765949e-05 0.000619197 9.829052e-06 1.2487442e-05 0.027747529 2.5912546e-05 1.7985873e-05
0.0038356266 1.1976842e-05 1.3791018e-05 0.033280898 2.1277804e-06 1.7231624e-06 3.8988008e-05 8.9622836e-07
2.125871e-06 0.0030501767 2.1680357e-06 1.7464512e-06 2.755759e-05 9.1905554e-07 2.1033097e-06 0.002984926
2.2088493e-06 1.7702732e-06 1.8809304e-05 9.3011016e-07 2.0031812e-06 0.002696914 6.774878e-05 4.684353e-05
0.06718874 3.8565406e-05 3.78562e-05 0.07097294 6.918127e-05 4.7181806e-05 0.063098215 3.9062084e-05
3.7603564e-05 0.07348016 7.024398e-05 4.7337562e-05 0.06645061 3.9862134e-05 3.8352442e-05 0.0736328
8.0507e-07 5.9732236e-07 0.00072310894 6.4527575e-07 5.8620674e-07 0.0006578489 8.4544496e-07 8.541277e-07
0.002189207 6.878254e-07 6.1884305e-07 0.0005880749 8.55441e-07 8.5286916e-07 0.0019253932 7.481361e-07
5.739702e-07 0.00033337422 1.6825614e-07 4.6289745e-08 0.00010010318 2.2182371e-08 9.282638e-08 1.3392203e-06
1.6902906e-07 4.5479748e-08 1.09838885e-08 2.1105567e-08 9.103015e-08 1.135365e-06 2.831289e-07 8.9230866e-08
0.0006133256 2.0900131e-07 2.5641717e-07 2.9617278e-05 8.2874834e-07 6.920899e-07 0.0004374764 1.833082e-07
6.516232e-07 1.2703628e-05 8.513269e-07 6.947541e-07 0.0005497202 1.8091858e-07 6.6110033e-07 1.20339455e-05
1.1209131e-06 8.2635876e-07 0.0023701694 5.606008e-07 9.843817e-07 8.378194e-05 4.2203603e-05 3.1183066e-05
0.035791468 2.4699575e-05 2.6384572e-05 0.056324955 4.2965672e-05 3.1321495e-05 0.03507476 2.4896872e-05
2.6530652e-05 0.056072056 4.3566943e-05 3.1422052e-05 0.035173636 2.5174568e-05 2.6134594e-05 0.05462558
2.400998e-06 2.1293538e-06 0.004127125 1.6172579e-06 1.3621235e-06 0.00019647677 2.4402536e-06 2.1560606e-06
0.0040786783 1.6311191e-06 1.371014e-06 0.00018146947 2.4758056e-06 2.170529e-06 0.0038274296 1.6466597e-06
1.3543818e-06 0.00017425284 5.171499e-07 2.3535564e-07 0.00062876905 1.079562e-07 1.9907057e-07 0.00055045757
5.238647e-07 2.3795168e-07 2.8014712e-05 1.0608475e-07 1.895006e-07 0.00042602723 5.306659e-07 2.4066185e-07
2.5976267e-05 1.777256e-07 7.932375e-08 4.8793427e-06 5.9340186e-07 1.5067302e-06 0.001716737 4.3861917e-07

exp_avg f4 [128]
00000000: e0fa ca39 d7d8 3db8 ebd2 e6b7 cdfb 8fb8
00000010: 811e bbb9 4ea4 35b7 3486 4ab9 1bba 9938
00000020: 5275 5137 0480 a3b4 0e2b cd36 d14f c939
00000030: 603e ec37 0a0c b5b8 ea26 2cb8 8593 4fb8
00000040: ed5c 6fb7 41c0 75b6 7a3a 6db9 5eef 9738
00000050: f413 16b9 568d 4d37 8d79 1837 65fe 8734
00000060: 93bd dab9 9742 1a37 5a18 9db8 29c0 1639
00000070: 5d20 0b39 ae80 ab37 db45 7938 490a 66b9
00000080: 654c 10b8 362f 61b8 9759 44b7 5bbe 39b6
00000090: 8380 87b9 8984 b537 2a9f 42b8 43b2 2439
000000a0: f058 bd39 fb62 92b8 6cce 37b8 8bcf 8139
000000b0: 2fcd b737 6fce 80b9 4b43 e135 8995 8a33
000000c0: 26b3 3136 99e3 a8b7 dd87 24b6 e68c 1034
000000d0: 5ad7 3b39 bd69 42b8 edd8 c338 1824 99b8
000000e0: 74cd 22b8 f61e beb8 f16b e3b7 863f beb8
000000f0: 2e2b 02b6 b2ed c238 7355 6139 44e6 7db8
00000100: 8593 edb8 e5b2 39b6 c27a 11b8 3824 b2b9
00000110: 39ea d036 866b 76b8 cd73 fbb6 2c52 a139
00000120: 32f8 aab8 3cc7 ea37 9a80 1cb9 02c2 c336
00000130: bc35 e1b5 cb28 d338 747c a1b8 8d15 ba39
00000140: 9785 9b39 0d9b 7fb7 a24c eab8 e54c 96b9
00000150: ec72 ec34 555f f736 fda4 1b39 d887 9bb7
00000160: 96b6 4437 5f5d 3db9 5365 5a39 2a1f 29b7
00000170: 83f9 e4b8 984c 8fb8 54f3 cd36 1dc3 a0b7
00000180: c5dd b0b7 9969 b1b8 cc2c 8e39 df90 b6b8
00000190: 415f 84b8 f440 56b8 2d71 0eb3 9cf9 feaa
000001a0: 863b d339 6b6b 073a 3c47 2439 d0c4 73b9
000001b0: 8058 3ab8 4d17 3933 4c25 3ab9 7df9 abb7
000001c0: 668a d1b8 c59a 7d31 e203 c9b6 af2e 82b3
000001d0: 59ac 4c39 302e a5b3 1730 8fb8 c9f4 55b9
000001e0: cb69 8539 14d8 2f38 7ee8 54b3 8f48 b3b8
000001f0: dc64 58b9 3974 1d39 6675 a6b8 1414 1635
0.0003871536 -4.526306e-05 -2.7516353e-05 -6.865673e-05 -0.00035690147 -1.0826696e-05 -0.00019314216 7.3302734e-05
1.24846865e-05 -3.045426e-07 6.1144883e-06 0.00038397175 2.8162438e-05 -8.632995e-05 -4.1044237e-05 -4.9490034e-05
-1.4267146e-05 -3.6619751e-06 -0.00022623866 7.244827e-05 -0.00014312548 1.22518595e-05 9.088207e-06 2.5330806e-07
-0.00041721444 9.194619e-06 -7.490879e-05 0.000143767 0.00013268129 2.044471e-05 5.9431284e-05 -0.00021938341
-3.4403423e-05 -5.368815e-05 -1.170337e-05 -2.767795e-06 -0.00025844955 2.1638598e-05 -4.6401437e-05 0.00015706666
0.00036115153 -6.980259e-05 -4.3822845e-05 0.0002475943 2.1910846e-05 -0.00024567868 1.6783391e-06 6.453326e-08
2.6479333e-06 -2.0133144e-05 -2.4516987e-06 1.3462304e-07 0.00017913934 -4.635168e-05 9.33873e-05 -7.3023315e-05
-3.8815153e-05 -9.065673e-05 -2.7110773e-05 -9.071738e-05 -1.9396643e-06 9.294915e-05 0.00021489504 -6.0534352e-05
-0.00011328518 -2.7671279e-06 -3.468502e-05 -0.0003397779 6.22615e-06 -5.875111e-05 -7.493864e-06 0.00030769536
-8.152462e-05 2.798775e-05 -0.00014925227 5.8340383e-06 -1.6779445e-06 0.00010068862 -7.7002594e-05 0.0003549274
0.00029663436 -1.5235285e-05 -0.000111722635 -0.0002866752 4.4042042e-07 7.3722717e-06 0.00014843415 -1.8540697e-05
1.1725022e-05 -0.00018059228 0.00020827846 -1.0080441e-05 -0.000109183624 -6.833038e-05 6.137803e-06 -1.9164343e-05
-2.1084104e-05 -8.459687e-05 0.00027117727 -8.7054206e-05 -6.311993e-05 -5.108207e-05 -3.3164884e-08 -4.5292665e-13
0.00040289405 0.0005165848 0.00015666796 -0.00023247604 -4.4428278e-05 4.309486e-08 -0.00017752236 -2.0500966e-05
-9.991675e-05 3.6904322e-09 -5.990719e-06 -6.0620884e-08 0.0001951916 -7.691813e-08 -6.827729e-05 -0.00020404453
0.0002544656 4.192449e-05 -4.9571547e-08 -8.5489e-05 -0.00020636938 0.00015015983 -7.937364e-05 5.590857e-07
