results/Shooter/Shooter/Shooter-499936.pt (torch, 520999 bytes, 46 tensors)

discrete_act_size_vector f4 [1, 3]
000000 00 00 a0 40 00 00 80 40 00 00 00 40
       5.0 4.0 2.0

network_body._body_endoder.seq_layers.0.weight f4 [128, 27]
000000 81 87 8d bd 4c 2f bb 3d 82 44 04 3e 68 bb 6a 3e
       -0.06910611 0.091398805 0.12916759 0.22923052
000010 8e 45 57 3e 7d d1 2d be 85 94 19 be d6 95 2c 3d
       0.21022627 -0.16974445 -0.14998062 0.042135082
000020 56 2f 1c be 15 b8 e6 3d f2 9a e1 3e 84 d8 ca 3b
       -0.15252432 0.112655796 0.44063526 0.0061903615
000030 33 b5 3c 3e d3 55 97 be dc 17 d0 3d 86 38 5c be
       0.18428497 -0.29557666 0.10160801 -0.21505937
000040 3b 37 ba be 16 a7 8f 3d 32 f3 50 3e f4 9b 22 3d
       -0.36370263 0.07014291 0.20405272 0.03969951
000050 7d a4 1b be c1 74 1d be c6 ab e7 3d de 0f 02 bf
       -0.15199466 -0.1537657 0.1131206 -0.5080546
000060 13 7d dc 3d 01 c4 0b 3e b3 71 ff 3d 64 19 2e bb
       0.107660435 0.13648988 0.12472858 -0.0026565427
000070 f4 2d 4f be 67 2c 14 3e 58 ca f5 3d 67 f4 00 3f
       -0.20232373 0.14470063 0.12001485 0.5037293
000080 7e 42 94 be a7 44 c3 3e 8d 97 61 3d cf ec 86 be
       -0.2895698 0.38138315 0.05507617 -0.26352546
000090 c3 01 b1 3c d9 89 1a bd 81 3d 1e be a0 70 7a be
       0.021607285 -0.037729118 -0.1545315 -0.24457026
0000a0 92 aa c3 3d 92 26 2a be 9a 7e ca be 5c 02 a7 be
       0.09554018 -0.16616276 -0.39549714 -0.32618988
0000b0 bb a5 88 be 5f c8 95 bd f6 17 74 be dc 6f da 3e
       -0.26688942 -0.073136084 -0.23837265 0.42663467
0000c0 b4 ee ca bd 0d 91 61 be 61 52 a2 3d 29 0a 00 3c
       -0.0990881 -0.22027989 0.07925869 0.007814922
0000d0 e2 aa c3 3e 9c ae af be fe 6f 79 3e d0 b5 c2 3e
       0.3821631 -0.34312904 0.24359128 0.38029337
0000e0 a1 34 30 bc ed aa 8d 3d 59 93 60 3e 13 d2 8d 3b
       -0.010754735 0.06917367 0.21931209 0.0043280213
0000f0 6a d8 b3 3e 55 95 85 3e a1 84 de 3c d1 ae 84 be
       0.35126048 0.26090494 0.027162852 -0.25914624
000100 42 fc d9 3d 05 f5 c3 3d 51 62 0a be 9a 6e 5c be
       0.106438175 0.09568218 -0.13514067 -0.21526566
000110 3f 53 8f 3e 19 6c b4 3d 7a 2c a5 be ef 1c 3a be
       0.279932 0.088096805 -0.32260495 -0.181751
000120 b1 10 0a be dd 28 5d bd 39 86 39 3e e8 46 45 3e
       -0.1348293 -0.05399405 0.18117608 0.1926533
000130 ee 63 64 3e b8 62 65 be f1 bf fe be 4b df 88 3c
       0.22303745 -0.2240094 -0.49755815 0.016708037
000140 f6 1e 13 3e 30 19 c7 bc 5d 10 9f be d9 ba d9 3d
       0.1436728 -0.024304003 -0.31067172 0.106313415
000150 11 72 01 3d 4f 1d bd 3c 79 c8 0a 3e 44 72 32 3e
       0.031602923 0.023085264 0.13553037 0.17426401
000160 c3 5b c6 be c0 be 58 be c1 00 19 3e a9 99 36 be
       -0.38741884 -0.21166515 0.14941694 -0.17832054
000170 b2 c4 ae be c7 fd 19 3e 24 8d 85 bd 3b 68 09 be
       -0.34134442 0.15038215 -0.06521061 -0.13418667
000180 0d d6 d5 3d 8c 43 49 be 31 0a ad be c9 49 7b 3e
       0.104412176 -0.19654673 -0.33796838 0.24539866
000190 56 e6 d6 3d e8 0c 15 be cc 17 b4 3e d7 b2 d7 3e
       0.10493152 -0.14555705 0.35174406 0.4212863
0001a0 a6 e6 65 be 65 6b c3 3d c2 3d 1e be 47 14 77 3e
       -0.22451267 0.09541968 -0.15453246 0.24128829
0001b0 c5 93 b2 be e6 07 60 be 7d 9a 0d be f7 bb 4b be
       -0.34878364 -0.21878013 -0.13828464 -0.19895922
0001c0 68 68 4a 3e f2 0e e5 bd 1c a1 3a 3e 86 f2 ab be
       0.1976639 -0.11184491 0.18225521 -0.33583468
0001d0 64 41 93 be 61 3b b2 be 6b 78 d1 be 04 b4 20 be
       -0.28760827 -0.34810928 -0.40912184 -0.1569367
0001e0 ca 13 ee bc 62 6d 66 3e 00 f6 e2 bd 6a cf 3b bd
       -0.02906217 0.22502664 -0.11082077 -0.045852102
0001f0 c6 9b 90 3a 26 71 59 3d 80 b9 d6 bd 38 1e c2 bd
       0.0011032752 0.053086422 -0.104846 -0.0947842
000200 ac fa 76 be 09 10 21 3e e4 29 c7 bd f1 df 8f be
       -0.24119061 0.15728773 -0.09724787 -0.2810054
000210 fd df b9 bd f3 2c db 3d 9b ee bc be 64 f3 e4 3d
       -0.090759255 0.10701933 -0.36900792 0.111792356
000220 1d 71 d5 be 69 0a 55 bd 94 fa c1 3d 02 81 7f bc
       -0.4168786 -0.05201188 0.09471622 -0.015594723
000230 c8 7c a5 3d a8 6f 45 3e 78 9c cb 3d e8 7e 53 3d
       0.08080441 0.19280875 0.099419534 0.0516347
000240 8d e8 eb bd 90 25 d4 bc 63 7f 11 be ef 24 a4 bd
       -0.11518965 -0.025896817 -0.1420875 -0.08014857
000250 de 23 58 3b 1e 72 67 3d e6 78 af bd 31 9a 16 3e
       0.0032980363 0.056505315 -0.085679814 0.14707257
000260 76 90 a3 bc 93 3c 03 bd ef 12 9b bd 7e 6f 98 3c
       -0.019966345 -0.03204019 -0.07571971 0.018607851
000270 86 6e 57 3e 80 4b 85 be da bd b7 3d 69 24 ea bc
       0.21038255 -0.26034164 0.08971758 -0.028581815
000280 b8 94 a0 3e 56 e7 41 bd f7 46 c5 bd d0 44 56 be
       0.31363463 -0.04733976 -0.09632676 -0.20924687
000290 c8 7f 92 be 0b ae 9a bc ae 62 02 bd 60 4e c4 be
       -0.28613114 -0.018881818 -0.03183239 -0.38341045
0002a0 ae 92 64 be ff 9e 8d 3e 82 4c c3 be 61 49 fa bd
       -0.22321579 0.27660367 -0.38144308 -0.12221027
0002b0 e0 00 ad 3d 97 76 3c be 92 1c 58 3e 07 0f 77 3d
       0.084474325 -0.18404613 0.21104649 0.060317066
0002c0 6d b3 68 bd 02 e0 a4 be e3 96 a4 be c9 5d 04 3e
       -0.05681174 -0.32202154 -0.32146367 0.12926401
0002d0 0b 6d 7e be e9 34 21 3e 82 2a 2a be e2 d3 09 be
       -0.24846284 0.1574284 -0.16617778 -0.13459733
0002e0 91 47 1f be dd 77 42 be 4e cd c0 be a7 89 62 3e
       -0.15554644 -0.18991037 -0.37656635 0.22122823
0002f0 32 3d b6 3d 82 bb 9d 3e 4f 7a 4d be 58 9e 44 be
       0.08898391 0.3080712 -0.20066188 -0.19201028
000300 67 03 67 3d 15 eb 4b bd d6 18 bf bd 2f 12 75 be
       0.05639973 -0.04978474 -0.09330909 -0.23932718
000310 33 a6 6b 3e cd 08 ce be e2 5a 40 be d5 08 8d 3e
       0.23012619 -0.4024109 -0.18784669 0.275458
000320 b1 f9 6c bd 6b 1d d7 3e b6 eb 89 bb 2a cb 07 be
       -0.05785531 0.42014632 -0.004209007 -0.13261095
000330 21 b1 5b 3d d8 8c b6 3c f2 46 19 3e 96 8d 44 3d
       0.05363572 0.022283956 0.1496847 0.04798659
000340 9e a0 06 3e 62 57 02 3d bc 7b 32 bc d5 0d 3b 3e
       0.13147208 0.031821616 -0.010893758 0.18266995
000350 b4 43 52 be a8 8d b0 3e a9 3a dc bd fc 3b 1d 3f
       -0.20533639 0.34483075 -0.10753376 0.61419654
000360 4e e7 54 3e 67 b2 0a bd 6e f1 42 bd 49 cd 3f 3d
       0.2079136 -0.033861544 -0.047593527 0.046826635
000370 8f cb 5f bd e1 da 30 be 86 ea 9c bd 4c 88 0a 3e
       -0.054637488 -0.17270996 -0.07661919 0.13528556
000380 82 a2 d1 be 9e 2e 4a be 50 cb bd 3e 67 97 e8 3e
       -0.40944296 -0.19744346 0.37069178 0.4542801
000390 7a 16 28 3e fb a3 31 be 9b cc 05 3e 6a d4 04 3e
       0.16414824 -0.1734771 0.13066332 0.12971655
0003a0 c5 0c 38 3e 28 32 79 3c f9 35 6e be 96 dd fc bd
       0.17973621 0.015209712 -0.23262776 -0.12346952
0003b0 4c 47 e2 bd 59 e2 97 be 48 13 3a bb 0a a1 52 be
       -0.11048755 -0.29664877 -0.002839284 -0.20569244
0003c0 9f 7c 33 3e f7 e4 86 3d 98 b0 25 be 64 f5 ea 3d
       0.17528008 0.0658664 -0.16180646 0.11472586
0003d0 11 f6 94 3e 01 9b 8e 3d 0c 41 8c bd 65 bb 3f be
       0.29093984 0.069631584 -0.06848344 -0.18723829
0003e0 28 0a c5 bd d1 24 ef 3c a6 d9 0c be bc 86 f6 3d
       -0.09621078 0.02919236 -0.13754901 0.12037417
0003f0 15 99 10 3e f4 a7 06 3d 3a 08 00 3d 05 6d 20 3d
       0.14120896 0.032875016 0.031257845 0.03916647

network_body._body_endoder.seq_layers.0.bias f4 [128]
000000 51 32 03 bd 00 1f 36 bd fb cb 1d 3d cd 5a f7 bd
       -0.032030407 -0.044463158 0.03852461 -0.12077866
000010 54 56 07 be 9b 4a 24 bd ad 72 a2 bc ef 68 e8 bc
       -0.13216525 -0.04011021 -0.019830072 -0.028370349
000020 8d fc d0 bd 23 22 f8 3c 93 53 65 be 33 73 c7 3d
       -0.1020442 0.030289715 -0.22395162 0.097387694
000030 53 d2 04 bd 91 9f af 3d bc f0 4e 3d 3b 02 1b 3d
       -0.032427143 0.08575357 0.05052255 0.037843924
000040 ab e4 16 bd a7 9b 44 3c 5d 68 d8 bd 7f 51 a6 3c
       -0.03683917 0.012000001 -0.10566781 0.020302532
000050 6c 02 b2 bd 55 56 a5 bd 82 c0 04 be 62 86 4a bd
       -0.08691868 -0.08073107 -0.12964061 -0.049444564
000060 79 3b ed bd 79 d2 1d bb c0 e6 e2 bd 88 cc 0b be
       -0.11583609 -0.002408175 -0.11079168 -0.13652241
000070 d2 1e c4 bb c0 e9 8b bc ea 8e 68 be 82 4a b2 bd
       -0.0059851194 -0.017079234 -0.22710767 -0.087056175
000080 21 f7 1e bd 39 35 cb 3d 91 a4 f0 bd 73 21 33 3b
       -0.0388099 0.09922261 -0.117501386 0.002733317
000090 72 17 f0 bd e7 00 c0 3c 54 07 2a be d3 e6 00 bd
       -0.11723222 0.02343793 -0.16604358 -0.03147013
0000a0 b8 78 0a 3d c1 2b d0 bd f5 a2 3a bd bc ad b3 3d
       0.033806533 -0.101645954 -0.045565564 0.087733716
0000b0 60 e1 ba 3c de 47 94 bd be ef a0 bd 88 1b 19 be
       0.022812545 -0.0724027 -0.07858227 -0.14951909
0000c0 e1 65 a2 bd c9 d2 a8 bd 61 46 4e 3d 86 8e ed bd
       -0.07929588 -0.08243329 0.050360087 -0.1159945
0000d0 e6 24 3e bd 95 e2 0f be 6d cf 3f bd b0 c2 56 bd
       -0.046421908 -0.14051278 -0.046828676 -0.052431762
0000e0 50 cc 0f be 5b 43 0b bd d9 31 e0 3d 32 f3 de 3c
       -0.14042783 -0.033999782 0.10947008 0.027215574
0000f0 98 c0 3a be fd 54 bf bc 2d 74 20 3d f6 65 e9 bd
       -0.18237531 -0.023355955 0.039173294 -0.11396401
000100 4c 5c a1 3a 69 8e 24 be ac 6a 79 bd b1 78 91 bd
       0.0012310832 -0.1606995 -0.060892746 -0.07103098
000110 f0 c5 e6 3c 70 e4 a5 bd fc 7c 8b bd 9c 7a 2a bd
       0.028170556 -0.081002116 -0.06810948 -0.041620836
000120 3b c4 31 bd 51 e0 46 be 88 87 c9 bd fb d5 fa 3d
       -0.04340003 -0.19421507 -0.09840304 0.12247845
000130 de c8 4a bd 5e 10 51 bd 3c 83 99 3d 9a c2 05 bd
       -0.049507968 -0.051041 0.07495734 -0.03265629
000140 4e dc 8e bd 80 c4 b7 bd 6e 50 8e bd 49 2c b2 3c
       -0.069756135 -0.08973026 -0.069489345 0.021749632
000150 ae cb 71 be 73 2e 03 be 95 06 5f 3b 44 f6 b4 bd
       -0.23612854 -0.12810688 0.0034031023 -0.08836034
000160 6b 25 06 be 5f 85 60 3c 9b 17 2d be 9a 1d af bd
       -0.13100211 0.013703673 -0.16903536 -0.08550568
000170 32 27 22 be 88 38 43 bc 62 84 3a be a3 70 de bc
       -0.15835264 -0.011915334 -0.18214563 -0.027153319
000180 9a dc c1 bd 1e 70 66 be bf 01 a4 bd 38 60 f0 bd
       -0.094659045 -0.22503707 -0.080081455 -0.11737102
000190 43 9c 8d 3d 51 39 46 bc 7e a3 bc 3b f5 ab ff bd
       0.0691457 -0.012098626 0.0057567945 -0.1248397
0001a0 b7 53 10 bc 6f 6e 95 be 7a 8f 4b be 23 a2 35 be
       -0.008809022 -0.29185817 -0.1987895 -0.17737631
0001b0 50 8d 0d be c8 f7 5c bd d1 4a a1 bd c0 6d 94 3d
       -0.13823438 -0.05394724 -0.07875598 0.07247496
0001c0 eb 3b d5 bc 51 4e 09 3c ce 11 0c be 61 5f f9 bd
       -0.026029548 0.0083804885 -0.13678667 -0.12176395
0001d0 87 e7 8a bd 93 a1 01 be a7 87 01 bd ca b4 33 3d
       -0.067824416 -0.12659292 -0.03162351 0.043873586
0001e0 ad df 77 bd 01 4c 2c be 4a 09 c8 bd b7 a0 c8 bd
       -0.06051605 -0.16825868 -0.09767397 -0.09796279
0001f0 f7 ee 02 be 0e d9 b9 bd b7 18 b0 bc 72 88 7f bd
       -0.1278647 -0.09074603 -0.02149616 -0.062385984

network_body._body_endoder.seq_layers.2.weight f4 [128, 128]
000000 79 b2 82 be 26 3a e3 bd 4a d8 3a bd bc 86 48 3d
       -0.2552679 -0.11095075 -0.045616426 0.048956618
000010 53 b3 df bd 56 37 95 bd 8f 21 78 bd 07 1d a5 3d
       -0.10922875 -0.07285945 -0.06057888 0.08062177
000020 ae 15 4e be ff 59 05 be 1d 84 1b bb 46 77 80 be
       -0.20125458 -0.13022612 -0.0023729869 -0.25090998
000030 ab 8f 04 3d 38 05 db bd 3b b6 39 3e b0 f7 9c bc
       0.032363575 -0.10694355 0.18135922 -0.019161075
000040 eb 63 83 be 32 06 1b be cd 5d 75 be 98 b6 00 be
       -0.2566217 -0.15139082 -0.23961563 -0.12569654
000050 68 57 19 3d 7e 56 51 3d 8e ab 8b 3d de ac 48 be
       0.037436873 0.051107876 0.06819831 -0.19597194
000060 b3 81 b7 bc 4b 0e a1 be 6c d5 5a bd 5c 2d af 3c
       -0.022400713 -0.31456217 -0.05342619 0.021383934
000070 23 c9 00 be e0 8d 38 3d 78 6a d1 3c 6d 56 a6 3d
       -0.12576728 0.045057178 0.025563464 0.08121953
000080 4d 61 51 bd f6 9d 07 bd 35 32 7a bd 6a 0b 69 be
       -0.051118184 -0.033109628 -0.061083037 -0.2275826
000090 e3 eb 21 3d c4 cc 26 be 5a a3 06 bd 5c 86 71 bc
       0.0395316 -0.1628905 -0.032870628 -0.014741506
0000a0 d8 ad 50 3d fc 6b bb bd ff 77 92 3d de 34 53 3e
       0.05094704 -0.09151456 0.07151794 0.20625636
0000b0 f7 6e 2d 3e 06 87 b7 bd b3 d5 10 3b 72 1c ac bd
       0.16936861 -0.089613006 0.002210003 -0.08403863
0000c0 20 1d 2d 3d a5 82 87 be 2c 29 c9 bd d0 64 5b be
       0.042264104 -0.2646686 -0.09822306 -0.21425176
0000d0 43 f6 42 be e2 98 eb 3c 28 88 db 3d db a4 73 be
       -0.19039254 0.028759424 0.10719329 -0.23793356
0000e0 0d 76 a8 bb d5 c6 05 bd de ce 9d bd 48 a9 c2 bc
       -0.005141026 -0.032660324 -0.077054724 -0.02376236
0000f0 05 d9 11 be 0c ac 69 bd 2e 41 8b 3d c5 28 23 3e
       -0.14242943 -0.057048842 0.067995414 0.15933521
000100 58 bd d7 bd 25 d6 29 be 1c 27 c2 3c 2f a1 34 3e
       -0.10534161 -0.16585596 0.02370029 0.17639612
000110 cb 9c 12 3c e5 9c 93 3c 81 e2 2a be 5b 62 0c 3e
       0.008948515 0.01801915 -0.16687967 0.13709395
000120 ee 69 93 be fc 6e bb 3d 31 d6 77 be 41 8f 09 be
       -0.28791755 0.09152028 -0.24202801 -0.13433553
000130 0e 48 d7 bd b2 78 3d bc d4 a8 78 3d 00 01 0c bd
       -0.1051179 -0.011564421 0.060707882 -0.03418064
000140 dc 6a 96 3d b5 e2 18 be f1 5b 8d be 39 cd 05 be
       0.073446006 -0.14930232 -0.27609208 -0.13066567
000150 c2 9f b4 3d 90 a5 5a bd 2b 54 b3 be 3d e1 21 be
       0.08819534 -0.05338055 -0.35025153 -0.15808578
000160 67 31 be bd 1e 85 7a be 45 be f9 bd ca 51 8b 3c
       -0.092867665 -0.24464843 -0.12194494 0.017006774
000170 7f 68 87 3c b9 5c b0 bd 85 7b 36 3e b2 3a 7d bd
       0.01652932 -0.086114354 0.17820556 -0.061823554
000180 74 e4 c8 3c 76 1b 8a be 76 2f 39 be 56 8f a2 bc
       0.024522997 -0.26974076 -0.18084511 -0.019843739
000190 89 02 b6 3d ed 00 a4 bd 8a 43 46 bc 4b dd 8e bd
       0.08887202 -0.08007989 -0.0121010635 -0.06975802
0001a0 f8 2a e7 bb 65 83 1e 3b cf 3a da bd 60 bb 3e be
       -0.007054683 0.0024187204 -0.10655748 -0.18626165
0001b0 18 7b 3c be d6 28 09 be be a4 83 bd af 30 32 3d
       -0.18406332 -0.13394484 -0.064279065 0.04350346
0001c0 4a e2 73 3d b5 1e 34 be 0a 03 df 3c 26 03 33 3d
       0.059541978 -0.17589839 0.027223129 0.043704174
0001d0 39 a9 d6 bd 2d 68 fc bc 07 71 62 3d 92 95 36 be
       -0.104814954 -0.030811394 0.055283573 -0.17830494
0001e0 71 b1 9b be 29 52 f4 3b 98 d5 33 be f9 e7 2f be
       -0.30408815 0.0074560833 -0.17561948 -0.17178334
0001f0 7d 7f 60 bd fa 4e f7 bd 9e 80 3c be 3e 2b c7 bd
       -0.054809082 -0.120756105 -0.18408439 -0.09725045
000200 65 8f 05 bd 10 cd 2d bd 3d be f8 3c 70 ac ea 3c
       -0.032607455 -0.04243189 0.03036415 0.028646678
000210 37 b3 54 3d 89 48 d6 bd aa b8 48 be f1 63 b9 bd
       0.051928725 -0.10463054 -0.19601694 -0.090522654
000220 11 2c 51 be 3f 10 26 be a5 f0 87 bd 4a f3 89 3e
       -0.20426966 -0.16217135 -0.06637696 0.26943427
000230 64 f8 71 be 17 3f 7f 3d ee 02 9e 3e de 01 22 be
       -0.2362991 0.062316027 0.3086161 -0.15821025
000240 e6 20 59 bd 5b c5 9d bd 36 dd 19 be bb 1f cd 3d
       -0.05300989 -0.07703658 -0.15025792 0.10015818
000250 3c 35 aa bd 9c bf ef bd f2 f1 cf 3d a5 1c 27 3d
       -0.08310935 -0.117064685 0.10153569 0.040798802
000260 ac 1b a9 3d e6 68 92 bd f7 75 94 bd 3b 06 73 bd
       0.08257231 -0.07148914 -0.072490625 -0.059332114
000270 43 80 ce bd f9 78 15 bd cb 99 2c be 2f 53 1a 3e
       -0.10083058 -0.03649232 -0.16855542 0.15070795
000280 e0 eb 4d 3d d8 c8 34 3e 6e 92 1f 3d 5b 4b 03 3e
       0.050273776 0.17654741 0.038958006 0.12821715
000290 11 57 7f be 02 7b 2b be 2e 77 8a 3d 90 36 17 be
       -0.24935557 -0.16746143 0.06761013 -0.14766908
0002a0 de dc 38 be a0 bf 8b 3a 90 63 49 3d 3f 92 90 bd
       -0.18053004 0.0010661967 0.049167216 -0.07059144
0002b0 e2 46 96 bd 2d 47 6a 3e 6f 7c ca bd 30 75 a6 3d
       -0.073377386 0.22878714 -0.09887015 0.081278205
0002c0 02 17 f1 bd d4 cb fa bd dd 53 23 3d e5 f5 89 3c
       -0.117719665 -0.122459084 0.0398749 0.016840884
0002d0 10 f5 42 3d 41 a5 79 be fa 7d 1d be 57 19 ee bd
       0.04759699 -0.24379446 -0.15380087 -0.11625927
0002e0 91 a3 bb 3d 75 39 be 3c dd fc 44 3e 60 00 14 3e
       0.09162057 0.023220757 0.19237085 0.14453268
0002f0 0b f1 7b bd 29 71 ef 3c cd 0a 13 be 00 39 22 3c
       -0.061509173 0.029228764 -0.14359589 0.009901285
000300 56 43 e8 bc 1c 60 93 bd b7 9e 93 bd 8b f8 b3 3d
       -0.02835242 -0.07196066 -0.07208007 0.0878764
000310 35 da f0 3c 46 5d f1 bc df a0 26 3d 7f 33 3b 3e
       0.029400924 -0.029463422 0.040680762 0.18281363
000320 06 5c 19 be 56 ef bb 3d 22 d5 a0 3d 8d c9 15 bd
       -0.1497651 0.09176509 0.07853152 -0.036569167
000330 a4 7b 6c be b5 28 f3 3d c5 ed ed 3d ad df e8 bd
       -0.2309404 0.118729986 0.116176166 -0.11370788
000340 59 8e 30 be ca 3d 06 be 6e 40 ec bd 47 ab 2f 3c
       -0.17241801 -0.13109508 -0.115357265 0.010721988
000350 14 be d6 bd fc 94 2b be 06 99 c0 bd d8 04 fc 3c
       -0.10485473 -0.16756052 -0.09404187 0.030764028
000360 d0 c5 f4 3d a4 54 84 be b7 64 86 3d a5 b5 fb 3b
       0.11951792 -0.25845826 0.065621786 0.007681566
000370 56 86 43 3e 67 22 bf bd 66 6d 8f 3d 20 3d 86 bc
       0.19094214 -0.093327336 0.07003288 -0.016386569
000380 3b 62 ab 3d 66 fd 4f be b9 35 e6 bc 3a 87 23 be
       0.08368345 -0.20311508 -0.028101789 -0.15969554
000390 dc 1f 22 3e cd 72 3a be 5a 27 ee bc 78 e9 1a 3c
       0.15832466 -0.18207856 -0.029071499 0.009455077
0003a0 49 43 55 3e 34 63 ae bd 64 ca 72 3d 03 22 dc bc
       0.20826449 -0.08515015 0.059275046 -0.026871687
0003b0 c4 76 66 bd b0 1a 39 be a6 7e a6 be c8 f6 1e be
       -0.056265607 -0.18076587 -0.325185 -0.15523827
0003c0 42 4d a2 bb f0 99 2e 3e bf 6b 12 bd 90 4e f7 bc
       -0.0049530575 0.1705091 -0.035747286 -0.030188829
0003d0 7f 51 86 be 9d bd 2b bd a9 e6 9c bd 10 76 85 3a
       -0.26234052 -0.041928876 -0.076611824 0.001018228
0003e0 dc 31 4a bc a3 0b cf 3d c8 70 2a be aa 05 f8 3d
       -0.012340989 0.101096414 -0.16644585 0.12110455
0003f0 50 dd af bd a2 76 c6 3c d2 8c 41 bd a6 b2 79 bd
       -0.08587134 0.02422649 -0.047253437 -0.060961388

network_body._body_endoder.seq_layers.2.bias f4 [128]
000000 26 6b c7 3b 18 e8 54 bd 3a 01 86 3d 45 36 35 3b
       0.006085771 -0.051979154 0.06543203 0.0027650755
000010 24 ce bd 3c 6d f8 14 be 16 39 ac 3d 99 9c 25 3d
       0.023169585 -0.14547892 0.08409326 0.040432546
000020 f2 84 86 3c e7 75 93 bd 19 74 25 be c2 57 71 3c
       0.016420815 -0.072002225 -0.16157569 0.014730396
000030 a7 db 6e 3d e5 55 16 bd 2e 70 f3 bd 80 95 33 3d
       0.058314946 -0.03670301 -0.11886631 0.043843746
000040 81 8c 89 bd a8 9a 00 be 56 2d 12 be 3d 11 4b 3d
       -0.06716252 -0.12558997 -0.14275107 0.049576987
000050 eb 89 ae 3c 84 90 5c be d3 9a 09 be 72 73 88 bd
       0.021305999 -0.21539503 -0.13437967 -0.066626444
000060 da 91 51 bd 1f 13 46 be 6a 89 ab bd e8 60 45 be
       -0.051164486 -0.19343232 -0.08375819 -0.19275248
000070 a1 37 73 bc 28 e9 61 3d c7 01 49 bd 9e 39 88 bd
       -0.014844806 0.055153996 -0.04907396 -0.066516146
000080 6c 5b 0d be c3 23 7f 3d 6b 92 16 be db 1a 60 bc
       -0.13804406 0.062289964 -0.14704292 -0.013678278
000090 db 75 53 bd ca 05 86 bd 5a b4 29 bd d1 a6 fb bd
       -0.051626068 -0.06544073 -0.041431762 -0.12287677
0000a0 1a d0 b5 bd 4b 9f da bc 33 fe 0f be 3d 5a 41 be
       -0.08877583 -0.026687285 -0.14061813 -0.1888208
0000b0 3d bb 87 bd e3 e6 df bd 2c 6e e1 bd 56 9d bf bb
       -0.0662751 -0.1093271 -0.11007342 -0.0058476133
0000c0 8a 7b e1 3b 74 21 92 bd 28 cf c1 bd 6c c5 0a bd
       0.006881182 -0.07135287 -0.0946334 -0.033879682
0000d0 87 11 08 be 18 ba 1a bd ce 10 17 be 60 05 3b bc
       -0.13287936 -0.03777513 -0.14752504 -0.011414856
0000e0 12 0a 5d bd fb 80 64 bd c2 ad af 3c 3b 67 49 bd
       -0.053964682 -0.055787068 0.021445159 -0.049170714
0000f0 6e 3c a1 bd e4 60 8c bd ea 24 1e be b8 3e 26 3e
       -0.07872854 -0.06854418 -0.15443769 0.16234863
000100 fd a8 9b bd 96 d7 8c 3d 60 39 9d bd 0a 29 12 be
       -0.07600591 0.06877057 -0.07676959 -0.14273468
000110 fd b3 03 bd ae 51 fc 3c be d5 d7 bd 67 d2 2a bd
       -0.032154072 0.030800667 -0.10538815 -0.04170456
000120 fd 42 18 be 89 dd d0 bc 5a 57 a9 bb 49 2f 84 3d
       -0.14869304 -0.025496261 -0.005167884 0.064543314
000130 fb 0a 6b bd 06 06 d7 3c 6a 9f e9 bb 32 6f 8e 3d
       -0.05738352 0.02624799 -0.0071295993 0.069548026
000140 a5 fd 17 bd a9 a3 d5 3c 2f f1 07 3d b1 77 de bd
       -0.03710713 0.026079016 0.033188995 -0.10862673
000150 03 9e 6b bd fc 55 8d bd b0 a3 ca bd 4c dd 22 bd
       -0.05752374 -0.06901166 -0.09894502 -0.039761826
000160 7e 43 05 3d 1a dc 93 bb 99 f4 e7 bd 79 43 13 3d
       0.03253507 -0.004512322 -0.1132595 0.03595302
000170 26 71 c2 bd d2 46 45 bd b2 f2 34 3d 4e bd 23 3d
       -0.094942376 -0.048163243 0.044176765 0.039975457
000180 d2 33 9c bd 4a f3 55 bd 4f c5 6a bd a8 14 1a be
       -0.076270714 -0.05223397 -0.057317074 -0.15046942
000190 33 ac 7c bd 55 6c 01 bd 0c 40 69 bd 64 7f 59 bd
       -0.06168766 -0.031597454 -0.056945845 -0.053100005
0001a0 9e 27 04 be 48 91 54 3c 28 ba e9 bd c1 ab 37 bb
       -0.12905738 0.012974091 -0.114124596 -0.0028025957
0001b0 59 af 3c bd 85 4a 39 be 50 50 1e bd a5 48 30 be
       -0.046065662 -0.18094833 -0.03865081 -0.17215212
0001c0 3d 45 46 be 5e 01 ad bd a9 b3 0e be cb 28 36 bd
       -0.1936235 -0.084475264 -0.13935722 -0.044472497
0001d0 2e 59 00 be 3a c4 cd 3d 3d 67 cc bd b6 8a 81 3d
       -0.1253402 0.10047193 -0.09980629 0.06325285
0001e0 f1 75 96 bc 94 e8 c6 3c 42 86 72 3c 11 83 c1 3d
       -0.018366786 0.024280824 0.014802517 0.09448827
0001f0 4e f2 c7 bd 55 ea d4 bd 74 84 1a be 60 d7 44 bd
       -0.09763013 -0.10396258 -0.1508959 -0.04805696

action_model._discrete_distribution.branches.0.weight f4 [5, 128]
000000 66 b8 a7 bb a8 2a dd bd 14 39 74 3d 14 b7 e5 3d
       -0.0051184176 -0.10799152 0.059624746 0.1121656
000010 97 5d 0b 3d 83 ce e0 bd 09 ce b9 3d f9 46 90 3d
       0.0340248 -0.10976889 0.09072501 0.07044787
000020 20 29 3f 3e 93 5a 38 be ea 51 f1 bb 69 c3 9d bd
       0.18668032 -0.18003301 -0.0073645012 -0.07703287
000030 fe 3f 07 3e 8a e8 17 3c 1e 76 b6 bd 15 fd 0b bd
       0.13208005 0.00927175 -0.08909248 -0.034176905
000040 3a 94 8e 3c 31 9e 74 3d e8 2c c9 bd bc 0f ed bd
       0.017404664 0.059721176 -0.09823018 -0.11575267
000050 cb ca 15 be 19 88 02 3e a6 de d5 bd 04 8c 89 bb
       -0.1462814 0.1274723 -0.104428574 -0.0041975994
000060 27 c2 d5 bc 9f c8 42 3d 81 7a 26 3e 25 1d b4 bd
       -0.026093556 0.04755461 0.16257669 -0.087946214
000070 f8 ae 22 be 48 89 44 3e 8a a1 2d 3d 86 37 98 bd
       -0.15887058 0.19192994 0.042390384 -0.07432465
000080 1b e3 b6 bc 74 af 0e 3d a4 66 a3 bd d8 86 96 3d
       -0.02232509 0.034835294 -0.079785615 0.07349938
000090 91 77 c2 bd a7 64 db bd 72 7b 9c bd 27 ba 41 be
       -0.09495462 -0.10712557 -0.07640733 -0.18918668
0000a0 f1 83 a9 bc e8 80 96 3d b3 49 cb bc dc 7d b9 bd
       -0.020692797 0.07348806 -0.024815416 -0.09057209
0000b0 ca 9b 05 3e 5e e6 92 bd bd 83 e7 bc c0 1e 93 39
       0.1304771 -0.07172845 -0.02826106 0.00028060935
0000c0 3c 43 51 be 98 90 91 bc 11 59 92 bc 02 05 fe 3c
       -0.20435804 -0.017769143 -0.017864736 0.031008247
0000d0 ab 29 74 bd 7d ee cc bb d5 29 9b 3d 84 27 37 3d
       -0.05961005 -0.006254016 0.07576338 0.04471542
0000e0 17 81 f9 3b eb c0 f4 bd 3d 33 1c 3e 53 12 9d bd
       0.0076142657 -0.11950859 0.15253921 -0.07669511
0000f0 a6 0c f8 bc c7 53 7e 3d 41 ca 3f bd e4 20 d4 3d
       -0.030279469 0.062091615 -0.046823744 0.10357836
000100 cc a5 39 bd d6 a0 ae bd 62 34 a5 bd ac 26 f5 3c
       -0.04532413 -0.08526771 -0.08066632 0.029925667
000110 b6 b8 3c bd 69 fe c0 3d 6c 5b b8 bd 8c d2 a7 bc
       -0.04607459 0.09423525 -0.09001812 -0.020486139
000120 d9 aa 20 3d e5 cc bc bd 05 cd 9e 3d 80 fc d6 3c
       0.039225433 -0.09218768 0.07753948 0.026243448
000130 34 af e1 bd 76 ce c9 bc d1 91 70 3d af b8 8f 3d
       -0.110197455 -0.024634581 0.05873281 0.070176475
000140 8b 4c 85 bd ce 04 45 3e 5b 4d 64 be 9e f1 ed bc
       -0.0650874 0.19240114 -0.22295134 -0.029045876
000150 17 9b fb bd fb e4 e8 bd 0e b6 7f 3d 0d 22 02 be
       -0.122854404 -0.113717996 0.06242948 -0.12708302
000160 79 4c fb 3b b4 ec 54 bd 7b 27 dc bd 9c 1b fc 3c
       0.0076690284 -0.05198355 -0.10749718 0.030774884
000170 e7 dc c4 bd 5e 5d dc bd e0 1c 8c bc d9 20 4d be
       -0.09612446 -0.10759996 -0.017103612 -0.20032062
000180 68 cf 98 bd d2 25 bb bd 27 dd 10 3e c6 bc d3 bc
       -0.074614346 -0.09138073 0.14146863 -0.02584685
000190 73 3e bc 3d 1e 95 c2 bd 13 02 36 bc db 3e d8 bc
       0.09191599 -0.09501098 -0.011108893 -0.02639716
0001a0 c5 e1 3e 3d c1 2a ba ba 21 c3 28 3c 13 90 ae 3c
       0.04660203 -0.0014203415 0.010300429 0.021308934
0001b0 c2 51 b1 bb 01 5a 9d bd 0a 7a 1f 3d 9f a6 d7 3d
       -0.0054113576 -0.076831825 0.038934745 0.10529827
0001c0 15 b3 10 bb bc f1 19 3e 14 f9 52 3c c8 df a4 bd
       -0.0022079397 0.1503362 0.012876768 -0.080504954
0001d0 14 f6 93 bd b1 5f 2d 3e ad 32 0a 3d d0 24 8f 3d
       -0.0722467 0.16931035 0.033739734 0.06989443
0001e0 90 46 93 bd b2 90 be bd a1 6e 08 be 60 3a d1 ba
       -0.07191193 -0.09304942 -0.13323452 -0.0015962832
0001f0 f1 e0 0b be 2b 04 4e bd 44 31 fe 3c 88 03 ca bd
       -0.13660027 -0.050296944 0.031029351 -0.09863955
000200 e4 a4 99 bc 58 9b a3 3d 9f 7b e5 3c 87 ff 5d bd
       -0.018755384 0.07988614 0.028013049 -0.054198768
000210 09 24 85 3d 88 22 78 bd 2f dd 06 3d c6 2b 33 3d
       0.06501014 -0.060579807 0.03292578 0.043742917
000220 dd 56 c8 bb 21 ad 02 be 97 69 5b bd 6a 91 47 be
       -0.0061138705 -0.12761356 -0.053567495 -0.19489065
000230 23 8d a7 3d a2 86 af 3c dd 79 22 3d 34 96 b5 3d
       0.081812166 0.021426503 0.039667 0.088665396
000240 43 e8 51 be ae 02 8c bc 2a 53 8f bc 4c 88 de bb
       -0.20498757 -0.017091122 -0.01749571 -0.00679115
000250 47 a9 6d 3d e3 26 a9 bd dc f1 a8 bd 51 e2 ae bc
       0.058022764 -0.0825937 -0.08249256 -0.02134815
000260 e0 7b 3c be 35 92 8f bd 2b df 60 3c 4b 90 79 3d
       -0.1840663 -0.07010309 0.013725082 0.060928624
000270 1d 09 94 bd cc cc bc bd 3e 47 ae 3d 96 bb 68 3d
       -0.07228301 -0.092187494 0.08509682 0.05681952
000280 d0 0e ae bd 13 ba 15 3e c9 bc c2 3d e6 80 e6 bd
       -0.08498919 0.14621763 0.09508664 -0.11255054
000290 32 22 a3 bd 18 03 c2 bc c6 37 4e bd 2a d5 69 3d
       -0.079655066 -0.023683116 -0.05034616 0.057088055
0002a0 97 69 06 3d 3e 9e 24 3d 71 f7 02 be 18 b8 27 be
       0.032815542 0.040189974 -0.12789704 -0.1637882
0002b0 81 99 54 3d 15 6d 8a 3d 05 b0 9a 3d 97 61 85 bd
       0.051904205 0.06759087 0.07553104 -0.065127544
0002c0 2d b3 94 3d 28 94 72 bd 6a f4 0f 3d 1e 81 1f 3e
       0.072607376 -0.059223324 0.0351452 0.15576598
0002d0 5a 50 36 bd 1e 8a 08 bd 1e fd 9b 3d c8 87 b0 3d
       -0.044510223 -0.033334844 0.07616638 0.08619648
0002e0 3b ee 32 be 63 91 bb 3c 87 b1 3a 3d 9d 40 8e bc
       -0.1747369 0.022896474 0.04557946 -0.017364794
0002f0 1e 2e 59 bd 7a 54 94 3d 25 8b 0a bd c6 0d 8c 3d
       -0.053022496 0.07242675 -0.033824105 0.068385646
000300 d1 f1 5b bd 9b e3 f6 3c 74 6a ff bc e5 a0 03 bd
       -0.05369741 0.030137828 -0.03117869 -0.032135863
000310 70 00 46 bc d7 49 c9 bc ad 0a a4 bc f6 e6 a1 3d
       -0.012085065 -0.024571342 -0.020024622 0.079053804
000320 83 c9 21 bc 69 8f 78 bd 96 a8 bf bd e2 c4 84 bc
       -0.009874704 -0.06068364 -0.09358327 -0.016207162
000330 a5 67 41 3e b9 a4 ca 3d 68 eb b8 3d 0d 88 8b 3d
       0.18887194 0.098946996 0.09029275 0.06813059
000340 00 18 5f be 0c f6 d1 3b ac 6e 3a bd 69 c1 a0 bd
       -0.21786499 0.006407505 -0.0455157 -0.0784939
000350 7f 30 34 3e 85 a5 ad bc b3 9c 5c bd 88 78 01 be
       0.17596625 -0.02119709 -0.053860378 -0.12643635
000360 6b 1f 7d 3d ae e2 d1 bb f3 27 0e 3c 24 e5 9c 3d
       0.06179754 -0.006405196 0.008676517 0.076608926
000370 94 0c 74 bd 00 88 92 3d 5d c6 96 bd 0d 0d b6 3b
       -0.059582308 0.07154846 -0.073620535 0.005555755
000380 f7 c1 e6 bd a2 fa 4c bc dd 12 43 3b 9d 49 d0 3c
       -0.112674646 -0.012510927 0.0029765882 0.025425727
000390 76 10 64 bc 4e bc 41 3e c2 b0 83 bd a8 fe 8e 3d
       -0.01391994 0.18919489 -0.06430198 0.069821656
0003a0 e3 75 72 3d 2e 87 99 3c 43 a8 1b 3e c2 76 54 bc
       0.059194457 0.018741217 0.15200906 -0.012967767
0003b0 d2 5b b8 3d 5c 8a 09 3c da f8 05 3e c5 6a ab 3c
       0.09001888 0.008394804 0.1308321 0.020924935
0003c0 9e 3e 7f 3c c1 3d 32 3a 51 64 7a 3d f0 73 a1 3b
       0.015578894 0.0006799363 0.061130825 0.004927151
0003d0 4f 6c a5 bd 9a c7 02 bd d5 c6 0a be 47 b4 84 bc
       -0.08077299 -0.031928636 -0.13552411 -0.016199244
0003e0 4f 15 38 bc e0 80 5b bd 6b bb 56 bd fc 87 91 3c
       -0.011235549 -0.0535897 -0.05242483 0.017765038
0003f0 bd 7f 88 3d 84 84 14 be cb 0a c6 bc 71 cb 1d 3e
       0.06664989 -0.14503676 -0.024175068 0.15409638

action_model._discrete_distribution.branches.0.bias f4 [5]
000000 9b a8 1e 3e c4 ee 5d 3d c3 f2 3d bc 52 f6 0c 3c
       0.15494005 0.054182783 -0.011593523 0.008603649
000010 92 bf 71 bc
       -0.014755147

action_model._discrete_distribution.branches.1.weight f4 [4, 128]
000000 6e f1 83 bd 30 bf b4 bd 15 84 db bc 42 13 85 bd
       -0.064425334 -0.088255286 -0.02679638 -0.06497814
000010 5a 68 57 be c4 15 e1 bd f0 c3 c6 bd 87 6b 2c 3e
       -0.210359 -0.109904796 -0.09705341 0.16837893
000020 bf 91 8b 3c 60 48 64 3d b0 ec 54 bd 8e 14 89 bd
       0.01703727 0.055733085 -0.051983535 -0.066933736
000030 d4 7b 1c 3e 49 75 a8 bc 11 c6 34 3e 02 5e 38 3d
       0.15281612 -0.020563738 0.17653681 0.045011528
000040 2a 31 08 3d 77 bf e8 bc aa dc 01 bd a2 c4 f4 38
       0.03325001 -0.02841161 -0.031704582 0.000116714524
000050 81 8f aa 3c c4 2d b1 3d f0 5d 20 bd ef 80 82 bd
       0.020820381 0.08651307 -0.039152086 -0.063722484
000060 70 6d 87 bd 93 5d 23 3d 70 d6 01 3d b3 1d 81 bb
       -0.066126704 0.03988416 0.031698644 -0.003940308
000070 14 d9 09 3c fe ea 21 3d 56 67 0e 3d 09 15 a1 ba
       0.008413572 0.039530747 0.034766518 -0.0012289594
000080 2d c1 b6 3d 79 1a 6a 3c 03 dd 74 3d 02 9b d9 bd
       0.08923564 0.014288538 0.059781086 -0.106252685
000090 35 49 d9 bc 78 8f 5c bd bf c9 03 be df 19 2a bb
       -0.026524166 -0.05384776 -0.12869929 -0.0025955362
0000a0 6b 62 ad bc 39 5e 73 3d f7 b0 8e bd 19 d5 48 bd
       -0.021165093 0.05941603 -0.06967347 -0.04903135
0000b0 c2 0f 8e ba d0 6f 7a 39 c0 cb 14 3c bd da 97 bd
       -0.0010838436 0.00023883511 0.009081781 -0.07414768
0000c0 8e 72 80 bd a6 2c 0f be a8 2a ba bd 66 95 b3 3d
       -0.062718496 -0.13981876 -0.09090167 0.0876873
0000d0 19 1c a9 bd a9 38 f5 bc 0a 3a a5 bd b0 57 45 be
       -0.08257312 -0.029934244 -0.08067711 -0.19271731
0000e0 12 c4 67 bd f9 b5 5a bd 8e c6 b1 3d 93 0c cd bd
       -0.05658347 -0.0533962 0.086804494 -0.10012164
0000f0 c6 14 0b bd 57 b3 9d 3d 97 af 8e bd ec 99 48 be
       -0.033955358 0.07700222 -0.06967085 -0.19589967
000100 25 23 57 bd 99 b6 29 bc 54 0f 7b bd cd 52 48 bd
       -0.05252375 -0.010358476 -0.061293915 -0.04890709
000110 1b f7 22 bc e5 46 58 3d fe f8 06 bd bf 49 ea bd
       -0.00994661 0.052801985 -0.0329523 -0.11439847
000120 89 51 f1 3c 33 5c 05 bd 4b d0 9d bc 58 0c 9a bd
       0.029457824 -0.03255863 -0.01926436 -0.07521886
000130 05 34 81 bd f4 61 de 3d 06 c8 13 bb 00 0a 5d 3e
       -0.0630875 0.10858527 -0.0022549643 0.21585846
000140 9d 18 15 3e 3c 21 ac 3d 87 70 a2 bb c2 95 85 3b
       0.1456017 0.084047765 -0.004957262 0.0040766904
000150 60 da 1b 3d 31 27 f6 3b 0b c0 e1 bc 5a 12 6c bd
       0.038050056 0.007511996 -0.027557394 -0.05763469
000160 09 17 55 3e 64 09 e2 bc 5f 30 02 3d 4c 13 45 bd
       0.20809568 -0.027592368 0.03178441 -0.048114106
000170 f6 75 4b bd e9 be cc bc 84 fe 30 bc d8 a1 ae 3d
       -0.049673043 -0.024993377 -0.010802869 0.08526963
000180 06 c2 94 bd f6 ff 5f bd b0 ff 8b 3c 69 44 f6 ba
       -0.072635695 -0.054687463 0.017089695 -0.0018788698
000190 9c 27 0a bc 7f 91 88 3d 85 50 57 bd 9d b1 8d bc
       -0.008432295 0.06668376 -0.052567024 -0.017296607
0001a0 46 15 e7 3d 33 a8 59 bc ba 07 9e 3d b9 0c 7f bb
       0.112833545 -0.013284731 0.077163175 -0.0038917495
0001b0 60 94 b7 3d 9d c4 81 3b f3 1e 94 3d 87 de 01 3e
       0.08963847 0.0039602057 0.072324656 0.12682544
0001c0 09 e7 e7 bc 2b b7 09 3a 70 93 9c bd 3d a5 2d bc
       -0.028308408 0.00052534294 -0.07645309 -0.010598478
0001d0 38 79 8d bd ed 74 4f bc 9d c6 ed bd 6e b3 0b 3d
       -0.06907886 -0.012662155 -0.11610148 0.034106664
0001e0 f6 19 c2 ba 7c 6e 73 bc c1 60 2a bd 98 f5 cc bc
       -0.0014808762 -0.0148578845 -0.041596178 -0.025019452
0001f0 b8 55 26 bd fa 71 6c bd 06 a0 2f 3d 3d 2b e0 bd
       -0.04060909 -0.057725884 0.04287722 -0.10945747
000200 2b 71 23 3d d8 fc df bd 4c a4 46 3b 1c 41 a5 3c
       0.039902847 -0.10936898 0.003031033 0.020172648
000210 c7 41 b2 bc 22 3e 37 bb 02 c9 a2 3d 01 08 e5 3d
       -0.02175988 -0.0027960618 0.079484954 0.11183167
000220 c3 86 34 3d 45 db 2e be c1 ea 38 bd 0d 4a 1b bd
       0.04407383 -0.17075832 -0.045145754 -0.037912417
000230 1f 36 5d bd 1b 79 e6 ba b3 88 db 3d 09 1a a2 3d
       -0.054006692 -0.00175837 0.10719433 0.07915122
000240 d6 34 c2 bd 87 45 a6 3a d6 0b cb 3c e6 96 d8 bd
       -0.09482734 0.0012685516 0.024785917 -0.105756566
000250 e2 b4 99 bd f8 b6 1c bc 68 0d 36 3b 25 a9 ae bd
       -0.07505204 -0.0095651075 0.0027778987 -0.085283555
000260 a1 0c 04 3e 1f 73 8e 3c d3 b4 96 3c b2 bc 33 3d
       0.12895443 0.017388878 0.01839677 0.043881126
000270 b0 f1 ab 3d d1 57 0e 3e 2f b6 cc bb 87 e6 4e bd
       0.083957076 0.13900687 -0.006247304 -0.050512817
000280 ba a4 e2 bd b1 d6 16 3e a4 f5 19 bd a0 e4 9a bd
       -0.11066575 0.14730336 -0.037587777 -0.07563138
000290 ef 01 d3 bd a4 51 1e 3b ce dc 53 3a cf 75 a2 bd
       -0.10303103 0.0024157548 0.00080819137 -0.079326265
0002a0 2e c5 73 3d f1 41 7b bd 6f 1c b2 bc 8a e6 21 3d
       0.059514217 -0.061342184 -0.021742074 0.0395265
0002b0 41 1f b6 3d c1 7c c2 bd db ac 75 bc 25 52 4f bb
       0.0889268 -0.09496451 -0.014994825 -0.0031634655
0002c0 4b 6d f7 3c a6 e1 68 bc 2c cd cc bc 65 97 93 bd
       0.030203482 -0.014213955 -0.025000177 -0.072066106
0002d0 c5 d2 f6 3a ee dc 8c 3c ea cc 7b ba 57 e9 04 3e
       0.0018831125 0.017195191 -0.0009605425 0.12979637
0002e0 87 4a 2f 3d e3 93 47 bc ba 9b 8e bd d2 75 4e 3d
       0.042795684 -0.012181255 -0.06963296 0.05040533
0002f0 97 97 d0 3d bc 77 27 bc d5 fb 98 3d 4f 5d 0f 3e
       0.101851635 -0.010221418 0.07469908 0.14000438
000300 2b db d6 bd b4 85 3c bc ca a5 47 3d ed 47 81 bd
       -0.10491022 -0.011506487 0.048742093 -0.06312547
000310 2c b7 d1 3d 10 84 84 39 6f f0 67 3d 7b 8d 8f bd
       0.102400154 0.00025275396 0.05662578 -0.07009407
000320 a3 2a a9 3c 47 c1 b3 3d 82 5f a2 bd b0 a2 da 3d
       0.020650214 0.08777099 -0.07928373 0.106755614
000330 51 a5 87 bd 8f 2c 11 be 02 a2 32 be de 4e 4a be
       -0.066233285 -0.14177154 -0.17444614 -0.19756648
000340 13 8b c6 bd 40 27 e2 3d ce f3 33 3d 3e f1 4b 3d
       -0.09694495 0.110426426 0.043933682 0.049790613
000350 06 2c 87 3d 1d 88 26 be 4c 1b ab 3d 1f 3d 80 bc
       0.06600194 -0.1626286 0.08354816 -0.015654145
000360 0f 49 c9 bd 5c b2 70 bc 28 fb 2f 3d 5c 3b 22 be
       -0.09828388 -0.014690962 0.04296413 -0.15842956
000370 3c 5b 8a 3c 4d ad 95 3c af 2c 12 3e 80 57 41 be
       0.016889207 0.018271113 0.14274858 -0.18881035
000380 0c 1b cd 3c af c7 3b 3d ed b7 33 3d a9 e9 06 3b
       0.025037311 0.04584473 0.043876577 0.002058605
000390 40 c6 ea bc 00 93 48 be f2 5f b7 bd e5 8d 33 bc
       -0.028658986 -0.19587326 -0.08953847 -0.010959123
0003a0 6a b9 66 bd ed 1f 8a bc 4d 62 7e 3c 53 d2 d9 bd
       -0.05632917 -0.016860927 0.015526366 -0.10635819
0003b0 20 bb 7e bd 35 18 af bb ce 3f 96 3d 4c 64 ba 3c
       -0.062190175 -0.005343462 0.073363885 0.022752903
0003c0 ea 32 22 bd 02 9f 17 3d 37 72 cb bd 43 00 16 3e
       -0.039599337 0.037016876 -0.09933894 0.14648537
0003d0 82 c8 a2 bc 01 fe ac 3d 75 f9 0a bd bb 8a 0b be
       -0.019871 0.08446885 -0.033929307 -0.1362714
0003e0 bb 16 6a bc 8a 76 35 bd 35 8b 6b bd fc be 16 3c
       -0.014287646 -0.0443025 -0.057505805 0.009200808
0003f0 1d 38 02 be ba 60 0b be 58 fe fd 3c 71 67 a8 3d
       -0.12716718 -0.13611117 0.03100507 0.08222855

action_model._discrete_distribution.branches.1.bias f4 [4]
000000 66 85 1d bd ec b6 84 3d 4e 82 2a 3c 2e 6d 86 39
       -0.038457297 0.06480202 0.010407044 0.00025639817

action_model._discrete_distribution.branches.2.weight f4 [2, 128]
000000 76 c6 16 3d 26 02 3b 3a 99 3a 85 bb 1b ad 0f 3e
       0.03681036 0.0007133804 -0.0040658233 0.14030878
000010 87 d9 f9 3c de 68 bb 3d 88 ee c4 3d 3d 0e b0 bd
       0.030499233 0.09150861 0.09615809 -0.08596466
000020 d8 fd a5 3d 9d 39 84 bb 65 82 82 bd d3 58 87 bd
       0.081050575 -0.0040351884 -0.06372527 -0.06608739
000030 e3 df 0f bd 32 7d de 3d e8 6e b5 3c a9 bb b5 bd
       -0.035125624 0.10863723 0.02214761 -0.08873684
000040 37 74 01 bc 60 e7 8e 3d ce d3 c2 3d fc 84 41 3b
       -0.007901243 0.06977725 0.09513055 0.0029528728
000050 6b 09 da 3d e6 cf 99 3d e2 b0 8c bb d9 a7 35 bd
       0.106463276 0.075103566 -0.004293547 -0.044349525
000060 fa 16 97 3d d2 41 d6 3d cc 18 87 3c ec 0f 3d bd
       0.07377429 0.10461773 0.016491316 -0.046157762
000070 d4 45 ef 3d c4 d1 bd 3d 1b 2a 47 bd ed 0e 1d bd
       0.116832405 0.09268525 -0.04862414 -0.038344312
000080 be 67 46 bb 39 4a f4 3a cb a0 43 bc 24 89 9e 3d
       -0.0030274238 0.0018637843 -0.0119401915 0.07741001
000090 fc b7 da 3c 74 5c ba 39 89 68 86 3d d5 d2 00 3d
       0.026699059 0.00035545568 0.06562907 0.031451065
0000a0 b4 f8 c0 3c 3d 4e 03 3e 2d 3d 7b bc e0 75 9c 3d
       0.02355609 0.12822814 -0.01533441 0.0763967
0000b0 0f 1b 9f bc fd b8 a3 3d 35 2a 1e bb 5b ae 90 bd
       -0.019422082 0.07994268 -0.0024134044 -0.07064506
0000c0 09 10 f8 bc 74 70 32 bc 84 f1 4c 3d 98 21 de 3d
       -0.030281084 -0.010891069 0.050035015 0.10846251
0000d0 26 71 7d 3d 50 d6 5c bb f4 27 54 bd db 59 5d 3d
       0.061875485 -0.0033697076 -0.051795915 0.05404077
0000e0 68 09 e1 bc b8 2b 5e 3c d9 68 5e 3d 59 96 a7 3c
       -0.027470306 0.013560228 0.05429921 0.020457434
0000f0 1e d5 61 bb 66 06 9b 3d e2 5e 8b 3d f2 78 95 bd
       -0.0034459303 0.0756958 0.06805207 -0.07298459
000100 35 c0 ed bc 4e e9 4e 3d 6d d0 8f 3d d9 ad 0f 3d
       -0.029022316 0.050515465 0.07022176 0.035077903
000110 c5 99 28 bb 6e 66 05 3e 23 14 c5 bb 97 17 1c bd
       -0.002572642 0.13027355 -0.0060143634 -0.038108435
000120 eb 24 cc bc 22 c5 2b 3e 8f dd 9c 3d e2 77 5d bb
       -0.024919948 0.16774419 0.076594464 -0.003379338
000130 11 80 af 3d 0f 76 4e bc 0f c3 e8 bc 63 f0 9d bc
       0.085693486 -0.01260139 -0.028413324 -0.019279664
000140 90 fe 41 bd 26 06 3d 3d 9a ef 0a 3d dc 3f 3c bc
       -0.04736191 0.04614844 0.033919908 -0.011489835
000150 d8 a7 1f 3d 7a d7 ba bc 28 94 e3 bc e0 1c 49 bd
       0.038978428 -0.022807825 -0.027780607 -0.049099803
000160 99 7d 27 3e 55 31 ca bc 1e 32 8b bd 76 0c 62 bd
       0.16356505 -0.024681726 -0.067966685 -0.055187665
000170 65 f7 43 3d fc e1 e8 3d d6 d2 0a bb 35 56 d4 3d
       0.047843356 0.11371228 -0.0021182797 0.10368005
000180 37 45 c0 3d 55 3d 75 3d 44 53 2c 3c 9c c2 dd 3c
       0.09388202 0.059872944 0.010517899 0.027070336
000190 2b c9 73 3d 31 12 b1 bb d8 ad 26 bd d8 e7 45 3c
       0.05951802 -0.00540378 -0.040693134 0.012079202
0001a0 49 7a 04 3e 24 35 19 3c f4 fa a7 3c 51 af d4 3c
       0.12937273 0.009351049 0.020505406 0.025962504
0001b0 6a 56 1e be 5c 24 98 bc b0 9c 80 3d 9c 63 4a 3c
       -0.15462652 -0.018572025 0.06279886 0.01235285
0001c0 c6 64 5a 3c f8 d8 9c 3c 2b b0 ac bd 1a 3d db 3c
       0.01332969 0.019146428 -0.08432039 0.026762534
0001d0 74 58 93 3d b0 1c 59 bd bf 08 84 bd 5a ed 92 3d
       0.071946055 -0.053005874 -0.06446981 0.071741775
0001e0 aa 70 07 3e 5b b7 05 3d cf aa 6c 3d a2 aa 69 3e
       0.13226572 0.032645565 0.057780083 0.22818998
0001f0 9c 38 b1 bc a9 b1 c4 3d 89 9b c6 bb a2 36 5c bd
       -0.021633439 0.096041985 -0.0060610217 -0.05376304
000200 39 0d 32 bd bd 98 1b 3c ad 7e 8c bb 51 67 22 be
       -0.04346964 0.009496865 -0.004287562 -0.15859725
000210 0c 82 32 bd e2 dc c7 bd 87 ee ce bd 27 a8 a9 3d
       -0.043581054 -0.09758927 -0.10104089 0.08284026
000220 7c 6f 8a bd 85 92 a8 bb c1 fc 8d 3d f5 0b 63 3d
       -0.06759545 -0.0051444196 0.069329746 0.055431325
000230 b2 35 25 3d a5 ef af bd 5b 3f 01 bd da 3d db 3d
       0.04033441 -0.085906304 -0.03155456 0.107051566
000240 95 b2 1a 3d bd 1f 87 bd 30 02 ad bd eb df e1 bc
       0.037767965 -0.065978505 -0.08447683 -0.027572593
000250 9f 89 bc bd 2e 51 a9 bd a2 ab 5c 3c b2 06 3b 3d
       -0.09205937 -0.08267437 0.013468655 0.045660682
000260 12 cd 84 bd 7b 8c d1 bd 2f c8 cf 3b 29 13 3e 3d
       -0.064844266 -0.10231873 0.0063410024 0.04640499
000270 84 45 d9 bd 8f 27 b3 bd 33 de 32 3d 87 d4 36 3d
       -0.10608962 -0.087477796 0.043668937 0.044636276
000280 c0 48 77 3c c9 59 c6 ba 4b 74 37 3c 17 2d a9 bd
       0.015093029 -0.0015132959 0.01119716 -0.08260553
000290 16 cb ef bc d7 c9 19 3c 44 d7 82 bd a6 e6 02 bd
       -0.029271644 0.009386501 -0.06388715 -0.031958245
0002a0 bf c6 14 bc 17 0d f1 bd c1 c3 d3 3b 23 fb b1 bd
       -0.009080588 -0.11770075 0.0064625447 -0.08690479
0002b0 68 1b 61 3b f4 2a af bd 69 07 90 bc f3 51 9f 3d
       0.003434861 -0.085531145 -0.017581658 0.077793024
0002c0 83 c1 cc 3c bb f3 79 bb df f9 6c bd 0f 3c 01 be
       0.024994617 -0.003813966 -0.057855483 -0.12620567
0002d0 e9 7d 98 bd d5 7e 48 3c 87 4e 86 3d 29 ac 30 bd
       -0.074458905 0.01223727 0.06557947 -0.043132935
0002e0 e0 25 ce 3c 9f d3 cc bc 48 77 0c bd b4 02 da bc
       0.025164545 -0.025003253 -0.034293443 -0.026612617
0002f0 e9 a6 0f bc 49 c3 88 bd 8e 41 5f bd c3 2d 3d 3d
       -0.008767822 -0.06677873 -0.054505877 0.04618622
000300 26 e7 81 3c 8b 02 80 bd 61 8a a2 bd 33 a7 2a bd
       0.01585729 -0.06250485 -0.0793655 -0.04166336
000310 9c 5b e7 3b 14 be ef bd 79 c9 9a 3c 8c c3 42 3d
       0.0070604812 -0.117061764 0.018894898 0.04754977
000320 ff a3 ad 3c 50 24 29 be 6d 72 6d bd a0 94 5a 3c
       0.021196363 -0.16517758 -0.057970453 0.013341099
000330 ca f5 b6 bd fa be a6 3c ab ea 11 3d 18 d1 4b 3c
       -0.08933599 0.020354737 0.035624187 0.012439989
000340 62 4b 54 3d d9 6b 2b bd 7d f8 0c bd 65 af b3 3b
       0.051829703 -0.0418509 -0.034416664 0.005483555
000350 20 e7 12 bc 3f 99 96 3c 2f 18 23 3d a4 0e 68 3d
       -0.008966237 0.01838362 0.039817985 0.056654587
000360 9e fa 35 be a3 7b 12 3d 17 42 94 3d d0 91 6b 3d
       -0.17771384 0.03576244 0.07239168 0.057512105
000370 4b 27 49 bd 3b f7 b8 bd 36 76 f0 3b a7 11 f8 bd
       -0.04910974 -0.090315305 0.0073383106 -0.12112742
000380 d7 e4 b1 bd 6c 75 77 bd 07 40 24 bc d7 9e fe bc
       -0.08686226 -0.060414717 -0.010025031 -0.0310816
000390 01 8e 8d bd 36 c3 c1 3c 49 73 35 3d ed 89 c5 bb
       -0.06911851 0.023652654 0.044299398 -0.006028405
0003a0 3f f9 10 be 70 d6 16 3c b3 90 8a bc d2 fe 72 bc
       -0.1415758 0.009206399 -0.016914701 -0.014831262
0003b0 38 c4 2c 3e 1e fa c0 3c d4 39 b1 bd 26 be c9 39
       0.16871727 0.023556765 -0.08653608 0.0003847938
0003c0 07 5a b3 39 9b 85 87 bc 85 fc a1 3d ea e4 36 bd
       0.00034208616 -0.0165432 0.079094924 -0.044651903
0003d0 23 68 7c bd 93 a4 50 3d ae 5a 90 3d e2 0a 55 bd
       -0.06162275 0.0509382 0.07048546 -0.05201233
0003e0 cf ee 1a be 34 15 ef bc 1a fc 36 bd e5 5b 75 be
       -0.15130161 -0.029184915 -0.044674017 -0.23960836
0003f0 b6 ce e5 3c fd 14 b9 bd dc a3 a8 3b 56 f5 21 3d
       0.028052669 -0.09037206 0.0051464867 0.03954061

action_model._discrete_distribution.branches.2.bias f4 [2]
000000 6c 0a 99 bd bd 0a 99 3d
       -0.07472691 0.07472751

exp_avg f4 [128, 27]
000000 00 00 00 00 c2 26 97 b8 c2 26 97 b8 00 00 00 00
       0.0 -7.20746e-05 -7.20746e-05 0.0
000010 6c 29 97 b8 3f 28 97 b8 00 00 00 00 c2 26 97 b8
       -7.2079565e-05 -7.2077375e-05 0.0 -7.20746e-05
000020 c2 26 97 b8 00 00 00 00 5d 72 97 b8 4a 4c 97 b8
       -7.20746e-05 0.0 -7.221543e-05 -7.214451e-05
000030 00 00 00 00 a1 26 97 b8 bf 26 97 b8 00 00 00 00
       0.0 -7.207436e-05 -7.207458e-05 0.0
000040 c2 26 97 b8 c2 26 97 b8 00 00 00 00 c2 26 97 b8
       -7.20746e-05 -7.20746e-05 0.0 -7.20746e-05
000050 c2 26 97 b8 bb 20 08 39 70 35 7d 39 ae 49 04 ba
       -7.20746e-05 0.00012982164 0.00024147867 -0.00050463795
000060 df c5 1e ba 15 7c ff 39 e1 2a c8 ba 00 00 00 00
       -0.0006056707 0.00048729838 -0.0015271568 0.0
000070 08 23 e3 b5 88 4f e3 b5 00 00 00 00 cb 66 9f b5
       -1.6923013e-06 -1.6935965e-06 0.0 -1.187634e-06
000080 9b 74 b8 b5 00 00 00 00 24 9e e3 b5 68 9e e3 b5
       -1.3743005e-06 0.0 -1.6958843e-06 -1.695892e-06
000090 00 00 00 00 b0 6f c9 b5 98 7c d4 b5 00 00 00 00
       0.0 -1.5008172e-06 -1.5831492e-06 0.0
0000a0 40 30 1f b6 68 80 02 b6 00 00 00 00 9a e5 a9 36
       -2.3720931e-06 -1.9446252e-06 0.0 5.0633216e-06
0000b0 8d ec 13 36 00 00 00 00 fe 1d 53 b6 18 c3 2d b6
       2.2042398e-06 0.0 -3.1458908e-06 -2.5892568e-06
0000c0 23 bd 55 b7 76 bb 15 b7 b5 83 30 38 81 d4 8a b6
       -1.2739826e-05 -8.924739e-06 4.208433e-05 -4.137459e-06
0000d0 56 fe d4 35 bb 66 10 b8 00 00 00 00 b8 73 ac b6
       1.5869252e-06 -3.442795e-05 0.0 -5.139471e-06
0000e0 c0 bf ac b6 00 00 00 00 d0 58 a7 b6 43 ea a9 b6
       -5.148322e-06 0.0 -4.987327e-06 -5.063864e-06
0000f0 00 00 00 00 88 28 ad b6 76 29 ad b6 00 00 00 00
       0.0 -5.1605202e-06 -5.1606285e-06 0.0
000100 d5 bf b3 b6 67 6f b0 b6 00 00 00 00 36 18 a7 b6
       -5.356948e-06 -5.2581777e-06 0.0 -4.9798064e-06
000110 83 f3 ac b6 00 00 00 00 c4 2a ad b6 d4 2a ad b6
       -5.154348e-06 0.0 -5.1607803e-06 -5.1607876e-06
000120 00 00 00 00 cb 32 ad b6 8a 2b ad b6 9b 4a 77 b8
       0.0 -5.161715e-06 -5.1608704e-06 -5.895887e-05
000130 52 55 4b b7 6c 15 83 b9 4f 2d d9 b7 66 92 07 38
       -1.2119608e-05 -0.00025002228 -2.5889514e-05 3.2322852e-05
000140 8d f1 41 ba 00 00 00 00 28 9a d0 38 ee 95 d0 38
       -0.00073983596 0.0 9.946927e-05 9.9461395e-05
000150 00 00 00 00 9c fb d0 38 06 cc d0 38 00 00 00 00
       0.0 9.965079e-05 9.956215e-05 0.0
000160 3e 99 d0 38 96 95 d0 38 00 00 00 00 38 63 d0 38
       9.9467565e-05 9.9460754e-05 0.0 9.936694e-05
000170 3a 7a d0 38 00 00 00 00 ca f4 d0 38 8e 96 d0 38
       9.940979e-05 0.0 9.9638084e-05 9.946256e-05
000180 00 00 00 00 80 c7 d0 38 0a b3 d0 38 00 00 00 00
       0.0 9.955373e-05 9.9515615e-05 0.0
000190 0a 8f d0 38 cc 8f d0 38 ee 67 fd 39 06 54 3a 39
       9.944856e-05 9.944997e-05 0.00048333354 0.00017769643
0001a0 61 c5 fe 3b 9e 03 3f 3a 9a 6f 42 ba 52 15 b5 3b
       0.0077749942 0.0007286611 -0.00074171426 0.005526223
0001b0 00 00 00 00 28 58 c6 b3 28 58 c6 b3 00 00 00 00
       0.0 -9.236129e-08 -9.236129e-08 0.0
0001c0 28 58 c6 b3 28 58 c6 b3 00 00 00 00 28 58 c6 b3
       -9.236129e-08 -9.236129e-08 0.0 -9.236129e-08
0001d0 28 58 c6 b3 00 00 00 00 28 58 c6 b3 28 58 c6 b3
       -9.236129e-08 0.0 -9.236129e-08 -9.236129e-08
0001e0 00 00 00 00 26 58 c6 b3 2a 58 c6 b3 00 00 00 00
       0.0 -9.2361276e-08 -9.2361304e-08 0.0
0001f0 28 58 c6 b3 28 58 c6 b3 00 00 00 00 16 58 c6 b3
       -9.236129e-08 -9.236129e-08 0.0 -9.236116e-08
000200 1d 58 c6 b3 e2 25 70 33 7f 4f 81 34 26 35 4c b5
       -9.236121e-08 5.591381e-08 2.4085963e-07 -7.6073263e-07
000210 0a c4 4b b5 33 06 2f 35 e8 10 a6 b5 00 00 00 00
       -7.590867e-07 6.52016e-07 -1.2372884e-06 0.0
000220 a6 1f 22 39 87 13 22 39 00 00 00 00 24 9c 18 39
       0.00015461314 0.00015456798 0.0 0.00014554017
000230 64 b3 1c 39 00 00 00 00 a5 00 22 39 e5 00 22 39
       0.00014944148 0.0 0.00015449764 0.00015449857
000240 00 00 00 00 3f 4e 20 39 e5 0f 21 39 00 00 00 00
       0.0 0.00015287938 0.00015360078 0.0
000250 04 50 24 39 3c 6d 22 39 00 00 00 00 c9 37 04 39
       0.00015670067 0.00015490217 0.0 0.00012609283
000260 3e d7 10 39 00 00 00 00 58 b8 22 39 58 78 22 39
       0.00013813094 0.0 0.00015518197 0.00015494355
000270 e6 af 41 3a 45 1c 4c 39 6f 30 0d 3c b6 55 8c 3a
       0.00073885766 0.00019465487 0.0086175045 0.0010706696
000280 9a 70 91 ba a0 91 d8 3a 00 00 00 00 51 d7 1a 35
       -0.001109618 0.0016522892 0.0 5.76828e-07
000290 47 0a 1b 35 00 00 00 00 af d8 2e 35 48 3b 26 35
       5.7756955e-07 0.0 6.513537e-07 6.1926085e-07
0002a0 00 00 00 00 02 2d 1b 35 8c 3b 1b 35 00 00 00 00
       0.0 5.7807495e-07 5.782865e-07 0.0
0002b0 b5 4e 19 35 41 52 1a 35 00 00 00 00 4a 70 38 35
       5.7111475e-07 5.7489166e-07 0.0 6.8708744e-07
0002c0 f4 9c 1c 35 00 00 00 00 ad 52 1b 35 56 52 1b 35
       5.8342926e-07 0.0 5.786231e-07 5.7861814e-07
0002d0 00 00 00 00 4c f8 1a 35 ea 50 1b 35 b8 f7 c1 36
       0.0 5.773079e-07 5.7859745e-07 5.7806865e-06
0002e0 e3 e1 0e 36 e2 4f 07 37 90 10 ab 36 4a 0c 04 b7
       2.1291132e-06 8.065226e-06 5.0981253e-06 -7.870674e-06
0002f0 2c 21 9b 38 00 00 00 00 59 3c a2 3a 59 37 a2 3a
       7.397155e-05 0.0 0.0012377604 0.0012376114
000300 00 00 00 00 dc 07 98 3a 01 6d 9c 3a 00 00 00 00
       0.0 0.0011599022 0.0011934341 0.0
000310 24 2f a2 3a 4f 2f a2 3a 00 00 00 00 8f 2f a7 3a
       0.0012373668 0.0012373718 0.0 0.0012755262
000320 85 17 a5 3a 00 00 00 00 a7 df a1 3a 04 01 a2 3a
       0.001259551 0.0 0.0012349979 0.0012359922
000330 00 00 00 00 b1 f0 a2 3a b6 aa a2 3a 00 00 00 00
       0.0 0.0012431351 0.0012410495 0.0
000340 bf 02 a2 3a de 12 a2 3a 8b b8 8f 38 d5 f7 3e bb
       0.0012360438 0.0012365242 6.853145e-05 -0.0029139419
000350 db 59 af 3c 91 2a 21 3c c0 13 0c bc ff 0f fb 3c
       0.021405151 0.009836809 -0.008549631 0.030647276
000360 00 00 00 00 5a aa ad b6 5a aa ad b6 00 00 00 00
       0.0 -5.1756333e-06 -5.1756333e-06 0.0
000370 54 aa ad b6 54 aa ad b6 00 00 00 00 5a aa ad b6
       -5.1756306e-06 -5.1756306e-06 0.0 -5.1756333e-06
000380 5a aa ad b6 00 00 00 00 b6 b0 ad b6 82 ad ad b6
       -5.1756333e-06 0.0 -5.1763736e-06 -5.1760007e-06
000390 00 00 00 00 39 aa ad b6 b0 aa ad b6 00 00 00 00
       0.0 -5.1756183e-06 -5.1756724e-06 0.0
0003a0 db a3 ad b6 9a a6 ad b6 00 00 00 00 e0 a9 ad b6
       -5.174877e-06 -5.1751967e-06 0.0 -5.175578e-06
0003b0 0a aa ad b6 06 1f 94 35 1c d6 3f 37 ce e7 45 b8
       -5.175597e-06 1.1035888e-06 1.1434338e-05 -4.7184345e-05
0003c0 f7 95 30 b8 86 2c 1a 38 98 eb 70 b8 00 00 00 00
       -4.2101336e-05 3.6757927e-05 -5.7439873e-05 0.0
0003d0 d8 cb 04 b9 39 c4 04 b9 00 00 00 00 84 7b 21 b9
       -0.00012664439 -0.000126616 0.0 -0.0001540017
0003e0 1c e6 14 b9 00 00 00 00 76 c5 04 b9 d2 c0 04 b9
       -0.00014200102 0.0 -0.00012662061 -0.00012660332
0003f0 00 00 00 00 e9 f7 f2 b8 a5 8e fc b8 00 00 00 00
       0.0 -0.00011585636 -0.00012042866 0.0
