results/Shooter/Shooter/Shooter-1000054.pt (torch, 520999 bytes, 46 tensors)

discrete_act_size_vector f4 [1, 3]
0	0x40a00000	5.0
1	0x40800000	4.0
2	0x40000000	2.0

network_body._body_endoder.seq_layers.0.weight f4 [128, 27]
0	0x3db64a92	0.08900942
1	0xbe453ce7	-0.19261514
2	0x3dff41cf	0.12463724
3	0x3c73475a	0.0148485545
4	0x3e782aad	0.2423503
5	0xbe6eb334	-0.23310548
6	0xbe624109	-0.22095121
7	0xbf00dd4e	-0.50337684
8	0x3e16f29f	0.1474099
9	0xbdcd130b	-0.10013398
10	0x3df262cf	0.118352525
11	0xbe852434	-0.26004183
12	0xbe2fb1f4	-0.17157727
13	0xbe5416c2	-0.20711806
14	0xbe29af2e	-0.16570732
15	0xbe0f0be1	-0.13969375
16	0x3dabe167	0.083926015
17	0x3d623b9c	0.05523263
18	0x3e8a9970	0.2707019
19	0xbe4a09f1	-0.19730355
20	0xbed2b683	-0.4115487
21	0x3e388bc7	0.18022071
22	0xbe1af5b6	-0.15132794
23	0xbd622aea	-0.055216707
24	0x3e8975e0	0.26847744
25	0x3eccf839	0.4003313
26	0xbdb93420	-0.09043145
27	0x3e5a6b93	0.21330099
28	0xbd67aac8	-0.056559354
29	0xbdd9b84d	-0.10630856
30	0xbd4ccd64	-0.050000563
31	0x3df81260	0.1211288
32	0xbeb4b839	-0.352968
33	0x3dbbefe4	0.09176615
34	0xbe075895	-0.13217385
35	0x3e44e152	0.19226578
36	0x3df1185d	0.11772225
37	0xbd9cc94e	-0.07655583
38	0xbe23c99a	-0.15994874
39	0x3d79737d	0.060901154
40	0xbd0b7ce5	-0.034054656
41	0xbf1f68e3	-0.6226942
42	0xbdf9ff8c	-0.12206945
43	0xbdfc36fa	-0.123151734
44	0x3daa04cc	0.08301696
45	0x3cc07520	0.02349335
46	0xbe043690	-0.12911439
47	0xbdb73b9a	-0.08946915
48	0xbe20cc18	-0.15702856
49	0x3e99c578	0.3003347
50	0xbd9a67a9	-0.07539303
51	0xbe479db7	-0.19493757
52	0x3e4161d4	0.18884975
53	0xbdf3cdf4	-0.11904517
54	0x3c842d97	0.01613502
55	0xbed5e672	-0.41777378
56	0xbd469796	-0.048484407
57	0xbe3d0878	-0.18460262
58	0x3e36ea10	0.17862725
59	0xbdeeb7dd	-0.11656163
60	0xbecd1dd8	-0.4006183
61	0xbe427478	-0.18989742
62	0x3e6e4c1d	0.23271222
63	0xbe5de7ec	-0.21670502
64	0x3eb6996c	0.35663927
65	0xbd8ab4bd	-0.06772754
66	0xbe125783	-0.14291196
67	0xbe264185	-0.16235931
68	0x3da3780b	0.07981881
69	0x3e22e697	0.15908276
70	0x3e090ed7	0.13384567
71	0xbed4d821	-0.41571143
72	0xbe4d7986	-0.20065889
73	0x3c2f52f0	0.010700926
74	0x3df8568a	0.12125881
75	0xbe4665b5	-0.19374736
76	0x3e456c66	0.19279632
77	0x3db5edef	0.08883273
78	0xbb5d45b3	-0.0033763468
79	0xbd03709c	-0.032089815
80	0x3d819ae5	0.06328372
81	0x3da58ba5	0.08083276
82	0x3ea6ed8a	0.32603103
83	0x3d08cf19	0.03340063
84	0x3e2dfca5	0.16990907
85	0x3e15eb53	0.1464055
86	0x3b16e34b	0.002302366
87	0x3e0e8a0a	0.13919845
88	0x3e2deb16	0.1698421
89	0xbd088b71	-0.033336107
90	0xbc1b2202	-0.009468557
91	0x3cfda90e	0.0309644
92	0xbe055e8a	-0.13024345
93	0xbe751c2e	-0.23936531
94	0x3d6e97d4	0.058250263
95	0xbe0a9fb5	-0.13537486
96	0x3e177aa9	0.14792885
97	0xbda73e3f	-0.081661694
98	0xbee04ff9	-0.43811014
99	0xbcf457b7	-0.029826982
100	0x3ecd490c	0.40094793
101	0x3d3e7970	0.04650253
102	0x3e4dbf8f	0.20092605
103	0x3e26429d	0.16236348
104	0xbd8d2582	-0.0689192
105	0x3ed17598	0.4091003
106	0xbdb5074b	-0.08839282
107	0x3d89cb40	0.0672822
108	0x3cb37adc	0.02190917
109	0xbeb0184b	-0.34393534
110	0x3e711976	0.23544869
111	0x3e87f690	0.265553
112	0x3d3b7065	0.045761485
113	0xbca98b98	-0.020696446
114	0x3e8548bd	0.26032057
115	0x3dc54224	0.09631756
116	0xbec56954	-0.3855692
117	0xbe7d4196	-0.2473205
118	0xbe0aa87a	-0.13540831
119	0x3e43df02	0.1912804
120	0x3e8e1a8e	0.27754635
121	0x3e25c405	0.16188057
122	0x3e3ad10f	0.18243812
123	0xbd2ce86a	-0.042213835
124	0xbe8bd9ba	-0.2731455
125	0x3ce5f71a	0.028071929
126	0xbeecbeff	-0.46239468
127	0xbe1be02f	-0.15222238
128	0xbe88457c	-0.26615512
129	0x3e1baad3	0.15201883
130	0x3ea04b75	0.3130757
131	0xbd11be8b	-0.035582107
132	0xbe8dd96e	-0.27704948
133	0xbe505ebd	-0.2034864
134	0xbe3c53b6	-0.18391308
135	0xbd520cb8	-0.05128166
136	0x3d9f53de	0.07779668
137	0xbe171f77	-0.14758097
138	0xbd8cad44	-0.06868985
139	0xbe7dda1d	-0.24790235
140	0xbe3c4b7b	-0.18388169
141	0xbe7a1b87	-0.24424563
142	0x3dac4887	0.08412271
143	0xbbf5d620	-0.0075023323
144	0xbdd9e13d	-0.10638664
145	0x3de3cc2d	0.11122928
146	0xbee78a3d	-0.45222655
147	0xbe6b22b4	-0.22962457
148	0x3d64f7f2	0.05590052
149	0x3dacc722	0.08436419
150	0x3c85d639	0.0163375
151	0x3e61e020	0.22058153
152	0xbd572775	-0.052527864
153	0xbd99cfd1	-0.07510341
154	0x3eb7f5c2	0.35929686
155	0x3d75133f	0.059832808
156	0xbece184a	-0.40252906
157	0xbe89c269	-0.26906136
158	0xbce63b7f	-0.028104542
159	0x3c07a40b	0.008278857
160	0x3e8d6132	0.27613217
161	0x3d31a2f5	0.0433683
162	0x3e536133	0.20642547
163	0x3eceb848	0.4037497
164	0xbc06b5a1	-0.008222015
165	0xbe00ff5d	-0.12597413
166	0x3c9af8dc	0.018917494
167	0x3c95e788	0.01829888
168	0xbe277c0d	-0.16355915
169	0xbe92b09e	-0.28650373
170	0xbf0cedf7	-0.55050606
171	0xbe76d94e	-0.24106333
172	0xbd2d2989	-0.04227594
173	0x3d5bcd53	0.05366261
174	0x3db1c035	0.08679239
175	0xbedf7ebe	-0.43651384
176	0xbb06d1f2	-0.0020571915
177	0xbe1c2a3d	-0.15250488
178	0x3d7129f6	0.058877908
179	0xbdab1c1b	-0.0835497
180	0x3dad2609	0.0845452
181	0xbe3868c9	-0.18008722
182	0xbdce858f	-0.10084068
183	0x3c8aab64	0.016927429
184	0x3d421922	0.04738725
185	0x3e2fe469	0.17176975
186	0xbd3ce18a	-0.04611353
187	0xbc74898c	-0.014925372
188	0xbd8743cf	-0.0660473
189	0xbd4250dd	-0.0474404
190	0x3e97f23e	0.29677004
191	0x3d924321	0.0714171
192	0xbe00a22e	-0.12561867
193	0x3e149b08	0.14512265
194	0x3da08446	0.07837729
195	0x3d5c6770	0.053809583
196	0xbf33eb21	-0.70280653
197	0xbf0f8cd7	-0.5607428
198	0x3eb52716	0.35381383
199	0xbd6b415d	-0.057435382
200	0x3d0ce533	0.03439827
201	0xbe5079a7	-0.20358907
202	0xbe971fb9	-0.2951639
203	0x3d4f7bd8	0.050655216
204	0xbd80e560	-0.0629375
205	0x3eee862a	0.46586734
206	0xbeaf641a	-0.3425606
207	0xbe87d242	-0.265276
208	0xbcadf9aa	-0.021237213
209	0xbe7edeb8	-0.24889648
210	0x3ea43cbb	0.32077584
211	0xbd88fc19	-0.06688709
212	0x3de929b5	0.11384908
213	0x3dcc3f92	0.099730626
214	0x3dd0dcf8	0.101983964
215	0xbe9bfb0c	-0.3046497
216	0x3e8bacc1	0.27280238
217	0x3e5271be	0.20551202
218	0x3dae2dae	0.085048065
219	0xbe92507a	-0.28577024
220	0x3d857598	0.0651657
221	0x3d832579	0.06403632
222	0xbe24b0e8	-0.1608311
223	0xbf21a865	-0.63147575
224	0xbee0d363	-0.43911275
225	0xbe966aee	-0.29378456
226	0x3d8e725b	0.06955405
227	0xbe7e214c	-0.24817389
228	0x3d69647d	0.0569806
229	0xbf14516b	-0.57936734
230	0xbef7d33f	-0.48403355
231	0xba23bbc9	-0.0006245939
232	0x3e060811	0.13089015
233	0xbed0b146	-0.4076025
234	0x3e175b96	0.14781031
235	0xbe6983e2	-0.22804216
236	0x3d2679e6	0.040643595
237	0x3d821f26	0.06353597
238	0x3e2a8b25	0.16654642
239	0x3e2fd0a7	0.17169438
240	0xbe3df0fe	-0.18548962
241	0x3e333b1c	0.17503017
242	0x3d6a0182	0.057130344
243	0xbdf8417f	-0.121218674
244	0xbdc03f5e	-0.09387086
245	0xbdd2d330	-0.10294187
246	0xbe811852	-0.25213867
247	0x3e873244	0.26405537
248	0x3e42bca5	0.19017275
249	0xbd2c1c2a	-0.042019047
250	0xbe45b48b	-0.19307153
251	0xbdc693a7	-0.09696131
252	0xbdc8f770	-0.0981282
253	0x3d48d63b	0.04903243
254	0x3e3d2b49	0.18473543
255	0xbc5d5caf	-0.013510867

network_body._body_endoder.seq_layers.0.bias f4 [128]
0	0xbda94877	-0.08265775
1	0xbd39a959	-0.045327518
2	0xbd163e24	-0.036680356
3	0x3c4437a9	0.011976161
4	0xbc52b1d0	-0.012859777
5	0xbd90e916	-0.070757076
6	0xbcda1f15	-0.02662615
7	0xbcf0f9aa	-0.029415924
8	0xbe41b875	-0.18918021
9	0xbc269cfd	-0.010169265
10	0x3dc6e038	0.09710735
11	0xbcb9cfe8	-0.022682145
12	0x3d7d7297	0.06187686
13	0x3cc593ab	0.024118265
14	0xbdd619e7	-0.10454159
15	0xbe9854ae	-0.29752105
16	0xbde0ef32	-0.10983123
17	0xbe01c5a2	-0.12673047
18	0x3e00f70d	0.12594242
19	0xbe222bdd	-0.15837045
20	0xbd8e9347	-0.06961685
21	0xbda10e99	-0.078641124
22	0xbe3d771e	-0.18502471
23	0xbdce851f	-0.100839846
24	0xbe1807a0	-0.14846659
25	0xbdd9fe64	-0.10644224
26	0xbe2bf7ae	-0.16793701
27	0xbd9ea3fb	-0.077461205
28	0xbd49a017	-0.04922494
29	0xbd04d464	-0.032429114
30	0x3b8d41f1	0.0043108393
31	0xbdc97e06	-0.0983849
32	0xbc5fdb70	-0.013663158
33	0x3c23543d	0.009968814
34	0x3dfecbd2	0.124412194
35	0x3d3f0eba	0.046644904
36	0x3d53cdfb	0.05171011
37	0x3d8cff4c	0.068846315
38	0xbd8aae55	-0.067715324
39	0x3df27cd2	0.11840214
40	0x3d8bbd8b	0.06823262
41	0x3d1de007	0.038543727
42	0xbd78b22d	-0.060716797
43	0xbc5fb37b	-0.013653631
44	0xbd055071	-0.032547418
45	0xbda527d2	-0.08064236
46	0xbe2daa53	-0.16959505
47	0xbe191a91	-0.1495154
48	0xbe3def41	-0.185483
49	0xbdd91e66	-0.10601501
50	0xbe182f6c	-0.1486184
51	0x3de9d543	0.114176296
52	0xbc713dc8	-0.014724202
53	0x3d347084	0.044052616
54	0xbc9ed8c4	-0.019390471
55	0x3e0c9ef5	0.13732512
56	0x3d2f6bfd	0.042827595
57	0x3d5cfac1	0.053950075
58	0xbd00a4f8	-0.031407326
59	0xbd95d783	-0.07316496
60	0x3dfe9664	0.124310285
61	0xbe4e6519	-0.20155753
62	0xbd6a8b20	-0.057261586
63	0xbd56eb50	-0.052470505
64	0x3cd5b0c3	0.026085263
65	0x3d77ff07	0.060545947
66	0xbe07f861	-0.13278343
67	0xbd07e04a	-0.033172883
68	0xbddae290	-0.106877446
69	0xbd5fef9b	-0.054671865
70	0x3c8e48f5	0.017368773
71	0x3c35afcb	0.011089276
72	0xbe4a0737	-0.19729315
73	0x3d667d0a	0.05627159
74	0x3ce10410	0.027467757
75	0xbd4361fc	-0.047700867
76	0xbe8535b4	-0.26017535
77	0x3bc80959	0.00610463
78	0x3da766e5	0.081739224
79	0xbdf50022	-0.11962916
80	0xbe117dc5	-0.14208134
81	0xbd09e54a	-0.033665933
82	0xbd509b43	-0.05092932
83	0x3ca61e0a	0.020277996
84	0xbe224777	-0.15847574
85	0x3d5fee4a	0.05467061
86	0xbd8bfbef	-0.06835162
87	0xbdfb38dc	-0.122667044
88	0x3d265ed8	0.040617794
89	0xbe37e28f	-0.17957519
90	0x3d1b53ac	0.037921593
91	0x3c92be4e	0.01791301
92	0xbd59a381	-0.053134445
93	0xbe74e1d1	-0.23914267
94	0xbe8006ef	-0.2500529
95	0x3d2b7067	0.041855242
96	0xbdd6e3ec	-0.104926914
97	0x3d4ba5a0	0.0497185
98	0x3d955930	0.07292402
99	0x3b12ea3a	0.0022417442
100	0x3cda971b	0.02668338
101	0xbca30917	-0.019901795
102	0x3d51d680	0.051229954
103	0xbd218ab4	-0.03943892
104	0xbe111851	-0.14169432
105	0xbe17f1de	-0.14838359
106	0xbe77498e	-0.24149153
107	0xbe5199c4	-0.20468813
108	0xbc300567	-0.0107434755
109	0x3ddc0f0c	0.107450575
110	0x3e0ba856	0.13638434
111	0xbdb8f7d4	-0.090316445
112	0xbd88c115	-0.066774525
113	0x3de530f9	0.111909814
114	0x3d5bc356	0.053653084
115	0xbcf5cb49	-0.03000416
116	0xbd651d4b	-0.05593614
117	0x3e06be5b	0.13158552
118	0xbdb0c4d1	-0.0863129
119	0xbe4e9e7d	-0.20177646
120	0x3dbc5d3e	0.09197472
121	0xbdae9d50	-0.08526099
122	0xbd7aaf4c	-0.061202332
123	0xbca6668e	-0.020312574
124	0xbab449fd	-0.001375496
125	0xbd5688f5	-0.052376706
126	0xbd7a1b18	-0.061060995
127	0x3dd3c4d6	0.10340278

network_body._body_endoder.seq_layers.2.weight f4 [128, 128]
0	0xbc5d4ba1	-0.013506801
1	0xbdeaec39	-0.11470837
2	0xbe486b8f	-0.1957228
3	0x3d578588	0.05261758
4	0xbb7dbd86	-0.00387177
5	0x3c4c4935	0.012468626
6	0xbe909986	-0.2824213
7	0xbe8c205d	-0.2736844
8	0xbda3d9df	-0.0800054
9	0x3d87212e	0.065981254
10	0xbdd95f12	-0.10613836
11	0x3e294dd5	0.16533597
12	0x3de4dc64	0.11174849
13	0x3e0e8819	0.13919105
14	0x3d974f99	0.07388229
15	0xbe5254d4	-0.20540172
16	0xbd5db70b	-0.05412964
17	0xbde0cb45	-0.109762706
18	0xbe2ff692	-0.17183903
19	0xbdd77f3d	-0.10522316
20	0x3ce97177	0.028496487
21	0xbd0647b1	-0.032783214
22	0x3dee4b94	0.11635509
23	0xbe355dcf	-0.17711566
24	0xbcd766db	-0.026294162
25	0xbc1e0fa1	-0.009647281
26	0x3b254fde	0.0025224607
27	0x3cd8eb03	0.02647925
28	0x3a3e4433	0.0007258087
29	0x3d2f6fcc	0.042831227
30	0xbdf01d29	-0.11724312
31	0x3d324efe	0.043532364
32	0xbd538e70	-0.05164951
33	0x3d60b46c	0.054859564
34	0xbac27259	-0.0014835104
35	0x3d2444f1	0.04010481
36	0xbc3bc9cd	-0.011461687
37	0x3df80769	0.121107884
38	0x3d140ce3	0.036145102
39	0x3d443f97	0.047912207
40	0xbe8907f9	-0.26763895
41	0x3dd4f624	0.1039851
42	0x3d62fa33	0.05541439
43	0xbd8cfe66	-0.0688446
44	0xbdc59dbe	-0.096492276
45	0xbda051df	-0.07828116
46	0xbe29790e	-0.16550085
47	0xb9569811	-0.0002046528
48	0xbd92deda	-0.07171412
49	0x3c1a5d67	0.009421683
50	0xbe7b5a1b	-0.24546091
51	0x3d130e76	0.035902463
52	0x3d54edad	0.051984478
53	0xbd13b4c0	-0.03606105
54	0x3e99a86e	0.30011314
55	0x3d1054db	0.035237174
56	0x3e637b7f	0.22215079
57	0x3e8f970f	0.28044936
58	0x3c3ac6a3	0.011399898
59	0xbd1f3b5a	-0.03887496
60	0x3e25cab8	0.16190612
61	0x3d8e8c2b	0.06960329
62	0xbda6d584	-0.081461936
63	0x3cdd0133	0.02697811
64	0x3df06184	0.1173735
65	0x3d30d7a7	0.043174412
66	0x3e8fb6e0	0.2806921
67	0xbeb03ab6	-0.34419793
68	0xbe6f897f	-0.23392294
69	0x3d9d438c	0.07678899
70	0x3e90b6dd	0.28264514
71	0x3df499b2	0.119433776
72	0xbd1b8f82	-0.037978657
73	0x3b8fda36	0.0043900264
74	0xbe04a1d2	-0.12952355
75	0xbd49a9bc	-0.049234137
76	0xbe6cabd9	-0.2311243
77	0x3d2e914d	0.04261904
78	0x3c6a29b8	0.014292173
79	0xbe2ca623	-0.16860251
80	0x3d17dd34	0.03707619
81	0xbd46d4ae	-0.04854267
82	0x3e38eb6f	0.18058561
83	0xbc53f4ee	-0.012936814
84	0xbd995721	-0.07487322
85	0x3e2160a5	0.15759523
86	0xbd252088	-0.040314227
87	0xbd261bd8	-0.040553898
88	0xbd06e094	-0.03292902
89	0x3e12b1ea	0.14325681
90	0x3ded008a	0.115723684
91	0xbda2b966	-0.07945518
92	0x3e04b27f	0.12958716
93	0x3cc13435	0.023584465
94	0x3e0712ae	0.1319072
95	0xbda8f02b	-0.082489334
96	0x3e179115	0.14801438
97	0x3d933383	0.071875595
98	0xbe30b293	-0.1725562
99	0x3d4618e5	0.048363585
100	0xbddf4687	-0.10902124
101	0xbde2f403	-0.11081698
102	0xbe8a017f	-0.26954266
103	0xbe8b962f	-0.27263018
104	0xbe7290a1	-0.23687984
105	0x3d1bfc46	0.038082384
106	0x3d0157cf	0.03157788
107	0x3e517ad6	0.20457014
108	0xbe0e0159	-0.13867702
109	0xbdb90eff	-0.090360634
110	0xbe64dc07	-0.22349559
111	0x3e0b6bc0	0.13615322
112	0x3ddf3260	0.1089828
113	0xbd99b87f	-0.07505893
114	0xbc4c9358	-0.012486301
115	0x3d7682d4	0.06018336
116	0xbd2562bf	-0.040377375
117	0x3e14b289	0.14521231
118	0x3dae13ff	0.08499908
119	0xbcb072d9	-0.021539139
120	0x3e3c0f02	0.183651
121	0xbdf27ff0	-0.118408084
122	0x3e0ae204	0.1356278
123	0x3c2b0ef4	0.010440577
124	0x3dd21aa3	0.10258987
125	0x3c82b5dc	0.015955858
126	0x3d87404f	0.06604063
127	0x3e24c8f9	0.1609229
128	0xbd9e243b	-0.07721754
129	0x3dc77575	0.097392
130	0xbd2e80ff	-0.04260349
131	0xbeacaf18	-0.33727336
132	0x3ea35d61	0.3190718
133	0xbb0e35b6	-0.0021699495
134	0x3e25337f	0.16132925
135	0x3b8cbf42	0.0042952606
136	0x3da32a7d	0.07967088
137	0xbd7d31a5	-0.061814923
138	0x3c915cf6	0.017744523
139	0x3ebfc3c6	0.3745405
140	0x3d50413d	0.050843466
141	0xbe4e3da8	-0.20140707
142	0x3e7510b5	0.23932154
143	0x3e077faa	0.13232294
144	0x3cdcf993	0.026974475
145	0x3e244953	0.16043596
146	0xbccbb647	-0.02486719
147	0x3cc992ed	0.024606192
148	0x3df684ed	0.12037072
149	0xbe2439fe	-0.16037747
150	0x3e469e1b	0.1939625
151	0x3dcf1e06	0.101131484
152	0x3c5c81dd	0.013458696
153	0x3cd90cfa	0.026495446
154	0x3d9163f6	0.07099144
155	0xbc139476	-0.009007564
156	0xbe0b2d2d	-0.13591452
157	0x3e6fe11d	0.23425718
158	0xbc32bbc9	-0.010909029
159	0xbda4d187	-0.08047777
160	0xbe8f5091	-0.27991155
161	0x392be33b	0.00016392481
162	0x3e852617	0.26005623
163	0xbe7b7bdd	-0.24558969
164	0x3d1bc3e7	0.038028624
165	0x3d97bfb9	0.07409615
166	0xbe0fa50d	-0.14027806
167	0x3dc88ece	0.09792863
168	0xbe2bb331	-0.16767575
169	0x3a95c495	0.0011426384
170	0x3e809bd0	0.25118876
171	0x3dbcca0f	0.09218227
172	0x3d753ca6	0.059872292
173	0x3e1d0399	0.15333404
174	0x3e1794c3	0.14802842
175	0xbd8267e3	-0.06367471
176	0xbe0b32c1	-0.1359358
177	0xbdc0e955	-0.094195046
178	0x3da26d71	0.079310305
179	0xbc008059	-0.0078431005
180	0x3dd26575	0.10273258
181	0xbd9935a2	-0.07480933
182	0xbda5bb82	-0.08092405
183	0xbd6fbbb8	-0.058528632
184	0x3e466673	0.19375019
185	0x3e8a12ff	0.26967618
186	0x3d9ea885	0.07746986
187	0xbd06845d	-0.032841075
188	0xbe823b3c	-0.25435817
189	0xbce0dcb3	-0.027448988
190	0x3e79e506	0.24403772
191	0xbd1d11ac	-0.03834693
192	0xbe8d84cc	-0.27640378
193	0xbe9e1ec1	-0.30882838
194	0xbc1c9e71	-0.00955926
195	0x3cfbe278	0.030747637
196	0xbdd0f8b3	-0.102036856
197	0x3cc9a972	0.02461693
198	0xbbfd37b1	-0.007727586
199	0xbe485ca2	-0.19566587
200	0x3d7b4b14	0.061350897
201	0xbe6d7414	-0.23188812
202	0xbde2fa3d	-0.110828854
203	0x3e89f7cc	0.26946867
204	0x3e35363c	0.1769647
205	0x3e2c611b	0.16833918
206	0xbe990fe7	-0.29894945
207	0xbd7391ca	-0.059465207
208	0xbe2cd5fc	-0.16878504
209	0xbbcaee18	-0.006192934
210	0x3db4f4b7	0.08835738
211	0x3b275be1	0.0025536942
212	0xbbe7a977	-0.0070697623
213	0xbdd59446	-0.104286715
214	0x3cfc1714	0.030772723
215	0xbdbf7cc9	-0.09349973
216	0x3d56817d	0.052369583
217	0x3d4ae06f	0.049530443
218	0xbdf18487	-0.11792856
219	0xbe5e5993	-0.21713857
220	0x3dbd4a33	0.09242668
221	0xbc9a7495	-0.018854419
222	0x3dd46be1	0.10372139
223	0xbd97cea3	-0.0741246
224	0x3de96fd0	0.1139828
225	0xbdbd294c	-0.092363924
226	0xbdc18dcf	-0.09450876
227	0xbe4f60a7	-0.20251714
228	0xbd3d1d12	-0.0461703
229	0x3c5a5571	0.013326035
230	0x3d9658e1	0.07341171
231	0x3e3cd741	0.18441488
232	0x3db33198	0.08749694
233	0xbe0c11a3	-0.13678603
234	0xbb6340f5	-0.0034676169
235	0x3db89d4a	0.090143755
236	0x3c12ee62	0.008967968
237	0x3d74f53d	0.05980419
238	0x3db2c80e	0.08729564
239	0x3da3b2c3	0.079930805
240	0x3e54bc0d	0.2077486
241	0xbd477366	-0.048694037
242	0xbdb7484d	-0.08949337
243	0xbe61259f	-0.21987008
244	0xbd6cb09b	-0.05778561
245	0x3dbeef37	0.0932297
246	0xbd8a6d17	-0.067590885
247	0xbce553a4	-0.027993985
248	0xbded7641	-0.11594821
249	0x3d9d126e	0.07669531
250	0x3d2b2688	0.041784793
251	0x3df2f585	0.118632354
252	0xbdc706f9	-0.09718127
253	0xbd01a787	-0.031653907
254	0xbe611704	-0.21981436
255	0xbeaeb6b9	-0.3412378

network_body._body_endoder.seq_layers.2.bias f4 [128]
0	0xbd4e69da	-0.050393917
1	0xbe1146c6	-0.14187154
2	0x3de605e5	0.11231593
3	0x3b1b2a9f	0.0023676527
4	0xbb525377	-0.0032093206
5	0x3dbca90b	0.0921193
6	0x3d36de44	0.044645563
7	0x3b375a41	0.002797738
8	0xbd955d1b	-0.07293149
9	0x3d8b9388	0.06815249
10	0xbd89e551	-0.06733192
11	0xbdb16a23	-0.08662822
12	0xbd38d2f5	-0.04512306
13	0xbd53d220	-0.051714063
14	0x3dc64c52	0.09682526
15	0x3c15f700	0.009153128
16	0xbc21d157	-0.009876571
17	0xbd1c260f	-0.038122233
18	0x3dca179d	0.09867785
19	0x3ce0e91b	0.027454903
20	0x3d314635	0.043279845
21	0xbb84bab2	-0.004050576
22	0x3d5cb22c	0.053880855
23	0xbd1ee44e	-0.038791947
24	0xbd1bf84e	-0.0380786
25	0xbcffd92a	-0.031231482
26	0x3d895919	0.06706447
27	0x3d6fe66c	0.058569357
28	0xbc8daeb7	-0.017295225
29	0xbcc7fb73	-0.024411893
30	0x3daa4e2d	0.08315692
31	0xbd9bed90	-0.07613671
32	0x3d419c3f	0.04726815
33	0x3d6c0fcb	0.05763225
34	0xbc1df33a	-0.009640509
35	0xba1252cc	-0.00055817957
36	0xbdbc64c5	-0.09198908
37	0x3ba45874	0.0050154272
38	0x3d47001f	0.0485841
39	0xbd9865fe	-0.074413285
40	0xbdb97e38	-0.090572774
41	0x3e41b22e	0.18915626
42	0x3de4c2e4	0.11169985
43	0x3d962411	0.07331098
44	0xbdc618ff	-0.096727364
45	0xbd615807	-0.05501559
46	0xbce53c44	-0.027982838
47	0x3d95fd5b	0.07323714
48	0xbdd1e4c5	-0.102487125
49	0xbc3cfb76	-0.011534562
50	0x3c1e9c9f	0.009680896
51	0xbc255a5c	-0.010092344
52	0x3e295885	0.16537674
53	0x3dfa2cac	0.12215552
54	0x3d399f70	0.045318067
55	0xbde4c8a8	-0.11171085
56	0xbe214422	-0.15748647
57	0x3d827ebb	0.06371828
58	0xbd560d56	-0.052258812
59	0x3c63858d	0.013886821
60	0xbd50ac4c	-0.050945565
61	0xbc83a8c0	-0.016071677
62	0x3da663fc	0.08124539
63	0xbd2837c0	-0.041068792
64	0x3e1c11d3	0.15241174
65	0x3d3d19f7	0.04616734
66	0xbd57f4e7	-0.05272379
67	0xbd162981	-0.036660675
68	0xbd9c6512	-0.07636465
69	0x3b72c70b	0.0037044908
70	0x3d3121ab	0.043245
71	0xbda6e832	-0.081497565
72	0xbda85448	-0.082192004
73	0xbddd2f2d	-0.10800014
74	0xbd5204f3	-0.05127425
75	0xbdb55f4c	-0.08856067
76	0xbdce23e0	-0.10065436
77	0x3b848d41	0.004045159
78	0xbc719820	-0.014745742
79	0xbdc8d928	-0.09807044
80	0x3e5051c0	0.20343685
81	0xbdaf1888	-0.08549601
82	0xbd4bbd15	-0.04974087
83	0xbd2261de	-0.039644115
84	0x3d773001	0.060348514
85	0xbdb11e4d	-0.086483575
86	0xbd956003	-0.072937034
87	0xbd516a88	-0.051126987
88	0xbdc040bf	-0.09387349
89	0x3db520d4	0.08844152
90	0xbcadb05b	-0.021202257
91	0x3c09e90e	0.008417381
92	0x3cddd17b	0.027077427
93	0x3e151397	0.14558254
94	0xbd83c540	-0.06434107
95	0x3c6482e9	0.013947227
96	0xbd0e0b0b	-0.0346785
97	0x3cf350cd	0.029701615
98	0xbdb866e5	-0.090040006
99	0xbdc7c7b7	-0.097548895
100	0x3d80a5e5	0.06281642
101	0xbdaca139	-0.08429188
102	0xbdbcc6fb	-0.0921764
103	0x39be271d	0.00036268766
104	0x3e2763c1	0.16346647
105	0x3d11b601	0.035573963
106	0x3d97eb60	0.07417941
107	0x3d8441a3	0.06457832
108	0xbd616138	-0.055024356
109	0xbceb4f7e	-0.028724428
110	0x3d5b6f10	0.053572714
111	0x3c3191d9	0.010837995
112	0xbe023921	-0.12717105
113	0x3c37fc57	0.011229596
114	0xbaab1151	-0.0013051425
115	0x3d80f1a6	0.06296091
116	0x3dd8471e	0.105604395
117	0x3d88122f	0.06644093
118	0xbc0502aa	-0.008118311
119	0x3c952507	0.018206133
120	0x3e11b01b	0.14227335
121	0xbcc187ab	-0.023624262
122	0xbb69f351	-0.0035698006
123	0x3d485b35	0.048915107
124	0xbd37415b	-0.044740062
125	0xbd86e3d2	-0.06586422
126	0x3df0371f	0.117292635
127	0x3a75a342	0.00093703356

action_model._discrete_distribution.branches.0.weight f4 [5, 128]
0	0x3de07559	0.10959882
1	0xbd8f2004	-0.06988528
2	0xbd97dd07	-0.074152045
3	0x3e30d6ed	0.17269488
4	0x3dbadf79	0.09124655
5	0x3d9ba371	0.07599533
6	0x3d312b1c	0.043254003
7	0xbd88a274	-0.066716105
8	0x3c2b8a7e	0.010470031
9	0x3d57ae62	0.05265654
10	0x3e3ce3c7	0.18446265
11	0x3e629386	0.22126588
12	0x3dce6dc2	0.100795284
13	0x3de36536	0.11103289
14	0xbd9f3251	-0.07773269
15	0x3de88df3	0.113552
16	0x3ce2be01	0.027678492
17	0x3e2365fa	0.1595687
18	0x3c27d909	0.010244616
19	0x3caeb9d1	0.021328839
20	0x3e2dff8d	0.16992016
21	0x3e82f9fe	0.25581354
22	0x3de9abcc	0.11409721
23	0x3da199c0	0.078906536
24	0x3de39094	0.111115605
25	0x3e754f48	0.23956025
26	0x3e54da4d	0.207864
27	0xbcb20537	-0.021731002
28	0x3e100ab9	0.1406659
29	0x3e5094ee	0.20369312
30	0x3e0eddce	0.139518
31	0x3df7d1e6	0.12100582
32	0xbd2bcbec	-0.041942522
33	0x3d924a8d	0.07143126
34	0x3d934126	0.071901605
35	0x3bf383b5	0.007431472
36	0x3dee4493	0.11634173
37	0xbb73caae	-0.0037199664
38	0x3da57143	0.080782436
39	0x3e18b9d1	0.14914633
40	0x3e1e43c1	0.15455534
41	0xbcd7e786	-0.026355516
42	0x3d22ca43	0.039743673
43	0x3e535c24	0.20640618
44	0xbd7b68e4	-0.06137933
45	0xbc999579	-0.018748032
46	0x3d3e16cf	0.04640847
47	0xbd45fcf3	-0.048336934
48	0x3b3adf2a	0.0028514364
49	0x3e078691	0.13234927
50	0x3e1e88ec	0.15481919
51	0xbab69da9	-0.0013932484
52	0xbc35c5af	-0.011094495
53	0x3d46e269	0.048555765
54	0x3d05067e	0.032476895
55	0x3e3786d3	0.17922525
56	0x3e10a95a	0.14127102
57	0xbd8d9df3	-0.06914892
58	0x3e0b9c29	0.13633789
59	0xbe233e87	-0.15941821
60	0x3e078e61	0.13237907
61	0x3dc9d100	0.09854317
62	0x3d041834	0.032249644
63	0x3e696f23	0.22796302
64	0x3dfd6cb2	0.123742476
65	0x3c8efb21	0.017453732
66	0x3dcf1124	0.10110691
67	0x3d89dd2b	0.067316376
68	0x3e0a1708	0.13485348
69	0x3e2c96e9	0.16854443
70	0xbd8ecfe5	-0.069732465
71	0x3de877db	0.113509856
72	0x3e0a9c3a	0.13536158
73	0x3d9e7ae6	0.07738285
74	0x3e2f1fef	0.17102025
75	0x3debcaf2	0.11513318
76	0x3d826ee8	0.0636881
77	0x3e2a0d5b	0.16606657
78	0xbb4f4bc9	-0.0031630865
79	0x3deb106a	0.1147774
80	0x3d6badc6	0.05753877
81	0x3cadca53	0.02121464
82	0x3db9a100	0.090639114
83	0x3b803aaa	0.0039132433
84	0xbd2d933c	-0.04237674
85	0x3d93bd88	0.072138846
86	0x3c873987	0.016506923
87	0x3e09bd3f	0.13451098
88	0x3e46ef8c	0.19427317
89	0x3d949c1d	0.07256339
90	0x3da9f881	0.082993515
91	0x3b4e753b	0.003150298
92	0xbd773c1d	-0.060360063
93	0x3d596e98	0.053083986
94	0x3be9f719	0.007140052
95	0x3cb19cb5	0.021681169
96	0x3cfd3caa	0.030912716
97	0x3dcdf2e9	0.10056097
98	0x3dede650	0.11616194
99	0x3d917594	0.071025044
100	0x3e0772e3	0.1322742
101	0x3da38664	0.07984617
102	0x3d80c1b0	0.06286943
103	0x3c99336e	0.018701281
104	0x3dd3cd8e	0.10341941
105	0x3dc93a11	0.098255284
106	0x3e089f29	0.13341965
107	0x3d52f77e	0.05150556
108	0x3d9deffe	0.077117905
109	0xbc6051f9	-0.013691419
110	0x3cfec5a5	0.031100104
111	0x3e1d22eb	0.15345351
112	0x3d4b1484	0.049580112
113	0x3e02a376	0.12757668
114	0x3dc258ea	0.09489615
115	0x3cef5807	0.02921678
116	0xbc62f9d0	-0.013853505
117	0x3e1f8fcc	0.15582198
118	0x3c71632f	0.01473312
119	0x3d777294	0.060412005
120	0x3dbb3170	0.09140289
121	0x3e0c5d4e	0.13707468
122	0x3d80aefc	0.062833756
123	0xbd908b84	-0.070578605
124	0x3e3ef1b2	0.18646887
125	0x3e8f8cc5	0.28037086
126	0x3dc47c58	0.09594029
127	0xbdf23120	-0.11825776
128	0x3d0477e8	0.032340914
129	0x3dcce4f3	0.10004606
130	0x3d1bf30c	0.038073584
131	0xbcc60528	-0.02417238
132	0x3d442468	0.047886282
133	0xbd0004cc	-0.031254575
134	0x3cb2fade	0.021848138
135	0xbd75a821	-0.059974793
136	0xbbf10f15	-0.0073565342
137	0x3c0d0682	0.008607509
138	0x3d5ab097	0.053391065
139	0xbda9491b	-0.08265897
140	0x3d24e7b6	0.04026004
141	0x3e1fc7e8	0.15603602
142	0x3d861f7a	0.065489724
143	0x3d6a5bf2	0.057216592
144	0x3c7c49ee	0.015398486
145	0xbdae0d9a	-0.08498688
146	0x3da88f50	0.0823046
147	0x3e8cf3ab	0.27529654
148	0xbc6e19da	-0.014532531
149	0x3da00a7f	0.07814502
150	0xbc085374	-0.008320678
151	0x3e16dad1	0.1473191
152	0x3df7acb8	0.1209349
153	0xbdf9f17a	-0.12204261
154	0x3e3a281d	0.18179365
155	0xbe100a08	-0.14066327
156	0xbcfc65e9	-0.030810313
157	0xbda0597a	-0.07829566
158	0xbd3602a6	-0.04443612
159	0xbbb3fedb	-0.0054930276
160	0x3ce6fa03	0.028195387
161	0x3bdad23e	0.006677895
162	0x3d860ec1	0.06545783
163	0x3e401617	0.18758427
164	0x3dc1efc7	0.09469562
165	0x3d29ebf0	0.041484773
166	0x3dfc384f	0.123154275
167	0x3e2d9364	0.16950756
168	0x3d089ddc	0.03335367
169	0x3d85e21e	0.06537269
170	0x3bfa6f26	0.0076426445
171	0xbc96d958	-0.018414184
172	0x3db8e1fe	0.090274796
173	0x3e04d6d6	0.12972578
174	0x3e3c54d4	0.18391734
175	0x3dffbbe6	0.12487011
176	0x3ceeda3e	0.0291568
177	0xbe116b3d	-0.14201064
178	0xbd9ea241	-0.07745791
179	0x3d43f576	0.04784151
180	0xbcb1f272	-0.021722052
181	0x3c04d0aa	0.00810639
182	0x3e032afd	0.12809367
183	0x3c5776f6	0.013150921
184	0x3de18834	0.11012307
185	0xbcc2f9ed	-0.023800815
186	0x3d71bf43	0.059020292
187	0x3dfd94b7	0.12381881
188	0xbda0b7fa	-0.07847591
189	0x3ad79dc5	0.0016450217
190	0xbd715ed9	-0.058928344
191	0xbdef4eb8	-0.11684936
192	0x3db0ed92	0.08639063
193	0x3d6f137a	0.058368184
194	0xbced3450	-0.028955609
195	0xbd8cad62	-0.06869008
196	0x3d67deee	0.056609087
197	0x3db5fac7	0.088857226
198	0xbd0b38eb	-0.033989828
199	0xbcc836b3	-0.024440145
200	0x3de7c7b7	0.113173895
201	0x3e0a4a45	0.13504894
202	0x3da1397f	0.07872295
203	0xbbc353ac	-0.005960902
204	0x3be111c9	0.0068685752
205	0xbd868249	-0.06567819
206	0x3decee6e	0.11568914
207	0x3c904196	0.017609399
208	0xbe21051c	-0.15724605
209	0x3d9c927b	0.076451264
210	0x3dfd38be	0.12364338
211	0x3e978062	0.29590136
212	0xbd9fe8af	-0.07808053
213	0x3dddef5e	0.10836671
214	0xbc9ed7b7	-0.01938997
215	0x3e1db172	0.15399721
216	0x3d0983bc	0.033572897
217	0xbd1a2290	-0.037630618
218	0x3db5bdf8	0.08874124
219	0x3e011e1b	0.1260914
220	0x3e6e299e	0.23258063
221	0xbcf76558	-0.030199692
222	0x3e991f77	0.29906818
223	0x3e2f7ea0	0.17138147
224	0x3d4d8feb	0.05018608
225	0xbdf6a65c	-0.12043449
226	0x3d92ff0c	0.071775526
227	0x3e4b79b8	0.19870651
228	0x3d7e22d6	0.06204494
229	0x3ca2cf82	0.019874338
230	0x3dfd2901	0.123613365
231	0xbde376a6	-0.11106615
232	0xbcf3f488	-0.029779688
233	0x3db3b215	0.08774201
234	0xbc78d816	-0.015188238
235	0x3cfe740b	0.031061193
236	0xbd8ba158	-0.06817883
237	0x3e7fa69a	0.24965897
238	0x3cf81d92	0.030287538
239	0xbcec43c5	-0.028840909
240	0x3dd683c4	0.10474351
241	0x3a9e0f43	0.0012058992
242	0x3e273182	0.1632748
243	0xbe1e36e4	-0.15450627
244	0x3d04c06a	0.032410063
245	0x3da9efc4	0.08297685
246	0xbd3d38c1	-0.046196703
247	0x3d4ada45	0.049524564
248	0x3c935457	0.017984552
249	0x3d8b7bfb	0.06810757
250	0x3e61d8e8	0.220554
251	0x3e1beeec	0.1522786
252	0xbdac9944	-0.084276706
253	0xbe13005e	-0.14355609
254	0xbcc5c7d1	-0.024143131
255	0x3d859897	0.06523245

action_model._discrete_distribution.branches.0.bias f4 [5]
0	0xbe071958	-0.13193262
1	0x3cb94652	0.02261654
2	0x3bbd031e	0.005768194
3	0xbdefee53	-0.117153786
4	0x3e355db6	0.17711529

action_model._discrete_distribution.branches.1.weight f4 [4, 128]
0	0xbe0e22e9	-0.13880505
1	0xbd5f2b4a	-0.054484643
2	0xbd8e8b5a	-0.06960173
3	0xbde20d18	-0.11037654
4	0xbc6a01d8	-0.014282666
5	0xbd935c1c	-0.07195303
6	0xbcd4f927	-0.025997711
7	0xbc95b97f	-0.018276928
8	0xbd8f8c7c	-0.07009217
9	0x3d976e1e	0.0739405
10	0x3e455db7	0.1927403
11	0xbd318920	-0.043343663
12	0xbe1bfa4d	-0.15232201
13	0xbe678f6f	-0.2261331
14	0x3d6b07ac	0.057380363
15	0xbd90ba5f	-0.070667975
16	0xbdd85cd3	-0.1056458
17	0xbdf9b0dc	-0.121919364
18	0x3e65656b	0.22401969
19	0x3e4e2447	0.20131026
20	0x3d3f15b6	0.046651565
21	0xbc37654f	-0.011193587
22	0x3da05d3e	0.078302845
23	0xbdb0df56	-0.08636348
24	0xbdcc29da	-0.0996892
25	0xbd07cf0c	-0.03315644
26	0xbd973b9e	-0.07384418
27	0xbdc2099f	-0.09474491
28	0xbe0a6dab	-0.13518398
29	0xbe08a6ee	-0.13344929
30	0xbe02d39c	-0.12776035
31	0xbc987fa2	-0.018615548
32	0xbdbad7e2	-0.09123208
33	0xbcde91fe	-0.027169224
34	0x3c83dd51	0.016096743
35	0x3db1ad0a	0.08675583
36	0xbe6c24be	-0.23060891
37	0x3daf1b97	0.08550184
38	0xbdf47866	-0.11937027
39	0xbda1c8db	-0.07899638
40	0xbe039ace	-0.12852022
41	0x3d88b7fe	0.06675719
42	0xbc950265	-0.018189618
43	0xbd1fc472	-0.039005704
44	0xbd3384e9	-0.043827925
45	0xbd9d07e4	-0.07667521
46	0x3bb695ab	0.005572041
47	0x3d6c8978	0.057748288
48	0xbe0be3b9	-0.13661088
49	0xbdc52003	-0.096252464
50	0xbd2af54f	-0.04173785
51	0xbe4334fb	-0.19063179
52	0x3ca3f365	0.02001352
53	0xbd16da2e	-0.036829166
54	0xbdb3cbfa	-0.0877914
55	0xbd7fbfbd	-0.062438715
56	0x3ad96a4b	0.0016587464
57	0xbe223e61	-0.15844108
58	0xbd4db7ec	-0.05022423
59	0x3ccc0bae	0.024907913
60	0x3c5a4a75	0.013323416
61	0xbe136846	-0.14395246
62	0x3dd17d68	0.102289975
63	0xbde77a3b	-0.113026105
64	0x3da5302c	0.08065829
65	0xbe1bc691	-0.15212466
66	0xbd4bbb9e	-0.049739473
67	0xbdb70db8	-0.089381635
68	0xbd9e5826	-0.07731657
69	0xbdda21d8	-0.106509864
70	0x3db4f569	0.08835871
71	0xbd69b4f1	-0.057057325
72	0x3dcfa3ae	0.10138641
73	0xbd149596	-0.03627547
74	0xbdfc528c	-0.12320432
75	0xbdc31e76	-0.09527294
76	0xbdcadde2	-0.09905602
77	0xbdce5082	-0.100739494
78	0xbd4809bd	-0.048837412
79	0x3d1dd1b1	0.038530055
80	0xbdb559b6	-0.08855002
81	0xbe01b8b3	-0.12668113
82	0xbe0f84cf	-0.14015506
83	0x3c72bab6	0.014815023
84	0xbe62ac57	-0.22136055
85	0xbd4119f2	-0.047143884
86	0xbe3082c5	-0.17237385
87	0x3dac9490	0.084267735
88	0xbdfb82ec	-0.12280831
89	0xbde15b87	-0.110037856
90	0xbe02983c	-0.12753385
91	0xbe19d00c	-0.1502077
92	0x3e1d850a	0.15382782
93	0x3db99867	0.090622716
94	0xbe44602f	-0.19177316
95	0xbdeeaa7e	-0.116536126
96	0xbe1acb7c	-0.15116686
97	0x3d02493d	0.031808127
98	0xbccb7eff	-0.02484083
99	0xbdfb2082	-0.1226206
100	0xbd4eda00	-0.05050087
101	0xbd71075c	-0.05884491
102	0xbdd21081	-0.10257054
103	0x3df657a8	0.12028438
104	0x3d06d1e0	0.032914996
105	0x3b1dfed6	0.0024108193
106	0xbd34bbb3	-0.044124316
107	0xbda10dc0	-0.07863951
108	0xbcc30aac	-0.0238088
109	0xbbc5f2e2	-0.006040917
110	0x3d81c467	0.06336289
111	0xbdda95cd	-0.106731035
112	0x3cd2f03f	0.025749324
113	0xbd47ebde	-0.048808925
114	0xbe0392fb	-0.12849037
115	0x3db349d4	0.08754316
116	0x3df871cf	0.12131082
117	0x3c9e1366	0.01929636
118	0x3cf08b96	0.029363435
119	0xbdcb176f	-0.09916579
120	0x3df29f4f	0.11846792
121	0xbdaefd4b	-0.085444055
122	0xbcfe76ad	-0.031062448
123	0xbd1d0b82	-0.038341053
124	0xbdf5769d	-0.11985514
125	0x3c3fdd81	0.0117105255
126	0x3e2d080e	0.16897604
127	0xbde426af	-0.11140191
128	0x3e095014	0.13409454
129	0xbe2763de	-0.1634669
130	0x3d519834	0.051170543
131	0x3e484d43	0.19560723
132	0xbe2b6c06	-0.16740426
133	0x3decaec5	0.11556772
134	0x3e19e0d6	0.15027174
135	0xbe1fadc9	-0.15593638
136	0xbd84ac80	-0.06478214
137	0xbd653aec	-0.055964395
138	0xbe0c1a3b	-0.13681881
139	0xbdead5c4	-0.11466554
140	0xbcc2314c	-0.023705147
141	0x3dbf0dee	0.09328829
142	0xbc3dee4f	-0.011592462
143	0xbd85f0d8	-0.06540078
144	0x3e0ab261	0.13544609
145	0xbdec4ea9	-0.11538441
146	0xbd29c9a0	-0.04145205
147	0xbda18ab7	-0.07887786
148	0x3d0b6835	0.034034926
149	0x3de0dccc	0.10979614
150	0x3d69159f	0.056905385
151	0xbccbb04b	-0.024864336
152	0xbd74744f	-0.059681233
153	0x3d4d1b0f	0.050074633
154	0xbe55e845	-0.20889385
155	0x3dd5d6c9	0.10441358
156	0xbcf2cff3	-0.029640174
157	0xbc64e69f	-0.013971
158	0x3e1d3f81	0.15356256
159	0xbd2439ec	-0.0400943
160	0x3dc09586	0.09403519
161	0x3d998a8c	0.07497129
162	0xbd4070e7	-0.046982672
163	0xbcc1b8a4	-0.023647614
164	0x3da36b68	0.079794705
165	0x3e571a96	0.21006235
166	0x3bdc8566	0.0067297695
167	0xbe107340	-0.14106464
168	0x3d0f5771	0.0349955
169	0x3e1304ca	0.14357296
170	0x3d9ef43b	0.07761427
171	0x3d79bffe	0.060974114
172	0xbdb1eb15	-0.086874165
173	0x3e0c2f4c	0.13689917
174	0xbe20703b	-0.15667813
175	0x3da3cbb1	0.079978354
176	0xbd709771	-0.058738176
177	0xbd0bf470	-0.03416866
178	0xbd9aa63f	-0.0755124
179	0x3d930cfe	0.071802124
180	0x3d8e4331	0.069464095
181	0x3e3607e9	0.17776455
182	0x3e3bbfd2	0.18334892
183	0xbd9618fe	-0.07328986
184	0xbd42c430	-0.04755038
185	0x3e47865f	0.19484852
186	0xbd5d3232	-0.054002948
187	0x3d4e728e	0.050402217
188	0x3e1099af	0.14121126
189	0xbd369475	-0.044575173
190	0xbc15eb91	-0.009150402
191	0x3d93a58a	0.072093084
192	0x3c783e61	0.015151591
193	0x3d3041bc	0.04303144
194	0xbd440882	-0.047859676
195	0x3ded5a75	0.11589519
196	0xbdd04172	-0.10168733
197	0xbdb03f85	-0.086058654
198	0xbe1a52c0	-0.15070629
199	0xbbca8408	-0.00618029
200	0xbd4031a2	-0.046922334
201	0xbdab2a10	-0.08357632
202	0x3c928187	0.01788403
203	0x3d6db306	0.05803206
204	0xbd93f909	-0.07225234
205	0x3dd1410e	0.10217486
206	0x3e018498	0.12648237
207	0xbcfbd574	-0.03074143
208	0x3e799b26	0.2437559
209	0x3cd28c38	0.025701627
210	0xbb31a249	-0.0027104786
211	0xbdda7ada	-0.10667963
212	0x3e18ee68	0.14934695
213	0xbe138b6c	-0.14408654
214	0xbe58e95b	-0.21182768
215	0x3d4af658	0.049551338
216	0x3d9253ac	0.071448654
217	0xbcd17bd1	-0.025571736
218	0x3bfd6cf5	0.007733936
219	0xbdbc4d41	-0.091944225
220	0x3b1d15e2	0.0023969342
221	0x3e3f0b0b	0.18656556
222	0x3bc112bc	0.005892126
223	0xbe069da8	-0.13146079
224	0x3d50bc21	0.050960664
225	0xbc25b525	-0.010113989
226	0xbda675a6	-0.081279084
227	0x3e24c030	0.16088939
228	0x3e0d0360	0.13770819
229	0x3bb3b81a	0.005484593
230	0xbe217b8d	-0.15769787
231	0x3dcb01b1	0.09912432
232	0x3e18a965	0.14908369
233	0xbe25433b	-0.16138928
234	0x3e16ee31	0.147393
235	0x3e773c2f	0.24144052
236	0x3e00b1f4	0.12567884
237	0x3d42c7ee	0.04755395
238	0xbe555a30	-0.20835185
239	0xbdb28589	-0.08716876
240	0xbda095ad	-0.078410484
241	0xbe4e0671	-0.20119645
242	0xbd5690f8	-0.052384347
243	0x3db8f7bd	0.09031627
244	0x3db51bbf	0.08843183
245	0xbd3615a0	-0.044454217
246	0xbc3d11d9	-0.0115399
247	0x3ba4fe52	0.0050352
248	0x3e1b4349	0.15162386
249	0xbd31f6ec	-0.043448374
250	0xbd3339ce	-0.0437563
251	0x3d67b959	0.056573246
252	0x3d623be2	0.05523289
253	0x3d8ad91a	0.0677969
254	0x3dac71aa	0.08420117
255	0xbd4a23c9	-0.049350534

action_model._discrete_distribution.branches.1.bias f4 [4]
0	0x3d9867eb	0.07441696
1	0x3d9b5bfb	0.07585903
2	0xbdbf044b	-0.09326991
3	0xbcba2b34	-0.022725679

action_model._discrete_distribution.branches.2.weight f4 [2, 128]
0	0xbe13cdf0	-0.14434028
1	0x3b84c04a	0.004051243
2	0xbd79ff24	-0.061034337
3	0x3d1535e3	0.036428344
4	0xbd829e65	-0.063778676
5	0xbd469439	-0.0484812
6	0xbe19944d	-0.14997979
7	0x3e01452d	0.12624045
8	0x3d8f713e	0.07004021
9	0x3cd0a5d7	0.025469704
10	0x3e040988	0.12894261
11	0x3d83c7cc	0.064345926
12	0x3d80b697	0.06284826
13	0xbd4d22d3	-0.05008204
14	0x3c928efe	0.01789045
15	0x3e0e4b2f	0.13895868
16	0xbbd10d3e	-0.0063797524
17	0x3caee8a3	0.021351164
18	0x3d00f151	0.031480137
19	0xbd734be5	-0.05939855
20	0x3dbbc7b5	0.091689505
21	0x3d8d514f	0.06900274
22	0xbd9d5aec	-0.076833576
23	0xbd952143	-0.07281735
24	0x3c91c0af	0.017792074
25	0x3d894e1e	0.06704353
26	0xbc6747de	-0.014116256
27	0x3e80ee44	0.25181782
28	0x3d0b68e2	0.03403557
29	0x3e528185	0.2055722
30	0x3e0b9799	0.13632049
31	0xbd72fc8b	-0.059322875
32	0x3d3e7228	0.046495587
33	0xbdc0a7d8	-0.09407014
34	0x3cf3a62b	0.029742321
35	0xbdaf2577	-0.08552068
36	0xbb84d86a	-0.004054119
37	0x3d5cfc49	0.053951535
38	0xbe83da01	-0.2575226
39	0x3db5d71f	0.08878922
40	0x3cbad533	0.02280674
41	0xbe0c06aa	-0.13674417
42	0xbd8047c5	-0.06263689
43	0xbdaadf0c	-0.08343324
44	0xbd8bc58a	-0.06824787
45	0xbcbf9769	-0.023387628
46	0x3c6b53a0	0.0143631995
47	0xbdfb9123	-0.12283542
48	0x3d7b9360	0.061419845
49	0xbd4a129a	-0.049334146
50	0x3e0ff39c	0.14057773
51	0x3c709a5c	0.01468524
52	0x3c5ed7fc	0.013601299
53	0xbd02f088	-0.03196767
54	0xbdda7844	-0.1066747
55	0xbb450982	-0.0030065482
56	0x3da35df8	0.079769075
57	0x3bf1200e	0.0073585575
58	0x3cfb259a	0.030657578
59	0xbdcd7d75	-0.10033695
60	0xbde000a3	-0.109376214
61	0xbe10fcc9	-0.1415893
62	0xbce410aa	-0.027839977
63	0x3d29e42d	0.04147737
64	0xbd23d097	-0.03999385
65	0x3cf34561	0.029696168
66	0x3df43eab	0.119260155
67	0x3d818ac1	0.06325293
68	0x3d99c2bb	0.07507845
69	0x3cb1c066	0.021698188
70	0xbe2ad7e6	-0.16683921
71	0xbc6a18e0	-0.014288157
72	0x3d77c152	0.0604871
73	0x3dc77968	0.09739953
74	0xbe2e7333	-0.17036133
75	0xbdaa3a62	-0.08311917
76	0x3a6431ac	0.00087049115
77	0xbcc80c03	-0.02441979
78	0xbcf02347	-0.029313697
79	0x3ca7076f	0.020389287
80	0xbc33bd58	-0.010970436
81	0xbd788e66	-0.060682677
82	0xbc031bb8	-0.008002214
83	0x3d190b2e	0.037364177
84	0xbd50f6b3	-0.05101652
85	0x3d4e0dbf	0.050306078
86	0x3d420ca3	0.047375333
87	0xbdb7cc8e	-0.089745626
88	0x3de12001	0.109924324
89	0x3e1ef0da	0.15521565
90	0xbd127141	-0.03575254
91	0xbba00caf	-0.0048843245
92	0xbd4c4b1d	-0.04987632
93	0x3c2175b3	0.009854722
94	0x3dad10ea	0.08450492
95	0x3e09cb22	0.13456395
96	0x3ceaca1e	0.02866083
97	0xbb2a8298	-0.0026017781
98	0x3d4f089a	0.050545312
99	0x3cd564e8	0.026049092
100	0x3d279e6e	0.040922575
101	0x3d90ba87	0.07066827
102	0x3dcdfb54	0.10057703
103	0x3da4a20f	0.08038723
104	0x3d33e5e9	0.04392043
105	0xbd824d5a	-0.0636241
106	0xbc120532	-0.0089123715
107	0xbdbe6e7e	-0.092984185
108	0xbce9f345	-0.028558383
109	0xbd0c62e7	-0.034274008
110	0x3e1e0081	0.1542988
111	0x3cd6adf8	0.026206002
112	0xbe08e310	-0.13367867
113	0xbd3ea3e7	-0.04654303
114	0x3e533d85	0.20628937
115	0x3d5c9797	0.053855505
116	0x3a25a710	0.0006319145
117	0xbd2ec120	-0.042664647
118	0xbe4bc7e0	-0.19900465
119	0x3cb6bdfe	0.022307392
120	0xbda7b654	-0.08189073
121	0xbc3df7db	-0.011594738
122	0x3d8d3154	0.06894174
123	0xbd2370a4	-0.039902344
124	0x3e0bbbb5	0.13645823
125	0x3df9a8e9	0.1219042
126	0xbcab2614	-0.02089218
127	0x3e187154	0.14886981
128	0x3e0ed8e8	0.1394993
129	0x3c5a4f83	0.013324621
130	0x3d7c891a	0.061654188
131	0xbcf2d612	-0.029643092
132	0x3d6f5987	0.05843499
133	0x3d482193	0.048860144
134	0x3dfef227	0.12448531
135	0xbe042a30	-0.12906718
136	0xbdafb42b	-0.08579286
137	0xbd241978	-0.04006335
138	0xbe04869b	-0.12941973
139	0xbd93efad	-0.07223449
140	0xbd634bb7	-0.05549213
141	0x3d637f85	0.055541534
142	0xbc6b0ca3	-0.014346275
143	0xbe183e14	-0.14867431
144	0x3c8444bc	0.016146056
145	0xbbfb9126	-0.007677215
146	0xbd268427	-0.040653374
147	0x3d53f8c5	0.051750917
148	0xbda8428a	-0.08215816
149	0xbd9d7e2f	-0.07690083
150	0x3d8e8410	0.06958783
151	0x3db101c8	0.08642918
152	0xbcc0a832	-0.023517702
153	0xbd4c8910	-0.0499354
154	0x3c99157d	0.018687004
155	0xbe74818d	-0.23877545
156	0xbd2f3338	-0.042773455
157	0xbe5dcd8c	-0.21660441
158	0xbe12ae6f	-0.14324354
159	0x3d880829	0.066421814
160	0xbd037fe1	-0.032104377
161	0x3daae0d3	0.08343663
162	0xbd2123b5	-0.039340694
163	0x3d98f136	0.07467882
164	0x3bb789df	0.0056011523
165	0xbccc3285	-0.024926433
166	0x3e6c0820	0.23049974
167	0xbd84b2f4	-0.06479445
168	0xbcfabc79	-0.030607449
169	0x3e0fc8cd	0.14041443
170	0x3d51f924	0.05126299
171	0x3dcbfcb7	0.09960311
172	0x3db9f24c	0.090794176
173	0x3d2bb056	0.041916214
174	0xbc94a8a5	-0.018146822
175	0x3dec2a8f	0.11531555
176	0xbd44d10c	-0.048050925
177	0x3d390cb1	0.04517812
178	0xbe033701	-0.12813951
179	0xbc5d7503	-0.013516667
180	0xbae848da	-0.0017721907
181	0x3d7b54e9	0.061360274
182	0x3df5fc8a	0.12011059
183	0xbcd482b3	-0.025941228
184	0xbdd1756d	-0.10227475
185	0x3ab55f4a	0.0013837602
186	0xbc56ccd5	-0.013110359
187	0x3ddc7b8d	0.10765753
188	0x3df43da5	0.1192582
189	0x3e1d4482	0.15358165
190	0x3d3ff562	0.046864875
191	0xbd2cd183	-0.042191993
192	0x3ca57283	0.020196205
193	0xbbd5b394	-0.0065216515
194	0xbddb6b65	-0.10713843
195	0xbd3ad249	-0.0456107
196	0xbd9b9e2a	-0.07598527
197	0xbc5aef4b	-0.013362716
198	0x3e32e9f9	0.17472066
199	0x3b138156	0.002250751
200	0xbd93fd8e	-0.07226096
201	0xbdae190e	-0.085008726
202	0x3e1db315	0.15400346
203	0x3db155d4	0.086589485
204	0xbcd2685c	-0.025684528
205	0x3d0a10f7	0.033707585
206	0x3d19cdc0	0.037549734
207	0xbc9ec336	-0.019380193
208	0xba66f77f	-0.00088106835
209	0x3d710e92	0.058851786
210	0x3a3c1460	0.0007174667
211	0xbd4835d2	-0.048879452
212	0x3d164bb2	0.036693282
213	0xbd7bab60	-0.061442733
214	0xbd5924fa	-0.05301378
215	0x3d974884	0.07386878
216	0xbdea08ae	-0.11427437
217	0xbe26226c	-0.16224068
218	0x3d25924f	0.040422734
219	0x3a95b18a	0.0011420709
220	0x3cfa5f3c	0.03056299
221	0xbc7e8021	-0.015533478
222	0xbdb3081a	-0.087417796
223	0xbe1979ed	-0.14987917
224	0xbd03da6c	-0.032190725
225	0xbcc528e8	-0.024067357
226	0xbd62babb	-0.05535386
227	0xbd0be325	-0.03415217
228	0xbcca04e0	-0.024660528
229	0xbd3f6449	-0.0467265
230	0xbdc9fad5	-0.098622955
231	0xbda57a5f	-0.08079981
232	0xbd459aca	-0.04824332
233	0x3d2d515b	0.042313915
234	0xbab799bf	-0.0014007612
235	0x3dc6cb23	0.09706714
236	0x3cb1caf0	0.021703213
237	0x3d35b04e	0.04435759
238	0xbe1c0655	-0.1523679
239	0xbce6828e	-0.028138425
240	0x3e22d432	0.15901259
241	0x3d254016	0.04034432
242	0xbe6843c1	-0.22682096
243	0xbd529263	-0.051409137
244	0x3c19f13d	0.009395895
245	0x3d61b364	0.05510272
246	0x3e24f1ad	0.16107817
247	0xbd2b364c	-0.04179983
248	0x3dbaa3fb	0.09113308
249	0x3c8fb86f	0.017544
250	0xbd2ed7b7	-0.04268619
251	0x3cca1d96	0.02467231
252	0xbe21965e	-0.15780017
253	0xbdf5d9f0	-0.12004459
254	0x3d16441e	0.036686055
255	0xbe13b59a	-0.14424744

action_model._discrete_distribution.branches.2.bias f4 [2]
0	0xbe192da4	-0.14958817
1	0x3e192df2	0.14958933

exp_avg f4 [128, 27]
0	0x00000000	0.0
1	0xb2aaca85	-1.98827e-08
2	0x338c036d	6.519881e-08
3	0x00000000	0.0
4	0x33d608ac	9.966729e-08
5	0x33d66003	9.982616e-08
6	0x00000000	0.0
7	0x3497eab2	2.8296705e-07
8	0x341bbdce	1.450455e-07
9	0x00000000	0.0
10	0x33d6c1b4	1.0000386e-07
11	0x33d6dd0a	1.0005358e-07
12	0x00000000	0.0
13	0x341b133c	1.4442497e-07
14	0x340216c4	1.2115476e-07
15	0x00000000	0.0
16	0x33d7524d	1.0026688e-07
17	0x33d6db95	1.0005093e-07
18	0x00000000	0.0
19	0x33bea378	8.877299e-08
20	0x33ca1e8a	9.411913e-08
21	0xb529050d	-6.2964756e-07
22	0xb5115db9	-5.4153094e-07
23	0x37041775	7.873275e-06
24	0x3497d0e0	2.8277918e-07
25	0x33fc00d7	1.1734817e-07
26	0x35e6dec0	1.7201164e-06
27	0x00000000	0.0
28	0xb3b77537	-8.542923e-08
29	0xb3bae38f	-8.7026926e-08
30	0x00000000	0.0
31	0xb31e2aa4	-3.6826023e-08
32	0xb3914704	-6.765006e-08
33	0x00000000	0.0
34	0xb3a5343f	-7.692915e-08
35	0xb3b5fbdb	-8.4742815e-08
36	0x00000000	0.0
37	0xb3ed573d	-1.1052041e-07
38	0xb3d0514d	-9.700543e-08
39	0x00000000	0.0
40	0xb3b782ec	-8.545416e-08
41	0xb3b89174	-8.5946255e-08
42	0x00000000	0.0
43	0xb3edec37	-1.107914e-07
44	0xb3d82681	-1.00652876e-07
45	0x00000000	0.0
46	0xb3c34699	-9.093237e-08
47	0xb3c1cd45	-9.024601e-08
48	0x34bd6b66	3.5282136e-07
49	0x348065e8	2.3916004e-07
50	0xb6c47b69	-5.855622e-06
51	0x347087ec	2.240119e-07
52	0x351cd14a	5.8419084e-07
53	0xb56a255c	-8.722616e-07
54	0x00000000	0.0
55	0x3713c630	8.808027e-06
56	0x37c46d50	2.3415923e-05
57	0x00000000	0.0
58	0x37d3e430	2.5259418e-05
59	0x37f6d8a8	2.9426374e-05
60	0x00000000	0.0
61	0xb85124f0	-4.9863884e-05
62	0xb5838e04	-9.801593e-07
63	0x00000000	0.0
64	0x37f027e8	2.8628812e-05
65	0x3800a5d4	3.0672018e-05
66	0x00000000	0.0
67	0x391a49e1	0.00014714107
68	0x38b4f17a	8.628047e-05
69	0x00000000	0.0
70	0x381afc74	3.6951576e-05
71	0x38160ca4	3.577456e-05
72	0x00000000	0.0
73	0x39b6f176	0.00034893648
74	0x3952b06e	0.00020092886
75	0x39ec95a4	0.0004512492
76	0x39c8f896	0.00038332184
77	0x3d60ae7a	0.054853894
78	0x3b9933b4	0.004675353
79	0x3b8db215	0.0043242075
80	0x3c444a37	0.011980585
81	0x00000000	0.0
82	0x37face27	2.989832e-05
83	0x38041917	3.149462e-05
84	0x00000000	0.0
85	0x3805764c	3.1819844e-05
86	0x3805f524	3.1937976e-05
87	0x00000000	0.0
88	0x37d7cd1f	2.5725514e-05
89	0x37f7bda3	2.9533001e-05
90	0x00000000	0.0
91	0x380449ad	3.153987e-05
92	0x38047af3	3.1585758e-05
93	0x00000000	0.0
94	0x380e840d	3.397842e-05
95	0x380a41c1	3.2963002e-05
96	0x00000000	0.0
97	0x3808178a	3.244685e-05
98	0x380737eb	3.2238586e-05
99	0x00000000	0.0
100	0x38654c30	5.466881e-05
101	0x38387e99	4.398692e-05
102	0x37e4b3f3	2.7263513e-05
103	0xb9fdb61a	-0.00048391597
104	0x3c0ff419	0.008786225
105	0x399d5fe8	0.0003001683
106	0x36678dc2	3.4504196e-06
107	0x3ac38023	0.0014915507
108	0x00000000	0.0
109	0x360ac2ab	2.0676914e-06
110	0x360d119f	2.1020894e-06
111	0x00000000	0.0
112	0x368971f5	4.0961845e-06
113	0x364279e3	2.89792e-06
114	0x00000000	0.0
115	0x360ff4e1	2.1451199e-06
116	0x360f953b	2.1395524e-06
117	0x00000000	0.0
118	0x36017783	1.9292063e-06
119	0x36082f0f	2.029297e-06
120	0x00000000	0.0
121	0x360e6dd1	2.122357e-06
122	0x360e5320	2.1208034e-06
123	0x00000000	0.0
124	0x35d3c0ea	1.577687e-06
125	0x35f05982	1.7907444e-06
126	0x00000000	0.0
127	0x360e0b76	2.116632e-06
128	0x360e001c	2.1159713e-06
129	0x37eec90c	2.846543e-05
130	0xb797221b	-1.8016484e-05
131	0x3984914b	0.00025285254
132	0xb7bda0df	-2.2605467e-05
133	0xb7a68a32	-1.9853094e-05
134	0x38ff41ed	0.00012171627
135	0x00000000	0.0
136	0x389bf4ed	7.436597e-05
137	0x38aec7c1	8.3341736e-05
138	0x00000000	0.0
139	0x38bd6885	9.0316906e-05
140	0x38ba4259	8.881529e-05
141	0x00000000	0.0
142	0x3880d10d	6.1424544e-05
143	0x389c4201	7.450954e-05
144	0x00000000	0.0
145	0x38bbb235	8.9500485e-05
146	0x38b906dd	8.822766e-05
147	0x00000000	0.0
148	0x3a06b39a	0.0005138457
149	0x39977842	0.00028890563
150	0x00000000	0.0
151	0x38b93df1	8.833025e-05
152	0x38b75489	8.741866e-05
153	0x00000000	0.0
154	0xb99b3e68	-0.000296104
155	0xb8f496ad	-0.00011662892
156	0xba73c366	-0.0009298831
157	0xbb17af0d	-0.002314511
158	0xbcb481e0	-0.022034585
159	0xba08e3b2	-0.00052219175
160	0xbb1cabc9	-0.0023906103
161	0x3bacfbac	0.005279025
162	0x00000000	0.0
163	0x3ad75058	0.0016427143
164	0x3ada75bf	0.0016667171
165	0x00000000	0.0
166	0x3ad91238	0.0016561216
167	0x3adae5a8	0.0016700523
168	0x00000000	0.0
169	0x3ad37c4e	0.0016135068
170	0x3ad96dd6	0.001658852
171	0x00000000	0.0
172	0x3ade7ae3	0.0016973879
173	0x3addb25d	0.0016914118
174	0x00000000	0.0
175	0x3ae86a93	0.0017731957
176	0x3ae20664	0.0017244336
177	0x00000000	0.0
178	0x3add80da	0.0016899363
179	0x3adcd95f	0.001684945
180	0x00000000	0.0
181	0x3afb7526	0.0019184693
182	0x3aecd069	0.0018067482
183	0x3ad8295a	0.0016491816
184	0xb8ca6002	-9.6499934e-05
185	0x3efa03da	0.48831064
186	0x3c0cc4f0	0.008591875
187	0x3c3eaa6b	0.0116373105
188	0x3e49a787	0.19692813
189	0x00000000	0.0
190	0xb94ccfa2	-0.00019532305
191	0xb94c2667	-0.00019469262
192	0x00000000	0.0
193	0xb9422954	-0.00018516678
194	0xb947162e	-0.00018986381
195	0x00000000	0.0
196	0xb9441f3a	-0.0001870365
197	0xb9489852	-0.0001913023
198	0x00000000	0.0
199	0xb949820b	-0.00019217299
200	0xb94a072f	-0.00019266897
201	0x00000000	0.0
202	0xb949efc9	-0.0001925818
203	0xb94a0e92	-0.00019269649
204	0x00000000	0.0
205	0xb94ae43c	-0.00019349245
206	0xb94a8c24	-0.00019316428
207	0x00000000	0.0
208	0xb94840c0	-0.00019097608
209	0xb9496866	-0.00019207745
210	0xb9b21056	-0.00033962977
211	0x392d77f6	0.00016543255
212	0xbcb04dd6	-0.02152149
213	0x3a7f3096	0.0009734718
214	0x3a9ff5cf	0.0012203994
215	0xbbae2f7f	-0.0053157206
216	0x00000000	0.0
217	0xb6e224ba	-6.7396004e-06
218	0xb7074d34	-8.064602e-06
219	0x00000000	0.0
220	0xb7321be2	-1.0616119e-05
221	0xb7201b76	-9.543137e-06
222	0x00000000	0.0
223	0x35144178	5.5229566e-07
224	0xb6ccb8be	-6.1011806e-06
225	0x00000000	0.0
226	0xb5fef520	-1.8995815e-06
227	0xb6a122e2	-4.802235e-06
228	0x00000000	0.0
229	0xb779ef06	-1.48972085e-05
230	0xb753a7c5	-1.2615642e-05
231	0x00000000	0.0
232	0xb6ab9df4	-5.1145853e-06
233	0xb6e6422d	-6.862238e-06
234	0x00000000	0.0
235	0x396b3630	0.00022431533
236	0x38ee1139	0.00011351932
237	0x3a92ec37	0.0011209314
238	0x3a2fb2f0	0.0006702384
239	0x3d25f45a	0.040516235
240	0x3a51fc99	0.0008010357
241	0x3a8ebafb	0.0010889465
242	0x3be87d7a	0.007095036
243	0x00000000	0.0
244	0xb3bc564f	-8.7701316e-08
245	0xb3bc5626	-8.7701025e-08
246	0x00000000	0.0
247	0xb3bc5626	-8.7701025e-08
248	0xb3bc5619	-8.770093e-08
249	0x00000000	0.0
250	0xb31bba8c	-3.6258413e-08
251	0xb34874fb	-4.6672522e-08
252	0x00000000	0.0
253	0xb3bb368a	-8.717787e-08
254	0xb3bb65d8	-8.726391e-08
255	0x00000000	0.0
