results/Shooter/Shooter/Shooter-2196.pt (torch, 535055 bytes, 42 tensors)

network_body._body_endoder.seq_layers.0.weight f4 [128, 35]
-0.2851963 0.039174806 0.2122553 -0.044143647 -0.10280744 -0.102963746 0.3239042 -0.07226312
-0.17072546 -0.053216707 -0.30802116 0.14082113 0.09622266 -0.35574546 -0.26052126 0.02511043
-0.07942733 0.10125269 -0.21707894 0.26557133 -0.04565999 0.016487563 -0.062303722 0.28952405
-0.20084095 -0.028734934 -0.008531024 -0.032110337 0.17730884 0.066543095 -0.11508796 0.0599633
-0.13664998 -0.10855352 0.30412367 0.24559125 0.090081304 -0.1165642 -0.23014322 -0.18334638
-0.13902153 -0.28897473 -0.057145182 0.12120964 -0.06749952 -0.0018516097 0.13823241 0.21624373
0.2582293 0.20196596 -0.2562912 -0.14974254 -0.1856141 -0.14391464 -0.3726751 0.08747135
0.059337012 0.11074315 0.05778051 -0.3277672 -0.2637701 0.12865843 -0.22851893 -0.11083845
-0.24984497 0.01896611 -0.113536395 0.13197973 0.062384706 0.1013884 0.012461175 -0.060841575
-0.079779424 -0.029573772 0.13290732 0.0044032233 0.05747848 -0.4465511 -0.29614913 0.15750138
0.012152793 0.044110086 -0.04883714 0.008713802 0.079578236 -0.1997584 0.12840827 -0.1403674
-0.24629818 0.10438473 -0.14662243 -0.06552764 0.061441362 -0.012746704 0.07694543 0.13266341
0.15874557 -0.2168703 0.22655264 0.091444924 -0.1405224 0.26766694 0.2296465 -0.1867971
-0.12500517 0.0891671 0.009615615 -0.10800544 -0.19738361 -0.1432309 0.04974715 -0.060091432
0.05985221 -0.041505445 0.007147695 -0.0009557207 0.06338798 -0.37454793 0.0010664312 0.13419428
-0.41760737 -0.04617385 0.2307428 0.20238118 -0.036069542 0.15533604 -0.0596429 0.10541344
-0.0058312127 -0.31554306 0.011995207 -0.23957632 -0.05234052 -0.13425867 -0.14355582 -0.16626573
0.07554494 -0.0202331 0.24097717 -0.029245961 -0.08808337 -0.037791207 -0.19206345 0.08832203
-0.10811044 -0.26807314 -0.2138433 0.12833285 -0.012042913 -0.08216215 -0.063338764 -0.30872253
-0.13679011 0.34460375 -0.0465334 0.021171356 -0.2675062 -0.08270731 -0.037765093 0.12691161
-0.058391143 -0.023871941 0.07248824 0.27720058 0.030672174 -0.12947111 0.17420793 -0.08683002
-0.10026159 0.017874442 0.073204696 0.014974227 -0.0076886504 -0.0952979 0.017089339 0.14792715
-0.07984023 0.19175248 0.19608404 -0.077674694 0.04755234 0.08877648 0.04419478 -0.17442742
0.03480514 -0.03878153 -0.1801186 -0.051468115 -0.043446396 -0.3171567 0.07057309 0.023187198
-0.09846027 0.06254755 -0.09161896 -0.012229942 0.06831288 -0.06409491 -0.05510862 -0.20238335
-0.15685055 0.06547344 -0.093823455 -0.30680934 -0.051598296 0.036418702 0.06869797 0.22090432
-0.08737796 0.112271324 -0.2970523 0.1656586 0.17371953 0.24932277 -0.1624954 -0.21306786
0.2049733 0.1925852 -0.14600682 0.08330779 0.046713807 0.22889422 0.24732773 0.16702597
0.0049791173 -0.09342481 -0.021969168 -0.31067485 0.19435829 -0.30350953 -0.0032873943 0.014072702
-0.029339902 -0.18307848 0.03229124 -0.016416267 -0.19525045 -0.35288996 -0.40004092 0.019692302
0.39085597 0.16889343 -0.036019225 -0.21620221 0.06378313 -0.2939744 -0.095279366 -0.0069917827
-0.1816548 -0.0046128323 -0.08918355 0.29284933 0.07561853 -0.079372466 -0.18555363 0.14574283
00000000: 4005 92be c375 203d 7459 593e f8cf 34bd
00000010: b58c d2bd a8de d2bd c5d6 a53e b0fe 93bd
00000020: a8d2 2ebe c3f9 59bd f3b4 9dbe 6a33 103e
00000030: 6310 c53d 4524 b6be 0b63 85be 63b4 cd3c
00000040: ccaa a2bd 925d cf3d f149 5ebe f7f8 873e
00000050: f805 3bbd ed10 873c 3032 7fbd 7f3c 943e
00000060: 40a9 4dbe 8665 ebbc b5c5 0bbc 2186 03bd
00000070: 7390 353e bf47 883d 3db3 ebbd 149c 753d
00000080: f9ed 0bbe 4f51 debd 19b6 9b3e 467c 7b3e
00000090: 8c7c b83d 36b9 eebd aaaa 6bbe 27bf 3bbe
000000a0: a95b 0ebe 7ff4 93be 1111 6abd c23c f83d
000000b0: 303d 8abd b6b1 f2ba cc8c 0d3e ff6e 5d3e
000000c0: a136 843e 2ad0 4e3e 9a38 83be 1c56 19be
000000d0: 9f11 3ebe 5c5e 13be 45cf bebe 2e24 b33d
000000e0: 5e0b 733d 4ecd e23d 42ab 6c3d 1ad1 a7be
000000f0: e00c 87be 09bf 033e de00 6abe 45ff e2bd
00000100: 5cd7 7fbe d15e 9b3c c585 e8bd b225 073e
00000110: 1b87 7f3d b9a4 cf3d f529 4c3c 0435 79bd
00000120: 6563 a3bd b244 f2bc db18 083e ea48 903b
00000130: 8e6e 6b3d 59a2 e4be dca0 97be 0b48 213e
00000140: 821c 473c c7ac 343d 7409 48bd 56c4 0e3c
00000150: eaf9 a23d 778d 4cbe 757d 033e 79bc 0fbe
00000160: 9735 7cbe a9c7 d53d 3124 16be 5b33 86bd
00000170: f0a9 7b3d 8dd7 50bc 9195 9d3d ebd8 073e
00000180: 338e 223e 3f13 5ebe 6afd 673e 7a47 bb3d
00000190: 1be5 0fbe a40b 893e 7428 6b3e bd47 3fbe
000001a0: 5b01 00be 3e9d b63d d08a 1d3c f531 ddbd
000001b0: ee1e 4abe 1fab 12be abc3 4b3d 6f22 76bd
000001c0: 9727 753d 9d01 2abd 3637 ea3b 5589 7aba
000001d0: 8fd1 813d bfc4 bfbe 7ec7 8b3a 3a6a 093e
000001e0: a2d0 d5be ca20 3dbd d747 6c3e 033d 4f3e
000001f0: a8bd 13bd 6910 1f3e 1d4c 74bd 00e3 d73d
00000200: c213 bfbb dc8e a1be 8b87 443c 7f53 75be
00000210: 0363 56bd 1b7b 09be 4c00 13be 9041 2abe
00000220: 4eb7 9a3d e3bf a5bc b8c2 763e 3a95 efbc
00000230: 0e65 b4bd f4ca 1abd 48ac 44be 2ee2 b43d
00000240: 0269 ddbd e240 89be bdf9 5abe b069 033e
00000250: a34f 45bc a144 a8bd c1b7 81bd e110 9ebe
00000260: b512 0cbe e76f b03e ce99 3ebd 8d6f ad3c
00000270: 93f6 88be 7362 a9bd 92af 1abd 1ef5 013e
00000280: 8d2b 6fbd 178f c3bc b774 943d 3ced 8d3e
00000290: 3644 fb3c 1394 04be 9063 323e f0d3 b1bd
000002a0: f355 cdbd 6c6d 923c 58ec 953d 7656 753c
000002b0: 13f1 fbbb 8c2b c3bd f1fe 8b3c 377a 173e
000002c0: 4683 a3bd c35a 443e 41ca 483e e913 9fbd
000002d0: 3ec6 423d 71d0 b53d 9605 353d 1a9d 32be
000002e0: d68f 0e3d 62d9 1ebd 0371 38be 3bd0 52bd
000002f0: d9f4 31bd 5d62 a2be a088 903d 14f3 bd3c
00000300: 8aa5 c9bd ee18 803d b9a2 bbbd 1860 48bc
00000310: a0e7 8b3d 3144 83bd 94b9 61bd 953d 4fbe
00000320: 6e9d 20be f016 863d 8326 c0bd 1d16 9dbe
00000330: bc58 53bd c72b 153d 85b1 8c3d be34 623e
00000340: 37f3 b2bd 82ee e53d 3d17 98be 68a2 293e
00000350: 88e3 313e 784e 7f3e 3265 26be 762e 5abe
00000360: 85e4 513e 0e35 453e d082 15be 469d aa3d
00000370: fa56 3f3d 3f63 6a3e 7b43 7d3e db08 2b3e
00000380: dd27 a33b 8255 bfbd aff8 b3bc c610 9fbe
00000390: dc05 473e 9a65 9bbe 5371 57bb 3191 663c
000003a0: 3c5a f0bc ed78 3bbe d243 043d 687b 86bc
000003b0: bcef 47be fead b4be 2ad2 ccbe c051 a13c
000003c0: 461e c83e 66f2 2c3e e588 13bd 1d64 5dbe
000003d0: bba0 823d d083 96be d421 c3bd 531b e5bb
000003e0: b703 3abe 3e27 97bb dda5 b6bd 59f0 953e
000003f0: e3dd 9a3d 088e a2bd c501 3ebe 9c3d 153e

network_body._body_endoder.seq_layers.0.bias f4 [128]
-0.005331756 0.0010633459 -0.004604024 -0.010279716 0.0045384653 -0.008756278 0.011961084 0.0089382725
0.0025759772 -0.004604264 0.002100241 -0.008379804 -0.0070929667 0.00030073978 -0.0090806605 -0.0030801226
-0.012373326 0.0051532187 -0.008852147 -0.0017106863 0.008351945 -0.00090585713 -0.0096047595 -0.003836051
-0.011574536 7.2452485e-06 -0.0033014081 -0.0045041395 0.0064295386 -0.0026631616 0.008948835 -0.0029589129
-0.0035490482 0.010518982 -0.011283548 -0.0025900407 0.0032905277 -0.00024912026 -0.012789872 0.009003903
0.00058381184 -0.006013763 -0.001038806 -0.0024090034 -0.01966501 -0.00658053 9.331005e-05 -0.00031743993
0.0034352588 -0.023997268 -0.022403276 0.006356858 -0.005172888 0.0030612003 0.0028427525 -0.03494191
0.02781407 -0.013643485 0.014581751 -0.00028981568 -0.012686698 0.010226616 -0.00260633 -0.0013532665
0.0064088167 0.004468113 0.009233861 0.0034144705 -0.023378141 -0.0026196826 0.008880348 -0.0076748533
-0.007206203 -0.010089219 -0.0062978202 -0.003782914 -0.0055376394 -0.010311663 0.014587061 -0.0074505196
-0.005599499 0.01104331 0.0031751515 0.0071384977 -0.02057923 -0.005768338 -0.006055805 -0.0042202133
-0.010781975 -0.01780869 -0.005941391 -0.009067564 -0.012755936 0.0060984697 0.010090446 -0.008329724
-0.00066295883 -0.0076592886 0.008978655 -0.0049710954 0.015676856 -0.00024143088 0.00031066444 0.016635362
0.0009875676 -0.0012301675 -0.0024396912 0.004575791 -0.0025581014 0.0027432377 0.011407179 0.0010089076
-0.0051051886 -0.010885578 0.010597495 0.013043476 -0.007327155 0.0021990247 0.005753832 -0.0009076716
-0.010167892 0.019960295 0.0008723912 0.010538584 -0.015472736 -0.011655452 -0.006352552 -0.0031001547
00000000: 03b6 aebb f85f 8b3a 5add 96bb 416c 28bc
00000010: 68b7 943b 7e76 0fbc 6cf8 433c d571 123c
00000020: bad1 283b 5edf 96bb 32a4 093b 724b 09bc
00000030: 1e6c e8bb 9cac 9d39 0dc7 14bc e2db 49bb
00000040: 7eb9 4abc 55dc a83b 9808 11bc 1b39 e0ba
00000050: 99d6 083c 0b77 6dba 485d 1dbc 4266 7bbb
00000060: 1fa3 3dbc 361c f336 705c 58bb 7697 93bb
00000070: e1ae d23b 7088 2ebb 229e 123c 52ea 41bb
00000080: 2697 68bb cf57 2c3c a1de 38bc acbd 29bb
00000090: e5a5 573b 5b9c 82b9 9c8c 51bc 1b85 133c
000000a0: f30a 193a 1a0f c5bb 8c28 88ba 5fe0 1dbb
000000b0: 8418 a1bc 7da1 d7bb 74af c338 116e a6b9
000000c0: 1422 613b eb95 c4bc 1387 b7bc 314d d03b
000000d0: 5481 a9bb 6b9e 483b 794d 3a3b 401f 0fbd
000000e0: 55da e33c ec88 5fbc 4ce8 6e3c 67f2 97b9
000000f0: dedb 4fbc 898d 273c f6ce 2abb 1760 b1ba
00000100: 0d01 d23b 4069 923b 9f49 173c 4fc5 5f3b
00000110: 8483 bfbc fbae 2bbb e17e 113c 567d fbbb
00000120: 0322 ecbb 404d 25bc f25d cebb c4ea 77bb
00000130: 1675 b5bb 40f2 28bc 91fe 6e3c 7d23 f4bb
00000140: 017c b7bb 00ef 343c 3416 503b 0fea e93b
00000150: c695 a8bc 5404 bdbb c66f c6bb b749 8abb
00000160: e2a6 30bc 88e3 91bc 00b0 c2bb 1f90 14bc
00000170: 46fe 50bc acd5 c73b 6652 253c 6579 08bc
00000180: 6aca 2dba c5fa fabb 351b 133c 92e4 a2bb
00000190: c06c 803c 9c28 7db9 ade0 a239 e246 883c
000001a0: 4571 813a 923d a1ba 3ae3 1fbb 84f0 953b
000001b0: d2a5 27bb e4c7 333b 2de5 3a3c 523d 843a
000001c0: 6d49 a7bb 6c59 32bc 1ea1 2d3c 4eb4 553c
000001d0: a218 f0bb 831d 103b a48a bc3b cff0 6dba
000001e0: 3b97 26bc c683 a33c 2fb1 643a 06aa 2c3c
000001f0: 5c81 7dbc 82f6 3ebc 1229 d0bb f72b 4bbb

network_body._body_endoder.seq_layers.2.weight f4 [128, 128]
-0.027719973 -0.000168971 0.026568335 -0.033929285 -0.09448179 -0.022313392 0.019532083 -0.03285749
-0.067609765 -0.076335035 -0.025370449 0.06391048 -0.0021060114 -0.0011888433 0.026961379 -0.022566382
0.12232705 -0.077176444 -0.077245824 0.20492122 0.0795115 -0.034228012 0.028723413 -0.04264744
0.066919975 -0.054821786 0.113356486 -0.0019356562 0.14084047 0.06809993 0.090433165 0.028543409
0.03445908 -0.04602283 -0.0946774 -0.13738358 0.00460337 0.008640978 0.017792834 0.0545439
0.102670096 0.10104863 -0.067178264 0.058456894 -0.032324273 -0.019401632 0.075560436 0.013558898
-0.09058231 -0.06809749 0.015955117 -0.020289259 -0.028383316 -0.1950061 -0.036719862 0.00040133088
-0.0093885325 -0.040620767 -0.08782221 0.11266241 -0.012076568 -0.036148414 0.033817586 0.10322972
-0.111709945 -0.0996968 0.017586777 -0.054338727 0.1042767 0.0443674 0.03285081 -0.025763351
-0.077297956 0.0024247998 0.061614092 -0.043386173 -0.08776815 0.048172258 -0.09417189 0.069510125
0.100583486 -0.12618831 0.016804093 0.08567202 0.00074312504 0.054768544 0.034123056 0.013270406
0.07080701 -0.12240982 -0.07172609 -0.062102605 -0.076742984 0.06338568 -0.18686228 0.09255151
-0.062462293 -0.06371634 0.002010394 -0.036299497 0.124812946 0.18267706 0.119583495 -0.028331323
0.07475165 0.017308 0.013489045 0.05243203 -0.057687204 0.050915584 0.19342622 -0.029363194
0.08274568 -0.052548658 0.031192783 0.12624548 0.017744793 -0.026625125 -0.108399406 -0.009866748
0.010872949 0.09176325 0.02861261 -0.085519694 0.028683605 -0.0023622464 0.010602709 0.13480145
-0.03865689 0.09132835 0.04313901 0.03226708 -0.063845724 0.09408682 -0.040522 -0.017287351
-0.23591676 -0.14321584 -0.074726135 0.062936194 0.060502462 0.018721446 0.036653675 0.12535591
0.19526048 -0.11703857 -0.029488469 -0.17991726 0.046249766 -0.003536751 -0.18903545 0.021779463
-0.06293571 -0.120451406 -0.03888812 0.10825705 0.11201003 -0.061158307 0.087504104 -0.16740076
-0.094603516 -0.009287331 0.07726756 -0.13455372 0.13515571 -0.19953355 0.004654475 0.0077957464
0.12607004 -0.0020565097 -0.14286754 -0.06543849 -0.037473388 0.08746274 -0.06864864 0.045010936
0.15534498 -0.006899166 0.04228908 -0.00530786 0.027091773 0.025283901 -0.014822194 0.101738185
0.011441625 -0.03520197 -0.06560937 -0.062884726 -0.06359008 -0.013588763 -0.022921426 -0.015416238
-0.05574159 0.19094972 0.11080967 0.031748895 -0.18324336 0.03947319 -0.014710473 0.13284028
0.07438083 0.10373112 -0.13564956 0.05389921 0.21957281 -0.060160365 -0.07169547 0.027557088
0.038658597 0.039319627 -0.100185275 0.09226104 0.106910996 -0.058799006 -0.0066664936 -0.1150193
0.105685495 0.089161515 0.059901122 0.080852486 -0.024370862 -0.12042684 -0.22561541 0.011897293
0.064755954 -0.039583318 -0.09715712 -0.035136823 -0.3522986 0.040185586 -0.05253711 -0.15205483
-0.06534938 -0.10357966 0.0049359687 0.18274403 -0.035768066 -0.055408146 0.14979948 -0.17994167
0.025053421 -0.0055197906 0.17496765 -0.12633134 -0.024951326 -0.057827976 -0.13645482 -0.15438215
-0.06152129 -0.19044054 -0.038349736 0.012993226 0.043723423 0.04957122 0.06737561 -0.010649879
00000000: ff14 e3bc cf2d 31b9 d6a5 d93c 6ff9 0abd
00000010: ab7f c1bd 93ca b6bc bf01 a03c 9395 06bd
00000020: fd76 8abd 8b55 9cbd b0d5 cfbc 7fe3 823d
00000030: 0205 0abb f6d2 9bba 1cde dc3c 22dd b8bc
00000040: 9b86 fa3d af0e 9ebd 0f33 9ebd ded6 513e
00000050: edd6 a23d ac32 0cbd 5d4d eb3c 15af 2ebd
00000060: 570d 893d cf8c 60bd 7227 e83d d8b5 fdba
00000070: 7c38 103e fa77 8b3d 0635 b93d ded3 e93c
00000080: f724 0d3d 6f82 3cbd 3ae6 c1bd 48ae 0cbe
00000090: ded7 963b e392 0d3c 47c2 913c 6d69 5f3d
000000a0: b344 d23d 96f2 ce3d c294 89bd 7f70 6f3d
000000b0: 7566 04bd 2cf0 9ebc 6ebf 9a3d 2426 5e3c
000000c0: 3883 b9bd b276 8bbd 4eb4 823c a935 a6bc
000000d0: 2184 e8bc aeaf 47be 9167 16bd b869 d239
000000e0: 5cd2 19bc f661 26bd 21dc b3bd 8dbb e63d
000000f0: ccdc 45bc 5c10 14bd 4f84 0a3d 1a6a d33d
00000100: 2fc8 e4bd d62d ccbd 2512 903c 4992 5ebd
00000110: 068f d53d 97ba 353d 928e 063d aa0d d3bc
00000120: 644e 9ebd 64e9 1e3b 0f5f 7c3d b3b5 31bd
00000130: cabf b3bd 4650 453d 31dd c0bd 535b 8e3d
00000140: b7fe cd3d 8237 01be bda8 893c d074 af3d
00000150: 47ce 423a fb54 603d 9ec4 0b3d 1e6c 593c
00000160: 4403 913d 00b2 fabd 21e5 92bd 4d5f 7ebd
00000170: 6d2b 9dbd 5ad0 813d d358 3fbe a58b bd3d
00000180: 76d8 7fbd b67d 82bd d0c0 033b c8ae 14bd
00000190: ee9d ff3d b20f 3b3e 31e8 f43d 1717 e8bc
000001a0: 6517 993d 82c9 8d3c 2801 5d3c f8c2 563d
000001b0: 6b49 6cbd dc8c 503d 8611 463e 158b f0bc
000001c0: 9176 a93d 433d 57bd 0288 ff3c 7f46 013e
000001d0: 875d 913c ef1c dabc 8200 debd 24a8 21bc
000001e0: 7424 323c 5fee bb3d fe64 ea3c f324 afbd
000001f0: e1f9 ea3c ebcf 1abb fcb6 2d3c 6409 0a3e
00000200: b056 1ebd 5c0a bb3d 88b2 303d 7c2a 043d
00000210: 8cc1 82bd 97b0 c03d 66fa 25bd 349e 8dbc
00000220: 2a94 71be 2ca7 12be 040a 99bd b1e4 803d
00000230: 6ed1 773d b85d 993c 2a22 163d 4d5d 003e
00000240: 5df2 473e ebb1 efbd cd91 f1bc 3b3c 38be
00000250: 6570 3d3d d6c8 67bb 8292 41be d86a b23c
00000260: 70e4 80bd 3aaf f6bd 2649 1fbd dfb5 dd3d
00000270: 8465 e53d 2281 7abd 5a35 b33d 1b6b 2bbe
00000280: 7dbf c1bd e429 18bc 743e 9e3d 73c8 09be
00000290: 4266 0a3e 8652 4cbe 9184 983b 7673 ff3b
000002a0: 8118 013e 82c6 06bb de4b 12be 9d04 86bd
000002b0: b27d 19bd aa1f b33d a897 8cbd 635d 383d
000002c0: c112 1f3e 6612 e2bb 5037 2d3d 8fed adbb
000002d0: 91ef dd3c 2f20 cf3c cad8 72bc 1c5c d03d
000002e0: a775 3b3c f12f 10bd 355e 86bd b5c9 80bd
000002f0: 843b 82bd 67a3 5ebc b7c5 bbbc 6494 7cbc
00000300: 4b51 64bd 5388 433e 2ef0 e23d 210b 023d
00000310: 26a4 3bbe a4ae 213d 3204 71bc 4807 083e
00000320: fa54 983d fb70 d43d b8e7 0abe 6bc5 5c3d
00000330: b2d7 603e b76a 76bd 13d5 92bd 67bf e13c
00000340: 7a58 1e3d 9e0d 213d f02d cdbd 5bf3 bc3d
00000350: 27f4 da3d 3ad7 70bd 9a72 dabb 3d8f ebbd
00000360: a371 d83d 509a b63d e15a 753d fd95 a53d
00000370: 67a5 c7bc 59a2 f6bd ba07 67be ddec 423c
00000380: c59e 843d 1e22 22bd 50fa c6bd a1eb 0fbd
00000390: 7b60 b4be a499 243d 2731 57bd 43b4 1bbe
000003a0: e5d5 85bd 9321 d4bd e8bd a13b 4021 3b3e
000003b0: 8981 12bd a7f3 62bd 0965 193e a142 38be
000003c0: d53c cd3c 5cdf b4bb b82a 333e 015d 01be
000003d0: b966 ccbc 07dd 6cbd d0ba 0bbe 5b16 1ebe
000003e0: c0fd 7bbd d802 43be 9d14 1dbd 8ae1 543c
000003f0: 5517 333d 310b 4b3d 39fc 893d d57c 2ebc

network_body._body_endoder.seq_layers.2.bias f4 [128]
-0.004307594 -0.018042251 -0.0050938637 0.0020222242 -0.009895753 0.0036729425 -0.00823475 0.0060511185
-0.006200332 -0.0057044243 0.0029989544 0.0019795273 -0.004662232 0.008144492 -0.0037081295 0.0068047517
-0.0066521675 -0.001978093 0.0068604494 -0.0033313548 -0.005461611 0.0067138136 -0.0070531745 -0.001753322
-0.0025580968 -0.0041035283 0.0017875946 -0.012431033 -0.0012391676 -0.0076720226 0.010103366 0.005686746
-0.01499092 -0.01485448 -0.0024448438 -0.010998391 0.0006260216 -0.00042569233 -0.004348618 -0.0061662896
0.012963012 -0.0066673267 0.0061739422 0.009333484 0.0082765445 -0.010551195 0.021257795 -0.000335545
-0.009280236 -0.007962814 0.009413928 0.00478461 -0.0031459543 0.0050696135 0.002630622 -0.0014264346
-0.0029356566 -0.0014620047 -0.003624833 -0.0045819455 -0.00019275011 -0.0020200037 0.0028126333 -0.0011607204
-0.010181415 -0.0044136103 -0.008357152 -0.0035417434 0.0027865253 -0.0021434028 -0.0056155263 0.00063817605
-0.011269679 -0.007676814 -0.01082346 0.004847145 0.01938251 -0.00091488287 0.004943311 -0.00026951922
-0.0037086776 0.006480735 -0.0038694502 0.0020401278 -0.006825871 0.011155025 -0.00030885867 0.0016882758
-0.011750134 -0.00641212 0.011491893 -0.00036179918 0.0007762101 -0.0064280094 -0.0018880919 -0.00016092756
-0.0102669 -0.005299512 -0.0031549025 0.01597362 -0.004042426 -0.009544157 -0.00021760007 0.026680464
0.0058108447 -0.008871152 0.01261732 -0.006000946 0.006208527 -0.003091104 -0.0062718596 -0.0033251713
-0.0064238007 0.002521651 -0.0026607593 0.00835368 0.008972467 -0.010190122 -0.005375164 0.00093228015
-0.0008954309 -0.0050156885 -0.007822788 0.0018829111 -0.0046064705 0.0021849012 -0.0039866017 -0.0075764055
00000000: b826 8dbb 58cd 93bc 6dea a6bb 4b87 043b
00000010: cc21 22bc c0b5 703b 0beb 06bc 7648 c63b
00000020: 282c cbbb 2eec babb 1b8a 443b f5ba 013b
00000030: a3c5 98bb 7a70 053c 1704 73bb 65fa de3b
00000040: 6dfa d9bb e5a2 01bb 9fcd e03b dc52 5abb
00000050: 50f7 b2bb 8dff db3b 511e e7bb b9cf e5ba
00000060: bea5 27bb e476 86bb b94d ea3a 88ab 4bbc
00000070: 916b a2ba 9765 fbbb 9788 253c e257 ba3b
00000080: 7a9c 75bc 3460 73bc ac39 20bb 9832 34bc
00000090: 991b 243a 752f dfb9 da7e 8ebb 960e cabb
000000a0: d062 543c 9779 dabb c84e ca3b 78eb 183c
000000b0: 589a 073c ebde 2cbc d424 ae3c 16ec afb9
000000c0: 220c 18bc 7676 02bc e03c 1a3c 38c8 9c3b
000000d0: 5b2c 4ebb 001f a63b 8366 2c3b 34f7 baba
000000e0: 2564 40bb bda0 bfba 9b8e 6dbb 2524 96bb
000000f0: f71c 4ab9 0a62 04bb 2854 383b 5023 98ba
00000100: f3cf 26bc 0ca0 90bb 70ec 08bc 981c 68bb
00000110: 239e 363b 5578 0cbb 7302 b8bb 454b 273a
00000120: 76a4 38bc c98d fbbb e254 31bc cdd4 9e3b
00000130: 12c8 9e3c c0d4 6fba 80fb a13b 424e 8db9
00000140: 490d 73bb 585c d43b 9a96 7dbb aab3 053b
00000150: 8eab dfbb 91c3 363c 4fee a1b9 2349 dd3a
00000160: a283 40bc c31c d2bb 7e48 3c3c ddaf bdb9
00000170: 947a 4b3a 0da2 d2bb da79 f7ba aabe 28b9
00000180: 8036 28bc 87a7 adbb 7bc2 4ebb 1cdb 823c
00000190: 5476 84bb 195f 1cbc 932b 64b9 fd90 da3c
000001a0: e668 be3b 4f58 11bc e0b8 4e3c 95a3 c4bb
000001b0: e670 cb3b 1f94 4abb 2c84 cdbb 1eeb 59bb
000001c0: bf7e d2bb 4942 253b 2260 2ebb e0dd 083c
000001d0: 4101 133c 78f4 26bc 2522 b0bb 4364 743a
000001e0: 5abb 6aba a55a a4bb 272b 00bc 03cc f63a
000001f0: e0f1 96bb 8f30 0f3b 0aa2 82bb 7f43 f8bb

action_model._continuous_distribution.log_sigma f4 [1, 3]
0.04719012 0.030858796 0.046048492
00000000: 6d4a 413d 96cb fc3c 589d 3c3d

action_model._continuous_distribution.mu.weight f4 [3, 128]
-0.008838458 0.0032632367 -0.011129066 0.008920785 -0.04041106 0.01689161 0.026132284 0.03873953
-0.025810668 -0.011132818 0.036656234 0.006801314 0.021229975 0.0437911 -0.010425267 0.03691405
0.006970756 0.0047343816 0.037355945 -0.015871402 -0.0029479798 0.03145678 -0.053982284 0.028517183
-0.013360783 -0.023621567 0.0045909532 -0.02551517 0.020293271 0.010970277 -0.047254194 0.037831783
0.0012899858 0.011751328 0.00630678 -0.00970815 -0.0033443142 0.0031177474 0.0017907474 -0.006210383
0.017723385 -0.00063220225 0.024133531 0.04327242 0.03366999 0.023643374 0.013805579 -0.008917077
-0.0034143946 -0.009323101 -0.002602945 0.03582057 0.00459263 0.002586793 0.016038371 -0.0017805193
-0.0067853383 0.0035441702 0.00028207566 0.0080967145 -0.002723996 0.0015023275 0.015247484 -0.018695109
-0.010656153 -0.0028953943 0.017597796 0.0006776664 0.016756555 -0.001812947 -0.027200343 -0.0028177772
0.0021121546 -0.03184262 -0.024331355 -0.0025880218 0.017231788 0.0011475133 -0.0041581956 -0.012299045
0.010617724 0.015191539 0.019067232 0.012218689 0.041724365 0.017772349 0.004672671 0.023248168
-0.0024106302 -0.0047771814 0.014833328 -0.0011022757 0.016617414 -0.009183671 0.008406754 0.006591166
-0.0018485896 -0.012722849 0.0041278773 -0.0007458477 -0.0007566071 -0.039386485 0.008319012 -0.003904551
0.0063054063 7.856551e-06 0.017669184 -0.036099706 0.00048681657 -0.028905747 -0.053420406 -0.025605123
-0.007157587 0.0052726506 0.0025337941 -0.005593838 0.026665274 -0.0165746 -0.046481166 -0.0009999201
0.007927614 -0.008395161 -0.031873617 0.02140636 0.013011495 0.0075507197 -0.0039724754 0.0017422976
0.003401011 -0.0069734915 -0.0099996915 -0.015235273 -0.0073786504 0.0010681412 -0.0009949635 0.027177287
0.027453572 -0.0054322844 0.017487748 -0.034440357 0.0017957593 0.00078607665 -0.014915626 -0.010740098
-0.028271236 0.009906232 0.019776983 -0.015953338 -0.046551824 0.016914815 0.013887597 -0.020756248
-0.022134691 -0.004953101 0.037240125 -0.023129113 -0.025638286 -0.028199704 0.053271253 -0.016527353
-0.0009961694 -0.0029573713 0.013679275 0.015033738 0.025552968 -0.0031655694 0.0004640707 0.034470852
-0.013001687 0.01116779 0.012628865 0.022636361 -0.044487644 0.016129334 0.02918911 -0.0044993134
-0.013729259 -0.0023667493 0.03170897 -0.007964838 -0.015723884 0.0056376983 0.00017879461 0.021702522
-0.0010856055 -0.037955444 0.00844513 -0.023916729 0.02653842 0.013477271 0.0083348965 0.017629536
0.0075617963 0.04126859 -0.0039337664 -0.00078284106 -0.0068202815 -0.016207809 -0.0045233434 0.015367838
-0.033021115 0.02066102 -0.0099698035 0.0053253896 0.03407288 0.009983937 -0.0067053153 0.0044038114
-0.0025254253 -0.020847946 6.0940347e-05 -0.012790016 -0.011508838 -0.015685696 -0.003947452 -0.005720329
-0.008759436 0.00034025006 0.024738625 -0.011634834 -0.015168429 -0.012014901 -0.022053743 -0.015795898
-0.012138183 -0.017647732 -0.015132197 0.03944423 -0.022500478 0.016516447 0.027758252 0.0017240937
0.015503365 7.195425e-05 0.03212721 -0.0007209661 -0.03472504 0.0054264776 4.9485974e-05 -0.010401145
0.034383014 0.0035652115 0.00554185 0.00356413 0.036937874 0.0052125533 -0.0029697968 0.017180413
-0.015172779 -0.037753902 0.013973825 -0.022552863 0.012687921 0.019486854 0.009657172 -0.005174881
00000000: 2ecf 10bc 07dc 553b b056 36bc 7c28 123c
00000010: 1186 25bd 4660 8a3c 5f13 d63c 57ad 1e3d
00000020: e570 d3bc 6c66 36bc d924 163d 8fdd de3b
00000030: 7cea ad3c 4c5e 333d bdce 2abc 3033 173d
00000040: f16a e43b df22 9b3b 8c02 193d be04 82bc
00000050: e532 41bb d3d8 003d 871c 5dbd de9c e93c
00000060: 30e7 5abc 0482 c1bc b56f 963b 3105 d1bc
00000070: 133e a63c adbc 333c 9d8d 41bd 80f5 1a3d
00000080: be14 a93a a488 403c 1ba9 ce3b ef0e 1fbc
00000090: 482c 5bbb 1f53 4c3b 83b7 ea3a 7880 cbbb
000000a0: a230 913c 60ba 25ba afb3 c53c 6c3e 313d
000000b0: 8be9 093d c0af c13c cc30 623c ef18 12bc
000000c0: 09c4 5fbb ebbf 18bc 2c96 2abb 97b8 123d
000000d0: c67d 963b 2f87 293b e762 833c 5060 e9ba
000000e0: 8b57 debb 4f45 683b 8ee3 9339 15a8 043c
000000f0: 1285 32bb bfe9 c43a 95d0 793c 7c26 99bc
00000100: 2597 2ebc a8c0 3dbb 4129 903c 6ca5 313a
00000110: 0b45 893c 68a0 edba 41d3 debc 75aa 38bb
00000120: 136c 0a3b 686d 02bd 8d52 c7bc cd9b 29bb
00000130: ae29 8d3c 2868 963a 7941 88bb ef81 49bc
00000140: f6f5 2d3c efe5 783c e232 9c3c e530 483c
00000150: 2be7 2a3d 5197 913c 351d 993b f172 be3c
00000160: aafb 1dbb e789 9cbb 7d07 733c 3c7a 90ba
00000170: 3e21 883c 1c77 16bc 7bbc 093c b5fa d73b
00000180: 604c f2ba 7f73 50bc 2543 873b fe84 43ba
00000190: 0b57 46ba b953 21bd 774c 083c 7fe3 7fbb
000001a0: 959d ce3b a1cf 0337 f7be 903c 49dd 13bd
000001b0: 6a3b ff39 bfcb ecbc 5bcf 5abd d6c1 d1bc
000001c0: 318a eabb 33c6 ac3b 030e 263b 844c b7bb
000001d0: 2271 da3c 75c7 87bc 0963 3ebd c00f 83ba
000001e0: d3e2 013c db8b 09bc e98d 02bd 645c af3c
000001f0: 2a2e 553c 076c f73b 8a2b 82bb ce5d e43a
00000200: 7fe3 5e3b e381 e4bb bfd5 23bc 5e9d 79bc
00000210: 9bc8 f1bb df00 8c3a 6f69 82ba e7a2 de3c
00000220: 50e6 e03c 4e01 b2bb 7742 8f3c 5511 0dbd
00000230: af5f eb3a b610 4e3a ab60 74bc 3cf7 2fbc
00000240: 1499 e7bc c04d 223c 5703 a23c 93b0 82bc
00000250: 20ad 3ebd f090 8a3c ce88 633c 0209 aabc
00000260: d053 b5bc 9f4d a2bb 1a89 183d 4479 bdbc
00000270: 6207 d2bc 1103 e7bc f532 5a3d 5f64 87bc
00000280: e691 82ba 75d0 41bb 0a1f 603c 1150 763c
00000290: 7554 d13c 7175 4fbb 844e f339 4f31 0d3d
000002a0: 0705 55bc 1bf9 363c 4de9 4e3c e46f b93c
000002b0: ad38 36bd aa21 843c 001e ef3c fa6e 93bb
000002c0: b0f0 60bc 771b 1bbb 44e1 013d f47e 02bc
000002d0: 60cf 80bc 71bc b83b d07a 3b39 7dc9 b13c
000002e0: e04a 8eba 2b77 1bbd 715d 0a3c 04ed c3bc
000002f0: 1a67 d93c c6cf 5c3c 178f 083c d16b 903c
00000300: f2c8 f73b 4109 293d d3e6 80bb 9337 4dba
00000310: ab7c dfbb 3dc6 84bc 8e38 94bb 62c9 7b3c
00000320: 2641 07bd 4d41 a93c 6358 23bc 9b80 ae3b
00000330: 0190 0b3d ab93 233c 43b8 dbbb d94d 903b
00000340: 9b81 25bb 50c9 aabc 339a 7f38 378d 51bc
00000350: 918f 3cbc 4a7f 80bc a159 81bb 9971 bbbb
00000360: bd83 0fbc 9763 b239 a8a8 ca3c 08a0 3ebc
00000370: 0185 78bc 26da 44bc 0daa b4bc 6666 81bc
00000380: 3bdf 46bc fa91 90bc 09ed 77bc 4690 213d
00000390: ec52 b8bc 804d 873c 4665 e33c fcfa e13a
000003a0: d301 7e3c 25e6 9638 d297 033d 37ff 3cba
000003b0: d83b 0ebd 98d0 b13b 298f 4f38 9069 2abc
000003c0: 34d5 0c3d 53a6 693b 6898 b53b 2e94 693b
000003d0: 2b4c 173d 11ce aa3b eca0 42bb f0bd 8c3c
000003e0: 3f97 78bc d6a3 1abd 78f2 643c c8c0 b8bc
000003f0: ffe0 4f3c e5a2 9f3c 1d39 1e3c 0c92 a9bb

action_model._continuous_distribution.mu.bias f4 [3]
0.006736862 0.004214021 -0.0020728107
00000000: e5c0 dc3b c515 8a3b fed7 07bb

action_model._discrete_distribution.branches.0.weight f4 [2, 128]
0.0052997787 0.015733348 -0.0070574484 -0.028766958 -0.0049324795 0.006581464 -0.002626323 -0.003056589
0.009274799 -0.0014360365 -0.023757637 -0.0001226675 0.007586093 -0.014295702 0.0054001273 0.010656731
0.021484235 0.0011386607 0.006780807 -0.009795571 0.0011469522 0.009951279 -0.005866407 0.01405066
0.008065959 -0.023891887 0.01091953 0.0044262656 -0.023516674 0.0026125791 -0.018352957 -0.0004102461
-0.004868788 0.010591099 0.011430477 -0.011399486 0.011713047 -0.02860829 0.009034725 -0.00457579
0.014135078 -0.009396148 0.0077349553 -0.012707609 0.027783385 -0.0123999 0.012643475 0.0006730642
0.006283413 0.0047320705 -0.014998281 -0.019746704 0.027447255 0.008989635 -0.0005973683 -0.004899341
-0.014288032 -0.005515523 0.00439942 4.252537e-05 0.0027555726 -0.008390064 0.00862622 0.013249454
-0.0019514208 0.0053060697 0.005768533 0.021707254 0.012793224 0.030804364 -0.0104176095 0.018557321
0.011149077 -0.001089231 -0.0006707887 0.002305928 -0.014755012 0.015257196 0.019633498 -0.0074842754
0.0054194215 0.014734636 0.0029872186 0.004152878 0.0029881196 0.005599392 0.013037644 0.007966277
-0.033652343 0.010368053 -0.015905535 0.0024360905 0.006687534 0.014821758 -0.006837515 -0.00081523514
-0.0012111142 -0.0012177244 0.02045106 -0.027561938 -0.00081651186 0.011118342 0.0038225213 -0.063754186
0.021927604 -0.0016006614 -0.02174357 -0.0041572372 -0.013628423 0.003948077 0.015099218 -0.015329171
0.00023144082 0.009959947 -0.022271585 -0.039750066 -0.003483235 0.009948929 0.00010156701 0.0127226515
0.010841607 0.0064414362 0.025535358 0.002224089 0.002905667 -0.0022946673 -0.0066286805 -0.0007475206
0.023307363 -0.026773918 -0.00915265 0.035720978 -0.009451976 -0.00040914048 0.018175257 0.026077358
-0.028401887 0.00015560207 0.002288899 0.00738871 0.0032430268 0.019560277 -0.008311778 -0.000509017
-0.0030408336 0.0020243993 0.00039202665 -0.0022361001 -0.001638358 -0.005380661 0.007354555 -0.019952187
0.0065512364 0.05051086 -0.000617237 -0.0049631954 0.0107116755 0.014249991 0.00687742 -0.0061357194
-0.006472991 -0.010906264 -0.021063382 0.00083764474 -0.018193454 0.026949061 -0.019730229 0.012662115
-0.003700443 0.0006539626 -0.001850806 0.014892502 -0.013300962 0.0049991217 -0.0100605525 0.0074894116
0.0011201652 -0.009094616 -0.0060915677 4.6219462e-05 -0.028397514 -0.009791834 7.180413e-05 -0.0023015891
0.00069974456 -0.0049265237 0.005460449 -0.0002621631 -0.0029965132 0.0008411525 -0.011150876 -0.011529322
0.017197369 -0.017510002 0.0009624708 0.0071160886 -5.424528e-05 -0.041074935 0.008746852 -0.0034483543
0.0068446742 -0.0130007835 0.0007883913 -0.0105270315 0.01300287 -0.017195366 -0.014083189 -0.0011303774
-0.0049039717 -0.029425569 -0.0008872901 -0.0014445609 -0.008642029 -0.007690211 0.0016080315 0.008488418
0.019414183 0.016134616 0.032952096 0.0075071617 -0.005707959 -0.021140356 -6.0195503e-05 -0.005805049
-0.0046203863 0.0013226222 -0.023394855 0.020232534 -0.012556835 -0.002248197 -0.004711531 0.0707054
-0.022220176 -0.0052437545 0.013595501 0.005534982 0.0148282675 -0.00014499591 -0.017948348 0.0038957058
-0.0027147797 0.0023413363 0.015862066 0.03707404 0.022772832 -0.020854278 -0.0023506228 -0.017734757
-0.011062296 0.015357614 0.011751447 -0.00911883 -0.008860219 0.007145907 0.00076391146 -0.006232812
00000000: c4a9 ad3b 39e3 803c 2b42 e7bb afa8 ebbc
00000010: a3a0 a1bb 52a9 d73b 631e 2cbb 0e51 48bb
00000020: 54f5 173c 6439 bcba 609f c2bc 4ea0 00b9
00000030: c394 f83b 8538 6abc 8df3 b03b 9299 2e3c
00000040: b5ff af3c 1d3f 953a 8831 de3b 9a7d 20bc
00000050: 5455 963a b00a 233c fd3a c0bb bd34 663c
00000060: 1627 043c ebb8 c3bc d4e7 323c 350a 913b
00000070: 0aa6 c0bc ce37 2b3b f158 96bc 4d16 d7b9
00000080: 5b8a 9fbb 4a86 2d3c e546 3b3c e9c4 3abc
00000090: 14e8 3f3c ef5b eabc 6206 143c 82f0 95bb
000000a0: d096 673c 4df2 19bc 8275 fd3b 9333 50bc
000000b0: fb99 e33c f328 4bbc 9426 4f3c 9370 303a
000000c0: 17e5 cd3b 7c0f 9b3b 5abb 75bc d7c3 a1bc
000000d0: 11d9 e03c 4349 133c b598 1cba a78a a0bb
000000e0: 5a18 6abc 8fbb b4bb 0329 903b 455d 3238
000000f0: d696 343b 7b76 09bc fd54 0d3c 3d14 593c
00000100: d1c6 ffba 8ade ad3b f605 bd3b 69d3 b13c
00000110: ac9a 513c 6f59 fc3c 9fae 2abc 8605 983c
00000120: 9eaa 363c 87c4 8eba ded7 2fba 0d1f 173b
00000130: 01bf 71bc 51f9 793c 6ed6 a03c a73e f5bb
00000140: 6795 b13b 8b69 713c 36c5 433b de14 883b
00000150: 54d4 433b 1b7b b73b d89b 553c fd84 023c
00000160: 0ad7 09bd c4de 293c 534c 82bc d1a6 1f3b
00000170: 1a23 db3b f5d6 723c 3c0d e0bb 81b5 55ba
00000180: 40be 9eba 0d9c 9fba fb88 a73c 93c9 e1bc
00000190: 2f0b 56ba b529 363c 4483 7a3b 8e91 82bd
000001a0: 85a1 b33c 49cd d1ba 921f b2bc 6f39 88bb
000001b0: c049 5fbc df5e 813b b662 773c 3427 7bbc
000001c0: ecae 7239 0c2f 233c e672 b6bc f7d0 22bd
000001d0: fc46 64bb d500 233c 6000 d538 ab72 503c
000001e0: ffa0 313c af12 d33b 872f d13c 06c2 113b
000001f0: 016d 3e3b 2162 16bb 6735 d9bb 42f5 43ba
00000200: 15ef be3c fa54 dbbc fff4 15bc 2950 123d
00000210: 76dc 1abc e881 d6b9 47e4 943c 2fa0 d53c
00000220: 13ab e8bc 1d29 2339 5a01 163b fe1c f23b
00000230: f688 543b e03c a03c 202e 08bc 8d6f 05ba
00000240: b948 47bb c9ab 043b ed88 cd39 898b 12bb
00000250: 2cbe d6ba 4250 b0bb 7bfe f03b c572 a3bc
00000260: c1ab d63b 7ae4 4e3d 13ce 21ba 4da2 a2bb
00000270: 0680 2f3c cb78 693c fb5b e13b 250e c9bb
00000280: 621b d4bb 30b0 32bc 1d8d acbc 6395 5b3a
00000290: 700a 95bc 47c4 dc3c 4aa1 a1bc c274 4f3c
000002a0: 2283 72bb b06e 2b3a be96 f2ba aeff 733c
000002b0: 47ec 59bc accf a33b 04d5 24bc bd69 f53b
000002c0: 82d2 923a 9601 15bc c69b c7bb c5db 4138
000002d0: e7a1 e8bc ee6d 20bc 8c95 9638 42d6 16bb
000002e0: 106f 373a ad6e a1bb 91ed b23b f072 89b9
000002f0: 2661 44bb ca80 5c3a 2ab2 36bc 7be5 3cbc
00000300: 7fe1 8c3c 2371 8fbc 524e 7c3a 142e e93b
00000310: 6d85 63b8 313e 28bd f54e 0f3c c9fd 61bb
00000320: 4a49 e03b 3d01 55bc 0bac 4e3a 9279 2cbc
00000330: fd09 553c 4cdd 8cbc 2dbd 66bc 2c29 94ba
00000340: 7fb1 a0bb e40d f1bc 0899 68ba 6c57 bdba
00000350: 4c97 0dbc 2afe fbbb 95c4 d23a 0113 0b3c
00000360: 7e0a 9f3c be2c 843c c7f8 063d a3fe f53b
00000370: d509 bbbb 8a2e adbc 6e7a 7cb8 4838 bebb
00000380: 9c66 97bb d65b ad3a 91a6 bfbc b3be a53c
00000390: 2fbb 4dbc 7d56 13bb 3063 9abb fecd 903d
000003a0: 1607 b6bc cdd3 abbb aabf 5e3c cb5e b53b
000003b0: 43f2 723c 0b0a 18b9 6a08 93bc 194f 7f3b
000003c0: 72ea 31bb 1b71 193b 2af1 813c f3da 173d
000003d0: 178e ba3c 97d6 aabc e80c 1abb 7b48 91bc
000003e0: a23e 35bc 809e 7b3c 2489 403c 2567 15bc
000003f0: 742a 11bc 3628 ea3b 3b41 483a 9e3c ccbb

action_model._discrete_distribution.branches.0.bias f4 [2]
-0.008896473 0.008896478
00000000: 83c2 11bc 89c2 113c

exp_avg f4 [128, 35]
0.00012945388 1.0335139e-06 -5.251624e-06 -0.00023847044 0.00011419158 -9.692457e-07 1.6459979e-05 0.00013042729
1.4940929e-06 -5.280294e-06 -0.00020755261 0.00011540313 -9.692457e-07 1.6419528e-05 0.00013162101 2.0022103e-06
-5.3060526e-06 -0.00018067434 0.00011679363 -9.711954e-07 1.7468219e-05 5.639459e-05 2.5558948e-06 -4.6198106e-06
-0.00014100903 4.1127896e-05 -1.0141833e-06 1.5992793e-05 0.000134941 3.1160816e-06 7.0391184e-06 0.00029293986
0.00013994858 -1.0125258e-06 1.856488e-05 -4.116923e-06 1.1056346e-09 3.5994113e-08 -7.450548e-07 -4.1646617e-06
-3.0372649e-09 -1.2425022e-07 -4.028277e-06 -9.126748e-10 3.7652683e-08 -5.6580944e-07 -4.075097e-06 -2.989259e-09
-1.2395704e-07 -4.0271843e-06 -4.764198e-10 3.577457e-08 -3.8884133e-07 -4.0713594e-06 -2.9892224e-09 -1.2524409e-07
-4.0246177e-06 -5.5631163e-11 3.4825533e-08 -2.1125352e-07 -4.0676246e-06 -2.9893195e-09 -1.2804043e-07 -0.0003730638
3.9767328e-10 3.5087917e-06 -5.394008e-05 -0.000376393 -2.1128878e-07 -1.2031448e-05 -0.0024284474 1.2697123e-07
0.00080622383 0.0005301491 -0.0019160024 -3.3990639e-06 -0.00049165677 -0.0026383582 9.900796e-07 0.000822106
0.0020135455 -0.0021045543 -3.8379226e-06 -0.0004948404 -0.0031379303 1.278496e-06 0.00077698915 0.0026927553
-0.0026969218 -4.5137954e-06 -0.0005108856 -0.0035668204 1.3182606e-06 0.00078943145 0.0012450546 -0.0031282613
-5.3632307e-06 -0.00051983556 -0.0033701777 1.1977619e-06 0.00075165235 0.001749484 -0.0030006962 -5.870254e-06
-0.00050970295 -0.0007724923 3.5966968e-07 1.3820184e-06 -7.6028878e-06 -0.00077718054 -2.217896e-07 -3.5810335e-05
0.0007400021 -3.2958363e-07 -3.917843e-05 -0.00024724077 0.00070725696 7.136308e-07 1.2161378e-05 -0.00039045225
5.4333753e-07 5.9025933e-05 -0.0012937471 -0.00029536025 -1.5378033e-07 -2.3692066e-05 -0.00038968417 -3.9561635e-07
5.7673024e-05 -0.001278541 -0.00029517032 -1.5390981e-07 -2.3694442e-05 -0.0011018818 -4.7615444e-07 0.00011704344
-0.0021354356 -0.00093130005 -7.017251e-07 -4.7916343e-05 0.00029366536 -2.6892849e-06 -6.680185e-06 -0.002594886
0.00024640688 -2.464848e-06 1.8516908e-05 0.0002955782 -2.8594263e-06 -7.4759273e-06 -0.0024521279 0.00024949276
-2.4649012e-06 1.891359e-05 0.0002994575 -2.7878002e-06 -7.830619e-06 -0.0022769833 0.0002528677 -2.468131e-06
2.1932115e-05 0.00030135407 -2.6880425e-06 -9.1977745e-06 -0.0022132592 0.0002555903 -2.4628603e-06 2.3877614e-05
0.00030337047 -2.5342986e-06 -9.289363e-06 -0.00075337896 0.0002582785 -2.4762082e-06 2.4332909e-05 -0.00023088625
3.1649631e-06 7.601357e-06 0.0017143259 -0.000195244 1.902101e-06 -1.9404642e-05 -0.00023296737 3.2563637e-06
7.896183e-06 0.0015727275 -0.0001976213 1.9021471e-06 -1.9023677e-05 -0.00023568771 3.2881896e-06 8.284825e-06
0.0014574245 -0.00019999854 1.9021965e-06 -2.0789152e-05 -0.00023742931 3.2790952e-06 9.046689e-06 0.0013368204
-0.00020237584 1.9022497e-06 -2.1877482e-05 -0.00058958336 3.2182265e-06 3.8540496e-05 0.00020501348 -0.00051807496
1.6393094e-06 -3.4860677e-05 -0.00016973539 -3.3310675e-06 -0.00033136486 -0.00875544 -0.00037009118 2.8995473e-07
0.0008422763 0.0025466443 -3.4337686e-06 -0.00035235725 -0.009706482 0.0023711673 2.4026767e-06 0.0009260908
0.0025470129 -1.8593371e-06 -0.0003529444 -0.009640943 0.002372743 3.0837593e-06 0.00092405267 0.0025748739
-1.6724871e-06 -0.00035528437 -0.007398754 0.002396189 3.911974e-06 0.00092020544 0.0025026903 -1.3242186e-06
-0.00035384632 -0.007640507 0.0023321337 4.847354e-06 0.00091554597 0.0019836507 1.0105493e-06 0.00027570993
0.0001209462 0.0020423064 1.2439323e-06 0.00034775422 0.0013635157 1.7424663e-06 0.00027955012 0.0016824736
00000000: 03be 0739 44b7 8a35 1b37 b0b6 ec0d 7ab9
00000010: 237a ef38 0717 82b5 8913 8a37 4fc3 0839
00000020: a488 c835 612d b1b6 7ba2 59b9 9504 f238
00000030: 0717 82b5 abbc 8937 bf03 0a39 b65d 0636
00000040: a50a b2b6 6673 3db9 1aef f438 055a 82b5
00000050: b788 9237 3b89 6c38 f085 2b36 df03 9bb6
00000060: d3db 13b9 be80 2c38 131f 88b5 4328 8637
00000070: f37e 0d39 e01d 5136 9131 ec36 b995 9939
00000080: 29bf 1239 1fe6 87b5 c7bb 9b37 1924 8ab6
00000090: 0ff5 9730 f297 1a33 c7ff 47b5 2cbe 8bb6
000000a0: 21b8 50b1 a469 05b4 a32a 87b6 c8df 7ab0
000000b0: 90b7 2133 21e2 17b5 d1bc 88b6 9a6b 4db1
000000c0: 0d19 05b4 4021 87b6 10f5 02b0 8ea6 1933
000000d0: f2c1 d0b4 b69c 88b6 f56a 4db1 d57a 06b4
000000e0: 340b 87b6 1fab 74ae 1493 1533 edd4 62b4
000000f0: a17c 88b6 aa6c 4db1 7c7b 09b4 c797 c3b9
00000100: 8a9f da2f 9578 6b36 b83d 62b8 9d56 c5b9
00000110: 9ede 62b4 adda 49b7 9626 1fbb 9655 0834
00000120: c458 533a b4f9 0a3a 5f22 fbba 791b 64b6
00000130: 87e2 00ba 4ee8 2cbb e0e2 8435 9a82 573a
00000140: b0f5 033b 90ec 09bb 81c7 80b6 2db8 01ba
00000150: bca5 4dbb ca98 ab35 dcae 4b3a f078 303b
00000160: d7be 30bb 3575 97b6 f4ec 05ba 51c1 69bb
00000170: 17ef b035 d9f1 4e3a 1a31 a33a 8403 4dbb
00000180: cdf5 b3b6 9345 08ba 33de 5cbb c9c2 a035
00000190: 890a 453a f14e e53a 54a7 44bb 19f9 c4b6
000001a0: 969d 05ba 1581 4aba a018 c134 ca7d b935
000001b0: 4f1c ffb6 b4bb 4bba 1025 6eb4 0e33 16b8
000001c0: b3fc 413a a1f1 b0b4 8553 24b8 18a0 81b9
000001d0: 3667 393a 5690 3f35 b908 4c37 9db5 ccb9
000001e0: dfd9 1135 9d92 7738 f392 a9ba 95da 9ab9
000001f0: d11e 25b4 53be c6b7 864e ccb9 1965 d4b4
00000200: f0e5 7138 b894 a7ba 17c1 9ab9 6842 25b4
00000210: 6dc3 c6b7 056d 90ba 2ba2 ffb4 3875 f538
00000220: aaf2 0bbb 7d22 74ba 2f5e 3cb5 c8f9 48b8
00000230: 19f7 9939 9079 34b6 5a26 e0b6 f70e 2abb
00000240: 2c30 8139 c469 25b6 c254 9b37 d6f7 9a39
00000250: 92e4 3fb6 bad9 fab6 e1b3 20bb 5ace 8239
00000260: ae6a 25b6 a0a8 9e37 8100 9d39 0b16 3bb6
00000270: 4160 03b7 7139 15bb 5493 8439 2ba2 25b6
00000280: dcfa b737 0fff 9d39 3864 34b6 2450 1ab7
00000290: 540c 11bb c000 8639 9e47 25b6 c94c c837
000002a0: b20d 9f39 eb12 2ab6 83d9 1bb7 687e 45ba
000002b0: 8e69 8739 ef2c 26b6 861e cc37 0e1a 72b9
000002c0: a765 5436 290f ff36 3bb3 e03a 6aba 4cb9
000002d0: b14b ff35 27c7 a2b7 b448 74b9 e787 5a36
000002e0: d979 0437 fa23 ce3a 9038 4fb9 474d ff35
000002f0: 0995 9fb7 f022 77b9 abaa 5c36 0dff 0a37
00000300: 0d07 bf3a b3b6 51b9 f94e ff35 5d64 aeb7
00000310: 72f6 78b9 6d0e 5c36 3cc7 1737 4038 af3a
00000320: da34 54b9 cd50 ff35 8985 b7b7 458e 1aba
00000330: b6f8 5736 8ba6 2138 e3f8 5639 6ccf 07ba
00000340: 3e06 dc35 5e37 12b8 fffa 31b9 4e8b 5fb6
00000350: 0abb adb9 fa72 0fbc cc08 c2b9 13ab 9b34
00000360: 35cc 5c3a 9ae5 263b b26f 66b6 97bc b8b9
00000370: f007 1fbc 9665 1b3b ac3d 2136 e7c4 723a
00000380: c9eb 263b 568e f9b5 650b b9b9 0cf5 1dbc
00000390: 0680 1b3b 95f2 4e36 203c 723a 37bf 283b
000003a0: 387a e0b5 7645 bab9 3f71 f2bb 6109 1d3b
000003b0: 9a43 8336 f139 713a 2d04 243b cebb b1b5
000003c0: 7384 b9b9 385d fabb b6d6 183b 74a6 a236
000003d0: 4001 703a 2300 023b 36a2 8735 298d 9039
000003e0: 7fa4 fd38 37d8 053b 30f5 a635 c852 b639
000003f0: ffb7 b23a b0de e935 9590 9239 7286 dc3a

exp_avg_sq f4 [128, 35]
1.0242923e-06 2.7456206e-08 0.0028342993 0.0051234677 3.1883737e-05 5.453206e-08 0.002821637 1.1310475e-06
3.9348986e-08 0.002827965 0.0055558425 3.2567095e-05 7.337001e-08 0.0028156533 1.2449076e-06 5.446708e-08
0.0028216662 0.006019148 3.325525e-05 9.640811e-08 0.0028102982 4.4817752e-06 7.330322e-08 0.0028213996
0.006487856 5.3539757e-06 3.7732387e-10 0.0030953337 1.43437e-05 9.6383694e-08 0.0028181155 0.007150595
1.3755313e-05 2.7274971e-09 0.0030926748 4.3786702e-10 1.2973775e-15 4.4176086e-12 1.4884148e-11 3.4623468e-10
1.9358512e-15 1.5496946e-11 5.077249e-10 1.30059e-15 9.0443736e-11 8.317923e-12 7.496008e-10 2.274576e-15
3.0475378e-10 1.0389093e-09 1.3012647e-15 3.1670697e-11 6.0175344e-11 1.0233513e-09 2.8509725e-15 9.0516615e-11
1.292419e-09 4.7575964e-14 1.7904325e-10 7.475334e-11 1.8593801e-09 4.9573667e-14 5.820143e-10 8.114123e-06
5.839013e-14 6.488763e-06 3.0101086e-09 9.120651e-06 1.0458399e-13 6.064383e-06 0.0011394124 1.2879703e-09
0.00014504613 0.0054928637 0.0010531925 1.4187976e-09 0.00015232494 0.0011401105 1.497496e-09 0.00014618244
0.0055698017 0.0010537801 1.4966827e-09 0.00015314277 0.0011464134 1.7691327e-09 0.00015113586 0.00564476
0.0010606182 1.5037288e-09 0.00015875734 0.0011535205 2.1330524e-09 0.0001514023 0.0056264834 0.0010625253
1.1325324e-09 0.00015972629 0.0011614356 2.6207525e-09 0.00015706336 0.00561464 0.0010728611 1.1595634e-09
0.0001655755 0.00150686 2.1778606e-09 9.248153e-06 0.00029481095 0.0014972195 2.4002527e-09 1.2691977e-05
0.0014854248 2.2475857e-09 9.116538e-06 0.0005848491 0.0014739861 2.5183364e-09 1.2709117e-05 0.0014935777
2.336195e-09 9.048149e-06 0.0006119177 0.0014820701 2.3625928e-09 1.279271e-05 0.0014902152 2.4603857e-09
9.12355e-06 0.00053972914 0.0014783881 2.3768685e-09 1.30222215e-05 0.0014858069 2.621792e-09 9.159031e-06
0.0007767677 0.0014741509 2.4426228e-09 1.3304478e-05 4.4757547e-07 5.764564e-11 1.373614e-06 0.00049596606
4.608974e-07 5.952999e-11 1.2939772e-06 4.4948968e-07 6.101089e-11 1.4189305e-06 0.0004612117 4.730801e-07
6.2912876e-11 1.338519e-06 1.0752855e-06 6.275347e-11 2.843814e-06 0.0004442578 1.0190174e-06 5.907908e-11
2.6141388e-06 2.8240072e-06 6.528317e-11 8.375818e-06 0.000553432 2.6442744e-06 6.1040104e-11 7.851985e-06
3.8215353e-06 7.156351e-11 1.0276045e-05 0.00064111926 2.5762856e-06 6.7802715e-11 1.0005086e-05 1.748663e-05
8.859725e-09 0.0019063695 0.007840099 2.748958e-05 1.7646213e-08 0.0018928994 1.7388738e-05 1.2577156e-08
0.0019024438 0.008095409 2.7814505e-05 2.3693868e-08 0.0018903589 1.7296974e-05 1.7356378e-08 0.0018985794
0.00822808 2.8151118e-05 3.0991092e-08 0.0018864931 1.8141067e-05 2.3371179e-08 0.0018976635 0.008733227
2.3271254e-05 3.7097163e-09 0.0019752972 2.2819737e-05 3.080701e-08 0.0019035691 0.009248196 2.805948e-05
4.6157664e-09 0.0019838866 0.0007199737 3.457497e-09 0.0007438304 0.005086682 0.0007429877 6.709803e-09
0.00076019485 0.0007190684 4.8149587e-09 0.00074245443 0.0050768275 0.0007421983 8.9023375e-09 0.00075983256
0.00072523643 6.5664114e-09 0.0007481251 0.004986973 0.0007494138 1.1511489e-08 0.0007660968 0.0007324337
8.784055e-09 0.0007529177 0.0049989857 0.0007505061 1.4217992e-09 0.00080125674 0.00073328527 1.1553077e-08
0.0007596768 0.0051393392 0.0007510389 1.6419898e-09 0.00080634747 0.00023285266 2.372195e-10 0.00016125116
0.00016440813 0.0002447822 7.9971896e-10 0.0001766777 0.0002341416 2.7772315e-10 0.00016090638 0.00036081907
00000000: 6a7a 8935 d6d8 eb32 a7bf 393b c3e2 a73b
00000010: e7ba 0538 a236 6a33 37eb 383b 7fce 9735
00000020: ab00 2933 6155 393b c90d b63b a798 0838
00000030: 978f 9d33 d386 383b b316 a735 30ef 6933
00000040: b4eb 383b 463c c53b 8e7b 0b38 eb08 cf33
00000050: fb2c 383b 2862 9636 df6a 9d33 3be7 383b
00000060: 1598 d43b 4da6 b336 9d6f cf2f 15db 4a3b
00000070: b9a5 7037 7ffb ce33 22b0 383b 8a4f ea3b
00000080: 9fc6 6637 a36e 3b31 79ae 4a3b 4eb8 f02f
00000090: c8f8 ba26 486e 9b2c 1fec 822d 3358 be2f
000000a0: 277e 0b27 0550 882d f78f 0b30 4d6f bb26
000000b0: 4ce3 c62e 9854 122d 780c 4e30 85e6 2327
000000c0: 488a a72f 5fc9 8e30 3288 bb26 094a 0b2e
000000d0: b553 842e f9a5 8c30 296f 4d27 530c c72e
000000e0: f3a0 b130 5a43 5629 32dc 442f 6462 a42e
000000f0: 1f8d ff30 8c42 5f29 9efb 1f30 e521 0837
00000100: 9e7b 8329 0dba d936 64da 4e31 e604 1937
00000110: 9180 eb29 a77c cb36 5658 953a 6d04 b130
00000120: 8617 1839 7bfd b33b 470b 8a3a 81ff c230
00000130: 6ab9 1f39 c36f 953a 75d0 cd30 8d48 1939
00000140: e282 b63b fe1e 8a3a d7b3 cd30 f394 2039
00000150: 4043 963a d325 f330 397a 1e39 aef7 b83b
00000160: 7104 8b3a c1ab ce30 1978 2639 ba31 973a
00000170: 0e95 1231 bfc1 1e39 5d5e b83b 6f44 8b3a
00000180: 71a7 9b30 337c 2739 503b 983a c418 3431
00000190: 60b1 2439 04fb b73b 3f9f 8c3a 835e 9f30
000001a0: 569e 2d39 d581 c53a 54a9 1531 8428 1b37
000001b0: db90 9a39 5a3e c43a b1f1 2431 a0ef 5437
000001c0: 96b2 c23a f273 1a31 3cf3 1837 8f50 193a
000001d0: c432 c13a 0b0f 2d31 3e39 5537 27c4 c33a
000001e0: c78a 2031 81cd 1737 1a69 203a 0542 c23a
000001f0: 2c5b 2231 45a0 5637 5353 c33a 9013 2931
00000200: 5911 1937 9c7c 0d3a 79c6 c13a 5056 2331
00000210: 047a 5a37 68bf c23a 0d2b 3431 bda9 1937
00000220: ff9f 4b3a 4c38 c13a 13db 2731 4c36 5f37
00000230: 4e4a f034 3987 7d2e 055d b835 b803 023a
00000240: 4271 f734 68e8 822e b8ac ad35 6451 f134
00000250: 142a 862e 1572 be35 c9ce f139 a2fb fd34
00000260: cd58 8a2e 2aa7 b335 8752 9035 10ff 892e
00000270: 5ad8 3e36 46eb e839 2cc5 8835 91ea 812e
00000280: 906e 2f36 1384 3d36 288f 8f2e dd85 0c37
00000290: 3114 113a 4a74 3136 863a 862e 05bc 0337
000002a0: bd3a 8036 ad5e 9d2e 4767 2c37 c910 283a
000002b0: 40e4 2c36 8919 952e 84db 2737 41b0 9237
000002c0: 7c35 1832 25df f93a c273 003c 6c99 e637
000002d0: 6f94 9732 2a1b f83a 08de 9137 eb12 5832
000002e0: 6c5b f93a 9ba2 043c 3253 e937 5e87 cb32
000002f0: ebc5 f73a f818 9137 1417 9532 c1d9 f83a
00000300: 12cf 063c 1126 ec37 111b 0533 3444 f73a
00000310: a52d 9837 c4c1 c832 05bb f83a cf15 0f3c
00000320: a336 c337 05ee 7e31 fd73 013b 036d bf37
00000330: aa50 0433 2e81 f93a bf85 173c 4661 eb37
00000340: b698 9e31 1804 023b 9ebc 3c3a ee98 6d31
00000350: 9dfd 423a 2eae a63b 0fc5 423a 0d8c e631
00000360: d047 473a dd7f 3c3a d370 a531 46a1 423a
00000370: 845b a63b 1690 423a e5f0 1832 802f 473a
00000380: cb1d 3e3a c49e e131 d31d 443a c369 a33b
00000390: 4f74 443a 10c4 4532 e3d3 483a cb00 403a
000003a0: afe8 1632 745f 453a 88ce a33b 9dbd 443a
000003b0: 1d69 c330 6e0b 523a f139 403a f87a 4632
000003c0: 0c25 473a e767 a83b 5ee1 443a 61ac e130
000003d0: 1061 533a e929 7439 ad69 822f 8715 2939
000003e0: f964 2c39 1c56 8039 38d3 5b30 8f42 3939
000003f0: e883 7539 0fae 982f fab8 2839 512c bd39

exp_avg f4 [128]
-1.255021e-05 -2.641116e-06 -2.67042e-05 -8.65552e-06 -3.080821e-05 2.0471245e-05 -1.3260874e-06 8.632968e-06
8.665542e-06 2.6559052e-05 1.2423608e-05 2.7758697e-05 -2.8095923e-05 4.261444e-05 -1.3968938e-05 -6.689415e-05
-8.361531e-06 -9.546424e-06 2.3996237e-05 -8.6412896e-05 -7.12024e-05 -1.24574835e-05 2.7530305e-05 -1.5268142e-05
-5.31973e-06 -9.260812e-06 -1.1818152e-05 6.73525e-07 -3.549155e-08 -2.8349234e-05 -5.2396246e-07 1.1085809e-06
2.7652588e-05 -1.4931768e-05 2.3219438e-05 5.2659575e-06 -1.0927509e-05 4.8015745e-06 -2.123601e-05 -1.2634085e-06
-7.503703e-05 -4.0120143e-05 1.8494955e-05 -4.019496e-05 -6.8709596e-08 3.5679343e-05 5.218948e-05 -1.6057636e-05
2.4246434e-05 4.4121853e-06 -1.7137845e-05 -7.93609e-06 0.00010994743 1.9882948e-05 5.492003e-05 4.484799e-06
-8.907352e-06 4.9253937e-05 -1.5515548e-06 6.494278e-05 -4.1745137e-05 6.920512e-05 7.350698e-05 1.6795851e-05
2.2155089e-06 9.780138e-05 -1.9313356e-06 -9.893177e-06 4.32131e-06 2.4790901e-05 2.0538073e-05 -2.0247318e-05
5.382999e-05 -1.2672667e-05 1.43634e-05 -3.1975455e-07 5.4654e-05 2.10004e-05 -1.6071846e-05 7.0826274e-05
-2.606816e-05 -2.0995429e-05 2.2981281e-05 -6.0712555e-06 1.3050375e-05 -3.4499095e-07 -5.1216466e-06 -2.9777606e-05
0.00010259451 2.107254e-05 -2.2542252e-05 7.214432e-06 -1.6730563e-06 6.411627e-06 -1.5553725e-05 -7.615874e-05
-8.718906e-05 2.6200325e-05 -1.1203121e-05 -1.0610059e-07 2.4793211e-05 5.6494487e-06 -5.3791977e-05 -4.1340252e-05
3.334918e-05 -7.5148586e-05 3.046517e-05 1.3434871e-05 4.6900906e-05 -7.2390445e-05 -2.676425e-05 -1.7678125e-05
-7.058057e-05 4.093968e-06 -9.539449e-07 5.9417387e-05 1.6320993e-06 -3.218799e-06 -1.3607155e-05 -8.2606246e-05
2.2435623e-05 2.809375e-06 -2.6410692e-06 -4.6906025e-06 -4.773835e-05 6.085844e-05 1.9346751e-05 -3.8877486e-05
00000000: be8e 52b7 073e 31b6 d502 e0b7 2d37 11b7
00000010: 1038 01b8 aab9 ab37 04fc b1b5 51d6 1037
00000020: 3862 1137 21cb de37 fd6e 5037 59db e837
00000030: 89af ebb7 e8bc 3238 225c 6ab7 8649 8cb8
00000040: 8148 0cb7 9429 20b7 874b c937 9238 b5b8
00000050: 7f52 95b8 7c00 51b7 e1f0 e637 1614 80b7
00000060: 2280 b2b6 e25e 1bb7 9446 46b7 49cc 3435
00000070: 5f6f 18b3 84cf edb7 6da6 0cb5 8dca 9435
00000080: 7bf7 e737 7583 7ab7 5dc7 c237 3bb2 b036
00000090: 4b55 37b7 361d a136 fc23 b2b7 6392 a9b5
000000a0: 335d 9db8 ad46 28b8 9d25 9b37 0297 28b8
000000b0: 808d 93b3 67a6 1538 07e6 5a38 83b3 86b7
000000c0: d264 cb37 620c 9436 3ec3 8fb7 3f25 05b7
000000d0: 9493 e638 4eca a637 ef59 6638 217c 9636
000000e0: c970 15b7 0396 4e38 043f d0b5 e431 8838
000000f0: 8017 2fb8 3722 9138 c227 9a38 d1e4 8c37
00000100: 27ae 1436 b71a cd38 189c 01b6 dffa 25b7
00000110: c5ff 9036 0ef6 cf37 2d49 ac37 c9d8 a9b7
00000120: 83c7 6138 b19c 54b7 55fa 7037 bbaa abb4
00000130: 493c 6538 042a b037 07d2 86b7 9188 9438
00000140: f3ac dab7 571f b0b7 edc7 c037 b0b7 cbb6
00000150: eff2 5a37 3237 b9b4 9cda abb6 ecca f9b7
00000160: 0228 d738 efc4 b037 1e19 bdb7 8013 f236
00000170: c78d e0b5 7523 d736 5f79 82b7 6ab7 9fb8
00000180: 45d9 b6b8 c5c8 db37 0af5 3bb7 6bd9 e3b3
00000190: 04fb cf37 6590 bd36 b29e 61b8 c264 2db8
000001a0: 69e0 0b38 1799 9db8 748f ff37 5566 6137
000001b0: 77b7 4438 53d0 97b8 ca83 e0b7 7c4b 94b7
000001c0: a804 94b8 eb5e 8936 4c09 80b5 ef36 7938
000001d0: 810e db35 8c02 58b6 494a 64b7 e43c adb8
000001e0: 2234 bc37 b288 3c36 393d 31b6 f863 9db6
000001f0: aa3a 48b8 4142 7f38 d54a a237 6210 23b8
