results/Shooter/Shooter/Shooter-7792.pt (torch, 520935 bytes, 46 tensors)

discrete_act_size_vector f4 [1, 3]
000000 00 00 a0 40 00 00 80 40 00 00 00 40
       5.0 4.0 2.0

network_body._body_endoder.seq_layers.0.weight f4 [128, 27]
000000 b3 2b 0a 3d 8d 6d 07 be 94 d6 8a be 30 45 bd bc
       0.03373308 -0.13225384 -0.27116835 -0.02310428
000010 7f f1 64 bd 56 e4 ca 3e e1 ed ab 3d 98 72 c6 be
       -0.05589437 0.39627331 0.08394981 -0.38759303
000020 3c 27 59 3e bf af 8c bd dd d9 83 bd e9 fa 59 bd
       0.21206373 -0.068694584 -0.064380385 -0.053217802
000030 2c 32 d5 be 29 11 67 3e 3f 1b f4 be 11 00 f3 bc
       -0.4163984 0.2256514 -0.47677037 -0.029663118
000040 cb 9b 05 be 47 96 b7 3e 54 90 33 3e 0d 97 61 be
       -0.13047712 0.3585684 0.17535526 -0.22030278
000050 43 55 43 be cd e3 af 3e 6e d0 0b 3e a2 c1 81 bd
       -0.19075494 0.34353486 0.13653728 -0.06335761
000060 87 6b 7e 3e 20 51 44 be d9 f6 0b 3e 0c 8f f8 3d
       0.24845706 -0.19171572 0.13668384 0.12136659
000070 4e 00 af 3e c4 b2 48 bb 56 88 c7 3e 8d ac ab 3d
       0.3417992 -0.003062413 0.38971204 0.08382521
000080 94 10 1a 3d 6b fd 00 3b 79 2b c4 3d fc 50 58 be
       0.037613466 0.00196823 0.09578604 -0.21124643
000090 2c 39 b6 bd e4 0d 50 be 37 5d 48 3e 1f 80 ae 3d
       -0.088976234 -0.20317799 0.19566809 0.08520531
0000a0 6a 6c 8d bc f3 1e 5d be 26 be 18 3e d0 b8 a5 be
       -0.01726361 -0.21593837 0.14916286 -0.32367563
0000b0 47 12 9a 3e ba 0f ca bd 54 47 18 bd c1 c4 95 3e
       0.3009207 -0.09866281 -0.0371774 0.29251674
0000c0 9e b7 0a be f3 b1 24 bd 91 3d 00 3e 6f c8 b2 3e
       -0.13546607 -0.040208768 0.12523486 0.34918544
0000d0 ed 15 bd 3e 14 53 1e bd c2 44 c5 3a 51 35 54 3d
       0.3693079 -0.03865345 0.0015050399 0.05180866
0000e0 6b 5d 88 3d c7 b7 46 be 75 29 c4 be 3c aa 4c 3e
       0.06658443 -0.19406043 -0.3831288 0.19986814
0000f0 9b a7 c1 3d 3c 41 91 bd 78 36 24 3e 64 a1 24 3e
       0.09455796 -0.070925206 0.16036403 0.1607719
000100 0f 7d 1f 3f d9 9c 2a 3d 17 37 26 bc 5d 7f 24 3e
       0.623002 0.041653488 -0.01014497 0.1606421
000110 ec cc 5b 3e 83 ae 00 3e bb a2 6b 3e 34 d4 d1 3c
       0.2146489 0.12566571 0.23011295 0.025613882
000120 83 86 20 3d ee 1b ab be d0 4f 90 3e 44 a0 dd 3e
       0.03919078 -0.33419746 0.28185892 0.43286335
000130 0d 49 8e 3c 58 eb 0b be 57 53 b4 bd 47 1c 69 3d
       0.017368818 -0.13663995 -0.08804958 0.056911733
000140 75 90 62 be 91 3e 94 3d 2a ac 0e 3d 92 85 a8 3d
       -0.22125418 0.07238496 0.034832157 0.082286015
000150 c0 fb a7 bd 4f 32 3d bf 66 3f 9c 3e 61 c0 2a be
       -0.082023144 -0.7390489 0.3051712 -0.16674949
000160 31 7e 43 be 98 51 b1 bd e6 97 5c bd 2f 2c 17 be
       -0.19091107 -0.08658141 -0.0538558 -0.14762948
000170 08 92 28 be fb a7 bc be fc d8 bf bd 23 8c e0 3d
       -0.16461957 -0.3684691 -0.09367558 0.10964229
000180 91 53 62 be 77 9a a2 be 17 8f 41 3d 1f ad 9d 3e
       -0.2210219 -0.31758472 0.0472556 0.30796143
000190 90 d3 98 bd e4 c1 3e be 41 c0 db 3d 2f 32 51 3e
       -0.07462227 -0.18628651 0.10730029 0.204293
0001a0 f4 18 15 be 74 58 0a bb 73 fa 57 3d db 0b 15 3e
       -0.145603 -0.002110985 0.05272908 0.14555304
0001b0 eb 20 e6 bd 29 01 33 be e9 8c 53 3e 9f f1 eb bd
       -0.11236747 -0.17480911 0.20659222 -0.11520695
0001c0 c5 8b 93 3d c8 76 74 3c 2d 33 9c bc 76 93 bd bd
       0.07204393 0.014920898 -0.019067371 -0.092566416
0001d0 1a 0e 0a be b6 88 5e 3e 29 7a f4 3d 9c 82 37 be
       -0.13481942 0.21731839 0.11937363 -0.17920917
0001e0 70 4d f3 3d fc 57 c9 3d 57 de 32 be 7d 64 1a be
       0.118800044 0.09831235 -0.17467628 -0.15077396
0001f0 84 4f 2f be 95 e9 86 3d 30 cb ed bd 17 cc 0b 3d
       -0.17120177 0.06587521 -0.116110206 0.034130182
000200 22 9b 1b 3e 78 53 c3 3c 10 a4 8b be 67 4a c3 be
       0.15195897 0.023843512 -0.27273607 -0.38142702
000210 df ab c7 3e d4 84 87 bd e1 a6 03 be 25 11 03 bd
       0.38998315 -0.06617132 -0.12856628 -0.031998772
000220 0f 15 d3 3d 71 61 43 be 77 ea 26 3d 69 88 0a be
       0.10306751 -0.1908014 0.040750947 -0.13528599
000230 44 d4 41 3e 3a b5 b8 3c ad f3 06 3e 94 a1 ef bd
       0.18928629 0.022547353 0.13178892 -0.117007405
000240 3e 10 c4 be 72 74 24 bc 6a aa 16 3e 0d 41 ec 3e
       -0.38293642 -0.010037528 0.14713445 0.4614338
000250 3d 04 88 3d db 52 c2 3c a8 74 00 3f 95 8e 85 be
       0.066414334 0.02372115 0.50178003 -0.26085344
000260 e1 a8 2a be 65 db c2 bd 1f 9c 82 3d 99 33 48 3e
       -0.16665985 -0.095145024 0.06377434 0.19550933
000270 62 e5 a1 3e 91 66 c9 bd be a1 97 be 27 ee 41 3d
       0.31620318 -0.09834016 -0.29615587 0.04734626
000280 d3 97 d6 3d 1d 11 32 3e 62 da 69 be 4b b3 da bd
       0.10478177 0.1738934 -0.22837213 -0.10678729
000290 c1 cb 47 be 2f eb 83 be c1 a4 b2 bc d9 79 55 be
       -0.1951132 -0.25765368 -0.021807076 -0.20847262
0002a0 12 8c f6 bd 64 8f 1b 3e 52 de 98 be bd 4d 60 3c
       -0.12038435 0.15191418 -0.29857117 0.013690409
0002b0 0f 44 73 3e 82 bb 19 3e 6a 01 c8 3d b6 2a 06 be
       0.23756431 0.15012935 0.09765895 -0.1310223
0002c0 00 d7 6d be 52 fd 5b be 5c fb 8b 3e 5c 9d e8 3e
       -0.23226547 -0.21483353 0.2734021 0.45432556
0002d0 f6 b1 f8 bd ad 1e c8 3e e3 be fb 3c db 12 02 be
       -0.12143318 0.39085904 0.03073067 -0.12702505
0002e0 08 6b 8c bd 3c af 76 bd 9b eb e6 be 7d 29 61 bd
       -0.06856352 -0.06022571 -0.45101628 -0.054971207
0002f0 fc 54 00 bf 9a 94 89 3d ea 3c 0b be 30 69 98 3d
       -0.50129676 0.067177966 -0.13597456 0.07441938
000300 e0 1c 81 3e 24 76 f2 3d 80 33 2d be 26 bd a5 bc
       0.25217342 0.1183894 -0.16914177 -0.020231795
000310 68 56 87 be db 07 03 be 67 4c ae bc 07 c0 b5 bd
       -0.2643311 -0.12795965 -0.021276666 -0.08874517
000320 6b f6 a3 3e 81 82 88 be 19 b2 ee bd af 69 ef bd
       0.3202394 -0.26662067 -0.11655063 -0.116900794
000330 73 00 2b be ee e6 ee 3c df 0c cd bd 52 5c 92 3e
       -0.1669939 0.02916285 -0.100122206 0.2858606
000340 a5 61 51 be a0 92 2b be 0f 1b eb bd 89 2e ef 3c
       -0.20447405 -0.16755152 -0.114797704 0.029196994
000350 eb 6f 45 be 5b c5 15 3d 10 4a 5e be a0 a0 10 3e
       -0.19280975 0.036565166 -0.2170794 0.14123774
000360 26 2d 47 bc 08 47 81 3e ee a3 23 be df e3 99 3d
       -0.01215676 0.25249505 -0.15980503 0.07514166
000370 db d2 70 bd 69 8e 93 bd 40 18 86 be 0c 18 9a 3d
       -0.058794837 -0.07204897 -0.26190376 0.07524118
000380 58 f8 b0 3e b9 18 c8 3d 16 22 21 be b7 bd 58 3e
       0.3456447 0.097703405 -0.15735659 0.2116612
000390 b4 78 9a 3d b7 b5 e3 bd 3e a9 09 bf c6 60 03 be
       0.075425535 -0.11118644 -0.5377387 -0.12829885
0003a0 d6 de 1c be 45 cb 1b be 1d f4 03 be 32 51 94 be
       -0.1531938 -0.1521426 -0.1288609 -0.28968197
0003b0 73 68 0b bb 19 f6 03 3f ae a7 00 be fc a3 88 3e
       -0.0021271973 0.5154739 -0.12563965 0.2668761
0003c0 df 1c 05 3d f9 5f 89 3d 57 72 a1 3d 08 45 d5 3e
       0.032498237 0.067077585 0.07883137 0.4165423
0003d0 21 2d 98 be d9 91 9b be 14 91 92 3e b2 78 ab 3e
       -0.2972193 -0.3038471 0.2862631 0.3349052
0003e0 04 b0 23 be 5f 25 7a 3e 95 81 1a be b9 1a 54 bf
       -0.15985113 0.24428318 -0.15088494 -0.82853276
0003f0 47 0c fc bc 25 b3 c2 bd 58 2e c6 3d 66 d3 69 3e
       -0.030767573 -0.09506825 0.09676808 0.22834548

network_body._body_endoder.seq_layers.0.bias f4 [128]
000000 69 32 f6 bc 92 46 0b bd 6b ca 24 bc 5a 56 a7 3b
       -0.030053334 -0.034002848 -0.010058026 0.0051067295
000010 47 4e e7 bc ad 84 bb bc 71 4e 55 3d 8b 99 b1 3c
       -0.028235568 -0.022890413 0.05207676 0.02167966
000020 68 2c d0 bc fa b5 d2 bb 3a a7 9f 3c ce 2c 22 bc
       -0.0254118 -0.0064303847 0.01948892 -0.009898378
000030 7c 32 11 bd 15 5b bb ba 78 22 51 bc 86 22 d6 bb
       -0.035448536 -0.0014294112 -0.012764566 -0.0065348772
000040 d3 a3 85 3b 25 1e 22 3c ff 77 84 3c 5e 17 e1 bc
       0.0040783673 0.009894882 0.0161705 -0.027476963
000050 ef 1b 57 bb a9 4a 90 bc 40 b8 12 bc 0a 73 9b bc
       -0.0032823046 -0.017613726 -0.008955061 -0.018975753
000060 ea 14 7c 3c a9 13 c8 bc 0b 79 10 bc 12 a7 87 3c
       0.015385846 -0.024423437 -0.008817921 0.016559158
000070 ee 5e 5f bc a1 9b 64 3c 61 eb 2c bc 15 3c 84 bc
       -0.013633473 0.01395312 -0.010554166 -0.01614193
000080 d9 dd b4 3c e1 84 8f 3c 7f db 2f bd bc a5 67 bd
       0.022078441 0.017519416 -0.042933937 -0.05655454
000090 ca 9f 1f bc 18 a2 d9 ba 62 ca 31 bc cf fb ed 3b
       -0.0097426865 -0.0016604094 -0.0108514745 0.007262684
0000a0 12 44 8e bc 95 77 a9 3b ec b9 da bc e0 a8 a4 bc
       -0.017366443 0.005171726 -0.026699983 -0.020100057
0000b0 eb 4f 5d 3d 26 a9 1e 3b 94 3b a6 3c 81 f3 71 bc
       0.054031294 0.0024209707 0.020292081 -0.0147675285
0000c0 33 e3 ed 3c a7 64 74 3c a7 a1 dd 3c ae 47 62 bc
       0.029039001 0.0149165755 0.02705462 -0.013811035
0000d0 ee e1 9c bc 04 a6 c8 3b 65 62 cf 3c b7 b1 fd 3b
       -0.0191507 0.006123306 0.025315473 0.0077421325
0000e0 78 0c 12 3b 16 9e ae 39 83 f1 e4 bb 3e 6e 39 ba
       0.0022285264 0.0003330565 -0.0069867983 -0.00070736173
0000f0 00 b2 14 bd 0d ad 15 bc 17 b6 a8 bc 36 0b 40 3c
       -0.036302567 -0.009135497 -0.02059464 0.011721423
000100 9a 60 05 3a 69 af 81 3c fe 78 c7 ba 82 01 a0 3c
       0.0005087942 0.015830712 -0.0015218554 0.019531969
000110 23 07 da bb 3f e8 90 bc 2d 1e 7c bc 8d 25 77 bc
       -0.006653683 -0.017688869 -0.015388054 -0.015084636
000120 37 da 23 bc 33 24 f1 3b 37 29 af bc 5e 67 8d bc
       -0.010000757 0.0073590516 -0.021381957 -0.017261203
000130 c9 82 ea 3c c4 13 b9 3c 5c a7 8f 3b 08 df 73 3c
       0.028626816 0.022592433 0.0043839645 0.014884718
000140 07 7a d5 3c 90 96 00 3b 29 1c 89 bc d6 92 e2 bc
       0.026059164 0.0019620992 -0.01673706 -0.027657907
000150 a6 c9 21 3c 7b fc 1f bc 42 9e c8 3b 11 be 57 3c
       0.009874737 -0.009764786 0.0061223814 0.013167874
000160 0c bb df 3c 98 4b f3 bb 75 a5 09 bc 72 00 0a bd
       0.02731087 -0.007424783 -0.008401264 -0.03369183
000170 d1 97 fc bc 8a 9e 2b b8 7d 67 8f 3c 94 d1 c1 bc
       -0.03083411 -4.0917228e-05 0.017505402 -0.023659505
000180 18 e4 d6 b9 1d 85 12 bd 4b 4d 4e bb 8c cf aa bc
       -0.00040987204 -0.035771478 -0.0031479176 -0.02085092
000190 61 dc 5d 3c 59 56 8f bc 8d c3 34 bc a0 4d f5 bc
       0.013541312 -0.017497228 -0.011032951 -0.029944241
0001a0 7f 3b 0d bd 57 60 87 3a ae 2e 20 bc ef 82 58 bd
       -0.034480568 0.0010328394 -0.009776754 -0.052859243
0001b0 78 f8 9c 3c 61 c1 5a 3a 7a ea 24 3a 15 4b ae 3b
       0.019161448 0.0008344856 0.0006291043 0.005319009
0001c0 be 7a ac bc a3 a2 73 3c 53 79 07 bc b1 75 af bc
       -0.021054622 0.014870319 -0.008268672 -0.021418424
0001d0 ee c4 2a bb 33 e6 6d bc 4a 04 90 bc 4b 78 b0 bc
       -0.002605732 -0.014520216 -0.01758017 -0.021541735
0001e0 93 a5 b4 3c c1 b4 ff 3c 9f 74 79 3b 30 52 26 3b
       0.022051608 0.03121412 0.0038063896 0.0025378577
0001f0 62 45 b4 3c 7d 60 63 ba 73 91 93 bc 8c 2b 0a bd
       0.02200574 -0.00086737407 -0.018013692 -0.033732936

network_body._body_endoder.seq_layers.2.weight f4 [128, 128]
000000 a2 e6 9c 3c ab 05 ad 3d c5 1a bc bb 26 c2 6c bd
       0.019152943 0.08448347 -0.005740496 -0.057802342
000010 8d 48 92 3c b9 3c 99 3d 42 ad 52 bd ed 59 de bc
       0.01785686 0.07482285 -0.051434763 -0.02714249
000020 ae 65 3d be e1 cf 01 bc d8 23 e1 3d 53 b8 d8 bd
       -0.18495819 -0.007923097 0.10993165 -0.10582032
000030 e6 db d7 bc 76 f7 af bd 86 39 3f 3d c1 bb 1d 3c
       -0.026349973 -0.08592121 0.046685718 0.009627284
000040 af fb 39 bd ba ab 1b be 81 8f e7 3c 6f a3 ac bd
       -0.04540604 -0.15202227 0.02826667 -0.0842961
000050 bc 59 46 3c f7 ee 13 3e 88 f9 63 3c 1d 13 09 3c
       0.012106355 0.14446627 0.013914473 0.008366373
000060 2b 89 02 3d e2 8e 1f 3e bc 4f 92 bc 84 f5 08 3d
       0.031869095 0.15581849 -0.017860286 0.033437267
000070 fb e2 62 3d 9b 99 1e bc 17 6f 99 bd d3 cd 03 be
       0.055392247 -0.009680177 -0.07491892 -0.12871484
000080 e8 d0 23 be cf 77 bf bc 03 9d 83 3d 79 61 50 3d
       -0.1599766 -0.023372559 0.06426432 0.050874207
000090 63 ef a3 bc 47 59 f1 3d bd b8 9f 3c 13 bb cf 3b
       -0.02001161 0.117846064 0.01949727 0.0063394397
0000a0 88 3b 89 3d 58 d9 f4 bd f7 ed 31 3e f4 c5 e3 3d
       0.06700808 -0.119555175 0.17375933 0.11121741
0000b0 9b dd 78 bc 86 39 e6 3d aa 34 6a bd 10 66 2e 3d
       -0.015189554 0.112414405 -0.05717913 0.042577803
0000c0 6e d2 bf 3d 49 6d 7a bd 81 c4 d6 bd 14 5a a7 3d
       0.09366308 -0.06113938 -0.10486699 0.08171478
0000d0 90 19 e2 bd 94 79 36 3d 94 9b d1 3d d3 b2 20 bd
       -0.11040032 0.04454954 0.10234752 -0.03923304
0000e0 d9 88 ee b9 30 d5 ac bd 82 5d 49 be b2 63 bb 3d
       -0.00045496857 -0.084391 -0.19664577 0.09149875
0000f0 b0 81 ce bc 6d 95 96 bc f1 6b c8 bd e8 3a b1 3d
       -0.025208324 -0.018381799 -0.09786213 0.086538136
000100 71 05 bc 3d 5e e5 70 bd a1 de 78 bd 11 b4 93 3d
       0.09180725 -0.05881249 -0.06075919 0.07212079
000110 d3 41 d5 3c c1 f9 1e bc b5 9e be bd 73 7b d0 3d
       0.026032364 -0.009703101 -0.09307615 0.10179796
000120 48 a4 14 3e 5f d7 ec 3d af 33 c5 3d 97 c1 db bd
       0.14515793 0.11564516 0.096289985 -0.10730284
000130 20 ac 3a 3d 55 94 96 bc 6e 40 cc bd f4 99 82 3d
       0.045574307 -0.018381277 -0.099732265 0.063770205
000140 e3 55 58 3d f0 ac 02 3e 61 96 ea 3c a7 94 fb 3c
       0.052816283 0.12761283 0.02863616 0.030710531
000150 e3 49 e7 bc 1e 82 5d 3d b8 9f f8 3d db 09 82 3d
       -0.028233474 0.054079168 0.12139839 0.06349536
000160 a5 98 4b 3b 33 a2 e9 3c ec 0d bd 3c 45 9e 69 3c
       0.0031066325 0.028519725 0.023077928 0.014258926
000170 b4 73 65 3d 74 ba 4c be a5 22 b7 3b 31 d1 b7 bd
       0.056018546 -0.19993001 0.0055888467 -0.08975447
000180 63 41 3d be 50 6b 7a 3d f2 1f 9d bd be 89 d2 bd
       -0.18481974 0.061137497 -0.07672109 -0.102801785
000190 f7 aa 60 3c ef 7e f1 bd b7 52 a3 bc 2c 67 00 3e
       0.013712636 -0.11791789 -0.019936902 0.12539357
0001a0 2e 23 5f bc 74 78 00 bd 05 d2 65 3d 6f 6d f2 3c
       -0.013619227 -0.031364873 0.056108493 0.029593198
0001b0 23 e6 ec 3d 7c 84 3f bd 4f 2a 45 bd b6 62 01 bd
       0.115673326 -0.046757206 -0.04813605 -0.03158828
0001c0 c5 b9 c8 3c aa 10 91 3d 6a e6 7e 3d 1e c8 b0 bd
       0.024502644 0.070832565 0.06223146 -0.08631919
0001d0 32 76 3d bc c6 b5 fe bb 37 db cb 3d bd 9e 04 3c
       -0.0115638245 -0.007773134 0.09953921 0.008094487
0001e0 60 29 9f 3d aa bf 69 bd a5 70 26 bd b2 b3 43 3d
       0.077715635 -0.05706755 -0.04063477 0.047778793
0001f0 13 eb ac bd 82 ea f4 3d b6 e2 6e 3d 73 08 bb bc
       -0.08443274 0.11958791 0.058321677 -0.022831177
000200 b0 f5 93 bd 64 66 45 be f7 0d b9 bd 40 fe e5 bd
       -0.072245955 -0.1927734 -0.09035867 -0.11230135
000210 53 34 e2 3c ab aa 87 bb 8a 90 aa bd ad 06 da bb
       0.02761284 -0.0041402183 -0.0832835 -0.006653628
000220 0e cd a9 bd f7 84 ba 3d 06 0d dd bc 27 11 4f bd
       -0.08291064 0.09107392 -0.02698375 -0.050553467
000230 e1 c2 17 bd fc 87 4f bd 3e ec 20 bc 83 92 15 bd
       -0.037051085 -0.050666794 -0.0098219495 -0.036516678
000240 c5 67 e5 3c db 1b af ba 84 5d d2 bc 39 9e a9 bd
       0.028003583 -0.0013359742 -0.025679357 -0.08282132
000250 a3 a4 58 3b 95 80 1f 3e cb d0 a2 bc f4 69 86 bd
       0.0033057116 0.15576394 -0.01987495 -0.06563178
000260 6b 78 de 3a 6b 4e 2a be 5a 96 75 3c 14 9e fb 3c
       0.0016973143 -0.16631477 0.01498946 0.030715026
000270 7c 8b 1e 3e 9d 62 07 3d d0 32 d8 bd bd 4a a7 bd
       0.15482897 0.03305303 -0.10556567 -0.08168552
000280 4d 0d 31 3c a6 d0 db 3b ff cd 62 3e b5 a9 1e 3e
       0.010806394 0.0067082224 0.22148894 0.15494426
000290 a2 46 b1 3d 0b 79 0d 3d 6d 1d 45 3e 5a 48 17 3e
       0.0865605 0.034539264 0.19249506 0.14773694
0002a0 92 0b 26 3c 69 e4 1a bd b2 f8 8f b9 4c 92 aa bd
       0.0101345945 -0.037815485 -0.00027460378 -0.08328685
0002b0 02 73 17 3d 18 70 0b 3d a1 6c 9a 3c 98 ec 0d be
       0.036974914 0.034042448 0.018850626 -0.13859785
0002c0 b0 cd 28 bd c0 0f bc 3d f1 4c d7 bc 1d 69 12 3b
       -0.041211784 0.091826916 -0.026281806 0.0022340484
0002d0 b6 c4 ed bc 9b 53 74 3c b0 ea 1b 3e bd 90 ef bb
       -0.029024463 0.014912511 0.15226245 -0.0073109553
0002e0 0a 57 5a be 98 c3 02 bc 79 a3 fa bd fd d1 d3 3b
       -0.21322265 -0.0079812035 -0.12238211 0.0064642415
0002f0 da 6b 3c 3d 4e 9e b2 bd c7 be 98 3e 8d da 04 be
       0.046001293 -0.087216005 0.29833052 -0.12973996
000300 f9 b3 1c 3e ce d3 49 bd 6a 89 98 3d ca 96 ef bd
       0.15303029 -0.04927426 0.07448085 -0.116986826
000310 5c 00 c3 3a a6 9a 0d be e2 90 07 bd da eb 91 bd
       0.0014877426 -0.13828525 -0.033097155 -0.07125063
000320 8d d2 c7 bd 36 67 72 bd 59 dc 85 bd e5 d3 8e 3d
       -0.09756956 -0.05918046 -0.065361686 0.069740094
000330 30 fd 84 bd 53 fa 49 bd 8d 6e e0 3d 63 08 0f bd
       -0.06493604 -0.049310993 0.10958586 -0.034920108
000340 f5 31 44 3d ea 83 65 ba 0d a0 f1 3c bf 89 ed 3d
       0.047899205 -0.00087553135 0.029495263 0.115985386
000350 36 41 30 be 60 ba c7 bd 86 e8 51 3d 07 5e 10 3d
       -0.17212376 -0.09752345 0.051247142 0.03524592
000360 c2 45 e9 3d a8 3f 58 3d 97 5e 0f bd a2 74 fc 3d
       0.11390258 0.052795082 -0.035002317 0.123269334
000370 73 c7 85 bd 11 0f 7b bd 35 53 fd bd 25 b5 ab bd
       -0.065321825 -0.061293665 -0.12369386 -0.0838416
000380 d1 f3 7c bd 5e 47 23 be 3d ba 5b 3d 6c 93 7e bc
       -0.06175596 -0.15945193 0.053644408 -0.015538078
000390 8a 8a 7c 3c 14 6c e2 bd d4 c2 c0 3d 3f 64 bb 3d
       0.01541389 -0.110557705 0.094121605 0.0914998
0003a0 2e 9b fa bd 6c 2d 6f 3c d2 30 30 bb 3c f9 84 bc
       -0.122366294 0.014598232 -0.0026884568 -0.016232125
0003b0 ef 8d 4a bd 3e 5c 22 3d 97 c0 da 3c 0c 22 24 bd
       -0.049451765 0.03963875 0.026703162 -0.040071532
0003c0 a1 a1 aa 3d 20 7e 87 3c 87 9e f7 bd e2 ba 84 3b
       0.083316095 0.016539633 -0.120907836 0.0040505985
0003d0 fd 57 3b bd 8d b3 9d bb 99 74 fc bc eb 00 a0 bd
       -0.04573821 -0.004812664 -0.030817317 -0.07812675
0003e0 3d 17 19 3d 79 54 3f 3e 92 f0 63 be ca 1a 6a bd
       0.037375677 0.18684568 -0.22259739 -0.057154454
0003f0 af 11 c5 bc e0 25 1e bd 71 a3 15 3d 8d 63 27 be
       -0.024056284 -0.03861034 0.036532823 -0.1634657

network_body._body_endoder.seq_layers.2.bias f4 [128]
000000 c0 2b 8d 3c 4e 1c 14 bb 82 37 3a 3a d0 82 df 3b
       0.017232776 -0.0022599879 0.0007103608 0.006821014
000010 fd 50 b9 ba 33 e9 83 3c 16 2c 3b 3c 02 fd 92 3a
       -0.0014138516 0.016102409 0.011424085 0.0011214318
000020 c9 c8 8e bc 44 ab 1e bd d4 89 12 bc a2 0c 94 3c
       -0.017429726 -0.03873755 -0.008943994 0.01807243
000030 4c 9f 91 bc 10 60 a4 3b 67 c5 24 bc 28 58 0f bd
       -0.017776154 0.0050163344 -0.01005683 -0.03499618
000040 c7 ae a9 3c d8 e0 5d 3d 58 e6 ba bb 8c 0d 89 3b
       0.020713223 0.054169506 -0.0057037286 0.004182523
000050 ac da 58 bb e9 76 14 bd be ce 18 bd 02 9b a6 3b
       -0.0033089323 -0.036246214 -0.03730654 0.0050843963
000060 08 c4 53 bc 36 f7 d9 bb 31 e7 84 bc 3e 3e 65 bb
       -0.012925155 -0.0066517843 -0.016223522 -0.0034979726
000070 3c 09 d3 bc 29 1b a4 3c e3 f9 97 bb 29 39 25 bc
       -0.02576124 0.020032482 -0.004637943 -0.010084429
000080 c0 1b a4 bc e1 4e 5f bc 1d 81 92 bc ab 03 91 bc
       -0.020032763 -0.013629646 -0.017883832 -0.017701944
000090 43 3c bd ba bb ee 23 3d 40 47 2d 3d 48 e6 61 bc
       -0.0014437515 0.040022593 0.042304277 -0.0137878135
0000a0 8d 00 82 bc a9 85 72 bc 21 3a 23 bc c8 7e d4 bc
       -0.015869403 -0.014802375 -0.0099625895 -0.02593936
0000b0 f7 98 e9 bc 0b 43 26 3c 21 4a a5 bc 79 02 4d 3c
       -0.028515322 0.01014782 -0.020176949 0.012512797
0000c0 e6 aa b4 3b 77 5e 1d 3c a2 e4 8c bc f9 41 c7 bc
       0.0055135367 0.009605042 -0.017198864 -0.02432345
0000d0 19 f8 97 3a 74 c2 47 bc ec ac 84 3c b3 91 88 bc
       0.0011594325 -0.012192357 0.016195737 -0.016671037
0000e0 ea f7 40 3c 9f 8c 25 bc b3 42 ec 3c 7d 8f 6c bc
       0.011777857 -0.010104327 0.028840398 -0.014438507
0000f0 b4 19 86 bb 52 92 a3 3c 70 fe 57 bc 7c 46 67 bc
       -0.0040924195 0.019967232 -0.013183221 -0.014115926
000100 c3 2a 36 bb d6 60 6f bc 35 ce c8 bc 9a 90 ad bb
       -0.0027796484 -0.01461049 -0.02451239 -0.005296779
000110 b9 8b d9 bb cc 03 b2 bc f6 3a 0d bc 2d 47 02 3c
       -0.0066389707 -0.021730326 -0.008620014 0.00795154
000120 72 65 da 3c b2 9a ed bc 81 25 5b 3b 3c 29 66 3b
       0.026659701 -0.029004429 0.0033439102 0.0035119792
000130 a4 f2 97 bc 26 ca fc bc ea 2d a9 3b 71 5a 14 3d
       -0.018548317 -0.03085811 0.005162944 0.036219064
000140 85 8b 01 3b 4a 12 45 bc 5f d5 1d 3c 35 44 c7 bc
       0.0019766998 -0.012028286 0.009633391 -0.024324516
000150 82 de 9b bc 06 e5 6e bb 54 90 0c 3c 50 b1 d6 3c
       -0.019026998 -0.0036452427 0.008579332 0.026207596
000160 6c cc 24 3d e5 ac ba bb 5e 82 7d bc 8c ac 42 3c
       0.040234014 -0.00569688 -0.0154729765 0.011881959
000170 86 b5 80 bc 57 a8 14 3c 7d c9 77 3c 9b 30 9a bc
       -0.015711557 0.0090733385 0.015123722 -0.018822005
000180 d1 0b 85 bc 2c 25 8c 3b fc cb 07 bd 22 57 4e 3c
       -0.016240986 0.004276892 -0.03315352 0.012594016
000190 0e b2 7a bc 34 69 80 bc 51 3b fc 3c 3f 62 04 bd
       -0.015301241 -0.015675165 0.030790003 -0.032320257
0001a0 c5 81 25 3c 5c e0 6f bc 2e 36 fb 3c 86 4d 00 bd
       0.01010174 -0.014640894 0.030665483 -0.031323932
0001b0 7c 32 9f bb 7c 00 14 bc 27 67 5d 3c 01 88 bb bb
       -0.004858313 -0.009033319 0.013513363 -0.005723
0001c0 82 92 29 bc 48 db bf bc 8f b1 c1 3c ae d3 0a bc
       -0.010349872 -0.023419991 0.023644237 -0.00847332
0001d0 68 b8 10 3d d5 68 b2 bc 57 a1 a6 3b 5b 4a 79 bc
       0.035332114 -0.021778503 0.005085151 -0.015215482
0001e0 33 2a ad bc b4 a1 7a bb 6d df 81 bc e0 53 f6 bb
       -0.021138286 -0.0038243355 -0.015853608 -0.007517323
0001f0 8a fc 99 3c bd 0b 20 bc 03 20 0a 3c 92 7a bc 3c
       0.018797178 -0.009768424 0.008430484 0.023007665

action_model._discrete_distribution.branches.0.weight f4 [5, 128]
000000 19 b2 52 bc dd 61 45 3c 85 25 89 bc fd 84 8c 3d
       -0.012859845 0.012047258 -0.016741524 0.06861303
000010 37 83 af bc 46 50 88 3c 02 2a a2 bb 50 48 99 3b
       -0.021424873 0.01663984 -0.0049488554 0.00467781
000020 36 5a af ba 9b bd 23 bc 51 e0 df 3b 07 8c ab 3c
       -0.0013378325 -0.009993936 0.0068321605 0.020940794
000030 33 44 d1 3a 3f 5c 8b 3c cf 59 d4 3a 57 bd 5e 3c
       0.001596576 0.01701176 0.0016201081 0.013594947
000040 26 5d ea bc 77 22 07 3d 70 23 90 bc 78 7f 8d bb
       -0.02860887 0.032991853 -0.017595023 -0.004318174
000050 14 00 2c bb 57 fb 92 3b 33 f8 7c bc e1 11 90 bb
       -0.0026245164 0.0044855285 -0.015440035 -0.0043966626
000060 33 86 84 bb 2e 70 ca bc 15 17 b9 3b ff b3 34 3c
       -0.004044318 -0.024711695 0.0056485035 0.011029243
000070 7f 52 a2 bc b7 74 5d bd 5f 81 c9 b8 aa 41 ef bb
       -0.019814728 -0.054066386 -9.608524e-05 -0.007301529
000080 40 2c fd 3b a5 d5 dc 3b 5a c8 59 bc 75 55 69 3c
       0.0077262223 0.0067393356 -0.013292396 0.014241566
000090 fa 03 37 3d 7f c1 5a bd 65 ce 5e 3d 54 aa 47 bc
       0.044681527 -0.05340719 0.054396052 -0.0121866055
0000a0 e2 26 9a 3b e1 6d a8 3c 88 38 b5 bb 78 4b af bc
       0.004704342 0.020560207 -0.0055304207 -0.021398291
0000b0 22 53 5f bc bd 9f 9e 3c 30 0d 84 3b 20 e5 ed bb
       -0.01363066 0.019363279 0.0040298924 -0.00725998
0000c0 09 7f e7 3c f2 88 03 3d c8 0e 3d 3b fb db d2 bb
       0.028258817 0.032113023 0.0028847922 -0.006434915
0000d0 60 a2 b0 3c 1e 24 41 3c 79 2e 00 bc 78 0b 03 3d
       0.021561801 0.011788396 -0.00782358 0.03199336
0000e0 20 da ed 3c 34 30 2c bc 00 d9 1e bc 01 df 85 bc
       0.029034674 -0.010509539 -0.0096952915 -0.016341688
0000f0 69 d9 88 3b ff 4e 5a 3b be f1 8d bc 02 23 59 bc
       0.004176308 0.0033311245 -0.017327186 -0.013252975
000100 9e 5d 06 3d 66 44 aa bb 77 72 63 bb 04 8e 1b 3a
       0.032804124 -0.005196142 -0.0034705678 0.0005933943
000110 80 c2 b7 3c ac 78 37 3c 3b 11 c5 bc c2 e8 bd 3b
       0.022431612 0.011198204 -0.024056068 0.005795569
000120 21 7e 1e 3d 53 68 de bb 81 3f 3a 3c e2 5d 9c 3b
       0.038694505 -0.0067873388 0.01136768 0.004771934
000130 d0 25 75 bb d5 f5 9f bb 68 7e 91 bc ee d3 47 bd
       -0.0037406571 -0.0048816004 -0.01776047 -0.048786096
000140 b5 9c 3d 3c 89 e4 a9 3b c3 5f ad 3b 8f f8 96 ba
       0.011573006 0.005184714 0.0052909567 -0.0011518168
000150 90 56 c3 bc 9a 95 c9 bc c0 5e 29 bc 4d 19 0a bd
       -0.023844987 -0.024607468 -0.010337532 -0.033715535
000160 60 1b c6 bc e7 bb 98 3a b2 db 85 ba 02 72 20 bc
       -0.024182975 0.0011652679 -0.0010212569 -0.009792807
000170 31 58 e5 3b 8b dd 07 bc ea 80 bb bc 3e 7b e0 ba
       0.0069990386 -0.008292566 -0.02288862 -0.0017126573
000180 c0 72 10 3d 6f 50 8c 3c b8 a2 98 bc 54 1a ad 3b
       0.035265684 0.017128197 -0.018632278 0.0052826796
000190 87 a3 c0 3c 36 79 94 bb 5f fb 56 bd e5 f6 bb 3c
       0.023515476 -0.004531051 -0.05248582 0.022944877
0001a0 27 76 75 bb 6f b3 20 3b 3e f0 31 bd db 4a ca 3b
       -0.0037454457 0.0024521013 -0.043442003 0.0061734742
0001b0 6c 2d 22 3c 35 35 01 3d e6 99 4e 3b 6e cd 06 3d
       0.009898525 0.031544883 0.0031524836 0.032910757
0001c0 96 67 25 bc c3 e0 86 ba f8 f5 31 bc 0b c9 b1 3b
       -0.010095498 -0.0010290373 -0.010861866 0.0054255775
0001d0 9f de 87 bb 2a 7c 1b bc 8a 92 03 3d 10 ca 01 3c
       -0.0041464115 -0.009490052 0.032122172 0.007921711
0001e0 9a 3d ee 3b 1f c9 e8 bb c3 47 2f bc a1 89 10 3c
       0.007270527 -0.0071040536 -0.010698262 0.008821876
0001f0 86 6c a2 bc 4e 2b 3f 3c 88 d9 d4 bc 15 9b 40 bd
       -0.019827139 0.0116680395 -0.025982633 -0.047022898
000200 84 48 65 3c dd 98 f3 bb ab f0 95 3b bf 5c 53 bc
       0.01399434 -0.007433994 0.004575809 -0.01290053
000210 29 eb 1d 3c fb c4 fa 3c d2 6a b7 bb 36 fd 20 bc
       0.009638586 0.030611506 -0.005597451 -0.009825995
000220 94 79 1d 3c e0 08 1b bc 04 d9 d8 38 4a 70 ed 3c
       0.009611506 -0.009462565 0.00010340105 0.028984208
000230 7c ee 0c 3c 8e 47 15 3c 7c 3d d5 3a 3a 44 7b bb
       0.008601781 0.009111298 0.0016268934 -0.0038340227
000240 05 2d aa bd 67 a1 2f 3d 45 90 8f bb 96 23 8b 3c
       -0.08309368 0.042878535 -0.004381212 0.016984742
000250 55 9a 68 3c 5e ee 02 bc 83 d0 fd ba 62 82 88 bc
       0.014196952 -0.0079914015 -0.001936451 -0.016663734
000260 ca 51 d5 bb b8 d5 06 bd 35 7b 65 3c 35 b9 96 3b
       -0.006509994 -0.03291866 0.014006426 0.004599715
000270 bd ad d7 3a 0a d6 1b bd 03 5e e2 bc 34 3d fc 3b
       0.0016454976 -0.03804592 -0.027632719 0.0076977257
000280 11 ac 3a 3c bc c8 a0 3b 0d f2 57 3b 26 39 30 3c
       0.011393563 0.004906742 0.003295067 0.010755813
000290 99 ea 2f 3c af e2 4a bd bb 3d f0 3c 01 7f 13 3c
       0.010737085 -0.04953259 0.02932631 0.009002448
0002a0 4b 47 e1 bb 91 5f be 3b b2 9f 14 3c 04 63 91 3b
       -0.006874954 0.0058097322 0.009071277 0.0044368524
0002b0 c1 a0 33 3c 41 10 6c bd 06 a9 84 3c 9e a3 a2 3c
       0.01096362 -0.05763269 0.016193878 0.01985341
0002c0 c8 ca ce bc 61 24 5c bd 70 9c 59 3a a3 30 09 3b
       -0.025243178 -0.05374563 0.0008301204 0.002093353
0002d0 db 98 03 3b 92 57 55 3c 7a 1c 02 bb d7 1a 4e bc
       0.0020080123 0.013021367 -0.00198534 -0.012579641
0002e0 59 6d e0 3c a8 44 5c 3c bd 36 c6 3c 1d be e7 bc
       0.027395891 0.013444103 0.024196023 -0.028288895
0002f0 0c b3 64 bc dd e5 ab 3c 1d dd 20 bd 8a 4d 88 ba
       -0.013958704 0.02098363 -0.03927337 -0.0010399085
000300 90 7b 29 3c 6c f1 37 bd 33 40 34 39 97 cf 2e 3c
       0.010344401 -0.044907972 0.00017190054 0.01066961
000310 5f 2f 66 bc 82 4f c7 bc bf 72 02 bc 25 19 6f 3c
       -0.01404938 -0.024329904 -0.007961928 0.014593397
000320 12 05 43 bd 7e 42 4b bc ce 54 81 39 d9 18 08 bd
       -0.047612257 -0.01240599 0.00024667982 -0.03322682
000330 3a e5 60 bc 85 96 34 bb 0a c1 40 3c d3 27 94 bd
       -0.013726527 -0.0027555537 0.011764774 -0.07234158
000340 98 a2 45 3c 06 7f 11 bd 6b 26 fb 3b c3 f0 fb bb
       0.012062691 -0.03552153 0.007664492 -0.007688613
000350 a4 e0 ac 3b 93 91 7d bc e1 83 a3 bc 47 b4 73 bd
       0.0052758027 -0.015476602 -0.019960346 -0.059498098
000360 f3 0c 93 3c a7 c4 34 3b 8d d0 09 3c a2 db a4 3c
       0.01795051 0.0027583034 0.008411539 0.02012426
000370 24 44 7e 3a 9e e4 6b 3c bb 96 1d bd 05 2f 88 bb
       0.0009699485 0.014397768 -0.038473826 -0.004155996
000380 e3 b8 9f bc 19 bc 6f 3c ad ba 06 bc 48 90 14 3d
       -0.01949734 0.014632248 -0.008223218 0.03627041
000390 3d c8 9e 3c b9 6b d5 3b 63 14 e5 3b c5 7e c1 bc
       0.01938259 0.0065130857 0.0069909557 -0.023620019
0003a0 35 cb 69 3c a4 9b 47 bc 6b fe ad bc a5 fb 2c bc
       0.01426964 -0.012183104 -0.02123948 -0.010558044
0003b0 84 eb 64 3c 85 c7 1a bd 75 b2 00 3c 68 65 bc 3b
       0.013972167 -0.037787933 0.0078550475 0.0057493933
0003c0 c2 0b b5 3a 8c 99 7b 3b 27 4c 43 3c 07 de 7a bc
       0.0013812708 0.0038391082 0.011920012 -0.0153117245
0003d0 b8 7d 4b 3d 9b 4c 26 3c 91 40 52 bd 39 ef a5 3b
       0.04968044 0.0101501 -0.051331107 0.005063918
0003e0 96 a7 1e bc 55 e0 c7 3c cd 16 05 bb f5 b1 80 39
       -0.00968351 0.024398962 -0.002030778 0.0002454665
0003f0 c1 bc 11 bd e6 dd 33 bd 66 3d b0 bb b7 06 87 bd
       -0.0355804 -0.04391279 -0.005378413 -0.06593078

action_model._discrete_distribution.branches.0.bias f4 [5]
000000 f0 11 0c 3b df b9 60 3d 0a 3d 04 bc 28 89 49 bc
       0.0021372996 0.05486476 -0.0080711935 -0.012300767
000010 35 b7 47 bc
       -0.012189676

action_model._discrete_distribution.branches.1.weight f4 [4, 128]
000000 59 44 b6 ba ac 16 e5 ba e6 71 0b 3d 61 94 f6 3b
       -0.0013905867 -0.001747807 0.03404417 0.0075250124
000010 29 6b 1f 3d c8 23 64 3c c0 18 bd bb 0d a7 f2 3a
       0.038920555 0.013924547 -0.0057707727 0.001851292
000020 0a ad 1a bc 26 95 08 3c 8c 02 5e bb 23 8a 00 3d
       -0.00944067 0.008336341 -0.003387603 0.031381737
000030 33 21 7c 3c c8 6f c2 3c 3c 9a b7 3c a5 df 29 3c
       0.015388775 0.023734942 0.022412412 0.010368262
000040 84 ee c7 bb 84 25 7d 3c 9e b9 1a 3d 52 09 21 3c
       -0.0061014313 0.015450839 0.037774675 0.009828882
000050 a2 29 bc 3b 05 71 9b 3c 6c 0d 5c 3c ea 61 0d 3d
       0.0057422677 0.01897479 0.013430934 0.034517206
000060 68 92 44 bb 44 86 be 3a b8 e4 6a 3a b5 52 05 3c
       -0.0029994491 0.0014535864 0.00089604734 0.008137395
000070 77 de 77 3b aa 20 47 bc 0c 6e 11 3c 51 a6 9e bb
       0.0037821808 -0.012153784 0.008876335 -0.004841604
000080 94 8f c1 b8 74 74 72 3c 1c 3d 4c 3c 7f 1c f3 3b
       -9.229701e-05 0.014798272 0.0124657415 0.0074191685
000090 ad 52 9c bc b6 94 eb bc 72 72 29 3c b4 7e 3c 3b
       -0.019082392 -0.028757434 0.010342227 0.0028762044
0000a0 2c b8 f2 3c 0f 5e 5f 3c 3a c8 11 3c bc c4 44 3c
       0.029628836 0.013633265 0.008897835 0.012009796
0000b0 42 e7 03 3b 27 69 de 3c f1 f0 96 3c 5d fe a1 3c
       0.0020126854 0.02714975 0.018425437 0.01977461
0000c0 83 b9 ef 3c c2 01 53 bc 37 03 d4 39 74 aa 0a 3c
       0.029263264 -0.012878837 0.00040438186 0.008463491
0000d0 ec 03 8a 3c e3 c7 85 3a a1 b5 0f bc fc ec 65 3c
       0.016847573 0.0010206666 -0.008771331 0.014033552
0000e0 ec fe 02 3c a0 85 8d 3b ed e7 06 bd 87 43 12 bb
       0.007995348 0.004318908 -0.032936025 -0.0022318081
0000f0 8b 28 5c 3c bf e1 20 3d 4a 62 83 bc 8b 2a 6b 3c
       0.013437401 0.03927779 -0.016038079 0.014353405
000100 f8 45 8d 3c cf ab 8c bb 04 f6 21 bc 8f 6a 23 bc
       0.017245278 -0.004292942 -0.009885315 -0.009974136
000110 e0 4c ba 3b b3 11 31 3b 44 20 ce 3b 4c 1a 05 3c
       0.0056854337 0.0027018606 0.0062904675 0.008123945
000120 82 6d ab 3c d8 ff 81 3c 73 83 c5 3c 12 87 69 3d
       0.02092624 0.015869066 0.024110531 0.05701358
000130 59 0c 4d bc 6b 85 23 3b 20 9c 30 3b 06 29 0d bd
       -0.012515151 0.002495135 0.0026948527 -0.03446295
000140 d7 e4 55 3c 2e aa a6 ba cd ba 16 3b 54 72 96 bb
       0.013055048 -0.0012715512 0.0022999526 -0.0045912657
000150 80 a0 29 3c 6b 96 ca 3a e5 3e 8f bb 8d 6a 6a bc
       0.010353208 0.0015456205 -0.0043715113 -0.01430763
000160 86 57 08 3d 8f 77 4a bb 0c 46 15 3c 8a 20 a6 3b
       0.033286594 -0.0030894016 0.009110939 0.005069797
000170 1a 88 10 3b a1 26 b4 3a d0 6e 98 3c 68 1c ab bb
       0.002205378 0.0013744422 0.018607527 -0.005221892
000180 52 05 0d bc 0e 75 43 3d da e3 06 ba 6b 94 02 3d
       -0.0086072255 0.047719054 -0.0005145647 0.031879824
000190 88 a9 9b 3c a2 e8 cc 3a 30 99 ac bc b8 d1 4f bb
       0.019001737 0.0015633295 -0.02106914 -0.0031710695
0001a0 e4 d3 a9 3c 03 18 b2 3b 41 f8 1b 3c 00 ca e4 3a
       0.02073092 0.0054349913 0.009519638 0.001745522
0001b0 09 81 38 bb d4 e8 02 3b dc dd f0 3b bd 75 1a bc
       -0.0028153083 0.0019975202 0.0073506664 -0.009427485
0001c0 0a 69 00 3d 42 9a 89 3c 69 ea 69 3c 21 12 db bb
       0.031350173 0.016797189 0.014277079 -0.0066855107
0001d0 1e 12 02 3c 63 37 08 bc 2b 9b 87 3c d6 0e 2a bc
       0.00793889 -0.0083139865 0.016553482 -0.010379514
0001e0 65 97 79 ba 92 5d ea 3b 09 52 91 ba 41 2f af 3c
       -0.0009521156 0.0071522677 -0.001108707 0.021384837
0001f0 fa 01 88 3c 5b b1 fc 3c a7 9b e1 3b d2 51 88 bc
       0.016602505 0.030846288 0.0068850103 -0.016640577
000200 78 c9 c4 bc 1c 78 31 bc 99 ee 4d 3c d2 a4 30 bc
       -0.024021849 -0.010831859 0.012569093 -0.010781484
000210 75 14 cd bb 9b d0 9b bb 5e 29 95 bb ef 82 fb bb
       -0.006258542 -0.0047550923 -0.0045520505 -0.0076755206
000220 7a fd 47 bb dd e4 e9 bb bd 20 12 3c c5 66 9f bc
       -0.0030516074 -0.0071378783 0.008918938 -0.019458184
000230 4a 80 aa b9 d9 ee 0e bc 3b 3c f3 3b 8e f4 7c bb
       -0.0003252051 -0.008723938 0.0074229515 -0.0038597914
000240 9a b8 dd bc 98 3e fc 3c c4 b0 05 bb 7a d3 ec 3b
       -0.027065564 0.030791566 -0.002039955 0.0072273584
000250 00 f5 dc 3b 14 3a 2c 3b 8f 6f 73 bb cb 8b b4 3b
       0.0067430735 0.0026279734 -0.0037145352 0.0055098287
000260 8d d3 b0 bb de ef 87 bc 28 24 f8 3b 15 82 10 bc
       -0.0053963126 -0.01659387 0.0075726695 -0.0088200765
000270 2e a0 8d 3b 24 8d b0 bb 19 2d c5 ba e5 c8 0f bc
       0.0043220734 -0.005387919 -0.0015043347 -0.008775924
000280 14 68 38 ba c8 0f e2 3b b2 1c bd 3b 04 48 b9 3b
       -0.0007034552 0.006898854 0.005771243 0.005654337
000290 cd 48 05 bb 63 08 f5 3c 24 a6 b2 bb f2 13 53 ba
       -0.0020337582 0.029911226 -0.0054519344 -0.00080519833
0002a0 0b 8d fd 3a 65 a2 12 bc 75 c8 92 3c fb 9a c2 3b
       0.0019344402 -0.008949851 0.017917851 0.0059388853
0002b0 43 86 d1 3b 00 83 3b bd 02 cc 3b bc 36 17 6b 39
       0.006394179 -0.04577923 -0.0114622135 0.00022419993
0002c0 55 6e 20 bd 45 7f a9 bd 1a d5 a2 3c dd 7f 42 bc
       -0.03916772 -0.08276228 0.019877005 -0.011871305
0002d0 57 d3 5d 3a 66 75 dc 3b df 37 94 3c 17 06 a4 bc
       0.0008461973 0.006727862 0.018093048 -0.020022435
0002e0 86 ee 8f bc 6f 14 55 bc 70 30 00 3d 7a d2 45 bc
       -0.017569792 -0.01300536 0.031296194 -0.012074107
0002f0 4f 41 fe 3b 81 82 89 3c 6b 15 12 bd 7f 4d ca bb
       0.0077592502 0.016785862 -0.035664957 -0.006173789
000300 e1 97 e6 3b ff 46 18 bc 41 bc 23 bb 69 f2 28 bc
       0.0070371483 -0.009294271 -0.0024984034 -0.010311701
000310 79 60 e5 bb b3 ca 11 37 5e b1 d2 bb ca 0a c9 3a
       -0.007000026 8.689868e-06 -0.006429835 0.0015338298
000320 32 29 dd bc 8e dd ec 3b bc dd 90 3c 37 43 ec bc
       -0.026997183 0.00722856 0.017683856 -0.028840644
000330 d9 67 04 3c ee 8c ba 3b 0b c1 75 3b 73 b9 8b bc
       0.0080814 0.0056930697 0.0037499096 -0.017056203
000340 e4 31 25 3b ff 4f 85 3b 95 dc 64 3c ae 86 9a 3c
       0.002520674 0.004068374 0.0139686065 0.018863048
000350 6b 54 f4 bc c7 08 7d 3b 68 8a db 3a 8d 6e ef bc
       -0.02982541 0.0038609968 0.0016749622 -0.02922752
000360 be cb cc bc fd 29 c7 3c 52 18 03 bc 9d 98 22 3c
       -0.024999496 0.024312014 -0.008001404 0.009924081
000370 4f 00 a4 3c e7 d7 c9 3a ea 30 5c bd 8e b5 75 3c
       0.020019678 0.0015399427 -0.053757586 0.014996899
000380 da f4 eb bb 56 6d 40 bc 8e e2 06 3b 73 d5 ee 3b
       -0.0072008194 -0.011744818 0.0020581814 0.0072886287
000390 5e eb e2 bb a1 44 bc 3a 33 d4 92 bc 3a 9a 6e 3c
       -0.0069250306 0.0014363715 -0.01792345 0.014563138
0003a0 2f 85 1a 3b e9 9c e9 bb ea f4 46 3d fb d8 31 3c
       0.0023577919 -0.007129301 0.048573412 0.010854955
0003b0 b4 ee ee 3b cf 72 80 bb e2 7a ea bb 4c 79 fc bb
       0.007291639 -0.0039199363 -0.007155762 -0.0077048894
0003c0 bc a1 e7 bc 2f df 7c bb c6 a9 4a bc bb 1c 79 3b
       -0.028275363 -0.0038585176 -0.012369579 0.003801151
0003d0 ac 27 ee 3c 88 a7 aa b9 ee 7c 60 bd 54 eb 86 3c
       0.029071651 -0.00032549747 -0.054806642 0.016469635
0003e0 7a 76 14 bd 7c 81 84 bc 6c 1d 16 3c ea b1 a7 bc
       -0.0362458 -0.016175024 0.009162288 -0.020470578
0003f0 eb 92 05 3b f4 c1 bb bc 55 e3 c2 bc 46 a2 13 bc
       0.002038176 -0.022919632 -0.023790041 -0.009010857

action_model._discrete_distribution.branches.1.bias f4 [4]
000000 20 fb 04 3c 47 73 89 3c 48 cd 03 bc 7e 75 b6 bb
       0.0081165135 0.016778601 -0.008044548 -0.0055682054

action_model._discrete_distribution.branches.2.weight f4 [2, 128]
000000 93 3d 12 bb 54 da 62 3c 54 2a c2 3b 63 d3 ea 3b
       -0.0022314533 0.013845999 0.005925456 0.0071663125
000010 74 77 a2 3b 5a c1 57 bc 55 aa 79 3c 9e 9a 3f bb
       0.0049580876 -0.013168657 0.015238364 -0.0029236446
000020 e8 fd 5d 3c 0f ef 88 3b 4a 7c 81 3c f4 07 b0 bc
       0.0135493055 0.0041788886 0.015806336 -0.021488167
000030 b4 48 9f 3c 94 e2 f8 3b 58 e0 aa 3b 51 13 2f bb
       0.019443847 0.0075953696 0.005214732 -0.0026714394
000040 e6 a6 eb bc bc 65 a9 bb 53 e2 44 bc 67 5c 92 bc
       -0.028766107 -0.0051695984 -0.0120168505 -0.017866326
000050 bc 35 c0 3b b2 72 53 bb 8a 28 61 3c 22 ea 31 bb
       0.0058657806 -0.0032264409 0.013742575 -0.002714761
000060 f4 0c 9a 3c 28 2b 1e 3b bd 0d 55 ba ab 02 af 3b
       0.018805005 0.002413461 -0.00081273523 0.005340894
000070 08 8e 0a 3b 2d 6c a0 38 65 0d 4d bc 1a ad 54 3b
       0.0021141786 7.649544e-05 -0.012515401 0.003245181
000080 b9 63 0a 3c 94 98 57 3c 24 d6 e0 bb 98 61 84 3b
       0.008446627 0.013158936 -0.006861465 0.0040399544
000090 5d ae 9d 3b 84 98 a3 bc ff e3 13 bd 39 00 3f 3c
       0.0048120455 -0.019970186 -0.036106106 0.011657768
0000a0 8e cc 0f bc 36 b7 62 3b 3d 17 c8 3b 85 ad fd 3b
       -0.008776797 0.0034594066 0.006106286 0.0077416324
0000b0 0a fd a8 3c 44 0e 10 3d fb b9 e5 bb 13 97 cd 3b
       0.02062847 0.035169855 -0.007010696 0.006274113
0000c0 cb bd 23 bc ad a8 8b bc 44 b7 00 3c 62 24 f7 3c
       -0.009993981 -0.017048204 0.007856194 0.030168716
0000d0 c3 f0 33 3c 0f b8 5a 3b 7a 3f 19 3c 61 a8 a6 bb
       0.010982695 0.0033373868 0.009353513 -0.0050859903
0000e0 47 74 53 3c 1e 2a df 3c b8 63 80 3c 80 ab b6 3c
       0.012906141 0.027241763 0.01567255 0.022298574
0000f0 aa 0c 71 3c 7e ed a6 ba 9d af 09 3d b2 05 60 3c
       0.014712492 -0.0012735573 0.033614744 0.013673233
000100 7d 35 e2 3b a2 de cd bb ec c4 03 3c b8 6b 68 bc
       0.006903349 -0.0062826434 0.008042555 -0.014185838
000110 88 0c 11 3d a3 0a 9a 3c 5b 49 87 3c 8c 2a 87 3a
       0.03541234 0.0188039 0.01651447 0.0010312363
000120 43 36 c2 3c 7e af 13 3c f8 f5 67 bb 0a 90 d0 3c
       0.023707515 0.009014009 -0.0035394412 0.025459308
000130 01 2b 84 bc b8 8d 0e 3c 08 78 71 bc b0 31 c5 bb
       -0.016133787 0.008700781 -0.01473809 -0.006017886
000140 fb ea c5 ba 17 5d f7 bc d6 12 2c bc 20 3e 00 3c
       -0.0015099937 -0.030195756 -0.010502538 0.007827312
000150 82 59 b9 3b 5e 67 85 bc 1c e5 0e 3c 77 e0 05 3b
       0.005656422 -0.01628464 0.008721616 0.002042798
000160 f5 a3 30 bd d9 07 e5 ba 1d 9d e6 3b 87 59 0a bc
       -0.04312511 -0.0017473652 0.0070377723 -0.008444197
000170 69 21 c2 ba 6d b7 af ba 60 63 7a bc 11 a7 01 3b
       -0.0014810982 -0.0013406106 -0.015282482 0.0019783417
000180 a0 e3 6d 3b a6 85 a5 bb 05 82 94 bb 89 44 59 3a
       0.0036299005 -0.0050513325 -0.004532101 0.00082881056
000190 44 74 9b bc 53 08 3d bb b9 ef af bc a9 6d bb 3b
       -0.018976338 -0.0028844073 -0.021476613 0.0057198596
0001a0 8e f4 9b 3c d6 79 27 bc 41 b2 99 bc eb 84 a6 3a
       0.019037511 -0.010221919 -0.018761756 0.0012704408
0001b0 1d d1 7e 3b 97 09 f7 bc c0 cc 48 3c 43 0a e2 b9
       0.0038881965 -0.03015594 0.012255847 -0.00043113725
0001c0 63 73 06 bc bf ee bc b6 a5 f7 c8 bc 48 e9 d9 bb
       -0.008206221 -5.6306303e-06 -0.024532149 -0.0066501237
0001d0 6b 7c 84 bc 88 34 12 3c c1 58 fe 3c d2 50 b6 3c
       -0.016172608 0.008923657 0.03104818 0.022255335
0001e0 88 ad 31 3d f4 37 ce 3b c1 9b 04 3c eb 42 a8 bb
       0.043378383 0.006293291 0.008093775 -0.0051349304
0001f0 d0 4d c5 3c 8b 41 78 bc 8d f6 f7 bb 55 4c 63 3c
       0.024084955 -0.015152345 -0.007567233 0.013873179
000200 54 4c b9 3c b7 7f e1 bc 12 7e 7a bc a5 f9 a0 bc
       0.022619404 -0.02752672 -0.015288847 -0.01965029
000210 95 ad 08 3c e6 04 f0 3c cc 40 92 39 fd 1b a8 3b
       0.008342166 0.02929921 0.00027895567 0.0051302896
000220 54 58 27 bc 71 23 38 bc 3d ba 68 3b ed c9 85 3c
       -0.01021393 -0.011238919 0.0035511397 0.016331637
000230 c6 92 e3 bb b8 8d 00 3c 10 9a 14 bc 4a 2a 18 bc
       -0.006944987 0.007846288 -0.0090699345 -0.009287426
000240 c3 f6 a8 3c 27 dc 40 3c 66 be 99 bc 16 cd 99 3c
       0.020625478 0.011771238 -0.018767547 0.01877455
000250 1c 98 b7 3b 27 43 0d bc 7b aa 48 bb f1 e9 03 3a
       0.0056028496 -0.008621967 -0.0030619192 0.00050321134
000260 d4 f1 e3 3a 75 32 21 3b 1c 54 02 bc 20 55 04 bc
       0.0017390796 0.0024596725 -0.007954624 -0.008076936
000270 a0 3f 82 bc 05 cf fd ba 60 17 eb 3b e4 80 c1 bc
       -0.01589948 -0.0019364065 0.0071744174 -0.02362103
000280 fa e0 e1 bb 21 9a 5d bc 90 b6 25 bc a3 20 b0 bb
       -0.0068932744 -0.013525517 -0.010114327 -0.0053749844
000290 a8 82 2b bc d6 5f b0 3c 78 db 0b 3d c4 06 8c 3a
       -0.010468163 0.021530073 0.03414485 0.0010683169
0002a0 d5 c7 b6 bb e8 a7 a0 bc 72 a7 05 bb cf bc 22 3b
       -0.005578021 -0.019611314 -0.0020393995 0.0024831777
0002b0 b6 ed 06 bc de 44 50 bd 7e c4 11 3c e8 cc 2c bc
       -0.008235386 -0.050846927 0.008896945 -0.0105469
0002c0 25 60 3c 3c ea 44 ec 3c f2 fc e9 bc 79 18 00 bc
       0.011497532 0.028841455 -0.028562997 -0.007818335
0002d0 31 53 e0 bb 8c 8d 99 bc c7 08 5c bc ec a6 43 3c
       -0.0068458547 -0.018744253 -0.013429827 0.011941653
0002e0 2a e9 31 bc d3 31 30 bc 81 b9 fa bb 68 7b cb bc
       -0.010858813 -0.0107540665 -0.0076515083 -0.024839118
0002f0 50 78 6c 3a 65 32 49 bb b4 3c fb bc ec 60 9b bc
       0.00090206135 -0.0030700203 -0.030668594 -0.018967114
000300 a8 c6 ea 3c 00 be b5 3b 54 e8 ec bc 46 37 4a 3a
       0.02865918 0.0055463314 -0.028919376 0.0007713925
000310 1c f7 da bc b0 6c 01 3c fc c9 1d bb 08 bf 53 bc
       -0.026729159 0.007899448 -0.002407669 -0.012923963
000320 5c b9 cd bc e3 8d 7a bb e6 8b b7 3b d8 60 07 bd
       -0.0251128 -0.0038231544 0.005601394 -0.03305134
000330 71 80 19 bc 6f f4 e6 bb 60 08 fb 3a 55 33 8b bc
       -0.009369002 -0.0070481817 0.0019152276 -0.01699225
000340 91 8b 84 bc 46 e2 ff 3c 64 a5 1b 3b 2a a7 27 3b
       -0.016179832 0.031235825 0.0023749704 0.0025581815
000350 05 df 67 bc b7 32 6b 3c c1 97 17 3b 30 1d 07 bb
       -0.014152293 0.014355353 0.0023131224 -0.0020616762
000360 de b3 55 3d b5 aa c6 3b f5 4b 8c 3b 27 32 6e bb
       0.052173488 0.0060628303 0.0042815157 -0.003634581
000370 94 9a 01 bc 30 73 6b 3b fc 18 8c bb 17 f3 07 bb
       -0.007910389 0.0035926811 -0.0042754393 -0.0020744258
000380 bf ec a8 3b ca 97 3b 3c f7 b8 2f bc f7 b5 2b 3b
       0.0051551755 0.011449764 -0.010725251 0.0026200989
000390 c6 39 e5 3c 1d a8 56 bc f8 45 16 3d 4d 50 09 3c
       0.02798165 -0.013101605 0.03668782 0.008380962
0003a0 a2 87 42 bd e9 67 31 bc d9 37 28 3b 60 06 40 bc
       -0.04749263 -0.010827997 0.0025668053 -0.01172027
0003b0 3c b3 d6 bb c9 84 cb 3c 7b 5a 19 3c ed 16 d1 bb
       -0.006552128 0.02484359 0.009359951 -0.006380907
0003c0 b6 9e b8 bb 04 30 2b bc 3b 1d f8 3a 13 eb a8 bc
       -0.005634154 -0.01044846 0.001892961 -0.020619905
0003d0 74 69 27 3c 0a 67 3d 3a 6c c8 2e bc bb d2 3b 3b
       0.010218013 0.0007225132 -0.0106679015 0.002865954
0003e0 b3 cf fc bc 63 95 1d bc dd 66 ae 3b c6 7c 1a bb
       -0.030860757 -0.009618136 0.005322321 -0.0023572906
0003f0 61 d1 37 bc b3 38 84 3c 08 6f 09 3c 5f d3 3f bc
       -0.011219353 0.016140318 0.008388288 -0.01170811

action_model._discrete_distribution.branches.2.bias f4 [2]
000000 f6 82 80 bb f5 82 80 3b
       -0.0039218618 0.0039218613
