results/Shooter/Shooter/Shooter-348502.pt (torch, 445967 bytes, 42 tensors)

network_body._body_endoder.seq_layers.0.weight f4 [128, 6]
-0.41118288 0.28997195 0.134967 0.42523104 0.6806234 1.056629 0.38206142 -0.06965707
0.17814882 -0.08640491 0.4264002 0.112710424 0.29544595 0.012256673 0.41210774 -1.1003274
-0.65682095 -0.41530797 0.06482192 -0.104023926 0.82253945 -0.21329936 -0.09254015 -0.36748794
0.6159939 -0.21618876 -0.37018678 -0.39757386 -0.5493186 0.3872004 0.009897373 -0.33261424
0.3629431 0.8427805 0.35088187 0.004816954 0.17183684 -0.17748585 0.21646634 0.04279015
-0.36795828 0.46113583 0.5505586 0.2660243 0.618912 -0.44580233 0.7358359 -0.58727187
-0.06598219 -0.42345455 -0.0332252 0.42185906 0.03367006 -0.6929574 0.77227587 -0.18743622
0.06427866 -0.2992034 -0.4987252 -0.18003601 0.21382183 -0.6442437 -0.11707827 -0.46623048
0.06052146 0.28113627 -0.63058656 0.8327808 0.020945527 0.025384236 -0.15656441 -0.14011873
-0.10515747 0.1457182 0.53561354 -0.77883154 0.25307405 -0.3205204 -0.289456 0.47242403
0.20125483 -0.11945979 0.7618508 -0.15733656 -0.5695365 -0.065933056 1.0355451 0.6949362
-0.3500786 0.8629649 0.4689384 0.50012046 -0.054232452 0.39304954 0.44914907 -0.4454988
0.4305189 -0.6563073 -0.16990304 -0.33781713 0.4275752 -0.9276994 -0.8603398 0.41604152
0.018746324 -0.08056612 1.0777959 0.04332266 -0.047327306 0.22762331 0.22591698 -0.07671999
-0.30017903 0.72007567 0.11553369 -0.22986834 0.11183764 -0.487526 0.03064336 -0.68707776
-0.053642903 0.12056758 -0.36725694 -0.096088596 0.16708429 0.035676017 -0.06271091 -0.66467756
0.4210607 -0.5755085 -0.88682353 0.0823154 -0.22878179 -0.108656146 0.16558276 0.30607748
1.2004664 -0.07142673 -0.6473725 0.39716402 0.24396713 0.8566642 -0.36731717 -0.27960435
0.36984828 0.05361817 0.25315648 -0.23968601 -0.044620644 -0.8472287 -0.26642048 0.01771683
0.04160484 0.6703016 -0.059402164 -0.10761955 -0.08566933 -0.4554975 0.028480707 -0.15287472
0.013868657 -0.004595381 -0.7766246 -0.21822388 0.00837412 0.06280466 0.37654322 -1.3107797
-0.6278891 0.94520104 0.4077825 0.4450126 0.48901445 0.26758605 0.1647064 -0.0026055225
0.23908165 -1.212415 0.72468096 -0.29487813 0.018762296 -0.7007028 -0.3863214 -0.04449269
0.7632223 -0.3644585 0.034966286 -0.36842975 0.1764336 0.22490898 0.23449373 -0.2699234
-0.2782746 -0.13158652 -0.41892502 -0.20836274 0.27066827 0.36219037 0.27209514 -0.05950532
-0.42827675 0.36731002 0.24895217 -0.5540324 -0.66831976 0.098508425 0.48356414 -0.13566194
0.13366365 -0.5919189 -0.1043786 -0.29838315 0.10684638 0.72998387 0.13556156 -0.13764715
-0.4083029 0.4278204 -0.4668122 0.6780139 0.06166128 0.4713764 0.106241204 0.06510649
0.07426535 0.05671601 -0.37250265 -0.025862347 0.6575077 -0.66537225 0.06855928 0.14719515
0.09000367 -0.06576934 -0.5369109 0.5669689 0.2707976 0.27378866 0.5969115 -0.09307129
-0.13057224 0.05668526 -0.14706796 0.3944674 0.21040593 -0.2196846 0.021177787 -0.095571
-0.74535644 -0.47579813 0.5252995 0.08215961 -0.28952548 0.021280471 -0.13011444 -0.62105775
00000000: 9086 d2be 3477 943e ca34 0a3e e2b7 d93e
00000010: 563d 2e3f 9e3f 873f 8e9d c33e 5ea8 8ebd
00000020: a56c 363e 0ff5 b0bd 2151 da3e b9d4 e63d
00000030: b144 973e 36d0 483c c9ff d23e 87d7 8cbf
00000040: 6b25 28bf 3fa3 d4be 5bc1 843d 7f0a d5bd
00000050: f291 523f 266b 5abe b185 bdbd 6127 bcbe
00000060: c7b1 1d3f 9660 5dbe 1f89 bdbe cd8e cbbe
00000070: 25a0 0cbf 213f c63e 9728 223c 6a4c aabe
00000080: aed3 b93e 76c0 573f caa6 b33e 8ad7 9d3b
00000090: fff5 2f3e dabe 35be 5aa9 5d3e b944 2f3d
000000a0: 0765 bcbe ff19 ec3e 69f1 0c3f 5634 883e
000000b0: 0471 1e3f 3440 e4be be5f 3c3f 7357 16bf
000000c0: ac21 87bd 09cf d8be 2617 08bd e9fd d73e
000000d0: 9ee9 093d a865 31bf dfb3 453f 48ef 3fbe
000000e0: 88a4 833d 3031 99be e958 ffbe 5c5b 38be
000000f0: 1cf4 5a3e 28ed 24bf bbc6 efbd c3b5 eebe
00000100: 5ae5 773d 18f1 8f3e 1f6e 21bf 1f31 553f
00000110: f495 ab3c 9af2 cf3c 6c52 20be 497b 0fbe
00000120: cd5c d7bd 2737 153e f81d 093f 8161 47bf
00000130: ec92 813e 401b a4be 9433 94be 90e1 f13e
00000140: bf15 4e3e 56a7 f4bd a708 433f d61c 21be
00000150: 25cd 11bf e907 87bd be8c 843f 57e7 313f
00000160: 813d b3be 45eb 5c3f b218 f03e e507 003f
00000170: d922 5ebd ca3d c93e def6 e53e 6b18 e4be
00000180: f96c dc3e c103 28bf 10fb 2dbe 5ef6 acbe
00000190: 23eb da3e b57d 6dbf 3b3f 5cbf 6503 d53e
000001a0: e491 993c daff a4bd 37f5 893f 1a73 313d
000001b0: 47da 41bd 1616 693e c856 673e 5f1f 9dbd
000001c0: 11b1 99be e156 383f ed9c ec3d 9b62 6bbe
000001d0: 220b e53d 029d f9be c907 fb3c 54e4 2fbf
000001e0: a9b8 5bbd 23ec f63d 1a09 bcbe 19ca c4bd
000001f0: 2518 2b3e 0421 123d 946e 80bd 4f28 2abf
00000200: 4595 d73e 8654 13bf de06 63bf fa94 a83d
00000210: c645 6abe 1d87 debd 878e 293e 30b6 9c3e
00000220: e2a8 993f 2d48 92bd 34ba 25bf 1559 cb3e
00000230: 85d2 793e 584e 5b3f ff10 bcbe 4d28 8fbe
00000240: c15c bd3e ba9e 5b3d ba9d 813e 4070 75be
00000250: 23c4 36bd fbe3 58bf 4468 88be e322 913c
00000260: d669 2a3d e398 2b3f af4f 73bd a367 dcbd
00000270: 6773 afbd f836 e9be 5f50 e93c 318b 1cbe
00000280: 5d39 633c da94 96bb dfd0 46bf 1576 5fbe
00000290: 9b33 093c bb9f 803d 46ca c03e a1c7 a7bf
000002a0: 57bd 20bf b2f8 713f dec8 d03e b1d8 e33e
000002b0: 1a60 fa3e 0a01 893e cba8 283e 6ac1 2abb
000002c0: d2d1 743e 6a30 9bbf b184 393f 44fa 96be
000002d0: 63b3 993c 4261 33bf ebcb c5be f83d 36bd
000002e0: 8962 433f 4e9a babe cf38 0f3d d3a2 bcbe
000002f0: 02ab 343e 8a4e 663e 201f 703e 6633 8abe
00000300: 027a 8ebe 9ebe 06be 577d d6be 0b5d 55be
00000310: 0895 8a3e 0471 b93e 0e50 8b3e dabb 73bd
00000320: 1747 dbbe 0f10 bc3e 51ed 7e3e 11d5 0dbf
00000330: 0117 2bbf c9be c93d b895 f73e f7ea 0abe
00000340: 20df 083e ff87 17bf 73c4 d5bd adc5 98be
00000350: 46d2 da3d 39e0 3a3f a6d0 0a3e 60f3 0cbe
00000360: 140d d1be 470b db3e 0202 efbe 5292 2d3f
00000370: 8a90 7c3d 3f58 f13e fd94 d93d 8d56 853d
00000380: 6f18 983d 0c4f 683d abb8 bebe 46dd d3bc
00000390: 6d52 283f d655 2abf cf68 8c3d 53ba 163e
000003a0: d853 b83d 13b2 86bd fe72 09bf e024 113f
000003b0: fca5 8a3e 072e 8c3e 31cf 183f 299c bebd
000003c0: bbb4 05be ce2e 683d fc98 16be a2f7 c93e
000003d0: a774 573e 00f5 60be 0a7d ad3c baba c3bd
000003e0: aecf 3ebf d09b f3be 077a 063f 4c43 a83d
000003f0: af3c 94be 6254 ae3c b83c 05be a4fd 1ebf

network_body._body_endoder.seq_layers.0.bias f4 [128]
0.0037888165 -0.02277711 -0.0049277423 -0.00039872137 -0.00038946065 0.0016523858 -0.016837072 -0.0017930339
-0.0027006092 0.014878687 -0.009132319 0.0052246675 0.012253328 0.0050369794 -0.0040501356 0.021481223
0.028538173 0.021188071 -0.010524523 0.001830317 0.033344764 0.0056227343 -0.0021576274 -0.031294227
-0.00044063732 -0.00062770606 -0.012208605 0.02663142 0.0036019587 -0.0056897583 0.030030454 0.00014954827
-0.0035772882 0.0153905 -0.0051458958 0.009360466 -0.02005627 0.002245611 0.011137176 0.0047597573
0.039058954 -0.03459635 -0.009592888 -0.015420537 -0.019434597 0.023674263 0.02339942 0.013363311
-0.006295284 0.007812664 -0.0020307342 -0.0036051495 -0.020170469 -0.019894298 -0.011181676 -0.0028051198
-0.00021045948 -0.0044545867 0.015213096 0.0018313733 -0.009380892 0.017910918 -0.0038649603 0.0007677753
0.023475122 -0.010982945 0.02788393 -0.0125139225 0.022180103 -0.005916514 0.014426459 -0.0083697345
-0.008437639 0.029041344 0.012878126 5.371181e-05 0.008512254 0.011741347 -0.011385784 0.019905377
-0.024408245 -0.01655326 -0.04070644 -0.029484833 -0.013028054 6.9314396e-05 -0.004071679 0.011621237
-0.011352398 -0.0093881255 0.024799006 -0.005382808 0.0011333468 0.02331333 -0.0039171306 -0.021853067
-0.0068982737 -0.0089499755 0.009631111 -0.019793872 -0.012978743 -0.004607689 0.01814415 0.00976234
-0.00811107 -0.030963672 0.0030614845 0.012058859 -0.012633233 0.0055913925 0.012852397 0.005348594
-0.010145941 0.012764334 0.0030819303 -0.017803352 -0.017758152 -0.017636947 -0.008419245 -0.012829498
0.01922603 0.0020792913 0.037823867 0.023726456 -0.006332149 0.005545064 -0.017419236 -0.0016620948
00000000: cb4d 783b 1097 babc e678 a1bb 7a0b d1b9
00000010: 8630 ccb9 de94 d83a e6ed 89bc 3c04 ebba
00000020: b4fc 30bb bdc5 733c b99f 15bc b033 ab3b
00000030: 2fc2 483c 3f0d a53b 00b7 84bb 64f9 af3c
00000040: e3c8 e93c 9b92 ad3c 0d6f 2cbc 3fe7 ef3a
00000050: 8594 083d ea3e b83b fb66 0dbb 602e 00bd
00000060: 5705 e7b9 a48c 24ba 9a06 48bc 232a da3c
00000070: d70e 6c3b 2771 babb 6d02 f63c 0fd0 1c39
00000080: f070 6abb 7028 7c3c e79e a8bb a45c 193c
00000090: 0c4d a4bc 1a2b 133b b478 363c bdf7 9b3b
000000a0: 48fc 1f3d e7b4 0dbd 7d2b 1dbc 6ca6 7cbc
000000b0: 4e35 9fbc 87f0 c13c 24b0 bf3c caf1 5a3c
000000c0: ab48 cebb b000 003c 1116 05bb 5f44 6cbb
000000d0: 8a3c a5bc 5ef9 a2bc 5933 37bc 1ad6 37bb
000000e0: c9ae 5cb9 c8f7 91bb 5940 793c b10a f03a
000000f0: 50b2 19bc ebb9 923c 464b 7dbb 8744 493a
00000100: e64e c03c cff1 33bc d76c e43c 3207 4dbc
00000110: 0cb3 b53c 51df c1bb f45c 6c3c 3621 09bc
00000120: 063e 0abc 1de8 ed3c c7fe 523c 9e48 6138
00000130: fb76 0b3c c75e 403c 708b 3abc 9a10 a33c
00000140: cdf3 c7bc b49a 87bc ccbb 26bd 2d8a f1bc
00000150: 9e73 55bc e25c 9138 b86b 85bb 0067 3e3c
00000160: 69ff 39bc a7d0 19bc 4927 cb3c 4462 b0bb
00000170: cf8c 943a 99fb be3c 465b 80bb 3405 b3bc
00000180: ea0a e2bb eba2 12bc cfcb 1d3c c226 a2bc
00000190: cba4 54bc 19fc 96bb 0aa3 943c 39f2 1f3c
000001a0: 4be4 04bc 87a7 fdbc 30a3 483b 8592 453c
000001b0: 9ffb 4ebc 0038 b73b dc92 523c 4243 af3b
000001c0: 293b 26bc 7f21 513c 36fa 493b 56d8 91bc
000001d0: 8b79 91bc 5c7b 90bc dff0 09bc d132 52bc
000001e0: e87f 9d3c b844 083b 33ed 1a3d fc5d c23c
000001f0: ea7d cfbb 5eb3 b53b c9b2 8ebc a6da d9ba

network_body._body_endoder.seq_layers.2.weight f4 [128, 128]
0.045736667 0.04358537 -0.006202445 -0.1011758 -0.031106709 -0.10825927 -0.07385708 0.047180634
-0.0023095405 -0.00558144 -0.05536767 -0.121573076 0.12212532 -0.08763872 0.0650222 -0.20510536
0.09250493 0.0661504 0.024398418 -0.05752009 0.056080095 -0.17318034 -0.11602799 -0.026105462
0.04305989 -0.030141769 -0.014622012 0.045920476 0.020377342 -0.12541096 0.2834994 -0.056857135
-0.0783181 -0.059131607 0.005922118 0.1511978 0.12471776 0.01316014 0.08926038 0.084611684
0.013519301 0.09268221 0.02401143 -0.06552869 -0.043789327 -0.048712913 0.13270754 -0.012241494
0.0522655 0.15290254 -0.043840945 -0.072260015 0.038240425 0.03680887 0.1056918 -0.013718806
0.09669499 -0.061078683 -0.080888584 0.10900887 -0.021742728 0.13123097 0.059797842 0.08113317
0.003637698 0.008649336 0.034048032 0.07734393 0.055480715 -0.11623093 -0.041317306 0.17185387
0.06659057 -0.06892047 0.027179556 0.049647365 0.004484729 0.012312053 0.051924035 0.060489252
-0.07913368 0.040257256 -0.08419256 -0.12178069 0.056876346 0.18729632 0.14698772 0.25719717
-0.1195054 -0.1383813 0.13645682 0.09875442 0.12508443 -0.044006992 -0.014847618 -0.01718031
0.08742542 0.087693326 -0.010367726 -0.040990237 0.06138026 -0.04173665 -0.050427295 0.044823434
0.035915934 -0.098706394 -0.12447054 -0.047086127 -0.036451757 0.068672605 0.0947595 0.027058378
0.058763545 -0.024942648 -0.06752576 -0.042231288 0.00658817 -0.07824398 -0.108470105 0.027697641
0.12117109 -0.032305356 0.012792528 -0.06685382 0.2007768 0.07723195 0.060272627 -0.15942474
0.005767364 -0.056857586 -0.12536606 0.16354081 0.052261215 -5.1221858e-05 0.10321672 -0.029701006
-0.06386248 0.0075633097 -0.048259076 0.0376336 -0.21644025 -0.07256379 0.06477149 0.1068768
0.031898852 0.0446932 0.07295727 -0.023007419 -0.07139352 0.019086156 0.08150603 0.055194635
-0.086618766 0.11348231 -0.06652604 -0.15561597 0.062531315 -0.1878038 -0.024430336 0.02779373
0.022768935 0.08594214 -0.012449694 0.08527418 -0.04934182 0.17636245 0.032365896 -0.03727372
0.062471382 0.0064453296 0.12895143 0.12056816 -0.07479086 0.008403147 0.02946045 0.20955232
-0.011854049 0.024844557 -0.016287388 0.051334888 -0.0737041 -0.024382792 0.087750465 -0.09625127
0.02304466 0.057192504 0.2662132 -0.055768255 -0.12807356 0.05402668 -0.06530722 -0.06817796
-0.174241 -0.029724134 -0.01952128 0.13028239 -0.04950985 -0.070328385 -0.021644738 0.020639775
0.041932218 0.11132902 0.15249383 -0.12833814 -0.14828213 0.025221875 -0.01708479 0.035344835
-0.1949294 -0.08051581 -0.008488594 0.0607471 0.11529852 -0.017097566 0.013342034 -0.051015235
0.18992493 -0.07062959 -0.06265887 0.01945388 -0.058358748 -0.009403541 -0.086175285 -0.067916244
-0.07106511 -0.095939025 -0.05158427 -0.009627553 0.0049954206 -0.09655302 -0.027547896 -0.15445773
-0.10983282 0.06058515 0.1996772 -0.10912648 -0.05082962 0.023728287 0.03831629 0.12973426
0.22016963 0.13365845 0.13619429 -0.028729625 -0.06333823 -0.085206494 -0.0037151403 0.113698564
0.08223624 -0.058745723 0.0190552 0.12601882 -0.07488162 -0.062795855 -0.08879108 0.03186682
00000000: 5f56 3b3d 9386 323d e13d cbbb 4235 cfbd
00000010: 7fd3 febc 09b7 ddbd 6142 97bd 7b40 413d
00000020: a95b 17bb 83e4 b6bb 36c9 62bd 4efb f8bd
00000030: d71c fa3d ee7b b3bd 5c2a 853d 2407 52be
00000040: 3a73 bd3d dc79 873d 31df c73c 309a 6bbd
00000050: 3eb4 653d 3056 31be 15a0 edbd 1fdb d5bc
00000060: 915f 303d dfeb f6bc 2a91 6fbc 1c17 3c3d
00000070: 62ee a63c bb6b 00be d526 913e 07e3 68bd
00000080: 3d65 a0bd fc33 72bd 540e c23b 99d3 1a3e
00000090: 066c ff3d a19d 573c 25ce b63d e448 ad3d
000000a0: 0f80 5d3c 2cd0 bd3d 9eb3 c43c e833 86bd
000000b0: 705c 33bd 3187 47bd 7ce4 073e 8c90 48bc
000000c0: 5914 563d 7c92 1c3e 9092 33bd 0ffd 93bd
000000d0: fea1 1c3d e6c4 163d f174 d83d d8c4 60bc
000000e0: 0608 c63d a42d 7abd eaa8 a5bd 0b40 df3d
000000f0: ce1d b2bc 6961 063e 95ee 743d 2629 a63d
00000100: 7266 6e3b f2b5 0d3c f375 0b3d 7f66 9e3d
00000110: bf3f 633d 7b0a eebd 563c 29bd 76fa 2f3e
00000120: a360 883d 2d26 8dbd a9a7 de3c 095b 4b3d
00000130: a2f4 923b 7eb8 493c 4cae 543d 94c3 773d
00000140: d710 a2bd cbe4 243d 266d acbd 2868 f9bd
00000150: 2cf7 683d 9bca 3f3e f383 163e 59af 833e
00000160: 3fbf f4bd d4b3 0dbe 56bb 0b3e c23f ca3d
00000170: 2216 003e ad40 34bd 6c43 73bc b9bd 8cbc
00000180: 190c b33d 8f98 b33d 65dd 29bc 61e5 27bd
00000190: de69 7b3d 0df4 2abd da8c 4ebd c798 373d
000001a0: 961c 133d 9426 cabd 69ea febd 62dd 40bd
000001b0: 704e 15bd 39a4 8c3d 4511 c23d 88a9 dd3c
000001c0: 0bb2 703d 8654 ccbc f24a 8abd b7fa 2cbd
000001d0: 93e1 d73b 613e a0bd 9325 debd 2ae6 e23c
000001e0: 8c28 f83d 9f52 04bd c097 513c a8ea 88bd
000001f0: 6f98 4d3e c92b 9e3d 6ee0 763d 3d40 23be
00000200: 28fc bc3b 80e3 68bd f65f 00be 3e77 273e
00000210: db0f 563d 0dd7 56b8 4a63 d33d 864f f3bc
00000220: 55ca 82bd a4d5 f73b 4fab 45bd b125 1a3d
00000230: 83a2 5dbe 539c 94bd eaa6 843d 39e2 da3d
00000240: 5fa8 023d 3810 373d 9f6a 953d 0e7a bcbc
00000250: c436 92bd 925a 9c3c a2ec a63d c513 623d
00000260: 2e65 b1bd 6a69 e83d ce3e 88bd cb59 1fbe
00000270: 6b10 803d a44f 40be 2122 c8bc adaf e33c
00000280: eb85 ba3c 6f02 b03d cdf9 4bbc 3ba4 ae3d
00000290: a61a 4abd 5c98 343e 1a92 043d 54ac 18bd
000002a0: fee1 7f3d 5833 d33b d80b 043e 71ec f63d
000002b0: f32b 99bd 5aad 093c 0b57 f13c e294 563e
000002c0: 7c37 42bc d086 cb3c 216d 85bc 8844 523d
000002d0: 2df2 96bd 6cbe c7bc 84b6 b33d 631f c5bd
000002e0: 28c8 bc3c b042 6a3d 194d 883e 416d 64bd
000002f0: b725 03be 144b 5d3d cbbf 85bd e3a0 8bbd
00000300: 3c6c 32be 0780 f3bc 17eb 9fbc bf68 053e
00000310: d7ca 4abd 5408 90bd 4e50 b1bc bf14 a93c
00000320: 1ec1 2b3d 7800 e43d 5827 1c3e 136b 03be
00000330: 45d7 17be 1b9e ce3c 67f5 8bbc bfc5 103d
00000340: 939b 47be 79e5 a4bd be13 0bbc f3d1 783d
00000350: a121 ec3d 3210 8cbc 8c98 5a3c 5af5 50bd
00000360: ae7b 423e 3fa6 90bd 4b53 80bd be5d 9f3c
00000370: 9509 6fbd 4f11 1abc ab7c b0bd ac17 8bbd
00000380: 968a 91bd ae7b c4bd 074a 53bd e2bc 1dbc
00000390: a0b0 a33b 97bd c5bd 20ac e1bc 2b2a 1ebe
000003a0: 08f0 e0bd 2228 783d 2e78 4c3e b47d dfbd
000003b0: b832 50bd d361 c23c 8bf1 1c3d 0fd9 043e
000003c0: 2674 613e c3dd 083e 8476 0b3e 645a ebbc
000003d0: 79b7 81bd be80 aebd b679 73bb cbda e83d
000003e0: 796b a83d 5b9f 70bd a719 9c3c 140b 013e
000003f0: 895b 99bd 1d9b 80bd 19d8 b5bd c886 023d

network_body._body_endoder.seq_layers.2.bias f4 [128]
0.016222022 0.032854248 -0.0033225087 -0.029419 0.008824273 -0.006248645 0.013761192 0.013974993
0.009765763 -0.004882842 -0.011196216 -0.011272019 0.007637104 -0.0033411721 0.018533364 0.008255243
-0.011527597 0.009864174 -0.0033681144 -0.022065239 0.010116505 -0.00634283 -0.0044775875 -0.0020828804
0.0064265565 0.036661766 0.0013029672 0.013500316 0.00064968277 -0.008025523 0.0007599899 -0.008518412
0.015377154 -0.004413901 0.009452414 -0.014870257 0.009356276 0.008013469 0.0144587 0.0046523334
-0.007840877 0.031896107 -0.03474312 0.0065622064 0.0031938152 -0.004883722 -0.006106301 0.0153119145
-0.0015869103 0.000536974 -0.016706508 0.0027363738 0.00639847 0.0065646702 0.018210161 0.013852797
-0.015509883 0.001553975 -0.003987324 0.009847574 -0.0057309065 -0.0022949888 0.0030418823 0.0009920042
-0.009680104 0.017364597 -0.008428132 0.0073207053 0.013762944 0.0057641016 -0.016773317 -0.019101333
0.013109595 -0.021566179 0.008009943 0.014099706 -0.0066157845 -0.007809031 0.028870136 0.01293231
0.016437331 -0.01565236 0.025513886 0.01495687 0.0007571749 -0.02145538 0.036773574 0.009282254
0.014319681 -0.005758525 0.006285789 -0.014162946 -0.0039904104 0.007567309 0.009492799 0.024645986
-0.023353083 0.009956276 0.02237695 0.0133492425 -0.008948404 0.0035954372 0.014350557 0.008314551
-0.02291123 0.023175448 -0.010984893 -0.008207149 -0.004650247 0.015733656 0.010948198 0.011201025
0.0033168076 0.021903103 -0.008941666 -0.014332616 0.0058069066 0.016513236 0.033496488 -0.0102273375
-0.003147134 0.022528773 -0.01909299 0.014218462 -0.018683603 0.016090067 0.049434096 0.010267909
00000000: 0ce4 843c 2d92 063d 72be 59bb 1d00 f1bc
00000010: af93 103c 6fc1 ccbb 9f76 613c 5ef7 643c
00000020: 9400 203c 3f00 a0bb 5570 37bc 46ae 38bc
00000030: ac40 fa3b 91f7 5abb 48d3 973c 0041 073c
00000040: 3fde 3cbc 589d 213c 95bb 5cbb 29c2 b4bc
00000050: b3bf 253c 84d7 cfbb bab8 92bb ef80 08bb
00000060: dd95 d23b a62a 163d 53c8 aa3a 6e30 5d3c
00000070: 794f 2a3a 7c7d 03bc 0f3a 473a cf90 0bbc
00000080: 75f0 7b3c 7ca2 90bb 4cde 1a3c 61a2 73bc
00000090: 114b 193c ed4a 033c 2fe4 6c3c 9a72 983b
000000a0: 0677 00bc 7ea5 023d cd4e 0ebd c707 d73b
000000b0: 544f 513b a107 a0bb 5e17 c8bb d3de 7a3c
000000c0: e0ff cfba b7c3 0c3a 16dc 88bc bc54 333b
000000d0: 42aa d13b 721c d73b 7a2d 953c d8f6 623c
000000e0: 2a1d 7ebc c0ae cb3a 19a8 82bb b857 213c
000000f0: 54ca bbbb 8667 16bb 515a 473b 2306 823a
00000100: 4d99 1ebc 3340 8e3c 2616 0abc 87e2 ef3b
00000110: f97d 613c cae0 bc3b 3268 89bc 667a 9cbc
00000120: a0c9 563c 8eab b0bc 233c 033c 7402 673c
00000130: 39c9 d8bb e6e2 ffbb 1081 ec3c 0ae2 533c
00000140: 95a7 863c 6139 80bc 7f02 d13c a90d 753c
00000150: 267d 463a 31c3 afbc e39f 163d 9814 183c
00000160: 189d 6a3c 02b2 bcbb 05f9 cd3b b30b 68bc
00000170: fdc1 82bb 30f7 f73b af87 1b3c 61e6 c93c
00000180: f74e bfbc a61f 233c de4f b73c c8b6 5a3c
00000190: 549c 12bc 6da1 6b3b 991e 6b3c c139 083c
000001a0: 55b0 bbbc 70da bd3c fbf9 33bc 4777 06bc
000001b0: 1961 98bb dee3 803c 1260 333c 8184 373c
000001c0: cc5e 593b 236e b33c 1180 12bc 59d3 6abc
000001d0: dd47 be3b c446 873c 9d33 093d 9090 27bc
000001e0: 2640 4ebb 438e b83c e768 9cbc 8df4 683c
000001f0: 5b0e 99bc 51cf 833c 687b 4a3d bb3a 283c

action_model._continuous_distribution.log_sigma f4 [1, 3]
0.2183199 0.17362005 0.19809537
00000000: 408f 5f3e 74c9 313e 83d9 4a3e

action_model._continuous_distribution.mu.weight f4 [3, 128]
0.03474542 -0.028729884 -0.020961786 0.0021862725 0.039483286 0.017081505 0.0015353179 -0.005045344
-0.006578104 0.024621103 -0.0068452326 -0.012347222 0.016419578 0.013433325 -0.026395906 0.023215814
0.025684645 0.032323036 0.01293196 0.0075172414 -0.017786196 -0.011225054 -0.017132761 0.0074984445
-0.0011164751 -0.009187113 0.0029088173 0.032889348 -0.0013074139 0.017872993 0.051076844 -0.022964086
0.040911008 0.0328006 0.019018887 0.008437122 -0.016406223 0.014235174 0.013274364 -0.00929935
0.0033920712 0.03158165 0.01608413 0.021864966 -0.009621648 -0.027711676 0.012245021 0.039422378
-0.03127567 -0.006696113 0.016124804 0.0044150036 0.00841361 -0.04365504 -0.02425668 -0.023330348
-0.022138078 0.009929098 0.007112298 0.010462493 0.027439762 0.0121285105 0.0064514317 0.021560064
-0.008551161 -0.010111494 0.013455992 0.0015222251 0.026053166 -0.017161183 -0.01404292 0.005788457
0.004828539 -0.0034795594 0.014861871 0.0047466485 0.015211692 0.028275356 0.0045190756 0.015265459
0.04081096 -0.013199147 -0.008918505 0.017173452 0.010948459 -0.014711058 0.014496241 0.01483625
0.025742779 0.008303258 0.04187417 -0.020455725 0.017023928 0.09090566 0.008574288 0.054565404
0.0012257675 0.0060786004 -0.03087436 0.03508592 0.0151898535 0.029349092 0.032463454 0.023943225
0.0226172 0.011938562 0.016888114 0.005117665 0.018496444 -0.021996398 -0.011583094 -0.017563159
0.02232118 -0.018391248 0.022114363 -0.009109849 0.006566034 0.032618452 -0.03434715 0.0014391241
-0.004305255 -0.008556725 -0.014049824 0.044183336 -0.016626235 -0.021488497 0.008420862 0.017752502
-0.0086460905 0.014398467 -0.020135721 0.0060883076 0.02339926 0.0061057033 -0.018043557 -0.03013062
-0.03812583 -0.013933403 -0.0020836564 -0.008638576 0.0014086693 -0.010192119 0.0063371016 -0.019177599
0.023619609 0.001176924 -0.0027650811 -0.008255129 0.011061473 -0.018967694 0.003019024 -0.00043783407
0.00933381 -0.04050216 -0.034093507 -0.01584705 -0.014653167 0.010656764 -0.0044715144 0.0005645083
-0.007601926 0.041551325 0.04751059 -0.025551248 0.002960135 -0.00644593 -0.03906846 0.008543213
0.005052081 0.02871837 -0.0053240317 0.05980799 -0.0028093595 0.00047505432 -0.0018807191 0.008582599
-0.017822212 -0.0053828615 0.025038546 0.005397192 0.040769137 0.030089792 0.02757192 0.030590774
-0.009300443 -0.029925486 0.008873623 -2.8775023e-05 -0.011822723 0.0067644827 0.0079162475 0.016767684
-0.028401392 0.026161008 0.009886105 -0.0049416735 0.0148271825 0.012697326 -0.016339552 0.01195307
0.0048933593 -0.0021913 -0.030202549 0.0015395506 -0.019738937 0.029729994 -0.017836751 -0.02559216
0.0048152935 0.02261455 0.016280062 0.0116228415 -0.010774958 0.013255252 0.017548982 0.010963623
0.016577313 -0.03895505 -0.03368357 0.018996056 0.004429543 -0.06680654 0.023896461 -0.0018352894
-0.017683018 -0.03287367 0.0036966144 -0.007782758 0.0008468756 0.01853992 -0.0138874855 0.008369025
-0.021478202 0.033339467 -0.008201021 -0.0045938874 0.0253119 0.033586342 0.004458781 0.0077096694
-0.017649766 0.022312475 0.021567697 0.0020120628 0.019282382 -0.0149355475 -0.03677368 0.0036289052
-0.014615083 0.01646195 0.02094132 0.08188885 -0.018517165 0.057655677 0.056028403 -0.020388149
00000000: 3751 0e3d ef5a ebbc 0db8 abbc 9147 0f3b
00000010: 3ab9 213d 83ee 8b3c b83c c93a 6a53 a5bb
00000020: 238d d7bb 32b2 c93c f94d e0bb 014c 4abc
00000030: 5a82 863c 7317 5c3c 3a3c d8bc 172f be3c
00000040: 9b68 d23c 2965 043d 92e0 533c 3153 f63b
00000050: 5bb4 91bc 4ae9 37bc 015a 8cbc 83b5 f53b
00000060: b056 92ba 8b85 16bc dba1 3e3b fbb6 063d
00000070: 885d abba 626a 923c f435 513d 2e1f bcbc
00000080: 4d92 273d ec59 063d 7fcd 9b3c db3b 0a3c
00000090: 5866 86bc a63a 693c b87c 593c 4d5c 18bc
000000a0: 834d 5e3b c35b 013d dec2 833c 281e b33c
000000b0: 1ea4 1dbc 9903 e3bc 579f 483c 5c79 213d
000000c0: eb1a 00bd 116b dbbb 2a18 843c bcab 903b
000000d0: 3dd9 093c a1cf 32bd f2b5 c6bc 491f bfbc
000000e0: ea5a b5bc a8ad 223c 480e e93b e06a 2b3c
000000f0: 5ac9 e03c a9b6 463c 8866 d33b bb9e b03c
00000100: 2b1a 0cbc aeaa 25bc 8576 5c3c 6685 c73a
00000110: 736d d53c 9c95 8cbc 4714 66bc 19ad bd3b
00000120: b938 9e3b 5209 64bb 347f 733c c689 9b3b
00000130: 763a 793c b8a1 e73c c114 943b fa1b 7a3c
00000140: 6529 273d 3c41 58bc ec1e 12bc 57af 8c3c
00000150: 2a61 333c a606 71bc a481 6d3c be13 733c
00000160: 85e2 d23c 630a 083c 4084 2b3d c492 a7bc
00000170: c475 8b3c bf2c ba3d 2c7b 0c3c f97f 5f3d
00000180: efa9 a03a ff2e c73b 3aec fcbc 41b6 0f3d
00000190: ddde 783c 826d f03c 66f8 043d 9524 c43c
000001a0: b547 b93c f599 433c f158 8a3c 16b2 a73b
000001b0: db85 973c ca31 b4bc 04c7 3dbc 9de0 8fbc
000001c0: e8da b63c 3ea9 96bc 2e29 b53c 7a41 15bc
000001d0: e327 d73b ed9a 053d 99af 0cbd fea0 bc3a
000001e0: 1913 8dbb 8231 0cbc 3c31 66bc 96f9 343d
000001f0: be33 88bc a508 b0bc a8f7 093c b26d 913c
00000200: 55a8 0dbc 8ce7 6b3c abf3 a4bc 6d80 c73b
00000210: ceaf bf3c 5a12 c83b 15d0 93bc 7dd4 f6bc
00000220: d529 1cbd ee48 64bc f48d 08bb d088 0dbc
00000230: 19a3 b83a d8fc 26bc 76a7 cf3b 571a 9dbc
00000240: e97d c13c 0443 9a3a 5d36 35bb 8540 07bc
00000250: 2e3b 353c 2362 9bbc d1da 453b 188d e5b9
00000260: d6ec 183c 98e5 25bd a2a5 0bbd acd1 81bc
00000270: d613 70bc b599 2e3c c885 92bb 83fb 133a
00000280: 9419 f9bb b931 2a3d 779a 423d da50 d1bc
00000290: d3fe 413b 6138 d3bb 4006 20bd d5f8 0b3c
000002a0: ed8b a53b c942 eb3c 3775 aebb 39f9 743d
000002b0: 3b1d 38bb b610 f939 7682 f6ba 089e 0c3c
000002c0: e3ff 91bc b762 b0bb a31d cd3c eeda b03b
000002d0: 8afd 263d de7e f63c 82de e13c 8199 fa3c
000002e0: e360 18bc 4b26 f5bc ac62 113c e461 f1b7
000002f0: 18b4 41bc 98a8 dd3b 26b3 013c 625c 893c
00000300: 09aa e8bc 9c4f d63c 54f9 213c c3ed a1bb
00000310: b6ed 723c 7208 503c 86da 85bc cfd6 433c
00000320: 7958 a03b ea9b 0fbb 566b f7bc bfca c93a
00000330: 8db3 a1bc 518c f33c 611e 92bc a6a6 d1bc
00000340: 9cc9 9d3b 2642 b93c c45d 853c bb6d 3e3c
00000350: 7389 30bc 8e2c 593c e2c2 8f3c c5a0 333c
00000360: 25cd 873c 558f 1fbd c8f7 09bd 9e9d 9b3c
00000370: b325 913b ded1 88bd 83c2 c33c 188e f0ba
00000380: fadb 90bc 8ba6 06bd e642 723b 8206 ffbb
00000390: dc00 5e3a 08e1 973c 5688 63bc 3c1e 093c
000003a0: 0ef3 afbc f78e 083d 935d 06bc 5288 96bb
000003b0: e75a cf3c d591 093d f71a 923b 65a1 fc3b
000003c0: 3e96 90bc a7c8 b63c bdae b03c d0dc 033b
000003d0: 16f6 9d3c 3ab4 74bc 00a0 16bd edd2 6d3b
000003e0: 1a74 6fbc 36db 863c 228d ab3c 57b5 a73d
000003f0: 4fb1 97bc 5c28 6c3d 0a7e 653d 0c05 a7bc

action_model._continuous_distribution.mu.bias f4 [3]
0.016389443 -0.0004817983 -0.01896749
00000000: 2743 863c e099 fcb9 b661 9bbc

action_model._discrete_distribution.branches.0.weight f4 [2, 128]
0.008852941 -0.0045165997 0.0098325815 -0.019064799 -0.021356512 0.01012774 -0.018920599 0.036549695
0.0040341294 -0.012678684 -0.013964205 -0.008517157 -0.009502411 0.025661977 -0.023326203 -0.014010751
0.02290268 -0.0045278375 0.032831807 -0.0066902107 0.019447634 9.157638e-05 0.026770115 -0.031618375
0.003622854 0.012207737 -0.026510382 0.014926806 -0.002846626 -0.011821061 -0.020631067 -0.016411224
0.0020838757 0.04437327 0.0064083044 0.007819968 0.019753262 0.013608859 -0.011514781 -0.0085761845
0.01250341 0.02591619 -0.0037336575 0.009244407 -0.007723623 0.029018972 0.024064709 -0.0020748894
-0.05176214 0.015331097 -0.023221621 -0.028699871 0.0031874275 -0.0015534167 -0.021366209 -0.0014802049
0.0055565317 0.0016320229 0.029931404 0.017168546 0.024863303 -0.0146493325 -0.015663384 -0.0023870352
-0.007158932 0.0026665225 -0.005947213 0.011070772 -0.008491522 0.0018114656 0.011992928 -0.007506193
0.0060817925 0.00630109 0.010029665 -0.003217672 0.0076498156 0.019636765 0.01565505 -0.015126944
-0.002538546 0.00416466 0.016705178 -0.0009090885 -0.02337508 -0.010889283 0.04175456 -0.0073202522
0.00442955 -0.043476872 0.010920326 -0.059249584 0.017755318 -0.028579563 0.035092585 0.027094992
0.007157828 0.007742414 0.004887194 -0.004022841 -0.0040573333 0.019796811 0.005596894 -0.04640185
-0.021176428 -0.00037846706 -0.02017763 -0.022041006 0.00011204875 -0.015293362 0.019962123 -0.012496143
-0.009879682 -0.0052071316 0.0022338345 0.024457678 -0.019581588 0.0058038486 -0.029128382 0.02388
0.010157766 -0.0032351369 -0.0050699455 -0.011624956 0.023175498 -0.0013304097 -0.004628421 0.009805207
0.004105974 0.015498602 -0.013577744 0.011129478 0.035992105 0.010714614 0.023853185 -0.030989632
-0.0050164503 0.0061276187 0.0047504525 -0.0027664877 -0.0047957925 -0.02852769 0.007208671 0.017302386
-0.017766807 0.0072618723 -0.020900132 -0.0025509873 -0.030669745 -0.00064671424 -0.010975472 0.022487855
-0.0093828365 -0.013865524 0.004016674 -0.0063076997 -0.025160873 0.007352408 0.009224011 0.0077869007
-0.00038961973 -0.032854285 -0.017628692 -0.04275712 -0.021911776 -0.010374762 -0.006854893 0.0047350368
0.010049356 -0.017600326 0.005547956 -0.009550407 -0.002080449 -0.02107901 -0.044604745 0.014661387
0.059484374 -0.020367865 0.010052798 0.022634936 0.0010781365 0.008892587 0.01602213 -0.0015281299
0.004431328 0.005533033 -0.05782176 -0.02995293 -0.0039810063 0.010285732 0.023169363 0.0035561223
0.00912382 -0.0068638306 0.008892512 -0.0033799943 -0.0035933254 -0.016652422 -0.009088412 0.0011853789
-0.019247591 0.0066646487 -0.020883873 -0.0108698895 -0.011976088 0.00602735 -0.016789382 0.012180941
0.007302686 -0.01139333 -0.035039887 0.0026511948 -0.00080160995 0.020350331 -0.024642302 -0.004182527
-0.016971013 0.044609666 0.001446733 0.040627375 -0.0061939238 0.02722453 -0.03757277 -0.02210821
-0.012493531 -0.009485572 -0.0083245635 0.0066837897 -0.0040902914 -0.009775706 0.014686267 0.03750711
0.017601632 0.0077544795 0.013822084 0.01881117 -0.015104109 0.0053267493 -0.027068457 0.031130882
0.009531747 0.0003249533 -0.0010718883 -0.021639308 0.024734069 -0.010313849 0.029022435 -0.034215957
-0.02052001 0.0027301586 0.026142962 0.015744347 -0.0057646185 -0.006580893 0.010029542 0.013164292
00000000: ed0b 113c fcff 93bb d618 213c c82d 9cbc
00000010: daf3 aebc d2ee 253c 5fff 9abc 22b5 153d
00000020: bb30 843b 41ba 4fbc 1fca 64bc 8c8b 0bbc
00000030: 00b0 1bbc 1139 d23c 9816 bfbc 598d 65bc
00000040: 679e bb3c 415e 94bb a57a 063d 8e39 dbbb
00000050: a550 9f3c b20c c038 004d db3c 4582 01bd
00000060: 676d 6d3b f602 483c 4d2c d9bc 908f 743c
00000070: 768e 3abb 20ad 41bc 7c02 a9bc d570 86bc
00000080: a291 083b bfc0 353d c1fc d13b 531f 003c
00000090: 98d1 a13c b1f7 5e3c 7ea8 3cbc 2083 0cbc
000000a0: 1adb 4c3c 314e d43c 61b0 74bb da75 173c
000000b0: 7216 fdbb 32b9 ed3c 5a23 c53c defa 07bb
000000c0: 8a04 54bd 482f 7b3c 453b bebc fe1b ebbc
000000d0: 29e4 503b 049c cbba 3008 afbc 6f03 c2ba
000000e0: 9113 b63b 9ae9 d53a b432 f53c 0da5 8c3c
000000f0: 20ae cb3c c103 70bc 7f50 80bc ce6f 1cbb
00000100: 7995 eabb d3c0 2e3b d7e0 c2bb 2f62 353c
00000110: 0620 0bbc b36e ed3a fc7d 443c 83f6 f5bb
00000120: c649 c73b 6079 ce3b 7753 243c 94df 52bb
00000130: 4eab fa3b 48dd a03c 053f 803c 00d7 77bc
00000140: bc5d 26bb b377 883b 4cd9 883c e64f 6eba
00000150: 197d bfbc f768 32bc d406 2b3d bade efbb
00000160: c225 913b ce14 32bd 2beb 323c b1af 72bd
00000170: 9a73 913c b01f eabc 3ebd 0f3d 51f6 dd3c
00000180: 378c ea3b 13b4 fd3b c124 a03b 09d2 83bb
00000190: 61f3 84bb ec2c a23c 2666 b73b de0f 3ebd
000001a0: 307a adbc fd6c c6b9 8f4b a5bc 578f b4bc
000001b0: b7fb ea38 0291 7abc 9b87 a33c 9fbc 4cbc
000001c0: 64de 21bc 96a0 aabb 8665 123b 785b c83c
000001d0: 9169 a0bc 362e be3b a59e eebc fd9f c33c
000001e0: c26c 263c 9704 54bb c921 a6bb 9976 3ebc
000001f0: 8bda bd3c 2461 aeba 02aa 97bb 05a6 203c
00000200: 688b 863b d9ed 7d3c 3075 5ebc 6a58 363c
00000210: 756c 133d 598c 2f3c c167 c33c f8dd fdbc
00000220: 0961 a4bb 31ca c83b afa9 9b3b f64d 35bb
00000230: 0626 9dbb e7b2 e9bc b736 ec3b bcbd 8d3c
00000240: b28b 91bc 00f5 ed3b c136 abbc 772e 27bb
00000250: 1e3f fbbc 4288 29ba 77d2 33bc 7338 b83c
00000260: 78ba 19bc 392c 63bc 4e9e 833b d2b0 cebb
00000270: 2d1e cebc 78ec f03b 4e20 173c 4229 ff3b
00000280: e045 ccb9 3792 06bd 0c6a 90bc 1722 2fbd
00000290: 5380 b3bc e8fa 29bc 039f e0bb 5e28 9b3b
000002a0: 0ea6 243c 8f2e 90bc a1cb b53b 4f79 1cbc
000002b0: 2458 08bb e3ad acbc 77b3 36bd 5036 703c
000002c0: e3a5 733d 82da a6bc 7eb4 243c e76c b93c
000002d0: 4250 8d3a 37b2 113c d840 833c 884b c8ba
000002e0: ac34 913b 724e b53b 83d6 6cbd d95f f5bc
000002f0: 1a73 82bb 7d85 283c adcd bd3c d50d 693b
00000300: 137c 153c fce9 e0bb e6b1 113c e582 5dbb
00000310: ff7d 6bbb a96a 88bc 90e7 14bc b75e 9b3a
00000320: 20ad 9dbc 2063 da3b a814 abbc 9f17 32bc
00000330: 5b37 44bc 1481 c53b e389 89bc 9292 473c
00000340: 5f4b ef3b 17ab 3abc fc85 0fbd abbf 2d3b
00000350: 2223 52ba bdb5 a63c a7de c9bc 940d 89bb
00000360: cb06 8bbc a0b8 363d 4ea0 bd3a e468 263d
00000370: 66f6 cabb fa05 df3c e8e5 19bd 471c b5bc
00000380: abb1 4cbc 5f69 1bbc c063 08bc b103 db3b
00000390: da07 86bb 482a 20bc ab9e 703c 0ea1 193d
000003a0: 4c31 903c 4a19 fe3b 0676 623c e219 9a3c
000003b0: 3a77 77bc 038c ae3b abbe ddbc 3106 ff3c
000003c0: 0b2b 1c3c 7e5e aa39 9a7e 8cba eb44 b1bc
000003d0: 1a9f ca3c 6bfb 28bc 75c0 ed3c 0826 0cbd
000003e0: 9419 a8bc 76ec 323b c429 d63c 4afa 803c
000003f0: 20e5 bcbb 88a4 d7bb f352 243c 0baf 573c

action_model._discrete_distribution.branches.0.bias f4 [2]
0.019859232 -0.019859213
00000000: d4af a23c caaf a2bc

exp_avg f4 [128, 6]
-4.5602264e-05 -0.0011393054 0.012270659 0.001949148 -0.001138458 0.0191617 -0.003157532 0.00090315094
-0.014450688 -0.0033870307 0.0013918293 -0.012537937 -0.00074109505 -0.00023063972 -0.0070123468 0.00041230294
-0.00033939528 0.0017959834 0.0009061156 -0.00032503475 0.042451054 0.0013138222 -0.0004606712 0.019033412
0.0016129944 -0.0011451242 0.003352069 0.0026261895 -0.0019119577 0.007339299 -9.784883e-05 0.0018946645
-0.004031747 -0.0027615174 0.0022110234 -0.010524584 0.0007219068 -0.0010211205 0.029613743 0.0019040284
-0.0014952243 0.019203918 0.00033268682 -0.00047031933 0.0008080693 0.0014726886 -0.0004787528 -0.0025865817
-0.0068941973 0.0020142675 -0.0012176674 -0.006207038 0.002113912 -0.0018136784 0.004587343 -0.0015822742
0.05561914 0.004540337 -0.0019069766 0.008982717 0.0032406368 -0.0009062675 0.0035993557 0.0024083026
-0.00042953668 0.0042436332 0.00070742675 1.8075607e-05 0.005317603 -0.00010520293 4.2829386e-05 -0.0014438535
-0.00012492019 -0.0010745581 0.059949126 0.0034808237 -0.0018515956 0.022147296 0.0017234955 -0.00060046895
0.065372646 0.0014071385 -0.0011244053 0.019800408 0.0066934666 -0.0023776758 0.06507544 0.006639736
-0.002423948 0.027949007 0.0022723095 -0.00063346996 -0.00040287673 0.0020327417 -0.00061906606 -0.0018967809
-0.0008865815 0.00025310315 -0.00033717355 -0.00079696445 0.00026330017 -0.00012819574 0.000103156046 -0.00015566629
0.018296065 0.0006283607 -0.0004888915 0.023939902 0.0028495174 -0.0019203832 0.008488999 0.0039802203
-0.0015477862 0.017175509 -0.0014525891 0.00049706415 -0.040905166 -0.0013276866 0.00047506136 -0.0018336002
-0.0008879684 -0.00028035892 7.5676624e-05 -0.0003815262 9.186331e-05 0.0038705352 0.0018042058 -0.00047608675
0.014397084 0.0013825527 -0.00015101772 0.0058789854 0.00093289523 -0.00038140215 0.055297215 0.00088004133
-0.00030308237 0.0126178535 -0.0007620663 0.00012240233 0.0002757023 -0.00039775422 5.1627387e-05 0.0011043411
-0.000300782 5.0222556e-05 0.007883042 1.2713861e-05 -0.00021292889 0.000120200355 -0.0028983504 0.0014940661
0.023321085 -0.0044184895 0.0013289205 -9.551492e-06 -0.0008541424 0.0008902204 -0.030697994 -0.0025635078
0.0018352241 -0.02209717 -1.8047425e-06 1.0820637e-05 -0.00031553605 -2.8165097e-05 2.2059568e-05 -3.4660218e-06
-0.001627689 -0.0017234196 0.027995612 0.0018829375 -0.0012785253 0.027836308 -5.4414904e-05 -2.2922452e-05
-0.0012663703 -6.295821e-05 -6.900143e-05 0.0002932026 0.0003993859 -0.00011400898 0.00017622497 0.00029610138
0.000116956195 0.00046778738 -0.0015371593 0.00012179396 0.053518612 -0.0007085164 0.00014955943 0.0035913023
-0.0007467838 0.0004227953 -0.0013935879 -0.0006485296 0.00024205876 -0.006321892 0.0003335553 -0.000101900885
0.00010369687 0.00031769974 -0.00010730101 -0.00013842665 -0.0009205148 1.49681255e-05 -0.004215789 -0.00015009318
0.00039542856 -0.003408569 -0.0016784453 0.00043468777 0.01227749 -0.00088702154 0.00010119464 0.0010719723
-0.0026068864 0.00032188193 -0.007202133 -0.0018253995 0.00065110077 -0.0058900956 0.0034078974 -0.00096972886
0.06849486 0.003270802 -0.0012348628 0.022085514 0.00096702465 -0.00031619857 0.037316434 0.00055689795
-0.000100683734 0.007688457 8.158464e-05 -0.00011301322 0.030933473 0.00019453479 0.0009070312 0.012119466
-0.0021272704 0.00064084807 -0.00023481381 -0.001976201 0.0006880343 -0.0008680257 -5.967785e-05 0.0004203132
-0.0002354734 -0.00030323837 0.00017005621 -0.0153684765 1.0654891e-05 -6.437236e-06 0.00051198393 -6.600967e-05
00000000: 0f45 3fb8 bf54 95ba e00a 493c 8e7a ff3a
00000010: 5038 95ba fff8 9c3c 99ee 4ebb 6fc1 6c3a
00000020: 94c2 6cbc f2f8 5dbb 0b6e b63a eb6b 4dbc
00000030: 0c46 42ba e1d7 71b9 d4c7 e5bb 5d2a d839
00000040: ddf0 b1b9 3467 eb3a 6388 6d3a 6d69 aab9
00000050: 28e1 2d3d 8f34 ac3a 3e86 f1b9 f5eb 9b3c
00000060: 1c6b d33a fe17 96ba 63ae 5b3b 261c 2c3b
00000070: a89a faba 817e f03b 3134 cdb8 6456 f83a
00000080: bf1c 84bb 93fa 34bb d1e6 103b 4e6f 2cbc
00000090: 583e 3d3a 1ed7 85ba 8598 f23c 9790 f93a
000000a0: 67fb c3ba 8951 9d3c 786c ae39 3195 f6b9
000000b0: 9dd4 533a 3b07 c13a 1d01 fbb9 a483 29bb
000000c0: b8e8 e1bb cd01 043b 239a 9fba 6964 cbbb
000000d0: 8f89 0a3b f3b8 edba 6c51 963b 5064 cfba
000000e0: e5d0 633d 1bc7 943b 84f3 f9ba 3f2c 133c
000000f0: dd60 543b 9592 6dba 2be3 6b3b 9dd4 1d3b
00000100: 7033 e1b9 2d0e 8b3b 9b72 393a 12a1 9737
00000110: 493f ae3b 65a0 dcb8 b4a3 3338 af3f bdba
00000120: 02fd 02b9 30d8 8cba 378d 753d 881e 643b
00000130: 3db1 f2ba 3f6e b53c eae6 e13a ca68 1dba
00000140: 18e2 853d bc6f b83a c860 93ba 7734 a23c
00000150: de54 db3b c8d2 1bbb 4646 853d 2492 d93b
00000160: 19db 1ebb 51f5 e43c 07eb 143b 730f 26ba
00000170: 3339 d3b9 bf37 053b d248 22ba 689d f8ba
00000180: 7a69 68ba eeb2 8439 abc6 b0b9 61eb 50ba
00000190: 8d0b 8a39 486c 06b9 7b55 d838 5a3a 23b9
000001a0: a1e1 953c 93b8 243a f428 00ba 9d1d c43c
000001b0: f8be 3a3b 5eb5 fbba 7115 0b3c 826c 823b
000001c0: 16df caba a7b3 8c3c cd64 beba 694d 023a
000001d0: 2d8c 27bd c505 aeba a811 f939 6a55 f0ba
000001e0: 8dc6 68ba 23fd 92b9 94b4 9e38 9407 c8b9
000001f0: bda6 c038 cea8 7d3b 1a7b ec3a 489b f9b9
00000200: bfe1 6b3c c536 b53a 835a 1eb9 81a4 c03b
00000210: 8a8d 743a eef6 c7b9 557f 623d 93b2 663a
00000220: 07e7 9eb9 1dbb 4e3c 67c5 47ba 2059 0039
00000230: 238c 9039 ab89 d0b9 7c8a 5838 8abf 903a
00000240: 47b2 9db9 0fa6 5238 e027 013c 9e4d 5537
00000250: aa45 5fb9 1314 fc38 40f2 3dbb 8ad4 c33a
00000260: dc0b bf3c fac8 90bb 2c2f ae3a 593f 20b7
00000270: 87e8 5fba ae5d 693a 5c7a fbbc 8600 28bb
00000280: e78b f03a 2005 b5bc 7b3a f2b5 488a 3537
00000290: 886e a5b9 1644 ecb7 900c b937 cd99 68b6
000002a0: 2e58 d5ba 5ee4 e1ba 0e57 e53c e6cc f63a
000002b0: 3194 a7ba f808 e43c 8f3b 64b8 9749 c0b7
000002c0: 56fc a5ba 6e08 84b8 dcb4 90b8 fdb8 9939
000002d0: ab64 d139 1b18 efb8 08c9 3839 0e3e 9b39
000002e0: 6146 f538 5c41 f539 827a c9ba a26b ff38
000002f0: 5536 5b3d bbbb 39ba 0ed3 1c39 0e5c 6b3b
00000300: d0c3 43ba a0aa dd39 0da9 b6ba 1602 2aba
00000310: 27d1 7d39 e027 cfbb 09e1 ae39 9fb3 d5b8
00000320: d577 d938 f090 a639 cb06 e1b8 9f26 11b9
00000330: b44e 71ba 9c1f 7b37 9a24 8abb 5562 1db9
00000340: 8651 cf39 4c62 5fbb 47ff dbba cee6 e339
00000350: 8727 493c 0287 68ba 7538 d438 6c81 8c3a
00000360: 4cd8 2abb 43c2 a839 dfff ebbb 3e42 efba
00000370: a2ae 2a3a b401 c1bb 0857 5f3b 6735 7eba
00000380: 0847 8c3d f45a 563b 1fdb a1ba aeec b43c
00000390: ed7f 7d3a 74c7 a5b9 1ed9 183d cafc 113a
000003a0: 2b26 d3b8 74ef fb3b 6c18 ab38 8301 edb8
000003b0: 3268 fd3c 09fc 4b39 d5c5 6d3a ba90 463c
000003c0: ad69 0bbb 96fe 273a 5a38 76b9 2783 01bb
000003d0: 335d 343a 388c 63ba 9a4e 7ab8 7c5d dc39
000003e0: 69e9 76b9 f7fb 9eb9 1e51 3239 10cc 7bbc
000003f0: 69c2 3237 70ff d7b6 a936 063a ac6e 8ab8

exp_avg_sq f4 [128, 6]
2.4998002e-05 2.6616453e-05 0.018973162 2.6416488e-05 2.440454e-05 0.024171645 3.2385284e-05 2.7601614e-05
0.020164004 2.9787861e-05 2.5204332e-05 0.026072828 9.081014e-06 9.498089e-06 0.007259269 1.0450071e-05
1.4430621e-05 0.00276048 5.2670384e-05 5.5332166e-05 0.058512706 5.1304916e-05 4.820394e-05 0.047053277
1.7299313e-05 1.671683e-05 0.007614107 1.652377e-05 1.4703911e-05 0.016989974 5.1175364e-05 6.120628e-05
0.029756427 5.6513763e-05 4.9757247e-05 0.030481197 2.6470105e-05 3.2407905e-05 0.021290608 3.0454985e-05
2.5856407e-05 0.0243648 1.4762376e-05 1.6984111e-05 0.018990831 1.8389983e-05 1.5285732e-05 0.0066656293
8.233512e-06 5.819439e-06 4.5881778e-05 9.42146e-06 3.0304436e-06 1.1279935e-06 3.845285e-05 3.9521285e-05
0.024011847 3.3454995e-05 3.777492e-05 0.001775726 2.5989626e-05 2.2366932e-05 0.015733637 2.2973174e-05
2.1360658e-05 0.017653845 3.062991e-06 1.5018192e-06 0.0021396768 2.9597002e-06 2.9173727e-06 4.153507e-05
7.453451e-05 7.7399105e-05 0.08064087 8.123503e-05 7.357189e-05 0.05547142 3.3029166e-05 3.2526386e-05
0.04988265 3.3783137e-05 2.8001848e-05 0.02378468 0.00010113156 9.975562e-05 0.108175844 0.00010343003
8.78565e-05 0.088746995 1.1394795e-05 2.9161024e-06 2.0575731e-05 1.0626338e-05 2.0657603e-06 4.753553e-06
4.5522647e-06 5.097978e-06 1.5979205e-05 3.3214155e-06 1.307273e-06 6.377344e-07 3.547678e-05 3.006394e-05
0.04309089 4.0329003e-05 2.3804922e-05 0.061144285 2.8210654e-05 3.113151e-05 0.018011693 3.3572094e-05
2.6912112e-05 0.023123682 7.1625122e-06 9.99282e-06 0.013952981 7.2835883e-06 6.1027063e-06 6.0374536e-05
9.849037e-06 1.0608415e-05 3.4008503e-05 1.2015228e-05 6.377513e-06 0.02159937 3.5581317e-05 4.030945e-05
0.03484103 3.7262587e-05 3.4168308e-05 0.03040383 3.3123826e-05 3.64804e-05 0.042214442 3.3222877e-05
2.8449542e-05 0.024929432 1.1844335e-05 1.3596347e-05 0.014267424 1.6374192e-05 1.635598e-05 0.0059234556
1.2744426e-05 1.7963614e-05 0.015640981 1.5459582e-05 1.12398475e-05 0.00026119073 2.8457907e-05 3.8329657e-05
0.018381229 4.689797e-05 3.9451108e-05 0.0012589063 0.00010550684 0.00012296176 0.100217454 0.000112053596
9.193468e-05 0.08617664 2.9060845e-07 6.271279e-07 0.00014509111 4.9325496e-07 2.4663441e-07 1.0310213e-07
0.00011238717 0.000114703274 0.12375071 0.000114025795 0.00010464455 0.12171934 2.7588362e-06 2.7623876e-06
0.0038890687 2.0782654e-06 2.1602752e-06 0.00070301397 3.5235587e-06 5.04742e-06 7.187693e-06 4.8492407e-06
7.291336e-07 1.9248941e-06 3.0280498e-05 4.2698175e-05 0.029388886 3.815038e-05 2.9742298e-05 0.0035634725
1.4976903e-05 1.5796666e-05 0.0045634457 1.6501795e-05 1.3991381e-05 0.021866044 6.9548685e-07 2.304554e-07
2.2431044e-07 6.275281e-07 1.4440154e-07 1.3386882e-07 2.1509491e-05 2.8444323e-05 0.03258772 2.4296927e-05
2.4276038e-05 0.0072540846 1.879501e-05 2.3740891e-05 0.014955674 2.3009516e-05 2.1737982e-05 0.002572428
1.4560419e-05 1.2678519e-05 0.0067276824 1.2844709e-05 1.0522997e-05 0.015054635 5.527672e-05 6.262484e-05
0.05649896 5.8804566e-05 5.853903e-05 0.035323627 1.8317904e-05 1.9705418e-05 0.013571367 1.9822848e-05
1.587877e-05 0.0058349664 8.664177e-05 8.703051e-05 0.10685744 9.206437e-05 7.924887e-05 0.08229482
2.3799844e-06 2.0296595e-06 3.1261518e-06 4.5442175e-06 1.1541633e-06 8.145384e-07 3.4419033e-06 3.4907823e-06
1.3182357e-05 3.952322e-06 2.4966887e-06 0.00678045 2.3782857e-06 4.397737e-07 2.3698158e-05 9.018339e-07
00000000: cdb2 d137 6646 df37 9b6d 9b3c fa98 dd37
00000010: 5ab8 cc37 9d03 c63c 6fd5 0738 048a e737
00000020: fb2e a53c f2e0 f937 e46d d337 af96 d53c
00000030: a85a 1837 fb59 1f37 29df ed3b b752 2f37
00000040: 0c1b 7237 2be9 343b 65ea 5c38 7614 6838
00000050: 05ab 6f3d 3c30 5738 962e 4a38 f0ba 403d
00000060: fe1d 9137 1e3b 8c37 c27f f93b 879c 8a37
00000070: d1b0 7637 8f2e 8b3c 21a5 5638 df5b 8038
00000080: c0c3 f33c 3109 6d38 70b2 5038 b4b3 f93c
00000090: 1e0c de37 b9ed 0738 a469 ae3c 9579 ff37
000000a0: 36e6 d837 b098 c73c ecab 7737 1a79 8e37
000000b0: a992 9b3c 3044 9a37 dc39 8037 5a6b da3b
000000c0: aa22 0a37 9a44 c336 2f71 4038 dd10 1e37
000000d0: a05e 4b36 9065 9735 6f48 2138 a8c3 2538
000000e0: 7eb4 c43c 0752 0c38 8370 1e38 7abf e83a
000000f0: 4c04 da37 9fa0 bb37 d4e3 803c 84b6 c037
00000100: aa2f b337 cc9e 903c c98d 4d36 1d92 c935
00000110: d239 0c3b 439f 4636 15c8 4336 f135 2e38
00000120: 694f 9c38 5451 a238 0a27 a53d ba5c aa38
00000130: 9c4a 9a38 0036 633d cc88 0a38 f16c 0838
00000140: c051 4c3d 5eb2 0d38 83e5 ea37 17d8 c23c
00000150: 9816 d438 e433 d138 4c8b dd3d 93e8 d838
00000160: 993f b838 fcc0 b53d 462c 3f37 42b2 4336
00000170: 0c9a ac37 c647 3237 7ea1 0a36 b680 9f36
00000180: a8bf 9836 4c0f ab36 150b 8637 7ce5 5e36
00000190: 8f75 af35 c630 2b35 e7cc 1438 d231 fc37
000001a0: 1380 303d f026 2938 aeb0 c737 6e72 7a3d
000001b0: eba5 ec37 3493 0238 428d 933c c3cf 0c38
000001c0: 52c1 e137 e06d bd3c 8355 f036 d6a6 2737
000001d0: 0b9b 643c 8c65 f436 d9c5 cc36 aa3a 7d38
000001e0: 4b3d 2537 ccfa 3137 5aa4 0e38 0395 4937
000001f0: 6bfe d536 29f1 b03c 263d 1538 f111 2938
00000200: 78b5 0e3d 664a 1c38 f14f 0f38 7411 f93c
00000210: 70ee 0a38 8802 1938 0de9 2c3d cb58 0b38
00000220: eda6 ee37 cf38 cc3c 08b7 4637 de1b 6437
00000230: eac1 693c 4f5b 8937 3334 8937 8c19 c23b
00000240: e5d0 5537 91b0 9637 8421 803c 33af 8137
00000250: c792 3c37 6df0 8839 e4b8 ee37 28c4 2038
00000260: 3b94 963c 50b4 4438 4e78 2538 e301 a53a
00000270: 8e43 dd38 4cef 0039 cf3e cd3d 51fe ea38
00000280: 0ecd c038 617d b03d ec04 9c34 e757 2835
00000290: 9923 1839 3968 0435 2d69 8434 ff68 dd33
000002a0: 67b1 eb38 da8c f038 0371 fd3d 2221 ef38
000002b0: 9d74 db38 fd47 f93d 7224 3936 7561 3936
000002c0: bfdf 7e3b 5478 0b36 3ff9 1036 784a 383a
000002d0: 4776 6c36 025d a936 d02d f136 a9b6 a236
000002e0: aeb9 4335 6e2d 0136 e002 fe37 d116 3338
000002f0: f6c0 f03c a903 2038 197f f937 2689 693b
00000300: 4f45 7b37 1583 8437 f588 953b 566d 8a37
00000310: 86bc 6a37 6b20 b33c 7eb1 3a35 1973 7734
00000320: fcd9 7034 6773 2835 cb0c 1b34 95bd 0f34
00000330: 486f b437 b89b ee37 b37a 053d 41d1 cb37
00000340: 65a4 cb37 acb3 ed3b faa9 9d37 2d27 c737
00000350: a508 753c 8f04 c137 f659 b637 2e96 283b
00000360: 8648 7437 d3b5 5437 e473 dc3b 9b7f 5737
00000370: ee8b 3037 b7a7 763c edd8 6738 7455 8338
00000380: 746b 673d eca4 7638 ce87 7538 82af 103d
00000390: 66a9 9937 104d a537 705a 5e3c 3e49 a637
000003a0: 6633 8537 3f33 bf3b 72b3 b538 2684 b638
000003b0: 13d8 da3d af12 c138 6a32 a638 308a a83d
000003c0: d2b7 1f36 4935 0836 e1ca 5136 887a 9836
000003d0: c0e8 9a35 a7a6 5a35 73fb 6636 2f43 6a36
000003e0: cb29 5d37 309e 8436 c98c 2736 8a2e de3b
000003f0: a39a 1f36 091a ec34 68cb c637 8e15 7235

exp_avg f4 [128]
0.00032544002 -0.0004968732 7.557208e-05 0.00019990411 0.0002874314 -0.0003657481 0.00023314639 0.00025300164
-0.0008296313 0.00047025562 0.00034406857 -5.09396e-05 0.00049399195 5.6186866e-05 0.00088205136 0.00033350952
-0.00011366839 6.0577015e-05 0.00059387536 -0.00015589231 2.79905e-05 0.00021346455 0.00015139807 -6.048191e-05
-9.450112e-06 -0.00072555355 -0.00028108948 -3.6921908e-06 0.00042448763 -1.8144248e-05 8.696719e-05 -8.187256e-05
-7.325232e-05 5.0954724e-05 6.2963634e-05 -0.0001408493 -0.00018403708 0.0004473447 9.272639e-06 0.0002231592
-0.0002563678 -7.293961e-05 4.3711992e-05 9.742293e-05 -0.00033465665 -0.0005860367 -0.00075776613 -0.00015012047
2.7657921e-05 0.0004851772 0.00017478745 -3.0767733e-05 -0.00022351457 0.0001358956 7.432438e-06 -3.0616506e-05
0.0004563417 -0.00050137815 -0.0008698471 0.0005604899 0.0002500498 -7.008202e-06 -7.778278e-05 0.00077787327
-5.303835e-05 0.00014713229 0.00030554942 3.0737232e-05 -0.00045084054 -0.0001461283 -0.00019269325 8.395637e-06
-0.0002107349 -3.583641e-05 0.00010861952 0.0016064671 5.22384e-05 0.00022935684 0.0006111906 -0.0001558027
-0.00014075705 9.1620794e-05 -8.709188e-05 -0.00024904055 -0.0006383038 0.0006609063 -0.00012044308 0.0004423359
-0.00035053483 0.00021179915 -2.4019477e-05 1.6921154e-05 7.375379e-06 -2.9783465e-05 0.00038611214 -1.7411978e-05
0.00018665676 -4.079884e-05 1.9363328e-05 -8.660624e-05 1.8072302e-05 0.00093204284 -1.4055379e-05 -6.851446e-05
-6.3961365e-05 7.2724033e-06 -0.001053944 -1.5164715e-06 1.0816673e-05 1.5131378e-05 0.0005981302 1.4780431e-06
0.00017791825 -0.0002925526 -6.130811e-05 0.0005287183 -3.2281154e-05 -9.926321e-05 1.1226132e-05 -0.00020634921
-2.403395e-06 5.9959882e-05 -0.0003038936 1.1556268e-05 0.00019199617 0.000114334674 -3.817435e-05 -0.00025590966
00000000: d29f aa39 9940 02ba 747c 9e38 5a9d 5139
00000010: 64b2 9639 e1c1 bfb9 c278 7439 4ea5 8439
00000020: 9d7b 59ba a48c f639 1a64 b439 fba7 55b8
00000030: 3d7f 013a 30aa 6b38 7739 673a e4da ae39
00000040: 4161 eeb8 1314 7e38 4dae 1b3a 0677 23b9
00000050: 24cd ea37 74d5 5f39 9cc0 1e39 f5ad 7db8
00000060: ec8b 1eb7 1333 3eba 315f 93b9 5bc7 77b6
00000070: c48d de39 7a34 98b7 2862 b638 ffb2 abb8
00000080: 0a9f 99b8 38b8 5538 580b 8438 f2b0 13b9
00000090: 14fa 40b9 9789 ea39 ae91 1b37 d7ff 6939
000000a0: 1b69 86b9 28f7 98b8 6557 3738 8a4f cc38
000000b0: db74 afb9 42a0 19ba d3a4 46ba a869 1db9
000000c0: ef02 e837 625f fe39 2647 3739 9a0c 01b8
000000d0: 3c5f 6ab9 337f 0e39 2864 f936 396a 00b8
000000e0: 2541 ef39 eb6e 03ba 7306 64ba d7ed 123a
000000f0: 1e19 8339 ff27 ebb6 501f a3b8 31ea 4b3a
00000100: 7f75 5eb8 8647 1a39 2632 a039 daeb 0038
00000110: cb5e ecb9 043a 19b9 b30d 4ab9 fdda 0c37
00000120: b8f8 5cb9 0d4f 16b8 a9ca e338 1790 d23a
00000130: 8e1a 5b38 827f 7039 4f38 203a f85e 23b9
00000140: 2f98 13b9 8a24 c038 19a5 b6b8 a891 82b9
00000150: d853 27ba ac40 2d3a 6396 fcb8 52e9 e739
00000160: fdc7 b7b9 6716 5e39 6f7d c9b7 e7f1 8d37
00000170: 067a f736 81d7 f9b7 186f ca39 f00f 92b7
00000180: 4bb9 4339 6c1f 2bb8 6e6e a237 5fa0 b5b8
00000190: f999 9737 5654 743a 65cf 6bb7 6caf 8fb8
000001a0: ff22 86b8 7805 f436 7e24 8aba 9089 cbb5
000001b0: 4279 3537 c6dc 7d37 d7cb 1c3a 2d61 c635
000001c0: 918f 3a39 bf61 99b9 8a92 80b8 af99 0a3a
000001d0: a065 07b8 882b d0b8 df57 3c37 725f 58b9
000001e0: 034a 21b6 6f7d 7b38 e953 9fb9 cbe1 4137
000001f0: 9452 4939 f6c6 ef38 651d 20b8 9d2b 86b9
