results/Shooter/Shooter/Shooter-129662.onnx (onnx, 308018 bytes, 9 tensors)

action_model._continuous_distribution.log_sigma f4 [1, 3]
0.40031344 0.46251643 0.35570958
00000000: e2f5 cc3e f4ce ec3e 911f b63e

action_model._continuous_distribution.mu.bias f4 [3]
-0.004439561 -0.006820526 -0.019927949
00000000: bd79 91bb b87e dfbb f03f a3bc

action_model._continuous_distribution.mu.weight f4 [3, 256]
0.00491403 -0.008095503 -0.016712828 0.011900074 -0.033655543 -0.011780431 0.004805903 0.019165833
-0.025593081 -0.01782669 -0.011619658 0.014760918 -0.010497126 -0.0015578785 0.02696286 -0.010336726
-0.011908072 -0.020111812 0.00853448 0.015491805 0.008560407 -0.006476778 0.01643118 0.008335808
-0.007436166 0.00140596 0.012670398 -0.017065894 -0.011645783 0.027914304 -0.00565812 0.015782291
-0.012625606 -0.007892913 0.005959356 0.013544553 0.00501378 -0.00027654576 -0.009107117 0.002617162
-0.02488596 -0.025564212 -0.01653499 0.039370976 0.0019412183 -0.054236304 -0.022974638 0.004852792
0.03380176 0.0039398335 -0.015026506 0.016889403 -0.005609409 -0.02028351 0.041024495 -0.0004973836
-0.03744008 -0.023394419 0.007009074 -0.021861032 -0.0086917635 0.0149580715 -0.010082203 0.00040724006
-0.006999298 -0.02068813 -0.032723393 -0.0014663625 -0.01378319 0.025683284 0.009778622 -0.032415155
-0.015146884 -0.028539054 0.008065691 0.016631985 -0.03349524 -0.020358842 0.030691205 -0.040376663
0.0061857947 -0.048024695 -0.00139551 -0.0020213462 -0.026735183 0.004532901 -0.0044514993 -0.026931101
0.008720999 -0.02509907 -0.002862767 0.03985309 -0.010410365 0.021783821 0.01318679 0.0014304918
0.0027897714 -0.010881682 0.00937312 -0.017909689 -0.008649316 -0.0044784513 -0.01605493 -0.013694058
-0.015837708 -0.006095772 -0.06250137 -0.013080409 -0.006563286 -0.0030483159 -0.018237542 0.0024365685
-0.01897462 0.016010359 -0.021725284 -0.029696273 -0.021003213 -0.03444918 -0.035540994 0.0039142473
0.015230105 0.023375083 -0.014690536 0.0018404566 -0.0028773462 -0.008829575 -0.0042588343 0.0053454996
-0.01068194 -0.024954282 -0.026873084 -0.031625953 -0.00891095 -0.025887694 0.008638309 -0.027624121
0.029605543 0.003388164 -0.0019181571 -0.010548127 -0.010767665 -0.0008305204 -0.0034078348 0.019668741
-0.0020167823 0.014540907 -0.0034772586 -0.023642946 0.0040336964 -0.015134226 -0.0070794467 -0.026156692
-0.004555735 0.004657684 -0.005885696 -0.018227179 0.024108004 -0.005108519 0.013452734 -0.014446513
0.019233359 -0.01634276 -0.013547458 -0.010192265 0.02038607 0.02011793 -0.007763901 0.018689446
-0.0055322344 -0.0032296807 -0.03026064 -0.004173731 -0.0056580417 0.024543315 0.011797577 0.003982499
-0.030939689 -0.0217078 0.00034494887 -0.021679444 -0.0096043395 0.02531255 -0.011479547 0.01352172
-0.017989963 -0.016278071 0.0146595165 -0.0042773504 -0.01536014 -0.017892005 -0.009086244 -0.025239022
-0.008259659 0.0088400105 -0.011839738 -0.03149634 -0.032555435 0.0063434723 -0.0043831356 0.026320793
-0.009176481 0.010867179 0.013105152 -0.00021954333 -0.031922188 -0.02164033 -0.018766323 -0.023700882
-0.027651727 -0.008441293 0.021695614 -0.019100957 -0.014878961 -0.021897838 -0.007913465 -0.017121268
-0.017936807 -0.0061513586 -0.0054136883 0.00243549 -0.03397323 -0.013109822 0.003045474 -0.006235985
-0.035239313 -0.004070547 0.0011193051 -0.0055488367 -0.000565043 -0.001926654 0.067815095 -0.0034326669
0.020314049 0.0076871724 -0.012961473 -0.013452844 -0.013419788 -0.036958266 0.0161085 0.045143
-0.01512907 -0.024888543 -0.019088015 -0.032311555 0.018435441 -0.025080027 -0.005727045 0.002250334
-0.020879159 -0.031928275 0.004441061 -0.024845865 -0.015471899 -0.0234273 -0.01882216 -0.02892802
00000000: df05 a13b 00a3 04bc 57e9 88bc 87f8 423c
00000010: 65da 09bd b502 41bc d67a 9d3b aa01 9d3c
00000020: 95a8 d1bc 4709 92bc 6160 3ebc c7d7 713c
00000030: 23fc 2bbc ba31 ccba 37e1 dc3c 5f5b 29bc
00000040: 131a 43bc 87c1 a4bc 34d4 0b3c 57d1 7d3c
00000050: f340 0c3c 273b d4bb af9a 863c ea92 083c
00000060: 15ab f3bb 3048 b83a 8097 4f3c c6cd 8bbc
00000070: f4cd 3ebc 8aac e43c c067 b9bb dd49 813c
00000080: a1db 4ebc 4751 01bc b446 c33b f9e9 5d3c
00000090: a34a a43b 58fd 90b9 0436 15bc b184 2b3b
000000a0: a4dd cbbc 0a6c d1bc 6374 87bc 7643 213d
000000b0: 7a70 fe3a e326 5ebd 4f35 bcbc 2b04 9f3b
000000c0: b773 0a3d b819 813b bc31 76bc a55b 8a3c
000000d0: 22cf b7bb 9b29 a6bc 4d09 283d d962 02ba
000000e0: c55a 19bd a7a5 bfbc 60ac e53b e815 b3bc
000000f0: e667 0ebc b312 753c d32f 25bc d682 d539
00000100: 5e5a e5bb 277a a9bc f708 06bd f632 c0ba
00000110: e4d2 61bc c065 d23c 8336 203c c1c5 04bd
00000120: a32a 78bc bcca e9bc f625 043c cd3f 883c
00000130: 4e32 09bd 96c7 a6bc 1f6c fb3c 0062 25bd
00000140: 35b2 ca3b 8bb5 44bd 8ce9 b6ba 9078 04bb
00000150: be03 dbbc bb88 943b e2dd 91bb 9d9e dcbc
00000160: 85e2 0e3c 919c cdbc 439d 3bbb fe3c 233d
00000170: 3c90 2abc fc73 b23c 680d 583c 577f bb3a
00000180: 99d4 363b 1549 32bc b791 193c 57b7 92bc
00000190: dcb5 0dbc f9bf 92bb a185 83bc 0b5d 60bc
000001a0: 15be 81bc 0bbf c7bb b800 80bd 364f 56bc
000001b0: d510 d7bb 41c6 47bb e666 95bc d6ae 1f3b
000001c0: aa70 9bbc 2828 833c 39f9 b1bc 9945 f3bc
000001d0: ee0e acbc 951a 0dbd 6f93 11bd 1643 803b
000001e0: b187 793c 1a7d bf3c 93b0 70bc 7a3b f13a
000001f0: dc91 3cbb eca9 10bc b18d 8bbb 4d29 af3b
00000200: 4e03 2fbc ec6c ccbc f124 dcbc 378a 01bd
00000210: 3cff 11bc 6e12 d4bc b287 0d3c fb4b e2bc
00000220: 5387 f23c f60b 5e3b ac6a fbba 0dd2 2cbc
00000230: dc6a 30bc 48b7 59ba fb55 5fbb 5720 a13c
00000240: fe2b 04bb fc3c 6e3c b8e2 63bb daae c1bc
00000250: 192d 843b 8bf5 77bc b4fa e7bb 8f46 d6bc
00000260: 4648 95bb 7c9f 983b ccdc c0bb 2a51 95bc
00000270: 267e c53c 5d65 a7bb db68 5c3c 11b1 6cbc
00000280: 478f 9d3c 40e1 85bc 28f6 5dbc 75fd 26bc
00000290: b000 a73c 5bce a43c 5268 febb 9c1a 993c
000002a0: bf47 b5bb 0da9 53bb 29e5 f7bc cbc3 88bb
000002b0: 1867 b9bb 100f c93c a04a 413c 9f7f 823b
000002c0: 3b75 fdbc 8ed4 b1bc 41da b439 1799 b1bc
000002d0: 855b 1dbc 445c cf3c b614 3cbc 348a 5d3c
000002e0: b05f 93bc 9759 85bc 782e 703c 0429 8cbb
000002f0: 19a9 7bbc 4192 92bc 78de 14bc 11c2 cebc
00000300: 8553 07bc b1d5 103c 76fb 41bc 4e02 01bd
00000310: d958 05bd e7dc cf3b 68a0 8fbb b49e d73c
00000320: f358 16bc 410c 323c feb6 563c 3735 66b9
00000330: d7c0 02bd 1047 b1bc d5bb 99bc 5a28 c2bc
00000340: e085 e2bc 594d 0abc 00bb b13c 9c79 9cbc
00000350: e3c6 73bc 1863 b3bc 7aa7 01bc e741 8cbc
00000360: 36f0 92bc 5691 c9bb 4f65 b1bb be9c 1f3b
00000370: 8327 0bbd 94ca 56bc 9396 473b 3c57 ccbb
00000380: 1957 10bd 3962 85bb a6b5 923a 04d3 b5bb
00000390: 651f 14ba c887 fcba a4e2 8a3d 98f6 60bb
000003a0: a669 a63c ade4 fb3b 5c5c 54bc 5169 5cbc
000003b0: acde 5bbc 8d61 17bd f9f5 833c dee7 383d
000003c0: ebdf 77bc 0fe3 cbbc 785e 9cbc 1f59 04bd
000003d0: ec05 973c a174 cdbc efa9 bbbb 577a 133b
000003e0: c50a abbc 39c7 02bd 5286 913b 8e89 cbbc
000003f0: d97d 7dbc 9cea bfbc ee30 9abc 74fa ecbc

action_model._discrete_distribution.branches.0.bias f4 [2]
0.027402634 -0.027402595
00000000: 7d7b e03c 687b e0bc

action_model._discrete_distribution.branches.0.weight f4 [2, 256]
0.0069299387 -0.043209992 0.03087807 -0.012762874 0.0139781935 0.049808193 0.019635985 -0.023349296
0.025609262 0.0056662476 -0.018811215 0.010377614 -0.005203619 0.0028001282 -0.0105731245 0.03442159
-0.007288104 0.022580205 -0.034685615 -0.025661288 -0.018331451 0.019175092 -0.034085386 -0.004664087
-0.013185345 -0.017542008 0.014780266 0.0038275104 0.041307356 0.030045921 0.021561528 0.027828934
-0.01698289 0.00064164907 -0.012321208 0.018320605 0.012780346 -0.005221022 -0.003149756 -0.017486723
-0.03411711 0.00014166393 -0.044025786 -0.011719203 -0.021240992 -0.020672057 0.008304607 0.023082424
-0.016727977 0.017738994 -0.008761663 -0.039337948 0.023970407 0.026241781 0.01915389 0.005629442
0.014152191 0.017331822 0.014605398 0.015556599 -0.006088468 0.006907791 0.008410149 -0.042643294
0.01479074 0.016439205 0.021999981 -0.036126714 0.010500322 0.0015638794 -0.02026508 0.003695772
0.01881297 -0.034337394 0.0035540035 -0.037379008 0.011303072 0.017942665 -0.01740741 -0.00230143
0.01562587 0.018728472 -0.006584673 0.010784366 0.023695292 -0.026464736 -0.015437724 0.024221724
0.015822982 0.021511665 -0.007616665 -0.016961422 0.008488994 0.010866329 -0.020109935 0.0012556397
-0.007238378 0.010796341 -0.020888455 0.026793284 0.0044392142 0.026352163 0.01054386 0.014017843
0.025200142 0.010056963 -0.012043492 0.026943676 -0.01748309 0.0028310828 -0.023745632 -0.010222431
0.024018098 -0.015487829 0.014231754 0.040326566 0.018350914 0.04710139 -0.027078262 0.008992834
-0.0062259994 -0.0054333005 0.00023281698 -0.0010319983 0.00015599244 -0.015197448 -0.0066516357 0.017587274
0.039355792 0.040512074 0.03693823 0.03879122 0.0007070871 -0.011187681 0.019366339 0.021727147
-0.021038707 -0.03728834 -0.032098833 0.0134036215 0.000711504 -0.010004796 0.019221203 -0.014340381
0.017923106 -0.031063989 -0.012182992 -0.024476374 -0.015995314 0.022189438 0.03211404 -0.03392921
-0.0034318354 -0.0025523102 0.026262628 0.022405742 0.008812197 -0.02098537 -0.028546132 0.025097366
0.0050504776 0.006594911 -0.01026908 0.012610383 0.0073687253 -0.03847374 -0.00983075 -0.012441802
0.010145907 -0.006466938 -0.008864156 0.014662996 0.01828017 -0.004883646 0.0031868154 -0.025773207
0.011537242 -0.005456199 0.00828892 0.01043609 -0.030183382 -0.013130805 -0.013938152 -0.022953475
0.005685104 0.0076779816 -0.022961833 -0.003592906 -0.004353481 -0.013007786 -0.0023165466 0.0044282963
0.015670937 0.0076818173 0.02555274 0.03827438 0.012898269 -0.0012753364 0.0016642861 -0.00723344
-0.0011410409 0.0148336375 -0.003797309 -0.022044843 -0.006909467 0.0061001694 0.025675554 0.009590374
-0.05034158 -0.008838608 -0.00870153 -0.01207671 0.03158507 0.0013247518 0.001466245 -0.002713972
0.018846767 0.014948148 -0.046306882 0.017725017 0.014403279 0.025963603 0.0076203756 -0.026584025
-0.0140249 0.004369933 0.018322453 -0.01319597 0.019544614 -0.0007536392 -0.053805426 0.0114979055
-0.026482835 0.020977916 -0.032469653 0.0019638136 -0.0066010505 0.011788937 0.025742477 0.0035071976
-0.0057967165 -0.0054341927 0.012640602 -0.020844845 0.016748201 0.023415715 0.014912306 -0.0065675788
0.0013934489 0.022793422 -0.011795957 0.02872039 0.01635799 0.0051792916 0.03911028 -0.0045668203
00000000: 8a14 e33b f6fc 30bd 02f4 fc3c 601b 51bc
00000010: cb04 653c ad03 4c3d a5db a03c 0647 bfbc
00000020: 84ca d13c eeab b93b fa19 9abc de06 2a3c
00000030: 1f83 aabb 5b82 373b e63a 2dbc a7fd 0c3d
00000040: 0cd1 eebb 1ffa b83c 8112 0ebd 9f37 d2bc
00000050: d72b 96bc 1515 9d3c 1e9d 0bbd 33d5 98bb
00000060: 5807 58bc 42b4 8fbc ee28 723c f8d6 7a3b
00000070: e731 293d dd22 f63c cda1 b03c 81f9 e33c
00000080: b41f 8bbc 5734 283a e4de 49bc 1815 963c
00000090: a864 513c 1b15 abbb 236c 4ebb 5140 8fbc
000000a0: 62be 0bbd 9f8b 1439 6254 34bd e601 40bc
000000b0: 9701 aebc 7258 a9bc 0c10 083c 5a17 bd3c
000000c0: 1c09 89bc 5e51 913c 148d 0fbc d420 21bd
000000d0: 965d c43c 01f9 d63c 9ee8 9c3c 2f77 b83b
000000e0: 97de 673c 77fb 8d3c 7b4b 6f3c 1be1 7e3c
000000f0: c581 c7bb c05a e23b b9ca 093c bcaa 2ebd
00000100: dc54 723c 83ab 863c 4e39 b43c 9bf9 13bd
00000110: 8b09 2c3c 16fb cc3a f402 a6bc c434 723b
00000120: a81d 9a3c 5ea5 0cbd 49ea 683b bb1a 19bd
00000130: 8530 393c 7ffc 923c fc99 8ebc 97d3 16bb
00000140: d301 803c 746c 993c 3ec4 d7bb e9b0 303c
00000150: a11c c23c 93cc d8bc 82ee 7cbc a36c c63c
00000160: 339f 813c 3b39 b03c 3895 f9bb aef2 8abc
00000170: 6c15 0b3c b008 323c 97bd a4bc 4794 a43a
00000180: ea2f edbb 23e3 303c 441e abbc 977d db3c
00000190: d476 913b 7ee0 d73c 27c0 2c3c 18ab 653c
000001a0: 8770 ce3c f6c5 243c 1152 45bc fcb8 dc3c
000001b0: b238 8fbc b089 393b 3386 c2bc fc7b 27bc
000001c0: 9ac1 c43c aac0 7dbc 4d2c 693c 782d 253d
000001d0: a854 963c 63ed 403d 3bd3 ddbc ae56 133c
000001e0: 7803 ccbb d409 b2bb 5520 7439 1e44 87ba
000001f0: e791 2339 b8fe 78bc f7f5 d9bb 3013 903c
00000200: 8a33 213d fdef 253d 8b4c 173d 8be3 1e3d
00000210: d05b 393a 894c 37bc 28a6 9e3c 21fd b13c
00000220: 5e59 acbc a9bb 18bd 117a 03bd dd9a 5b3c
00000230: 3a84 3a3a 28eb 23bc c975 9d3c ebf3 6abc
00000240: 7ad3 923c e879 febc 2c9b 47bc ad82 c8bc
00000250: 9b08 83bc a0c6 b53c 038a 033d 5bf9 0abd
00000260: a5e8 60bb a944 27bb b924 d73c 3f8c b73c
00000270: 0861 103c 83e9 abbc 94d9 e9bc fe98 cd3c
00000280: 7a7e a53b 201a d83b a53f 28bc c89b 4e3c
00000290: 5975 f13b a496 1dbd 2711 21bc b3d8 4bbc
000002a0: 053b 263c 9ce8 d3bb f73a 11bc 103d 703c
000002b0: 4cc0 953c fe06 a0bb e4d9 503b 5522 d3bc
000002c0: b306 3d3c eac9 b2bb 40ce 073c 22fc 2a3c
000002d0: 2443 f7bc 9722 57bc d95c 64bc ed08 bcbc
000002e0: 1c4a ba3b 9497 fb3b 741a bcbc f676 6bbb
000002f0: a5a7 8ebb 9c1e 55bc 34d1 17bb 3e1b 913b
00000300: 5660 803c c1b7 fb3b fb53 d13c 99c5 1c3d
00000310: 4353 533c 3029 a7ba 2d24 da3a 7e06 edbb
00000320: fb8e 95ba c908 733c 46dc 78bb 6397 b4bc
00000330: cf68 e2bb eee3 c73b 8a55 d23c f220 1d3c
00000340: f932 4ebd cfcf 10bc dd90 0ebc 65dd 45bc
00000350: 595f 013d 4ba3 ad3a 052f c03a e5dc 31bb
00000360: 8964 9a3c 14e9 743c 49ac 3dbd 0e34 913c
00000370: bbfb 6b3c 9fb1 d43c 58b4 f93b bec6 d9bc
00000380: b2c8 65bc a831 8f3b f818 963c e933 58bc
00000390: 071c a03c df8f 45ba 1463 5cbd b661 3c3c
000003a0: 88f2 d8bc e1d9 ab3c e6fe 04bd 53b3 003b
000003b0: a04d d8bb 6326 413c e3e1 d23c 03d9 653b
000003c0: 62f2 bdbb 5011 b2bb 871a 4f3c cfc2 aabc
000003d0: 8633 893c 50d2 bf3c bf52 743c d834 d7bb
000003e0: 63a4 b63a 45b9 ba3c d443 41bc 0647 eb3c
000003f0: 3101 863c 0cb7 a93b 1a32 203d 44a5 95bb

network_body._body_endoder.seq_layers.0.bias f4 [256]
0.031155694 0.0066385698 -0.017297713 0.001496411 -0.0231461 0.011278308 0.012536412 -0.016276928
-0.019795576 0.028087279 0.0089358855 -0.0036892341 0.002118835 0.0011745188 -0.011815346 0.0068487455
0.026359253 0.0023916608 0.020497764 -0.0062201614 0.008659157 0.019113317 -0.020592945 -0.0013610148
0.0025612565 -0.017098885 0.023776282 -0.007419422 -0.029663336 -0.008616779 -0.0018324098 -0.008276001
-0.009396955 0.0134880785 -0.00678185 -0.02415888 -0.015698796 0.020636631 -0.005695549 -0.007108057
0.0170368 -0.0033305043 0.011317675 0.0037448083 0.034569018 0.029581422 0.004002936 0.0006648491
0.007659183 0.020633744 -0.0033391297 0.0007622424 0.0045851762 -0.025586661 0.03836184 -0.00862684
-0.004481817 -0.008005749 0.012185861 0.01182659 0.011625785 -0.02000033 -0.03875048 0.028060649
-0.014701114 0.009122605 0.00011847413 0.0012573944 -0.015913708 -0.009248099 -0.0021732608 -0.019112777
-0.0064460696 0.0064770128 -0.003994001 0.025614278 0.011546107 0.022307463 -0.007042088 -0.015181919
-0.03544884 0.005664435 0.038289007 0.008304 -0.00061343046 0.0050712903 0.014674863 -0.022435047
-0.026777532 0.019063286 -0.005435958 -0.03114898 -0.011592541 0.008264333 -0.014613574 -0.0026397342
-0.00822728 0.0040699327 -0.008239503 0.0037718322 -0.016296739 -0.0022907206 -0.005940764 -0.022050701
0.0012925738 -0.00423942 0.001152987 0.0027564934 0.009370511 0.0014790226 -0.024020223 0.0015395912
0.010346055 0.0036127835 -0.0007622445 0.002436424 0.013302521 0.008590318 -0.009845892 -0.02828423
-0.01299344 -0.019474104 -0.025209595 -0.017768485 -0.0013585316 0.001702424 -0.0016141399 -0.0062508564
-0.0144142015 0.006573628 0.017377308 0.015123139 0.0022445791 0.015323419 -0.004439889 -0.018346403
0.0018348253 0.0010781282 -0.0040141856 0.0014705096 0.02166317 0.017295232 -0.016746549 -0.0056448374
-0.014062309 -0.026286041 -0.025862006 -0.008370814 0.0017012982 0.022324217 0.002717899 -0.009027498
-0.004366683 0.013885002 0.017713353 0.015764125 0.011150099 -0.018879553 0.011030816 -0.021140967
-0.020348905 0.024267275 -0.0133360755 0.0109525295 0.009750268 0.022147616 -0.009990935 0.0059674163
0.0036314612 -0.005124938 -0.011734035 0.0061780075 0.024019439 0.013447062 -0.012405407 -0.004547539
-0.007705998 -0.010020089 -0.029021312 -0.029750869 0.000789003 0.001192588 0.013280607 0.0025214122
-0.007224366 -0.007241771 -0.027853357 0.016153019 -0.0019544277 -0.0086538885 -0.0048630084 -0.0040825144
0.00057895173 -0.0007467066 0.00020876089 0.010010263 0.0029151656 -0.009563853 0.00472227 0.0143866185
-0.00037394968 -0.012391641 0.012483302 0.012891393 -0.011812322 -0.013737668 0.0062068035 0.0017007937
0.0024305922 0.015823819 -0.018922502 0.0011934165 0.020170817 -0.015041368 -0.009358669 -0.009537839
-0.026411269 -0.005240199 0.0058130417 0.011384355 -0.023497917 0.0012732254 -0.03705533 -0.0008206546
0.008441023 0.008485092 -0.0063604102 -0.026964441 0.01358285 0.00014275862 -0.001755026 0.012942068
-0.021875117 -0.02304698 -0.033788577 0.0027601263 -0.0139842 -0.0043457802 -0.010826565 0.03519447
0.0027673233 -0.025376609 -0.005183884 0.026818605 -0.0007681175 0.009024845 0.007781997 -0.018772434
0.01194315 0.02089457 0.00054547016 -0.0030061142 -0.021313507 -0.013163577 0.00028018042 -0.009134911
00000000: 3a3a ff3c 5c88 d93b efb3 8dbc 3923 c43a
00000010: e49c bdbc a7c8 383c 8665 4d3c 3157 85bc
00000020: 552a a2bc 4b17 e63c d267 123c 14c7 71bb
00000030: 27dc 0a3b 50f2 993a 2795 41bc 716b e03b
00000040: 5cef d73c 69bd 1c3b edea a73c 7fd2 cbbb
00000050: 23df 0d3c 8893 9c3c 89b2 a8bc 1464 b2ba
00000060: c1da 273b f612 8cbc 7ac6 c23c 9f1e f3bb
00000070: 8600 f3bc 642d 0dbc 782d f0ba 1098 07bc
00000080: b0f5 19bc 1afd 5c3c 483a debb d8e8 c5bc
00000090: c39a 80bc 270e a93c baa1 babb b4ea e8bb
000000a0: c290 8b3c 9744 5abb c56d 393c 756b 753b
000000b0: 3e98 0d3d bd54 f23c 102b 833b 4549 2e3a
000000c0: e2f9 fa3b 1908 a93c 4dd5 5abb 39d1 473a
000000d0: 3f3f 963b 1e9b d1bc 4e21 1d3d 9757 0dbc
000000e0: 35dc 92bb 8c2a 03bc 35a7 473c 50c4 413c
000000f0: 147a 3e3c bbd7 a3bc d3b8 1ebd 72df e53c
00000100: f1dc 70bc fb76 153c 5075 f838 28cf a43a
00000110: 775d 82bc 5785 17bc 446d 0ebb 6692 9cbc
00000120: 8d39 d3bb 1f3d d43b 1ce0 82bb 09d5 d13c
00000130: e22b 3d3c 24be b63c 51c1 e6bb 95bd 78bc
00000140: ce32 11bd ba9c b93b efd4 1c3d 800d 083c
00000150: 9fce 20ba 112d a63b d66e 703c b4c9 b7bc
00000160: 8e5c dbbc 9c2a 9c3c 1f20 b2bb 252c ffbc
00000170: a4ee 3dbc 2067 073c c66d 6fbc 64ff 2cbb
00000180: b7cb 06bc 125d 853b fbfe 06bc d830 773b
00000190: bd80 85bc ea1f 16bb beaa c2bb aca3 b4bc
000001a0: 946b a93a d5ea 8abb d31f 973a 49a6 343b
000001b0: c686 193c c3db c13a 0fc6 c4bc 1ccc c93a
000001c0: 8082 293c 73c4 6c3b 5dd1 47ba 69ac 1f3b
000001d0: d1f2 593c 68be 0c3c aa50 21bc 54b4 e7bc
000001e0: 70e2 54bc 2888 9fbc 5a84 cebc 378f 91bc
000001f0: c210 b2ba df23 df3a 8c91 d3ba fcd3 ccbb
00000200: 8b29 6cbc 9767 d73b db5a 8e3c 0bc7 773c
00000210: ca19 133b 140f 7b3c 7d7c 91bb 324b 96bc
00000220: 857e f03a fb4f 8d3a 6e89 83bb 1dbe c03a
00000230: f676 b13c bbae 8d3c 0f30 89bc 54f8 b8bb
00000240: 9965 66bc d355 d7bc 8fdc d3bc bd25 09bc
00000250: 18fe de3a 47e1 b63c c71e 323b 12e8 13bc
00000260: 6416 8fbb eb7d 633c 981b 913c c423 813c
00000270: e8ae 363c 4ba9 9abc 98ba 343c d22f adbc
00000280: bfb2 a6bc 2acc c63c 8e7f 5abc 3d72 333c
00000290: 97bf 1f3c eb6e b53c 05b1 23bc 518a c33b
000002a0: cffd 6d3b 19ef a7bb 1c40 40bc e270 ca3b
000002b0: 6ac4 c43c 1151 5c3c 0c40 4bbc 8603 95bb
000002c0: 9982 fcbb 4d2b 24bc 1abe edbc 18b8 f3bc
000002d0: 18d5 4e3a 9d50 9c3a e796 593c 473e 253b
000002e0: 60ba ecbb 614c edbb b92c e4bc 5653 843c
000002f0: db15 00bb 0ac9 0dbc df59 9fbb 9dc6 85bb
00000300: cbc4 173a a2be 43ba d3e6 5a39 1602 243c
00000310: 5d0c 3f3b b5b1 1cbc 46bd 9a3b dab5 6b3c
00000320: ad0e c4b9 4f06 4bbc c386 4c3c 6c36 533c
00000330: 7888 41bc f513 61bc 7162 cb3b 2bed de3a
00000340: 924a 1f3b f4a0 813c 5d03 9bbc 6a6c 9c3a
00000350: 453d a53c 1270 76bc 1a55 19bc 9944 1cbc
00000360: 725c d8bc fab5 abbb 547b be3b 7285 3a3c
00000370: b47e c0bc 5be2 a63a 54c7 17bd 3321 57ba
00000380: 374c 0a3c 0e05 0b3c fd6a d0bb 88e4 dcbc
00000390: 9a8a 5e3c 7ab1 1539 e708 e6ba f80a 543c
000003a0: 7233 b3bc 05cd bcbc e465 0abd 3ce3 343b
000003b0: fc1d 65bc 0c67 8ebb e861 31bc 1428 103d
000003c0: fb5b 353b 9be2 cfbc 92dd a9bb b1b2 db3c
000003d0: 7e5b 49ba f2dc 133c 1f00 ff3b a6c8 99bc
000003e0: 34ad 433c 172b ab3c e2fd 0e3a 3a02 45bb
000003f0: aa99 aebc 0bac 57bc 2ee5 9239 98aa 15bc

network_body._body_endoder.seq_layers.0.weight f4 [256, 35]
0.2181872 0.16383111 0.14499897 0.21312049 -0.18406397 -0.056011416 0.07787633 -0.01447223
-0.10463844 -0.090224795 -0.23838273 -0.25741127 -0.3682235 0.34077963 0.40563762 -0.08325824
0.092807695 -0.07948105 -0.10279349 0.059728008 0.2027016 -0.01381892 -0.3358104 -0.18705672
-0.13037477 0.36571908 -0.011600695 0.28213194 0.21755989 0.042934634 0.01223471 -0.058804937
-0.18048848 0.2158368 -0.09192163 -0.1266526 0.29215112 -0.3339789 -0.19784595 -0.05493611
0.1300894 0.10209819 -0.46804172 -0.15486524 0.12698063 0.22752295 -0.09328203 0.1828483
-0.011108661 0.018317591 -0.031284202 0.098909296 -0.20117831 -0.09032814 0.044925276 0.11539804
-0.049656704 0.0051265154 -0.20654893 0.20270143 0.07469031 -0.15790246 -0.25522473 -0.025214547
0.22902723 0.2284633 0.19322686 0.05707213 0.24530044 0.26575568 -0.39349765 -0.33632943
-0.050754156 0.03697105 0.16472854 -0.045331568 -0.12172557 0.080689155 -0.20129685 -0.050089013
0.03503575 -0.12205581 0.09568503 -0.32600337 0.09791147 0.023257006 0.04279716 0.054042503
-0.17237104 0.21485437 0.22191048 0.15683614 0.1596756 0.029599953 -0.010711181 -0.34783548
-0.016174667 -0.3642302 0.01869311 0.014282652 -0.010020363 -0.01864077 0.2223107 0.101969175
-0.061500408 0.153545 -0.24279587 0.13507886 0.14986688 -0.39871404 -0.09315652 -0.026667226
-0.091342814 0.09157789 -0.15018004 0.12018982 -0.14461312 0.017677 -0.06341664 -0.20530865
-0.123342246 0.010927231 0.052948736 0.15742913 -0.018395744 -0.11074694 0.20828612 0.07241117
-0.26059014 -0.04470972 -0.06989124 -0.052889835 0.023356106 -0.2396701 -0.34385827 0.11321856
-0.07747277 -0.11192991 0.28531313 -0.11541701 -0.09913564 -0.19188896 0.24515639 0.009352488
0.09733326 -0.0007851602 0.17304803 -0.20757735 0.161833 -0.009299403 0.053008206 0.07943298
-0.26045826 -0.12685373 -0.059344746 0.25867978 0.22454727 -0.04209947 0.03553863 0.19582216
-0.11506049 -0.013237446 0.22925647 -0.19183964 0.038456555 0.1464678 0.034402404 -0.12174666
0.20593512 -0.0675355 0.13899495 0.21185628 0.079762846 -0.41603577 -0.005279328 0.22318237
0.38255253 -0.48542702 -0.110653654 0.26582384 0.00337556 0.06461171 -0.11070825 -0.16589026
0.12270261 0.14583063 0.118693024 -0.25026563 0.034754626 0.0138968425 0.15350187 -0.038831174
-0.44850543 -0.2164124 0.055531345 -0.31550586 -0.0779085 -0.10151836 0.10045379 -0.19207448
-0.03745813 0.09010012 -0.24835244 0.12784648 0.106187716 -0.09324763 -0.12404824 -0.12112586
0.088683195 -0.36440325 0.24568206 -0.008069311 -0.033500288 -0.17554367 -0.0028958328 -0.11022708
0.06478725 -0.21596819 -0.010446796 0.028657053 0.13965718 -0.031280495 -0.047839317 0.14634341
-0.3317569 -0.14124921 -0.10147068 -0.12513298 0.15046345 -0.5137761 0.19786647 0.04092383
-0.18020445 0.05744241 -0.16555174 -0.086838 0.16522664 0.039642613 -0.16994654 -0.24690224
0.22973403 -0.15704626 -0.12582159 0.25143805 -0.013685139 0.2894341 -0.051377222 -0.06690137
-0.13028403 0.13134643 -0.057994638 0.2834828 -0.016866611 0.24817935 0.12837125 -0.05201262
00000000: 776c 5f3e 58c3 273e 9c7a 143e 423c 5a3e
00000010: 447b 3cbe 3a6c 65bd a07d 9f3d ef1c 6dbc
00000020: ae4c d6bd c7c7 b8bd 9a1a 74be 69cb 83be
00000030: ca87 bcbe ab7a ae3e bcaf cf3e 4c83 aabd
00000040: f611 be3d f6c6 a2bd 6585 d2bd 5ba5 743d
00000050: 0291 4f3e c068 62bc 57ef abbe cc8b 3fbe
00000060: f780 05be 883f bb3e d710 3ebc 9973 903e
00000070: 05c8 5e3e 3adc 2f3d 1874 483c 72dd 70bd
00000080: f9d1 38be 5204 5d3e 6841 bcbd 38b1 01be
00000090: d594 953e 48ff aabe 2198 4abe b004 61bd
000000a0: 2836 053e db18 d13d 2aa3 efbe fe94 1ebe
000000b0: 3607 023e c7fb 683e a60a bfbd 963c 3b3e
000000c0: 1a01 36bc c60e 963c dd23 00bd f590 ca3d
000000d0: b001 4ebe f6fd b8bd 9103 383d cf55 ec3d
000000e0: d464 4bbd 54fc a73b 9081 53be f790 4f3e
000000f0: 3cf7 983d 2fb1 21be d1ac 82be bd8e cebc
00000100: 1d86 6a3e 49f2 693e 43dd 453e 77c4 693d
00000110: 0a30 7b3e 2111 883e 8678 c9be 5f33 acbe
00000120: 97e3 4fbd f56e 173d 99ae 283e 98ad 39bd
00000130: 414b f9bd 5b40 a53d c320 4ebe 232a 4dbd
00000140: a681 0f3d 66f8 f9bd 83f6 c33d eae9 a6be
00000150: cf85 c83d 7a85 be3c 134c 2f3d ac5b 5d3d
00000160: 0982 30be c902 5c3e 803c 633e a799 203e
00000170: 0082 233e 9a7b f23c f37d 2fbc 7e17 b2be
00000180: bc80 84bc 617c babe 4b22 993c c901 6a3c
00000190: 732c 24bc 87b4 98bc 6ba5 633e 37d5 d03d
000001a0: dae7 7bbd e73a 1d3e 7b9f 78be 1d52 0a3e
000001b0: b476 193e 3f24 ccbe d8c8 bebd 3a75 dabc
000001c0: f111 bbbd 308d bb3d ccc8 19be 1526 f63d
000001d0: 7615 14be 5bcf 903c 95e0 81bd 6e3c 52be
000001e0: dc9a fcbd 2108 333c c6e0 583d 1a35 213e
000001f0: acb2 96bc 4bcf e2bd f548 553e 4f4c 943d
00000200: 126c 85be 8a21 37bd 2323 8fbd 03a3 58bd
00000210: 4e55 bf3c 146c 75be 310e b0be 22df e73d
00000220: 0baa 9ebd 823b e5bd 9014 923e c15f ecbd
00000230: a007 cbbd 8a7e 44be 470a 7b3e 2e3b 193c
00000240: a956 c73d 36d3 4dba 8133 313e 288f 54be
00000250: 8db7 253e 865c 18bc 221f 593d c2ad a23d
00000260: c95a 85be f2e5 01be 7a13 73bd ad71 843e
00000270: b8ef 653e 7e70 2cbd f490 113d 9b85 483e
00000280: d6a4 ebbd dfe1 58bc 35c2 6a3e 9c71 44be
00000290: 9f84 1d3d a8fb 153e 89e9 0c3d 5056 f9bd
000002a0: a8e0 523e 0d50 8abd b154 0e3e daf0 583e
000002b0: b45a a33d a402 d5be 37fe acbb eb89 643e
000002c0: eddd c33e e489 f8be 629e e2bd 101a 883e
000002d0: 8038 5d3b 2553 843d 02bb e2bd 23df 29be
000002e0: 824b fb3d a054 153e 5415 f33d d122 80be
000002f0: de5a 0e3d 95af 633c 982f 1d3e 700d 1fbd
00000300: 81a2 e5be 369b 5dbe d674 633d fc89 a1be
00000310: 7e8e 9fbd dce8 cfbd b7ba cd3d 2caf 44be
00000320: b26d 19bd 6986 b83d 1a50 7ebe 30ea 023e
00000330: f278 d93d 9df8 bebd 010d febd d610 f8bd
00000340: 899f b53d 1093 babe 1494 7b3e 2535 04bc
00000350: 9937 09bd b8c1 33be 03c8 3dbb bcbe e1bd
00000360: 2daf 843d c426 5dbe 0a29 2bbc 32c2 ea3c
00000370: 4b02 0f3e fa1f 00bd 29f3 43bd 0cdb 153e
00000380: 0adc a9be a2a3 10be dccf cfbd dc22 00be
00000390: 1713 1a3e d586 03bf 829d 4a3e bf9f 273d
000003a0: 8487 38be bc48 6b3d 6586 29be 1fd8 b1bd
000003b0: 2c31 293e 4b60 223d 7706 2ebe f1d3 7cbe
000003c0: 663f 6b3e bcd0 20be 60d7 00be 7dbc 803e
000003d0: a237 60bc b530 943e ec70 52bd 9603 89bd
000003e0: 2d69 05be ae7f 063e c98b 6dbd a824 913e
000003f0: d92b 8abc ba22 7e3e c173 033e 2f0b 55bd

network_body._body_endoder.seq_layers.2.bias f4 [256]
0.014116249 -0.009398696 0.0018827142 -0.014203389 0.023330728 0.014369383 -0.028260712 -0.0047474303
0.007094441 0.014408874 -0.013618742 -0.03095025 0.010562677 0.0066372515 -0.007708461 0.008615363
0.014426239 0.010211434 0.021891063 0.0011504203 0.014670099 0.0095179565 0.026304862 -0.013842172
0.011511646 -0.0010757882 -0.0054614604 0.007147583 0.001987915 -0.0018227786 -0.029313369 -0.0029024016
-0.0055558644 -0.004705503 0.000957418 0.0035691354 -0.011842363 -0.024706267 -0.013806292 -0.024997236
-0.0073015853 0.022940118 -0.003781209 -0.014215941 -0.007552159 0.022929534 -0.0058793635 0.012928147
0.003056148 0.019720292 -0.0060768602 0.0031127536 0.003726635 0.0071840403 0.0032678216 -0.0058506043
0.0045134667 0.018600369 -0.0039380793 -0.0036027478 -0.012734007 0.012375268 0.0058247778 0.019528266
0.012051849 0.01247373 0.003145584 0.01769609 0.006689951 -0.0065130973 -0.004268969 0.016409272
-0.0011485185 0.003375035 -0.00756308 -0.0019022616 0.0027044157 0.005517718 0.019935366 0.012886777
0.007286623 0.0278775 -0.0012521812 0.015343349 0.00868527 0.020585148 -0.021017117 -0.0094130915
-0.012451573 0.012403999 0.009558188 0.032027677 0.009955624 0.0055674943 -0.009737631 -0.008980716
-0.012849565 0.0006536231 0.0040936214 0.013856562 -0.024782268 -0.02000365 0.006565285 0.0037704583
0.0101855025 -0.023380775 -0.005171904 0.011502009 -0.018172251 -0.012028637 0.0016432966 0.0047155125
0.008965177 0.013366571 0.0023319898 0.015353602 -0.0029098715 0.010912407 0.0032085883 0.003245642
-0.014752896 -0.013323216 0.0066120424 0.0049192244 -0.00048019964 -0.00908563 0.013334847 0.00570432
0.022158314 0.0068881097 0.010625268 0.009212849 -0.006218101 0.010148135 0.028237302 0.013294585
0.020839741 0.00088772294 -0.0024770228 0.015148486 -0.010029015 -0.0068077585 0.009646675 -0.009683604
-0.018640997 0.00869532 0.0025012528 0.006637153 0.015729707 -0.007488218 0.004753931 0.02127189
-0.00781394 0.015524642 0.0045174058 0.0039747376 -0.0033313665 0.020870065 -0.006347584 0.009806228
-0.012454611 -0.0010334634 0.004454712 -0.008749542 -0.01815195 0.001812587 0.00692113 0.011920981
-0.0034044085 -0.0022974897 0.020295795 0.011334405 0.010364822 -0.007990317 0.0030197604 0.014755149
0.012917769 0.0043554534 0.0002807103 -0.002988573 0.007805821 -0.014026989 -0.021466153 0.00743981
-0.0017777852 0.004493807 -0.014444308 0.004846863 0.007833379 0.00028211158 0.011458706 0.008343128
-0.025053818 0.003678347 -0.0028552534 0.004912815 0.0027593726 -0.010703581 0.0028929198 0.0009224729
0.008485044 0.0011648146 0.0068648085 -0.008743844 0.0037403968 0.01604451 0.003954289 0.022288477
0.016585313 -0.005600853 -0.013176497 7.0111826e-05 -0.015789116 0.006204908 0.006636153 -0.03214598
-0.0013036465 -0.021301953 -0.0027834696 -0.008604846 0.0020020006 0.008630171 0.007901351 0.011021615
-0.00025452362 -0.01066257 0.012683435 0.003684466 0.011049876 0.021198569 0.005627611 -0.0025010817
0.0060001034 0.026005855 0.005049997 -0.014195845 0.011345894 -0.0043973555 0.002728306 -0.00049746933
0.0043239393 0.00035949936 0.0028640537 0.0022021383 0.010942795 0.009884235 -0.005136599 0.021558138
-0.0024481723 0.01038696 0.0071827774 0.00036939024 0.012035992 -0.009828558 0.020973 -0.012403812
00000000: d747 673c fdfc 19bc 68c5 f63a 55b5 68bc
00000010: 1520 bf3c 906d 6b3c 0283 e7bc 5590 9bbb
00000020: 7c78 e83b 3313 6c3c 2521 5fbc 618b fdbc
00000030: 140f 2d3c 4d7d d93b 4297 fcbb 7427 0d3c
00000040: 085c 6c3c dc4d 273c e354 b33c b3c9 963a
00000050: db5a 703c 34f1 1b3c 4b7d d73c 47ca 62bc
00000060: 589b 3c3c 7601 8dba 0df6 b2bb 4636 ea3b
00000070: ae47 023b 4dea eeba 9722 f0bc 3836 3ebb
00000080: f80d b6bb 9f30 9abb 3cfb 7a3a 28e8 693b
00000090: 7806 42bc cc64 cabc c933 62bc 01c7 ccbc
000000a0: 2342 efbb eaec bb3c 29ce 77bb fae9 68bc
000000b0: 1a78 f7bb b8d6 bb3c ada7 c0bb 94d0 533c
000000c0: a849 483b 738c a13c 6620 c7bb 57ff 4b3b
000000d0: 8f3a 743b 1968 eb3b f328 563b 6db6 bfbb
000000e0: b4e5 933b cd5f 983c 010b 81bb 141c 6cbb
000000f0: 4ca2 50bc a3c1 4a3c c7dd be3b bef9 9f3c
00000100: 1e75 453c 9e5e 4c3c 2426 4e3b 64f7 903c
00000110: 6037 db3b d26b d5bb b5e2 8bbb bd6c 863c
00000120: e389 96ba b12f 5d3b b7d3 f7bb 4f55 f9ba
00000130: 913c 313b f9cd b43b 7e4f a33c 0f23 533c
00000140: a0c4 ee3b 5b5f e43c 3b20 a4ba ac62 7b3c
00000150: aa4c 0e3c 2fa2 a83c 172c acbc 5e39 1abc
00000160: af01 4cbc 253a 4b3c f299 1c3c 742f 033d
00000170: ea1c 233c 876f b63b 968a 1fbc da23 13bc
00000180: fb86 52bc e757 2b3a c923 863b a206 633c
00000190: 2f04 cbbc b2de a3bc 9a21 d73b cb19 773b
000001a0: 18e1 263c 0a89 bfbc 1379 a9bb ec72 3c3c
000001b0: f9dd 94bc c313 45bc e263 d73a 9684 9a3b
000001c0: aee2 123c 76ff 5a3c 4cd4 183b ad8d 7b3c
000001d0: 8bb3 3ebb f4c9 323c 2e47 523b d6b4 543b
000001e0: 21b6 71bc 9e49 5abc d5a9 d83b 7231 a13b
000001f0: 4ec3 fbb9 e5db 14bc 677a 5a3c 4eeb ba3b
00000200: 5a85 b53c a7b5 e13b 9b15 2e3c 7df1 163c
00000210: 36c1 cbbb 5d44 263c ea51 e73c 88d1 593c
00000220: 1bb8 aa3c 14b6 683a 8c55 22bb 5b31 783c
00000230: bd50 24bc 9e13 dfbb 160d 1e3c fba7 1ebc
00000240: 01b5 98bc d176 0e3c 0fec 233b 7a7c d93b
00000250: 96db 803c ba5f f5bb ddc6 9b3b 6342 ae3c
00000260: 0a06 00bc 115b 7e3c bf06 943b 843e 823b
00000270: 0e53 5abb b3f7 aa3c 65ff cfbb 4daa 203c
00000280: 6d0e 4cbc 4775 87ba d5f8 913b 3d5a 0fbc
00000290: 66b3 94bc 5494 ed3a a6ca e23b 3850 433c
000002a0: 7f1c 5fbb 7b91 16bb 5e43 a63c f1b3 393c
000002b0: 37d1 293c d2e9 02bc 2ce7 453b 95bf 713c
000002c0: 0da5 533c 31b8 8e3b 4c2c 9339 efdb 43bb
000002d0: f9c7 ff3b 75d1 65bc c9d9 afbc a6c9 f33b
000002e0: 9304 e9ba c940 933b d2a7 6cbc 6fd2 9e3b
000002f0: 9357 003c 60e8 9339 4cbd 3b3c 9db1 083c
00000300: aa3d cdbc 6c10 713b 341f 3bbb aefb a03b
00000310: 97d6 343b 135e 2fbc 2497 3d3b 1cd2 713a
00000320: db04 0b3c b1ac 983a 30f2 e03b 5742 0fbc
00000330: 7221 753b c76f 833c fb92 813b 5396 b63c
00000340: ecdd 873c 5c87 b7bb 3ce2 57bc 0009 9338
00000350: 2d58 81bc 8a52 cb3b 1674 d93b 81ab 03bd
00000360: 1edf aaba 6f81 aebc df6a 36bb 57fb 0cbc
00000370: ff33 033b 9065 0d3c ab74 013c 0194 343c
00000380: 9571 85b9 0fb2 2ebc 2fce 4f3c 1577 713b
00000390: 8a0a 353c 9fa8 ad3c d367 b83b 30e9 23bb
000003a0: 849c c43b 3b0a d53c 727a a53b b195 68bc
000003b0: 21e4 393c b117 90bb 61cd 323b 9a68 02ba
000003c0: d5af 8d3b 307b bc39 d9b2 3b3b c051 103b
000003d0: 6949 333c 7df1 213c ea50 a8bb b19a b03c
000003e0: 8471 20bb 112e 2a3c 815d eb3b b8aa c139
000003f0: 9c32 453c f607 21bc 92cf ab3c 5c39 4bbc

network_body._body_endoder.seq_layers.2.weight f4 [256, 256]
0.08838664 -0.012839365 -0.067470394 -0.07705684 -0.006452232 -0.02103801 -0.037561297 -0.05745823
0.03355799 -0.03524947 0.029914545 0.05014828 0.05127405 -0.01919217 0.005980739 -0.05240288
0.08074913 -0.03883086 0.11723382 0.083254315 0.002612336 -0.06507845 0.0017556766 -0.08388623
-0.043421615 0.017736502 0.029212419 0.024644136 0.20637144 0.07567153 0.057375003 0.05702896
0.023209935 -0.024437997 -0.101509154 0.061929166 0.01288619 -0.03752158 0.026835203 0.089265496
-0.12848908 0.071391426 0.09477065 0.030390846 0.082568884 -0.08666954 0.1301751 0.007930451
-0.15506394 -0.03223324 0.01784184 -0.01337957 0.009225113 0.021624751 0.0071149464 0.015608471
-0.12825166 -0.13683504 -0.07603114 -0.101851046 0.06016984 0.028299218 0.07438902 -0.0548387
-0.014547402 0.07736678 0.021898456 -0.098672464 -0.05088634 0.07519401 0.03143803 0.02913284
-0.07162446 -0.05599516 0.042130843 -0.031551417 -0.017706346 -0.09374942 0.047765188 0.014381634
-0.1487684 0.056979258 -0.0020122116 0.027422534 0.0021938577 -0.028898478 0.0026375505 -0.052682128
0.066299625 -0.05169975 0.0008043169 -0.14436162 0.02568884 -0.117522255 0.09932553 0.010228775
-0.043006003 0.05644135 0.0073719737 0.09047083 -0.03727061 0.009759284 0.020250052 -0.0015482134
-0.055056408 -0.013727097 0.09143438 0.10317038 -0.061274882 0.08134818 -0.058971856 -0.0053286743
0.05990757 0.006135242 -0.00094540586 0.044562057 -0.0040470576 -0.03721057 0.06943343 0.1683165
-0.08459786 -0.029235724 0.024823021 -0.01674443 -0.036867686 0.030683586 0.06152659 0.055484757
0.02559484 -0.006513924 -0.048268158 -0.058801867 0.0248035 -0.04601009 -0.087046295 -0.030357607
-0.008404596 -0.038907625 0.065230064 0.08608644 -0.1095584 -0.053508643 -0.037277192 0.03755175
-0.019602306 0.0162296 -0.0005331346 -0.0019201324 -0.086955786 0.120472334 -0.09348914 -0.110469304
-0.049307138 -0.02142234 -0.04366691 0.034234982 0.16537662 0.035188522 -0.0458722 -0.0646792
-0.015639322 0.0455657 0.056399107 0.034232695 -0.1009166 -0.056834728 0.045033574 0.101677045
0.043229606 -0.07620915 -0.037101794 -0.05819449 0.01165754 0.059533957 -0.11767907 0.063263185
-0.030181102 0.03573918 0.06861468 0.059113618 -0.03955669 0.0059604216 -0.0106755905 0.024561409
0.031644724 -0.050997306 0.0026473582 0.00322498 0.070110634 -0.1452976 -0.012913187 0.029715164
0.013552876 -0.06669957 -0.012935112 -0.05671355 -0.0143334735 0.08198373 -0.017985212 -0.036437742
-0.07032755 -0.02095498 0.04018137 -0.11113816 0.05072005 -0.003759627 0.085495606 -0.10620838
0.023756836 -0.091471866 -0.010141166 -0.12604119 0.032277886 0.12664412 0.01821773 0.044478733
0.021962477 0.05320823 -0.04577194 -0.016596999 -0.039694123 0.046505053 -0.016145451 0.024221161
0.036343746 0.032327704 -0.09229316 -0.020833168 -0.096108496 0.013685109 -0.015098074 -0.08087157
-0.1380877 0.027789267 0.04095887 -0.08136676 0.0019285344 -0.07670773 -0.15128882 0.05791428
0.03320375 -0.05020927 -0.10556256 -0.028546747 -0.025152912 -0.057069458 -0.08650009 -0.03838417
-0.021140324 -0.025208218 0.09614308 -0.03550791 -0.12194817 -0.06785866 0.0023947442 -0.10441438
00000000: 0e04 b53d 335c 52bc eb2d 8abd facf 9dbd
00000010: 3f6d d3bb e857 acbc e0d9 19bd 5259 6bbd
00000020: 1a74 093d c061 10bd 590f f53c 4868 4d3d
00000030: bd04 523d e638 9dbc 13fa c33b 67a4 56bd
00000040: cd5f a53d 1c0d 1fbd 4918 f03d 3d81 aa3d
00000050: ba33 2b3b da47 85bd bb1e e63a 8bcc abbd
00000060: ddda 31bd 244c 913c e24e ef3c 80e2 c93c
00000070: 0953 533e adf9 9a3d 0d02 6b3d 3397 693d
00000080: c322 be3c 3232 c8bc 08e4 cfbd 70a9 7d3d
00000090: 9920 533c 3ab0 19bd 80d5 db3c d4d0 b63d
000000a0: a492 03be ab35 923d 1d17 c23d 39f6 f83c
000000b0: e019 a93d cd7f b1bd 9f4c 053e b9ee 013c
000000c0: 15c9 1ebe 0007 04bd 0d29 923c fc35 5bbc
000000d0: ee24 173c 6426 b13c 7f24 e93b acba 7f3c
000000e0: 6754 03be 7c1e 0cbe 37b6 9bbd 4897 d0bd
000000f0: a674 763d c3d3 e73c 4559 983d 8b9e 60bd
00000100: 3a58 6ebc 7972 9e3d 6464 b33c ca14 cabd
00000110: 326e 50bd 51ff 993d 2ac5 003d fea7 ee3c
00000120: d8af 92bd 2e5b 65bd 6491 2c3d 0f3c 01bd
00000130: e60c 91bc b2ff bfbd 6ea5 433d f2a0 6b3c
00000140: be56 18be 1563 693d 4fdf 03bb 39a5 e03c
00000150: d3c6 0f3b 80bc ecbc c1da 2c3b 37c9 57bd
00000160: 19c8 873d 1ec3 53bd cbd8 523a 88d3 13be
00000170: 6771 d23c 82af f0bd 2f6b cb3d 9896 273c
00000180: 1027 30bd 0c2f 673d 9990 f13b c548 b93d
00000190: 11a9 18bd 67e5 1f3c 70e3 a53c 6ced caba
000001a0: d482 61bd 9ee7 60bc f341 bb3d fe4a d33d
000001b0: 5ffb 7abd e099 a63d 798c 71bd 299c aebb
000001c0: a461 753d 240a c93b 1dd5 77ba b486 363d
000001d0: 2e9d 84bb 1c6a 18bd 1d33 8e3d 295b 2c3e
000001e0: a541 adbd c27f efbc a659 cb3c 9d2b 89bc
000001f0: 9202 17bd 255c fb3c 4e03 7c3d fc43 633d
00000200: 45ac d13c c172 d5bb d5b4 45bd 3ada 70bd
00000210: b630 cb3c 1375 3cbd 5445 b2bd 84b0 f8bc
00000220: 6eb3 09bc 9a5d 1fbd 5797 853d 164e b03d
00000230: 2860 e0bd e12b 5bbd f8af 18bd ddcf 193d
00000240: 0495 a0bc f0f3 843c 0fc2 0bba f4ac fbba
00000250: e015 b2bd 33ba f63d 3c77 bfbd bb3d e2bd
00000260: 48f6 49bd e77d afbc 13dc 32bd fb39 0c3d
00000270: 7d58 293e d721 103d 7de4 3bbd 8776 84bd
00000280: 091e 80bc 19a3 3a3d c002 673d 9537 0c3d
00000290: 5dad cebd 88cb 68bd 2075 383d 0e3c d03d
000002a0: 8711 313d 8b13 9cbd 0df8 17bd 585d 6ebd
000002b0: 44ff 3e3c e1d9 733d b901 f1bd 2190 813d
000002c0: 5c3e f7bc 3f63 123d da85 8c3d 1f21 723d
000002d0: 3206 22bd a44f c33b ace8 2ebc 0235 c93c
000002e0: e69d 013d 8de2 50bd 4d7f 2d3b 305a 533b
000002f0: 2a96 8f3d e5c8 14be d591 53bc 376d f33c
00000300: e20c 5e3c c999 88bd cbed 53bc 784c 68bd
00000310: f2d6 6abc 16e7 a73d b955 93bc be3f 15bd
00000320: e407 90bd c7a9 abbc 3895 243d 679c e3bd
00000330: d4bf 4f3d 1364 76bb 5218 af3d c783 d9bd
00000340: b29d c23c 9a55 bbbd 2227 26bc f110 01be
00000350: d135 043d ffae 013e 593d 953c 552f 363d
00000360: a7ea b33c dff0 593d 5c7b 3bbd 6ef6 87bc
00000370: 4e96 22bd 157c 3e3d 7743 84bc 756b c63c
00000380: 2edd 143d 0e6a 043d 3204 bdbd 52aa aabc
00000390: 88d4 c4bd 8237 603c ea5d 77bc fe9f a5bd
000003a0: dd66 0dbe 51a6 e33c 7dc4 273d 9ea3 a6bd
000003b0: e0c6 fc3a f118 9dbd 75eb 1abe 8637 6d3d
000003c0: a800 083d 3ca8 4dbd 2f31 d8bd deda e9bc
000003d0: 7b0d cebc aac1 69bd f626 b1bd b838 1dbd
000003e0: 792e adbc 7781 cebc aae6 c43d be70 11bd
000003f0: f6bf f9bd 7bf9 8abd 24f1 1c3b 35d7 d5bd
