results/Shooter/Shooter/Shooter-346251.pt (torch, 535055 bytes, 42 tensors)

network_body._body_endoder.seq_layers.0.weight f4 [128, 35]
0	0xbe9bd5bf	-0.30436513
1	0xbc34d86b	-0.011037926
2	0xbe5e5ed1	-0.21715857
3	0xbe98c0aa	-0.2983449
4	0x3e0cf818	0.13766515
5	0x3e3290b9	0.1743802
6	0x3de88238	0.11352962
7	0xbd39e8c7	-0.04538801
8	0xbd756bed	-0.05991738
9	0xbdf719fe	-0.120655045
10	0x3eb559c2	0.35420042
11	0x3da390cb	0.079866014
12	0x3e39e678	0.18154323
13	0x3ce108fe	0.027470108
14	0xbe56a0a4	-0.20959717
15	0x3e7fdd9a	0.24986878
16	0x3ed7c3f2	0.42141682
17	0xbcd6de03	-0.02622891
18	0xbd622c34	-0.055217937
19	0xbd1471ad	-0.036241222
20	0x3d55cf34	0.052199557
21	0xbea94d17	-0.33066627
22	0xbabbbe05	-0.0014323598
23	0x3d580611	0.05274016
24	0xbbe7dbaa	-0.0070757465
25	0xbdcff913	-0.10154929
26	0x3dd25eb0	0.102719665
27	0xbd664046	-0.05621364
28	0x3ebc536e	0.36782402
29	0x3cdcd47f	0.026956795
30	0x3e0ce8d4	0.13760692
31	0xbd555c42	-0.052089937
32	0x3ea48246	0.3213064
33	0x3e24f2f6	0.16108307
34	0xbed3259b	-0.41239628
35	0xbeb2074c	-0.34771192
36	0xbd5f45bb	-0.05450986
37	0x3e52fd8d	0.20604534
38	0x3dee81ff	0.116458885
39	0xbe37e9cb	-0.17960279
40	0xbd485812	-0.048912115
41	0xbd012ca9	-0.031536732
42	0x3a485167	0.00076415244
43	0xbd48af42	-0.048995264
44	0xbdf5e718	-0.12006968
45	0x3d60023e	0.05468964
46	0xbde23e27	-0.11047011
47	0x3e82e8ac	0.2556814
48	0xbdc41684	-0.09574607
49	0xbe31968b	-0.17342584
50	0xbd6acaf1	-0.057322446
51	0x3e8a79a3	0.27045926
52	0xbe68b4ea	-0.22725263
53	0xbebe6bea	-0.37191707
54	0xbdae3dd3	-0.08507886
55	0xbe1b4558	-0.15163171
56	0x3e9d3c67	0.30710146
57	0xbdf4f72d	-0.119612075
58	0x3d5b23ee	0.053501062
59	0x3e3ba1dd	0.18323465
60	0x3c23f22b	0.010006468
61	0x3ce92c0d	0.028463388
62	0x3e3e866c	0.18605965
63	0xbe5cfabd	-0.21580024
64	0x3dd7663a	0.10517545
65	0x3e2c8c40	0.16850376
66	0xbd8f0d03	-0.06984904
67	0x3d751d41	0.05984235
68	0x3caf8708	0.021426693
69	0xbd5c3ad1	-0.05376703
70	0xbe57bda1	-0.21068431
71	0xbe87ddee	-0.26536506
72	0xbe04908f	-0.1294577
73	0x3d71d789	0.05904344
74	0x3d93a2c7	0.07208782
75	0xbdcacb63	-0.09902074
76	0xbdd28e1d	-0.10281012
77	0x3e8ffc28	0.28122067
78	0xbeb7aa62	-0.3587218
79	0xbe9a1430	-0.30093527
80	0x3e2bde43	0.16784005
81	0x3bfc168d	0.007693118
82	0x3e61f629	0.22066559
83	0xbef62f6b	-0.48083052
84	0x3e088b01	0.13334276
85	0xbe5678cb	-0.20944516
86	0xbea35774	-0.3190266
87	0x3db7ba86	0.089711234
88	0x3d87d655	0.066326775
89	0x3e27dd38	0.16392982
90	0xbd2b9191	-0.04188687
91	0xbc06b5bb	-0.008222039
92	0xbe834e87	-0.2564585
93	0xbd1212c9	-0.035662446
94	0xbe21d396	-0.1580337
95	0xbe5c1cf0	-0.21495414
96	0x3d712ade	0.058878772
97	0xbdde39de	-0.10850881
98	0xbe1dec36	-0.15422139
99	0xbe1b585a	-0.15170422
100	0x3dac6a52	0.084187165
101	0xbe52658d	-0.20546551
102	0xbe688d48	-0.22710145
103	0x3e65d459	0.22444285
104	0x3e321ac3	0.17393021
105	0xbda1dfb7	-0.07903998
106	0xbd63360c	-0.055471465
107	0xbe18aad0	-0.1490891
108	0xbe2b6f94	-0.16741782
109	0x3d97643e	0.073921666
110	0x3bd1d178	0.0064031444
111	0x3df6c56c	0.12049374
112	0xbe249646	-0.1607295
113	0xbb05cd94	-0.0020416724
114	0xbd9202b9	-0.071294256
115	0xbe664d5c	-0.22490448
116	0x3c25b978	0.01011502
117	0x3dcb4f63	0.09927251
118	0xbe2bc0e9	-0.16772808
119	0xbc3c46ac	-0.011491459
120	0xbe78e608	-0.243065
121	0xbca3b4fe	-0.019983765
122	0x3ddbe95a	0.10737868
123	0x3d02715d	0.031846393
124	0xbe3d0f50	-0.18462873
125	0xbdb93573	-0.09043398
126	0xbe845086	-0.25842685
127	0xbe378f0a	-0.17925659
128	0x3c2317b4	0.009954382
129	0xbedf262f	-0.4358382
130	0x3c5a2a7a	0.013315791
131	0xbdb1c462	-0.08680035
132	0xbe513297	-0.20429455
133	0x3dd82e88	0.1055575
134	0x3d8b40b3	0.0679945
135	0xbe3acba9	-0.18241753
136	0x3d311b71	0.04323906
137	0x3c841f05	0.016128073
138	0x3dc7910e	0.09744464
139	0x3e385f66	0.18005142
140	0xbe04eaaf	-0.1298015
141	0xbdea4618	-0.114391506
142	0x3c38f652	0.011289196
143	0xbe818bec	-0.25302064
144	0x3e0d263d	0.13784118
145	0xba13559e	-0.0005620363
146	0x3ed948f2	0.42438465
147	0x3ce32d76	0.027731638
148	0xbd36c18e	-0.044618182
149	0x3d63bce3	0.05560006
150	0xbdb85987	-0.09001451
151	0x3e38458a	0.17995277
152	0x3ad89fa6	0.0016527071
153	0xbd661664	-0.056173697
154	0x3d7e8b1f	0.062144395
155	0xbb6a4cf6	-0.0035751439
156	0x3e4b1bdb	0.19834845
157	0xbb0cc0ac	-0.0021477146
158	0xbe12b788	-0.14327824
159	0xbe4dedcf	-0.20110248
160	0xbe2552bd	-0.16144843
161	0x3ed01090	0.40637636
162	0x3d2b4652	0.04181511
163	0x3de09339	0.109655805
164	0x3e4dabb8	0.20085037
165	0x3d87cddc	0.066310614
166	0xbdab7664	-0.083721906
167	0xbe8819b5	-0.26582113
168	0xbe0aaaaa	-0.13541666
169	0x3e5e2a97	0.21695934
170	0xbd5e5559	-0.054280613
171	0x3d84ab45	0.064779796
172	0xbe5955cc	-0.21224135
173	0x3e278a2b	0.163613
174	0x3df5213d	0.1196923
175	0x3d48edca	0.0490549
176	0xbd48ff07	-0.049071338
177	0x3dee1ece	0.11626969
178	0x3dae2544	0.085032016
179	0x3ecf71aa	0.40516406
180	0x3e0ec2d0	0.13941503
181	0xbdd89ee9	-0.10577185
182	0x3cb70207	0.022339834
183	0x3e59e6dc	0.21279472
184	0xbdc0ca45	-0.0941358
185	0x3e5cf041	0.21576025
186	0xbe468a57	-0.1938871
187	0xbdb7fd20	-0.08983827
188	0xbe97f97a	-0.29682523
189	0x3e80e8b4	0.25177538
190	0xbe7bfa7d	-0.24607272
191	0x3d892083	0.06695654
192	0xbe381843	-0.17978005
193	0xbd2791a9	-0.040910397
194	0xbdd4209a	-0.10357781
195	0x3ebb95a0	0.36637592
196	0x3e484eca	0.19561306
197	0x3e3014b8	0.17195404
198	0x3db1f00d	0.08688364
199	0x3e34dae7	0.1766163
200	0x3de91496	0.113808796
201	0xbe96e479	-0.29471186
202	0xbddd1590	-0.10795128
203	0x3d12d800	0.035850525
204	0x3d880677	0.06641858
205	0x3c9e6ac1	0.019338014
206	0x3d618d62	0.055066474
207	0x3db6e59c	0.08930513
208	0xbc7dc8a6	-0.015489733
209	0xbe9f6a13	-0.31135616
210	0xbe0088a6	-0.12552127
211	0x3e98ec74	0.298679
212	0x3e8063db	0.25076184
213	0xbe459dd2	-0.19298485
214	0xbb63cd82	-0.0034759943
215	0x3ce2851c	0.027651362
216	0x3e234149	0.15942873
217	0xbe62afe1	-0.22137405
218	0x3ea2eba6	0.3182041
219	0xbc865c45	-0.01640142
220	0x3e0e1356	0.13874564
221	0xbe2693b3	-0.1626728
222	0x3bdd01b5	0.0067445883
223	0xbe5f3102	-0.21796039
224	0x3d6a0524	0.05713381
225	0x3e46e9a8	0.1942507
226	0xbc821b56	-0.015882175
227	0x3e2f0f4f	0.17095684
228	0x3dece5b0	0.11567247
229	0x3e1e9008	0.15484631
230	0x3d456b68	0.048198134
231	0x3ca1846b	0.019716462
232	0x3dd623d8	0.104560554
233	0xbeb5b044	-0.35486042
234	0xbe1df249	-0.15424456
235	0xbda5be9e	-0.08092998
236	0xbdc98eb9	-0.09841675
237	0x3cb857dd	0.022502834
238	0x3de8853b	0.11353537
239	0x3e9c7de4	0.30564797
240	0xbe2201c8	-0.15820992
241	0x3bd11210	0.006380327
242	0xbdd4a37d	-0.103827454
243	0xbe90c96c	-0.28278673
244	0x3e1ad1eb	0.1511914
245	0xbe9a3d6c	-0.30124986
246	0x3ddcb97c	0.10777566
247	0x3d0a5125	0.03376879
248	0xbe62a2f2	-0.22132471
249	0xbe9412d7	-0.28920624
250	0xbca6ca36	-0.020360094
251	0xbcc56316	-0.0240951
252	0x3dff6043	0.12469532
253	0xbe7a29a2	-0.24429944
254	0x3e93d489	0.2887309
255	0x3e1a9dde	0.15099284

network_body._body_endoder.seq_layers.0.bias f4 [128]
0	0xbc296e3f	-0.010341226
1	0xbc3d59e4	-0.011557076
2	0xbd25d785	-0.04048874
3	0xbd16ee74	-0.0368485
4	0xbd0103c3	-0.031497728
5	0x3d3997f9	0.045310948
6	0xbd11d1d8	-0.035600513
7	0xbcf37d14	-0.029722728
8	0xbc2f4d78	-0.010699622
9	0xbc006380	-0.007836223
10	0x3d33d3aa	0.04390303
11	0xbdbfe2cc	-0.0936943
12	0xbc7e766a	-0.015531162
13	0xbd0c4186	-0.034242176
14	0xb9b7ea47	-0.0003507903
15	0xbb061170	-0.002045717
16	0xbcd2b661	-0.02572173
17	0xbd044f1c	-0.032302007
18	0x3c912ec7	0.0177225
19	0x3c5255a2	0.012837799
20	0x3ca83e71	0.020537587
21	0xbd1e869b	-0.03870259
22	0xbd354c74	-0.044262365
23	0xbd0b30ea	-0.033982195
24	0x3b6a7d6e	0.0035780328
25	0x3c13e8c8	0.009027667
26	0xbd0ca422	-0.034336217
27	0xbc23dc81	-0.010001303
28	0xba011246	-0.00049236824
29	0xbd72ab23	-0.05924524
30	0x3c1f2779	0.009714001
31	0xbcbbe64f	-0.022936968
32	0x3d947063	0.072479986
33	0xbd869c46	-0.065727755
34	0xbd959641	-0.07304049
35	0xbb8f41de	-0.0043718657
36	0xbc0f443c	-0.008744296
37	0xbbc3d11d	-0.005975856
38	0xbd1c2266	-0.038118742
39	0x3b5e44c2	0.0033915495
40	0xba5e3c41	-0.00084776065
41	0xbd29c7f9	-0.041450474
42	0x3c08995d	0.008337346
43	0x3c08a479	0.008339995
44	0x3ce45b00	0.027875423
45	0x3c6ac18f	0.0143283745
46	0x3cd350ce	0.025795367
47	0xbccb2773	-0.024799084
48	0xbdb88a33	-0.090107344
49	0xbb8c278f	-0.0042771767
50	0xbb92f348	-0.004484568
51	0xbd378466	-0.044804
52	0x3c9b1d42	0.01893485
53	0x3ba86c33	0.0051398515
54	0xbd437ba8	-0.04772535
55	0x39d65b1f	0.0004088515
56	0xbcee117a	-0.029061068
57	0x3cabb4b5	0.020960191
58	0xbbdae1ac	-0.006679734
59	0x3c91bcfe	0.017790314
60	0xbd134393	-0.035953116
61	0x3c5d519d	0.013508228
62	0x3d164d60	0.036694884
63	0xbd2b2e7e	-0.041792385
64	0xbdba976c	-0.09110913
65	0x3bf2bc9c	0.007407738
66	0xbbb6a764	-0.0055741537
67	0xbc084f28	-0.008319654
68	0x3bd6b049	0.0065517765
69	0xbd36d5e3	-0.044637572
70	0xbd906252	-0.07050003
71	0xbd900aaa	-0.07033284
72	0xbb837772	-0.0040120417
73	0x3cac6ff2	0.021049473
74	0x3d7ca1ae	0.061677627
75	0xbc7b1916	-0.015325805
76	0x3cb657a3	0.022258585
77	0xbc7e3a5d	-0.015516845
78	0x3b8f601c	0.004375471
79	0xbdb0634f	-0.086126916
80	0xbd446ec9	-0.047957215
81	0xbbc3456b	-0.005959203
82	0xbd092c1c	-0.03348933
83	0xbd0ce15d	-0.03439461
84	0xbdab27c1	-0.08357192
85	0x3b9f29b3	0.004857266
86	0xbca7f009	-0.0205002
87	0xbd06741c	-0.032825574
88	0xbcba7c21	-0.022764267
89	0xbd043662	-0.032278426
90	0xbda3359f	-0.07969212
91	0xbd7e3de4	-0.062070742
92	0x3cc327a8	0.02382262
93	0x3d1273a7	0.035754826
94	0x3ab1b89b	0.0013559045
95	0x3c61214f	0.013740852
96	0xbcfc8aa7	-0.030827833
97	0xbc4a2a29	-0.012339153
98	0xbd2a69ae	-0.04160469
99	0x3ce62c19	0.0280972
100	0xbd07fcbd	-0.033200014
101	0xbd5919e8	-0.05300322
102	0xbd1eb46a	-0.038746275
103	0x3c952ec9	0.018210785
104	0xbcabdfc0	-0.020980716
105	0xbd0d10ac	-0.034439728
106	0x3cdc80e4	0.026916929
107	0xbc79a5d0	-0.015237287
108	0xbd234f47	-0.039870527
109	0xbd3f2c44	-0.046673074
110	0x3d42c1d0	0.047548115
111	0xbd7b4865	-0.061348338
112	0xbd56a08d	-0.052399207
113	0xbd73ddb7	-0.059537616
114	0xbd38a29f	-0.045076963
115	0xbc32252f	-0.010873123
116	0xbcf0e393	-0.02940539
117	0xbb13c40b	-0.002254727
118	0xbd2fd678	-0.042929143
119	0x3cd779c1	0.026303174
120	0xbb25178a	-0.0025191032
121	0x3bf4ef23	0.0074747964
122	0xbd22e620	-0.039770246
123	0xbd3aa7e0	-0.045570254
124	0xbc33610e	-0.010948433
125	0xbc4ae3be	-0.0123833995
126	0xba33c234	-0.00068572466
127	0xbc92baba	-0.017911304

network_body._body_endoder.seq_layers.2.weight f4 [128, 128]
0	0xba198c1f	-0.00058573665
1	0xbe15b33e	-0.14619157
2	0x3e4ebd43	0.20189385
3	0xbe50ec77	-0.20402704
4	0x3b8ff973	0.0043937503
5	0xbdc6a5c2	-0.096995845
6	0xbd657fd0	-0.056030095
7	0xbda392f8	-0.079870164
8	0x3de99352	0.11405052
9	0xbda325f1	-0.07966221
10	0x3dd91067	0.105988316
11	0x3e1daa56	0.15397009
12	0xbd49ee0b	-0.04929928
13	0xbdf81282	-0.12112905
14	0xbdb4ea29	-0.08833725
15	0xbdc409ce	-0.095721826
16	0xbccde5ec	-0.02513405
17	0xbaf295de	-0.0018507799
18	0xbdc46811	-0.095901616
19	0x3d992524	0.07477787
20	0x3d3553e2	0.04426945
21	0xbe47b20d	-0.19501515
22	0xbe7f1b13	-0.24912672
23	0xbd390328	-0.045169026
24	0x3da76e19	0.08175296
25	0xbca92d70	-0.02065155
26	0x3d5ad881	0.05342913
27	0x3e33d6a4	0.17562348
28	0xbcf3b6a0	-0.029750168
29	0x3db1aff2	0.08676137
30	0x3dadad70	0.08480346
31	0x3dac8924	0.08424595
32	0x3dd32a33	0.10310783
33	0x3cb34a4e	0.021886017
34	0x3dc95737	0.09831088
35	0xbd70c95b	-0.058785778
36	0xbd6decdc	-0.058087215
37	0xbd988142	-0.07446529
38	0xbdfd94ec	-0.1238192
39	0x3d8c5512	0.068521634
40	0xbd635855	-0.055504162
41	0x3d3e07f6	0.04639431
42	0xbc898170	-0.016785353
43	0xbde8d165	-0.11368064
44	0xbacecbc4	-0.001577728
45	0xbdbfae09	-0.093593664
46	0xbdb84bec	-0.08998856
47	0x3d0ef23a	0.034898974
48	0x3d8c099e	0.06837772
49	0xbd894388	-0.06702334
50	0xbcf7848d	-0.030214572
51	0xbd51fdb3	-0.051267337
52	0xbbca69b5	-0.006177152
53	0xbd5a6ea4	-0.05332817
54	0xbe758468	-0.2397629
55	0x3ca358f7	0.019939883
56	0xbc7a1004	-0.0152626075
57	0xbe0f65b2	-0.14003637
58	0x3db7fe95	0.089841045
59	0x3d427598	0.047475427
60	0x3c265ef9	0.010154479
61	0x3dd8b0cc	0.10580596
62	0x3bb483d8	0.005508881
63	0xbd7bb73b	-0.06145404
64	0x3dd71153	0.10501351
65	0xbcd2696c	-0.025685035
66	0xbdb47a29	-0.08812363
67	0xbc365834	-0.011129428
68	0xbbfb8926	-0.0076762615
69	0x3daedbf3	0.08538046
70	0xbce5993d	-0.028027171
71	0xbe2b69fd	-0.1673965
72	0x3cd28507	0.025698198
73	0xbc17f3b6	-0.009274414
74	0x3d812e67	0.06307679
75	0x3d474b50	0.048655808
76	0x3d5da749	0.054114614
77	0x3da6443a	0.08118482
78	0xbe10391d	-0.14084287
79	0xbc1a1b1c	-0.009405877
80	0x3ddd64dd	0.10810254
81	0x3b35a177	0.0027714649
82	0x3e2a39d1	0.16623618
83	0x3e0ccf1e	0.13750884
84	0x3d6dbadf	0.058039542
85	0xbdacc783	-0.08436491
86	0x3c628153	0.013824779
87	0x3ddc9331	0.10770262
88	0x3cf563ef	0.029954879
89	0xbe530b23	-0.20609717
90	0xbc5b259b	-0.013375665
91	0x3d818d7c	0.06325814
92	0x3e431348	0.19050324
93	0x3cd412a9	0.025887804
94	0x3de77500	0.11301613
95	0xbd7aaa35	-0.06119748
96	0xbda14878	-0.078751504
97	0xbcf63b32	-0.030057523
98	0xbd45194b	-0.048119824
99	0x3dcb38d6	0.0992295
100	0x3e49f00f	0.19720481
101	0x3e607f1d	0.2192349
102	0x3e224061	0.15844871
103	0x3af44bb4	0.0018638284
104	0xbc1b2774	-0.009469856
105	0xbe03aca9	-0.12858833
106	0xbe427598	-0.18990171
107	0xbddcd74f	-0.10783254
108	0x3e1e63bc	0.15467733
109	0x3cc65f5d	0.024215395
110	0xbdb96daf	-0.090541236
111	0x3e0661ab	0.13123195
112	0xbd4445c4	-0.047918096
113	0xbcd1e001	-0.025619509
114	0x3d121bed	0.035671163
115	0xbd0baf7a	-0.034102894
116	0xbd08a5c3	-0.033361208
117	0x3dc6e902	0.097124115
118	0xbdff6d59	-0.12472028
119	0xbd3b241e	-0.04568874
120	0xbdf48b88	-0.11940676
121	0xbd2178a0	-0.039421678
122	0x3c0672a2	0.0082060415
123	0xbda18627	-0.07886916
124	0x3dbf2943	0.09334042
125	0x3d4dfd54	0.05029042
126	0xbd5c7563	-0.053822886
127	0xbdb4ebde	-0.088340506
128	0x3cfd336f	0.030908315
129	0xbc028bf0	-0.007967934
130	0xbdb265f8	-0.08710855
131	0x3daf926f	0.08572852
132	0x3bf5c328	0.007500071
133	0x3cb1e5ee	0.021716084
134	0x3c646561	0.013940186
135	0x3cfe95e8	0.03107734
136	0xbdd6cd90	-0.10488427
137	0x3ca59717	0.020213647
138	0xbcf28d25	-0.029608319
139	0xbd67ed76	-0.056622945
140	0xbcfe4f48	-0.031043664
141	0xbd8475ed	-0.06467805
142	0xbdecfcf6	-0.11571686
143	0x3d997f5f	0.07494997
144	0x3e342d5e	0.17595431
145	0x3d004616	0.03131684
146	0xbde949c0	-0.1139102
147	0x3d9b4529	0.07581551
148	0x3d9bd9e9	0.076099224
149	0x3ca9a324	0.020707674
150	0x3e242422	0.16029409
151	0xbd46a622	-0.04849828
152	0x3c09e226	0.008415734
153	0x3cdaab78	0.02669309
154	0x3cdd62e5	0.027024696
155	0x3d091844	0.033470407
156	0x3e31a4a9	0.17347969
157	0x3ca5dd5c	0.020247154
158	0xbe8ca18c	-0.27467
159	0x3d9eaf4a	0.077482775
160	0x3d296770	0.04135841
161	0x3d829128	0.063753426
162	0x3c42362d	0.011853737
163	0x3d55c927	0.052193787
164	0xbb048d73	-0.0020225912
165	0xbdaff938	-0.085924566
166	0x3e1046b9	0.14089479
167	0x3e007597	0.12544857
168	0x3e2098b7	0.15683256
169	0xbc8b9d94	-0.017042913
170	0x3a7e8060	0.00097084604
171	0xbd81948c	-0.06327161
172	0xb8d6b8aa	-0.000102387115
173	0xbc7f13d5	-0.015568693
174	0xbc888aab	-0.016667685
175	0xbd914811	-0.07093824
176	0x3dfd7d0d	0.12377367
177	0xbd3b5069	-0.045730982
178	0x3db7b749	0.08970506
179	0x3c6f4f42	0.014606299
180	0xbdb42e9f	-0.08797955
181	0x3b7146a8	0.0036815796
182	0x3e23b876	0.15988335
183	0xbd0856eb	-0.033286016
184	0xbddae849	-0.10688836
185	0x3d0cc4a3	0.034367215
186	0xbd96eead	-0.073697425
187	0xbddf928c	-0.109166235
188	0xbddfc02d	-0.109253265
189	0x3d896b50	0.06709921
190	0xbd7a4bd2	-0.061107464
191	0xbcf35a8e	-0.029706266
192	0x3a2700e8	0.00063706795
193	0xbd07c87e	-0.03315019
194	0xbe5579cf	-0.20847248
195	0x3ba54e43	0.00504473
196	0xbd7e77e2	-0.062126048
197	0xbd1e99f9	-0.03872106
198	0xbda50cac	-0.080590576
199	0xbdcfab89	-0.101401396
200	0x3e7079db	0.23483984
201	0xbc617b1e	-0.013762264
202	0x3d69759d	0.05699693
203	0xbe03cb94	-0.12870628
204	0xbc305cec	-0.010764342
205	0x3d9e38f6	0.07725708
206	0xbe13fa5b	-0.14450972
207	0x3dc41cf9	0.095758386
208	0xbd691797	-0.056907263
209	0x3b63d072	0.0034761694
210	0x3d89c78a	0.06727512
211	0x3d25acfb	0.04044817
212	0xbdbeb845	-0.093124904
213	0xbe177df3	-0.1479414
214	0xbe3d0307	-0.18458186
215	0xbe28df87	-0.16491519
216	0xbe244850	-0.1604321
217	0xbe7bb65a	-0.2458128
218	0x3df01000	0.11721802
219	0xbcb1e1f2	-0.021714184
220	0x3d7cbe61	0.061704997
221	0xbd4141c0	-0.047181845
222	0xbc84de07	-0.016219152
223	0x3c954882	0.018223051
224	0xbdeb0f06	-0.11477475
225	0x3dae3701	0.08506585
226	0x3e2268ce	0.15860292
227	0xbdb23419	-0.08701343
228	0xbd903207	-0.07040792
229	0x3d8039ba	0.062610105
230	0x3cdbc0d1	0.02682534
231	0xbcf553a8	-0.029947117
232	0x3d83e879	0.06440825
233	0xbe1552eb	-0.14582412
234	0x3d5fb619	0.05461702
235	0x3d1cb504	0.038258567
236	0xbc910478	-0.017702326
237	0xbdfc0b78	-0.12306875
238	0xbd5bddf4	-0.053678468
239	0xbe4d2aa8	-0.20035803
240	0xbd8177d5	-0.06321684
241	0xbe303d84	-0.17210966
242	0xbcb4e551	-0.022082003
243	0xbdaf5505	-0.08561138
244	0xbcc67a46	-0.024228226
245	0x3d8c2b60	0.068442106
246	0x3da22766	0.07917671
247	0x3d20a9b5	0.039224345
248	0x3d97f92b	0.07420572
249	0xbe041eb4	-0.12902337
250	0x3e28e366	0.16492996
251	0xbc9810b7	-0.018562658
252	0x3e0907ee	0.13381931
253	0x3d25a3ee	0.04043954
254	0xbe804e80	-0.2505989
255	0xbd1c98a0	-0.038231492

network_body._body_endoder.seq_layers.2.bias f4 [128]
0	0x3d4f8ef5	0.050673444
1	0x3ce9681b	0.028492024
2	0xbc9eb55d	-0.01937359
3	0x3aa989ff	0.0012934803
4	0xba1d0459	-0.00059897226
5	0xbcbc92c9	-0.023019211
6	0xbc0d6008	-0.008628853
7	0x3d4d2aba	0.050089575
8	0xbd0903f8	-0.03345105
9	0xbc882031	-0.016616913
10	0xbcf4c8e3	-0.029880947
11	0x3c8c03ea	0.01709171
12	0xbc4cb218	-0.012493633
13	0x3ca13d24	0.019682474
14	0x3c9c0a6e	0.019047942
15	0xbcc4fdbe	-0.024046775
16	0xbc0d62e5	-0.008629535
17	0x3c933a15	0.017972032
18	0xbb8351d5	-0.004007558
19	0x3cf69c48	0.030103818
20	0xbcfdaf11	-0.030967267
21	0xbd6ac49b	-0.057316404
22	0x3cfb90cc	0.030708693
23	0xbd5da1a1	-0.05410922
24	0x3cde1c16	0.027113002
25	0xbd0abccb	-0.033871453
26	0xbc04ae2d	-0.008098167
27	0x3b85c717	0.0040825712
28	0xbcfc31f7	-0.030785544
29	0xbd2fc98e	-0.042916827
30	0xbba167a9	-0.0049256873
31	0x3c3b2845	0.011423175
32	0xbc9c6c6d	-0.01909467
33	0x3c3e04b1	0.011597798
34	0x3b6333f1	0.003466841
35	0xbd10b30f	-0.035327014
36	0xbd4ffd6e	-0.0507788
37	0x3cb38221	0.021912636
38	0xbd1bb912	-0.038018294
39	0xbacede9a	-0.0015782893
40	0xbca9d310	-0.020730525
41	0xbce69050	-0.028144985
42	0x3d42a09f	0.04751646
43	0xbd847dee	-0.06469332
44	0xbc95ab71	-0.018270226
45	0x3c676604	0.0141234435
46	0x3cadce1f	0.02121645
47	0x3d27cfd2	0.040969677
48	0x3d138909	0.03601936
49	0xbbb1cc02	-0.005425931
50	0xbbd8a28e	-0.006611175
51	0x3c16718f	0.009182348
52	0xbd6dc753	-0.05805142
53	0x3cefe929	0.029285984
54	0xbd59f3de	-0.053211085
55	0x3c2515d1	0.010076002
56	0xbcb267c8	-0.021778002
57	0xbca40b89	-0.020025032
58	0xbd61626e	-0.05502551
59	0xbbdb8dd1	-0.0067002554
60	0x3d8f55e5	0.06998805
61	0xbda4d75a	-0.080488876
62	0x3cad72d9	0.021172928
63	0xbdaaf682	-0.08347799
64	0xbd0e503c	-0.034744486
65	0xbd14e03f	-0.03634667
66	0xbd5dfdaf	-0.05419701
67	0xbcb6995d	-0.022289926
68	0xbd5de0b4	-0.05416937
69	0xbae1093a	-0.0017168887
70	0xbd42cdd9	-0.047559593
71	0xbd68a3ef	-0.056796964
72	0x3ccbea95	0.02489213
73	0x3b04d5a1	0.0020268934
74	0x3be72edd	0.007055147
75	0xbd0e862e	-0.034795932
76	0xbd198f48	-0.03749016
77	0xbd1432f3	-0.0361814
78	0xbb028e5f	-0.0019921286
79	0xbd3ab958	-0.045586914
80	0x3ce9e471	0.028551312
81	0xbd24a2ec	-0.040194437
82	0x3c1e5302	0.009663345
83	0xbb3d6c27	-0.0028903575
84	0xbdb1eef0	-0.08688152
85	0x3c831abe	0.016003963
86	0x3d313e30	0.043272197
87	0xbca6d95e	-0.02036732
88	0xbd1b6c01	-0.037944797
89	0xbd027314	-0.03184803
90	0x3d277e45	0.040891904
91	0x3be8af5b	0.007100982
92	0xbcb46b66	-0.022023868
93	0x3d05de0b	0.03268246
94	0xbcc1e66d	-0.023669446
95	0xbccf3323	-0.025292939
96	0x3c6442a9	0.013931909
97	0xbd3a5daf	-0.0454995
98	0x3d490511	0.049077097
99	0x3bbddec6	0.005794379
100	0xbc116369	-0.008873799
101	0xbd2b01f3	-0.041749906
102	0xbba69135	-0.005083228
103	0x3cfcd61e	0.030863818
104	0xbd20d062	-0.03926123
105	0xbc99742f	-0.018732158
106	0xbd0f8dd6	-0.035047375
107	0xbc9b88cc	-0.018986128
108	0x3c2ec93d	0.010668096
109	0xbc7d7b06	-0.015471226
110	0x3d0b4eef	0.034010824
111	0x3d9c16f6	0.07621567
112	0xbd6e6eab	-0.05821101
113	0xbc3cffe8	-0.011535622
114	0x3a3bba32	0.0007161229
115	0x3bb4b8b8	0.0055151843
116	0xbbcb82d8	-0.006210666
117	0xbb493882	-0.0030703847
118	0x3bdcaf21	0.006734744
119	0xbd626a15	-0.05527695
120	0x3d791b40	0.060817003
121	0xbd86cc56	-0.06581943
122	0xbc73078a	-0.01483334
123	0x3bf5b90f	0.0074988673
124	0xbbc7c473	-0.0060964166
125	0xbb808b3e	-0.003922849
126	0x3c95cea3	0.018287009
127	0xbd56c55d	-0.052434314

action_model._continuous_distribution.log_sigma f4 [1, 3]
0	0x3f9ad65b	1.2096666
1	0x3f747c9f	0.95502657
2	0x3f05c767	0.5225739

action_model._continuous_distribution.mu.weight f4 [3, 128]
0	0xbd321603	-0.043478023
1	0x3c9cb384	0.019128568
2	0xbd4ad1ac	-0.049516365
3	0xbd0656f4	-0.03279777
4	0xb72dcbe9	-1.035908e-05
5	0xbd50ec62	-0.051006682
6	0xbc6ca168	-0.014442779
7	0xbd342430	-0.043979824
8	0xbc17ec9f	-0.009272723
9	0xbd2b1c9e	-0.04177534
10	0xbcad4392	-0.021150384
11	0xbd4d4f52	-0.050124474
12	0x3cc99ff5	0.024612406
13	0xbd1dad54	-0.038495377
14	0x3d74af02	0.059737213
15	0xbca1caad	-0.019749964
16	0x3c9d700e	0.01921847
17	0xbd2d904b	-0.042373937
18	0xbd1d8806	-0.0384598
19	0xbd917e1b	-0.07104131
20	0xbc78c160	-0.015182823
21	0x3d92ddec	0.071712345
22	0xbcb6f718	-0.02233462
23	0x3cd3f94e	0.025875714
24	0xbd3e754b	-0.046498578
25	0x3d8a7df5	0.06762306
26	0x3cde5010	0.027137786
27	0xbc9cf285	-0.019158611
28	0xbd1e2b7c	-0.03861569
29	0xbca5e188	-0.020249143
30	0xbda3b914	-0.07994285
31	0x3ac0e36f	0.0014716218
32	0xbce06af2	-0.027394745
33	0x3d9feff0	0.07809436
34	0xbdb12642	-0.08649875
35	0xbc8a3d8e	-0.016875055
36	0x3c39fd78	0.011351936
37	0xbc94b985	-0.018154869
38	0x3d015da9	0.031583462
39	0xbc520a56	-0.012819847
40	0x3ce829f2	0.028340314
41	0xbd310f29	-0.04322735
42	0xbb9602b8	-0.004577961
43	0x3cc01c78	0.023451075
44	0xbbceb43c	-0.0063081067
45	0xbd1304a1	-0.035893086
46	0x3d3723f8	0.044712037
47	0x3c58d7fd	0.013235089
48	0xbc3a77fb	-0.011381145
49	0xbd183d13	-0.03716762
50	0xbd917955	-0.071032204
51	0xbc29e6a4	-0.01036993
52	0x3d88352e	0.06650768
53	0xbc1d0a65	-0.009584998
54	0x3c86773c	0.016414277
55	0xbd4e9520	-0.050435185
56	0xbd2c2931	-0.04203147
57	0xbb8c7448	-0.0042863227
58	0x3c8b20a3	0.016983336
59	0x3c57a84e	0.013162686
60	0xbc9079e8	-0.017636254
61	0xba06dd00	-0.0005144626
62	0xbd548d81	-0.05189276
63	0x3d37dfb2	0.044891067
64	0x3c825627	0.015910221
65	0xb7adee29	-2.0734109e-05
66	0xbd943849	-0.07237298
67	0x3caebac9	0.0213293
68	0xbd8305ae	-0.06397568
69	0xbcc77c69	-0.024351316
70	0xbc1ff243	-0.00976235
71	0x3c6abcc9	0.014327236
72	0xbd5787ac	-0.05261962
73	0xbd204bcf	-0.039134797
74	0xbcdd6007	-0.027023328
75	0x3d8bbe4d	0.06823406
76	0xbb1f7b38	-0.0024334919
77	0xbb1d90ad	-0.0024042532
78	0xbd6821dd	-0.05667292
79	0x3cd1a5e6	0.025591802
80	0x3cc0874b	0.023502013
81	0xbd8e8c81	-0.06960393
82	0xbb70ac76	-0.0036723888
83	0xbca06664	-0.019580074
84	0xbc27af29	-0.0102346325
85	0xbd7c541b	-0.061603647
86	0x3cf2dd0e	0.029646423
87	0x3d1ca738	0.03824541
88	0x3b9e7fac	0.004836997
89	0xbd1b991d	-0.037987817
90	0xbd2d2d29	-0.042279396
91	0xbc6f5070	-0.01460658
92	0xbc8de05f	-0.017318903
93	0xbd9b5426	-0.075844094
94	0x3c7c38d9	0.015394413
95	0x3bfd8e9a	0.0077379467
96	0x3b85fc46	0.004088911
97	0xbc17c5b7	-0.0092634475
98	0xbd0a7cf9	-0.03381059
99	0xbd062edc	-0.032759532
100	0xbc8e7c10	-0.017393142
101	0xbc920e2f	-0.017829029
102	0xbd515b0d	-0.051112223
103	0xbd3fee4b	-0.046858113
104	0x3cda80a2	0.026672665
105	0xbc538c48	-0.012911864
106	0x3ccef832	0.025264833
107	0xba85786d	-0.0010182984
108	0xbe063796	-0.13107142
109	0xbc910f62	-0.01770753
110	0xbd1bc7c6	-0.038032316
111	0x3d57db5b	0.052699428
112	0xbd4e2293	-0.05032594
113	0xbd5b5e3b	-0.053556662
114	0x3d91f590	0.071269155
115	0xbc205717	-0.009786389
116	0xbd30b8fc	-0.043145165
117	0xbcbb45dc	-0.02286046
118	0xbd901620	-0.0703547
119	0x3bbb2cbf	0.0057121213
120	0x3d23a4f9	0.039952252
121	0x3cafe8e2	0.021473352
122	0x3b471ac7	0.003038095
123	0xbc9771f2	-0.01848695
124	0xbca6b9ab	-0.020352205
125	0xbd11665c	-0.035498008
126	0xbd4c1938	-0.049828738
127	0x3d3731e9	0.044725332
128	0xbd232370	-0.039828718
129	0x3c140d2c	0.009036344
130	0x3c655b29	0.013998785
131	0x3d27acf3	0.04093642
132	0xbbec246d	-0.0072064907
133	0xbac42090	-0.0014963318
134	0xbc82ce80	-0.015967607
135	0x3ddf3d24	0.109003335
136	0x3b495035	0.0030717973
137	0xbc2382f3	-0.009979951
138	0x3cd3c7c4	0.025852092
139	0x3d5e36da	0.05425153
140	0xbcea222c	-0.028580748
141	0x3cb57440	0.022150159
142	0xbc3b1ce7	-0.011420465
143	0xbbdb943a	-0.0067010196
144	0x3cdd7e0e	0.027037647
145	0x3d2df116	0.042466246
146	0x3b849144	0.0040456373
147	0x3cff6886	0.03117777
148	0x3bacbff4	0.005271906
149	0x3a06cd5d	0.0005142296
150	0xbcc504b3	-0.024050092
151	0x3cb39040	0.02191937
152	0x3d8187c8	0.06324726
153	0x3d4a41e3	0.04937924
154	0x3c6a4243	0.014298025
155	0x3a467dee	0.00075718656
156	0xbc309064	-0.010776613
157	0x3c5c07e3	0.013429615
158	0xbb90779e	-0.0044087907
159	0xbd1ac93d	-0.037789572
160	0x3d0f6231	0.035005752
161	0xbd489933	-0.048974227
162	0xbcf91e6e	-0.030410018
163	0xbce513d6	-0.02796356
164	0xbc1b37e1	-0.009473772
165	0x3d055e98	0.032560915
166	0x3d1e6032	0.038665958
167	0x3d1fcdaf	0.039014515
168	0x3d359e2a	0.04434029
169	0xbc898d98	-0.01679115
170	0xbc938ded	-0.018012011
171	0x3c7383c8	0.014862962
172	0x3c4b704c	0.01241691
173	0x3c4b1288	0.012394555
174	0xbd9570fe	-0.07296942
175	0xbd22ff56	-0.03979429
176	0x3d778710	0.06043154
177	0x3d1df285	0.038561363
178	0xbd0b67ed	-0.03403466
179	0x3cc71e0b	0.024306318
180	0x3c12a31b	0.00895002
181	0xbd581de0	-0.052762866
182	0x3c48a639	0.012246662
183	0xbd80b8cb	-0.062852465
184	0xbd0eeda9	-0.03489462
185	0x3cd4bde8	0.02596946
186	0xbbaecaa3	-0.005334215
187	0x3d7d6d30	0.061871707
188	0xbcb1d4a1	-0.021707835
189	0x3cc3ddfd	0.023909563
190	0xbc84ed62	-0.016226474
191	0x3d4de4f4	0.050267175
192	0xbc5bfdc9	-0.013427206
193	0xbd05755f	-0.032582637
194	0xbc1e833a	-0.009674842
195	0xbcf27322	-0.029595915
196	0x3c1e1633	0.009648847
197	0x3d09e22e	0.033662967
198	0x39f1988e	0.00046080764
199	0xbcfc39c8	-0.030789271
200	0x3cf66c93	0.03008107
201	0x39dc91f7	0.00042070422
202	0xbd9dcf99	-0.07705612
203	0x3c061a91	0.008185045
204	0xbd241e98	-0.04006824
205	0xbd23b52e	-0.03996771
206	0xbcea4eae	-0.02860197
207	0x3d0f6a8f	0.03501373
208	0xbd8f4693	-0.06995883
209	0xbcc47144	-0.02397979
210	0x3d14e55e	0.036351554
211	0xbcbb1fc3	-0.022842294
212	0x3ce5369c	0.027980141
213	0x3d51c428	0.05121246
214	0xbca6c341	-0.020356776
215	0xbd2b15f6	-0.04176899
216	0x3c980399	0.018556403
217	0x3c0662ac	0.008202236
218	0x3c812ffa	0.015769947
219	0xbd1bb139	-0.03801081
220	0xbc6fb8f5	-0.0146315
221	0x3c6f4b74	0.014605392
222	0x3c0a3e36	0.008437684
223	0xbbc22124	-0.005924361
224	0xbcaa3ed8	-0.02078192
225	0x3d42c865	0.047554392
226	0xbe03356b	-0.12813346
227	0x3d1830b2	0.037155814
228	0x3c8cefc6	0.017204177
229	0x3c3794fd	0.011204955
230	0x3ce54be5	0.02799029
231	0xbcc8af82	-0.024497751
232	0x3d38075b	0.04492889
233	0xbb7dd9e8	-0.0038734619
234	0x3bcf5706	0.0063275127
235	0xbccd7ebc	-0.025084846
236	0x3c8afa2b	0.016964993
237	0x3d212db0	0.03935021
238	0x3d662dff	0.05619621
239	0xbc973996	-0.018460076
240	0x3c0c918e	0.008579625
241	0x3c9440da	0.01809733
242	0xbd7c8300	-0.06164837
243	0x3dae8451	0.08521331
244	0x3c5e9fe6	0.013587927
245	0xbd2dce1f	-0.0424329
246	0xbcba2677	-0.02272342
247	0x3bfe5703	0.0077618374
248	0x3d23be99	0.03997669
249	0x3d196aec	0.037455484
250	0x3c9a0b03	0.018804079
251	0x3b2fb38e	0.0026809904
252	0x3d2f60ae	0.04281681
253	0x3c02cff4	0.00798415
254	0x3cf7a5ed	0.030230487
255	0x3d01fd74	0.031735852

action_model._continuous_distribution.mu.bias f4 [3]
0	0xbcee7286	-0.029107343
1	0x3d17c3e8	0.037052065
2	0x3ce884ee	0.028383698

action_model._discrete_distribution.branches.0.weight f4 [2, 128]
0	0xbd9f58a9	-0.077805825
1	0x3cd4535f	0.02591866
2	0xbd05cd89	-0.032666717
3	0xbcbd54cb	-0.023111722
4	0xbc67e4dd	-0.014153686
5	0xbd255a1e	-0.040369146
6	0x3d00d9e6	0.031457804
7	0xbb8cd80d	-0.004298216
8	0x3cc1915b	0.023628881
9	0xbce93541	-0.028467776
10	0x3d4eae27	0.050459053
11	0x3d08b84f	0.033378895
12	0x3d3daecf	0.04630929
13	0xbcd53892	-0.026027951
14	0x3d0e50ea	0.034745134
15	0xbc5d8057	-0.013519368
16	0x3cdeeacb	0.027211567
17	0x3ab03e1f	0.0013446248
18	0x3db05aa9	0.08611042
19	0x3c56b57f	0.0131047955
20	0xbbbc68bb	-0.0057497895
21	0x3d358797	0.04431876
22	0x3d0ad6c5	0.033896226
23	0x3d8d17a1	0.068892725
24	0xbc431b93	-0.01190843
25	0x3d7bda5f	0.06148755
26	0xbd576ca1	-0.05259383
27	0xbd2e9c56	-0.042629562
28	0xbb4a2342	-0.003084377
29	0x3d1e6710	0.038672507
30	0xbd5d6bc7	-0.054057863
31	0x3cabc76e	0.020969119
32	0xbb57004b	-0.003280657
33	0xbb95f59f	-0.0045763995
34	0x3c13b341	0.009014905
35	0xbb83184e	-0.0040007
36	0x3d3cb032	0.04606647
37	0x3da44709	0.080213614
38	0x3d881370	0.066443324
39	0xbd19f044	-0.03758265
40	0xbacab30b	-0.0015464736
41	0xbc226c6e	-0.009913547
42	0x3d9270e4	0.071504384
43	0x3d829e99	0.06377906
44	0xbb64f035	-0.0034933214
45	0x3d1691a1	0.036759976
46	0xbc2e860c	-0.010652076
47	0x3d813dd2	0.063106194
48	0xbce3fa22	-0.027829234
49	0x3b1f912a	0.0024348
50	0xbcc0ae8c	-0.02352073
51	0xbc72212c	-0.014778417
52	0xbc93a047	-0.018020762
53	0xbd5221d8	-0.051301807
54	0x3d3189ae	0.043344192
55	0xbd45d73e	-0.048300974
56	0x3cbf8948	0.02338089
57	0x3c32cb11	0.010912673
58	0x3d88bcc1	0.06676627
59	0xbd8ab123	-0.067720674
60	0xbbe31633	-0.0069301366
61	0x3d49e59c	0.04929124
62	0xbc9e5887	-0.019329323
63	0xbd214a55	-0.03937753
64	0x3cb247c9	0.021762745
65	0x3d2c8927	0.042122986
66	0xbc8f4897	-0.017490668
67	0xbd8af030	-0.067840934
68	0x3c126ca4	0.008937035
69	0xbcc5595c	-0.024090461
70	0x3d60974d	0.05483179
71	0x3c4e4554	0.012589771
72	0xbd0448c3	-0.032295953
73	0x3d42be77	0.047544923
74	0x3c6c819e	0.0144352
75	0x3d36c980	0.04462576
76	0xbd85e23a	-0.0653729
77	0xbcb5b190	-0.022179395
78	0xbbdd53de	-0.0067543825
79	0x3b7ff863	0.0039057962
80	0x3d254cd0	0.040356457
81	0x3cfbc4a0	0.030733407
82	0xbd065cfe	-0.032803528
83	0x3d04e261	0.032442454
84	0xbcb35cf9	-0.021894919
85	0xbc84cd22	-0.016211096
86	0x3d71b2f5	0.059008557
87	0x3d0d9fb8	0.034576148
88	0x3ca60585	0.020266304
89	0x3c0e8f9a	0.0087012295
90	0x3d0347ec	0.032051012
91	0x3d4f60fe	0.05062961
92	0xbbcf7ce0	-0.006332025
93	0xbc84c3f1	-0.016206713
94	0xbd1c511b	-0.038163286
95	0xbc45755c	-0.012051906
96	0x3db25048	0.08706719
97	0xbbdbb2f8	-0.0067046843
98	0x3d0d81e3	0.034547698
99	0xbc89d37a	-0.016824473
100	0xbd6d9ae2	-0.058009036
101	0x3c8d7836	0.017269235
102	0x3a9fb987	0.0012186029
103	0x3d4d11ce	0.050065808
104	0x3de42e07	0.111415915
105	0x3d332c49	0.043743405
106	0xbaa56693	-0.001261907
107	0x3d94b396	0.07260816
108	0x3c61ddf4	0.013785828
109	0x3bae36e2	0.005316601
110	0xbd21c279	-0.039492104
111	0x3c372bd6	0.011179885
112	0x3cf7cb35	0.030248264
113	0xbbb8b4fa	-0.0056368085
114	0xbc130085	-0.008972292
115	0xbcdf623a	-0.027268518
116	0x3bde450a	0.0067831324
117	0x3c40a55a	0.011758173
118	0x3cc31f1b	0.023818543
119	0x3cc5c2ba	0.024140704
120	0x3cb5fb0a	0.022214431
121	0x3d5ff21c	0.054674253
122	0xbbdecc11	-0.006799229
123	0xbc8a26a3	-0.016864127
124	0xbbdf401d	-0.006813063
125	0xbc298c32	-0.010348367
126	0x3b7c591b	0.003850526
127	0x3cca5d16	0.02470259
128	0x3db9f788	0.09080416
129	0xbd148842	-0.036262758
130	0x3cd59469	0.026071744
131	0x3d3f113f	0.046647307
132	0x3bc340d5	0.0059586563
133	0x3d223985	0.039605636
134	0xbc7448df	-0.014909952
135	0xbc2421fa	-0.010017866
136	0xbc983d7d	-0.018584007
137	0x3d21e75e	0.03952729
138	0xbce81292	-0.028329168
139	0xbd0a8a30	-0.033823192
140	0xbd5b1190	-0.053483546
141	0x3d136a5b	0.0359901
142	0xbd118710	-0.035529196
143	0x3c048c0d	0.008090031
144	0xbcf8168e	-0.030284192
145	0x3b5b785d	0.003348849
146	0xbdafc1f7	-0.08581918
147	0xbc81c576	-0.015841227
148	0x3ce329ba	0.027729858
149	0xbd482593	-0.04886396
150	0xbccd915a	-0.025093723
151	0xbda593e2	-0.08084847
152	0xbc58c6af	-0.013230964
153	0xbd7ca646	-0.06168201
154	0x3d2d871c	0.04236518
155	0x3d48a1e8	0.04898253
156	0x3c508dba	0.012729103
157	0xbcebad39	-0.028769122
158	0x3d6f4db3	0.05842371
159	0xbccbb8d8	-0.024868414
160	0x3ca94689	0.020663517
161	0x3b8d678a	0.0043153213
162	0xbc727228	-0.014797725
163	0x3bc480ec	0.005996814
164	0xbd208cfe	-0.03919696
165	0xbd90ee38	-0.070766866
166	0xbd8c86d2	-0.068616524
167	0x3d02dd5f	0.031949397
168	0xba632438	-0.000866476
169	0x3c304e78	0.010760896
170	0xbd7ca4f3	-0.061680745
171	0xbd8bdb2a	-0.068289116
172	0x3a7be5a3	0.00096091087
173	0xbd125965	-0.035729785
174	0x3bec21a0	0.007206157
175	0xbda30cba	-0.07961412
176	0x3cc7a0f4	0.02436874
177	0xbc0e78b0	-0.008695766
178	0x3ca5508b	0.020180007
179	0x3c476223	0.012169394
180	0x3cef148f	0.029184608
181	0x3d6b5839	0.057457183
182	0xbd49c5ab	-0.049260776
183	0x3d34a4b9	0.044102404
184	0xbcb02e2a	-0.021506388
185	0xbd002259	-0.031282756
186	0xbd70cd11	-0.058789317
187	0x3d6a6444	0.057224527
188	0xbc846630	-0.016162008
189	0xbd23a24d	-0.039949704
190	0x3bbc3d82	0.005744637
191	0x3d34cd2f	0.04414099
192	0xbced5941	-0.028973224
193	0xbd572384	-0.052524105
194	0x3d204bdc	0.039134845
195	0x3d631f90	0.055450022
196	0xbc0bf9bf	-0.008543431
197	0x3cc081ca	0.023499388
198	0xbd16c7da	-0.036811687
199	0xbd00e1be	-0.031465285
200	0x3cde6344	0.027146943
201	0xbd060a9f	-0.032724973
202	0xbc9f2f8b	-0.01943185
203	0xbd6c0511	-0.05762202
204	0x3d2b844e	0.041874222
205	0x3b1a805b	0.002357504
206	0x3c55a056	0.013038715
207	0xbca39366	-0.019967746
208	0xbd4ba004	-0.04971315
209	0xbd097837	-0.03356191
210	0x3c02cb34	0.007983018
211	0xbd2b9ed8	-0.041899532
212	0x3c365f1e	0.011131076
213	0x3ca2803f	0.019836543
214	0xbd40cdf5	-0.047071416
215	0xbd267384	-0.040637508
216	0xbbf93525	-0.0076052123
217	0x3cce6a1b	0.02519708
218	0xbc797c4f	-0.015227391
219	0xbd36d791	-0.044639174
220	0x3ca77bd5	0.02044479
221	0x3d14689c	0.036232576
222	0x3d7252f1	0.05916113
223	0xbb81e710	-0.0039643124
224	0xbdbc4c91	-0.091942914
225	0xbc87f09e	-0.016594227
226	0xbd393894	-0.045219973
227	0x3c9fbca9	0.01949914
228	0x3d87a23f	0.06622743
229	0xbc6147c9	-0.013750025
230	0x3b9bc464	0.004753636
231	0xbd913e59	-0.0709197
232	0xbdf334c6	-0.118753
233	0xbd4212a8	-0.047381073
234	0x3c204afd	0.009783504
235	0xbda3b27d	-0.07993028
236	0xbcae4c98	-0.021276757
237	0xb9e4233a	-0.00043513795
238	0x3cd00498	0.025392815
239	0xbcb79bbc	-0.022413127
240	0xbd114569	-0.035466585
241	0x3c0796c7	0.008275694
242	0x3c8c79bd	0.017147893
243	0x3d03c945	0.032174367
244	0x3b7e1eef	0.0038775762
245	0x3b11f913	0.0022273704
246	0xbc352a05	-0.0110573815
247	0xbcc9a979	-0.024616944
248	0xbd2c4f8d	-0.042068053
249	0xbd725a4f	-0.059168156
250	0x3b79e345	0.0038129848
251	0x3cbf60c1	0.023361566
252	0x3bbf8175	0.00584429
253	0xbc35f0aa	-0.011104742
254	0xbb690285	-0.003555448
255	0xbd244e42	-0.040113695

action_model._discrete_distribution.branches.0.bias f4 [2]
0	0xbd8adebb	-0.06780764
1	0x3d8adee3	0.067807935

exp_avg f4 [128, 35]
0	0xbae0d4ce	-0.0017153264
1	0xb6ccdd11	-6.1054093e-06
2	0xbaab8136	-0.0013084773
3	0xbb9020fa	-0.0043984624
4	0xbacd1d4c	-0.001564899
5	0xb64837b0	-2.9834737e-06
6	0xbac55e1c	-0.0015057954
7	0xba663c81	-0.00087828195
8	0xb6e2fb5f	-6.7645883e-06
9	0xba9d6fe7	-0.0012011499
10	0xbc57169d	-0.01312795
11	0xba30a41a	-0.000673832
12	0xb5c0e70e	-1.437236e-06
13	0xbac671fd	-0.0015140172
14	0xbaaefd91	-0.0013350715
15	0xb6f82451	-7.3952037e-06
16	0xbacdb092	-0.0015692881
17	0xbbe4289e	-0.0069628498
18	0xba95f040	-0.0011439398
19	0xb5c3ad9c	-1.4579159e-06
20	0xbaf59ec7	-0.0018739336
21	0xbabfcb55	-0.0014632741
22	0xb70badeb	-8.325539e-06
23	0xbac6e0af	-0.0015173162
24	0xbc05f3f8	-0.008175842
25	0xbaa84d44	-0.001284041
26	0xb580af86	-9.587827e-07
27	0xbaef73d2	-0.001826877
28	0x3b22466e	0.0024761218
29	0xb71656af	-8.960879e-06
30	0x3b0da0f5	0.002161083
31	0x3b701997	0.0036636346
32	0x3b383f66	0.002811396
33	0x36626b9a	3.3739257e-06
34	0x3af93587	0.0019013145
35	0xb98aa6fc	-0.00026445824
36	0x3644e45f	2.9339205e-06
37	0xbad5d1ff	-0.0016313194
38	0x3b314748	0.0027050544
39	0xb9bbd55d	-0.00035826387
40	0xb7322685	-1.0618595e-05
41	0xbac2e719	-0.0014869898
42	0xb98b5f54	-0.0002658317
43	0x36159c7a	2.2293812e-06
44	0xbad6d831	-0.0016391334
45	0x3b26a5d0	0.0025428422
46	0xb99ee93d	-0.00030309884
47	0xb6e94f62	-6.9531825e-06
48	0xbacad882	-0.0015475901
49	0xb8886248	-6.503292e-05
50	0x3631c42a	2.6489238e-06
51	0xba98385f	-0.001161348
52	0x398ffc87	0.00027463233
53	0x378b27a5	1.6588552e-05
54	0xb482ce43	-2.4364462e-07
55	0xba8c55c6	-0.0010706715
56	0x3b2f3393	0.0026733621
57	0x3670eb71	3.5899832e-06
58	0x3b6d6e91	0.0036229233
59	0x3c1bb071	0.009502516
60	0x3b343561	0.0027497637
61	0xb5f213e5	-1.8036195e-06
62	0x3b8910cf	0.004182912
63	0x3b2ec95b	0.002667031
64	0x37061d08	7.993782e-06
65	0x3b708a2a	0.0036703446
66	0x3c1854c2	0.009297552
67	0x3b35dea2	0.0027751108
68	0xb4b60bc7	-3.390871e-07
69	0x3b887df3	0.004165405
70	0x3826d9ec	3.978044e-05
71	0xb34c51fd	-4.757202e-08
72	0x35820bfc	9.689243e-07
73	0x35481742	7.453965e-07
74	0x3848918a	4.781926e-05
75	0xb348c2b7	-4.674322e-08
76	0xb6ac2bd7	-5.131103e-06
77	0x38815882	6.167685e-05
78	0xb35894b0	-5.042665e-08
79	0x3626f94a	2.4881033e-06
80	0x385d5df8	5.277802e-05
81	0x38a1c297	7.7133234e-05
82	0xb38dc6f2	-6.602012e-08
83	0xb6fcf34a	-7.538508e-06
84	0x388499c0	6.322889e-05
85	0xb3a56913	-7.702524e-08
86	0x34a7a4ae	3.1225994e-07
87	0x38bccebf	9.003048e-05
88	0x389a443b	7.356001e-05
89	0xb30de96d	-3.304142e-08
90	0xb6bd71f5	-5.6459053e-06
91	0x388606a2	6.3908534e-05
92	0xb3464bb4	-4.616932e-08
93	0xb5402cc1	-7.15907e-07
94	0xb7c8929d	-2.391013e-05
95	0x3896c34f	7.1889364e-05
96	0xb290c8af	-1.6855067e-08
97	0xb69fea90	-4.765876e-06
98	0x38847f38	6.317947e-05
99	0xb307ee5d	-3.1648927e-08
100	0x38346ece	4.301854e-05
101	0xb80d71ce	-3.372301e-05
102	0x388f0754	6.820136e-05
103	0x32b794d0	2.1371676e-08
104	0x38222731	3.866031e-05
105	0x34dbf78a	4.0972037e-07
106	0x3206618c	7.822006e-09
107	0xb518a2f2	-5.686153e-07
108	0x3587f482	1.0129445e-06
109	0xb58a01b1	-1.0282293e-06
110	0x3213ab67	8.5954985e-09
111	0x3516eb96	5.6222177e-07
112	0x3501a184	4.829128e-07
113	0x3213ab57	8.595484e-09
114	0xb52fc757	-6.548266e-07
115	0x353cc8af	7.032749e-07
116	0xb5a25cd8	-1.2096962e-06
117	0x322c6c5a	1.0036354e-08
118	0x3532a9c2	6.65572e-07
119	0x35158b26	5.5709313e-07
120	0x322c6c4c	1.00363415e-08
121	0xb54aa90d	-7.5496865e-07
122	0x354fa544	7.7354e-07
123	0xb5be0f7d	-1.4160611e-06
124	0x324886a3	1.1672145e-08
125	0x355240ab	7.83252e-07
126	0x350fdbdb	5.3591583e-07
127	0x32488690	1.1672128e-08
128	0xb546dd23	-7.4082544e-07
129	0x34f2cabd	4.5223524e-07
130	0xb5bc08a5	-1.4009607e-06
131	0x32443894	1.1421566e-08
132	0x3551d890	7.8173707e-07
133	0x3a44e7fe	0.0007511376
134	0x32443880	1.1421548e-08
135	0x39a9bc96	0.000323747
136	0xba781d2f	-0.0009464798
137	0x3a4d65b2	0.0007835283
138	0x3584ae9e	9.885587e-07
139	0x398cb753	0.00026839468
140	0xbba45cd1	-0.0050159474
141	0xb7548ebd	-1.26694185e-05
142	0xbbc51ca2	-0.006015376
143	0xbbb71fcb	-0.005588507
144	0xbbb09c50	-0.0053897277
145	0xb5f7839e	-1.844124e-06
146	0xbbc400dd	-0.005981548
147	0xbbb1b989	-0.005423729
148	0xb74b9b78	-1.2135941e-05
149	0xbbd34650	-0.006447591
150	0xbba5a1bb	-0.00505468
151	0xbbbd587f	-0.005778372
152	0xb6ce905c	-6.156084e-06
153	0xbbcf667c	-0.0063293558
154	0xbbbe4c0d	-0.005807406
155	0xb7668631	-1.3740312e-05
156	0xbbc96094	-0.006145546
157	0xbba4c842	-0.0050287554
158	0xbbc9d945	-0.0061599337
159	0xb70deb29	-8.459007e-06
160	0xbbc16c27	-0.0059027853
161	0xbba1ceb4	-0.004937971
162	0xb7792629	-1.4850441e-05
163	0xbb814c6c	-0.003945878
164	0xbbd1d284	-0.0064032692
165	0xbbb42a83	-0.005498232
166	0xb72c7252	-1.0278616e-05
167	0xbb610c7e	-0.0034339721
168	0xbb97ab6c	-0.0046285894
169	0xb77411e1	-1.4547696e-05
170	0xbb5746ee	-0.0032848674
171	0xbb335b4e	-0.0027367654
172	0xbbacf0de	-0.005277737
173	0xb7574d9f	-1.2833071e-05
174	0xbb2ef021	-0.002669342
175	0xbc49bd0a	-0.012313137
176	0xb78da976	-1.6887421e-05
177	0xbc8d431f	-0.01724392
178	0xbcd67934	-0.026180841
179	0xbc54ec5b	-0.012995805
180	0xb7308d5c	-1.052333e-05
181	0xbc96a836	-0.018390756
182	0xbc3a05f7	-0.011353961
183	0xb78edfa0	-1.7031853e-05
184	0xbc87c96f	-0.016575543
185	0xbcbde6e2	-0.023181383
186	0xbc44b67e	-0.0120064
187	0xb6da6b3d	-6.5093905e-06
188	0xbc925f7b	-0.017867794
189	0xbc64aa4f	-0.01395662
190	0xb79d31de	-1.873908e-05
191	0xbc9c6ec9	-0.019095795
192	0xbce15aa6	-0.027509045
193	0xbc705e3c	-0.014670905
194	0xb6a48ec4	-4.904201e-06
195	0xbca79e6c	-0.020461284
196	0xbc4f3165	-0.012646054
197	0xb7c2f555	-2.3240844e-05
198	0xbc8e53ef	-0.017374007
199	0xbcbf668a	-0.023364324
200	0xbc5abf2b	-0.013351242
201	0xb6361c8e	-2.7136734e-06
202	0xbc98d32a	-0.018655378
203	0xbc4c58c9	-0.01247234
204	0xb7cebe7b	-2.4645813e-05
205	0xbc8d133b	-0.017221084
206	0xbc8c0c04	-0.017095573
207	0xbc5ae0f4	-0.013359297
208	0x376a7fe7	1.39772665e-05
209	0xbc9a61e1	-0.0188455
210	0x3873aa30	5.8094214e-05
211	0xb62598b1	-2.4675794e-06
212	0x3896efeb	7.1972456e-05
213	0x3821b0e9	3.855015e-05
214	0x380bc88e	3.3326964e-05
215	0x346da38b	2.2131842e-07
216	0x38b6d908	8.7188615e-05
217	0x388b5296	6.643419e-05
218	0xb633deab	-2.6802688e-06
219	0x3898230c	7.254453e-05
220	0xb98e741b	-0.00027170856
221	0x383012dd	4.1979238e-05
222	0x3478b996	2.3164316e-07
223	0x38b46af4	8.6029904e-05
224	0x36d0ed9b	6.226544e-06
225	0xb653e68e	-3.157565e-06
226	0x389cff6e	7.486237e-05
227	0xb8d736a1	-0.00010262174
228	0xb7ab04aa	-2.038696e-05
229	0x3455e9cb	1.9922224e-07
230	0x38b27ed4	8.511325e-05
231	0x374cc76f	1.2205782e-05
232	0xb6772363	-3.6826466e-06
233	0x388be1f8	6.6701265e-05
234	0xb9031ce5	-0.00012503898
235	0xb8140fd2	-3.5300684e-05
236	0x34b224f1	3.3181962e-07
237	0x38c24763	9.263938e-05
238	0xba11b7f6	-0.00055587234
239	0xb6882132	-4.0569803e-06
240	0xba0c6f59	-0.0005357168
241	0xbb440e48	-0.002991574
242	0xba2650e4	-0.0006344451
243	0xb5039089	-4.901163e-07
244	0xba04a97f	-0.0005060657
245	0xb9fa4a7e	-0.00047739217
246	0xb4154de6	-1.3905046e-07
247	0xb9e7d698	-0.00044219638
248	0x39d09667	0.0003978491
249	0xb9fbbc51	-0.00048014757
250	0xb6f87863	-7.404991e-06
251	0xb9f40f5f	-0.0004655076
252	0xb9986437	-0.00029066365
253	0xb46e7c6e	-2.2210745e-07
254	0xb9f45d00	-0.00046608597
255	0xbb0d333f	-0.0021545438

exp_avg_sq f4 [128, 35]
0	0x39de4d77	0.00042400855
1	0x3101c601	1.8884523e-09
2	0x3ac08775	0.0014688807
3	0x3bcf1bcc	0.0063204523
4	0x39f9b23c	0.00047625776
5	0x311ac572	2.2522184e-09
6	0x3aae6adb	0.0013306992
7	0x3a377c84	0.000699945
8	0x3129da68	2.4716886e-09
9	0x3ad4bcf5	0.001623063
10	0x3c4b2bc1	0.012400568
11	0x3a421e16	0.0007404996
12	0x314be44f	2.9670166e-09
13	0x3ac36528	0.0014907466
14	0x3a434f5f	0.0007450487
15	0x316cc0d8	3.445214e-09
16	0x3adc6c44	0.0016816934
17	0x3c2c53e7	0.010518051
18	0x3a4f8250	0.00079158414
19	0x3176d576	3.591905e-09
20	0x3aca1d5f	0.001542013
21	0x3a9ac4fa	0.0011807971
22	0x319f89d7	4.6431796e-09
23	0x3ae18aa3	0.0017207455
24	0x3c437ed6	0.0119320955
25	0x3a9c4bfb	0.0011924499
26	0x31f0c368	7.0071344e-09
27	0x3acfd128	0.001585518
28	0x3af500e4	0.0018692282
29	0x31d7b75d	6.2781695e-09
30	0x3af2f98b	0.0018537504
31	0x3c54ebc4	0.012995664
32	0x3af156f4	0.0018412755
33	0x3221f672	9.427469e-09
34	0x3ae12157	0.0017176074
35	0x390c4c92	0.00013379965
36	0x31041d6e	1.9225257e-09
37	0x3abc09f0	0.0014346223
38	0x3c030a47	0.007998056
39	0x39150a2c	0.00014213537
40	0x315607b9	3.1145488e-09
41	0x3ab5c693	0.0013868384
42	0x390b9e44	0.00013315032
43	0x312560bc	2.4065647e-09
44	0x3abf2b59	0.0014585062
45	0x3c030c37	0.007998518
46	0x391476c3	0.00014158622
47	0x31614b0a	3.2784464e-09
48	0x3ab87a60	0.0014074557
49	0x39156045	0.0001424561
50	0x3150dc5f	3.039325e-09
51	0x3ac14b09	0.0014747094
52	0x3bdf515d	0.006815119
53	0x391f6748	0.00015201897
54	0x3173bad5	3.5467356e-09
55	0x3aba8151	0.0014229213
56	0x395dcdd9	0.00021152887
57	0x3187d200	3.9528913e-09
58	0x3ac94454	0.0015355446
59	0x3bf8c51b	0.007591856
60	0x3969b41a	0.00022287705
61	0x317c4d82	3.6714884e-09
62	0x3ac233b8	0.0014816439
63	0x395d5f87	0.00021111789
64	0x31b1b864	5.1723408e-09
65	0x3ac92fc5	0.001534932
66	0x3bf7ac1c	0.007558359
67	0x396868a9	0.00022164233
68	0x318b475a	4.053544e-09
69	0x3ac2215e	0.001481097
70	0x37c8c931	2.3935545e-05
71	0x2e949575	6.75681e-11
72	0x346b0fd7	2.1891843e-07
73	0x3a0cefd0	0.0005376311
74	0x37d6b61e	2.5595593e-05
75	0x2f077a53	1.2321637e-10
76	0x34d7efd9	4.0221383e-07
77	0x37d3e570	2.526e-05
78	0x2ebcc267	8.583783e-11
79	0x346abbb9	2.1861241e-07
80	0x3a0c5490	0.0005353177
81	0x37e334b4	2.708505e-05
82	0x2eb8cfc8	8.4042606e-11
83	0x34cef10c	3.8545875e-07
84	0x37d3c0c2	2.524292e-05
85	0x2efa710c	1.1388765e-10
86	0x346872dd	2.1648471e-07
87	0x3a03f961	0.0005034414
88	0x37e36d71	2.7111471e-05
89	0x2eda4bd3	9.926961e-11
90	0x34d0a1b3	3.886067e-07
91	0x37d3a7f8	2.5231377e-05
92	0x2f2aa612	1.552041e-10
93	0x3630f6c3	2.6369678e-06
94	0x39ec24dc	0.0004504089
95	0x37e39151	2.7128177e-05
96	0x2f1b64eb	1.4133021e-10
97	0x361f5da5	2.3747355e-06
98	0x37d3e5db	2.5260195e-05
99	0x2f6aa366	2.1340227e-10
100	0x36ace9c2	5.1532124e-06
101	0x39b5d398	0.0003468066
102	0x37e4a8bf	2.7258297e-05
103	0x2f815dc8	2.35316e-10
104	0x369f9ec3	4.7570516e-06
105	0x31843262	3.8474335e-09
106	0x2b38d42f	6.5664396e-13
107	0x3104a729	1.9303548e-09
108	0x31096bc8	1.999739e-09
109	0x3202bfa4	7.61057e-09
110	0x2c139978	2.0975149e-12
111	0x3163fbef	3.3176055e-09
112	0x3187fdfa	3.957891e-09
113	0x2b3a7446	6.6241836e-13
114	0x31035c05	1.9115316e-09
115	0x30fe6aea	1.8511319e-09
116	0x3204b945	7.725537e-09
117	0x2c5b4cd5	3.1164422e-12
118	0x31696893	3.3965406e-09
119	0x331aa350	3.600445e-08
120	0x2b41f342	6.890496e-13
121	0x32d7c534	2.5118972e-08
122	0x34bf8f3b	3.5680736e-07
123	0x3310c2a1	3.3704627e-08
124	0x2c9ec40f	4.512397e-12
125	0x33004b20	2.9870648e-08
126	0x331aea98	3.606928e-08
127	0x2b57b45c	7.6633643e-13
128	0x32d7cf40	2.512354e-08
129	0x30a3ce49	1.1918441e-09
130	0x33111fb1	3.3789266e-08
131	0x2cf2a500	6.8963724e-12
132	0x33023932	3.0320003e-08
133	0x373c09ec	1.1207983e-05
134	0x2b788077	8.828558e-13
135	0x375a58f4	1.3014524e-05
136	0x38917f28	6.9378235e-05
137	0x3737de2b	1.09593775e-05
138	0x2e1ddad2	3.589202e-11
139	0x3753972d	1.2611778e-05
140	0x3ad945f7	0.0016576637
141	0x31062c4c	1.9524746e-09
142	0x3aca7040	0.001544483
143	0x3c061a06	0.008184915
144	0x3addc658	0.0016920073
145	0x3152b6e0	3.0662974e-09
146	0x3acb3f95	0.001550662
147	0x3adba362	0.0016757066
148	0x31223bbc	2.3608058e-09
149	0x3acdcd9c	0.0015701535
150	0x3c16812d	0.009186071
151	0x3ae084d4	0.001712943
152	0x31651230	3.3334224e-09
153	0x3ace5de1	0.0015744531
154	0x3addb29c	0.0016914192
155	0x3148f01b	2.9240315e-09
156	0x3ad04a03	0.0015891198
157	0x3c19d216	0.009388467
158	0x3ae323ae	0.0017329359
159	0x316b5d4c	3.4250034e-09
160	0x3ad084b1	0.0015908686
161	0x3adfff67	0.0017089666
162	0x31801389	3.727511e-09
163	0x3ad3f0a0	0.0016169734
164	0x3c227ec6	0.00991792
165	0x3ae5ca21	0.0017531553
166	0x317f6eb2	3.7170307e-09
167	0x3ad3d0cf	0.0016160252
168	0x3adf8e96	0.0017056044
169	0x31a3cec6	4.767432e-09
170	0x3ad58f59	0.0016293331
171	0x3c2129c5	0.009836619
172	0x3ae5b7de	0.001752611
173	0x3183db6e	3.837548e-09
174	0x3ad4f625	0.0016247673
175	0x3bc0aae0	0.005879745
176	0x319cda3f	4.5650093e-09
177	0x3b577968	0.003287876
178	0x3cac6bdd	0.021047527
179	0x3bc321f2	0.0059549743
180	0x32013057	7.5197795e-09
181	0x3b5c3475	0.0033600603
182	0x3bc31f30	0.0059546456
183	0x31b9741b	5.3974083e-09
184	0x3b5be183	0.0033551164
185	0x3cb6e0a9	0.022323923
186	0x3bc5c745	0.0060357177
187	0x320d5475	8.2264835e-09
188	0x3b60738a	0.0034248554
189	0x3bc5d01b	0.006036771
190	0x31e3d46c	6.630719e-09
191	0x3b5ea849	0.0033974817
192	0x3cc1844a	0.02362265
193	0x3bc8fbd7	0.0061335373
194	0x321f0c85	9.257865e-09
195	0x3b62e4fa	0.0034621344
196	0x3bc7345a	0.006079239
197	0x320ebb9b	8.308144e-09
198	0x3b606f63	0.003424608
199	0x3cc4bce3	0.02401585
200	0x3bcb1ac6	0.00619826
201	0x321beb4a	9.075686e-09
202	0x3b641b5f	0.0034806354
203	0x3bc85b22	0.0061143795
204	0x323444b2	1.04929985e-08
205	0x3b60f61a	0.0034326375
206	0x3cc4e49b	0.024034789
207	0x3bcc7067	0.0062389853
208	0x322307c9	9.489619e-09
209	0x3b6462bd	0.0034848892
210	0x3823b7c9	3.903339e-05
211	0x2f0996e8	1.251369e-10
212	0x3841eae7	4.6233556e-05
213	0x38c77ac5	9.511927e-05
214	0x382b1826	4.0792067e-05
215	0x2f2a7d3f	1.5505906e-10
216	0x384cbf63	4.8815633e-05
217	0x38871329	6.4408705e-05
218	0x2f3373fe	1.6321164e-10
219	0x384e201a	4.9144124e-05
220	0x3a2e4855	0.00066483516
221	0x38896368	6.551185e-05
222	0x2f94c11a	2.705825e-10
223	0x3857cffe	5.1453702e-05
224	0x38ab8600	8.178875e-05
225	0x2f80b8fc	2.3414504e-10
226	0x38537804	5.0418093e-05
227	0x3a5baca3	0.0008379912
228	0x38ada533	8.2800536e-05
229	0x2fd685ff	3.9021583e-10
230	0x385e1045	5.2944077e-05
231	0x38ab3c31	8.165127e-05
232	0x2fac676a	3.1360098e-10
233	0x3853cebd	5.049886e-05
234	0x3a1bddba	0.00059458206
235	0x38ad51bc	8.264507e-05
236	0x300aa2d5	5.0435506e-10
237	0x385e1006	5.2943848e-05
238	0x3939ff94	0.00017738185
239	0x2fd904bb	3.947543e-10
240	0x38b3d777	8.5755186e-05
241	0x3a8e9513	0.0010878168
242	0x39374146	0.00017476556
243	0x3054049b	7.7131695e-10
244	0x38b6be37	8.7138666e-05
245	0x3868c15f	5.54932e-05
246	0x3017ea9c	5.526688e-10
247	0x39cce11d	0.00039077635
248	0x3ae03eca	0.0017108556
249	0x388791c8	6.4644555e-05
250	0x3097a8c8	1.1034667e-09
251	0x39bc5ce0	0.00035927352
252	0x38a758ef	7.979746e-05
253	0x303e8466	6.9309747e-10
254	0x39d409d3	0.0004044311
255	0x3b363bdf	0.0027806682
