results/Shooter/Shooter/Shooter-380.onnx (onnx, 426671 bytes, 11 tensors)

action_model._discrete_distribution.branches.0.bias f4 [5]
0	0x3b9902a7	0.0046695056
1	0xba91f881	-0.0011136682
2	0x3aa9733b	0.0012928018
3	0xba021b14	-0.00049631414
4	0x3aaedde1	0.0013341272

action_model._discrete_distribution.branches.0.weight f4 [5, 256]
0	0x3b134748	0.0022472907
1	0x3bdae0bd	0.006679623
2	0x39c4602a	0.0003745568
3	0x3b00deb2	0.0019663987
4	0x3be494d0	0.0069757476
5	0x3af28b1c	0.0018504593
6	0x38c720f8	9.4952e-05
7	0x3a0d9941	0.000540156
8	0xbc224562	-0.009904237
9	0x3a545d19	0.0008101031
10	0x3b845d01	0.0040394072
11	0xba1d5f13	-0.0006003242
12	0x3b583833	0.0032992482
13	0xbb154ef9	-0.0022782667
14	0xbb9d23db	-0.004795534
15	0x3c48529b	0.012226726
16	0x3c9b67a6	0.018970322
17	0xbb78585b	-0.003789446
18	0x3adff2ab	0.001708587
19	0x36f0cdf1	7.176532e-06
20	0x3b9c4d29	0.0047699404
21	0xbbe69f72	-0.0070380503
22	0xbbe2fbc2	-0.0069269845
23	0x3b6e73b3	0.003638488
24	0x3c70358b	0.014661203
25	0xbbb946af	-0.005654178
26	0x3bc48cec	0.0059982445
27	0xbc22f6c4	-0.009946529
28	0x3c6b4848	0.014360495
29	0xbab7642d	-0.0013991647
30	0xbacdb9d3	-0.0015695639
31	0x3bee4365	0.0072712176
32	0x3ba6338d	0.0050720633
33	0x3c028a7d	0.0079675885
34	0x3b6e8f41	0.0036401304
35	0xbb9cfeba	-0.004791108
36	0x3c156b25	0.0091197835
37	0xbbf7727d	-0.00755149
38	0x3c704004	0.0146637
39	0x3c48838e	0.012238396
40	0xbb0db569	-0.0021623021
41	0x3b85ef5f	0.004087373
42	0x3b1aca28	0.002361903
43	0xbb2dd747	-0.002652602
44	0x3a26ab40	0.00063579157
45	0x3b04e736	0.0020279414
46	0xbc638337	-0.0138862645
47	0x39d4067e	0.00040440628
48	0x3b71187b	0.0036788273
49	0x3b1d8ba8	0.002403954
50	0x3b0f2852	0.00218441
51	0x3c095104	0.008381132
52	0x3b560768	0.0032658223
53	0xbaf453c9	-0.0018640693
54	0x3c0db611	0.008649365
55	0x3c015f00	0.007896185
56	0xbbf4f96a	-0.0074760215
57	0xbc355d0c	-0.011069547
58	0xbb334762	-0.002735578
59	0x3b644beb	0.003483529
60	0x3c8330e1	0.016014518
61	0x3bbcb3c6	0.0057587354
62	0x3af4d3f7	0.0018678893
63	0x3b79dc59	0.0038125722
64	0x3c368bee	0.01114176
65	0xbb900d6c	-0.0043961313
66	0xbc56c044	-0.013107363
67	0x3b06e13d	0.002058103
68	0xbb76d91c	-0.0037666028
69	0xbb710f39	-0.0036782755
70	0xbbe39788	-0.006945554
71	0x3bc412c3	0.005983682
72	0x3c212681	0.00983584
73	0xbb4aa353	-0.0030920103
74	0xbb6dbd2b	-0.0036276083
75	0xbc101280	-0.008793473
76	0x3b1a1452	0.0023510647
77	0x3ad4f492	0.0016247204
78	0x38a4652e	7.8389756e-05
79	0x3c15fa1e	0.009153871
80	0x3c699267	0.014256096
81	0x3afa1ba5	0.0019081725
82	0xbbb47946	-0.005507621
83	0xb9da8978	-0.00041682622
84	0xbb0b4ad3	-0.0021254316
85	0xbc08f310	-0.008358732
86	0xbc0aa940	-0.008463204
87	0xbac36fab	-0.0014910599
88	0xb8eeac20	-0.00011380785
89	0xbbe52c8a	-0.006993835
90	0x3c16cfa0	0.009204775
91	0x3c287440	0.010281622
92	0x3be62872	0.0070238644
93	0x3bc1e508	0.005917195
94	0x3c8c59b1	0.017132612
95	0x378966d5	1.6379558e-05
96	0x3c2a5ae5	0.0103976475
97	0x3bf95c78	0.0076099
98	0x3c834904	0.016026028
99	0x3bd53843	0.006506951
100	0x3b2db710	0.0026506819
101	0x3bfbb7f9	0.0076818434
102	0xbb02584c	-0.0019889055
103	0x3af1736b	0.0018421238
104	0x3a91a2bd	0.0011111122
105	0xb9774f1b	-0.00023585225
106	0xbc3603fa	-0.0111093465
107	0x3be1ed6e	0.006894759
108	0x3ae03eb6	0.0017108533
109	0xbb19fb94	-0.00234959
110	0x3bcb2804	0.0061998386
111	0x3c1c6820	0.00954631
112	0xbb44807c	-0.002998381
113	0xb94a7f5c	-0.00019311666
114	0x3bdf25a4	0.006809907
115	0xbb9cd20a	-0.004785781
116	0x3c25fb0b	0.010130654
117	0xbb147945	-0.002265529
118	0xbc22a8d1	-0.009927944
119	0x3bb89f58	0.0056342296
120	0x3b3b2a05	0.002855898
121	0x3b93ba6b	0.0045083067
122	0xbb6534c0	-0.0034974068
123	0x3b4673e3	0.0030281476
124	0x3bf5343c	0.0074830335
125	0x3c16df2a	0.00920848
126	0x3c12b1e0	0.0089535415
127	0xbb7545c1	-0.003742561
128	0xb91bcd36	-0.00014858399
129	0xbc0d27f4	-0.008615483
130	0x3ba9263c	0.0051620286
131	0x3c282396	0.010262391
132	0xbbd05145	-0.0063573443
133	0xbb4c2255	-0.0031148393
134	0x3b28b70c	0.002574387
135	0x3b49fefb	0.0030822146
136	0xbb9ed7e8	-0.0048475154
137	0xbaeb95fa	-0.0017973774
138	0x3bb4e667	0.00552063
139	0x3b4a6011	0.0030880014
140	0x3afb8cee	0.0019191781
141	0x3be89af8	0.007098552
142	0xbb6b3850	-0.003589172
143	0xbabf42e6	-0.0014592081
144	0x3c0ec87b	0.00871479
145	0x3b0a804f	0.0021133607
146	0x3a7f6a05	0.0009743276
147	0xbb20ca18	-0.002453452
148	0xba75b470	-0.00093728956
149	0x3b4a65cc	0.003088343
150	0x3c5fea72	0.013666736
151	0x3bd3aa50	0.006459512
152	0xba168747	-0.0005742204
153	0xbc45046f	-0.012024983
154	0x3b9e8911	0.004838117
155	0xba82bbcd	-0.0009974182
156	0xbc0834f3	-0.008313405
157	0x3bd334d3	0.006445506
158	0x3bc7d117	0.0060979235
159	0x3a936bb1	0.0011247305
160	0x3c10af34	0.008830834
161	0xba88e584	-0.0010444378
162	0x3c719b61	0.014746518
163	0xbb8353bc	-0.0040077846
164	0xbc05f9e1	-0.008177252
165	0xbbba4482	-0.0056844363
166	0xbae80a42	-0.0017703252
167	0x3b92baef	0.0044778506
168	0xbadcf9bc	-0.0016859095
169	0xbaabc815	-0.0013105894
170	0xbb9e2821	-0.004826561
171	0xbb29eff7	-0.0025930384
172	0x3ba7166a	0.0050991075
173	0xbbc1d888	-0.005915705
174	0x3c718b16	0.014742633
175	0x3b929a60	0.0044739693
176	0xba145520	-0.00056584366
177	0xbc113e6f	-0.008864983
178	0x3bce7dce	0.006301618
179	0x3bd0e471	0.0063748886
180	0x3b86b3e0	0.0041107982
181	0xbbbc3927	-0.005744118
182	0xbb532e82	-0.0032223766
183	0xba67e8dd	-0.000884665
184	0x3a6a50c0	0.0008938424
185	0x3c088dca	0.008334586
186	0xbc0f2565	-0.008736943
187	0xbb3af7e4	-0.0028529102
188	0x3b2b3ab7	0.0026127526
189	0x3ae58fa5	0.0017514123
190	0xbc62da9d	-0.013846067
191	0x3c4a7fe3	0.012359592
192	0x3c411cfc	0.011786696
193	0x3c08024a	0.008301327
194	0x39ab1f11	0.00032638808
195	0x3b6ab184	0.0035811374
196	0x3b75f2de	0.0037528793
197	0xbb8d6abb	-0.004315702
198	0xbb9454fb	-0.004526732
199	0xbba04f32	-0.0048922533
200	0x3b7f9d0c	0.003900352
201	0xbbc034c5	-0.0058656656
202	0x3c4ae4de	0.012383668
203	0x3c156673	0.009118664
204	0x3b8f092f	0.0043651084
205	0xbb9e9001	-0.004838944
206	0x3bf67719	0.0075215218
207	0x3b99d175	0.0046941587
208	0x3ab69eb0	0.0013932791
209	0x3bc9d390	0.0061592534
210	0x3c40fcd4	0.011779029
211	0xbb3c228c	-0.0028707115
212	0x3af6af1d	0.0018820498
213	0x3c8074cd	0.015680695
214	0x3c3fd080	0.011707425
215	0xbb60bd04	-0.003429235
216	0x399cc6b9	0.000299027
217	0x3a93bb36	0.0011271003
218	0xbb8c8794	-0.004288623
219	0xbb69ff3f	-0.0035705117
220	0x3ba9a668	0.005177308
221	0x3ba812be	0.0051291874
222	0x3b4a746f	0.0030892154
223	0x3ac96510	0.0015365202
224	0x3969d327	0.00022299272
225	0xbb841a6a	-0.004031469
226	0xbad7761f	-0.0016438401
227	0xbb13c5e6	-0.0022548377
228	0xbb2555e7	-0.0025228204
229	0x3afe6c64	0.0019410965
230	0xbc28aca0	-0.010295063
231	0x3ba53362	0.0050415257
232	0x3c3853fa	0.01125049
233	0x3b7551ab	0.003743271
234	0xbc1970c8	-0.009365268
235	0x3b1c9f00	0.0023898482
236	0x3c0815f6	0.008306017
237	0xbb76cea7	-0.0037659795
238	0xba16d746	-0.0005754124
239	0x3c2ed1bd	0.010670123
240	0xbb42b687	-0.0029710846
241	0x3c006829	0.007837334
242	0xbb4c1423	-0.0031139932
243	0x3a51f226	0.00080088
244	0x3b791437	0.0038006434
245	0x3b134c4a	0.0022475892
246	0x3bdf0c98	0.006806921
247	0x3ba72612	0.005100974
248	0x3b00aa16	0.001963263
249	0xbb96e111	-0.0046044667
250	0xbbbc944c	-0.005754983
251	0x3a8395df	0.0010039172
252	0xba0c77f0	-0.0005358448
253	0x3b979849	0.004626308
254	0xbc9812a2	-0.018563572
255	0x3bee1483	0.007265629

action_model._discrete_distribution.branches.1.bias f4 [4]
0	0x3b189b56	0.0023285947
1	0x3890d719	6.90652e-05
2	0xbb79787a	-0.0038066194
3	0x3bc6db1c	0.0060686003

action_model._discrete_distribution.branches.1.weight f4 [4, 256]
0	0x3bb1a4a7	0.0054212394
1	0x3c0f79bb	0.00875705
2	0xbbfe84e7	-0.007767308
3	0xbc01b752	-0.007917242
4	0xbc24c76a	-0.01005731
5	0xbb4e309a	-0.0031462074
6	0x3ae487d8	0.0017435504
7	0x3be01ea6	0.006839591
8	0x3c24dab5	0.010061909
9	0xbb7443ea	-0.0037271925
10	0xbaac8238	-0.0013161367
11	0xb9420030	-0.00018501352
12	0x3bb7a02b	0.0056038103
13	0xbbc16dee	-0.005902997
14	0xbc17aea9	-0.009257951
15	0xbc3fedcb	-0.011714409
16	0xbb69ce22	-0.0035675843
17	0x3bb6264d	0.005558765
18	0xbbc3aebc	-0.0059717577
19	0x3a351139	0.00069071684
20	0x3b9d6232	0.0048029656
21	0xbc0ca323	-0.008583817
22	0x3bc3ad39	0.0059715775
23	0x3c008b44	0.0078457035
24	0x385f9793	5.3308508e-05
25	0x3bc84444	0.0061116535
26	0xbc084045	-0.008316104
27	0x3bd89f1b	0.0066107637
28	0xb9f8d9bf	-0.0004746448
29	0x3b0697e8	0.002053732
30	0xbc28fb28	-0.010313787
31	0x3b930b96	0.004487465
32	0x3b8a8d66	0.004228282
33	0xbb659325	-0.0035030332
34	0x3be2c8e2	0.0069209198
35	0xbc373d44	-0.01118404
36	0x3baf9725	0.005358594
37	0x3ad87111	0.0016513189
38	0xbb89e09f	-0.004207685
39	0x3ba9a4d6	0.0051771207
40	0xbbfeab1d	-0.007771863
41	0x3ade428b	0.0016957087
42	0xbbf7a428	-0.0075574107
43	0x3af2905d	0.0018506158
44	0x3a262d46	0.0006339144
45	0xba82e86a	-0.0009987478
46	0xbbe48ca4	-0.0069747735
47	0xbc20bf11	-0.009811179
48	0xbc0dab53	-0.008646804
49	0x3c078b14	0.008272905
50	0x3b975ac9	0.0046189767
51	0x3bb8a4ed	0.005634895
52	0x397e1497	0.00024230998
53	0x3c8652af	0.016396848
54	0x3bb70869	0.0055857194
55	0x3b08ec35	0.0020892743
56	0xbbf399e8	-0.0074341185
57	0x39825425	0.00024858225
58	0xbc091444	-0.008366648
59	0x3bf172fc	0.0073684435
60	0xb9a16226	-0.0003078144
61	0x3b12ce94	0.0022400962
62	0x3bd305aa	0.006439884
63	0xbb93faa6	-0.0045159636
64	0x3bd9f124	0.0066510607
65	0xbb54eb32	-0.003248882
66	0xbb864622	-0.004097716
67	0x3b0d7927	0.0021587105
68	0xbc149631	-0.009069012
69	0x3bccee32	0.006253981
70	0xbb4ad928	-0.003095219
71	0xbb924da2	-0.004464821
72	0x3b657897	0.0035014504
73	0xbb5a7eb6	-0.0033339686
74	0x3be1e5f0	0.0068938658
75	0xbbb12bdb	-0.0054068393
76	0x3be300fa	0.0069276066
77	0x3a4a474c	0.00077163125
78	0xbba9639f	-0.0051693465
79	0x3be81f2d	0.0070837946
80	0xba21d9c1	-0.00061741105
81	0x3bcbb516	0.0062166555
82	0x3b250cc3	0.0025184609
83	0x39b5af57	0.0003465365
84	0xbb006c47	-0.0019595788
85	0x3c0d018b	0.008606325
86	0x3b1d4bfb	0.0024001587
87	0x3b91244c	0.0044293758
88	0xbb166601	-0.0022948983
89	0x3be16622	0.0068786303
90	0xbb7d032c	-0.0038606627
91	0x3a5606aa	0.0008164445
92	0xbbc85fde	-0.006114944
93	0x3b516ccd	0.003195572
94	0x3b836db3	0.00401088
95	0xbbce3473	-0.0062928735
96	0xbb725fc4	-0.003698335
97	0x3b074459	0.0020640104
98	0x3bb9bd8e	0.0056683486
99	0x3a8446f9	0.0010091952
100	0xbab20949	-0.001358309
101	0xbc47767e	-0.012174247
102	0xbb102083	-0.0021992035
103	0xbc32cb4c	-0.010912728
104	0xbbbbd300	-0.0057319403
105	0x3a79d7d8	0.00095307594
106	0x3988b6e3	0.00026076203
107	0x3b8b0b80	0.0042433143
108	0x3bd80072	0.00659185
109	0x3b1d883d	0.0024037503
110	0x39be8c5e	0.00036344206
111	0x3b2d0b66	0.00264045
112	0xbbf89a83	-0.0075867786
113	0xb98e905d	-0.0002719191
114	0x3b5d86e5	0.0033802327
115	0xbadb8347	-0.0016747498
116	0x3bae658e	0.005322165
117	0x3b12f1b3	0.0022421896
118	0xbb15e8b6	-0.0022874302
119	0x3c3add8d	0.011405361
120	0xbc09e1f8	-0.008415692
121	0x3c88f79f	0.016719637
122	0xb9c15a98	-0.00036879326
123	0x3c225cd4	0.009909827
124	0x3be0c6e3	0.0068596466
125	0x3aafdd16	0.0013417329
126	0xbc00cc0f	-0.007861151
127	0xb8f17e54	-0.00011515306
128	0x3ab683ec	0.0013924814
129	0xbbadb76c	-0.0053014066
130	0x3addc3e7	0.0016919345
131	0xb9ca42a9	-0.00038578108
132	0xbc2ef9be	-0.01067966
133	0xbc22053c	-0.009888943
134	0x3bbeb5d1	0.005820014
135	0x39b5b428	0.00034657237
136	0xba42dd60	-0.00074335
137	0xbad06028	-0.0015897797
138	0x3a0f56d4	0.00054679555
139	0xbaca798b	-0.00154476
140	0x3bdaee5a	0.0066812458
141	0xbad90cd8	-0.0016559614
142	0xbaf03089	-0.0018325011
143	0xb905f06c	-0.00012773433
144	0xbb8439b0	-0.004035197
145	0x3ac17f1b	0.0014762612
146	0x3b1ea39d	0.0024206408
147	0xbab78f99	-0.0014004587
148	0x3b97dfcf	0.0046348344
149	0xbbc635a0	-0.006048873
150	0xbb68637d	-0.003545969
151	0xbc3e9f1e	-0.011634616
152	0xbc3160b4	-0.0108262785
153	0xbbb6ab47	-0.005574617
154	0x3b12f972	0.0022426513
155	0xbc103b1d	-0.008803156
156	0xbc2a5ebd	-0.010398564
157	0x3beb28b7	0.0071764844
158	0xbb93d5f5	-0.0045115897
159	0x3a3288f0	0.00068105664
160	0xbc1c1f8a	-0.009529004
161	0xbb1403c8	-0.0022585262
162	0x3c8383f2	0.016054127
163	0xbbdd2fd2	-0.0067500854
164	0x3ba700ee	0.0050965464
165	0xb7e2fcf1	-2.7059084e-05
166	0x3b9e483a	0.0048303874
167	0xba896242	-0.0010481554
168	0x3ba211e8	0.0049459822
169	0x3c4fdcc1	0.012686909
170	0x38a4207e	7.8261815e-05
171	0xbb04a6d2	-0.0020241034
172	0xba880718	-0.0010378091
173	0x3b461748	0.003022628
174	0x3b435555	0.00298055
175	0xbc61f661	-0.013791651
176	0xb7ddb108	-2.642769e-05
177	0xbc1500cc	-0.009094428
178	0x3b7ac4a4	0.003826418
179	0xbbb2f7c9	-0.005461667
180	0xbc11794b	-0.008879016
181	0x3c1973f6	0.009366026
182	0x3b40bfc1	0.002941117
183	0x3af0dfbd	0.0018377226
184	0xbbee309a	-0.0072689774
185	0x3a0e856d	0.0005436752
186	0xbb5e47a6	-0.0033917218
187	0x3bd03f81	0.0063552265
188	0x3b367b52	0.00278445
189	0xbbfe5a14	-0.007762203
190	0xbb7b70d4	-0.0038366811
191	0x3b580ad6	0.0032965443
192	0x3c203e2c	0.009780448
193	0x3c6aa28a	0.014320979
194	0x3c021b22	0.007941039
195	0xbb2e6547	-0.002661066
196	0xbc0d2abd	-0.008616147
197	0xbbe3aaf5	-0.00694787
198	0x3b8ed4e5	0.004358875
199	0xbb64ba39	-0.0034901036
200	0x3b4f556b	0.0031636606
201	0xbb7099f2	-0.0036712852
202	0xbbeed658	-0.0072887354
203	0xbbe62bcf	-0.0070242654
204	0xbb8c9411	-0.004290112
205	0xbb9f6305	-0.004864099
206	0x3b375d47	0.0027979182
207	0x3ba71a98	0.005099606
208	0x3a137b18	0.00056259474
209	0xbb8b39c5	-0.00424883
210	0xbb3fca2a	-0.0029264786
211	0x3c4fd5ac	0.012685221
212	0xbc22a556	-0.0099271145
213	0xbb374f9f	-0.0027971042
214	0x3b625852	0.0034537506
215	0x3b722dfa	0.0036953674
216	0x3c312119	0.010811114
217	0xbbb39e88	-0.005481545
218	0x3817f43c	3.6228666e-05
219	0x3c02c18d	0.007980716
220	0x3c0b5183	0.008503321
221	0xbaacfbc0	-0.0013197586
222	0x3af31b31	0.0018547532
223	0x3c04579e	0.00807753
224	0x3b5a4a3a	0.0033308403
225	0x3c1fbb8e	0.009749306
226	0xbb9a2926	-0.0047046123
227	0xbb23017d	-0.0024872713
228	0xbb311de6	-0.0027025877
229	0x398e2d30	0.00027118018
230	0xbc0fb0bc	-0.008770164
231	0x3bdc80e3	0.0067292317
232	0xba88b965	-0.0010431228
233	0xbb470a18	-0.0030371007
234	0x3c33a67d	0.010964987
235	0xbc00c771	-0.007860051
236	0x3b3ae948	0.0028520394
237	0x3baf88e6	0.0053568957
238	0xbb85cbe0	-0.0040831417
239	0x3bde5484	0.0067849774
240	0x3c6ecd18	0.014575265
241	0x3b2fc0c4	0.0026817778
242	0xbba1b46f	-0.0049348394
243	0x3c004400	0.007828712
244	0xbba083fd	-0.0048985467
245	0xba88a2b5	-0.0010424467
246	0x3c389d3f	0.011267959
247	0xbba261d6	-0.0049555106
248	0xbb641c4b	-0.0034806903
249	0xbb6b6e64	-0.0035923952
250	0x3afcd017	0.001928809
251	0xbc3dc8f1	-0.011583553
252	0x3befa839	0.007313755
253	0x3ae92e4a	0.0017790284
254	0xbb9cf4af	-0.0047899107
255	0xbac5fc4d	-0.0015105099

action_model._discrete_distribution.branches.2.bias f4 [2]
0	0xbb2e3b6e	-0.0026585716
1	0x3b2e3b68	0.0026585702

action_model._discrete_distribution.branches.2.weight f4 [2, 256]
0	0x3b734a19	0.0037123023
1	0x3b58fbe9	0.0033109135
2	0xbc497ae7	-0.012297369
3	0xbc20d002	-0.009815218
4	0xbc3f3c2c	-0.011672061
5	0xbb879858	-0.004138034
6	0xbb90adb5	-0.0044152387
7	0x3c4aff49	0.012389966
8	0xbb66528f	-0.0035144424
9	0xbb8022cb	-0.0039103976
10	0x3c419309	0.011814841
11	0xbaaf80aa	-0.0013389785
12	0x3ac881c6	0.0015297465
13	0x3c4f520c	0.012653839
14	0x3c138c82	0.009005668
15	0xbc9163cb	-0.01774778
16	0xbb6b6599	-0.0035918711
17	0xbb7ca7a3	-0.0038552068
18	0xbc7f011f	-0.015564232
19	0xbc5b12df	-0.013371198
20	0xbbf82156	-0.0075723333
21	0x3c017d28	0.007903375
22	0x3c68c2f9	0.014206641
23	0xbb8141ee	-0.003944627
24	0xbc3b07cd	-0.011415434
25	0x3b81c8a7	0.003960687
26	0xbba04aa6	-0.0048917113
27	0x3ba58ed1	0.0050524254
28	0xb9d50807	-0.00040632507
29	0xbbfe4462	-0.0077596167
30	0x3b0b8387	0.0021288113
31	0xb9d8fed0	-0.0004138858
32	0x3b8f91fe	0.0043814173
33	0x39ffc78a	0.00048786058
34	0xbbad41d9	-0.0052873907
35	0x3a390d66	0.00070591865
36	0x3c6be85e	0.014398662
37	0x3c176d85	0.00924242
38	0xbba13244	-0.004919322
39	0xba054a32	-0.00050846033
40	0xb9c79ab1	-0.00038071492
41	0x3984e06b	0.00025344206
42	0xba401351	-0.0007327097
43	0x3c0d9827	0.008642233
44	0x3bbda116	0.005787025
45	0xb9abe167	-0.000327836
46	0x3aee47e3	0.0018179383
47	0x3b4a73e9	0.0030891842
48	0x3c7cd93a	0.01543265
49	0x3bb6cc15	0.0055785277
50	0x3c126a32	0.008936452
51	0x3bf82aaf	0.0075734477
52	0x3bcf1ff2	0.006320947
53	0x3b421df4	0.0029619904
54	0x3b590298	0.0033113118
55	0xbb146775	-0.0022644673
56	0xbc366f2c	-0.011134904
57	0xbc808464	-0.015688129
58	0x3c906f13	0.01763109
59	0x3bce13bd	0.006288974
60	0x3c02b4b4	0.007977653
61	0x3bc9ec67	0.0061622146
62	0x3c336dbc	0.010951456
63	0xbc28fe26	-0.0103145
64	0x3b01b157	0.001978954
65	0x3a9fcda3	0.0012192022
66	0x3bd11072	0.0063801343
67	0xbc456715	-0.012048502
68	0x3c110357	0.008850894
69	0xbb78ffd2	-0.0037994278
70	0x3b29f176	0.0025931275
71	0xbbdd4918	-0.006753098
72	0x3bba6030	0.005687736
73	0xbb740ed0	-0.0037240274
74	0x3b3579e3	0.0027691058
75	0x3c244669	0.010026553
76	0xbb0984b7	-0.0020983645
77	0x3b7cc616	0.0038570217
78	0xba72a70b	-0.0009256459
79	0x3a6c5e3a	0.00090167264
80	0x3c21e317	0.009880803
81	0x3a6932f3	0.00088958367
82	0x3bbb55e3	0.0057170256
83	0xbbab5823	-0.0052290126
84	0xbbc8d73b	-0.006129173
85	0xbb965e96	-0.0045889122
86	0x3acbcf0b	0.0015549375
87	0x3b5ec5ae	0.0033992338
88	0xb964100d	-0.00021749754
89	0xbb6c102b	-0.003602038
90	0x3c6d2717	0.014474652
91	0xbc51dbf0	-0.012808785
92	0xbb0bcb0c	-0.0021330742
93	0x3c3f9fdf	0.011695831
94	0x3b955c02	0.0045580873
95	0xb96767c6	-0.00022068535
96	0x3b82a0d3	0.003986457
97	0xbb8e6e99	-0.0043466804
98	0x3b93bc73	0.004508549
99	0x3983b5b9	0.0002512166
100	0x3b294224	0.0025826776
101	0x39d7049d	0.00041011433
102	0x3bc297b0	0.0059384927
103	0xbb2ed84f	-0.0026679223
104	0x3c11c64a	0.008897373
105	0x3ba47edb	0.005020005
106	0x3c1848a5	0.009294664
107	0xbb8bb02d	-0.004262945
108	0x3b286e5c	0.0025700545
109	0xba321a4c	-0.00067940797
110	0xbac42080	-0.0014963299
111	0x3bdceb77	0.006741937
112	0x3bb6d552	0.005579629
113	0xbb912f7e	-0.0044307103
114	0xbbfd26ce	-0.007725573
115	0xbb79da57	-0.0038124525
116	0xbc54f877	-0.012998692
117	0x3be43d9e	0.006965353
118	0xbc01b8e2	-0.007917615
119	0x3bba5677	0.005686577
120	0xbbf72799	-0.007542562
121	0x3bf75953	0.00754849
122	0x3caf674a	0.021411557
123	0x3aa9b211	0.0012946745
124	0xbb646dc1	-0.0034855457
125	0xbbc61646	-0.0060451357
126	0xbc30bf79	-0.010787838
127	0xbc16e482	-0.009209754
128	0xba86d9bc	-0.0010288279
129	0x3bf620c8	0.007511232
130	0x3bd1f3ad	0.0064072222
131	0xbc396a45	-0.011316841
132	0xbabdadde	-0.0014471372
133	0xbb58604d	-0.0033016384
134	0x3b678fb2	0.0035333452
135	0x3b2cb9da	0.0026355893
136	0xbb11a834	-0.00222255
137	0x3b231e35	0.002488983
138	0xbb8bc7d2	-0.004265764
139	0xbbce2688	-0.0062912144
140	0x3b23a30f	0.0024969017
141	0xbc1e2b7f	-0.009653925
142	0xbba92583	-0.0051619424
143	0xbc3b01e5	-0.011414026
144	0xbc113bc7	-0.00886435
145	0x3b70c5b3	0.0036738932
146	0x3b8417e1	0.004031167
147	0xbbf3268b	-0.007420366
148	0xbc15fa18	-0.009153865
149	0x3b4aa8fd	0.0030923479
150	0x3ac1d9c7	0.0014789634
151	0xbc549b59	-0.012976491
152	0xbae8dc11	-0.001776578
153	0x3c716e28	0.014735736
154	0x3b1bda51	0.002378125
155	0xbb126f55	-0.002234419
156	0x3c19cc04	0.00938702
157	0x3bb9ea79	0.0056737033
158	0x3b9b986a	0.004748394
159	0xbbaba50f	-0.0052381824
160	0x3bdbe5ed	0.006710759
161	0x3b8e40c6	0.0043412177
162	0xbc12bb83	-0.008955839
163	0x3986351c	0.0002559804
164	0x3c0fde56	0.008781036
165	0x3bb5d537	0.005549099
166	0x3ac847a7	0.0015280143
167	0x3b2745e9	0.0025523847
168	0xbac9630d	-0.0015364602
169	0x3c22ea44	0.009943549
170	0xbc58e426	-0.013237989
171	0x3c021cb0	0.00794141
172	0x3c194269	0.009354212
173	0x3c8e1d29	0.017347889
174	0xbc05fd77	-0.0081781065
175	0xbbf62c0c	-0.007512575
176	0x3c0f5ac8	0.008749671
177	0x3b9d8af6	0.004807825
178	0x390135fb	0.00012322508
179	0xbb953877	-0.0045538503
180	0xbb1a1c21	-0.0023515301
181	0xbc9670fa	-0.018364418
182	0x3bac67d0	0.005261399
183	0x3b1fc994	0.0024381625
184	0x3c557b00	0.013029814
185	0xbb999b48	-0.0046877004
186	0xbc812c18	-0.015768096
187	0x3a896e6b	0.0010485178
188	0x3bf05788	0.0073346533
189	0xbc68cf0f	-0.014209523
190	0x3a966f8b	0.0011477334
191	0xbb4571b9	-0.0030127598
192	0xb99fb9aa	-0.00030465174
193	0x3bcbf1d0	0.0062238947
194	0x3b90ac66	0.0044150827
195	0x3a1e9c4d	0.00060505123
196	0x3b0530de	0.0020323317
197	0x3b75e6ce	0.0037521604
198	0x3b274871	0.0025525356
199	0x3c114f46	0.008868998
200	0x3c69f3c8	0.014279313
201	0xbb1a4c09	-0.0023543856
202	0xbb4e6787	-0.0031494813
203	0xbb930f4c	-0.0044879075
204	0x3bd7b3e0	0.006582722
205	0xba1c5442	-0.0005963483
206	0xbc2d2bc5	-0.0105695175
207	0x3badb160	0.0053006858
208	0xba70d611	-0.0009187172
209	0xbcaaebf3	-0.020864462
210	0x39b7cc72	0.00035056804
211	0xbb642bd4	-0.0034816163
212	0xbba19534	-0.0049311165
213	0xbc4cefba	-0.012508327
214	0x3ae0f467	0.0017162681
215	0xba564e9a	-0.00081751647
216	0x3a88b004	0.0010428433
217	0x3b9b053c	0.0047308486
218	0xbb4ce281	-0.0031262937
219	0x38ea0087	0.00011158088
220	0x3b4cfbb2	0.0031277952
221	0xbabe1627	-0.0014502452
222	0xbb4e0b7e	-0.0031439955
223	0xbbc30018	-0.005950939
224	0xba8717ce	-0.0010306777
225	0x3afd10c7	0.0019307368
226	0x3b11c5c3	0.002224312
227	0x3c1f64c9	0.009728619
228	0xbbf4a213	-0.00746561
229	0x3c261b5e	0.010138361
230	0x3c9329dd	0.017964298
231	0x3ad0a4d2	0.0015918261
232	0x3bb92c70	0.0056510493
233	0xbbe29ac5	-0.0069154226
234	0x3c293d5d	0.010329572
235	0xbc1a39af	-0.009413167
236	0x3c17f2eb	0.009274225
237	0xbb2038ff	-0.0024448035
238	0xb8c9d0d9	-9.623328e-05
239	0xbb25e8ce	-0.0025315764
240	0xbbee47f4	-0.007271761
241	0x3a090d64	0.00052281306
242	0xbbc1b3fb	-0.005911348
243	0xbb64c85b	-0.003490946
244	0x3bb392f8	0.0054801665
245	0xbb2088bc	-0.0024495563
246	0xbbb33d3b	-0.0054699457
247	0xbc58899a	-0.0132164005
248	0xba9057f4	-0.001101254
249	0xbc16e42e	-0.009209676
250	0x3bb74d9d	0.005593969
251	0x3c56e1ec	0.013115387
252	0xbb2c1585	-0.0026257944
253	0x3b9e9da9	0.004840572
254	0xbc0a23e4	-0.008431409
255	0xbbb9d77c	-0.0056714397

discrete_action_output_shape f4 [1, 3]
0	0x40a00000	5.0
1	0x40800000	4.0
2	0x40000000	2.0

network_body._body_endoder.seq_layers.0.bias f4 [256]
0	0xbba42d34	-0.0050102714
1	0x3a8291f2	0.0009961708
2	0xbb7de584	-0.0038741538
3	0xbb2cb1c5	-0.0026351076
4	0xba52468f	-0.00080213783
5	0xba6173d8	-0.0008600331
6	0xbaeafcf2	-0.0017928167
7	0x3c03fad9	0.008055412
8	0xbb968ecb	-0.004594659
9	0xbab1e168	-0.0013571205
10	0xbb0cf536	-0.0021508462
11	0xbbae0624	-0.0053107906
12	0xbb26cb68	-0.002545083
13	0x3ae36077	0.0017347474
14	0xbaaa9f71	-0.0013017488
15	0x3bf4e947	0.007474098
16	0x37a52cd4	1.9690407e-05
17	0xbb9b226a	-0.004734327
18	0xbb5d8533	-0.0033801317
19	0xbb97e803	-0.0046358122
20	0x39fe7927	0.0004853692
21	0xba05987a	-0.0005096268
22	0xbb4f0408	-0.0031588096
23	0x3b425679	0.0029653593
24	0x3a8c0f94	0.0010685795
25	0xbb652b0c	-0.0034968285
26	0x3abe75a4	0.0014530909
27	0xba8bb220	-0.0010657944
28	0xba7376b1	-0.0009287401
29	0xbb081af3	-0.0020768016
30	0x395e5997	0.00021204945
31	0x3ba4cfa4	0.0050296355
32	0xba504ee4	-0.0007946326
33	0xb955d8bb	-0.00020394001
34	0xba784954	-0.0009471376
35	0x3b1d1300	0.0023967624
36	0xbb5a5c5f	-0.0033319218
37	0xba2d7fc7	-0.00066184666
38	0xbb43e234	-0.0029889466
39	0xba8ed8aa	-0.0010898311
40	0xba703892	-0.0009163703
41	0xbb646937	-0.0034852752
42	0x3ba240c6	0.0049515693
43	0xbc148d25	-0.009066855
44	0xbabdaff2	-0.0014471991
45	0xbb98d76d	-0.0046643526
46	0xbb9e08dd	-0.004822834
47	0xbb94b701	-0.0045384173
48	0x3a722192	0.000923657
49	0x3b6515af	0.0034955551
50	0x3b225b40	0.0024773628
51	0xbac37ead	-0.0014915072
52	0x3a9f085b	0.0012133227
53	0xba391d64	-0.00070615695
54	0x3b2888bf	0.0025716273
55	0xba8d9862	-0.001080286
56	0xbaa941f7	-0.0012913336
57	0xba868855	-0.0010264019
58	0xbb44ffc6	-0.003005968
59	0xbb162612	-0.0022910875
60	0xba08ee80	-0.00052235276
61	0xbb1265e4	-0.0022338564
62	0xb8e34942	-0.00010837849
63	0x3b1e53d8	0.0024158861
64	0xbb0388ca	-0.0020070546
65	0x3a1c4334	0.0005960942
66	0xbb41ecb1	-0.0029590542
67	0x3acc59ed	0.0015590765
68	0xbad6f903	-0.0016401116
69	0xbba2a2e2	-0.004963265
70	0x3b9bfd5f	0.004760429
71	0x3ac974a2	0.0015369842
72	0x3b09c1b9	0.0021020009
73	0xbb9dc1cb	-0.0048143617
74	0xbb5bc588	-0.0033534486
75	0x3ac224a4	0.0014811945
76	0x38ab5734	8.170158e-05
77	0xbb6c2139	-0.0036030544
78	0x3b42c18a	0.002971741
79	0xbac87a0a	-0.001529516
80	0x3b3f1f09	0.0029162786
81	0xbb6ba570	-0.0035956763
82	0xbb16229e	-0.0022908817
83	0xbb064b12	-0.0020491523
84	0xb8f5b7b8	-0.00011716731
85	0xbb4bc4fd	-0.0031092756
86	0x3b2b05da	0.0026096017
87	0x3b1d21d8	0.0023976471
88	0x3b82c3d0	0.003990628
89	0x3ae140b8	0.0017185425
90	0xbb0c0fb9	-0.0021371676
91	0xbb3dc662	-0.0028957357
92	0x3a5f8cff	0.0008527785
93	0xbb4fa6ca	-0.0031685107
94	0x3afa2297	0.0019083795
95	0x3b14f8d8	0.002273133
96	0x3aaa0489	0.0012971322
97	0x3bd473e0	0.00648354
98	0x3a4dd18d	0.0007851355
99	0x3aaeed19	0.0013345807
100	0xbb887235	-0.004164005
101	0x3a6fddd8	0.0009150184
102	0xbb774951	-0.003773291
103	0x3b7c951c	0.0038541025
104	0xbb844939	-0.004037049
105	0x3948a3b0	0.00019134465
106	0x3a0652e9	0.0005124049
107	0x3bc109bb	0.0058910525
108	0x3a089012	0.00052094564
109	0xbb1ee801	-0.0024247172
110	0x3b20c42d	0.0024530992
111	0x3895eb1a	7.148665e-05
112	0xbba08688	-0.00489885
113	0xbb37a0f4	-0.002801952
114	0xba5a7c22	-0.0008334537
115	0x3b4307ee	0.0029759365
116	0xbaaa228c	-0.0012980266
117	0x3a162a48	0.00057283463
118	0xba27beec	-0.0006398994
119	0xbb1aaa80	-0.002360016
120	0x37de3e7b	2.6493557e-05
121	0xbb8bfbee	-0.0042719757
122	0xba83cb88	-0.0010055164
123	0x3ad20bf8	0.0016025295
124	0x3a6e1855	0.0009082605
125	0x3ba0cce6	0.0049072383
126	0xbae5ad8f	-0.0017523038
127	0x3a2d60e3	0.00066138635
128	0xbaa38cd8	-0.0012477888
129	0x3ab6f2b8	0.0013957834
130	0xbb5b3d91	-0.0033453444
131	0xbb40c693	-0.0029415234
132	0xbb9c688c	-0.004773205
133	0x3a1ef8d0	0.00060642976
134	0xb76649cb	-1.372625e-05
135	0xbb55bc54	-0.0032613473
136	0xbb22bfb4	-0.0024833502
137	0x3b9d1684	0.004793944
138	0xba0d5cc7	-0.0005392548
139	0xbb31f4c5	-0.002715395
140	0xb9f227c6	-0.0004618747
141	0x3b0680bb	0.0020523507
142	0xb70e7d72	-8.493067e-06
143	0xb9dbd97c	-0.00041932974
144	0x3b3868ca	0.002813863
145	0x3b9151e3	0.0044348105
146	0xbb603599	-0.0034211634
147	0xbb9e2575	-0.0048262426
148	0xbb04c157	-0.002025684
149	0xbb780752	-0.003784616
150	0x3bcfb906	0.006339195
151	0xbadc8cc4	-0.0016826619
152	0xb879745f	-5.9474605e-05
153	0x39fbd858	0.0004803564
154	0xbb7a02aa	-0.003814856
155	0x3a5e7e5d	0.00084874575
156	0x3ac45406	0.0014978654
157	0x3b68924b	0.0035487588
158	0xba714422	-0.0009203573
159	0x3a8b8c07	0.001064659
160	0xbae2846b	-0.0017281895
161	0xbacd31c5	-0.0015655091
162	0xbb2ae35e	-0.0026075463
163	0x3ab9a1c7	0.0014162593
164	0xbafb49e6	-0.0019171804
165	0x39d243fc	0.00040104974
166	0xbb4c01c5	-0.0031128984
167	0xbaef7235	-0.0018268289
168	0xbb4b68cf	-0.0031037813
169	0x3aa60260	0.0012665503
170	0x3a914d09	0.001108558
171	0xbb8a8c63	-0.004228161
172	0xbac34122	-0.001489673
173	0xb980f90f	-0.00024599626
174	0xbb533877	-0.00322297
175	0xba35666e	-0.0006919865
176	0xbb3de44b	-0.0028975185
177	0xbb4dc590	-0.0031398274
178	0x3b56fe12	0.0032805246
179	0xbb53bd54	-0.0032308893
180	0x3b597109	0.0033178946
181	0x3af6f734	0.0018841983
182	0xba434b27	-0.0007449858
183	0xbab6a685	-0.0013935125
184	0x3ad411e2	0.0016179646
185	0x3b9737cb	0.0046148053
186	0xb9b43fc6	-0.0003437979
187	0x3b9f5509	0.004862432
188	0x3b60d1b3	0.0034304678
189	0x3b210db7	0.0024574825
190	0x39ed45dd	0.00045256215
191	0xbbdd2fa8	-0.006750066
192	0xbaa2f791	-0.00124334
193	0x3b275361	0.0025531875
194	0xbba70db6	-0.00509807
195	0x3b062316	0.002046769
196	0x3b78bcc2	0.0037954305
197	0xbb8c9fbc	-0.0042915028
198	0xbba008f9	-0.004883882
199	0x3a70398b	0.0009163848
200	0x3b5f173d	0.003404095
201	0xbb9c5d9c	-0.0047719013
202	0xba1343e2	-0.00056177203
203	0x3b90854c	0.0044104215
204	0xb981ee83	-0.00024782502
205	0xbb125a6d	-0.002233173
206	0x3a3bf54e	0.0007170037
207	0x3aba0560	0.0014192276
208	0xbb1d8b25	-0.0024039235
209	0xbaa69315	-0.0012708629
210	0xb9c9ec6b	-0.00038513853
211	0x3b39af2e	0.0028333175
212	0x3885dcdb	6.383072e-05
213	0x3b6a19d3	0.003572096
214	0x39efc4a5	0.00045732144
215	0x3a6a8397	0.0008946
216	0xbb028269	-0.0019914156
217	0xbb2cb3a7	-0.0026352198
218	0xbb1e593a	-0.002416207
219	0xbb8fa708	-0.0043839253
220	0x3b66c76d	0.0035214082
221	0xbbb46295	-0.005504916
222	0xb997da7a	-0.00028963742
223	0x3b1cdc2a	0.002393494
224	0xba9238ff	-0.0011155902
225	0xba7b681e	-0.0009590405
226	0x3b39823a	0.002830638
227	0x3bab5c4b	0.005229508
228	0x3b26f02d	0.0025472746
229	0xb8adb640	-8.2832295e-05
230	0xba3ac7aa	-0.0007125089
231	0x3a1a576b	0.000588766
232	0xbb73ed29	-0.0037220216
233	0xb979c19c	-0.00023818616
234	0xbb87a50a	-0.0041395472
235	0x3b888de6	0.0041673062
236	0xbb63a0d3	-0.003473331
237	0xbb9e6375	-0.0048336335
238	0xb9d45869	-0.00040501662
239	0x3b338bb2	0.0027396497
240	0x3bc13367	0.00589602
241	0xbb52970d	-0.003213349
242	0xbaafa6e2	-0.0013401175
243	0xba90226e	-0.0010996589
244	0x3a73e5bc	0.00093039474
245	0xbbd1d5a6	-0.0064036427
246	0x3b82f4c3	0.003996463
247	0xbb6745c2	-0.0035289382
248	0x3b24df7d	0.0025157623
249	0x3b7df49e	0.003875054
250	0xba142f4b	-0.0005652799
251	0xb88fcf2c	-6.85736e-05
252	0xbac163c5	-0.0014754465
253	0xb9856e02	-0.000254497
254	0xbb29c737	-0.0025906095
255	0x3ba507ac	0.005036315

network_body._body_endoder.seq_layers.0.weight f4 [256, 144]
0	0x3e01ff50	0.1269505
1	0xbd8c1f55	-0.068419136
2	0xbdeeaa1a	-0.11653538
3	0xbd8cfbb0	-0.06883943
4	0xbe0d8cae	-0.13823196
5	0xbb39a256	-0.002832552
6	0x3e3453bf	0.17610072
7	0x3ccb5e30	0.024825186
8	0x3be92285	0.0071147108
9	0x3ce324f8	0.027727589
10	0x3d1067b1	0.035255138
11	0xbd3196df	-0.043356773
12	0xbc39169a	-0.011296893
13	0xbda370fc	-0.079805344
14	0xbd88efac	-0.06686339
15	0xbbc9a06b	-0.0061531565
16	0x3d302c6d	0.043011118
17	0xbda4fb88	-0.08055788
18	0x3d7bec78	0.06150481
19	0x3c6e3491	0.0145389
20	0x3dd53f69	0.10412485
21	0xbd981c91	-0.074273236
22	0x3d79ac26	0.06095519
23	0xbc556348	-0.013024159
24	0x3d059aff	0.03261852
25	0xbdd10d7b	-0.10207649
26	0xbd9b256c	-0.07575497
27	0xbbc31744	-0.005953701
28	0x3d041210	0.03224379
29	0xbdeee1ac	-0.11664137
30	0x3dea2652	0.1143309
31	0x3d8e8e76	0.06960766
32	0xbd517fe5	-0.05114736
33	0xbd16ceb2	-0.036818214
34	0xbc4a3581	-0.012341858
35	0xbcf439e0	-0.029812753
36	0x3d987284	0.07443717
37	0xbe29ab3d	-0.16569228
38	0x3c8c1b89	0.017102974
39	0xbdab7423	-0.08371761
40	0x3c99a325	0.018754551
41	0xbe4a5eb7	-0.19762693
42	0xbe45bac6	-0.1930953
43	0x3d89c63e	0.06727265
44	0x3e22a645	0.1588374
45	0xbc34da86	-0.011038428
46	0x3dba2076	0.09088223
47	0xbd7c9917	-0.061669435
48	0x3d34169a	0.043966867
49	0xbda9d905	-0.08293346
50	0xbbf3ff37	-0.0074461955
51	0x3ce80de2	0.028326932
52	0xbdc697b6	-0.09696905
53	0x3d8e5ed6	0.06951682
54	0xbce04e7c	-0.027381174
55	0xbe17569d	-0.14779134
56	0x3dd8a321	0.10577989
57	0x3d36f98f	0.04467159
58	0x3c8ff6c8	0.01757373
59	0x3c8bdfa1	0.017074408
60	0x3af47c66	0.0018652796
61	0x3d2b0b18	0.041758627
62	0xbd2200fb	-0.039551716
63	0xbcdc559b	-0.026896289
64	0xbde937dd	-0.11387608
65	0xbdf45d4c	-0.119318575
66	0xbd7f8684	-0.062384143
67	0xbb9be44a	-0.004757439
68	0xbbff524a	-0.007791792
69	0x3c8e28c9	0.017353432
70	0xbe1ce86d	-0.15323038
71	0x3dff74da	0.124734595
72	0x3d14261f	0.036169168
73	0xbda80b62	-0.08205296
74	0x3c9de902	0.019276146
75	0x3ca6b247	0.020348681
76	0x3c9884e1	0.01861805
77	0x3dddba88	0.10826594
78	0x3e0f6945	0.14005001
79	0x3d2b46a0	0.0418154
80	0x3cdf48af	0.027256338
81	0x3c0e15c0	0.008672178
82	0x3cd1fb8d	0.025632644
83	0xbdb6f6a0	-0.08933759
84	0xbd6798b2	-0.056542106
85	0xbbbd919b	-0.00578518
86	0xbdc407c7	-0.09571796
87	0x3d3a5233	0.045488548
88	0x3e72b746	0.23702726
89	0xbcb88370	-0.022523612
90	0x3d4ddc4c	0.05025892
91	0xbd51aa3c	-0.05118774
92	0xbd18c99d	-0.03730165
93	0xbe0c9a88	-0.13730824
94	0xbd7aae10	-0.061201155
95	0x3d35ef8e	0.04441791
96	0x3b82ecbc	0.003995506
97	0xbdc73933	-0.09727707
98	0x3daf12b9	0.08548493
99	0xbd391740	-0.04518819
100	0xbd605020	-0.054763913
101	0x3b248df9	0.0025109036
102	0x3db4c176	0.08825962
103	0xbe072546	-0.13197812
104	0x3d5f45ab	0.0545098
105	0xbe34cd7b	-0.1765651
106	0xbd842a4a	-0.064533785
107	0x3cf8545e	0.030313667
108	0x3cf2bdc0	0.029631495
109	0x3d1c85b4	0.038213447
110	0xbd8d56a4	-0.06901291
111	0xbddd95fe	-0.10819624
112	0xbd209c10	-0.039211333
113	0x3dbb0a65	0.09132842
114	0x3c69a1ca	0.014259765
115	0xbdc9815c	-0.098391265
116	0x3bebe18a	0.007198517
117	0xbd322d63	-0.043500315
118	0x3e235bc4	0.15952975
119	0x3c6e82ca	0.01455755
120	0x3de2b19e	0.11069034
121	0xbce34cf0	-0.027746648
122	0x3d37febf	0.04492068
123	0xbd41f724	-0.047354832
124	0xbd97dee3	-0.07415559
125	0x3dfeee5b	0.124478064
126	0xbe1f718e	-0.15570661
127	0x3cd70e48	0.026251927
128	0x3e019014	0.12652618
129	0x3dd5d3f2	0.10440816
130	0x3cf0a21f	0.02937418
131	0x3e1034db	0.14082663
132	0x3db2babd	0.08727024
133	0xbcb6ed7b	-0.022330036
134	0x3cf498fc	0.029858105
135	0xbd5285fe	-0.051397316
136	0x3da0e2a4	0.07855728
137	0xbc1a5169	-0.009418824
138	0xbc953a6c	-0.018216334
139	0x3d83c63c	0.064342946
140	0xbd913f8d	-0.070921995
141	0xbe288a4b	-0.16459005
142	0xbd78236c	-0.060580656
143	0x3d3d7000	0.04624939
144	0xbd2a11be	-0.041520827
145	0x3d3a26e0	0.04544723
146	0x3dc395b3	0.09550037
147	0xbd9550c1	-0.07290793
148	0xbb4b51bc	-0.003102406
149	0x3d984afd	0.07436178
150	0x3ccb879a	0.024844933
151	0xbdb02972	-0.08601655
152	0x3d3596b2	0.044333167
153	0xbd66be54	-0.056333855
154	0xbdd2356e	-0.10264097
155	0x3e0b88c9	0.13626398
156	0x3d367ff7	0.04455563
157	0x3de146ae	0.10999809
158	0xb9f1c89f	-0.00046116576
159	0xbdf5f9e6	-0.12010555
160	0x3c025948	0.007955857
161	0x3d3b6efd	0.045760144
162	0x3d1f2238	0.038850993
163	0x3e6172af	0.22016405
164	0x3dc1623c	0.09442565
165	0xbdb82b7f	-0.08992671
166	0x3e058e19	0.13042487
167	0xbd700cb7	-0.058605876
168	0x3ca58218	0.020203635
169	0x3c5ddabd	0.013540921
170	0xbe0e733f	-0.1391115
171	0x3dba78af	0.0910505
172	0xbd8cd3fe	-0.06876372
173	0x3cccb724	0.024989672
174	0xbd55076a	-0.052009024
175	0x3c4e429a	0.012589121
176	0xbdd52101	-0.104066856
177	0x3db62c27	0.0889514
178	0xbcd2c985	-0.025730858
179	0x3d8c53b3	0.06851902
180	0x3e45e0ff	0.1932411
181	0xbe1a75fb	-0.15084068
182	0xbd92c2f2	-0.07166089
183	0xbde14f76	-0.11001484
184	0xbe067fd6	-0.13134703
185	0xbe0499dd	-0.12949319
186	0x3e0b1edb	0.13585989
187	0xbddf8a8a	-0.10915096
188	0x3d2ff2c3	0.042956125
189	0xbcb3f953	-0.021969473
190	0xbc666e54	-0.01406439
191	0x3e00920f	0.12555717
192	0xbddc925b	-0.107701026
193	0x3d984e68	0.0743683
194	0xbdf9f019	-0.12203998
195	0x3dfd4e2b	0.12368425
196	0xbdb24f45	-0.08706526
197	0xbcc0d092	-0.023536954
198	0x3dc239f4	0.0948371
199	0x3c433dbb	0.011916573
200	0xbdf18291	-0.11792482
201	0x3cc82a3c	0.024434201
202	0x3c007a34	0.0078416355
203	0x3d6c55ca	0.057699002
204	0x3e06538b	0.13117807
205	0xbdb3f551	-0.08787025
206	0xbe2b6423	-0.16737418
207	0xbd44b13c	-0.048020586
208	0x3dfd321b	0.123630725
209	0xbd294d82	-0.041333683
210	0xbdfa2862	-0.12214734
211	0x3e006f94	0.12542564
212	0x3d5425aa	0.05179373
213	0xbdae0022	-0.08496119
214	0x3bcd5992	0.006266781
215	0xbd46ab71	-0.048503343
216	0xbe01b05a	-0.12664929
217	0xbdfc863f	-0.12330293
218	0x3de57188	0.11203295
219	0xbc7fda16	-0.015615961
220	0xbc87729a	-0.016534138
221	0xbdde5c4e	-0.108574495
222	0x3e2abb6a	0.16673055
223	0xbd98dbb9	-0.07463784
224	0xbdc649e3	-0.096820615
225	0xbc70362b	-0.014661352
226	0xbc9a55e5	-0.018839786
227	0xbdcd0e17	-0.10012453
228	0x3cbba33f	0.02290499
229	0xbd05ccb2	-0.032665916
230	0xbdec16f8	-0.115278184
231	0xbe0276a7	-0.12740575
232	0xbd99b7e4	-0.075057775
233	0xbd3bbc3d	-0.045833815
234	0xbda36e0a	-0.07979973
235	0xbc86d258	-0.016457722
236	0x3daaa14a	0.08331545
237	0x3ca63f7b	0.020293942
238	0xbdb71219	-0.08938999
239	0x3d9b80ca	0.07592924
240	0xbd6b5718	-0.057456106
241	0xb819c04d	-3.6657137e-05
242	0x3c88a6d8	0.01668112
243	0x3ddae56b	0.10688289
244	0x3db41f48	0.08795029
245	0x3b8809aa	0.0041515427
246	0xbb993ac3	-0.0046761944
247	0x3ce41240	0.027840734
248	0x3bbbd2a2	0.0057318965
249	0xbc66ab00	-0.0140788555
250	0x3dc0c21f	0.09412026
251	0x3cf4a60a	0.02986433
252	0x3e1d888a	0.15384117
253	0x3e36b6f9	0.17843236
254	0xbe0ad01d	-0.13555951
255	0xbcbe9e44	-0.023268826

network_body._body_endoder.seq_layers.2.bias f4 [256]
0	0x3aa42ec1	0.0012526141
1	0x3b0d4508	0.0021556038
2	0x3ae3ba9f	0.0017374343
3	0x3ae28c24	0.0017284197
4	0x3af1939d	0.0018430833
5	0x39a6f225	0.000318424
6	0x3aefcf1a	0.0018295974
7	0xbb56420a	-0.003269317
8	0x3ad1fcfb	0.0016020829
9	0xbb175a3b	-0.0023094553
10	0xbb9481d7	-0.0045320797
11	0xb98672a5	-0.00025643889
12	0x3a338ce6	0.00068493036
13	0xbaca860c	-0.0015451326
14	0xbadec6c7	-0.0016996496
15	0x3b6512cb	0.0034953828
16	0xb9e4a828	-0.00043612835
17	0xb95865ab	-0.0002063724
18	0x3b2a76b6	0.0026010699
19	0x3b8d5e86	0.0043142466
20	0x3b0e0851	0.0021672437
21	0xbb80f6a4	-0.003935652
22	0xbb3b1b24	-0.0028550113
23	0x39f13602	0.0004600734
24	0x3b892c60	0.004186198
25	0xbaa210ae	-0.001236459
26	0xbabf34ca	-0.0014587876
27	0xbb3711a3	-0.0027934096
28	0xbb656e41	-0.0035008343
29	0xbac52122	-0.0015039782
30	0x3bc094fe	0.0058771363
31	0x3bc55bcc	0.006022906
32	0xba46c913	-0.0007583063
33	0x39a009ca	0.00030524872
34	0xb961639d	-0.00021494781
35	0xb9d15147	-0.00039924143
36	0xbaff1b7d	-0.0019463148
37	0x3900d14f	0.00012285005
38	0x3b0d585f	0.0021567566
39	0xba685822	-0.00088632305
40	0xbb8046a7	-0.0039146724
41	0x3ab674bf	0.0013920291
42	0xba6ebcd3	-0.00091071165
43	0xbb4034a3	-0.002932825
44	0x3a022dce	0.0004965932
45	0x3b6a5cda	0.003576091
46	0xbb50e9c9	-0.0031877628
47	0x3af6cce0	0.0018829368
48	0xbb4e3eee	-0.0031470614
49	0xbb0b84c0	-0.0021288842
50	0xbaa20aee	-0.0012362876
51	0xbb8702e9	-0.00412022
52	0xbb6872f8	-0.0035468917
53	0x3b0a5799	0.0021109341
54	0xbb0fe222	-0.0021954854
55	0xbb322a83	-0.0027185983
56	0xb951d429	-0.00020010829
57	0x3ab84326	0.0014058098
58	0xba824c64	-0.0009940979
59	0xbb8f8ade	-0.004380568
60	0x3ad22fe0	0.0016035996
61	0xbb1a90b3	-0.0023584783
62	0xb927edb4	-0.00016014912
63	0x3af9d659	0.0019061073
64	0xbb1e37b2	-0.0024142084
65	0xbabda240	-0.001446791
66	0x3b24f307	0.002516927
67	0xbb2a4d72	-0.0025986102
68	0xbae07994	-0.0017126077
69	0xbbc2e104	-0.005947234
70	0x3b08d797	0.0020880455
71	0xb9fef3dc	-0.00048628345
72	0xba98de96	-0.0011663015
73	0xb8b8889d	-8.79925e-05
74	0x3b44471e	0.0029949616
75	0xbb5f477c	-0.0034069708
76	0x3974b753	0.00023337947
77	0xbb9a05a8	-0.0047003813
78	0x3ac631d1	0.0015121048
79	0xbb484a54	-0.003056188
80	0x3a9e3892	0.0012071303
81	0xbb89ddde	-0.004207357
82	0xbb2983d1	-0.0025865922
83	0x3b41ca36	0.002956999
84	0xbb15f97d	-0.0022884302
85	0xba92dcd8	-0.0011204733
86	0xbb0a4cad	-0.0021102831
87	0xba3b3e0a	-0.00071427284
88	0xbaa1b7b2	-0.0012338071
89	0xb9161648	-0.00014313415
90	0x38874ffd	6.4522006e-05
91	0xba5643ef	-0.0008173575
92	0x3ae67148	0.0017581368
93	0x3994afe9	0.00028359823
94	0x3b5f9203	0.003411413
95	0x3b6db711	0.0036272446
96	0xb9c67a4e	-0.00037856627
97	0xbaa9cad6	-0.0012954127
98	0x3b72c6dc	0.00370448
99	0x3b953c2f	0.0045542936
100	0xba42b3a6	-0.00074272824
101	0xba03e286	-0.0005031008
102	0xbaa6428a	-0.0012684625
103	0xbb5eea5f	-0.0034014208
104	0xbb77277e	-0.0037712748
105	0xbb2753ec	-0.00255322
106	0x3b486395	0.0030576934
107	0xb9f3746b	-0.0004643531
108	0xbb6066c8	-0.003424095
109	0x3bb0067a	0.005371866
110	0x3af418f4	0.0018623159
111	0xba181404	-0.00058013224
112	0xbb105c1e	-0.0022027562
113	0xb9995ad2	-0.000292501
114	0xbb566d94	-0.0032719122
115	0xbb169b01	-0.0022980573
116	0x3adcae29	0.0016836572
117	0xbb9bed51	-0.004758515
118	0xbb355d81	-0.002767414
119	0xb965a465	-0.00021900384
120	0x3a90e3b6	0.0011054191
121	0xbac171ea	-0.001475868
122	0xbb26f060	-0.0025472865
123	0xbb775e43	-0.0037745393
124	0x3b3f99b1	0.0029235894
125	0xb96ba1ea	-0.00022471664
126	0xbb286294	-0.0025693523
127	0xbbac237e	-0.0052532544
128	0x399bba1f	0.00029702575
129	0xbbbc36dd	-0.005743845
130	0xbb878a9f	-0.004136398
131	0x3b6652d0	0.0035144575
132	0x3b2b6a3c	0.002615585
133	0xbaeedd39	-0.0018223888
134	0xb9fa410a	-0.00047732174
135	0xb882f1ea	-6.243943e-05
136	0xba5170fc	-0.0007989553
137	0x3b1994b7	0.0023434588
138	0xbb3caa3a	-0.0028787986
139	0x3a614976	0.00085940154
140	0xbb413676	-0.0029481924
141	0xb9dd6ddb	-0.00042234253
142	0xbb984029	-0.0046463204
143	0x3b2f7adc	0.002677611
144	0x3b7f2b2d	0.0038935647
145	0xbabe6cbb	-0.0014528254
146	0xbaa3b20a	-0.0012488973
147	0x3b3966e3	0.0028290085
148	0x3ba78171	0.005111866
149	0xbb23616a	-0.002492989
150	0xbafbc673	-0.0019208923
151	0xbadbd850	-0.001677284
152	0xbadb7ca1	-0.0016745516
153	0xbb181e7b	-0.0023211527
154	0x3adeaf5b	0.0016989516
155	0x3a28b66b	0.0006435874
156	0x37060a68	7.989445e-06
157	0x39b73dc8	0.0003495051
158	0x3a3ad28a	0.00071267097
159	0x3ac24e61	0.0014824384
160	0xbb7bd185	-0.0038424444
161	0xb99f1c15	-0.00030347766
162	0x3a5d4b29	0.00084416807
163	0xbb3aeada	-0.002852133
164	0xbb8581c2	-0.004074306
165	0xbb80581e	-0.0039167544
166	0xbb6cabee	-0.003611322
167	0x3ad831f7	0.0016494383
168	0xbab292ce	-0.0013624073
169	0xb9ef525b	-0.00045646992
170	0xbaa0c924	-0.0012266976
171	0xbb3a5f35	-0.0028438095
172	0xba99e712	-0.0011741838
173	0xb8a5f26b	-7.912967e-05
174	0x3a1b4590	0.00059231464
175	0xb93addba	-0.00017820942
176	0xbb01d8d1	-0.001981307
177	0xbb9ede74	-0.004848296
178	0xbb9c461e	-0.004769101
179	0xbb4f304e	-0.0031614485
180	0xbb80743d	-0.0039201067
181	0x3b03a884	0.0020089457
182	0xbab88ca3	-0.0014079999
183	0x3b137a91	0.0022503475
184	0xbadc68ee	-0.001681594
185	0x3a378b19	0.0007001623
186	0x3b20c135	0.0024529223
187	0xbb3d0c66	-0.0028846501
188	0xbb3fd287	-0.0029269771
189	0x3adf040f	0.0017014759
190	0xbba0ebfe	-0.004910945
191	0xbb115da3	-0.0022181056
192	0xba9719b2	-0.0011528044
193	0xb990adf1	-0.00027595417
194	0xbb59ff08	-0.0033263583
195	0xbb8af16c	-0.0042402055
196	0xbb155f0b	-0.0022792246
197	0xbb9c941b	-0.0047783977
198	0xbb9dd4ec	-0.004816642
199	0xbb20a7be	-0.0024514045
200	0xba67be71	-0.00088403287
201	0xba92d2d9	-0.0011201754
202	0x3a338103	0.00068475323
203	0x3b9e52db	0.0048316545
204	0xbb24ecb6	-0.0025165505
205	0xbb9a526f	-0.004709534
206	0x3b9f29a7	0.0048572603
207	0x3ab7736e	0.0013996193
208	0xbb4707ef	-0.003036972
209	0x3b2f3802	0.0026736264
210	0x3b880bb6	0.0041517867
211	0xbaa9768d	-0.0012929008
212	0x3b1b0016	0.0023651174
213	0x3b5bc4c3	0.0033534027
214	0xbb424510	-0.0029643215
215	0x39441304	0.000186991
216	0xb72149c9	-9.613527e-06
217	0xbb45075a	-0.0030064196
218	0x3b46cfc1	0.0030336233
219	0xbabbd87c	-0.0014331485
220	0x3b63fbc7	0.0034787522
221	0x3b969edf	0.0045965756
222	0xbb3793eb	-0.002801175
223	0x3b72cc7f	0.0037048159
224	0xbb3b4e53	-0.002858062
225	0xbb5f5c13	-0.003408198
226	0xbb1275c6	-0.002234803
227	0xb89f3f4c	-7.593501e-05
228	0x3a4b0e3d	0.0007745957
229	0xbb2a8653	-0.0026020005
230	0xbb579cfc	-0.0032899966
231	0xbae5632e	-0.0017500871
232	0x3a4af765	0.0007742553
233	0xb9ed55bf	-0.00045268048
234	0x3b3af2ae	0.0028525996
235	0x3a272077	0.0006375382
236	0x3aaa7bf1	0.0013006908
237	0x3a22380f	0.0006188163
238	0xbbc1b545	-0.0059115016
239	0x3b9f570f	0.004862673
240	0xba9309a1	-0.001121808
241	0x3acdfafb	0.0015715057
242	0xbb9d8d39	-0.004808095
243	0xba458ece	-0.0007536233
244	0xba11146a	-0.0005534353
245	0xbb09f645	-0.002105133
246	0xba8df28b	-0.001082973
247	0x3b8343ce	0.0040058857
248	0x3b43a75d	0.0029854395
249	0xb9d5fa9a	-0.0004081324
250	0x397f5713	0.00024351133
251	0xbb9a257a	-0.0047041746
252	0x3a73409f	0.00092793436
253	0x3a19b97f	0.0005864128
254	0xbb8d8ebe	-0.0043199947
255	0x3af8799d	0.0018957142

network_body._body_endoder.seq_layers.2.weight f4 [256, 256]
0	0x3debe6c6	0.11518626
1	0x3c310b5c	0.010805931
2	0xbd61f4ae	-0.055164985
3	0xbd185e60	-0.037199378
4	0xba01716f	-0.00049378624
5	0xbdcc54e6	-0.099771306
6	0xbd9551cc	-0.07290992
7	0xbc3b9e82	-0.011451365
8	0x3bbae1b8	0.0057031773
9	0x3d8d21da	0.06891222
10	0x3cce498a	0.02518155
11	0x3c00d228	0.007862605
12	0xbb3c5039	-0.002873434
13	0x3cf1aef3	0.029502368
14	0x3db57cae	0.088616714
15	0xbcfa8e01	-0.03058529
16	0xbd364e03	-0.04450799
17	0xbda28021	-0.07934595
18	0x3d102370	0.035190046
19	0x3d6cd015	0.05781563
20	0xbaab198d	-0.0013053879
21	0x3ce8736a	0.028375346
22	0xbd07bb26	-0.033137463
23	0xbd2b35f3	-0.041799497
24	0x3d0dc7e4	0.03461446
25	0xbd0d0179	-0.034425233
26	0x3c173348	0.009228535
27	0x3c18eb65	0.009333466
28	0xbc7e9cdb	-0.015540327
29	0x3de25991	0.1105224
30	0x3cb24808	0.021762863
31	0x3cb1da5f	0.021710573
32	0x3de61de1	0.11236168
33	0x3d1c962e	0.03822916
34	0xbd59b774	-0.05315347
35	0x3e13be98	0.14428174
36	0x3dca6a61	0.098835714
37	0xbcf3292f	-0.029682724
38	0x3d4ed7f4	0.050498918
39	0x3d60f66b	0.054922502
40	0xbbd34354	-0.006447235
41	0x3b8a7ee8	0.004226554
42	0x3da06330	0.078314185
43	0x3dd8af8d	0.10580359
44	0x3d81588f	0.06315719
45	0xbbca0a75	-0.0061657974
46	0xbd8cd71c	-0.06876966
47	0xbdc8fa50	-0.09813368
48	0x3ba432bd	0.0050109313
49	0x3d170b37	0.03687593
50	0xbb102db6	-0.0021999902
51	0x3c09257e	0.008370755
52	0x3e084910	0.13309121
53	0x3e10e6c9	0.14150538
54	0xbc5884c6	-0.013215249
55	0x3d9453e1	0.07242561
56	0x3d9085bb	0.07056757
57	0xbcf841c9	-0.030304806
58	0x3d541e2e	0.051786594
59	0x3d7b70b5	0.061386783
60	0xbcf7d9b2	-0.030255172
61	0xbb576386	-0.0032865717
62	0x3cd1e1e7	0.025620414
63	0x3dad4d26	0.084619805
64	0x3ca2e545	0.019884715
65	0xbd16e5dd	-0.03684031
66	0x3ba2995d	0.00496213
67	0x3dd2434c	0.10266742
68	0x3cff268f	0.031146316
69	0x3d97bdd8	0.07409257
70	0x3d568037	0.05236837
71	0x3d1c0b4d	0.038096715
72	0x3d3f817a	0.046754338
73	0xbd29f72d	-0.04149549
74	0x3d39d926	0.045373105
75	0xbd979e6f	-0.07403266
76	0xbd056b48	-0.032573014
77	0x3bcc640c	0.0062375125
78	0x3db64d04	0.08901408
79	0x3d2f11bf	0.042741533
80	0xbd310a82	-0.04322291
81	0x3dbbcec4	0.09170297
82	0x3d4183d7	0.047244873
83	0x3db22e9f	0.087002985
84	0xbdb8c91a	-0.09022732
85	0xbc17debb	-0.009269412
86	0xbc8d8fdc	-0.017280512
87	0x3ba70270	0.005096726
88	0xbce6b09b	-0.028160384
89	0xbcc0b126	-0.023521971
90	0xbdb6b7ca	-0.08921774
91	0xbd517ca1	-0.051144246
92	0xbb3119f4	-0.0027023526
93	0x3d4ccb83	0.04999877
94	0x3dc2acb5	0.095055975
95	0x3dadfa83	0.08495047
96	0xbcd5912f	-0.026070205
97	0xbd01b817	-0.031669702
98	0x3c0b5c5f	0.00850591
99	0x3d1362c8	0.035982877
100	0xbd5cb733	-0.05388565
101	0xbcd01b0d	-0.025403524
102	0x3db71c44	0.08940938
103	0x3d334eef	0.04377645
104	0x3c58e91e	0.013239173
105	0x3d86322b	0.065525375
106	0x3e230ede	0.1592364
107	0x3c84d173	0.016213154
108	0x3dd17a8f	0.10228454
109	0x3d40420d	0.04693799
110	0x3e0c64b7	0.13710295
111	0x3d9d1de5	0.076717176
112	0x3da076e8	0.078351796
113	0xbd84ee57	-0.06490772
114	0x3ce0ba7e	0.027432676
115	0x3d1cd6e3	0.03829087
116	0xbe029520	-0.12752199
117	0x3d6d4329	0.057925377
118	0xbcc9cd15	-0.024633924
119	0x3c0be367	0.008538104
120	0x3d722d02	0.059124954
121	0x3d4da87d	0.05020951
122	0xbcdc74b8	-0.026911125
123	0x3ba30614	0.00497509
124	0xbd75723c	-0.059923396
125	0x39a8a2d8	0.00032164785
126	0x3df33292	0.1187488
127	0x3defee80	0.11715412
128	0xbcf21be9	-0.029554324
129	0xbc31f930	-0.010862634
130	0xbd83da51	-0.06438125
131	0xbd9b4892	-0.07582201
132	0x3ce9d29d	0.028542811
133	0xbd4be761	-0.049781207
134	0x3d2d41b3	0.042298984
135	0x3d29831d	0.041384805
136	0x3e18467f	0.14870642
137	0xbcf58176	-0.029968958
138	0xbbb07c1e	-0.0053858897
139	0xbc59a5f1	-0.013284192
140	0x3d8b7720	0.06809831
141	0x3cee078b	0.029056331
142	0xbd6e9324	-0.058245793
143	0xbdef0aea	-0.116720036
144	0xbc4ba088	-0.01242841
145	0xbd1aaecf	-0.037764367
146	0x3d05d63d	0.032675017
147	0xbd0ea9f0	-0.034830034
148	0x3d3b83cc	0.04577999
149	0x3c3497d3	0.011022526
150	0x3d7eed55	0.062238056
151	0xbcc1c84f	-0.023655085
152	0x3d3ad6fc	0.04561518
153	0xbde0cadb	-0.109761916
154	0xbd73fb12	-0.05956561
155	0x3bc6a4b7	0.006062116
156	0xbca9f18e	-0.020745065
157	0xbc244a8d	-0.01002754
158	0xbd25be3d	-0.04046463
159	0x3d0ebad7	0.034846153
160	0x3c6d2aa7	0.014475501
161	0x3dc8313b	0.09775015
162	0x3c59a919	0.013284945
163	0xbc056f8b	-0.00814427
164	0x3d32de71	0.043669168
165	0x3dfcd0e7	0.123445325
166	0x3d1141d8	0.035463184
167	0x3c70ea2f	0.014704271
168	0x3d2340c7	0.0398567
169	0xbe1cbb1c	-0.15305752
170	0xbbe2408f	-0.0069046686
171	0x3db025c0	0.0860095
172	0xbc3721e3	-0.011177513
173	0x3cb62321	0.022233548
174	0xbd570664	-0.05249633
175	0x3bd2ddef	0.006435148
176	0x3d997c23	0.0749438
177	0x3d0855b5	0.03328486
178	0xbd06c1f5	-0.032899816
179	0xbdae549e	-0.08512233
180	0x3d3a8534	0.04553719
181	0x3ba54e45	0.005044731
182	0x3c95c6a0	0.018283188
183	0xbdc15b1f	-0.09441208
184	0xbb8fd932	-0.0043899054
185	0xbdfafc1b	-0.122551166
186	0x3d14659b	0.03622971
187	0xbd8c5e48	-0.0685392
188	0x3db7e371	0.08978928
189	0xb9921ec4	-0.00027870212
190	0xbc53e904	-0.012933973
191	0xbd1e8b54	-0.038707092
192	0xbc244189	-0.01002539
193	0x3d379076	0.044815503
194	0xbd9343db	-0.07190677
195	0xbd5ab8ee	-0.05339902
196	0xbc2520f2	-0.010078656
197	0xbd4a1b97	-0.049342718
198	0x3b9929aa	0.004674156
199	0xbd159060	-0.03651464
200	0xbd04c2df	-0.032412406
201	0x3d5d762f	0.054067787
202	0x3d6c8b14	0.057749823
203	0xbe13ace6	-0.14421424
204	0xbbd2fc39	-0.0064387587
205	0x3d998e96	0.07497899
206	0x3c3264df	0.010888307
207	0x3b527e86	0.003211887
208	0x3c8266b0	0.015918106
209	0xbdb5b361	-0.088721044
210	0x3d3dee1b	0.046369653
211	0x3c2c4b38	0.01051598
212	0x3b5e8dea	0.00339591
213	0xbd809dee	-0.06280123
214	0xbbc2ce29	-0.0059449864
215	0xbd6a0765	-0.05713596
216	0x3c24af3c	0.010051545
217	0xbd4c25c3	-0.0498407
218	0xbd5901d4	-0.05298026
219	0xbc1b85c1	-0.009492339
220	0xbd254461	-0.040348414
221	0xbd1109fa	-0.035409905
222	0xbdc8f550	-0.09812415
223	0x3d85fe60	0.06542659
224	0x3d09082e	0.033455066
225	0xbd0a6b69	-0.03379384
226	0xbbc9a379	-0.0061535207
227	0xbdcc7a96	-0.09984319
228	0x3c5472eb	0.012966852
229	0xbd609e4c	-0.054838464
230	0xbcfdf2bd	-0.030999536
231	0xbc102a1a	-0.0087991
232	0x3cce6b36	0.025197607
233	0x3cbab4e6	0.022791337
234	0x3d8ee236	0.0697674
235	0xbd5a368c	-0.053274676
236	0x3d28f9da	0.041253902
237	0xbdac4146	-0.084108874
238	0xbd4e30c9	-0.050339494
239	0xbd8ddad1	-0.069265015
240	0xbc9b04c4	-0.01892317
241	0x3d4939ef	0.049127515
242	0x3c30281a	0.010751748
243	0xbcbc51b6	-0.022988182
244	0xbcc2bf23	-0.023772782
245	0xbd960eb3	-0.073270224
246	0xbd888412	-0.066658154
247	0xbda192e4	-0.07889345
248	0x3b827ec9	0.003982399
249	0xbcebbfd1	-0.028777989
250	0x3d7494f5	0.05971237
251	0x3d8c5786	0.06852631
252	0x3c0ed02b	0.008716623
253	0x3c6eeee4	0.014583323
254	0xbbf72d71	-0.007543259
255	0x3cfcf01a	0.030876208
