results/Shooter/Shooter/Shooter-26797.onnx (onnx, 308018 bytes, 9 tensors)

action_model._continuous_distribution.log_sigma f4 [1, 3]
0	0x3c5cb27d	0.013470289
1	0x3d1160a7	0.035492565
2	0x3d11bfc4	0.035583273

action_model._continuous_distribution.mu.bias f4 [3]
0	0x3aff9e94	0.0019502216
1	0x3c17756b	0.009244303
2	0xbbb5e757	-0.0055512595

action_model._continuous_distribution.mu.weight f4 [3, 256]
0	0x3b2aa4bc	0.002603813
1	0x3ca34b83	0.019933468
2	0xbc7cf283	-0.015438679
3	0xbc713bf0	-0.014723763
4	0xba75f2ac	-0.0009382169
5	0xba99506c	-0.0011696941
6	0x3a56f521	0.0008199979
7	0x3c9888e6	0.018619966
8	0x3cf3971a	0.029735137
9	0xbbf8bd89	-0.0075909537
10	0xbaf5223c	-0.0018702219
11	0x39f1ead2	0.00046142057
12	0x3cbf342d	0.023340309
13	0x3d446b7c	0.047954068
14	0xbbbd9b28	-0.0057863183
15	0xbbcdc377	-0.0062794047
16	0x3c9cf2cf	0.019158749
17	0x3c367b1f	0.011137753
18	0xbb728e0c	-0.0037010936
19	0x3baea94f	0.0053302418
20	0x3bc7e55e	0.0061003407
21	0xbce9ed15	-0.028555432
22	0x3bcb81f3	0.0062105595
23	0x3b873191	0.004125782
24	0xbc8a0c95	-0.016851703
25	0x3c4a51cb	0.0123486025
26	0x3cefc91f	0.029270707
27	0x3c2bb95f	0.010481208
28	0x3c256ab8	0.0100962445
29	0xbc4d220a	-0.012520323
30	0x3caa1264	0.020760722
31	0xbbed52e0	-0.0072425455
32	0x3bcb288a	0.006199901
33	0x3c17befe	0.009261845
34	0xbbbe75c0	-0.0058123767
35	0xbbacece6	-0.005277264
36	0x3bb7f658	0.0056140833
37	0x3ba069da	0.004895431
38	0xbb7b06b8	-0.0038303565
39	0x3c0032a0	0.00782457
40	0x3b3e2a7e	0.0029017027
41	0xbc68e778	-0.014215343
42	0xbb1bc0f8	-0.0023766141
43	0x3cc8e8d3	0.024525082
44	0x3bebf383	0.0072006597
45	0x3c1c9e28	0.009559192
46	0x3bc1770a	0.005904083
47	0x3a88d416	0.0010439183
48	0xbc1b725b	-0.009487714
49	0xbb2927a2	-0.0025810977
50	0x3c0c50ff	0.008564233
51	0x3cd86863	0.026416963
52	0xb9d14f14	-0.00039922504
53	0xbc4216b9	-0.011846238
54	0xbc287d64	-0.010283802
55	0x3cb8f0b4	0.022575714
56	0xbd14c8b8	-0.036324233
57	0xb9dc5258	-0.0004202302
58	0x3c51582f	0.012777372
59	0xbaf64ec2	-0.0018791782
60	0x3c40ef51	0.0117758075
61	0x3c09ad8c	0.008403193
62	0x3d0968d2	0.03354723
63	0x3b7d3b3c	0.0038640043
64	0x3c534d93	0.012896913
65	0x3b5503e0	0.003250353
66	0x3c479682	0.01218188
67	0xbc09a0ce	-0.008400155
68	0xbac6be0d	-0.0015162841
69	0xbc48fc6a	-0.012267211
70	0x3c9c545b	0.019083193
71	0xbc9bd56f	-0.019022672
72	0x3c7dc65f	0.01548919
73	0xbbf8e943	-0.0075961663
74	0xbc247240	-0.010037005
75	0xbbb44169	-0.0055009616
76	0xbb230433	-0.002487433
77	0x3953c0bc	0.00020194327
78	0xbb75f092	-0.0037527424
79	0x3c36c500	0.011155367
80	0x3c7b0ce4	0.015322898
81	0x3b5afccc	0.0033414839
82	0xbb4d2875	-0.0031304632
83	0x3ae97f8c	0.0017814501
84	0xbc4c472f	-0.012468143
85	0x3c5a02f2	0.013306366
86	0xbbfd0929	-0.0077220392
87	0x3cc2fe7a	0.023802985
88	0x3b67a0a4	0.0035343552
89	0xbbb753b7	-0.0055946964
90	0x3ce4552b	0.027872643
91	0xbab8431e	-0.0014058088
92	0x3b44a260	0.003000401
93	0xbb9cb287	-0.0047820243
94	0x3c7d25b6	0.0154508855
95	0x3cf977bb	0.0304526
96	0xbbb480fb	-0.0055085397
97	0x3ce57e3e	0.028014299
98	0xbca639e6	-0.02029128
99	0x3c98977d	0.018626923
100	0x3c59ea7a	0.0133005325
101	0xba25cc58	-0.00063247
102	0x3b5322b6	0.0032216734
103	0x3cdacfe2	0.026710454
104	0x3c8f70f8	0.017509922
105	0xbb741638	-0.0037244689
106	0x3a8c750e	0.0010716037
107	0xbcbc8753	-0.023013746
108	0x3aff1dde	0.0019463857
109	0x3cdc4ac0	0.026891112
110	0xbb02874c	-0.001991707
111	0xbc611b8a	-0.013739476
112	0xbc1ddb6b	-0.009634833
113	0x3cd72621	0.026263298
114	0x3c1769c2	0.009241523
115	0x3ccf2548	0.025286332
116	0x3c498db6	0.012301853
117	0xbc0ada70	-0.008474931
118	0x3b8573d0	0.004072644
119	0xbc99cab7	-0.01877342
120	0xbaf090fd	-0.0018353757
121	0x3b4c7a89	0.0031200966
122	0xbc36763c	-0.011136588
123	0xbc02e431	-0.007988975
124	0xbbafb4f6	-0.0053621484
125	0xbc32e58a	-0.010918984
126	0xbc2317f5	-0.009954442
127	0xbc095dfe	-0.008384226
128	0x3b92e49a	0.004482818
129	0x3b3bf4ff	0.0028679965
130	0x3b3e6587	0.0029052214
131	0x3a206e7c	0.0006119979
132	0x3cca88a8	0.024723366
133	0xbb961285	-0.0045798444
134	0x3b4ca5dd	0.0031226792
135	0x3c75772f	0.014982029
136	0x3ce0e18a	0.027451295
137	0xbc1f433e	-0.009720622
138	0x3c00912a	0.00784711
139	0x3ab0adf0	0.0013479572
140	0x3cbaeb74	0.02281735
141	0x3bb77838	0.005599048
142	0x3b98a681	0.0046585207
143	0x3c7552be	0.014973341
144	0x3c54734d	0.012966943
145	0x3c01190a	0.007879505
146	0xbb270ea3	-0.0025490902
147	0xbc10685f	-0.0088139465
148	0x3d0c7d52	0.034299202
149	0xbba57fc1	-0.00505063
150	0xbb8d6ac5	-0.0043157064
151	0x3b25f454	0.0025322633
152	0x3c636318	0.013878606
153	0x3b141be2	0.0022599627
154	0x3a9b3528	0.0011841403
155	0x3c863695	0.016383449
156	0x3c164f33	0.009174156
157	0xbc801208	-0.015633598
158	0x3bf8c9dc	0.007592423
159	0xbc25c1c1	-0.010116995
160	0x3b31966d	0.0027097717
161	0xbaad026b	-0.0013199573
162	0x3cac4c38	0.021032438
163	0xbb53fe0c	-0.0032347469
164	0x3b416dd0	0.0029514916
165	0x3cb8cf7f	0.02255988
166	0x3caaef96	0.020866197
167	0xbcac4fa7	-0.021034075
168	0x3b66ff63	0.0035247437
169	0x3b68dd0b	0.0035532143
170	0x3bef26d9	0.007298332
171	0xbc01cd4c	-0.007922482
172	0x3cbb6ce7	0.022879077
173	0x3ca0d83a	0.019634355
174	0x3c22cf42	0.009937109
175	0xbbb3e1ee	-0.0054895794
176	0x3b11ea4e	0.00222649
177	0x3b852452	0.0040631676
178	0x3b740479	0.0037234111
179	0xbb41e79f	-0.002958752
180	0x3ce7ee1c	0.028311782
181	0xbb134f20	-0.0022477582
182	0xbc1d67f9	-0.009607309
183	0xbc601fd2	-0.013679462
184	0x3bc919b3	0.006137097
185	0xbb587751	-0.0033030102
186	0xbb9ae68f	-0.0047271918
187	0x3bf4f7de	0.007475837
188	0xbb39c524	-0.0028346265
189	0xbbbf73a8	-0.0058426447
190	0x3acdd6c1	0.001570426
191	0x3c55e024	0.013053928
192	0xba40f5f1	-0.0007360867
193	0xbbfe271a	-0.007756126
194	0x3c1a85ac	0.009431284
195	0x3c712313	0.014717835
196	0xbb17e857	-0.0023179257
197	0x3a90bb6f	0.0011042188
198	0x3c8548f4	0.016270138
199	0xbb7e5c67	-0.00388124
200	0xbaf874c0	-0.0018955693
201	0xbb728064	-0.0037002796
202	0x3b5ccc9d	0.0033691295
203	0xbbc38790	-0.005967088
204	0xbb3b4df6	-0.0028580404
205	0x3c34de6e	0.0110393595
206	0x3c1460d2	0.009056287
207	0x3c100b0c	0.008791696
208	0x3cabad4f	0.020956663
209	0x3c644844	0.013933245
210	0x3c13462f	0.008988901
211	0x3ce3e06d	0.027816975
212	0x3c941bef	0.018079726
213	0x3c460321	0.012085707
214	0x3c399a84	0.011328343
215	0xbb99d571	-0.0046946337
216	0xba107437	-0.00055104814
217	0xbab550c1	-0.0013833271
218	0x3c17d410	0.009266868
219	0x3c34a12b	0.011024754
220	0x39ee2ca3	0.00045428154
221	0xbb98ef6f	-0.0046672146
222	0xbbb9d63f	-0.005671292
223	0x3c76ca38	0.015062861
224	0x3a65c505	0.0008765015
225	0xbc06b831	-0.008222626
226	0xbc35e699	-0.011102342
227	0x3bd85ef3	0.0066031157
228	0xbcaac68d	-0.02084663
229	0xbc06e482	-0.008233191
230	0x3b4d2ac0	0.0031305999
231	0xbc6aa1d3	-0.014320808
232	0xbaffb621	-0.0019509235
233	0xbb3f6484	-0.00292042
234	0xba90a396	-0.001103508
235	0xbb30b2c9	-0.0026962033
236	0x3ca39df6	0.019972783
237	0x3a8c8801	0.0010721685
238	0xbbe874cd	-0.007094002
239	0xbba5daa4	-0.0050614644
240	0xbc9b14fc	-0.018930905
241	0xbd172d4d	-0.036908437
242	0x3d0af8c2	0.03392864
243	0x3b74aa0e	0.0037332806
244	0xbc5bde55	-0.013419707
245	0x3c21350c	0.0098393075
246	0xbcb51e55	-0.02210919
247	0xbb41326a	-0.0029479512
248	0xbc0e6e20	-0.008693248
249	0x3cf0328e	0.029320981
250	0x3cee97f0	0.029125184
251	0x3cac30dd	0.021019394
252	0x3bdd7da9	0.0067593646
253	0x3c27adc1	0.010234297
254	0x3c0e438c	0.008683097
255	0x3c178929	0.00924901

action_model._discrete_distribution.branches.0.bias f4 [2]
0	0xbc055e01	-0.008140088
1	0x3c055e08	0.008140095

action_model._discrete_distribution.branches.0.weight f4 [2, 256]
0	0xbbc37805	-0.005965235
1	0xbc5a22b8	-0.013313942
2	0xbbdd76d7	-0.0067585516
3	0xbc67ce4a	-0.014148304
4	0x3b8efcb1	0.0043636193
5	0x3ba05852	0.004893341
6	0xbad94461	-0.0016576165
7	0x3c1eab6a	0.009684423
8	0x3b97156d	0.0046107084
9	0xbca26e20	-0.019827902
10	0x3bae525f	0.005319878
11	0xbc11c20b	-0.008896361
12	0xbbc694d8	-0.006060224
13	0xba24fa64	-0.00062934146
14	0xbc0ce051	-0.008598403
15	0x3989cc3c	0.00026282843
16	0x3c0662ad	0.008202237
17	0xbc065df7	-0.008201114
18	0xbbb6826b	-0.0055697463
19	0x3ac8ce6f	0.0015320311
20	0xbc2e1061	-0.010624022
21	0x3c024e63	0.007953259
22	0x3b588fc5	0.0033044678
23	0x3b76c62e	0.0037654745
24	0x3b1e3dbe	0.0024145688
25	0xbc65d6cb	-0.014028261
26	0x3b5e471b	0.0033916894
27	0xbc343cee	-0.011000855
28	0xbb4865e0	-0.00305783
29	0xbbd63197	-0.0065366733
30	0xbc9abe81	-0.018889667
31	0x3b5eb1d8	0.0033980515
32	0x3b9511c1	0.0045492356
33	0xbc521db2	-0.012824463
34	0xba60a47b	-0.00085694314
35	0xbb548095	-0.0032425274
36	0xbc05de70	-0.008170709
37	0x3bc6ca24	0.0060665775
38	0xbb0fd5c1	-0.0021947476
39	0xbbf64ec7	-0.007516715
40	0xbc0fca2c	-0.008776229
41	0x3bacda86	0.0052750735
42	0x3c1a5b58	0.009421192
43	0xbb85bd02	-0.0040813694
44	0x3b316991	0.002707098
45	0x3c3173ef	0.010830863
46	0x3aeff2a5	0.0018306567
47	0xbc94691f	-0.018116532
48	0xbb191240	-0.0023356825
49	0xbb7b1b42	-0.0038315807
50	0x3bf8090e	0.007569439
51	0x3c8116ff	0.015758036
52	0xbb8a0e10	-0.004213102
53	0xbc3a4153	-0.011368114
54	0xbcc80f02	-0.024421219
55	0x3b7ca5be	0.0038550938
56	0x3bb5b392	0.005545088
57	0x3a241893	0.00062597654
58	0xbb4a116b	-0.0030833136
59	0x3b492f06	0.0030698194
60	0xbb85888d	-0.004075116
61	0xbc788dad	-0.015170497
62	0xbc6f4852	-0.014604645
63	0xbc4f2ebc	-0.01264542
64	0x3c05fc5e	0.008177845
65	0xbb90d05a	-0.0044193687
66	0xbad96c1f	-0.0016588009
67	0xbb008795	-0.0019612063
68	0xbaf639ec	-0.0018785573
69	0x3b8a2014	0.00421525
70	0xbbb71ec7	-0.0055883857
71	0xbbbe833f	-0.0058139856
72	0xbaa23570	-0.0012375545
73	0xbaa5a5c6	-0.0012637905
74	0xbb15620a	-0.0022794032
75	0xbbe7f252	-0.0070784474
76	0x3c83086f	0.015995232
77	0x3ba93a22	0.0051644007
78	0x3ce18283	0.027528053
79	0x3c4142eb	0.01179574
80	0xbbc444a9	-0.0059896302
81	0xbb3e9b83	-0.0029084391
82	0x3b222609	0.002474191
83	0x3a4a2808	0.00077116536
84	0xba5a8ff0	-0.00083374884
85	0xbbe55f30	-0.0069998726
86	0xbb214106	-0.0024605407
87	0xbbea09b4	-0.00714227
88	0xbc3facd2	-0.011698918
89	0xbad2ae7d	-0.001607373
90	0x3b3c2319	0.0028707443
91	0xbcaed85c	-0.021343403
92	0x3c1d514c	0.009601902
93	0xba5c42f2	-0.00084023096
94	0x3c160a2f	0.009157701
95	0x3b1e8610	0.0024188794
96	0xbc5e211e	-0.0135577
97	0xbb705a70	-0.0036674999
98	0x3b1189a4	0.0022207284
99	0xbbd85bf6	-0.0066027595
100	0xbbb43cd6	-0.0055004163
101	0x3ba3d37c	0.004999576
102	0xbc6908fc	-0.014223333
103	0xbb50c280	-0.0031854212
104	0xbbdff54d	-0.006834662
105	0x3bc5974c	0.006029999
106	0xbbc70d80	-0.0060746074
107	0x3b2e953d	0.0026639246
108	0xbb49699d	-0.0030733116
109	0x3c082118	0.008308671
110	0xbb3638a6	-0.0027804761
111	0xbc204e40	-0.009784281
112	0xbc3bf9e7	-0.011473156
113	0x3c313b14	0.010817308
114	0x3b777fb6	0.003776533
115	0xbc5e6b83	-0.0135754375
116	0xbbd6a5c3	-0.006550522
117	0xbbb2df92	-0.0054587806
118	0x3b81a2e4	0.0039561857
119	0xbc4cec53	-0.012507516
120	0xbb3e8fbd	-0.0029077374
121	0x3bc12514	0.0058943126
122	0x3bfb74cd	0.007673836
123	0x3aaf2061	0.001336109
124	0x3b97a8ef	0.0046282928
125	0x3c508b8f	0.012728586
126	0xbc92fa45	-0.017941603
127	0xbb98e5c3	-0.0046660616
128	0x3c186236	0.009300759
129	0xb9ce8726	-0.00039392075
130	0xbc36e1ac	-0.011162203
131	0x3b93de3c	0.0045125764
132	0xbc044cdc	-0.008074965
133	0xbc248854	-0.010042269
134	0xbb6dc666	-0.0036281585
135	0xbb9bc979	-0.004754242
136	0xbc14bce8	-0.009078242
137	0x3c7a12ab	0.01526324
138	0xba9f7472	-0.0012165441
139	0xbb2587db	-0.0025257978
140	0xbbc50269	-0.00601225
141	0xbbca094a	-0.006165658
142	0xbba95bf0	-0.0051684305
143	0x3af0c4cb	0.0018369196
144	0xbbf939f3	-0.007605785
145	0xbbb80ada	-0.005616528
146	0xbb0e73ee	-0.002173658
147	0xbc7a635b	-0.015282477
148	0x3c4304c4	0.011902992
149	0xbbb1c07d	-0.0054245577
150	0x3c5ec213	0.013596076
151	0x3b90d21d	0.0044195787
152	0x3bcd5359	0.0062660393
153	0xbb8c3e6f	-0.0042799036
154	0xbca1d8af	-0.019756643
155	0xbc9415a0	-0.018076718
156	0x3b87ef80	0.0041484237
157	0x3a7966ca	0.0009513913
158	0xbbb37405	-0.005476477
159	0xbc557cf7	-0.013030282
160	0xba740b37	-0.00093095325
161	0x3b981554	0.0046412144
162	0xba2afc24	-0.0006522557
163	0x3b70c0fd	0.0036736124
164	0xbc560aba	-0.013064081
165	0xbb939011	-0.004503258
166	0x39c62349	0.00037791792
167	0x3b1c0c22	0.0023810943
168	0x3c3b1bd0	0.011420205
169	0xba483cce	-0.0007638455
170	0xbbcfa9a6	-0.0063373623
171	0x3b65c162	0.0035057892
172	0xbc209244	-0.009800497
173	0xbc03ab7a	-0.008036489
174	0x3a504723	0.00079451705
175	0xbbd30953	-0.0064403205
176	0xbb7fe685	-0.0039047312
177	0xbb7404a4	-0.0037234211
178	0x3ba354e9	0.0049844873
179	0xbbdc591a	-0.006724489
180	0xbc473f16	-0.012161037
181	0xbb1ed5cc	-0.002423632
182	0xb8d7cd9a	-0.00010290295
183	0xbbd908eb	-0.0066233776
184	0xbc930d67	-0.017950727
185	0x3b223274	0.002474931
186	0x3b41b7fe	0.002955913
187	0x3beb2505	0.007176044
188	0xbbc28a29	-0.00593688
189	0xbadbb7d8	-0.0016763164
190	0x3b953c47	0.0045543048
191	0xbc1986b2	-0.009370493
192	0x39998c09	0.00029286768
193	0xbb2e1aa7	-0.002656618
194	0xbb7a3d9c	-0.0038183695
195	0xbc628bc7	-0.013827271
196	0x3b99457c	0.0046774726
197	0xba6392fd	-0.0008681266
198	0x3c0921a4	0.008369837
199	0x3b938922	0.0045024315
200	0xbbfddecc	-0.0077475067
201	0xbc2c6896	-0.010522982
202	0x3b354161	0.0027657377
203	0x3c68a8af	0.014200374
204	0xbbe277cd	-0.006911254
205	0xbba11a5e	-0.0049164733
206	0xbb4af3ea	-0.0030968138
207	0xbc2f0bd4	-0.010683972
208	0xbbf244b4	-0.007393444
209	0x3c087fbc	0.0083312355
210	0x3c92268a	0.017840642
211	0x395e8499	0.00021220966
212	0x39f7b51d	0.0004724645
213	0xbcaaeadf	-0.020863948
214	0xbc351845	-0.01105315
215	0xb9f14996	-0.00046021928
216	0xb8d53ae7	-0.00010167603
217	0xbc437876	-0.011930576
218	0xbb73f410	-0.003722433
219	0x3ac94261	0.0015354865
220	0xbbc0999b	-0.005877686
221	0xbaf5ccfc	-0.0018753107
222	0x3be52512	0.0069929445
223	0xbbe1f805	-0.0068960213
224	0xbb478649	-0.003044503
225	0x3bea9393	0.0071587055
226	0x3bd5e3a5	0.0065273815
227	0x3bfd5ada	0.0077317776
228	0xbb389476	-0.0028164661
229	0xbbef1f94	-0.0072974656
230	0xbb04aace	-0.002024341
231	0x3c4b9018	0.012424491
232	0xbc36bf64	-0.0111540295
233	0x3c3ba967	0.011453963
234	0x39d15aea	0.00039931323
235	0x3b3c9929	0.0028777814
236	0xbbd53d14	-0.006507525
237	0xbbe6af11	-0.0070399125
238	0xbbb6cf86	-0.005578938
239	0xbbd062ec	-0.0063594487
240	0xbacd395b	-0.0015657352
241	0xbc0cef5c	-0.00860199
242	0x3c1d1e5a	0.009589756
243	0xbc0cd395	-0.008595367
244	0xbba7db96	-0.005122612
245	0xba9eed38	-0.001212514
246	0x3ab068aa	0.0013458927
247	0xbb943c52	-0.0045237923
248	0x3c2a019c	0.01037636
249	0xbc818a6e	-0.015813079
250	0xbb938edb	-0.0045031137
251	0xbbc7f144	-0.006101759
252	0x3bb29865	0.0054502958
253	0xbb9dbd75	-0.004813845
254	0xbb90ba56	-0.004416744
255	0xbc8c13c7	-0.017099274

network_body._body_endoder.seq_layers.0.bias f4 [256]
0	0xbc275695	-0.010213514
1	0xb74c53ce	-1.217886e-05
2	0x3b4c94e2	0.003121667
3	0xbc476c69	-0.012171843
4	0xbadde223	-0.0016928356
5	0xbbd61382	-0.006533087
6	0x3c0866e7	0.008325315
7	0xbb96fa1d	-0.0046074525
8	0xbc1777cd	-0.009244871
9	0x3c9bef95	0.01903514
10	0x3bcac2d1	0.0061877747
11	0xba249b2d	-0.00062792265
12	0x3981fbe4	0.0002479247
13	0xbbd6dc0a	-0.0065569924
14	0xbc5fb251	-0.013653354
15	0x3b4e425e	0.0031472663
16	0xbbcf4595	-0.0063254335
17	0x3c046707	0.008081204
18	0x3bad4133	0.0052873134
19	0xbc1c1dd7	-0.009528599
20	0xbae9dd9c	-0.0017842534
21	0x3bb1f7cc	0.005431151
22	0xba2fc164	-0.00067045377
23	0x3b34d1f6	0.0027590967
24	0x386fd529	5.718056e-05
25	0x3ac4253a	0.0014964708
26	0x3ab9b267	0.0014167548
27	0xb860fcb9	-5.3641128e-05
28	0xbca7aa0c	-0.020466827
29	0xbbd3a849	-0.00645927
30	0x3bd0ee4e	0.0063760644
31	0xbb41aa12	-0.0029550833
32	0xbb007402	-0.0019600396
33	0xba961468	-0.0011450173
34	0x3aa899e2	0.0012863243
35	0xbba2cb8e	-0.0049681133
36	0xbc859935	-0.016308406
37	0xbca157f5	-0.019695261
38	0x3aa5c753	0.0012647904
39	0xbafe0ca5	-0.001938243
40	0xbbea97a2	-0.0071591893
41	0x3b96f375	0.004606659
42	0x3aaaf217	0.0013042119
43	0x3a889d57	0.0010422867
44	0x3c2bbf79	0.010482662
45	0x3c7dfc3d	0.015502033
46	0x3b796dde	0.003805987
47	0xba9271bf	-0.0011172815
48	0xba3eb6c1	-0.0007275157
49	0xbb7c2db3	-0.0038479387
50	0x3bef4f51	0.0073031564
51	0xbb0a6425	-0.002111682
52	0xbbcdcba3	-0.006280379
53	0xb98e91fc	-0.00027193117
54	0xb86ed64f	-5.6943212e-05
55	0xbb48cf88	-0.0030641276
56	0x3a82ba5b	0.0009973751
57	0xbb51526c	-0.0031939996
58	0xbc108c8c	-0.0088225715
59	0xbc707942	-0.014677348
60	0xbbde2a02	-0.00677991
61	0xbafaea98	-0.0019143401
62	0x3a8c42cb	0.0010701058
63	0xbc6124f1	-0.013741718
64	0xbac182e5	-0.0014763741
65	0xba8f9d04	-0.0010956828
66	0x3ac1e2bc	0.0014792304
67	0xbb04f05f	-0.0020284874
68	0xba4b8b71	-0.0007764614
69	0xba13e40e	-0.0005641588
70	0x3bfc3e5d	0.007697864
71	0x3b4a9798	0.003091311
72	0xbbc4277b	-0.0059861518
73	0x3ae22c68	0.0017255666
74	0x3bd7b4fe	0.0065828552
75	0xba7a181b	-0.0009540335
76	0x3c0dbbc4	0.008650724
77	0xbcd14c14	-0.025548972
78	0xbbd0dad7	-0.006373744
79	0x3b8e4409	0.0043416065
80	0xbc246218	-0.010033153
81	0x3c499fd5	0.012306173
82	0x3bc0aca5	0.005879956
83	0x3c8df2de	0.017327722
84	0x3b62b2b6	0.0034591383
85	0x3c08f6aa	0.008359591
86	0xbac4dc21	-0.0015019217
87	0xbc701d72	-0.014655458
88	0x3bd8f047	0.00662044
89	0xbbbbb966	-0.0057288883
90	0x3b1ae9cd	0.0023637891
91	0xba7c748d	-0.00096304045
92	0xbb5f12da	-0.0034038336
93	0xbbf0389a	-0.007330966
94	0xbbad3024	-0.00528528
95	0xba9eb2f4	-0.0012107776
96	0x3b1a6a0a	0.002356174
97	0x38e4afbd	0.00010904621
98	0xbca04c41	-0.01956761
99	0xbbcb626f	-0.0062068026
100	0x3bbf9317	0.005846392
101	0xbbf597b8	-0.007494893
102	0xbbb2e8c2	-0.005459876
103	0xbc3941b3	-0.011307168
104	0xbb40ffa6	-0.0029449253
105	0xbaefa847	-0.0018284403
106	0xbc1a5034	-0.009418536
107	0x3bbbd6c5	0.0057323896
108	0xbac1f83b	-0.001479871
109	0xbbdd1a5c	-0.006747527
110	0xbc44dcb3	-0.012015509
111	0xbb9a03f9	-0.0047001806
112	0x3bef3992	0.007300564
113	0xbc50d975	-0.012747158
114	0xbb8d17d6	-0.00430582
115	0x38f17d74	0.00011515143
116	0xbbdd2d67	-0.006749797
117	0xbb3f2f09	-0.0029172322
118	0xbb05b7ee	-0.002040382
119	0xbc2238e3	-0.009901258
120	0x3aa13914	0.0012300336
121	0x3a2364d4	0.0006232981
122	0xbcb26dcc	-0.02178087
123	0x3bba3891	0.005683013
124	0xbafe8c46	-0.0019420467
125	0xbae3bdec	-0.0017375327
126	0x3bf5f442	0.0075059244
127	0xbc4d8367	-0.012543536
128	0xbac6b063	-0.0015158769
129	0xbaba92d1	-0.0014234429
130	0x3ba7eb53	0.0051244884
131	0xbb9ad50c	-0.004725104
132	0xbb25ea6d	-0.002531673
133	0xbc6005c2	-0.013673248
134	0xbc62fd12	-0.013854282
135	0xba70866a	-0.00091753027
136	0x3c065301	0.008198501
137	0xbc3cc3d6	-0.0115213
138	0xbb3a7f00	-0.0028457046
139	0xbc322d7a	-0.0108751
140	0xbb58d345	-0.003308491
141	0xbb82da44	-0.0039933044
142	0x3bc44b6e	0.005990437
143	0xbbe69cfd	-0.0070377574
144	0x3b802adb	0.003911359
145	0x3bc36fa7	0.0059642377
146	0x3b07af43	0.002070383
147	0x3bc41dd1	0.0059849997
148	0x3a813595	0.0009857888
149	0x3be4a3a2	0.0069775144
150	0xbc0739aa	-0.008253494
151	0x3c4064d0	0.011742786
152	0x3c08db7f	0.008353113
153	0x3b8a0970	0.004212551
154	0xbc63af76	-0.013896814
155	0x389e38fa	7.54464e-05
156	0xbb5997f6	-0.0033202148
157	0xbb29e009	-0.002592089
158	0xb9fbe6cb	-0.00048046405
159	0xbb68d3c2	-0.0035526608
160	0xbbe00c51	-0.0068374057
161	0xbb95b210	-0.004568346
162	0x3b042891	0.002016578
163	0xb9f3934e	-0.00046458322
164	0xba6efa2d	-0.00091162586
165	0xbc0bf746	-0.008542841
166	0x3ba74ebc	0.0051058214
167	0xbc327132	-0.010891246
168	0x3bccadbb	0.006246296
169	0x3c4cd608	0.012502201
170	0x398ed322	0.00027241657
171	0xbbe6b967	-0.0070411447
172	0x3b9012f6	0.0043967916
173	0xbbff80f2	-0.007797354
174	0xbc7d2be3	-0.015452358
175	0xba7a7635	-0.00095543574
176	0xbbba8e41	-0.0056932275
177	0x3c1d1cf7	0.009589425
178	0xbb889527	-0.004168171
179	0xbaed1adb	-0.0018089669
180	0x3bd7b85b	0.006583256
181	0x3bc4e771	0.0060090353
182	0xba6909d9	-0.0008889712
183	0x3c6b04d9	0.0143444175
184	0xba478fd8	-0.0007612682
185	0xbbf4c7f4	-0.0074701253
186	0x38edc808	0.000113382994
187	0xbb8ac60d	-0.0042350353
188	0xbbabb54f	-0.0052401195
189	0xbba10d2d	-0.0049149008
190	0xbbb057b1	-0.0053815474
191	0xbbcbc6e5	-0.0062187784
192	0x3bde6eee	0.006788126
193	0xbb23532c	-0.00249214
194	0x3c822d7a	0.015890826
195	0x3c08318e	0.008312596
196	0x3c28491b	0.010271336
197	0xbbae16b3	-0.0053127646
198	0x3b511b16	0.0031907014
199	0x3ba9d5d0	0.005182959
200	0xbb142152	-0.0022602868
201	0x3af1832b	0.0018425932
202	0xbbfe43db	-0.007759554
203	0x3ba1b2ce	0.0049346453
204	0x3bed0e6d	0.0072343857
205	0xba827b8c	-0.0009955033
206	0xb91bc77a	-0.00014856263
207	0x3a561cbc	0.0008167734
208	0x39c79805	0.000380695
209	0x3acf82f5	0.0015831875
210	0xba95603d	-0.0011396479
211	0xbc2d1fd1	-0.010566668
212	0xbb90decd	-0.004421091
213	0xbb92ed10	-0.0044838265
214	0x3ae41892	0.0017402342
215	0x3b368348	0.0027849246
216	0xb90d1271	-0.00013453678
217	0xbc0c7e7e	-0.00857508
218	0xbbdcfbbe	-0.006743877
219	0x3baf5709	0.0053509516
220	0xbc406623	-0.011743101
221	0xbb589ddb	-0.0033053074
222	0xbc40ba5d	-0.0117631825
223	0x3c087402	0.00832844
224	0x3bd8c52a	0.0066153007
225	0xbbfdf1ff	-0.0077497954
226	0x3c53012f	0.0128787
227	0xbbc3b168	-0.005972076
228	0x3b902f27	0.0044001522
229	0xbb29c420	-0.0025904253
230	0x3b01473d	0.00197263
231	0xbc82e463	-0.015978044
232	0x3ba965d9	0.005169612
233	0xbbb90478	-0.0056462847
234	0xbaa78197	-0.001277971
235	0xbb20e580	-0.0024550855
236	0xba2f08eb	-0.0006677049
237	0xb9f93e0e	-0.00047539215
238	0xbb53c4cf	-0.0032313352
239	0xbbe5ac28	-0.007009048
240	0xbbd3ac58	-0.006459754
241	0x3ba3e575	0.0050017186
242	0xbc116528	-0.008874215
243	0x39d23be4	0.00040098943
244	0x39f05bf9	0.00045844892
245	0xbc08b24a	-0.008343289
246	0x3b132cfe	0.0022457237
247	0x3b278c5e	0.0025565843
248	0xba7721c5	-0.00094273343
249	0xbb4fa8ab	-0.0031686227
250	0xbb0871d6	-0.0020819805
251	0xbc5288ad	-0.012849969
252	0x3b218d19	0.002465075
253	0xbc1bfa1e	-0.009520082
254	0xbc59e81a	-0.013299966
255	0x3c2910c8	0.010318942

network_body._body_endoder.seq_layers.0.weight f4 [256, 35]
0	0x3d48281f	0.048866387
1	0x3d5ab4e3	0.053395163
2	0xbdc5580b	-0.096359335
3	0xbddac9cc	-0.10683021
4	0xbd9d842c	-0.076912254
5	0xbd91dbf4	-0.07122031
6	0x3e41e7fe	0.18936154
7	0xbe45bdde	-0.1931071
8	0xbd502179	-0.050813172
9	0x3d3f3090	0.046677172
10	0xbeaab082	-0.3333779
11	0x3e1abccc	0.15111083
12	0xbe888372	-0.26662785
13	0xbe09aed2	-0.13445595
14	0x3e42ed41	0.19035818
15	0xbda34dfb	-0.07973858
16	0xbdfac00a	-0.1224366
17	0x3c2ec931	0.010668085
18	0xbd8d21dc	-0.06891224
19	0xbcc6dab1	-0.024274202
20	0xbe1bc023	-0.15210013
21	0xbdea1b78	-0.114310205
22	0x3efcf3a2	0.49404627
23	0x3d64136a	0.055682577
24	0x3d554827	0.052070763
25	0xbde0b4e5	-0.10972003
26	0xbd2b899c	-0.04187928
27	0x3de96a05	0.11397175
28	0x3d1210b4	0.03566046
29	0x3d45a705	0.048254985
30	0x3e568761	0.2095008
31	0x3e670816	0.22561678
32	0xbe22ce2e	-0.15898964
33	0x3d571b18	0.052516073
34	0x3b659566	0.0035031675
35	0xbdb7b47c	-0.089699715
36	0xbe43d72b	-0.19125049
37	0x3dcabd24	0.09899357
38	0x3ea45ad3	0.32100543
39	0xbe93c7c8	-0.28863358
40	0xbe85a717	-0.26104042
41	0xbcb361d8	-0.021897241
42	0x3e89ebb4	0.2693764
43	0x3e0d9a85	0.13828476
44	0x3e7e2761	0.2481971
45	0xbb9aa102	-0.0047189007
46	0x3dcd4d4c	0.10024509
47	0xbe564a4b	-0.20926778
48	0x3d6fe537	0.058568206
49	0xbeb59336	-0.35463876
50	0x3e5aee4a	0.21379963
51	0x3dc88547	0.09791046
52	0x3c507cdb	0.01272508
53	0xbe5b7d2a	-0.21434465
54	0x3bfae0a6	0.0076561747
55	0xbe0560f4	-0.13025266
56	0x3b0aa03d	0.0021152638
57	0x3e78fca6	0.24315128
58	0x3e116f8b	0.14202707
59	0xbee18ad2	-0.44051224
60	0xbd9f852f	-0.07789075
61	0x3e8832dd	0.26601306
62	0xbe0fcda2	-0.14043286
63	0x3d43506d	0.047684122
64	0x3eab086c	0.33404863
65	0x3e09020c	0.13379687
66	0x3dd49ae9	0.10381109
67	0x3d1aeae0	0.03782165
68	0xbdb8183c	-0.08988997
69	0x3e04b671	0.12960221
70	0xbea2a99b	-0.31770024
71	0x3e93c6e0	0.28862667
72	0xbc05a890	-0.008157864
73	0xbc2a9e46	-0.010413712
74	0xbddbe706	-0.107374236
75	0x3e6ac7a1	0.22927715
76	0x3e9f58bb	0.31122383
77	0xbece86a1	-0.4033709
78	0xbbb7a148	-0.005603943
79	0x3e53d73d	0.20687576
80	0x3e8b608a	0.2722209
81	0x3ca1daae	0.019757595
82	0xbca82d15	-0.02052931
83	0xbe408633	-0.18801193
84	0x3d8582d0	0.06519091
85	0xbe150c28	-0.14555418
86	0xbe74dae7	-0.2391163
87	0x3e83ccee	0.25742286
88	0xbdc5bea6	-0.09655504
89	0x3dcddacf	0.100515
90	0xbe02477e	-0.12722585
91	0xbdcf1214	-0.1011087
92	0x3eb6b144	0.35682118
93	0x3d5ddb11	0.054163996
94	0xbda3c356	-0.07996242
95	0x3d2dcbc0	0.04243064
96	0xbe0e57dd	-0.13900705
97	0xbb354dad	-0.0027664707
98	0xbe40a448	-0.18812668
99	0x3e14c57c	0.1452846
100	0xbd626edd	-0.05528151
101	0xbcc74284	-0.02432371
102	0x3c9a215b	0.018814733
103	0x3d75b741	0.059989218
104	0xbddd19fb	-0.10795971
105	0x3d1b3361	0.037890796
106	0x3d588587	0.052861717
107	0x3dd8d484	0.10587409
108	0xbe6f5bf4	-0.23374921
109	0xbdcc5bb9	-0.09978432
110	0x3e38fb47	0.18064605
111	0xbe0a5bb6	-0.13511547
112	0xbcd9fccc	-0.0266098
113	0xbe547037	-0.20745932
114	0xbe4c68be	-0.19961831
115	0xbe9091d3	-0.28236255
116	0x3ca546d5	0.020175377
117	0x3dfcd84d	0.123459436
118	0x3e5afbfc	0.21385187
119	0xbdce924a	-0.10086496
120	0xbca19162	-0.019722644
121	0xbddc452b	-0.1075538
122	0xbe6879b2	-0.22702673
123	0xbea59920	-0.32343388
124	0xbda1e98c	-0.07905874
125	0x3db01eba	0.085996106
126	0x3e390926	0.18069896
127	0xbd9d830e	-0.07691012
128	0xbe56b967	-0.20969163
129	0x3e567184	0.2094174
130	0xbe31b5d8	-0.17354524
131	0xbe743c16	-0.23851046
132	0xbe8cfb8b	-0.27535662
133	0xbde5e7d7	-0.112258606
134	0x3e27a35f	0.16370915
135	0xbeb43b18	-0.35201335
136	0xbd492de0	-0.049116015
137	0xbe115839	-0.1419381
138	0xbe10b9cb	-0.14133374
139	0xbbff78f1	-0.0077963998
140	0x3e3030e6	0.17206153
141	0x3a4ad704	0.00077377283
142	0xbdc5cfb3	-0.09658756
143	0x3d4d2e8a	0.05009321
144	0x3c3a99f6	0.011389246
145	0xbe8a6296	-0.2702834
146	0x3d8ee08e	0.06976424
147	0x3de6b2e7	0.11264592
148	0xbcb3ee77	-0.021964295
149	0x3d74bad2	0.05974848
150	0x3dec6fa3	0.115447305
151	0xbb28dfac	-0.0025768084
152	0x3d3fda33	0.04683895
153	0xbec01991	-0.37519506
154	0xbebeef30	-0.3729186
155	0x3e7e1ad0	0.24814916
156	0x3d8b78cd	0.0681015
157	0x3ecfc349	0.40578678
158	0xbdb6f793	-0.0893394
159	0x3e850a2c	0.25984323
160	0xbe382996	-0.17984614
161	0x3d469459	0.04848132
162	0x3d86d1f2	0.06583013
163	0xbd56b4cc	-0.052418515
164	0x3aedf01a	0.0018153221
165	0xbe1ed7b5	-0.15511973
166	0x3ce04dee	0.02738091
167	0x3d5d06b0	0.053961456
168	0xbd95603b	-0.07293745
169	0x3c501e07	0.012702472
170	0xbe8452e7	-0.258445
171	0xbddaff88	-0.1069327
172	0xbcb185b0	-0.021670192
173	0xbe752419	-0.23939551
174	0x3d9b932f	0.075964324
175	0x3e7414a5	0.23836
176	0xbd8d453f	-0.06897973
177	0x3d30c4bf	0.04315638
178	0xbda020d4	-0.078187615
179	0xbd3cc958	-0.046090454
180	0xbe6490a3	-0.223208
181	0x3e0320fb	0.1280555
182	0x3f0ecbba	0.5577961
183	0xbdbf2c8d	-0.09334669
184	0xbe394eda	-0.18096486
185	0xbe6f2f1a	-0.23357812
186	0x3d197e0b	0.03747372
187	0xbeec118b	-0.46107134
188	0x3e967e95	0.2939345
189	0x3d8c14d8	0.06839913
190	0x3d884ebc	0.066556424
191	0x3e242360	0.1602912
192	0xbca364f0	-0.019945592
193	0x3e9e1dd9	0.30882147
194	0xbcc33c00	-0.023832321
195	0xbe781377	-0.24226175
196	0x3e661f91	0.22472979
197	0xbd241c14	-0.04006584
198	0x3d713d53	0.058896374
199	0x3e554bf9	0.20829763
200	0xbdaa2343	-0.08307507
201	0xbd2b9ad7	-0.041895714
202	0xbc893db7	-0.01675306
203	0xbc845a50	-0.016156346
204	0x3e5fbe3d	0.21849914
205	0xbe0824f9	-0.13295354
206	0xbd3c76ad	-0.046011616
207	0x3db3a2d2	0.0877129
208	0x3d8c15ae	0.068400726
209	0xbccd586e	-0.02506658
210	0xbe10e24d	-0.14148827
211	0x3db70315	0.08936135
212	0x3d651562	0.055928595
213	0x3d4a0cd8	0.049328655
214	0x3d37fa55	0.04491647
215	0x3e06c1ad	0.13159819
216	0xbdced0ca	-0.10098417
217	0xbe7a8f8c	-0.24468821
218	0xbef0dafc	-0.47042072
219	0xbf00b4d9	-0.5027595
220	0xbdc0f99e	-0.09422611
221	0xbe13d02f	-0.14434884
222	0x3e5b4b31	0.21415402
223	0xbcd8ea09	-0.026478784
224	0xbd543d39	-0.0518162
225	0x3e9467cf	0.2898545
226	0xbde4eb7d	-0.11177728
227	0xbc122566	-0.008920049
228	0x3c8fc773	0.01755116
229	0x3e5ab8ba	0.2135953
230	0x3da89e9e	0.08233379
231	0x3df3301d	0.11874411
232	0x3e250e49	0.1611873
233	0x3c64ee78	0.013972871
234	0x3dfe0cf9	0.12404818
235	0xbe47c369	-0.19508137
236	0xbce1e421	-0.0275746
237	0x3d0079a4	0.031366006
238	0x3d9f4840	0.077774525
239	0xbe1cb1ef	-0.15302251
240	0x3ed0d76f	0.40789363
241	0xbe04c83f	-0.12967013
242	0xbea1d0d1	-0.31604627
243	0xbca1e0a6	-0.019760441
244	0x3e061eeb	0.13097732
245	0xbdf9120f	-0.121616475
246	0x3daf44cd	0.085580446
247	0x3f2746f0	0.6534262
248	0xbe267197	-0.16254269
249	0xbd828269	-0.0637253
250	0x3d70d452	0.058796234
251	0xbd4ca2c1	-0.0499599
252	0xbe9d0b2e	-0.30672592
253	0xbc8678b0	-0.01641497
254	0xbd0ef4d9	-0.034901474
255	0xbde0cf56	-0.10977046

network_body._body_endoder.seq_layers.2.bias f4 [256]
0	0xbb41ba2e	-0.0029560435
1	0x3bcc08b0	0.0062266216
2	0x3c030922	0.007997783
3	0x3a25befc	0.00063227094
4	0xbc624421	-0.0138101885
5	0xba76a666	-0.00094089506
6	0xbab10db7	-0.0013508116
7	0x3c90561f	0.01761919
8	0xbc807446	-0.015680443
9	0xbc070963	-0.008241984
10	0xbb5b17c2	-0.0033430909
11	0xbc34397b	-0.011000033
12	0x393731d7	0.00017470807
13	0xbc545d45	-0.01296169
14	0xbc0d9161	-0.008640618
15	0xbbfd2bec	-0.007726183
16	0x3c2db53e	0.010602294
17	0xbc5b3407	-0.0133791035
18	0xba5ed772	-0.0008500732
19	0xbc1a8ada	-0.009432519
20	0xbadda6b8	-0.0016910648
21	0xbb5d22cd	-0.0033742667
22	0xbb880aa7	-0.0041516605
23	0x39047dd3	0.00012635374
24	0xbc281842	-0.01025969
25	0xbbf39621	-0.0074336682
26	0xbb785184	-0.0037890384
27	0xbb650f2d	-0.0034951672
28	0xba670036	-0.0008811982
29	0xbb4b4d9f	-0.0031021608
30	0xbc30e98c	-0.010797869
31	0xbc587bfa	-0.013213152
32	0xbc0ebe90	-0.008712426
33	0x3c04c19f	0.0081028035
34	0xbbe522e2	-0.0069926837
35	0xb8797a95	-5.948039e-05
36	0xbc2735ac	-0.0102056675
37	0xbc67fbc8	-0.01415915
38	0x3bf85009	0.0075779003
39	0x3bc88d01	0.0061203246
40	0xbc13eb14	-0.009028215
41	0xbbfaaca9	-0.007649977
42	0xbc3f0f1c	-0.011661317
43	0x3ba2937f	0.0049614306
44	0xbb89aab3	-0.004201257
45	0xbb6c33c4	-0.0036041597
46	0x3b717189	0.0036841354
47	0x3c58036a	0.013184408
48	0xbc3c2757	-0.011483989
49	0x3cadc9e8	0.02121444
50	0x3bc19ea8	0.005908806
51	0x3c5f6d6a	0.013636926
52	0xbbab5ae5	-0.0052293413
53	0x3a3e6fa5	0.0007264561
54	0xbbbbc2fa	-0.00573003
55	0x3c76e721	0.015069754
56	0xbb64c39d	-0.0034906634
57	0xbb77a68b	-0.0037788476
58	0xbb449cea	-0.0030000755
59	0x3bd49e9d	0.0064886347
60	0x3b5df159	0.0033865778
61	0x3b983acd	0.0046456815
62	0x3a8d5b39	0.0010784633
63	0x3b70f683	0.0036768026
64	0xbb3db585	-0.0028947305
65	0x3b7bb805	0.0038409245
66	0xb9e2b250	-0.00043238932
67	0x3ac12da5	0.0014738335
68	0xbbec1495	-0.007204602
69	0xbb6285d6	-0.0034564636
70	0x3b0e5d6c	0.0021723164
71	0xbba760d5	-0.005107979
72	0xb816b711	-3.593328e-05
73	0xbc07b60f	-0.008283152
74	0xbbd62c96	-0.006536077
75	0xbb12c91d	-0.0022397705
76	0xbc61ad6a	-0.013774255
77	0x3b14a929	0.0022683835
78	0xbb45917a	-0.0030146525
79	0xbb850510	-0.0040594414
80	0xbc6e4dce	-0.014544917
81	0x3b5caec2	0.00336735
82	0xbb3f4e9f	-0.002919115
83	0x3c94f1c6	0.018181693
84	0x3afe109f	0.0019383616
85	0xba8653ec	-0.0010248399
86	0x3c2c8e84	0.010532025
87	0x3bc13819	0.00589658
88	0x3c81e56d	0.015856469
89	0x3b677112	0.0035315198
90	0x3ba0d661	0.0049083685
91	0x3b63c711	0.0034756104
92	0x3c258e3b	0.010104711
93	0x3b0cfe8f	0.0021514033
94	0x3a9998b9	0.0011718489
95	0xba5c2ed5	-0.00083993125
96	0x3aa7f00a	0.0012812626
97	0x3b78709e	0.0037908922
98	0xbbe18aa2	-0.0068829814
99	0xbb15f4ff	-0.0022881625
100	0x3b1c98a9	0.0023894703
101	0x3af148ab	0.0018408498
102	0x3c59daa4	0.013296757
103	0xbb635135	-0.0034685854
104	0xbb966f7b	-0.004590926
105	0x3c5aca4f	0.013353898
106	0x3b074157	0.002063831
107	0x3c0ed524	0.008717809
108	0xbbe95e94	-0.0071218703
109	0x3bc50f5b	0.0060137934
110	0x3bee4da1	0.0072724377
111	0x3b730356	0.0037080846
112	0xbb2994f8	-0.0025876146
113	0xbc067a39	-0.008207851
114	0x3ba5e989	0.00506324
115	0x3c407bb3	0.011748242
116	0x3c176376	0.009240022
117	0xbbf35c49	-0.0074267727
118	0xbc30e451	-0.010796622
119	0xbbaf36d7	-0.0053471136
120	0xbb779a29	-0.0037781096
121	0x3b380b89	0.0028083047
122	0xbab9904a	-0.0014157381
123	0xbbb58563	-0.0055395826
124	0xbb386140	-0.0028134137
125	0xbc0a2bab	-0.008433263
126	0xbb832c7e	-0.0040031066
127	0xbc3ca5d8	-0.01151415
128	0x3b4e3b80	0.003146857
129	0x3bae6c82	0.0053229937
130	0xbb5f149d	-0.0034039386
131	0xbc782acb	-0.015146921
132	0xba249e1e	-0.0006279665
133	0xbc3b64b4	-0.011437584
134	0x3a133eeb	0.00056169805
135	0xbc0a209f	-0.008430629
136	0x3c06ece2	0.008235188
137	0x39c0262f	0.00036649543
138	0x3c21539a	0.009846592
139	0x3c0aa604	0.008462433
140	0x3944fd56	0.00018786392
141	0xbba30443	-0.0049748733
142	0xbb51d47c	-0.003201752
143	0xbba67c75	-0.0050807544
144	0x3c020ed0	0.007938102
145	0xbb914c48	-0.0044341423
146	0xb9efeb0c	-0.00045760756
147	0x3c032ea3	0.0080067245
148	0xbbb4b8f0	-0.0055152103
149	0xba07d49f	-0.00051815243
150	0xbb62027e	-0.0034486349
151	0xbbcaa694	-0.0061844084
152	0x39bb883e	0.00035768928
153	0x3a73b2cc	0.0009296357
154	0xbb48a2ef	-0.0030614694
155	0x3c028caa	0.007968107
156	0xbbea6386	-0.0071529774
157	0x3b85136b	0.0040611527
158	0xbb83cae6	-0.00402199
159	0x3b928a77	0.0044720727
160	0x3bbb1b4b	0.0057100407
161	0xbb7b8496	-0.0038378588
162	0xbbeb7461	-0.0071855043
163	0xbc266d4c	-0.010157894
164	0x3b35d906	0.0027747764
165	0x3bc948ec	0.006142726
166	0x3c3bd873	0.01146518
167	0xbb7b0a4f	-0.0038305705
168	0xba9c7569	-0.0011936846
169	0x3b831437	0.0040002125
170	0xbafa7c2e	-0.0019110495
171	0xbb81031e	-0.003937139
172	0x3ab5e08d	0.0013876125
173	0xbb8fc7c5	-0.004387828
174	0x3b96f9d2	0.0046074176
175	0x393c4b3a	0.00017957101
176	0xbaf38c63	-0.0018581267
177	0xbbfde3b1	-0.00774809
178	0xbaad6deb	-0.0013231611
179	0xbba0b735	-0.0049046525
180	0x3c7c3dd4	0.0153956
181	0xbbdc0100	-0.0067139864
182	0xbaf70345	-0.0018845579
183	0x3c78e4dc	0.015191283
184	0xbb489ac3	-0.0030609823
185	0x3b93c8ea	0.004510035
186	0xbc1201ff	-0.008911609
187	0xbc075efd	-0.008262393
188	0x3c394994	0.011309046
189	0x3bc277b8	0.0059346817
190	0x3ad636ab	0.0016343197
191	0xbc087b82	-0.008330228
192	0x395069e0	0.00019875867
193	0xbb89fe51	-0.004211225
194	0xbc2eba53	-0.01066454
195	0xbbfef0a2	-0.0077801505
196	0x3b073bb0	0.0020634942
197	0xbb834186	-0.0040056137
198	0x3c037f5f	0.008025973
199	0x3c87257b	0.016497364
200	0xbc6ec459	-0.01457318
201	0xbb247fd5	-0.0025100608
202	0x3aa81542	0.0012823718
203	0xbc537ac6	-0.012907689
204	0xbaa97838	-0.0012929505
205	0xbb8f657d	-0.004376112
206	0x3a05957f	0.0005095824
207	0xbbe7796b	-0.0070640347
208	0x3baf2bd3	0.0053458004
209	0x3c676ef9	0.014125579
210	0xbc265df7	-0.010154239
211	0x3ba0dfe2	0.0049095014
212	0x3bebfd40	0.0072018206
213	0x3c235d0b	0.009970914
214	0x3ba55b1a	0.0050462605
215	0xbb3c4ad6	-0.002873113
216	0xbb01fad1	-0.0019833336
217	0xbaccc87b	-0.0015623713
218	0x3a04b39a	0.0005062163
219	0xbb81e830	-0.0039644465
220	0x3b843c29	0.004035492
221	0xbc7b4c0d	-0.015337956
222	0xbba5c627	-0.005059022
223	0xbbb14045	-0.005409273
224	0xbbcd49c5	-0.0062648975
225	0xbc3ff00e	-0.011714948
226	0xbad8e81c	-0.0016548666
227	0xbc3d12f9	-0.011540168
228	0x3c525e21	0.012839825
229	0x3b803cbb	0.0039134896
230	0xbc272513	-0.01020171
231	0x3c21592f	0.009847923
232	0xbbf6689b	-0.007519794
233	0xbb099fec	-0.0020999862
234	0x3af8be91	0.0018977692
235	0xbc0373af	-0.008023187
236	0x39be40fe	0.00036288047
237	0xbbbc9336	-0.0057548536
238	0x3c23a19e	0.009987263
239	0xbb236779	-0.00249335
240	0xbbf3b0e7	-0.00743686
241	0xba31fa24	-0.0006789288
242	0x3b23e3e0	0.002500765
243	0x3be14a85	0.0068753385
244	0x3c3001c5	0.010742609
245	0xbb7638b3	-0.0037570416
246	0xbc216e7b	-0.009853001
247	0xbc7267ed	-0.014795286
248	0xbb8a0268	-0.0042117126
249	0x3c02d362	0.007984968
250	0x3b55ed33	0.0032642602
251	0x3c237da1	0.009978683
252	0x3c16632f	0.009178921
253	0xbbd356b5	-0.0064495453
254	0xbb657677	-0.0035013238
255	0x3b8f46fe	0.0043724766

network_body._body_endoder.seq_layers.2.weight f4 [256, 256]
0	0x3d9c6044	0.07635549
1	0x3d110d6e	0.0354132
2	0xbdcb6ab7	-0.099324636
3	0x3d136438	0.035984248
4	0x3d53b3ee	0.051685266
5	0xbd09e33c	-0.033663973
6	0x3d194c9c	0.037426576
7	0x3d9f30cb	0.077729784
8	0x3dc208b0	0.09474313
9	0x3cdf7642	0.02727807
10	0xbd457e36	-0.048216067
11	0xbdd8e7e9	-0.10591108
12	0x3c2ce64d	0.010552955
13	0xbd0b47f9	-0.034004185
14	0x3c111493	0.008855003
15	0xbdbf8f0e	-0.093534574
16	0x3d5e4e76	0.054274045
17	0x3da0d066	0.07852249
18	0x3d3a94b8	0.045551986
19	0xbc8e0880	-0.017338037
20	0x3b3eb924	0.0029102052
21	0xbc543466	-0.012951946
22	0xbdb97671	-0.09055794
23	0x3d306fc1	0.043075327
24	0xbd665dcd	-0.0562418
25	0x3c615eda	0.0137555245
26	0x3cde53e2	0.027139608
27	0x3db138ef	0.08653437
28	0x3d00b33c	0.03142093
29	0x3b962d4b	0.004583036
30	0x3d5952c5	0.05305745
31	0xbccd2600	-0.025042534
32	0xbc28130f	-0.01025845
33	0xbcb758e9	-0.022381263
34	0x3c4e926c	0.012608152
35	0x3e172a01	0.14762117
36	0xbd0be53a	-0.034154154
37	0x3d27a1ec	0.040925905
38	0xbd930c0c	-0.07180032
39	0xbdba9977	-0.09111302
40	0x3d4def1a	0.050276853
41	0x3bd624be	0.0065351417
42	0xbab8df18	-0.0014104573
43	0x3cf3d43f	0.029764293
44	0x3c63a835	0.013895084
45	0x3db138aa	0.08653386
46	0x3d3b8e6c	0.04579012
47	0xb97d9f03	-0.00024187197
48	0xbc9143cf	-0.017732529
49	0x3c39ab2d	0.011332315
50	0xbcc12d40	-0.023581147
51	0x3bce8d20	0.0063034445
52	0x3d25d624	0.040487424
53	0xbda58e82	-0.08083822
54	0xbd67a0f7	-0.056549992
55	0xbc16d282	-0.009205462
56	0xbd1019ea	-0.035180964
57	0xbc923400	-0.017847061
58	0xbd383b64	-0.044978514
59	0x3cea91c3	0.028633958
60	0xbd864558	-0.06556195
61	0xbd91cfe4	-0.0711973
62	0xbdc3c485	-0.095589675
63	0x3de70b6a	0.11281474
64	0x3cdd66db	0.027026584
65	0xbd6e2407	-0.058139827
66	0x3c86fb18	0.016477153
67	0x3bdb2ece	0.006688929
68	0x3ca1aef8	0.019736752
69	0xbd67bb74	-0.056575254
70	0xbd4c2a42	-0.049844988
71	0x3d27bb10	0.04094988
72	0x3db29d68	0.08721429
73	0x3c019a37	0.007910303
74	0xbc028f67	-0.00796876
75	0xbd63907b	-0.05555771
76	0x3d3a796a	0.045525946
77	0xbd32959a	-0.043599702
78	0x3c0da2f3	0.008644807
79	0x3ce50f3c	0.027961366
80	0x3ce30f42	0.027717236
81	0x3dcbc6aa	0.099500015
82	0x3cc6369a	0.024195958
83	0xbca18a85	-0.019719372
84	0xbd4aa759	-0.049476
85	0xbe26af7e	-0.16277882
86	0x3d0fd618	0.035116285
87	0x3c18b22f	0.009319826
88	0xbb7dd95b	-0.003873429
89	0xbd830555	-0.063975014
90	0x3dc49269	0.09598238
91	0xbc144279	-0.009049051
92	0x3c721aff	0.014776944
93	0xbcddbc87	-0.027067436
94	0x3ccbf79a	0.024898339
95	0x3ccbdc58	0.024885342
96	0x3d09a56c	0.033605024
97	0x3d0b8afb	0.03406809
98	0xbb99aa43	-0.004689486
99	0xbb351686	-0.0027631833
100	0xbe0403b8	-0.12892044
101	0x3d8e968b	0.069623075
102	0xbc5d2699	-0.013497972
103	0xbdcfea7b	-0.101521455
104	0xbddbfcdf	-0.10741591
105	0x3bcec094	0.006309578
106	0x3dfd9d13	0.12383475
107	0x3d7ef41d	0.062244523
108	0xbda4687c	-0.08027741
109	0xbb4c2f9a	-0.0031156302
110	0x3e00f1b9	0.1259221
111	0x3d9ca8e1	0.076493986
112	0xbd239931	-0.039941017
113	0xbc36426f	-0.011124237
114	0xbbfb6af8	-0.007672664
115	0x3d063347	0.032763746
116	0x3c8203ee	0.015871014
117	0xbd7746ae	-0.06037014
118	0xbc4837a2	-0.012220295
119	0xbca04362	-0.01956338
120	0x3d356142	0.044282205
121	0xbccd992d	-0.025097454
122	0xbdc9659d	-0.09833834
123	0xbc3ff771	-0.0117167095
124	0xbd1307fb	-0.035896283
125	0x3ddf8ddf	0.10915732
126	0x3d899647	0.06718116
127	0xbdbac173	-0.09118929
128	0x3ccd4795	0.025058547
129	0xbe003d53	-0.12523393
130	0xbe0fe7d6	-0.14053282
131	0xbce46544	-0.027880318
132	0x3d6e6508	0.05820182
133	0xbcbb0904	-0.022831447
134	0xbb6a6ace	-0.0035769227
135	0xbd8c7884	-0.06858924
136	0xbd34cf92	-0.044143267
137	0xbcc89448	-0.024484769
138	0x3beaaf01	0.0071619754
139	0x3c9001af	0.017578928
140	0xbd91288b	-0.07087811
141	0x3d6c34dc	0.057667598
142	0x3d8acbe8	0.06777173
143	0x3dba2080	0.0908823
144	0x3be442e6	0.0069659827
145	0x3ccfcce1	0.025366249
146	0xbdb172b7	-0.08664458
147	0xbca5f88e	-0.020260122
148	0x3cc8051d	0.0244165
149	0xbd3f9f9a	-0.046783067
150	0x3a98915d	0.0011640001
151	0x3cb5130d	0.02210381
152	0xbd53ac78	-0.05167815
153	0xbd241ef0	-0.040068567
154	0xb903103d	-0.00012499183
155	0xbb8474d4	-0.0040422473
156	0x3d090cc2	0.033459432
157	0x3d78cc86	0.060741924
158	0xbd8a8584	-0.06763747
159	0xbd94cf04	-0.072660476
160	0xbc800c73	-0.015630936
161	0xbe121cd7	-0.14268814
162	0xbcb80a75	-0.022465924
163	0xbdb00f1a	-0.085966304
164	0x3cb14ce4	0.02164311
165	0x3cd9cee9	0.02658792
166	0xbd046cbe	-0.032330267
167	0x3d972430	0.07379949
168	0xbd5644f7	-0.052311864
169	0xbdfc8522	-0.123300806
170	0xbd0ac73d	-0.033881415
171	0x3cfcabd7	0.030843658
172	0xbdf1acf9	-0.1180057
173	0xbd75bb07	-0.059992816
174	0x3d5cf393	0.053943228
175	0x3c02f52d	0.007993025
176	0xbca0904c	-0.019600056
177	0x3d07c8b1	0.03315038
178	0x3da697e3	0.08134439
179	0xbbe35a7b	-0.0069382763
180	0x3ccdff35	0.025146106
181	0xbdafc036	-0.08581583
182	0xbd5e2f25	-0.05424418
183	0x3d1f64a4	0.038914338
184	0x3dd4e713	0.103956364
185	0x3d8551cf	0.065097444
186	0x3d418af5	0.04725166
187	0x3c9a09a6	0.018803429
188	0x3d54bc5b	0.051937442
189	0xbd8dd896	-0.06926076
190	0x3dda4174	0.106570154
191	0xbb68af9e	-0.0035505067
192	0xbd801c02	-0.06255342
193	0x3d3bab38	0.045817584
194	0xbd35b095	-0.044357855
195	0xbd76f4c4	-0.06029202
196	0xbc338267	-0.010956383
197	0x3d9674e1	0.07346512
198	0x3d9a95f1	0.0754813
199	0xbd3129a6	-0.04325261
200	0x3d5d7ce1	0.054074172
201	0x3d6dd993	0.058068823
202	0x3cee38f0	0.029079884
203	0x3cdb63a0	0.026780903
204	0xbd070e61	-0.032972697
205	0xbd7595cd	-0.059957314
206	0x3dbe4157	0.09289806
207	0xbd85ecdd	-0.06539319
208	0xbc74d2d7	-0.014942846
209	0xbc9c7d55	-0.019102732
210	0xba864010	-0.0010242481
211	0xbd0006c7	-0.031256463
212	0xbd9daa9e	-0.07698558
213	0x3d97a06a	0.074036434
214	0xbd104632	-0.035223193
215	0x3ae9d734	0.0017840625
216	0xbd1db9c0	-0.038507223
217	0xbd4326e8	-0.047644526
218	0xbbdfe2bd	-0.006832449
219	0x3c65530e	0.013996853
220	0x3dc4ad31	0.09603346
221	0x3dc6b4b5	0.09702436
222	0xbc90b87e	-0.017666098
223	0xbcb7e08f	-0.022445945
224	0x3dc64894	0.09681812
225	0x3e1b1ac5	0.1514693
226	0xbd3fe2df	-0.04684722
227	0x3e0569b1	0.130286
228	0xbcd3a845	-0.025837073
229	0x3d0efe52	0.034910508
230	0x3e1ac9cf	0.15116046
231	0xbc621a6c	-0.013800245
232	0xbbe64356	-0.00702707
233	0xba3800b2	-0.00070191466
234	0x3ccb3ce4	0.024809308
235	0x3db0819d	0.08618472
236	0xbe05ecb9	-0.13078584
237	0xbdf2d68e	-0.11857329
238	0x3a5cd84f	0.00084245665
239	0x3d9c69b3	0.07637348
240	0x3b42d661	0.002972983
241	0x3ca847d7	0.020542068
242	0x3dcab76d	0.09898267
243	0xbdd7b219	-0.10532016
244	0x3b913bd2	0.00443218
245	0xbd863e52	-0.065548554
246	0x3d088f7c	0.033339962
247	0xbd7bed68	-0.061505705
248	0xbd15daeb	-0.03658573
249	0x3d00d457	0.031452503
250	0x3da73250	0.08163893
251	0xbc23b15d	-0.009991017
252	0x3d9e26a7	0.07722216
253	0x3d110cfb	0.03541277
254	0xbd8a5a89	-0.067555495
255	0xbd8308d1	-0.06398166
