results/ShooterSimple_Apresentacao/ShooterSimple/ShooterSimple-536070.pt (torch, 520999 bytes, 46 tensors)

discrete_act_size_vector f4 [1, 3]
000000 00 00 a0 40 00 00 80 40 00 00 00 40
       5.0 4.0 2.0

network_body._body_endoder.seq_layers.0.weight f4 [128, 27]
000000 11 93 9a bd 26 9e 49 bc 83 87 ce bd 08 70 69 3e
       -0.07547582 -0.012305772 -0.100844406 0.22796643
000010 74 e1 af be da 75 92 3c bc de 1c be 66 60 13 3d
       -0.34351695 0.017878462 -0.15319341 0.035980605
000020 e7 7b 10 be a1 98 0f be 0c b0 89 3e 62 44 6f bd
       -0.14109765 -0.14023067 0.26892126 -0.058414824
000030 e7 fb ad bd 39 79 66 3b 38 0f eb bd ca bc f3 3d
       -0.08495312 0.003516747 -0.11477512 0.11901243
000040 46 d5 a1 3d cf 17 d2 3d 25 03 87 3e c3 40 ac be
       0.07902007 0.102584474 0.26369587 -0.3364316
000050 27 30 49 be 17 20 d4 bd d6 29 a3 be ec 4f 31 be
       -0.19647275 -0.10357683 -0.31867856 -0.17315644
000060 08 6a a8 3d be 2d 15 3e 67 04 58 be 32 17 a1 be
       0.08223349 0.1456823 -0.2109543 -0.3146301
000070 9d ec ce 3d b3 81 1e 3d 0c e6 1d bf 4d 3d 2d 3e
       0.10103724 0.03869791 -0.6167915 0.16917916
000080 0f 19 97 be 32 e8 99 3d 46 50 3c bd e8 e8 dd 3b
       -0.29511306 0.07514991 -0.045974992 0.0067721494
000090 de 74 5d be 8c 5e 68 be 63 55 b5 3e e9 24 fa be
       -0.21626613 -0.22692317 0.35416707 -0.48856285
0000a0 be a8 f7 3d 9c dc 13 be 6c 58 af bd 45 93 03 3e
       0.12092732 -0.14439625 -0.08561787 0.12849148
0000b0 78 23 29 be 02 3a 86 be 91 4e d2 3c 1e 71 17 3e
       -0.16517437 -0.2621613 0.025672229 0.14789245
0000c0 02 ba 3d be bf 30 ef 3e 60 2f 89 3e 4f c8 a9 be
       -0.18527988 0.46716878 0.26793957 -0.33160636
0000d0 70 b2 4b 3d 93 98 af 3e ef ff 2a 3e 58 44 15 bd
       0.049730718 0.34296092 0.16699193 -0.03644213
0000e0 19 bd 86 bd ff f9 a2 bd 54 09 ae bd 22 58 3c 3d
       -0.06579036 -0.07957839 -0.08497873 0.045982487
0000f0 22 18 95 be 49 46 87 be e5 7f 1c be 34 48 69 3e
       -0.29119974 -0.2642081 -0.15283163 0.2278145
000100 1c c5 1b bc 34 9e 95 3e b6 23 ef bd 9a a1 4c 3d
       -0.009507444 0.29222262 -0.11676733 0.049958803
000110 2f 64 85 3d dc 81 d1 be 7f 29 87 bd 5b 76 f7 ba
       0.06513249 -0.40919387 -0.065997116 -0.0018879877
000120 a5 d0 db be 8f 2a 4c bd 4b f5 0d bd f9 21 de 3c
       -0.4293262 -0.049845275 -0.034657758 0.027115809
000130 32 f1 58 be c3 9a 25 3e da 1b 88 3e 25 f2 04 3e
       -0.21185759 0.16172318 0.2658375 0.12982996
000140 68 d3 e6 bb a0 84 a9 3e 96 30 2d 3c d2 c1 ec 3e
       -0.0070442446 0.33108997 0.010570666 0.46241623
000150 87 57 94 3e 02 b8 76 be e6 8b 81 bc 80 32 17 3e
       0.28973028 -0.24093631 -0.01581378 0.14765358
000160 36 36 2b 3e d2 82 22 be 40 75 35 3d c4 76 e0 3e
       0.16719899 -0.15870216 0.04430127 0.4384061
000170 f4 97 59 3e 43 ba 0c 3b 3e 0e a3 be 6c 59 b3 3e
       0.21249372 0.0021473325 -0.31846803 0.3502916
000180 3b d4 81 be 08 6d ef 3d 0d a6 5c 3d 81 e3 e8 3d
       -0.25357231 0.11690718 0.053869296 0.11371518
000190 7a 97 db 3c 22 6d 9d bc 18 19 de 3d bc df bc 3d
       0.026805628 -0.019217078 0.1084463 0.092223614
0001a0 9d 0d e3 be 2a f3 a4 3e 22 37 96 3e a8 bb 85 be
       -0.44346324 0.3221677 0.29338938 -0.26119733
0001b0 c9 b1 76 3e 23 65 4c 3e 31 ad 2a 3e c8 4d 20 3e
       0.24091257 0.19960456 0.1666763 0.15654671
0001c0 d0 44 d5 bd 9c ac b3 3e 94 4b 5f 3e 79 5c 8a be
       -0.104135156 0.35092628 0.21806175 -0.27023676
0001d0 e1 cc fe 3d 26 01 53 be ea 7d 02 3d fb 1c 01 3f
       0.12441421 -0.20605907 0.031858362 0.50434846
0001e0 54 00 11 be 13 a9 8f 3e 9a a0 dd bd 95 ec 70 be
       -0.14160281 0.2805868 -0.10821648 -0.23527749
0001f0 b8 00 77 3e 08 d8 53 3e 75 74 97 3e 93 22 69 3d
       0.24121368 0.20687878 0.29581037 0.05691774
000200 92 5b 18 3f 1f dc 61 3e 03 3d a5 3e 87 23 1c 3d
       0.59514725 0.22056626 0.3227311 0.03811982
000210 09 59 d4 3c 20 ca 6f 3e 95 d1 46 3d e8 47 c5 be
       0.025921362 0.23416948 0.048539717 -0.38531423
000220 ad af 2b be 2e 23 cb be cb 29 c6 be 96 62 3b be
       -0.16766234 -0.39675277 -0.3870376 -0.18299326
000230 17 6c df be 6c 64 80 3d af e9 06 bf a3 53 8b bd
       -0.43637154 0.06269154 -0.5270032 -0.06803062
000240 1d df 31 3d c3 8e c3 bd 4b 9e 84 be 0f 53 b7 3d
       0.043425668 -0.09548714 -0.25902018 0.08951389
000250 ef 2d a9 be c4 57 1d be 81 e2 49 3d 97 f3 25 be
       -0.33042857 -0.15365511 0.049288277 -0.16206203
000260 0f 71 0c bf b2 9f 79 bd 30 90 98 be b1 0d 93 bd
       -0.54860014 -0.060943313 -0.29797506 -0.07180346
000270 da 9e 9b 3d 8f 59 18 bd 08 ae df bd de 7e 31 3e
       0.07598658 -0.037194785 -0.10921866 0.17333552
000280 ea 4a 00 3c 43 72 52 3e 1a 37 76 be 83 ae 02 bd
       0.007830361 0.205514 -0.24044457 -0.03190471
000290 ce 6f 52 bd ec ca 04 be d2 6e 7d be 4a 54 a3 be
       -0.051376157 -0.12968034 -0.24749306 -0.31900245
0002a0 ff f2 bc 3d d9 e1 6b be a4 09 8e be 7a f5 96 3d
       0.09226035 -0.23035373 -0.2774173 0.0737104
0002b0 4f 1d 34 3e ff 3f 45 3e 81 c4 43 3e f9 6a 38 bd
       0.17589305 0.19262694 0.19117929 -0.045023892
0002c0 9b 03 41 be 06 57 da be 1d b9 63 be e1 e2 37 be
       -0.18849032 -0.4264452 -0.22238584 -0.17957641
0002d0 bb 6f af 3d f9 ea bc bc c1 c4 be be 14 54 19 be
       0.08566233 -0.023061262 -0.37259486 -0.1497348
0002e0 dd 85 ad 3d 79 eb fb bd bc 3a e3 bd 32 7c 9c be
       0.08472798 -0.12300772 -0.11095187 -0.30563504
0002f0 f7 ff 90 3d ff 7d c3 be 6a 9b e1 be 13 81 cb be
       0.070800714 -0.38182065 -0.44063884 -0.39746913
000300 92 50 d4 be ca 02 d4 3c d7 ad fe bd 8c 74 99 3d
       -0.4146772 0.025880236 -0.12435501 0.07492933
000310 3f d7 3d be c0 fc 66 3d 3d ee 5d 3d da 38 d0 be
       -0.18539141 0.056393385 0.05418228 -0.40668374
000320 eb 09 88 be ab 74 96 3d 04 d4 2b bd 23 50 b4 3d
       -0.26570067 0.073464714 -0.04195024 0.08804347
000330 25 0c 73 bd 27 25 f1 3d 12 6b 48 3e b9 4a 3e be
       -0.059337754 0.11774664 0.19572094 -0.18583192
000340 6d 79 3e 3d 77 4f 35 bd e2 25 cf bd a2 61 07 3e
       0.04650252 -0.044265237 -0.101146474 0.13220838
000350 88 a1 a5 3a 77 54 6f 3d 94 b3 3c be 91 a6 90 be
       0.0012636641 0.05843016 -0.18427879 -0.2825208
000360 83 7d a0 3e bb ce c7 be a7 68 84 3d b5 27 0d 3e
       0.31345758 -0.3902491 0.06465273 0.13784678
000370 42 16 6a be df 24 7f be f8 43 69 3e 93 60 c0 be
       -0.22860053 -0.24916409 0.22779834 -0.3757368
000380 9b 68 34 3d 9e aa e0 3d 16 d8 28 be 95 0c bb be
       0.044045072 0.10970043 -0.1648868 -0.36533037
000390 b9 ba 30 be fa bd 17 be 5e 8d 12 be bb b1 6b 3d
       -0.17258729 -0.14818564 -0.1431174 0.057542544
0003a0 a9 0f 97 3c 7d 2e 79 3d c4 41 ea be 43 6e d0 bd
       0.018440085 0.06083535 -0.457533 -0.10177281
0003b0 d3 12 11 be 4d b1 3c 3e 3e dc ad be 38 ae 00 be
       -0.14167337 0.1842701 -0.33957094 -0.12566459
0003c0 a1 a2 e8 3e 13 20 43 3e ed a4 bb be a1 e5 5f be
       0.45436576 0.19055204 -0.36649266 -0.2186494
0003d0 36 6f 84 bd 35 65 c6 3d ca 05 92 be 3d 51 ad bc
       -0.06466524 0.096872725 -0.28520042 -0.021156901
0003e0 65 26 f8 bd b7 23 17 be 25 40 04 3e d9 b1 8f be
       -0.12116698 -0.14759718 0.12915094 -0.28065374
0003f0 c1 17 82 bc 6a 4e db be 44 c2 c7 bd 13 f5 a3 be
       -0.015880467 -0.42833263 -0.0975385 -0.32022914

network_body._body_endoder.seq_layers.0.bias f4 [128]
000000 99 8f b8 bd 71 ca 85 bc d2 37 1b 3d 8f 67 95 3d
       -0.09011764 -0.016331883 0.03789503 0.07295143
000010 ce d7 e7 3d 01 90 65 be 1e 11 cd bd 51 b2 79 bd
       0.11320458 -0.22418214 -0.100130305 -0.06096107
000020 ea 37 33 3d 6c ac 47 be ed 8a 25 bd 8d a2 c3 bc
       0.043754496 -0.19499367 -0.040415693 -0.023881221
000030 c5 4e 1c be e6 9a bf 3c 83 6a 02 3e 25 3b 33 3d
       -0.15264423 0.023389291 0.12735943 0.043757576
000040 38 7e 2d be 13 91 55 be bd b9 a5 bd 46 17 30 be
       -0.1694268 -0.20856123 -0.080920674 -0.17196378
000050 67 09 07 bd 07 42 15 bd 99 cd 37 bd 97 29 f5 bd
       -0.03296795 -0.03643992 -0.044873808 -0.11970823
000060 51 0b 0f be c9 c3 dd 3b d2 cf fa 3c 69 2e 6e bd
       -0.1396916 0.006767724 0.030616675 -0.05814973
000070 3e 3c 08 3e 4a f5 72 bd 90 20 9c bd 3f e6 e9 bd
       0.1330423 -0.059315957 -0.07623398 -0.11420869
000080 82 f2 2e 3d f7 0b 86 3d 1d 5a eb bc 51 90 ba bc
       0.042711742 0.06545251 -0.028729493 -0.022773894
000090 41 43 bd bc 6c f7 20 3c 31 c5 59 3d f4 ae fa 3c
       -0.023103358 0.009824615 0.053166572 0.030601002
0000a0 93 4c c2 bd a0 f5 54 3d 32 54 a4 bd 34 c8 cb 3d
       -0.094872616 0.05199206 -0.080238715 0.09950295
0000b0 b5 81 98 38 96 b5 46 3d 79 7b b4 bd 6e 44 c7 3d
       7.2720846e-05 0.048513018 -0.08812613 0.09729849
0000c0 0e 32 76 bd 1f 1a ab bd 6d da 9c 3d 69 fe 02 be
       -0.06010633 -0.083545916 0.07658849 -0.12792362
0000d0 70 3d c9 bd c9 f7 00 3d 71 c2 5e be 9a 5b 81 bd
       -0.098261714 0.031486306 -0.21753861 -0.063163
0000e0 2f 5b 84 3d fa 96 8a bc 59 17 d1 3d e2 e5 be bd
       0.064627044 -0.016917694 0.10209531 -0.093211904
0000f0 9c 66 f4 bd 3d 6c 8b bd 5f a7 67 3c 08 80 49 3c
       -0.11933634 -0.06807754 0.0141390255 0.012298591
000100 76 d6 b2 3d fe 2a 78 bd da 43 b0 bd 6a e3 52 bd
       0.087323114 -0.060587876 -0.08606692 -0.05148641
000110 b7 42 18 be c2 4b 23 3d 38 85 09 3e cd cb c0 bd
       -0.148692 0.03986717 0.13429725 -0.09413872
000120 04 a1 97 bd a5 da d9 3b 9b 0c ba 3c f5 64 f4 bd
       -0.07403758 0.006648379 0.022711089 -0.119333185
000130 fb cf 13 3d 87 84 d2 3d f1 44 0a be b4 c3 2a be
       0.036087018 0.10279184 -0.13502862 -0.16676217
000140 44 2d 0e 3e 84 8d 31 3d c3 92 2c 3d 93 59 a7 3d
       0.13884455 0.04334785 0.04213215 0.08171382
000150 6e 11 a6 3c 70 9e 26 bd 0b 68 d0 bc 03 7d 45 be
       0.020271983 -0.04067844 -0.025440237 -0.1928597
000160 76 7f 64 bb 48 e1 f9 bb e7 ab 19 be 8a df 49 bd
       -0.0034866012 -0.0076257326 -0.15006982 -0.04928545
000170 ee 03 b8 bd e5 5b 9b bc ee 9b 7f be f8 8e f7 bd
       -0.089851245 -0.018964717 -0.24961826 -0.12087816
000180 d3 94 aa bd 1f d8 1e bd 55 38 c2 bd 9d 70 ec 3c
       -0.08329167 -0.038780328 -0.09483401 0.028862292
000190 e9 60 86 3c 3b ad 47 bc fc db b3 bc ae 91 d2 bc
       0.016403632 -0.012187297 -0.021955483 -0.025704231
0001a0 96 4f 9c 3d 45 3e 66 bd de d0 82 3d f6 6f 28 bc
       0.07632367 -0.05621173 0.063874945 -0.0102806
0001b0 21 e6 29 bc 41 04 fe 3c 7e 4f 57 be c1 87 90 bd
       -0.010369808 0.031007888 -0.21026418 -0.07057143
0001c0 d3 1c 98 3a a0 09 bb 3d 27 e0 9d bd e6 b2 64 bd
       0.001160527 0.09132695 -0.07708769 -0.055834673
0001d0 b1 f8 91 bd c9 f3 ab bd 4f 98 fd 3c 61 b9 1a bd
       -0.07127512 -0.08396108 0.030956415 -0.037774447
0001e0 94 86 5f be cc f1 17 3c 5c ec 0f 3e aa dc 08 be
       -0.21828681 0.009273957 0.14055008 -0.13365427
0001f0 b3 b4 34 3d bd b8 0d 3e 7b 82 5d 3b 28 3b 63 3c
       0.04411764 0.13840003 0.0033799696 0.013869084

network_body._body_endoder.seq_layers.2.weight f4 [128, 128]
000000 cd 28 fd bc e5 88 f3 3d 98 7f 39 be 38 14 18 be
       -0.030903244 0.11891345 -0.1811508 -0.14851463
000010 df 34 60 be 69 fe 72 bd 9c b7 47 3e 1a dc f1 3d
       -0.21895169 -0.059324656 0.19503635 0.11809559
000020 22 95 b8 3d 7f fa 2d 3e 6e 11 c3 3d cb f8 83 bd
       0.0901282 0.16990088 0.09524809 -0.06443938
000030 fd 14 f3 bd 3b 4d 97 be 98 c4 50 bd 81 21 be 3d
       -0.118692376 -0.2955111 -0.050968736 0.09283734
000040 f7 f8 e1 3c f3 07 f1 3d 35 ce 96 3c 6f 12 f1 bd
       0.027584536 0.11769094 0.018408874 -0.11771094
000050 2c 6c 45 3e fe 26 20 be 40 a3 df 3d 14 6d ae bc
       0.19279546 -0.15639874 0.10919809 -0.021292247
000060 0f 75 c4 bd 5b 53 67 bd f6 8f a0 bd 2c 32 36 3e
       -0.0959264 -0.05647598 -0.07839958 0.17792577
000070 ce d6 12 be 18 94 e4 3d 6f cb a5 bc 3d 53 6d bd
       -0.14339754 0.11161059 -0.020238606 -0.05794071
000080 2a 50 c6 3d cf 1b 2c 3d 27 59 aa 3d 90 f4 04 3e
       0.09683259 0.042018708 0.08317786 0.12983918
000090 cd 2e 12 3d e8 65 48 3e 6a 7b 9f bd fe 69 63 be
       0.035689164 0.19570124 -0.07787211 -0.22208402
0000a0 b6 25 c7 3d c1 99 18 bd cb 81 b7 3d 59 1c e4 3c
       0.0972399 -0.037256006 0.08960303 0.027845548
0000b0 1c 88 06 be 46 3f d1 3d 8c 77 84 3d fb e0 88 3d
       -0.13137859 0.102171466 0.06468114 0.066835366
0000c0 d7 02 4f ba 46 b1 03 3e 33 1e a7 3c 00 02 0b be
       -0.00078968465 0.12860593 0.020400142 -0.13574982
0000d0 e2 47 3b 3d 29 12 dd 3d 5a 48 9e 3d eb 5e 06 3d
       0.04572285 0.107944794 0.07728644 0.032805365
0000e0 9b c2 65 bc 0a 20 16 3d ae 9f 2b b7 2c 7e 29 3e
       -0.014023448 0.03665165 -1.0229573e-05 0.16552037
0000f0 ad 9a a9 3d 81 ef ed 3d 73 b8 48 be c8 74 30 3e
       0.08281455 0.11617947 -0.19601612 0.17232049
000100 a8 5a 8c bc 2f 1a 00 3c d9 c7 68 3d 4c 24 fb bd
       -0.017133072 0.007818743 0.056831215 -0.122627825
000110 85 3d 4e 3e fd fa 7b 3d ad 0f 8b bc 8b 36 5b be
       0.20140655 0.061518658 -0.016975248 -0.21407525
000120 49 b4 9e bd cd 5f e1 3c cd 23 0b b9 55 da 9f be
       -0.077492304 0.027511502 -0.0001326941 -0.31221262
000130 3d 79 82 bd c6 4c 09 3d 75 25 2d 3e 13 80 16 bd
       -0.063707806 0.033520482 0.1690882 -0.036743235
000140 7a 2b 01 be 33 b1 9a bd 76 33 88 bd b6 21 f6 bd
       -0.12614241 -0.07553329 -0.066504404 -0.120181486
000150 d6 0e 42 3d 73 1c 62 3e fa 13 c4 bc 7b 78 6b bd
       0.04737743 0.22081165 -0.023935307 -0.057487946
000160 f5 0d a5 3d f4 55 d1 3d 80 06 26 be c2 9c d2 3d
       0.08059303 0.102214724 -0.16213417 0.102838054
000170 de d8 0a be 71 18 37 be 0c 95 be 3d b1 58 e4 3d
       -0.13559291 -0.17880417 0.09305772 0.11149729
000180 37 fd 74 3e 52 47 a2 3e cc 0e 9f 3e 83 e4 f4 3c
       0.23924719 0.31695038 0.31065977 0.02989412
000190 05 b5 16 3e ac cf 9f bd eb e0 77 bd 1f 8e b6 bd
       0.14717491 -0.07803282 -0.060517233 -0.08913826
0001a0 1e 8a a6 be 46 a8 59 bc f8 4f 68 be 06 5c 38 bd
       -0.3252725 -0.013284748 -0.22686756 -0.045009635
0001b0 e5 9c 4b 3c 1a 10 45 bc f9 41 25 ba 39 f8 4f 3e
       0.012427543 -0.012027765 -0.0006304081 0.20309533
0001c0 36 04 a3 bd 9b c4 96 be 37 8d 5f bd d4 35 93 bd
       -0.079597875 -0.29446873 -0.054578032 -0.07188001
0001d0 86 c7 06 be df 3b a9 3d 8f aa ce bd 32 e3 92 3d
       -0.1316205 0.08263373 -0.10091125 0.0717224
0001e0 7d b7 19 bd d2 26 00 be 37 bf 31 be 9d 07 8b 3d
       -0.037528504 -0.12514809 -0.17358099 0.067885615
0001f0 7b aa 80 3c 84 0b 02 bc 52 ac 07 be 52 c6 37 be
       0.015706291 -0.007937316 -0.13249329 -0.17946747
000200 a0 ce 46 be 31 0d 1d 3e 92 3c c7 3c 28 f9 8c bd
       -0.19414759 0.15337063 0.024320874 -0.0688346
000210 a9 92 03 3e fd 0b ff 3d 31 14 4c 3d d4 a2 28 bd
       0.12848915 0.124534585 0.049823944 -0.04117091
000220 64 03 84 3d dc 63 28 bd aa f2 0f 3e 29 a4 08 bc
       0.06445959 -0.04111086 0.14057413 -0.00833992
000230 67 d4 2c be 95 13 a6 3d ff 80 42 3d 2c 3b 01 3e
       -0.168779 0.08109204 0.0474863 0.12620229
000240 13 63 3d 3e 7e 0f 6c 3d 3f 13 33 3c cb 8b 04 3e
       0.18494825 0.057631962 0.010929882 0.12943952
000250 57 f3 5c 3e dc cc 14 bd 45 79 0d 3d 58 28 d0 bd
       0.21577202 -0.03632818 0.03453948 -0.10163945
000260 6c c7 34 bd 3e 9a 47 3b d2 87 8f 3d e2 50 8a 3d
       -0.044135496 0.0030456926 0.070083275 0.067537084
000270 5f d6 9b 3d 4e 8f 0e 3e 39 95 ca bd 05 26 25 be
       0.076092474 0.13921854 -0.09891743 -0.16127785
000280 79 f0 ad bd 2a e0 47 3e b0 4f b2 3d dd 60 d6 bd
       -0.08493132 0.19519106 0.087066054 -0.10467694
000290 a5 e1 2c 3e d3 2d 9c 3d 6f c6 c8 bd 76 51 98 be
       0.16882952 0.07625928 -0.09803473 -0.2974965
0002a0 39 b2 06 be 61 2e 08 3e 58 4d d9 3b a7 f5 7e bb
       -0.13153924 0.13298942 0.0066315345 -0.0038903744
0002b0 d0 9c 87 ba 04 15 4a 3e 53 0e 6a bd e3 0e 06 be
       -0.0010346416 0.1973458 -0.057142567 -0.13091616
0002c0 df 37 ea 3d 55 d4 0f 3e 07 c5 a5 3d eb 98 8c bd
       0.11436438 0.14045842 0.080942206 -0.06865104
0002d0 8e 96 bf bd b5 2b 3f 3e 61 f3 df bd 22 ac 77 3d
       -0.09354888 0.18669017 -0.10935093 0.060466893
0002e0 31 63 0c 3e 85 41 9a bd 74 84 d7 ba e7 d2 8a bd
       0.13709714 -0.07532028 -0.0016442672 -0.06778508
0002f0 55 6e 4d bd 6e 51 fd 3d 99 ab 89 bd 3f ec a7 3d
       -0.05015405 0.12369047 -0.06722183 0.08199357
000300 d9 be b5 3d 89 d7 ad bd 6c fe 2f 3e 40 8c 8f 3d
       0.08874292 -0.08488376 0.17186898 0.070091724
000310 c0 3d e7 bd 45 8f 1f bc 33 3b 40 3d 57 f4 24 be
       -0.11291075 -0.009738748 0.046931457 -0.16108833
000320 d2 58 9d bd b4 d2 42 3c 2c 41 11 3d 3b d2 11 be
       -0.07682957 0.011891056 0.035462543 -0.14240353
000330 3c 05 94 3e 99 ca 01 3e ee d8 ec 3c 4c f4 0e 3e
       0.28910244 0.12674941 0.028912034 0.1396038
000340 8c fb 51 3d 77 07 41 3e ea 00 0d be 35 9e da bc
       0.051265284 0.18850504 -0.1376988 -0.026686767
000350 9a 3a c6 bd 2c b3 1d 3d 89 a0 fa 3c 7c 1d 51 be
       -0.09679146 0.03850095 0.030594127 -0.20421404
000360 86 c9 82 bd bb 1d 9c 3d e2 b8 2b bc d7 f0 08 be
       -0.06386094 0.07622858 -0.010481091 -0.13373123
000370 54 57 14 be cd ad 8c 3e fc 1d 56 ba 73 9f a2 3d
       -0.14486438 0.2747635 -0.000816792 0.07940569
000380 37 8b 08 bc 41 e8 08 bd de 66 6f 3c d8 8a 05 3d
       -0.008333973 -0.03342462 0.014611928 0.032603115
000390 1d 3d 7b 3d d1 01 a5 3d b0 c4 4c bd d8 74 f9 bd
       0.06133758 0.08056987 -0.049992263 -0.12180489
0003a0 8c a5 b6 bc ac 14 45 3e 10 d4 b2 3d 7d a5 2e 3e
       -0.022295736 0.19246167 0.08731854 0.17055316
0003b0 58 b0 c6 3c c6 2e 05 3e 00 10 b2 bd d2 e1 18 be
       0.02425401 0.13006124 -0.08694458 -0.14929894
0003c0 08 06 0d bc 1e 31 b8 bd e9 fa 54 3d a3 66 01 3e
       -0.008607395 -0.08993743 0.0519971 0.12636809
0003d0 f8 5e c1 3d 5c ca 66 bd 6b 2a bb 3a 41 40 20 3c
       0.09441942 -0.05634533 0.0014279609 0.009780944
0003e0 d5 da fd 3d 29 74 08 be d7 5f ed bd fe 43 80 be
       0.123952545 -0.13325562 -0.115905456 -0.25051874
0003f0 8c c0 c2 3d 50 3c cc 3d aa 62 2f be f4 e9 69 be
       0.09509382 0.09972441 -0.17127481 -0.22843152

network_body._body_endoder.seq_layers.2.bias f4 [128]
000000 df 93 0b 3d a8 a8 0a 3e 49 22 a4 bd 73 a4 dc 3c
       0.034076568 0.135409 -0.08014352 0.026933884
000010 31 4f 94 3c ef d8 e9 bd 37 ac c6 3d 58 b7 6e 3d
       0.018104168 -0.1141833 0.09700816 0.05828032
000020 95 1d 24 be 86 7d 39 3d e0 d0 3c bd 74 72 c6 bd
       -0.1602691 0.045285724 -0.046097636 -0.09689799
000030 8b c8 a4 bd 4b 44 7c bd 7c a9 4a 3d 39 20 77 3d
       -0.08046063 -0.061588567 0.04947804 0.060333464
000040 99 dc 12 3e dd 1b a1 bd 27 36 a8 3d 2d 86 68 bd
       0.14341964 -0.078666426 0.08213454 -0.056768585
000050 0f df 2e bd dd 14 e1 bd 82 1e 9a 3d 05 1c bb 3c
       -0.042693194 -0.109903075 0.0752535 0.02284051
000060 55 ce 04 bd 3b ef 39 bd 65 de 23 bd 0a 4c 7b bd
       -0.032423336 -0.045394164 -0.040007014 -0.061351813
000070 f4 16 64 bd f9 39 e0 3b 0e 6e 98 bc d2 62 49 be
       -0.055685952 0.0068428484 -0.018607166 -0.19666603
000080 0c 9a ae bd a6 08 1a be b3 a9 a3 bd e4 24 a0 3d
       -0.08525476 -0.15042362 -0.07991352 0.07819536
000090 e7 bb e8 3d 3b 9b 05 bd 5f a4 83 bc cb 52 01 3e
       0.113639645 -0.032618742 -0.01606959 0.1262924
0000a0 d1 c9 47 bc 96 eb c1 bd 87 ae a2 bd 7f 22 49 3d
       -0.012194113 -0.094687626 -0.07943445 0.049105164
0000b0 c6 7e ae bb 65 9e 0b be 51 f2 b1 bb 9a 2f 52 bc
       -0.005325171 -0.13634641 -0.0054304977 -0.012828732
0000c0 c6 45 c1 3d 48 b5 a0 bd a8 fe 14 be 04 57 8b bd
       0.09437136 -0.07847077 -0.14550269 -0.06803706
0000d0 3d 6a b5 3c 0e f4 da 3c bd 45 a3 3d d1 4e 3d 3d
       0.022145385 0.026727702 0.07972286 0.046217743
0000e0 c3 b4 12 be 45 96 51 3d e6 0d a3 3d ec 87 4f bd
       -0.14326768 0.0511687 0.07961635 -0.050666735
0000f0 43 e2 7c 3d 81 f2 96 3c 76 1a 1d 3e 24 07 62 bd
       0.061739217 0.018426182 0.15342125 -0.05518259
000100 c2 de 7d bd b5 37 8d bd f5 15 98 3d 52 82 07 3d
       -0.061980017 -0.06895391 0.07426063 0.033083268
000110 70 55 15 3e a6 b3 0b 3c 3e 8b 25 bd d6 b5 c7 3d
       0.14583373 0.008526718 -0.040415995 0.09751479
000120 c7 ce c4 3b 60 d5 bd bc 9f 92 e3 bd 7d 43 d6 3c
       0.006006095 -0.023173034 -0.1111195 0.026155228
000130 a4 57 b3 bd 07 8c e6 3c 51 e2 c1 3b 43 6f 86 3c
       -0.087569505 0.028142942 0.0059168716 0.016410476
000140 25 e3 1b 3d 93 ff 7c 3d cd 06 62 bd 99 7b f1 3b
       0.03805842 0.061767172 -0.055182267 0.0073694703
000150 79 33 fc 3d 5f 2a 01 be 27 3b ba bc b1 64 14 bc
       0.12314505 -0.1261382 -0.022733284 -0.00905721
000160 d1 d2 1b 3b 76 21 65 3c c4 8a a2 3d 11 47 fe bd
       0.002377678 0.0139850285 0.07936624 -0.124158986
000170 ce 57 49 3c 57 61 8a bd b9 40 96 bd 47 d5 59 bc
       0.012289001 -0.06756847 -0.073365636 -0.013295478
000180 92 f8 dc bd b9 1b bf 3c cc 92 0f be 70 91 dd 3d
       -0.107895985 0.023328649 -0.14020842 0.108187556
000190 2a af 7d bd a6 26 89 bd 5c 42 a6 3d f5 6d be 3c
       -0.061934628 -0.06696825 0.08118126 0.023245791
0001a0 57 97 8c 3d be 14 9a bc 02 9f 3a 3d 08 03 28 3d
       0.06864803 -0.018808719 0.045561798 0.041018516
0001b0 c3 e7 8f 3d b1 7e 8a bd 63 70 77 be b9 21 53 bb
       0.07026627 -0.06762446 -0.24163966 -0.0032216145
0001c0 79 6e b6 3c fd 9e d7 3d b0 45 78 bd 26 13 c1 3c
       0.022269474 0.105283715 -0.060613334 0.023568701
0001d0 1e ed 02 3d 6e 02 38 bd d9 ba 98 bd 7e 98 16 bd
       0.031964414 -0.044924192 -0.07457513 -0.03676652
0001e0 39 ad cd 3d 42 80 86 bd 52 88 8b bc 5a a1 d7 bc
       0.10042805 -0.06567432 -0.017032776 -0.026322056
0001f0 04 0b 2f 3c fd 7e 4c be 9e 39 84 3d d5 dd 2a 3c
       0.010683779 -0.19970317 0.06456302 0.010428865

action_model._discrete_distribution.branches.0.weight f4 [5, 128]
000000 dc c4 af bc ce e5 f3 bc e9 3f ee bc 91 25 4c 3d
       -0.021456175 -0.029772665 -0.02908321 0.049840514
000010 47 03 89 bd da db 8c 37 ff a2 b8 3b 3a 4e 0d be
       -0.06690078 1.6791677e-05 0.005634665 -0.13799372
000020 e3 8f b8 3d c8 6a 2c 3e ad b2 76 bd 52 8c 51 bd
       0.09011819 0.16837609 -0.060228992 -0.05115921
000030 b9 2f e7 3d be 9d 3a 3e 57 96 9f 3d ae 68 88 3e
       0.11288399 0.18224236 0.07792347 0.26642364
000040 c3 30 06 bd 5d 97 d6 bd 7e a3 84 3e 2f 25 fc 3c
       -0.032761347 -0.10478089 0.25905985 0.03077945
000050 a6 b3 9f bd 96 d5 e8 bd 5d 36 6c 3d 14 98 e4 3d
       -0.07797937 -0.11368863 0.057669032 0.11161819
000060 08 19 80 3d de 98 c5 3d 58 f1 5b 3d 20 29 e4 3d
       0.06254774 0.09648298 0.05369696 0.111406565
000070 3e b1 d1 3d cb 03 6c 3d 14 8d 7f 3d 6e 0d 3b 3c
       0.102388844 0.057620805 0.062390402 0.011416776
000080 f1 32 ad 3c da c7 9d 3d a5 95 01 bc e5 5e 12 3e
       0.021142455 0.07704134 -0.007909213 0.14294012
000090 d4 8c 22 3e d4 f8 e1 bd 06 70 a4 3d ee 15 21 3c
       0.15874034 -0.11033788 0.08029179 0.009831889
0000a0 88 a1 a2 3d 55 40 69 3e c2 85 1a 3e 08 b6 2f 3d
       0.07940966 0.22778447 0.15090087 0.042898208
0000b0 00 5d f9 3b 85 bc 07 3e ff 33 aa 3d d9 52 ac bc
       0.0076099634 0.13255508 0.08310699 -0.021035599
0000c0 57 e0 1a 3d 3d 50 c5 3d 6e 8c 41 bd 48 58 ac 3c
       0.037811603 0.09634445 -0.047253065 0.02103819
0000d0 44 66 13 3e 66 88 24 3c 77 21 0c bd 2f 43 e3 bd
       0.1439448 0.010042286 -0.034211602 -0.11096799
0000e0 c8 bb 80 3d a0 2e 33 bb 02 b0 b0 bb 5a 75 60 3d
       0.062858164 -0.0027341023 -0.0053920755 0.054799415
0000f0 a7 3e 0e bd 78 a1 4e 3e 84 c4 62 be 2e 42 7d 3c
       -0.03472772 0.20178783 -0.22145277 0.015457673
000100 29 28 00 3d d4 14 6d 3e d7 c9 16 3d 25 7d 09 3e
       0.0312883 0.23152477 0.036813583 0.13426645
000110 6c 11 41 3d 18 73 1e bd db 01 2e 3e 99 29 07 bd
       0.047135755 -0.03868398 0.16992895 -0.032998655
000120 06 ec cc bd d8 bb 04 3d 21 a3 13 3e 8b 75 35 3e
       -0.100059554 0.032405704 0.14417697 0.1772062
000130 db 9d 3b bc 2b c6 a3 bb b6 1d 63 3d 81 0a ad 3c
       -0.01145121 -0.0049979887 0.055448256 0.021123173
000140 d4 a4 8a 3d c3 2d a2 bc 42 13 2c 3e d4 9d 19 bb
       0.0676972 -0.019797212 0.16804221 -0.002344002
000150 46 94 2e bc 3e cf fc 3c 34 7b 00 3e c2 9e 7b 3d
       -0.010655468 0.03086054 0.12546998 0.0614307
000160 cc 39 76 3d 7e f4 b0 3d de 3f e4 3c 36 58 18 3c
       0.060113713 0.08640383 0.027862485 0.009298375
000170 6e 98 1a 3c 05 c4 1c 3c aa 6d b4 3d 50 0d 03 3e
       0.009435756 0.009568219 0.08809979 0.12798047
000180 9c 39 80 bc e2 8c fa 3c 31 c0 be 3b c1 e1 a4 3d
       -0.01565247 0.030584756 0.005821251 0.08050872
000190 69 2b 56 3c b1 9a d5 3d 6c fe 24 be fe b7 24 3e
       0.013071873 0.10429896 -0.16112679 0.16085812
0001a0 44 d0 2a 3e 6b db b5 3d 97 f3 f1 3d e2 7f 87 bd
       0.1668101 0.08879741 0.11814039 -0.066161886
0001b0 26 17 9a bd d6 94 b1 3d 21 72 cd 3d 42 15 28 ba
       -0.075239465 0.08670966 0.10031534 -0.0006411859
0001c0 bf 4f 1e 3e 57 d3 b8 bd 1b 39 df bb 49 eb 77 bd
       0.15460108 -0.09024685 -0.0068122274 -0.06052712
0001d0 00 ce 2b 3d 80 10 ba 3b 2c f0 80 3d de 03 fd 3d
       0.041944504 0.0056782365 0.06295809 0.12354253
0001e0 08 64 40 3b 97 b8 a1 3d ef d6 e1 3d 29 5b c5 bd
       0.0029356498 0.07896536 0.110273235 -0.09636528
0001f0 c8 b5 c0 3d 1f 48 e7 3d 42 11 d5 3d d9 1e b3 bc
       0.09409672 0.11293053 0.10403682 -0.021865295
000200 35 89 6b 3d b5 85 af 3c 4a 22 69 3d 78 7a 09 3e
       0.057503898 0.021426061 0.056917466 0.13425624
000210 71 7d 4f 3e f5 82 db 3b 3c 00 29 3c 49 73 f1 3c
       0.20262696 0.006698961 0.010314997 0.029473918
000220 6f ff 8e 3b 75 41 3c 3e fd 90 bd bc 3a 2d 8e 3c
       0.004363946 0.18384345 -0.023140425 0.01735555
000230 0d 01 f5 3d 5f 93 b4 3d 67 f3 f2 bd 27 49 fd 3b
       0.11963091 0.08817171 -0.118628316 0.0077296677
000240 11 81 f9 3d af bf ec 3b 77 c8 c3 3d f9 ab 90 3d
       0.121828206 0.007224999 0.0955972 0.07064051
000250 4e 7f a9 bd 37 f0 e0 bc de 85 08 bd 98 d6 a0 3d
       -0.082762346 -0.027458293 -0.03333079 0.078534305
000260 c5 62 58 3c 8a 5d f5 bc aa 29 9e bd d2 82 3c bb
       0.013207142 -0.02995183 -0.077227905 -0.0028764498
000270 49 92 d5 bd 2e 5e 33 3e da af e6 3d 62 9d 67 bd
       -0.10428292 0.17516395 0.1126401 -0.056546576
000280 1e 51 e9 3d 5c ad 02 3d b2 5f af 3d d2 38 7c 3d
       0.11392425 0.03190361 0.08563174 0.061577626
000290 46 37 1a 3e aa 42 14 3d c7 1c fa 3d 83 fa e0 3d
       0.15060148 0.03619639 0.1221252 0.10985281
0002a0 a8 0a a0 3d 12 bd 05 3e 6b 8c ca 3d df 24 0d 3e
       0.078145325 0.13060406 0.09890064 0.13783596
0002b0 b8 69 0c bd 2b b0 ff bd d0 d3 bc 3d b0 d2 4a 3d
       -0.03428051 -0.12484773 0.092200875 0.049517334
0002c0 7c de 54 3e 7f d6 1e 3d ed 1a 4c 3c 5c 61 15 be
       0.20787996 0.03877878 0.0124575915 -0.14587921
0002d0 5f 58 c5 3b fc 28 f5 3d 2f 52 86 3d d1 ef cb 3b
       0.0060224975 0.11970708 0.06558644 0.0062236567
0002e0 e8 17 05 bd d1 cf 71 bc 49 b1 20 bd 81 94 6b 3c
       -0.032493502 -0.01475902 -0.039231572 0.014378668
0002f0 ee 81 4d 3e 24 51 2a 3e 45 5f e4 3d f9 50 5a 3c
       0.20069095 0.16632515 0.11150984 0.013324969
000300 57 15 8b 3d f3 76 a3 3d aa 92 a8 3d a4 97 20 3e
       0.067911796 0.07981672 0.08231099 0.15682846
000310 48 1b 19 3e f3 f7 d9 3d 1b 24 06 3e a8 62 4d 3e
       0.14951813 0.10642996 0.1309971 0.20057166
000320 1d db b8 ba 45 75 33 3e 14 f9 c7 bc 85 0f 3f 3e
       -0.0014103387 0.17525204 -0.024410762 0.18658264
000330 4a e7 46 3d 74 ce be 3d 1c 34 47 3d f1 69 5d 3e
       0.04856042 0.093167216 0.04863368 0.21622445
000340 2f f0 b3 3d b9 d9 86 3d 77 4f 18 3e e3 14 0a be
       0.08786046 0.06584496 0.14874063 -0.1348453
000350 ba e2 7e bd b8 79 bd bd 72 78 21 3e 5f b8 f4 ba
       -0.062227942 -0.09251732 0.15768602 -0.001867067
000360 98 da 3c 3e 24 63 6a 3e 14 15 cd 3d 59 56 36 3b
       0.18442762 0.22889382 0.10013786 0.0027822463
000370 04 35 15 3e 89 23 6e 3b 45 53 9f 3c c8 d3 ae bd
       0.14571005 0.0036337099 0.019448886 -0.08536488
000380 f3 5c 8d bd c1 14 89 3d 4e 6d 5c 3c 9b c0 4b 3d
       -0.06902494 0.066934116 0.013453795 0.04974423
000390 e9 0f 37 bd 4d 89 5b 3d f2 6a 1c be 6b 5a fe bd
       -0.044692907 0.053597737 -0.15275171 -0.124195896
0003a0 f0 2e bd bd 2a a2 c9 3d a5 dd 56 3e 41 08 6e 3e
       -0.09237468 0.098453835 0.20982988 0.23245336
0003b0 5c 65 ad 3d de 81 14 3e a3 17 00 3d 13 02 be bc
       0.084665984 0.14502665 0.03127254 -0.023194348
0003c0 90 bc 38 3e 00 0d 4e 3e fe ed 57 bc e1 bf d8 3d
       0.18040681 0.20122147 -0.0131793 0.10583473
0003d0 6c fb 0b 3e 06 b1 f4 bd f2 24 53 bd bd 78 3b 3c
       0.13670129 -0.11947827 -0.051548906 0.0114423605
0003e0 09 86 26 3e 4c 01 87 bc 60 c1 48 bd 9d a6 21 3d
       0.16262068 -0.01648011 -0.04901254 0.039465535
0003f0 3a 1f 97 bb e5 1f 9d 3b 82 b2 0c 3e d8 df 25 bc
       -0.004611877 0.004795062 0.1373997 -0.010124169

action_model._discrete_distribution.branches.0.bias f4 [5]
000000 b1 63 40 be 0f 5d d5 3d e9 f9 91 bc 0e b4 1d 3e
       -0.18788029 0.1041814 -0.017819362 0.15400717
000010 03 10 dd 3c
       0.026985174

action_model._discrete_distribution.branches.1.weight f4 [4, 128]
000000 85 cc 92 bb e6 f0 8d 3d e3 1a f1 3c 94 29 78 3d
       -0.004479947 0.06930713 0.029431766 0.060586527
000010 1d c0 91 ba c0 7d 65 3d 27 3c 4c bd c5 a6 c2 3d
       -0.0011119876 0.056028128 -0.049862053 0.09504465
000020 e8 ca 1c be a0 38 a3 bd 5e 51 3c be 02 60 17 3d
       -0.15311778 -0.07969785 -0.18390414 0.036956795
000030 e8 91 f2 3c b9 f2 7f 3d a8 43 21 bd 8f bf 1f be
       0.02961059 0.062487338 -0.039371163 -0.15600418
000040 e9 e2 79 bd bf b1 fc bc 99 f9 8d 3c 64 06 3f 3b
       -0.061007414 -0.030846475 0.017330931 0.0029148096
000050 9c 8c b0 bb 13 94 51 bd 0f ec 63 3d fc ad 95 bd
       -0.0053878557 -0.051166605 0.055645045 -0.073085755
000060 5f fd 95 3d 5d 0d 24 3e d9 cf 19 bd c7 a3 04 3d
       0.07323717 0.16020723 -0.037551735 0.032382753
000070 a6 48 cf bd 83 12 36 3c 88 b7 a8 3c 2c 3f 01 3d
       -0.101212785 0.011112812 0.020595327 0.031554386
000080 0f 48 74 3c 33 62 34 3d 8b 74 08 bc d9 fb 8c 3d
       0.014909758 0.044038963 -0.008328567 0.06883974
000090 4b c1 2f be 79 07 1b be d0 e2 17 bd 57 27 b3 3d
       -0.17163579 -0.1513957 -0.03708154 0.08747738
0000a0 57 46 ae 3c 5b 27 0d 3e 6e f8 98 3d 17 0e 06 3d
       0.021273775 0.13784544 0.07469259 0.03272828
0000b0 d7 f5 e7 3b 1f d1 0b 3d 60 5a ea 3a 58 cc 44 3c
       0.007078867 0.03413498 0.0017879717 0.01201161
0000c0 f7 b5 ab bd a1 0a e3 3d 5f 14 53 3d 04 6d 0a 3e
       -0.083843164 0.11086012 0.0515331 0.13518149
0000d0 b8 e0 85 bc c7 ec ac 3d b7 48 c3 3d 22 4c 8f 3c
       -0.016342506 0.08443599 0.09535354 0.017492358
0000e0 68 41 22 3c 6a e5 e9 bc e0 84 2c 3d 80 15 de 3d
       0.009903289 -0.028551776 0.042118907 0.108439445
0000f0 f4 5b c3 3c 5d 93 b9 3c 52 2f 98 3d a1 e5 ee 3d
       0.023847558 0.022653276 0.07430901 0.11664892
000100 8a 35 54 3d b6 c7 ba 3d 5a 67 3d bd 4f b1 4f ba
       0.05180887 0.09120123 -0.04624114 -0.00079228444
000110 17 d3 1a 3e 74 77 92 3d 8c 8d b2 bd 0c ee 6d 3d
       0.15119587 0.0715169 -0.08718404 0.058088347
000120 59 57 64 bc 54 01 13 bd 5e a0 06 3d 5e d8 34 bd
       -0.013936841 -0.03588994 0.03286778 -0.044151656
000130 3c dc 55 3c a6 d2 16 be 53 73 80 bd 41 3d 88 bc
       0.013052996 -0.14728794 -0.06271996 -0.01663077
000140 53 a4 ad bc 5a 00 5f bc b0 45 f0 bd a1 cb ba 3d
       -0.02119652 -0.013610924 -0.11732042 0.091208704
000150 f1 88 43 3d 13 30 a8 3c 44 72 b4 3c d4 0d fa bc
       0.04773802 0.020530736 0.022027142 -0.030524172
000160 99 09 d3 bc 20 ad b4 3c b3 d5 36 3d 2f cb 12 3d
       -0.025761412 0.022055209 0.044637393 0.035838302
000170 63 1a 1b 3d db 2d c4 3d 57 6e ea 3b 43 d3 90 3d
       0.03786696 0.09579059 0.007154267 0.07071545
000180 37 64 92 bb 36 8c c0 bd ee 67 72 3d f9 4a 3e bc
       -0.004467513 -0.09401743 0.059181146 -0.011614555
000190 c5 0f 57 3d d9 7b 83 bd 3b 02 dd 3d 91 da f1 bd
       0.052505273 -0.064201064 0.10791441 -0.11809266
0001a0 39 2a eb bd 32 48 3f bd a8 d3 5d 3d b7 ca 13 3d
       -0.11482663 -0.04669971 0.05415693 0.036081996
0001b0 95 a5 f0 3d cb a2 65 bd 41 34 4c bc c1 23 c8 3d
       0.11750332 -0.056063455 -0.01246363 0.097724445
0001c0 44 d4 8d bc b2 37 bd bc dd cb 35 bd cb e2 34 3d
       -0.01731313 -0.023097847 -0.044383872 0.0441616
0001d0 67 4c 8b bd fa 51 ba 3d 0f c1 1a 3d 53 21 c8 3c
       -0.06801682 0.09097667 0.03778177 0.024429953
0001e0 c2 27 2a bd 9c 90 f0 3d 39 6c 95 3d 6e 0a ec 3c
       -0.041541822 0.11746332 0.072960325 0.028813567
0001f0 21 2b 55 3d de 8f 5b bc 6f 46 a2 3d 55 65 12 bd
       0.052043084 -0.013401 0.079235904 -0.03574117
000200 2c c4 c2 3c f4 16 be 3d 84 1f b9 bd 4f 2b 66 3d
       0.023775183 0.09281722 -0.09039214 0.056193646
000210 22 52 21 3d c0 93 d1 bd 2e 64 67 3d ed fe 82 3c
       0.03938497 -0.10233259 0.056492023 0.015990699
000220 bd 15 f8 3d e1 8b 65 3e 12 91 98 bb ff 01 5e bd
       0.12113521 0.22416641 -0.0046559656 -0.054201122
000230 9c b5 8e bd d9 0f 3e 3d 1e 01 f3 3d e2 b4 a9 3d
       -0.06968233 0.046401832 0.118654475 0.08286454
000240 5f d8 bf 3a 5f bf 8d be b2 b1 28 3d 51 05 2f 3e
       0.0014636627 -0.27685067 0.04118509 0.17091872
000250 2c 30 7f 3d e1 d4 86 be 94 7c 03 3e 86 0a c9 bc
       0.0623018 -0.2633429 0.12840492 -0.02454115
000260 96 7e dd bd 98 72 1f 3e fa a9 b6 3d 86 a0 9d bc
       -0.1081516 0.15571058 0.08919139 -0.019241583
000270 91 3d 22 be 90 f1 e7 3d 4d 01 af 3d 1c a4 cf bd
       -0.15843798 0.11325371 0.0854517 -0.10138723
000280 e4 d4 ee 3d 73 bd ef 3b 83 fa 58 bd fb 49 c3 3d
       0.116616994 0.0073162853 -0.05297328 0.09535595
000290 cb 65 b6 bc c5 b8 c2 bc 88 d7 49 bc 3c 33 2c 3c
       -0.022265336 -0.023769746 -0.012319453 0.010510262
0002a0 db 3e 92 3d 35 33 bc 3d 01 ba 5b bc 9e 6d 28 3e
       0.07140895 0.091894545 -0.013411046 0.16448066
0002b0 29 ae 3d bd 63 b7 cf bc bb e4 5a bd fe 4d d6 bd
       -0.04630867 -0.025356 -0.05344079 -0.104640946
0002c0 61 0e 9b 3d 3c ee 4c 3d a2 91 90 3c 37 76 d6 3c
       0.07571102 0.050031886 0.017647568 0.026179416
0002d0 6d 07 3c 3e a0 4d 24 3e be 94 28 3c d5 e4 e6 3d
       0.18362208 0.16045237 0.010289369 0.11274115
0002e0 49 6f e6 bb b2 7c ff 3d 57 91 02 3e db 75 89 bd
       -0.007032309 0.124749556 0.12750755 -0.06711932
0002f0 72 d3 ed 3c 95 9f b9 bc e3 29 9f 3d b7 0b a8 3d
       0.029031489 -0.022659102 0.07771661 0.082053594
000300 3a ca da bd b4 3c 7f bd 93 39 bf bd 3f 1f 82 3d
       -0.10683103 -0.06231375 -0.09337153 0.06353616
000310 60 f8 09 bd 68 11 e4 3c e2 72 3f bc 70 af 27 3c
       -0.033684134 0.027840331 -0.011685105 0.010234699
000320 38 f8 07 3d 8f 8e 08 3e 68 e6 8d bc 90 07 94 3c
       0.033195704 0.13335632 -0.01732178 0.018070012
000330 c0 f0 3b be 1f dc 7b 3d 37 fa 2c bc 61 48 14 3d
       -0.18353558 0.06148922 -0.010557703 0.03620184
000340 b0 48 31 3d 2f 84 1c 3e 39 df ef 3a e2 5a c1 bd
       0.04328221 0.15284799 0.0018300778 -0.09441163
000350 6a 1e ab bd 70 30 eb bd e2 2e 3b bc 70 81 1f 3d
       -0.083554104 -0.11483848 -0.011424752 0.0389418
000360 26 98 9c 3d cc 72 c8 3c 96 13 4d 3e 3b f0 bf bd
       0.076462075 0.024468802 0.20027003 -0.09371992
000370 0b ec 0f 3e aa 7c 9e 3d 71 a9 9f bd bd d8 05 bc
       0.14054887 0.077386215 -0.0779599 -0.00816935
000380 ef 93 20 bd a6 e7 ce bd 0f 18 33 bd 26 3c 58 3e
       -0.03920358 -0.10102777 -0.043724116 0.21116695
000390 e7 4b ca bd 95 63 e1 3d b4 26 7f bb 97 2c 7a bc
       -0.098777585 0.11005322 -0.003893298 -0.01526942
0003a0 69 d9 80 3d 8f 43 a4 3d 29 d5 8c 3d 55 74 08 bd
       0.06291468 0.08020698 0.068765946 -0.033314068
0003b0 9c c9 b5 3d 74 bf a0 bd 4a 38 80 3d 6e 7f 0d bd
       0.088763446 -0.07849017 0.06260736 -0.034545355
0003c0 74 8d 2d 3e f3 9c a5 bc 54 37 0d be 41 1e 99 3d
       0.16948491 -0.02021644 -0.13790637 0.074764736
0003d0 57 60 e2 3d 18 14 1a 3c bb b4 0d be 77 ae 60 bd
       0.110535316 0.009404205 -0.13838474 -0.054853883
0003e0 64 9f b5 bb 8a f9 6d bc 87 66 7f bd 5f 2c b9 3d
       -0.0055426825 -0.014524827 -0.062353637 0.09041666
0003f0 43 59 0a 3d cd b0 03 3d 3c 30 a8 3d e5 e3 12 3e
       0.033776533 0.032151032 0.08212325 0.14344747

action_model._discrete_distribution.branches.1.bias f4 [4]
000000 b0 4c c6 3c 67 8a b5 bb bc d2 87 3d 83 88 13 bc
       0.02420649 -0.0055401805 0.06631991 -0.009004715

action_model._discrete_distribution.branches.2.weight f4 [2, 128]
000000 c0 0f f3 3d c9 9f 22 bc 68 64 39 bd 20 ed 00 3c
       0.118682384 -0.009925791 -0.04526177 0.007869035
000010 da 75 91 3c cc 3c 9e bd 25 0e d7 bd 49 2f 1f bb
       0.017756391 -0.0772644 -0.10500745 -0.0024289659
000020 f7 fe 25 3d 2e ed 6b 3d 90 e2 4f 3d a4 35 a5 bd
       0.040526357 0.05759924 0.050753176 -0.08066872
000030 35 ff 41 bd 3c e9 76 bd d5 79 eb 3c 48 33 a6 3d
       -0.047362525 -0.060281023 0.028744617 0.0811525
000040 19 ea 00 bd 06 44 e6 bd 37 a7 75 bd 0a c6 76 3d
       -0.031473253 -0.11243443 -0.05997392 0.06024746
000050 a6 11 08 3d 50 fd 0c bd f5 67 7a bd 28 57 e5 bc
       0.033219956 -0.034421265 -0.061134297 -0.02799566
000060 74 0d 8d bd c8 52 23 3d ea e8 ea bd 06 7a 80 3d
       -0.068873316 0.03987387 -0.11470206 0.06273274
000070 71 52 1a 3d dc 04 f6 bc 44 65 d2 bd f8 f5 c4 bc
       0.03767628 -0.030031614 -0.10273221 -0.024043068
000080 86 e7 86 3d 59 51 a2 bd c2 76 0c bd ca 12 60 3d
       0.06587128 -0.07925672 -0.034292944 0.05470542
000090 29 a6 0e bd a4 d6 ac 3d 4e 7c cf 3c 97 d0 d3 bd
       -0.03482643 0.08439377 0.025327828 -0.1034252
0000a0 f5 91 b7 bd ab b4 1f 3d b1 00 84 bd f7 a1 0b be
       -0.08963386 0.038990658 -0.064454444 -0.13636003
0000b0 a8 b5 08 bd 6c 4b 91 bc 50 bb 58 bd db f6 00 3e
       -0.033376366 -0.01773616 -0.05291301 0.12594168
0000c0 6f a6 33 b9 62 5a 8e b9 25 c7 1b bd d8 96 92 3d
       -0.00017132772 -0.0002715169 -0.038031716 0.071576774
0000d0 19 8a be bc ef 4e 12 3c 33 7d 02 be c8 14 a8 bd
       -0.02325921 0.008929952 -0.12743072 -0.08207089
0000e0 17 4a 3d 3d 44 a3 4e bd 62 5f f3 3c 08 b2 b8 bd
       0.046213236 -0.05044867 0.029708568 -0.09018332
0000f0 f1 46 15 bd 25 89 bc bd e0 b4 40 bd 57 0e bb bc
       -0.036444608 -0.09205846 -0.047047496 -0.022833986
000100 db 29 23 3e 9d d3 e5 bd 2e b3 2e bd c0 4f 46 bd
       0.15933935 -0.11222003 -0.042651348 -0.0484159
000110 92 89 1e be 7e 5a b5 3c cb 7b f6 3b 5a f5 4a bd
       -0.15482166 0.022137877 0.0075220815 -0.04955039
000120 70 7a 06 3d 8e 95 fb bc 81 db 95 3c 47 8c f4 3c
       0.03283161 -0.030710962 0.018293144 0.029852046
000130 19 3f 0d be fd 84 9a bb 14 59 eb 3d 43 b3 ac bc
       -0.13793601 -0.0047155605 0.114916 -0.021081572
000140 7e 69 ee 3d 2f 8a c3 bb a7 cd 86 bd 2b dc 85 bd
       0.11641215 -0.0059674005 -0.06582194 -0.06536134
000150 03 a8 f8 bd 70 18 60 bc 19 e5 e2 3c 86 b0 8c bd
       -0.12141421 -0.013677701 0.027697133 -0.06869607
000160 1e 2a 7d 3c 04 b5 0e bc 67 ce 04 bd 03 a0 41 bb
       0.015451936 -0.00871015 -0.032423403 -0.0029544837
000170 e6 b5 d3 bd 47 f2 0b 3e 1a c5 70 3d 52 8f b3 bd
       -0.10337429 0.1366664 0.05878172 -0.087675706
000180 cb 25 c6 3c d9 17 8b 3d 25 1c ba bc de 99 bc 3d
       0.024187943 0.06791658 -0.022718498 0.09209035
000190 1d 19 27 3e ac 10 a6 3c 83 82 0b bd 9a e1 8a bd
       0.16318174 0.020271622 -0.034060013 -0.06781311
0001a0 07 1d 73 3e 50 39 1d 3d e6 1d 09 bd c8 e0 04 bc
       0.23741542 0.038384736 -0.03347578 -0.008110233
0001b0 5d e0 72 bd 8b 4a ea 3c 83 08 6f 3d d8 f0 8d 3d
       -0.059296 0.028599998 0.058357727 0.06930703
0001c0 03 cd 5b bd 0f 3b 33 bc 0e 6e a8 3d a7 9e 0d 3d
       -0.05366231 -0.010939374 0.08224116 0.03457513
0001d0 6d 1c 00 3e 77 e7 1e bd c7 f0 97 bc 2d bc 93 bc
       0.12510844 -0.03879496 -0.018547429 -0.018034065
0001e0 4b 02 73 3d 87 1e 24 3d e6 b4 b4 bd 89 18 dd bb
       0.05932836 0.040068176 -0.08823566 -0.0067473096
0001f0 90 0d de bd e1 14 25 3d a9 5a 7b bc ed 69 81 3d
       -0.108424306 0.040303115 -0.015341439 0.06319032
000200 bf df e8 bd 79 9c ac 3c f6 35 36 3d 1d f5 1f bc
       -0.11370801 0.021070706 0.044485055 -0.009763029
000210 1b 63 14 bc 12 4c 99 3d 1f 34 ca 3d e3 17 36 3c
       -0.009056832 0.074852124 0.098732226 0.0111140935
000220 79 77 31 bd 01 d1 95 bd 8d 65 91 bd 10 92 d1 3d
       -0.04332683 -0.07315255 -0.070994474 0.10232937
000230 1a 26 4b 3d 91 ca 87 3d 60 81 09 bd 68 4b a1 bd
       0.049596883 0.06630433 -0.033570647 -0.07875711
000240 d0 1c 2b 3d e9 c3 e5 3d 42 ad 78 3d 22 47 9e bd
       0.041775525 0.112190075 0.060712107 -0.07728411
000250 bf 12 c6 bc ca 02 59 3d 68 9d 65 3d cb 12 ea 3c
       -0.02417886 0.052981175 0.056058317 0.028573414
000260 99 42 85 3d 34 26 33 bd 41 26 d7 3d 8c 82 8c bd
       0.06506843 -0.043737605 0.10505343 -0.06860837
000270 0e a5 fd bc eb 8f ae 3c 72 34 d4 3d 9c ac 31 3c
       -0.030962493 0.02130886 0.10361566 0.010844376
000280 0f 2f 6d bd cf 04 ae 3d a5 28 67 3d 31 59 86 bd
       -0.057906207 0.08497011 0.056435246 -0.06559981
000290 06 cd 2f 3d f5 4c be bd 49 90 20 bd 2c 2d d3 3d
       0.042920135 -0.09292022 -0.0392001 0.1031135
0002a0 48 26 9a 3d c5 6b 97 bc 34 54 3b 3d 65 98 1c 3e
       0.07526833 -0.018484006 0.0457346 0.15292509
0002b0 3c df d1 3c d8 61 0f 3d 3d 9d 83 3d 78 28 e3 bd
       0.025619142 0.03500542 0.06426475 -0.11091703
0002c0 81 04 64 3a 60 0f 7a 3c 29 50 14 3d ed ae 81 bd
       0.0008698181 0.015262455 0.03620926 -0.063321926
0002d0 81 5c c4 3c dd 86 9d 3a 6c 02 0b 3e 24 a8 b2 3d
       0.02396989 0.0012018342 0.13575143 0.087234765
0002e0 55 b6 19 bd 09 26 44 3d d0 91 1b bd 9e f2 a7 3d
       -0.0375274 0.047887836 -0.037980855 0.082005724
0002f0 35 8f 47 3d 93 02 b2 3d 85 4d 65 3d e4 54 e7 3c
       0.048720557 0.08691897 0.05598213 0.028238721
000300 61 06 29 be 2a 5f 07 3e b1 e7 87 3d 4b a9 9f 3d
       -0.1650634 0.13219896 0.066359885 0.07795962
000310 34 eb 1d 3e 78 50 11 bc bc 60 88 bc 64 8d 91 3d
       0.15421754 -0.008869283 -0.016647689 0.07107046
000320 2e 15 d3 bc 46 ba ee 3c 5c 59 c5 3b cf 45 4d bc
       -0.025766935 0.029141556 0.0060226154 -0.012528851
000330 9f bc 0f 3e a9 32 c1 3b fe 13 e2 bd 05 7a b3 3c
       0.14036797 0.0058959317 -0.110389695 0.02190877
000340 3a 29 0b be 79 2a 81 bb d9 32 6d 3d 70 52 3f 3d
       -0.13589945 -0.0039418307 0.05790982 0.046709478
000350 c5 41 06 3e bb 31 73 3c 2e 81 8e bc 52 cb 63 3d
       0.13111027 0.0148434 -0.017395582 0.055613823
000360 ff 9e 9c bc 5f 6f 04 3a b8 ff f5 3c 15 f4 89 3c
       -0.019118784 0.0005051996 0.030029163 0.01684002
000370 25 cc be 3d 27 e9 06 be be a8 6e bd a4 d1 d0 3d
       0.09316281 -0.13174878 -0.058266394 0.10196236
000380 3c f5 19 bd 08 e4 94 bd 41 52 24 3d 34 85 d4 bd
       -0.03758739 -0.07270056 0.040117506 -0.10376969
000390 b7 82 06 be cc 18 89 bc c7 67 ed 3c 65 bf 66 3d
       -0.13135801 -0.016735457 0.028980149 0.05633487
0003a0 76 60 54 be 17 91 f3 bc be 98 38 3d ac e6 d0 3b
       -0.20739922 -0.02973227 0.04506754 0.0063751545
0003b0 18 b1 ab 3d f8 01 01 bd 0f 92 2f bd e5 69 6d bd
       0.08383387 -0.03149602 -0.0428639 -0.057962317
0003c0 8b 6e 46 3d a9 84 52 3c 49 9a 9a bd 49 b3 71 bd
       0.048445266 0.012849011 -0.07548959 -0.05900887
0003d0 cf ee f4 bd f1 ad 3f 3d ad 0a cb 3c fb 37 a2 3b
       -0.119596116 0.046796743 0.024785364 0.004950521
0003e0 68 6f 4b bd 6a c8 3b bd 03 89 ac 3d 8f ca 04 bc
       -0.049666792 -0.045845427 0.084245704 -0.008104934
0003f0 58 15 af 3d bf 77 2b bd 8b 9e d2 3c 8b 3c 94 bd
       0.08548993 -0.041862246 0.025710365 -0.0723811

action_model._discrete_distribution.branches.2.bias f4 [2]
000000 d5 23 fc bd 09 24 fc 3d
       -0.12311522 0.12311561

exp_avg f4 [128, 27]
000000 6f c8 e2 a6 1c de 0f b6 1c de 0f b6 e2 2c 14 a3
       -1.5736228e-15 -2.1437945e-06 -2.1437945e-06 -8.0326e-18
000010 1c de 0f b6 1c de 0f b6 15 46 a5 a4 1c de 0f b6
       -2.1437945e-06 -2.1437945e-06 -7.167607e-17 -2.1437945e-06
000020 1c de 0f b6 ce f1 46 2c 2a de 0f b6 24 de 0f b6
       -2.1437945e-06 2.827172e-12 -2.1437977e-06 -2.1437963e-06
000030 15 57 0b a9 1c de 0f b6 1c de 0f b6 f5 9d 41 2d
       -3.0939732e-14 -2.1437945e-06 -2.1437945e-06 1.1005853e-11
000040 48 de 0f b6 45 de 0f b6 35 4e c9 a4 1c de 0f b6
       -2.1438045e-06 -2.1438038e-06 -8.730234e-17 -2.1437945e-06
000050 1c de 0f b6 4f 68 8e 37 e2 29 ad 37 5c 96 0c b3
       -2.1437945e-06 1.6976292e-05 2.064271e-05 -3.273304e-08
000060 c4 d5 6a b7 30 61 57 b7 2a 94 6d b6 b3 b3 0d 29
       -1.3997258e-05 -1.2837627e-05 -3.5401995e-06 3.1464154e-14
000070 b8 f2 40 37 b8 f2 40 37 3b 3f 90 33 3c d2 3f 37
       1.1500604e-05 1.1500604e-05 6.717024e-08 1.1433436e-05
000080 c2 d9 40 37 8e b8 af ab bc f2 40 37 ba f2 40 37
       1.14947925e-05 -1.2485722e-12 1.1500608e-05 1.1500606e-05
000090 46 32 0c 31 f6 e9 40 37 32 eb 40 37 69 cd 93 2f
       2.0401258e-09 1.1498565e-05 1.14988525e-05 2.6885097e-10
0000a0 91 f1 40 37 db f1 40 37 b3 9e 81 b3 f6 f5 41 37
       1.1500336e-05 1.1500403e-05 -6.035898e-08 1.1560964e-05
0000b0 5d e8 40 37 a4 80 be af 35 f4 40 37 e5 f3 40 37
       1.1498193e-05 -3.4652203e-10 1.1500951e-05 1.1500878e-05
0000c0 a4 cf 27 39 c4 5c 06 38 06 4d df 39 9f 1e c3 b8
       0.00016003713 3.2034484e-05 0.0004259126 -9.304028e-05
0000d0 e5 4e 0f 38 29 26 cd 3a b3 bd c1 27 74 3c 4b 37
       3.4167333e-05 0.0015651631 5.3773933e-15 1.2113818e-05
0000e0 74 3c 4b 37 eb eb 00 b3 60 bd 4b 37 9d 47 4b 37
       1.2113818e-05 -3.001689e-08 1.2143835e-05 1.2116417e-05
0000f0 fd ac d0 2a 74 3c 4b 37 74 3c 4b 37 53 cf 59 2f
       3.7068257e-13 1.2113818e-05 1.2113818e-05 1.9809691e-10
000100 9b 3b 4b 37 ba 3b 4b 37 1b d3 dd 2c 6d 3c 4b 37
       1.2113621e-05 1.2113649e-05 6.304635e-12 1.2113812e-05
000110 71 3c 4b 37 ef 04 34 33 6f 88 4a 37 29 2f 4b 37
       1.21138155e-05 4.1914003e-08 1.2071904e-05 1.2110723e-05
000120 d5 43 a3 2e 22 3c 4b 37 36 3c 4b 37 25 e2 bf b7
       7.424431e-11 1.2113744e-05 1.2113762e-05 -2.2874281e-05
000130 00 f8 f2 38 5b 73 a6 39 55 79 80 39 eb c7 f7 b8
       0.00011585653 0.00031747934 0.00024504462 -0.000118151154
000140 c7 b9 06 3a d3 99 61 a8 60 2a ba b5 60 2a ba b5
       0.00051393773 -1.2523364e-14 -1.3870413e-06 -1.3870413e-06
000150 4e be f0 9f 60 2a ba b5 60 2a ba b5 49 b9 45 9f
       -1.01958786e-19 -1.3870413e-06 -1.3870413e-06 -4.1869637e-20
000160 60 2a ba b5 60 2a ba b5 19 e6 90 27 60 2a ba b5
       -1.3870413e-06 -1.3870413e-06 4.02175e-15 -1.3870413e-06
000170 60 2a ba b5 9f 0f 20 aa 60 2a ba b5 60 2a ba b5
       -1.3870413e-06 -1.4216274e-13 -1.3870413e-06 -1.3870413e-06
000180 cd c1 0b ab 5c 2a ba b5 5c 2a ba b5 cb c5 36 9e
       -4.9651673e-13 -1.3870408e-06 -1.3870408e-06 -9.675902e-21
000190 60 2a ba b5 60 2a ba b5 b2 92 3b 37 a9 9f 81 37
       -1.3870413e-06 -1.3870413e-06 1.1180224e-05 1.5452346e-05
0001a0 d9 0e 4f 34 92 c8 1b b7 92 36 1c b7 f6 5c 1e b6
       1.9283779e-07 -9.285419e-06 -9.31103e-06 -2.3597945e-06
0001b0 4d 46 89 a9 2d f3 00 37 2d f3 00 37 b2 27 1d b3
       -6.0962174e-14 7.686013e-06 7.686013e-06 -3.6590514e-08
0001c0 56 90 01 37 c8 00 01 37 a2 a7 52 ab 2f f3 00 37
       7.722605e-06 7.689181e-06 -7.4839625e-13 7.686015e-06
0001d0 2d f3 00 37 2e 60 72 b0 f7 f6 00 37 6e f6 00 37
       7.686013e-06 -8.8175767e-10 7.6868955e-06 7.686771e-06
0001e0 bc 7b 53 2f 5a f2 00 37 8d f2 00 37 23 12 32 33
       1.9234297e-10 7.685821e-06 7.685868e-06 4.146035e-08
0001f0 1a 41 00 37 bb f0 00 37 77 31 44 30 1c f0 00 37
       7.644552e-06 7.685444e-06 7.137468e-10 7.685299e-06
000200 c7 f0 00 37 84 a4 01 b6 ba 14 fc 37 03 a0 85 b8
       7.685455e-06 -1.9318259e-06 3.0050393e-05 -6.371739e-05
000210 91 75 93 38 5b f5 b9 b6 0d e3 29 39 20 f1 38 28
       7.031405e-05 -5.541993e-06 0.00016201679 1.02663375e-14
000220 53 06 99 b6 53 06 99 b6 20 5e 03 33 0d 0d 9a b6
       -4.5604916e-06 -4.5604916e-06 3.058642e-08 -4.591077e-06
000230 0e 1d 99 b6 e5 76 e6 aa 51 06 99 b6 53 06 99 b6
       -4.5631377e-06 -4.0938707e-13 -4.5604907e-06 -4.5604916e-06
000240 d6 02 58 af a2 04 99 b6 e1 04 99 b6 be eb 35 ae
       -1.9646093e-10 -4.5602947e-06 -4.5603233e-06 -4.1364016e-11
000250 fa 05 99 b6 10 06 99 b6 ca 3d c8 b1 42 d4 98 b6
       -4.560451e-06 -4.560461e-06 -5.8277907e-09 -4.554663e-06
000260 46 f7 98 b6 ec e5 09 b0 03 02 99 b6 f0 02 99 b6
       -4.5587394e-06 -5.016705e-10 -4.5599895e-06 -4.5600973e-06
000270 d5 3a a6 37 66 e0 a3 b8 fe 99 60 b9 e8 17 ee b8
       1.9816138e-05 -7.814243e-05 -0.00021419671 -0.00011353177
000280 2b 68 80 38 e4 08 6a b9 3d e0 08 28 ea 18 4e b6
       6.1229184e-05 -0.00022319291 7.5981405e-15 -3.0710894e-06
000290 ea 18 4e b6 d0 9c e6 33 ce 4d 55 b6 96 b8 4e b6
       -3.0710894e-06 1.07387336e-07 -3.1784762e-06 -3.0803835e-06
0002a0 de 7f 99 2a ec 18 4e b6 ea 18 4e b6 8f 00 da 30
       2.7266985e-13 -3.0710898e-06 -3.0710894e-06 1.5861746e-09
0002b0 28 34 4e b6 51 30 4e b6 06 64 24 2f 78 1b 4e b6
       -3.072675e-06 -3.0724516e-06 1.4951249e-10 -3.071238e-06
0002c0 d5 1a 4e b6 3e af 25 b3 29 82 4b b6 c4 54 4e b6
       -3.071201e-06 -3.8576438e-08 -3.032512e-06 -3.0745732e-06
0002d0 54 42 c2 ad 86 18 4e b6 9c 18 4e b6 f9 7a 39 38
       -2.2084702e-11 -3.0710667e-06 -3.0710717e-06 4.4221964e-05
0002e0 2b 93 3c b7 a5 9e 64 39 7e 49 82 b8 f4 1a 0d 37
       -1.1239938e-05 0.00021802874 -6.212572e-05 8.41053e-06
0002f0 c9 95 b6 39 e9 93 2e a7 c4 53 10 34 c4 53 10 34
       0.00034825344 -2.4227533e-15 1.3441519e-07 1.3441519e-07
000300 bc 15 9f 25 c4 53 10 34 c4 53 10 34 d7 fc e4 a5
       2.759683e-16 1.3441519e-07 1.3441519e-07 -3.9723026e-16
000310 c4 53 10 34 c4 53 10 34 ff e5 a9 aa d8 53 10 34
       1.3441519e-07 1.3441519e-07 -3.0180022e-13 1.3441547e-07
000320 d8 53 10 34 68 53 a6 a8 c4 53 10 34 c4 53 10 34
       1.3441547e-07 -1.8465874e-14 1.3441519e-07 1.3441519e-07
000330 9e 3d 78 ab 05 54 10 34 f0 53 10 34 93 f6 0a a6
       -8.819281e-13 1.3441611e-07 1.3441581e-07 -4.821254e-16
000340 c4 53 10 34 c4 53 10 34 dc 6d 9f b5 96 aa ba b5
       1.3441519e-07 1.3441519e-07 -1.1878396e-06 -1.3907727e-06
000350 d8 77 4b b5 1b 2c 6b 35 33 f0 69 35 b9 3d 63 34
       -7.579779e-07 8.7608504e-07 8.71488e-07 2.1163477e-07
000360 45 a6 7e 29 0c 46 f9 35 0c 46 f9 35 30 ad bf a1
       5.6543545e-14 1.8572332e-06 1.8572332e-06 -1.2988506e-18
000370 0c 46 f9 35 0c 46 f9 35 75 61 7a a2 0c 46 f9 35
       1.8572332e-06 1.8572332e-06 -3.3932911e-18 1.8572332e-06
000380 0c 46 f9 35 53 69 cb 25 0c 46 f9 35 0c 46 f9 35
       1.8572332e-06 3.5286257e-16 1.8572332e-06 1.8572332e-06
000390 88 bd 8c 23 0c 46 f9 35 0c 46 f9 35 92 b3 96 26
       1.52591e-17 1.8572332e-06 1.8572332e-06 1.0457013e-15
0003a0 0c 46 f9 35 0c 46 f9 35 40 ce b2 a1 0c 46 f9 35
       1.8572332e-06 1.8572332e-06 -1.2116343e-18 1.8572332e-06
0003b0 0c 46 f9 35 a6 9b 91 b7 ae 7a 98 b7 83 9b cc 33
       1.8572332e-06 -1.7357826e-05 -1.817694e-05 9.527778e-08
0003c0 8f 42 42 37 8e 73 5e 37 b0 6a 22 36 79 50 38 a6
       1.1578798e-05 1.3259136e-05 2.4201981e-06 -6.3946885e-16
0003d0 64 77 19 36 64 77 19 36 22 55 5e 29 64 77 19 36
       2.286827e-06 2.286827e-06 4.9367743e-14 2.286827e-06
0003e0 64 77 19 36 64 95 79 29 64 77 19 36 64 77 19 36
       2.286827e-06 5.5418682e-14 2.286827e-06 2.286827e-06
0003f0 dd 3d 01 2e e4 76 19 36 f6 76 19 36 d3 eb a3 ac
       2.938615e-11 2.286798e-06 2.286802e-06 -4.6589204e-12
