results/ShooterSimple_Apresentacao/ShooterSimple/ShooterSimple-500923.onnx (onnx, 89698 bytes, 11 tensors)

action_model._discrete_distribution.branches.0.bias f4 [5]
0.1639563 0.114033744 -0.19615826 -0.07193478 0.024955742
00000000: 29e4 273e 868a e93d b6dd 48be 8b52 93bd
00000010: fc6f cc3c

action_model._discrete_distribution.branches.0.weight f4 [5, 128]
0.098674685 0.020422729 -0.020769127 0.031097058 0.05522156 0.05027774 -0.06908503 -0.0903361
-0.034398362 -0.013299141 0.017109126 0.057561975 0.12138864 0.05300787 0.00090329425 0.08825908
-0.005973705 -0.024040507 0.048278745 -0.034629233 -0.11587808 0.013053477 -0.10673388 -0.047828678
0.06494958 0.1541832 -0.1175096 -0.022211121 -0.14618918 -0.075643145 -0.094158284 -0.17146651
0.057936437 0.03231226 -0.08483521 0.009502816 -0.13139486 -0.009685001 0.053029533 0.09028835
0.04770977 0.044558797 -0.13946728 -0.04102306 0.073912285 0.00906158 -0.1346778 0.14702426
-0.08129459 0.08158794 -0.10522755 -0.08700725 -0.087096564 -0.016364494 0.079589285 -0.26015702
0.0571384 -0.04872292 0.1401946 -0.16719097 0.05574038 -0.032424815 0.02507891 0.16849789
0.059624888 0.14821257 0.0073544113 0.040596657 0.018423581 0.10870901 -0.017517008 0.13449185
0.07483671 0.005455898 0.1418183 -0.04236899 -0.0037058075 -0.14523269 -0.14480993 -0.0021931252
-0.000786354 0.019220961 0.030575478 -0.069471315 0.042884927 -0.0042970446 -0.059889805 -0.06147108
-0.019512797 0.012762057 0.1048608 0.010560174 -0.044514127 -0.09584899 -0.051928796 -0.012817601
-0.14594294 -0.0888307 -0.06882024 0.028631935 -0.11006496 0.094656534 0.025294239 0.013645043
-0.04689281 -0.12835482 0.09100705 -0.008413597 0.077621035 0.077649705 -0.07598618 -0.019967614
0.03830265 -0.1648398 -0.13259938 -0.11088712 0.013448252 0.07967515 0.08673112 0.03734164
-0.0032795896 0.04724235 0.18404226 0.08071132 -0.112392776 -0.043098174 0.009718065 0.16192642
-0.20393279 -0.03884758 -0.0658038 0.032720666 -0.06226523 -0.24196611 0.02789213 0.033062946
-0.10049861 -0.014892969 -0.10974794 -0.11122721 0.065097205 -0.008826088 -0.10883737 0.0002673332
-0.10911375 -0.083327964 -0.003258679 0.15538588 -0.08870594 -0.12702912 0.3511265 -0.18532848
-0.014486407 0.0022890826 0.021671068 -0.04670147 -0.13130552 -0.18249497 -0.14345615 0.088009804
-0.08463221 0.1135941 -0.20069283 -0.07940604 -0.11864533 -0.05358857 0.03406981 0.01273608
0.20652457 -0.041085497 -0.16357636 -0.16192958 -0.09838253 -0.06753046 -0.08609469 -0.15576956
0.035249095 -0.08063567 -0.03861404 -0.15362616 0.06648696 0.022337688 0.06808409 0.0014396707
-0.105844304 0.049491197 0.035679035 -0.07581204 -0.031905085 -0.068263255 0.15978627 -0.061295062
-0.15548146 -0.09685904 -0.02761888 -0.11762614 -0.12821962 -0.038790114 -0.0077095754 0.037037663
-0.1709961 0.04301181 0.018183038 -0.16307898 -0.14561145 0.067547426 -0.09293323 0.0073180865
-0.032232124 -0.06231257 -0.08463197 -0.1554941 -0.14874303 0.017993517 -0.008788416 -0.15086019
-0.1551177 -0.06142763 -0.0032184683 -0.095738895 -0.017725725 -0.18792081 -0.12753294 -0.105541185
0.013779497 0.005181005 0.118201174 -0.10716514 -0.13718514 -0.120158374 0.23385663 -0.089517765
-0.22074068 -0.0032399409 0.13612603 0.3152212 -0.119732544 0.07009514 -0.12811428 -0.04312208
0.08606035 0.11722727 0.1839812 0.048007336 -0.027439741 -0.16017953 -0.13754007 0.10632455
-0.09808306 0.052348226 -0.050122574 0.08157731 0.062207766 -0.06476701 -0.13593182 -0.109342195
00000000: f415 ca3d 914d a73c 0424 aabc 42bf fe3c
00000010: 0130 623d 08f0 4d3d 747c 8dbd 2202 b9bd
00000020: 4ce5 0cbd a4e4 59bc 7028 8c3c 1bc6 6b3d
00000030: 9b9a f83d c81e 593d 0dcb 6c3a 2dc1 b43d
00000040: 12bf c3bb 99f0 c4bc efbf 453d 62d7 0dbd
00000050: 7d51 edbd 40de 553c 4b97 dabd 01e8 43bd
00000060: 4904 853d 33e2 1d3e e0a8 f0bd 19f4 b5bc
00000070: 9eb2 15be cbea 9abd 0fd6 c0bd eb94 2fbe
00000080: c24e 6d3d dc59 043d 15be adbd b3b1 1b3c
00000090: 608c 06be d7ad 1ebc 7f35 593d 19e9 b83d
000000a0: 526b 433d 4983 363d 83d0 0ebe cc07 28bd
000000b0: 535f 973d 0577 143c fae8 09be 878d 163e
000000c0: c77d a6bd 9417 a73d 8b81 d7bd db30 b2bd
000000d0: af5f b2bd d50e 86bc b5ff a23d 4d33 85be
000000e0: f409 6a3d af91 47bd 2c8f 0f3e 1c34 2bbe
000000f0: 0650 643d e2cf 04bd 4972 cd3c b68a 2c3e
00000100: 3a39 743d 09c5 173e 46fd f03b ae48 263d
00000110: 0ded 963c d4a2 de3d d47f 8fbc 3bb8 093e
00000120: fd43 993d 64c7 b23b d138 113e 1b8b 2dbd
00000130: 22dd 72bb e1b7 14be 0e49 14be 89ba 0fbb
00000140: 5323 4eba 4775 9d3c 6d79 fa3c fa46 8ebd
00000150: 1ba8 2f3d 39ce 8cbb 034f 75bd 19c9 7bbd
00000160: 4dd9 9fbc f217 513c 42c1 d63d 9404 2d3c
00000170: 7254 36bd 7a4c c4bd 4ab3 54bd ea00 52bc
00000180: 1172 15be dfec b5bd a0f1 8cbd 858d ea3c
00000190: bd69 e1bd 49db c13d dd35 cf3c 758f 5f3c
000001a0: ad12 40bd 726f 03be e761 ba3d 2fd9 09bc
000001b0: c7f7 9e3d cf06 9f3d a49e 9bbd 1f93 a3bc
000001c0: 3de3 1c3d c4cb 28be 22c8 07be c918 e3bd
000001d0: 0f56 5c3c ba2c a33d 16a0 b13d 8cf3 183d
000001e0: 62ee 56bb 3281 413d 9375 3c3e fa4b a53d
000001f0: 2f2e e6bd b687 30bd 8538 1f3c 0ad0 253e
00000200: c2d3 50be a41e 1fbd 25c4 86bd 1b06 063d
00000210: d309 7fbd f7c5 77be 097e e43c 036d 073d
00000220: 37d2 cdbd a401 74bc 87c3 e0bd 17cb e3bd
00000230: af51 853d 4c9b 10bc 21e6 debd db28 8c39
00000240: 0877 dfbd daa7 aabd 908f 55bb 7a1d 1f3e
00000250: 76ab b5bd ec13 02be dac6 b33e c0c6 3dbe
00000260: 6558 6dbc 6f04 163b 8687 b13c 0a4a 3fbd
00000270: f474 06be f6df 3abe 2be6 12be 7c3e b43d
00000280: a753 adbd 06a4 e83d 6c82 4dbe a29f a2bd
00000290: 53fc f2bd b07f 5bbd c98c 0b3d feaa 503c
000002a0: 2d7b 533e 4449 28bd 9080 27be ded0 25be
000002b0: c87c c9bd 694d 8abd 6a52 b0bd 0e82 1fbe
000002c0: 5b61 103d 5024 a5bd c129 1ebd 2d50 1dbe
000002d0: 512a 883d 87fd b63c ac6f 8b3d 55b3 bc3a
000002e0: e6c4 d8bd 48b7 4a3d 2e24 123d 5843 9bbd
000002f0: e8ae 02bd 9bcd 8bbd 039f 233e 8810 7bbd
00000300: 8836 1fbe 085e c6bd fd40 e2bc f9e5 f0bd
00000310: 014c 03be 62e2 1ebd 9ba0 fcbb ceb4 173d
00000320: 9a19 2fbe 272d 303d 98f4 943c 2dfe 26be
00000330: 2b1b 15be 4e56 8a3d c753 bebd 8fcc ef3b
00000340: d505 04bd 773b 7fbd 8753 adbd d839 1fbe
00000350: 1850 18be 2467 933c 4afd 0fbc 187b 1abe
00000360: 2dd7 1ebe 8a9b 7bbd f0ec 52bb c112 c4bd
00000370: 8a35 91bc 506e 40be ff97 02be fa25 d8bd
00000380: 66c3 613c 6cc5 a93b 7513 f23d 6679 dbbd
00000390: 437a 0cbe 9815 f6bd 1d78 6f3e 1755 b7bd
000003a0: d809 62be 3055 54bb 9f64 0b3e ac64 a13e
000003b0: 5636 f5bd 0a8e 8f3d 6430 03be c7a0 30bd
000003c0: 6940 b03d da14 f03d 9165 3c3e 57a3 443d
000003d0: 4fc9 e0bc 1a06 24be 4ed7 0cbe b0c0 d93d
000003e0: c5df c8bd 186b 563d 544d 4dbd 0112 a73d
000003f0: 92cd 7e3d 91a4 84bd b631 0bbe cdee dfbd

action_model._discrete_distribution.branches.1.bias f4 [4]
0.04494743 0.018638028 0.013695155 -0.079295844
00000000: cc1a 383d c7ae 983c a561 603c dc65 a2bd

action_model._discrete_distribution.branches.1.weight f4 [4, 128]
-0.14940561 -0.038385086 0.09629273 8.752964e-05 -0.006058264 0.09197836 0.017636288 -0.090079345
-0.09789522 -0.1473866 -0.043001138 0.0900903 -0.132582 -0.120948255 0.06154145 -0.017791154
0.04611621 -0.091361575 0.16415934 0.065081686 -0.07050841 0.055506293 0.05543216 0.057026368
0.15666996 0.06431228 -0.075608045 -0.15307412 -0.03560944 -0.09267901 -0.06388422 -0.017225033
-0.07895043 0.056778487 -0.07866403 -0.0034919395 -0.08443146 0.011921804 -0.028595805 0.0033678045
-0.1377847 -0.08961696 0.15069368 -0.055964682 0.07911238 -0.105439335 -0.00847279 0.19266067
-0.057666954 -0.08595178 -0.035394594 0.03736614 -0.15981849 -0.05324855 0.024833774 -0.062284227
0.116477594 -0.10061972 -0.096147396 -0.12096634 -0.055383004 -0.030853476 0.04201599 0.11433683
-0.10408287 -0.056217264 0.010463675 -0.11299275 -0.0363806 0.028459478 -0.12708127 -0.05916576
-0.13969474 -0.029665744 0.16778432 -0.0013634368 -0.07109893 -0.0067063435 -0.042953167 0.026325954
0.09306178 -0.1611369 0.18435311 -0.018511217 -0.12971161 -0.013727359 -0.013101134 -0.083889
0.052442897 -0.11807947 -0.004699952 0.14654341 0.066953994 -0.046816695 -0.15107952 -0.01778175
0.07026166 -0.13788018 0.08266985 0.08242941 -0.083060615 -0.0473106 0.08412693 -0.12180117
0.11732173 0.0032077036 -0.038333107 0.0067772805 -0.11864501 -0.074265316 -0.023042303 -0.09746154
0.0927748 -0.17586476 -0.11212239 0.11210756 -0.0208731 0.06224621 -0.038467575 0.14485621
-0.02126683 -0.023231424 0.0076920837 0.029602608 -0.21917602 0.07807362 -0.056522213 -0.017627759
0.04576949 0.004884336 0.10671972 0.04032616 0.05908334 -0.037933532 -0.04266025 0.04913651
0.10588367 0.08047595 -0.04291838 -0.035770327 0.069086954 0.057906996 -0.12961079 -0.023089316
0.04528343 0.08610527 -0.01769899 0.04019791 -0.022192186 -0.009553736 -0.01592937 -0.09382583
-0.05212631 0.030789405 -0.029639913 0.14593108 0.040894806 -0.06799802 -0.11505358 -0.04905579
0.10334306 -0.13282646 -0.06837879 0.11589725 0.060486864 -0.054597836 0.13526964 0.028708715
0.050433923 0.20110911 -0.11653239 -0.07045142 -0.045974635 0.09152851 0.014515914 -0.010618934
0.08036729 0.16847964 -0.036178924 -0.058309633 0.05034685 0.038404148 -0.01592443 -0.09246031
-0.0902971 0.042355865 -0.05014339 0.069597356 0.0005412215 0.014961626 0.15054272 -0.03034377
0.010115646 0.14179789 0.1595567 -0.011398556 0.11515848 0.015656183 -0.1276573 0.104133934
0.060555186 -0.08706424 -0.080368176 -0.042949717 -0.036530312 0.11836082 -0.029245894 -0.06749072
0.079155974 0.06463629 -0.017379755 -0.12901251 0.08731261 0.010875865 0.09889185 0.052873597
0.06711687 0.071335636 -0.03259457 -0.11507373 0.08104342 -0.057718825 0.046820898 -0.063379206
-0.06344653 0.087791726 -0.1573213 -0.037344143 -0.039427962 0.051112562 -0.17376785 0.19005468
-0.077667005 0.083205774 -0.12756464 -0.012367132 0.10364168 0.08879874 -0.007615545 0.012314105
-0.024857784 0.06009728 0.046625976 -0.10637382 0.0382542 -0.046427622 -0.00019640224 -0.05273363
0.08292244 -0.02542859 -0.021540003 0.052197844 0.027499268 0.022846216 0.040752944 0.015567856
00000000: c9fd 18be ae39 1dbd 1f35 c53d 1e90 b738
00000010: 6784 c6bb 275f bc3d fa79 903c 857b b8bd
00000020: 4a7d c8bd 83ec 16be f621 30bd 4381 b83d
00000030: 93c3 07be b8b3 f7bd e312 7c3d c1be 91bc
00000040: 5ae4 3c3d c71b bbbd 6319 283e 8c49 853d
00000050: b766 90bd 915a 633d d50c 633d 7b94 693d
00000060: 176e 203e 28b6 833d 64d8 9abd 76bf 1cbe
00000070: 34db 11bd 7ece bdbd bbd5 82bd 831b 8dbc
00000080: c3b0 a1bd 8f90 683d 9b1a a1bd 06d9 64bb
00000090: 67ea acbd ac53 433c c041 eabc 62b6 5c3b
000000a0: 6f17 0dbe 1989 b7bd 724f 1a3e 393b 65bd
000000b0: ac05 a23d 94f0 d7bd 75d1 0abc d748 453e
000000c0: 2f34 6cbd 7d07 b0bd ecf9 10bd 3d0d 193d
000000d0: 75a7 23be 271b 5abd 3370 cb3c bf1d 7fbd
000000e0: ce8b ee3d b611 cebd ede8 c4bd 33bd f7bd
000000f0: 4ad9 62bd 6ec0 fcbc f518 2c3d 6e29 ea3d
00000100: 6629 d5bd 1344 66bd d56f 2b3c be68 e7bd
00000110: d303 15bd da23 e93c 9821 02be cc57 72bd
00000120: 230c 0fbe 9305 f3bc a7cf 2b3e 59b5 b2ba
00000130: 519c 91bd e3c0 dbbb a9ef 2fbd 87a9 d73c
00000140: 2d97 be3d 1201 25be 10c7 3c3e d6a4 97bc
00000150: 1fd3 04be b7e8 60bc 24a6 56bc ffcd abbd
00000160: 5dce 563d a6d3 f1bd 0e02 9abb 7a0f 163e
00000170: 2d1f 893d ddc2 3fbd 97b4 1abe 08ab 91bc
00000180: 58e5 8f3d 7630 0dbe cf4e a93d c0d0 a83d
00000190: af1b aabd c2c8 41bd bd4a ac3d e472 f9bd
000001a0: 6046 f03d 5638 523b 2d03 1dbd f313 de3b
000001b0: 28fc f2bd 6a18 98bd 36c3 bcbc ea99 c7bd
000001c0: b700 be3d e415 34be 6ca0 e5bd a698 e53d
000001d0: 10fe aabc e2f5 7e3d 2d90 1dbd 3055 143e
000001e0: c637 aebc d44f bebc e00d fc3b 2b81 f23c
000001f0: ae6f 60be 10e5 9f3d d683 67bd 1768 90bc
00000200: ca78 3b3d c80c a03b de8f da3d 0b2d 253d
00000210: 5f01 723d 3160 1bbd 84bc 2ebd 5d43 493d
00000220: 8ad9 d83d 93d0 a43d 2fcb 2fbd e883 12bd
00000230: 767d 8d3d e32f 6d3d b1b8 04be ce25 bdbc
00000240: 1e7b 393d f657 b03d 79fd 90bc 90a6 243d
00000250: 63cc b5bc 4687 1cbc 4f7e 82bc c227 c0bd
00000260: 6682 55bd 103a fc3c 67cf f2bc f56e 153e
00000270: 5081 273d 8c42 8bbd 36a1 ebbd b9ee 48bd
00000280: 87a5 d33d a903 08be 2e0a 8cbd 8a5b ed3d
00000290: 13c1 773d fba1 5fbd 2084 0a3e 8a2e eb3c
000002a0: cd93 4e3d 8cef 4d3e 89a8 eebd d648 90bd
000002b0: e64f 3cbd 4d73 bb3d 28d4 6d3c 0afb 2dbc
000002c0: 9b97 a43d ed85 2c3e 5a30 14bd 15d6 6ebd
000002d0: 8038 4e3d ab4d 1d3d f373 82bc d55b bdbd
000002e0: b0ed b8bd 587d 2d3d 2863 4dbd 0f89 8e3d
000002f0: c3e0 0d3a 9c21 753c df27 1a3e 7f93 f8bc
00000300: 18bc 253c 7733 113e d562 233e 02c1 3abc
00000310: 36d8 eb3d 6541 803c 98b8 02be 2c44 d53d
00000320: b708 783d bc4e b2bd 1298 a4bd 0bec 2fbd
00000330: cfa0 15bd 2867 f23d 1695 efbc 9338 8abd
00000340: 871c a23d 0860 843d fd5f 8ebc db1b 04be
00000350: f4d0 b23d af30 323c cf87 ca3d fc91 583d
00000360: 9274 893d 6b18 923d e281 05bd c7ab ebbd
00000370: 18fa a53d 936a 6cbd 45c7 3f3d f5cc 81bd
00000380: 41f0 81bd 26cc b33d d618 21be 2cf6 18bd
00000390: 377f 21bd 685b 513d 33f0 31be b29d 423e
000003a0: e10f 9fbd ca67 aa3d 4ea0 02be 839f 4abc
000003b0: 1742 d43d 1ddc b53d d28b f9bb 1ac1 493c
000003c0: 8da2 cbbc 9128 763d e1fa 3e3d 84da d9bd
000003d0: 70b0 1c3d e42a 3ebd 53f1 4db9 38ff 57bd
000003e0: 3dd3 a93d 9e4f d0bc a974 b0bc 68cd 553d
000003f0: 2546 e13c fd27 bb3c 8fec 263d 5210 7f3c

action_model._discrete_distribution.branches.2.bias f4 [2]
0.022935558 -0.022935582
00000000: 5ae3 bb3c 67e3 bbbc

action_model._discrete_distribution.branches.2.weight f4 [2, 128]
0.012581396 0.008493316 -0.0067893984 0.2524197 0.21438394 0.042448767 -0.07690116 0.06142885
-0.12080409 -0.0021064745 -0.0035027345 -0.08031093 -0.024293773 0.054059803 0.12407983 0.038768545
0.05328143 0.06856845 -0.011584199 -0.027089987 0.050890807 0.036150917 -0.1071079 -0.002411587
0.022659648 0.05907854 0.010754035 -0.028180385 -0.0018705581 -0.053060796 -0.013657769 -0.07403818
0.038070306 -0.007977792 0.00725639 0.29203683 -0.056766227 -0.07547471 -0.008243101 0.009644231
-0.12611659 0.029823482 -0.13688451 -0.039286673 0.008860135 0.09741865 -0.018462291 0.017395424
-0.03054064 -0.046322357 -0.019804386 -0.05101826 0.008043464 -0.054656394 0.029779673 -0.13872977
7.968459e-05 -0.04303073 -0.038299583 0.1582289 -0.05124957 0.0082236165 -0.046638455 -0.034638826
-0.032908592 0.08182934 0.08999521 0.052246366 0.009393201 -0.008115109 0.04648111 -0.009971481
-0.023518208 -0.0065385415 0.09730356 -0.009362268 -0.04429289 -0.0069199447 -0.089169405 0.052335907
0.024891341 0.05464338 -0.054896124 0.06568248 0.025800245 0.05112408 -0.008064046 -0.0046566087
-0.02609118 -0.017270643 0.086409226 0.07180085 0.028825592 -0.090070106 -0.02349029 0.015974522
0.016005378 0.030194193 -0.016269237 0.09650437 0.008880748 0.06228704 -0.08801698 0.04606744
0.006747368 -0.081382185 -0.037991744 -0.09617177 0.011833116 -0.013113752 -0.04870013 0.023493791
-0.093207635 0.057791054 -0.023480162 0.020463869 0.010021862 -0.0013472216 -0.018657403 -0.07221618
0.10999214 -0.013932884 -0.025915885 0.074099 -0.013862646 -0.04124323 0.021470958 0.058501568
-0.017893054 -0.01289769 0.007811828 -0.253645 -0.2201971 -0.051093884 0.08764565 -0.056796003
0.12417537 0.001236715 0.0013263433 0.06330382 0.015341175 -0.051155504 -0.12769057 -0.03530183
-0.06632577 -0.059030496 0.0112727275 0.013860106 -0.04724527 -0.03176954 0.10822569 0.005010475
-0.01750146 -0.07095288 -0.017228294 0.056463927 -0.008048413 0.057060312 0.01960491 0.073546
-0.03217904 -0.0010844839 -0.029981969 -0.30538657 0.069981486 0.08370606 0.032136094 -0.007061693
0.12330817 -0.019527012 0.12068251 0.05252953 0.007812312 -0.13146386 0.00054084405 -0.017523583
0.03612346 0.04904269 0.015730375 0.028785657 -0.0071715103 0.070261195 0.0005753215 0.1448908
-0.0049237134 0.029248353 0.06247943 -0.16476138 0.061315887 -0.025703248 0.0471089 0.029361637
0.035655808 -0.065319516 -0.07764212 -0.04568022 -0.03596859 0.020756342 -0.05938846 0.004862536
0.024620218 -0.008411078 -0.07879683 0.021719215 0.04064317 0.03309656 0.07015804 -0.043783005
-0.034452163 -0.049060754 0.040720765 -0.05200176 -0.029564274 -0.028186293 0.012286215 -0.004799191
0.01875876 0.008251622 -0.07944045 -0.07446449 -0.01729905 0.089236975 0.02261383 -0.025882425
-0.043109376 -0.037667096 0.0250079 -0.08711663 -0.009005215 -0.06943985 0.08011761 -0.039928444
-0.015073329 0.0783621 0.036451593 0.1152566 -0.008675427 0.019179422 0.040450215 -0.018273922
0.09833336 -0.05054354 0.013591723 -0.020133909 -0.026676778 0.011130729 0.0050317897 0.0727044
-0.10611821 0.040064275 0.019530948 -0.06291099 -0.0011536044 0.008731174 -0.037012886 -0.064073205
00000000: 3322 4e3c 8d27 0b3c 9a79 debb 283d 813e
00000010: 7787 5b3e c2de 2d3d 5b7e 9dbd d19c 7b3d
00000020: 2268 f7bd c70c 0abb 228e 65bb 0f7a a4bd
00000030: bc03 c7bc d06d 5d3d 911d fe3d c4cb 1e3d
00000040: a13d 5a3d 9e6d 8c3d a7cb 3dbc d2eb ddbc
00000050: e172 503d fc12 143d 635b dbbd b70b 1ebb
00000060: baa0 b93c 57fc 713d b131 303c 8dda e6bc
00000070: 842d f5ba 4756 59bd d6c4 5fbc 54a1 97bd
00000080: 9cef 1b3d 49b5 02bc 03c7 ed3b da85 953e
00000090: b483 68bd 7c92 9abd 120e 07bc d602 1e3c
000000a0: b524 01be 6050 f43c 742b 0cbe 10eb 20bd
000000b0: 1a2a 113c 6e83 c73d 3b3e 97bc d980 8e3c
000000c0: 5d30 fabc 83bc 3dbd cf3c a2bc 86f8 50bd
000000d0: bcc8 033c 62df 5fbd 80f4 f33c 2d0f 0ebe
000000e0: 571c a738 fe40 30bd 06e0 1cbd c206 223e
000000f0: 12eb 51bd 59bc 063c f707 3fbd 71e1 0dbd
00000100: 29cb 06bd 2496 a73d 694f b83d 4900 563d
00000110: f1e5 193c 3cf5 04bc fa62 3e3d 6c5f 23bc
00000120: 42a9 c0bc 4341 d6bb 1747 c73d 3364 19bc
00000130: 766c 35bd b4c0 e2bb 739e b6bd 2d5e 563d
00000140: ede8 cb3c bdd1 5f3d c2da 60bd 8984 863d
00000150: 095b d33c 7c67 513d 0f1f 04bc 7796 98bb
00000160: 2cbd d5bc 2a7b 8dbc 52f7 b03d 530c 933d
00000170: a623 ec3c ad76 b8bd b56e c0bc 00dd 823c
00000180: b61d 833c d059 f73c 1047 85bc 15a4 c53d
00000190: 8f80 113c b220 7f3d 3f42 b4bd 36b1 3c3d
000001a0: 0619 dd3b b4ab a6bd 3b9d 1bbd b4f5 c4bd
000001b0: b0df 413c 10db 56bc ca79 47bd 0d76 c03c
000001c0: a5e3 bebd 50b6 6c3d 7859 c0bc d8a3 a73c
000001d0: bc32 243c 4195 b0ba 69d7 98bc 14e6 93bd
000001e0: 8f43 e13d c046 64bc 8d4d d4bc 37c1 973d
000001f0: 2720 63bc a9ee 28bd dde3 af3c 579f 6f3d
00000200: 7494 92bc d550 53bc 5dfa ff3b c2dd 81be
00000210: 597b 61be d247 51bd 907f b33d eda2 68bd
00000220: a84f fe3d 4519 a23a b2d8 ad3a 6fa5 813d
00000230: 8d59 7b3c 6f88 51bd 51c1 02be a798 10bd
00000240: ced5 87bd f6c9 71bd 3fb1 383c 7f15 633c
00000250: 4284 41bd c720 02bd 6ea5 dd3d e92e a43b
00000260: 395f 8fbc be4f 91bd 5a22 8dbc b846 673d
00000270: 7edd 03bc 13b8 693d 7a9a a03c 499f 963d
00000280: 2bce 03bd 3e25 8eba bf9c f5bc a15b 9cbe
00000290: 7452 8f3d 156e ab3d 23a1 033d c665 e7bb
000002a0: fe88 fc3d 1df7 9fbc 6428 f73d 3429 573d
000002b0: 6cfe ff3b 769e 06be 6ec7 0d3a 9e8d 8fbc
000002c0: 31f6 133d fde0 483d fddc 803c e6cf eb3c
000002d0: fdfe eabb 1ae5 8f3d 2cd1 163a 415e 143e
000002e0: 1a57 a1bb 3e9a ef3c 6eea 7f3d 35b7 28be
000002f0: 5e26 7b3d 9e8f d2bc 43f5 403d d187 f03c
00000300: d30b 123d 3dc6 85bd d502 9fbd 2f1b 3bbd
00000310: cd53 13bd 3409 aa3c 5041 73bd e955 9f3b
00000320: 57b0 c93c 9ece 09bc 3b60 a1bd 7fec b13c
00000330: 7479 263d 4290 073d 05af 8f3d cf55 33bd
00000340: b61d 0dbd eef3 48bd d1ca 263d ccff 54bd
00000350: c730 f2bc f1e6 e6bc 1f4c 493c 8842 9dbb
00000360: f9ab 993c d031 073c adb1 a2bd d780 98bd
00000370: bdb6 8dbc e0c1 b63d a440 b93c 6107 d4bc
00000380: 7593 30bd d048 1abd 5edd cc3c 346a b2bd
00000390: 9c8a 13bc 7b36 8ebd b414 a43d 028c 23bd
000003a0: 20f6 76bc 4f7c a03d 444e 153d a70b ec3d
000003b0: 6123 0ebc 2a1e 9d3c 20af 253d 31b3 95bc
000003c0: 0063 c93d be06 4fbd d1af 5e3c deef a4bc
000003d0: 4289 dabc a95d 363c b6e1 a43b 0be6 943d
000003e0: 8154 d9bd 701a 243d 5eff 9f3c 7ad7 80bd
000003f0: 8a34 97ba 330d 0f3c d39a 17bd d038 83bd

discrete_action_output_shape f4 [1, 3]
5.0 4.0 2.0
00000000: 0000 a040 0000 8040 0000 0040

network_body._body_endoder.seq_layers.0.bias f4 [128]
0.01362618 -0.10813479 -0.034382477 -0.06394769 -0.041473534 -0.010951897 -0.06924362 -0.014264347
-0.005911466 0.057018414 -0.043360557 -0.086620085 -0.06511142 -0.12667577 -0.11795531 -0.083644845
0.011244876 -0.15830447 -0.029520301 -0.012689704 -0.052380297 0.005119848 -0.07873776 -0.0679239
0.049063258 -0.10469633 0.003926008 -0.025041128 -0.033811692 0.03096479 0.031192001 0.093185276
0.045363974 -0.047443766 -0.014501845 -0.015957102 -0.07885633 0.0014288209 -0.039724573 -0.05200607
-0.021889195 -0.09456457 0.037814688 0.038353123 -0.058616553 0.12492283 -0.12263392 -0.057507448
-0.047611106 -0.04928376 -0.09371171 0.036071397 -0.090416625 -0.094451256 -0.0074000983 0.083704695
-0.10421726 -0.0014799752 -0.18199869 -0.10386848 -0.1124733 0.04576476 0.0027920855 -0.0060133208
0.07512799 -0.021091975 -0.09232939 -0.13521524 -0.060939807 -0.08441107 0.031601995 -0.10617961
0.018103132 -0.012251298 0.07224888 -0.08035314 0.008010487 -0.073711835 -0.057730313 -0.010029591
-0.059104305 0.026388759 -0.15075538 0.03941861 -0.04054546 0.010444547 -0.044642385 -0.008726372
-0.13387518 -0.019770822 -0.070478015 -0.07828398 0.0049851513 -0.0026145813 0.054504383 -0.0565541
-0.18288898 -0.10393345 0.035111308 0.02975398 -0.023248054 -0.013606451 -0.18985443 -0.07167333
0.013675654 -0.049022816 0.09239993 0.0030501536 0.094701126 -0.06196697 0.013712051 -0.06718666
-0.014305097 0.027269375 -0.023957103 -0.042449664 -0.046499018 0.03463013 0.013753074 -0.06269306
0.022570675 0.02143674 0.010816687 -0.031508368 -0.064038254 -0.044962093 -0.029000027 -0.02397423
00000000: 5740 5f3c c675 ddbd a4d4 0cbd 02f7 82bd
00000010: 27e0 29bd 966f 33bc 99cf 8dbd 02b5 69bc
00000020: f9b4 c1bb 248c 693d d79a 31bd df65 b1bd
00000030: 2359 85bd 4bb7 01be 8e92 f1bd fd4d abbd
00000040: 6e3c 383c 911a 22be 8fd4 f1bc 7ae8 4fbc
00000050: b98c 56bd 66c4 a73b 4341 a1bd b01b 8bbd
00000060: 8ef6 483d 086b d6bd bea5 803b 0d23 cdbc
00000070: 217e 0abd dfa9 fd3c 5e86 ff3c ecd7 be3d
00000080: 93cf 393d 6554 42bd 2699 6dbc 78b8 82bc
00000090: 6d7f a1bd 4647 bb3a 3cb6 22bd 5104 55bd
000000a0: f850 b3bc 12ab c1bd 93e3 1a3d 2a18 1d3d
000000b0: e917 70bd 8ad7 ff3d 7e27 fbbd ee8c 6bbd
000000c0: dd03 43bd c5dd 49bd edeb bfbd 9abf 133d
000000d0: 5a2c b9bd a96f c1bd 867c f2bb 5e6d ab3d
000000e0: dc6f d5bd bafb c1ba dd5d 3abe ffb8 d4bd
000000f0: 6758 e6bd d473 3b3d 6cfb 363b 640b c5bb
00000100: b4dc 993d 14c9 acbc 3117 bdbd dd75 0abe
00000110: 059c 79bd b6df acbd 1871 013d b274 d9bd
00000120: 054d 943c abb9 48bc 39f7 933d 3090 a4bd
00000130: 6b3e 033c 3bf6 96bd 9f76 6cbd 2753 24bc
00000140: 5b17 72bd 3d2d d83c 9e5f 1abe 6975 213d
00000150: ff12 26bd 9b1f 2b3c efda 36bd 0ff9 0ebc
00000160: 9316 09be 6bf6 a1bc c756 90bd 5a53 a0bd
00000170: 7b5a a33b 6559 2bbb fd3f 5f3d 46a5 67bd
00000180: 4047 3bbe 10db d4bd e0d0 0f3d 9ebe f33c
00000190: b472 bebc 98ed 5ebc 3369 42be 78c9 92bd
000001a0: da0f 603c 26cc 48bd 2d3c bd3d 16e5 473b
000001b0: aaf2 c13d 14d1 7dbd 83a8 603c 2999 89bd
000001c0: ed5f 6abc 0664 df3c b041 c4bc b3df 2dbd
000001d0: c175 3ebd 53d8 0d3d 9354 613c 3865 80bd
000001e0: 23e6 b83c 1a9c af3c 7938 313c eb0e 01bd
000001f0: 7d26 83bd 2c2a 38bd 7791 edbc 9b65 c4bc

network_body._body_endoder.seq_layers.0.weight f4 [128, 27]
0.77585924 -0.1620746 -0.022728166 0.2763805 0.1905386 0.0681341 -0.06953091 0.24231276
0.18675585 0.4443651 -0.076628715 -0.046412185 0.19394618 0.18083894 -0.06297932 -0.18305269
0.0013808623 0.14745177 -0.15948774 0.079181366 0.33919075 0.053145412 0.13624536 0.78063124
-0.06258577 0.1113546 0.05482818 0.060271464 -0.22102498 -0.30885765 -0.4190454 -0.14988855
-0.15607585 0.005661296 -0.3430226 0.02616808 -0.16148141 -0.23896044 0.22977096 -0.24134386
-0.25909507 -0.15066372 -0.38016412 -0.06487239 -0.14814731 0.3709435 -0.06775311 -0.4188793
-0.06379323 0.22213207 -0.13581985 0.0634646 0.22684507 -0.22620438 0.1136427 -0.14024623
-0.27616498 -0.55801713 -0.16639383 -0.3218943 -0.37050945 -0.11917793 0.18929282 -0.12728682
-0.114506885 -0.0954942 0.021083184 0.11761842 0.07209306 0.21073294 -0.32175636 0.12928706
0.057618372 0.39375046 -0.30148494 0.15543742 0.084458195 0.336282 -0.27848125 -0.10340711
0.2534164 -0.43248278 -0.017341467 -0.021051388 -0.2667427 -0.09906126 0.1660983 -0.18760589
-0.037405416 -0.25663832 0.26112932 -0.011034304 -0.19038065 0.019925702 -0.06366134 -0.03450458
0.124584116 -0.25166422 -0.080292635 -0.057758566 0.069751866 0.33596304 -0.07957664 0.19987684
0.12579425 0.008321064 0.13415624 0.075746134 -0.15800007 0.17175189 0.22432776 -0.5798938
-0.032760944 -0.024431936 0.34832603 0.12718818 -0.1803843 -0.3994795 -0.11782157 0.33713374
0.03456248 -0.04973356 0.18412875 0.055474382 -0.26927575 0.024245948 0.107826486 0.107922435
-0.052647263 0.013923437 -0.008842771 -0.4797688 0.12370057 0.1089961 0.24606481 -0.29251096
0.27648672 0.0319343 0.14242831 -0.16157575 0.20726348 0.008822329 0.10715145 0.3179009
0.15155606 -0.4887792 -0.08405506 -0.22096187 0.25760192 -0.0353414 0.023192879 -0.32210788
0.051033154 0.010444286 -0.0014926444 -0.43671307 -0.16862492 0.33948374 0.5432086 0.24147432
-0.20723769 -0.28170973 0.07344576 0.02448108 -0.0992129 0.06902614 0.051320374 0.18151805
-0.029950019 -0.23356915 -0.02632962 -0.050731268 -0.34985006 0.042117026 0.28620487 -0.06995795
-0.27742052 -0.21673734 0.21518083 -0.26070637 -0.054291308 -0.22602086 -0.23731197 0.18214467
0.10497111 0.77797073 -0.34007636 -0.27968898 0.1872486 0.12657115 0.111298695 -0.3747785
-0.14816134 0.09051304 -0.14944568 -0.15199314 -0.16455898 0.07850393 -0.0075196372 -0.26370344
-0.14509037 0.074645035 -0.19580327 0.14410406 0.06765109 -0.11105257 -0.23703955 -0.1521132
-0.14075664 -0.015790503 -0.38177654 -0.029613817 0.6359691 0.43703407 0.010574279 0.2944919
-0.3167109 0.090806514 -0.081113264 -0.20664687 0.14081183 -0.011288285 0.055921525 0.005447936
0.10777403 0.27829635 0.014100494 -0.109454125 -0.087507725 -0.17352644 0.14325742 -0.07895134
0.07520084 -0.5374518 -0.27971682 -0.4730027 -0.22865878 0.23585458 0.11490189 -0.092570156
-0.25923538 0.1858073 0.030126417 0.3830041 0.047638014 -0.40071416 0.14309128 0.05155754
-0.014481386 0.37450847 -0.033082638 0.0032147935 0.29687434 0.04969982 0.1914273 0.35698223
00000000: b69e 463f e2f6 25be 6b30 babc bf81 8d3e
00000010: 8d1c 433e e489 8b3d 3966 8ebd d620 783e
00000020: ed3c 3f3e d383 e33e 84ef 9cbd b41a 3ebd
00000030: d499 463e d82d 393e 4dfb 80bd 2a72 3bbe
00000040: 0dfe b43a 99fd 163e c150 23be d729 a23d
00000050: 69aa ad3e 01af 593d e783 0b3e 73d7 473f
00000060: f82c 80bd e10d e43d 8393 603d 36df 763d
00000070: 5f54 62be 9722 9ebe 1e8d d6be 627c 19be
00000080: 59d2 1fbe 6582 b93b a9a0 afbe 715e d63c
00000090: 625b 25be 0cb2 74be 1449 6b3e d822 77be
000000a0: 1ca8 84be 9747 1abe dfa4 c2be d1db 84bd
000000b0: eeb3 17be 4eec bd3e 24c2 8abd 5977 d6be
000000c0: 06a6 82bd 9776 633e 5c14 0bbe baf9 813d
000000d0: 134a 683e 1fa2 67be 81bd e83d b59c 0fbe
000000e0: 7f65 8dbe 36da 0ebf 2563 2abe 54cf a4be
000000f0: 6ab3 bdbe 8f13 f4bd fad5 413e 7a57 02be
00000100: 9682 eabd 7792 c3bd a4b6 ac3c ede1 f03d
00000110: 87a5 933d 60ca 573e 40bd a4be d463 043e
00000120: 3e01 6c3d a999 c93e 3c5c 9abe fd2a 1f3e
00000130: 6bf8 ac3d 282d ac3e 1895 8ebe 1bc7 d3bd
00000140: cbbf 813e 626e ddbe b10f 8ebc f673 acbc
00000150: 8092 88be a1e0 cabd ac15 2a3e c21b 40be
00000160: 6c36 19bd 1966 83be beb2 853e 3ac9 34bc
00000170: 25f3 42be 3a3b a33c e060 82bd ad54 0dbd
00000180: f525 ff3d 22da 80be 7770 a4bd 3f94 6cbd
00000190: 11da 8e3d 5903 ac3e 14f9 a2bd 84ac 4c3e
000001a0: 35d0 003e 1255 083c 4160 093e ca20 9b3d
000001b0: c5ca 21be badf 2f3e 2db6 653e ec73 14bf
000001c0: 5730 06bd 7c25 c8bc ca57 b23e 9e3d 023e
000001d0: a9b6 38be 9488 ccbe 6f4c f1bd cb9c ac3e
000001e0: 6391 0d3d 6bb5 4bbd 3f8c 3c3e 1b39 633d
000001f0: 83de 89be 709f c63c 22d4 dc3d 7006 dd3d
00000200: a8a4 57bd 211f 643c 45e1 10bc 42a4 f5be
00000210: b956 fd3d 5939 df3d 6af8 7b3e ffc3 95be
00000220: ab8f 8d3e 8acd 023d bad8 113e 1d74 25be
00000230: e13c 543e 888b 103c 3872 db3d e8c3 a23e
00000240: 8331 1b3e 4441 fabe 0f25 acbd d443 62be
00000250: 66e4 833e 25c2 10bd fefe bd3c 53eb a4be
00000260: 2408 513d 831e 2b3c d6a4 c3ba db98 dfbe
00000270: 03ac 2cbe d0d0 ad3e b80f 0b3f 0b45 773e
00000280: 1e36 54be 423c 90be bb6a 963d 8c8c c83c
00000290: 2230 cbbd 945d 8d3d 5035 523d dedf 393e
000002a0: be59 f5bc c02c 6fbe 37b1 d7bc 97cb 4fbd
000002b0: 8c1f b3be e782 2c3d 7289 923e 1d46 8fbd
000002c0: 100a 8ebe 65f0 5dbe 5d58 5c3e 4e7b 85be
000002d0: 9060 5ebd 0372 67be e901 73be 2284 3a3e
000002e0: 18fb d63d 1729 473f 7d1e aebe 6533 8fbe
000002f0: 19be 3f3e de9b 013e 92f0 e33d f8e2 bfbe
00000300: 9bb7 17be e75e b93d 4a08 19be 17a4 1bbe
00000310: 2682 28be abc6 a03d 4a67 f6bb 2304 87be
00000320: 9292 14be 7fdf 983d a780 48be 0490 133e
00000330: a88c 8a3d 886f e3bd 7fba 72be 90c3 1bbe
00000340: 8222 10be 165b 81bc 3778 c3be ad98 f2bc
00000350: dfce 223f eec2 df3e be3f 2d3c a4c7 963e
00000360: ee27 a2be c4f8 b93d b61e a6bd 3d9b 53be
00000370: fa30 103e 80f2 38bc f80d 653d 9984 b23b
00000380: a1b8 dc3d dc7c 8e3e c205 673c 7c29 e0bd
00000390: 4037 b3bd eab0 31be 13b2 123e 3db1 a1bd
000003a0: e602 9a3d 7196 09bf 0b37 8fbe 692d f2be
000003b0: 8725 6abe dd83 713e af51 eb3d 6c95 bdbd
000003c0: 80ba 84be 4544 3e3e adcb f63c 1d19 c43e
000003d0: 1420 433d 682a cdbe 8586 123e 002e 533d
000003e0: 5643 6dbc 93bf bf3e a981 07bd 49af 523b
000003f0: eaff 973e 0a92 4b3d 8505 443e 60c6 b63e

network_body._body_endoder.seq_layers.2.bias f4 [128]
-0.1890924 -0.09586495 -0.04451824 0.08533572 0.14148998 -0.020222679 -0.12225329 -0.08671375
0.053236425 -0.10595733 -0.07222607 -0.09791573 -0.054971006 -0.0449606 -0.019038979 -0.07162079
-0.13464329 -0.0043984214 0.020020451 0.05541494 -0.13617805 -0.107753254 0.028608356 -0.07393637
-0.09064034 0.065863416 -0.21450178 -0.0069607906 -0.13799539 0.0054698884 -0.016001208 -0.067584604
-0.08150516 -0.015803507 -0.021500822 0.10522933 -0.06315551 -0.057898868 0.0071135196 -0.12540199
0.048616823 0.0023147305 -0.025717195 -0.11396786 -0.088503584 -0.043803044 -0.10949017 -0.006005325
-0.05782061 0.020632776 -0.13107572 -0.22331788 -0.07528329 -0.15290038 -0.023642825 -0.0023803934
-0.11032534 -0.07287621 0.012902938 0.053406924 -0.14813812 -0.018522486 0.073173076 -0.022365266
-0.15226753 -0.045718685 -0.05980013 -0.1361245 -0.090802364 0.04305147 0.021464845 0.048857696
-0.0106118275 -0.06132431 -0.034950435 -0.1557442 -0.20398292 -0.046723977 -0.12111692 -0.130153
0.0024446151 -0.077183776 -0.042699657 -0.08314026 -0.076225035 -0.1090327 -0.06876849 -0.15696198
-0.057873204 -0.14804283 0.012566757 -0.09110177 -0.06336081 0.008848569 -0.08419821 -0.038313564
-0.11657018 -0.08894315 -0.10465725 -0.037049342 -0.15814435 -0.050315596 0.010651895 -0.01697916
-0.13109079 -0.05965645 0.023877775 0.11955224 -0.09533776 0.046342347 -0.14457501 -0.050910383
-0.048594084 0.031415094 0.0034938047 -0.09638397 -0.063904434 -0.043582384 -0.116582245 -0.023999546
0.071159676 -0.05704004 -0.10236171 0.022092916 0.046275277 -0.07575908 -0.05189275 0.0009142766
00000000: 70a1 41be d854 c4bd c258 36bd 7ec4 ae3d
00000010: c0e2 103e 08aa a5bc ef5f fabd fb96 b1bd
00000020: 700e 5a3d 2800 d9bd 43eb 93bd 0b88 c8bd
00000030: 4729 61bd 9b28 38bd a2f7 9bbc ecad 92bd
00000040: eedf 09be a220 90bb ee01 a43c c7fa 623d
00000050: 4272 0bbe bdad dcbd 125c ea3c f46b 97bd
00000060: a4a1 b9bd 66e3 863d 5ba6 5bbe 5817 e4bb
00000070: aa4e 0dbe c03c b33b f714 83bc cc69 8abd
00000080: 2dec a6bd 5b76 81bc 7e22 b0bc 7a82 d73d
00000090: ad57 81bd 5d27 6dbd 8718 e93b 6169 00be
000000a0: 6f22 473d bcb2 173b deac d2bc fb67 e9bd
000000b0: 5e41 b5bd d26a 33bd 623c e0bd 51c8 c4bb
000000c0: 4ed5 6cbd 1106 a93c b738 06be 71ad 64be
000000d0: 202e 9abd eb91 1cbe 99ae c1bc 6000 1cbb
000000e0: 40f2 e1bd 1f40 95bd d866 533c 38c1 5a3d
000000f0: 85b1 17be 78bc 97bc c4db 953d 5d37 b7bc
00000100: 05ec 1bbe 8443 3bbd fbf0 74bd 3964 0bbe
00000110: 97f6 b9bd bd56 303d 0bd7 af3c 021f 483d
00000120: 3bdd 2dbc 332f 7bbd 3028 0fbd 687b 1fbe
00000130: e6e0 50be a461 3fbd 260c f8bd d446 05be
00000140: d635 203b 8712 9ebd d6e5 2ebd 7145 aabd
00000150: df1b 9cbd 894c dfbd 7ed6 8cbd a4ba 20be
00000160: 740c 6dbd 8a98 17be cde4 4d3c 9193 babd
00000170: 50c3 81bd 97f9 103c 1c70 acbd afee 1cbd
00000180: 59bc eebd d427 b6bd 8a56 d6bd 0dc1 17bd
00000190: 98f0 21be ba17 4ebd 4985 2e3c e117 8bbc
000001a0: aa3c 06be 525a 74bd 539b c33c ced7 f43d
000001b0: 7240 c3bd 79d1 3d3d 790b 14be 6887 50bd
000001c0: 970a 47bd 1dad 003d 51f8 643b f564 c5bd
000001d0: 54e0 82bd 7183 32bd acc2 eebd b29a c4bc
000001e0: 2abc 913d d1a2 69bd 04a3 d1bd 34fc b43c
000001f0: 258b 3d3d 9427 9bbd 7e8d 54bd 10ac 6f3a

network_body._body_endoder.seq_layers.2.weight f4 [128, 128]
-0.050062016 0.22499055 -0.027585505 0.07495979 0.02521896 -0.05598785 -0.060498748 -0.024340164
-0.00028940552 -0.030276533 0.2917942 -0.010017677 0.14472206 0.09579597 0.1462603 0.06833434
-0.039019085 -0.019623365 -0.012507373 0.13140348 -0.02953527 0.15517141 0.16434747 0.19982794
0.070509925 -0.018452419 -0.03591967 -0.105763145 -0.23102671 0.09274605 0.035116695 -0.1257233
-0.041806303 0.029080447 -0.061333135 -0.16037492 0.06607788 -0.19658121 -0.14892125 0.07323017
-0.027063718 -0.10389254 0.10637325 0.015295775 0.020741288 -0.034231506 -0.080996804 -0.14355375
0.002279849 -0.39998502 0.1562616 -0.116621315 0.13955623 -0.032067824 -0.004420431 -0.10875732
-0.15503228 -0.23694135 0.16131857 0.022169963 0.14353251 0.1335921 0.0152258435 0.058261544
-0.043591656 -0.007600378 -0.05460441 -0.19718291 0.20980841 0.047664985 0.06258438 0.080799274
0.18923016 0.012614405 -0.085014775 0.016920522 -0.026805738 0.22054735 -0.078723416 0.36761135
0.15953115 -0.06605519 -0.0072847335 0.06822718 -0.15571369 -0.0005745974 -0.056309592 0.03324698
0.124498315 -0.13410656 0.2208726 -0.0631871 -0.12685351 0.023188544 -0.14282484 0.04112917
0.1740916 -0.01066829 -0.057771467 0.15247044 0.117436655 -0.1292383 -0.061526444 -0.015909707
-0.100870915 -0.002374613 -0.16426595 -0.21426417 -0.0016877558 0.07988395 0.085694425 -0.16491815
-0.13437267 -0.088437475 -0.044170357 0.15322557 0.007034663 -0.15366057 0.060384482 0.010487234
-0.028429491 -0.007783711 -0.016520897 -0.22595729 0.0027477469 -0.0027279067 -0.13842727 -0.026523989
-0.13260524 -0.032530196 0.021327866 0.16546641 -0.073031545 -0.019847155 0.054253303 -0.08626775
-0.022001876 -0.1260565 0.07345817 -0.34421864 -0.21472026 0.045359652 0.1737363 0.15036373
-0.1291708 0.1611629 0.11828945 0.17636414 0.048165247 -0.008443111 0.18054366 0.11106174
0.053341452 0.031332348 -0.027680501 -0.060997754 0.029480128 0.1018403 0.008412399 -0.106168866
-0.13029599 0.17743032 0.0702766 -0.02249525 0.08164264 0.0780654 -0.10691558 0.30936974
0.057453945 0.14318281 0.13174504 -0.13227734 0.08627522 -0.0862507 0.016014349 0.08261866
0.011880739 -0.009137718 0.08811296 0.0066414666 -0.049952086 0.01814882 0.007821915 -0.019266035
-0.10725689 0.17821078 0.20365636 0.11232862 0.085819304 0.00016869338 -0.18334949 -0.040120363
-0.038464382 -0.027031256 -0.043021232 -0.10797474 -0.17663468 0.1934909 0.034034986 -0.07466595
-0.12501018 0.084810875 0.018715376 -0.020889852 0.1515393 0.17014988 0.12230729 -0.3326391
-0.02874421 -0.14113216 0.056031037 0.024269765 -0.08897983 0.007676676 -0.22883631 0.09544111
-0.16623126 -0.11027235 -0.116587676 0.029126037 -0.045247775 0.03462992 -0.26152247 -0.099411085
-0.0028945033 0.15236343 0.020666089 -0.019162817 0.095294714 -0.016945088 -0.03449825 -0.023448382
-0.030583851 0.040281393 0.08375174 -0.03253618 -0.03859778 0.11704217 0.24449596 -0.016520869
0.030402618 -0.1874579 0.11983942 0.18335302 -0.13973123 0.0064759525 -0.07260772 0.04527725
-0.12844934 -0.011306733 -0.13478434 0.03080831 0.1212651 0.12681697 -0.06707847 0.13913639
00000000: d40d 4dbd ec63 663e fffa e1bc 8584 993d
00000010: fe97 ce3c 8453 65bd 89cd 77bd 0665 c7bc
00000020: 5abb 97b9 7e06 f8bc 0d66 953e 2f21 24bc
00000030: 0532 143e ad30 c43d 43c5 153e e0f2 8b3d
00000040: 7ad2 1fbd 2ec1 a0bc b9eb 4cbc a28e 063e
00000050: f3f3 f1bc 41e5 1e3e b44a 283e b29f 4c3e
00000060: 8267 903d 8729 97bc 8120 13bd 599a d8bd
00000070: 4492 6cbe a4f1 bd3d 86d6 0f3d 9cbd 00be
00000080: 163d 2bbd 1e3a ee3c 7438 7bbd 5339 24be
00000090: d753 873d 964c 49be d07e 18be b3f9 953d
000000a0: bbb4 ddbc 9dc5 d4bd 38da d93d 219b 7a3c
000000b0: a2e9 a93c 5636 0cbd a7e1 a5bd c1ff 12be
000000c0: 8569 153b d6ca ccbe 0a03 203e 28d7 eebd
000000d0: d4e7 0e3e 8d59 03bd 43d9 90bb 28bc debd
000000e0: c8c0 1ebe c1a0 72be b230 253e c89d b53c
000000f0: 30fa 123e 5ecc 083e d175 793c a8a3 6e3d
00000100: 2a8d 32bd 970c f9bb e0a8 5fbd 51ea 49be
00000110: 04d8 563e 5c3c 433d 3d2c 803d 177a a53d
00000120: 8dc5 413e a6ac 4e3c 3a1c aebd e89c 8a3c
00000130: b597 dbbc 2ad7 613e be39 a1bd 8e37 bc3e
00000140: 225c 233e f247 87bd c6b4 eebb b1ba 8b3d
00000150: 6973 1fbe 94a0 16ba e3a4 66bd fc2d 083d
00000160: f9f8 fe3d 3b53 09be 6d2c 623e 3d68 81bd
00000170: e3e5 01be e7f5 bd3c ad40 12be 1077 283d
00000180: 1245 323e 0dca 2ebc c6a1 6cbd 3621 1c3e
00000190: a182 f03d 0b57 04be 2703 7cbd 1355 82bc
000001a0: 6995 cebd 659f 1bbb 5535 28be 1168 5bbe
000001b0: b037 ddba 329a a33d 8f80 af3d 4ee0 28be
000001c0: fd98 09be b51e b5bd faeb 34bd 2ae7 1c3e
000001d0: 0883 e63b 3259 1dbe b855 773d a6d2 2b3c
000001e0: f7e4 e8bc 800e ffbb d556 87bc 5961 67be
000001f0: 8b13 343b aec6 32bb e1bf 0dbe d648 d9bc
00000200: abc9 07be 623e 05bd c7b7 ae3c 0770 293e
00000210: 9091 95bd 8096 a2bc b638 5e3d 25ad b0bd
00000220: 473d b4bc f514 01be 3d71 963d 6d3d b0be
00000230: a1df 5bbe 0bcb 393d eee7 313e f3f8 193e
00000240: 5a45 04be e307 253e bd41 f23d cd98 343e
00000250: ec48 453d f954 0abc 70e0 383e 5674 e33d
00000260: 917c 5a3d 5956 003d 38c2 e2bc c8d8 79bd
00000270: 4f80 f13c a691 d03d 29d4 093c 106f d9bd
00000280: 506c 05be 4bb0 353e 2eed 8f3d f547 b8bc
00000290: 4234 a73d c1e0 9f3d 8ef6 dabd b665 9e3e
000002a0: d454 6b3d 849e 123e 2ce8 063e b673 07be
000002b0: 10b1 b03d 35a4 b0bd 8630 833c f933 a93d
000002c0: 6ea7 423c 5eb6 15bc 9174 b43d a9a0 d93b
000002d0: 8f9a 4cbd d6ac 943c 7d27 003c ced3 9dbc
000002e0: 80a9 dbbd e37c 363e 4b8b 503e 8c0c e63d
000002f0: 08c2 af3d 49e3 3039 f8bf 3bbe 4055 24bd
00000300: d48c 1dbd a770 ddbc 0837 30bd dc21 ddbd
00000310: b9df 34be 7a22 463e 4568 0b3d 76ea 98bd
00000320: ab02 00be 53b1 ad3d fd50 993c 3221 abbc
00000330: 1e2d 1b3e c53b 2e3e 3f7c fa3d ac4f aabe
00000340: fa78 ebbc f384 10be cd80 653d 63d1 c63c
00000350: 0f3b b6bd a08c fb3b 1154 6abe a176 c33d
00000360: 8738 2abe 78d6 e1bd 85c5 eebd ba99 ee3c
00000370: bb55 39bd 1ad8 0d3d 46e6 85be 0a98 cbbd
00000380: b5b1 3dbb 2905 1c3e ee4b a93c 57fb 9cbc
00000390: e029 c33d 6dd0 8abc 094e 0dbd d216 c0bc
000003a0: fc8a fabc 1afe 243d 0886 ab3d a844 05bd
000003b0: b518 1ebd ceb3 ef3d 265d 7a3e c656 87bc
000003c0: e90e f93c f7f4 3fbe 5f6e f53d e5c0 3b3e
000003d0: b415 0fbe 3a34 d43b 5bb3 94bd a374 393d
000003e0: 3988 03be e03f 39bc e804 0abe b561 fc3c
000003f0: d659 f83d 4fdc 013e 7060 89bd c579 0e3e
