results/ShooterSimple_Apresentacao/ShooterSimple/ShooterSimple-19358.onnx (onnx, 89698 bytes, 11 tensors)

action_model._discrete_distribution.branches.0.bias f4 [5]
-0.00040656707 -0.014574067 -0.007767905 0.047933567 -0.048350785
00000000: 8228 d5b9 11c8 6ebc e989 febb fd55 443d
00000010: 790b 46bd

action_model._discrete_distribution.branches.0.weight f4 [5, 128]
-0.055880945 -0.013801401 0.0028949243 0.013027878 -0.016953474 0.019134996 -0.0008980501 0.016665641
-0.00046630684 -0.024418008 -0.0048093917 0.0042846906 0.032665335 -0.004731199 0.010267981 -0.04240292
-0.0016047608 -0.018524759 0.036925435 -0.008900519 0.012608331 0.0011955601 0.0013106253 -0.002923835
-0.0006765505 0.0036243764 -0.009784171 0.0024893633 -0.00073631515 -0.030887038 0.012770268 0.020630626
0.011541996 0.0027317798 -0.017654443 0.0043865955 0.03258022 -0.06168465 -0.002681976 0.03391391
-0.0060251597 0.0067028925 -0.005213959 0.007904559 0.001099221 0.00875332 -0.0056864345 0.027805807
-0.070743985 0.00078937376 -0.026443586 0.006770505 0.0006123107 0.015887609 -0.010378569 -0.000101677586
-0.01983656 -0.0162542 -0.028270064 -0.011147361 0.0031978013 0.008528586 0.0025892581 0.024505127
0.006132667 0.00079769554 0.0045743897 -0.014704676 -0.016662722 -0.004397863 -0.0061842296 0.009039569
0.0073857023 0.010058118 -0.0064174104 -0.0014007901 -0.038004432 0.0016709768 0.018721836 -0.006378683
0.014415828 -0.0025918365 -0.0049455324 -0.018881163 0.01633227 -0.005978769 0.012213521 0.0079219965
-0.015714787 0.014978801 0.0016198428 -0.002529153 0.021596022 0.024963941 0.005196931 0.009727773
-0.013455642 -0.006253365 -0.027316056 -0.0058424473 0.0061953906 0.004795328 -0.01208396 0.008048216
-0.0010080044 -0.010944133 0.023127021 -0.012506218 -0.0380949 0.006091212 -0.029632248 0.023045123
0.013050225 0.0044854465 0.0045834007 0.0095913755 -0.06760748 0.0027424644 0.021204598 -0.004993628
-0.0068461495 0.0003727209 0.011192395 0.011329016 0.016030397 -0.010184629 0.0056382082 0.009648704
-0.039213147 0.0057802615 0.015891762 -0.0055793533 -0.039224476 -0.025908085 0.0592381 -0.04388006
0.015798582 -0.029994704 -0.037969463 0.053334747 -0.053683113 -0.027654523 -0.010508842 -0.0026508502
-0.045162477 0.014478959 0.008946483 -0.029669153 -0.04414859 -0.020557128 -0.057516403 -0.020292936
-0.041634135 0.034067824 -0.023268508 -0.037078213 -0.013609556 0.024949955 -0.039409544 -0.032129746
-0.002536613 -0.033489432 0.0071696015 0.017399402 -0.013875577 -0.03918846 -0.012139769 -0.011100379
-0.012222057 -0.020824568 0.025910411 -0.03156617 -0.032098494 -0.04339738 -0.03028211 0.01820097
0.035204936 -0.059759144 -0.090064906 -0.0053717266 0.012243687 -0.06315094 -0.040776893 0.04014756
-0.010368066 0.040315777 -0.027305566 -0.013557195 -0.049121384 -0.008478835 -0.009311753 0.026022619
0.035470173 -0.014085642 0.031105133 0.026989616 0.009538418 -0.013518109 -0.03516837 -0.020058122
-0.015181944 0.016961353 -0.02786899 -0.03871435 -0.01737021 -0.03685476 0.008689553 -0.032629266
-0.030710427 -0.027398646 -0.015078789 0.030175291 0.023497771 -0.02654963 -0.042620745 0.025395269
-0.026993493 0.010644864 0.014975718 0.05176346 -0.012353411 0.0024016034 -0.039188094 -0.0053383955
0.009810685 -0.026353199 0.0440213 -0.018878764 0.02005602 -0.008570341 -0.018707007 -0.063307285
-0.0062383306 -0.027553327 -0.04841291 -0.014134688 -0.031087102 0.010066202 -0.050991528 0.018407855
-0.009449778 -0.031792562 -0.023508294 -0.00045374603 -0.073342055 -0.05866712 0.0049953233 -0.0028060593
-0.032777257 -0.038742688 0.008303692 -0.06209089 -0.015382565 -0.031258263 0.011056813 0.019250276
00000000: 6be3 64bd 451f 62bc c5b8 3d3b e172 553c
00000010: 03e2 8abc ffc0 9c3c 1f6b 6bba 6286 883c
00000020: a57a f4b9 4608 c8bc 1a98 9dbb 9766 8c3b
00000030: 16cc 053d 2c08 9bbb 093b 283c afae 2dbd
00000040: d656 d2ba 3cc1 97bc 203f 173d 7cd3 11bc
00000050: 2c93 4e3c 57b4 9c3a 4ac9 ab3a d09d 3fbb
00000060: 895a 31ba f286 6d3b ca4d 20bc 9624 233b
00000070: 4605 41ba d006 fdbc 633a 513c 8f01 a93c
00000080: a41a 3d3c a907 333b 0da0 90bc 6ebd 8f3b
00000090: d672 053d 0ba9 7cbd 17c4 2fbb 50e9 0a3d
000000a0: b46e c5bb f0a3 db3b dcd9 aabb 2082 013c
000000b0: bc13 903a 166a 0f3c 4555 babb 01c9 e33c
000000c0: 39e2 90bd faed 4e3a 38a0 d8bc 1ddb dd3b
000000d0: 7a83 203a bb26 823c e00a 2abc bd3b d5b8
000000e0: 4880 a2bc 8727 85bc 9f96 e7bc 6ca3 36bc
000000f0: 3492 513b 7bbb 0b3c 8bb0 293b fabe c83c
00000100: 8af4 c83b 711c 513a c3e4 953b e2eb 70bc
00000110: 4380 88bc f31b 90bb 14a5 cabb b31a 143c
00000120: c303 f23b ceca 243c 2449 d2bb b79a b7ba
00000130: 89aa 1bbd ad04 db3a 895e 993c 4504 d1bb
00000140: 5d30 6c3c cddb 29bb 220e a2bb abac 9abc
00000150: 41cb 853c 8de9 c3bb 381b 483c 43cb 013c
00000160: 4cbc 80bc a569 753c e850 d43a 25c0 25bb
00000170: 24ea b03c 2e81 cc3c 044b aa3b 3d61 1f3c
00000180: 0e75 5cbc 07e9 ccbb ecc5 dfbc 0072 bfbb
00000190: b402 cb3b 2022 9d3b cdfb 45bc aadc 033c
000001a0: 041f 84ba 054f 33bc e174 bd3c e1e6 4cbc
000001b0: 6609 1cbd ca98 c73b 54bf f2bc 20c9 bc3c
000001c0: 9cd0 553c a7fa 923b 5a30 963b 2525 1d3c
000001d0: ca75 8abd ebba 333b 44b5 ad3c 96a1 a3bb
000001e0: aa55 e0bb c169 c339 4f60 373c 569d 393c
000001f0: 2e52 833c 6edd 26bc b8c0 b83b 9915 1e3c
00000200: f79d 20bd 5968 bd3b 712f 823c 02d3 b6bb
00000210: d8a9 20bd 313d d4bc a6a3 723d 94bb 33bd
00000220: 076c 813c 74b7 f5bc de85 1bbd 8975 5a3d
00000230: d3e2 5bbd bd8b e2bc 472d 2cbc e3b9 2dbb
00000240: 4afc 38bd 2839 6d3c 4594 123c b90c f3bc
00000250: 27d5 34bd 6c67 a8bc 5296 6bbd 5f3d a6bc
00000260: 8e88 2abd b48a 0b3d 999d bebc 53df 17bd
00000270: 9dfa 5ebc d963 cc3c e76b 21bd 7b9a 03bd
00000280: 4e3d 26bb 372c 09bd faee ea3b 3189 8e3c
00000290: 6356 63bc 1484 20bd e2e5 46bc 5dde 35bc
000002a0: 063f 48bc 4998 aabc 1242 d43c 874b 01bd
000002b0: b679 03bd 73c1 31bd 3012 f8bc 331a 953c
000002c0: 0d33 103d 01c6 74bd f373 b8bd 4f05 b0bb
000002d0: bf99 483c 4855 81bd ac05 27bd c571 243d
000002e0: d2de 29bc 2822 253d ecaf dfbc ff1e 5ebc
000002f0: 8133 49bd d0ea 0abc 5390 18bc 632d d53c
00000300: 2c49 113d 77c7 66bc 31d0 fe3c 5419 dd3c
00000310: 0647 1c3c 0f7b 5dbc b50c 10bd ee50 a4bc
00000320: b0bd 78bc 89f2 8a3c 824d e4bc f092 1ebd
00000330: f84b 8ebc 04f5 16bd a05e 0e3c 44a6 05bd
00000340: 6f94 fbbc 2073 e0bc 060d 77bc 2c32 f73c
00000350: 667e c03c 9c7e d9bc 1793 2ebd bd09 d03c
00000360: 7521 ddbc cc67 2e3c b75c 753c ec05 543d
00000370: f665 4abc 3864 1d3b b283 20bd b5ed aebb
00000380: ffbc 203c aae2 d7bc ae4f 343d a3a7 9abc
00000390: 864c a43c 9e6a 0cbc 703f 99bc 40a7 81bd
000003a0: e96a ccbb 84b7 e1bc 9e4c 46bd 2e95 67bc
000003b0: 61aa febc b6ec 243c 7edc 50bd 12cc 963c
000003c0: 3ed3 1abc eb38 02bd 7794 c0bc c3e4 edb9
000003d0: 5c34 96bd ef4c 70bd cfaf a33b dde5 37bb
000003e0: 7241 06bd a7b0 1ebd 350c 083c 0453 7ebd
000003f0: 2707 7cbc aa08 00bd a327 353c c1b2 9d3c

action_model._discrete_distribution.branches.1.bias f4 [4]
-0.02099728 0.0064519844 0.00024129821 0.008089542
00000000: 7d02 acbc 2b6b d33b ff04 7d39 008a 043c

action_model._discrete_distribution.branches.1.weight f4 [4, 128]
0.020303233 0.002189037 0.011777383 0.02324935 -0.010295634 0.002819893 0.05897001 -0.0039360565
-0.03126251 0.00046044582 0.0048109745 0.020122379 0.0384249 0.00059231085 -0.016251799 -0.0012731891
-0.013652027 -0.0013389162 -0.0016894917 0.011504545 -0.0107526425 0.0098598115 -0.0028903827 0.012535909
0.012981384 0.017164059 0.0023534999 0.0012128907 0.01399002 -0.007402296 0.01719271 0.0010240172
-0.021695722 -0.012359786 0.0054240352 0.009408689 0.04169247 0.00085015444 0.02351563 -0.08086142
0.040871 0.0094719175 0.019884013 0.004054999 -0.028980888 -0.010677135 -0.0009624501 0.002734811
-0.004337941 0.017873101 0.016002005 0.0063066212 -0.008368321 0.015034384 -0.01838172 0.004028501
0.02770071 0.028934345 0.009909324 0.018274596 0.0019985028 0.0029804313 0.0013584506 0.00091334234
0.025889112 -0.013894892 -0.0036135677 -0.009024224 0.008037573 -0.009066004 0.0039392696 -0.0056273616
-0.020348633 0.0037265224 -0.0009864197 -0.029251255 0.012767602 -0.0007457236 -0.007050849 0.0036806236
-0.0049388525 -0.0051588486 0.0008008618 0.009234795 0.006415298 0.0022844262 -0.0038126428 -0.004006267
-0.054299038 -0.002280265 0.023991883 0.034825783 -0.0038121908 0.020749012 0.00040507835 -0.019526172
-0.0049617006 -0.010267474 0.0061720037 -0.0023749918 -0.0097985715 -0.012476944 -0.0003827552 -0.011692404
-0.008760622 0.0033965039 0.016745208 0.0122034075 0.010014199 -0.025800966 0.007330137 -0.0128437625
-0.019910652 -0.00831633 0.020213002 0.02474556 0.004547493 -0.0012361619 -0.012106761 0.005259479
0.0232288 0.006985483 -0.013119593 0.0067809243 -0.036499225 -0.0056749154 0.015472071 0.0011629291
0.012538828 -0.006407176 -0.014863845 0.013928715 0.012305915 0.012295851 -0.020689432 -0.0021731812
-0.0017342189 0.031709302 0.0036981048 -0.0035155157 -0.050298505 0.013866954 -0.015385581 0.009147324
0.042606175 -0.002926676 -0.009644286 0.015972085 -0.025016647 0.0066074478 -0.009433665 0.012455611
0.018390143 -0.012605528 0.012109445 0.005703321 0.008577722 0.00925168 0.007976109 0.004629404
-0.005573461 -0.0039757737 0.024363242 -0.016243057 0.0066270772 0.017327845 0.021138921 -0.010481748
0.004169125 0.027245568 -0.01218088 -0.014673551 0.0054505477 -0.006519774 -0.0074591767 0.017507138
0.026794018 0.0039227856 0.022660144 0.009179625 -0.01096468 0.011682847 -0.010006606 0.0064282217
0.012255963 -0.007944843 0.017741116 0.016406596 0.0074659055 -0.0132865235 0.005311038 -0.004335401
-0.015415177 0.012262827 0.00867143 0.029037056 0.013371774 0.0031169045 -0.0048922217 0.028144933
-0.01927687 0.00856285 0.0028473006 0.02451995 0.0100211585 0.020554151 -0.031661395 0.015140289
0.0059704063 -0.008053545 0.0021310144 -0.043116443 -0.019280246 0.014675322 -0.010848686 0.0029932966
-0.016456867 -0.024916813 0.00899592 -0.03242227 -0.005055593 0.004328717 -0.01632593 -0.007988485
0.013644568 0.002788637 0.028909702 0.033712205 -0.007590882 -0.0071612415 0.014848184 -0.00327892
0.024195345 -0.001087073 -0.004464315 -0.0057066493 0.022795219 -0.004700496 0.00951074 -0.01958928
0.008687161 -0.022809476 0.018305076 0.012191842 0.034299422 -0.026658202 -0.010462307 0.008834006
0.04785592 0.002139863 -0.032127902 -0.03479749 0.00934794 0.006157594 -0.017273616 0.0015962623
00000000: f752 a63c f275 0f3b edf5 403c 6c75 be3c
00000010: 05af 28bc f4cd 383b 8a8a 713d 09fa 80bb
00000020: 1e0d 00bd fe67 f139 61a5 9d3b b0d7 a43c
00000030: 6e63 1d3d 4f45 1b3a 7e22 85bc 23e1 a6ba
00000040: c0ac 5fbc 937e afba ef71 ddba 8f7d 3c3c
00000050: da2b 30bc 0c8b 213c 936c 3dbb 6a63 4d3c
00000060: dfaf 543c a49b 8c3c 2d3d 1a3b dcf9 9e3a
00000070: 6636 653c f68e f2bb bad7 8c3c 5138 863a
00000080: 3abb b1bc b380 4abc 1bbc b13b e726 1a3c
00000090: b9c5 2a3d e6dc 5e3a daa3 c03c ac9a a5bd
000000a0: 5a68 273d 1a30 1b3c cce3 a23c ccdf 843b
000000b0: 5469 edbc 26ef 2ebc ef4c 7cba 843a 333b
000000c0: 4925 8ebb 9c6a 923c a316 833c c6a7 ce3b
000000d0: 481b 09bc c752 763c 4395 96bc 8401 843b
000000e0: 99ec e23c b807 ed3c b85a 223c 9bb4 953c
000000f0: 50f9 023b 5753 433b 0a0e b23a 5e6d 6f3a
00000100: 6715 d43c 67a7 63bc 9bd1 6cbb 57da 13bc
00000110: 06b0 033c 9489 14bc fd14 813b bb65 b8bb
00000120: 2db2 a6bc ac38 743b c14a 81ba 54a0 efbc
00000130: 342f 513c aa7c 43ba cf0a e7bb 9e36 713b
00000140: 19d6 a1bb 8f0b a9bb edf0 513a 8a4d 173c
00000150: 6c37 d23b 50b6 153b 88dd 79bb 0147 83bb
00000160: ab68 5ebd 8070 15bb a08a c43c 7ba5 0e3d
00000170: f3d5 79bb d5f9 a93c b260 d439 5af5 9fbc
00000180: c395 a2bb e838 28bc 853e ca3b c0a5 1bbb
00000190: 308a 20bc 196c 4cbc 89ac c8b9 7f91 3fbc
000001a0: b688 0fbc e197 5e3b 3f2d 893c cdf0 473c
000001b0: 9812 243c 8c5c d3bc a531 f03b a56e 52bc
000001c0: aa1b a3bc 3741 08bc bd95 a53c 33b7 ca3c
000001d0: 2303 953b b606 a2ba 705b 46bc b557 ac3b
000001e0: 534a be3c 7be6 e43b 90f3 56bc 8432 de3b
000001f0: 3680 15bd a4f4 b9bb 927e 7d3c 6d6d 983a
00000200: a86f 4d3c 4af3 d1bb 7c87 73bc 4435 643c
00000210: c09e 493c 8974 493c e27c a9bc ee6b 0ebb
00000220: bb4e e3ba 9de1 013d e75b 723b 9164 66bb
00000230: ce05 4ebd 3832 633c ce13 7cbc a8de 153c
00000240: d083 2e3d 7acd 3fbb 1103 1ebc e4d7 823c
00000250: b6ef ccbc 4a83 d83b a98f 1abc 9e12 4c3c
00000260: eda6 963c 6b87 4ebc b266 463c ede2 ba3b
00000270: 9389 0c3c 5c94 173c 3aae 023c 41b2 973b
00000280: 94a1 b6bb 3547 82bb 6c95 c73c 2910 85bc
00000290: f427 d93b 20f3 8d3c 882b ad3c a3bb 2bbc
000002a0: 289d 883b 1932 df3c 5092 47bc 5569 70bc
000002b0: 829a b23b d4a3 d5bb 1c6c f4bb 216b 8f3c
000002c0: 217f db3c b68a 803b c4a1 b93c 2366 163c
000002d0: 34a5 33bc 6969 3f3c bff2 23bc d5a3 d23b
000002e0: 3ccd 483c 162b 02bc d155 913c 2067 863c
000002f0: 8ea4 f43b b8af 59bc 3708 ae3b fb0f 8ebb
00000300: f08f 7cbc 06ea 483c 9d12 0e3c 1fdf ed3c
00000310: 4915 5b3c fb44 4c3b ee4e a0bb 3490 e63c
00000320: 87ea 9dbc 324b 0c3c c799 3a3b 10de c83c
00000330: c92f 243c 2e61 a83c 61af 01bd fa0e 783c
00000340: 66a3 c33b 04f3 03bc 7da8 0b3b de9a 30bd
00000350: 9bf1 9dbc c370 703c b0be 31bc 2f2b 443b
00000360: 8dd0 86bc 581e ccbc a063 133c 37cd 04bd
00000370: 63a9 a5bb e9d7 8d3b f5bd 85bc 22e2 02bc
00000380: 778d 5f3c 91c1 363b 0ad4 ec3c cf15 0a3d
00000390: efbc f8bb d9a8 eabb cc45 733c 26e3 56bb
000003a0: 5135 c63c 1e7c 8eba 6349 92bb d8fe babb
000003b0: 0abd ba3c 9e06 9abb efd2 1b3c b379 a0bc
000003c0: 9854 0e3c f0da babc 87f4 953c 4bc0 473c
000003d0: 8d7d 0c3d 4d62 dabc 196a 2bbc 82bc 103c
000003e0: 9204 443d f23c 0c3b 8c98 03bd d087 0ebd
000003f0: 1a28 193c a4c5 c93b 6681 8dbc ad39 d13a

action_model._discrete_distribution.branches.2.bias f4 [2]
-0.036018398 0.03601843
00000000: 0788 13bd 1088 133d

action_model._discrete_distribution.branches.2.weight f4 [2, 128]
-0.0004443209 -0.04058973 0.03455576 0.0012424479 0.012755903 -0.0064017302 0.035502188 -0.04468715
-0.0047552898 -0.0077170185 -0.050435293 -0.0071571325 0.0084335245 -0.023529427 -0.035775404 -0.02067896
0.0064293253 -0.020735897 0.0113061415 -0.04005969 -0.06627169 -0.032799516 0.0032108256 -0.0044427523
-0.008617309 -0.042107224 -0.06374947 -0.0127110565 -0.03829134 -0.020328082 -0.022188524 -0.010687418
-0.028782351 -0.043018077 -0.07097015 -0.005097819 -0.014604774 0.008574237 -0.024853975 -0.07657762
-0.034589622 -0.0099938605 -0.031921018 -0.00052011345 -0.039613508 -0.039671768 -0.04861123 -0.0009300958
-0.00019462053 0.0030090474 0.0052338424 -0.014283796 -0.022247607 0.0050253114 -0.049304333 -0.0036171398
-0.023584403 -0.008469695 -0.019818088 -0.017586196 0.010048747 0.028396985 -0.010424919 -0.005137533
-0.03246292 -0.023724096 -0.0060583595 -0.018549927 0.013422996 -0.022823393 -0.021908589 -0.012242872
-0.05270808 0.024139386 -0.028203396 -0.023522032 -0.038599405 0.017963095 -0.030817935 -0.026621053
-0.017266339 -0.005322515 -0.020246731 -0.0024610644 -0.022267757 -0.016401714 -0.0008262409 -0.020377003
-0.009575992 -0.032409098 0.028752396 0.009860724 -0.0015635985 0.003062702 -0.005851995 -0.047466725
0.005135781 -0.033413436 -0.01750096 -0.021086156 0.010645387 0.0048487945 -0.0188686 -0.03180483
0.017080551 -0.07086883 -0.0493047 -0.010770393 -0.030993236 -0.03169414 -0.00922192 -0.011006339
-0.02190484 -0.029770182 -0.034288723 0.028143242 0.0025219668 -0.018577598 0.021216469 -0.019764984
0.03208519 -0.045600444 0.019397398 -0.016996976 -0.016835071 -0.046653684 -0.032051746 -0.015653167
0.00041091672 0.053089045 -0.014174842 0.00080223824 -0.022670737 0.0067453864 -0.032529805 0.04157902
0.002671319 0.013090846 0.045572963 0.0020450435 -0.0033380021 -0.011080785 0.03330361 0.0070298607
-0.018647598 0.023605712 0.012789713 0.03631008 0.05548142 0.015440472 -0.0153241465 0.022603346
0.011664558 0.048108533 0.06873661 0.026919177 0.00815843 0.014857687 0.003678229 -0.00010436375
0.021137731 0.018445348 0.04401783 0.034182552 0.029919002 -0.0020998234 0.01833126 0.058586933
0.027948206 0.013326073 0.039170492 0.0027218047 0.028933173 0.035485372 0.048788477 0.018898638
0.012337458 -0.010795607 -0.009229302 0.0079395 0.014439793 -0.0006107871 0.033429317 -0.0037503073
0.018220462 0.004365607 0.010111654 0.008482405 -0.010906803 -0.0070866724 0.007313477 -0.0036927096
0.022306208 0.028036157 0.016457109 0.005849155 -0.006177105 0.04568925 0.048212647 0.01901679
0.0394185 -0.012464586 0.026971478 0.026159318 0.03603453 -0.008854752 0.031450067 0.027703872
0.0116581675 0.017504536 0.014368444 0.0027181937 0.009240412 0.008393591 0.0043521477 0.023604218
-0.0017160635 0.013273785 -0.024620917 -0.010779828 6.314115e-05 0.010228094 0.018575193 0.054222263
0.0124834655 0.020135084 0.014686969 -0.005085262 -0.021889472 0.0041655796 0.0294577 0.05692169
-0.012135796 0.039257217 0.031249082 0.009518519 0.035995584 0.028206952 0.010949634 0.014174146
0.010786504 0.037490025 0.030893851 -0.0073395125 -0.0035960968 0.022206495 0.002058712 0.034434695
-0.035902303 0.039702896 -0.014848461 0.02717943 0.023292916 0.039160296 0.040543593 0.030714571
00000000: bef3 e8b9 6b41 26bd 578a 0d3d a2d9 a23a
00000010: 23fe 503c 9bc5 d1bb be6a 113d df09 37bd
00000020: 43d2 9bbb 0bdf fcbb 3d95 4ebd 6186 eabb
00000030: c42c 0a3c c9c0 c0bc 3b89 12bd ec66 a9bc
00000040: 17ad d23b 54de a9bc 653d 393c a115 24bd
00000050: 74b9 87bd c958 06bd b76c 523b 8294 91bb
00000060: 9d2f 0dbc a078 2cbd 158f 82bd 0942 50bc
00000070: 61d7 1cbd 1487 a6bc b5c4 b5bc 481a 2fbc
00000080: f7c8 ebbc b933 30bd cc58 91bd 9b0b a7bb
00000090: dd48 6fbc f57a 0c3c 909a cbbc bad4 9cbd
000000a0: d9ad 0dbd 4abd 23bc 9dbf 02bd 3958 08ba
000000b0: c641 22bd dd7e 22bd 921c 47bd acd1 73ba
000000c0: 0d13 4cb9 7033 453b a780 ab3b 9506 6abc
000000d0: 9d40 b6bc 5eab a43b 57f3 49bd 890d 6dbb
000000e0: 1434 c1bc 7ac4 0abc 8b59 a2bc ed10 90bc
000000f0: 80a3 243c cba0 e83c 48cd 2abc c058 a8bb
00000100: d7f7 04bd 0959 c2bc 3485 c6bb 04f6 97bc
00000110: 20ec 5b3c 20f8 babc a479 b3bc 5496 48bc
00000120: 6de4 57bd f6bf c53c cf0a e7bc 47b1 c0bc
00000130: 691a 1ebd 5727 933c e575 fcbc 6514 dabc
00000140: 2372 8dbc 7e68 aebb 79dc a5bc cf49 21bb
00000150: df6a b6bc e35c 86bc 1798 58ba aced a6bc
00000160: 9fe4 1cbc 67bf 04bd 258a eb3c e08e 213c
00000170: a9f1 ccba 9db7 483b 18c2 bfbb 786c 42bd
00000180: 0e4a a83b 87dc 08bd 2c5e 8fbc e0bc acbc
00000190: fd69 2e3c a3e2 9e3b 5292 9abc c845 02bd
000001a0: 83ec 8b3c ad23 91bd baf3 49bd 4d76 30bc
000001b0: 87e5 fdbc b7d1 01bd 8917 17bc ef53 34bc
000001c0: c771 b3bc 99e0 f3bc 5572 0cbd a88c e63c
000001d0: 9547 253b 0c30 98bc 29ce ad3c 2dea a1bc
000001e0: c36b 033d 88c7 3abd 4be7 9e3c 3e3d 8bbc
000001f0: b4e9 89bc ef17 3fbd b148 03bd 123b 80bc
00000200: 4f70 d739 e673 593d 993d 68bc 4c4d 523a
00000210: fbb7 b9bc 6708 dd3b f93d 05bd c34e 2a3d
00000220: 4c11 2f3b fd7a 563c b7aa 3a3d 2306 063b
00000230: 62c2 5abb 2e8c 35bc 5e69 083d bf5a e63b
00000240: d9c2 98bc c460 c13c f28b 513c e1b9 143d
00000250: 7c40 633d 09fa 7c3c 2112 7bbc a72a b93c
00000260: b41c 3f3c 740d 453d c8c5 8c3d 9b85 dc3c
00000270: f0aa 053c a86d 733c 710e 713b dddd dab8
00000280: 0929 ad3c b31a 973c 0a4c 343d 0103 0c3d
00000290: b218 f53c 319d 09bb 702b 963c daf8 6f3d
000002a0: a3f3 e43c 9a55 5a3c 3d71 203d 4e60 323b
000002b0: 4305 ed3c 1c59 113d 6dd6 473d 51d1 9a3c
000002c0: 0d23 4a3c 0fe0 30bc 8036 17bc ad14 023c
000002d0: e294 6c3c 3a1d 20ba 2eed 083d b7c7 75bb
000002e0: 1443 953c 5e0d 8f3b 5aab 253c c9f9 0a3c
000002f0: 73b2 32bc 5137 e8bb e4a5 ef3b 6301 72bb
00000300: 82bb b63c 15ac e53c 0fd1 863c 45aa bf3b
00000310: 5069 cabb a724 3b3d a07a 453d 19c9 9b3c
00000320: 4b75 213d 4338 4cbc 4af3 dc3c 114c d63c
00000330: f198 133d 8613 11bc c9d1 003d 3bf3 e23c
00000340: e601 3f3c ac65 8f3c 9f69 6b3c b923 323b
00000350: 1965 173c 4685 093c 769c 8e3b a25d c13c
00000360: 89ed e0ba 4a7a 593c ceb1 c9bc e09d 30bc
00000370: a66a 8438 bc93 273c 012b 983c 2a18 5e3d
00000380: 7387 4c3c 55f2 a43c 9da1 703c 45a2 a6bb
00000390: 8d51 b3bc 6a7f 883b 4651 f13c b826 693d
000003a0: 38d5 46bc 2dcc 203d 13fe ff3c 90f3 1b3c
000003b0: 1b70 133d 4412 e73c 1866 333c ad3a 683c
000003c0: e0b9 303c 248f 193d 1a15 fd3c 4b80 f0bb
000003d0: 7eac 6bbb 65ea b53c 75eb 063b 650b 0d3d
000003e0: 4b0e 13bd 819f 223d f646 73bc 65a7 de3c
000003f0: c9d0 be3c 8c66 203d 0a11 263d 209d fb3c

discrete_action_output_shape f4 [1, 3]
5.0 4.0 2.0
00000000: 0000 a040 0000 8040 0000 0040

network_body._body_endoder.seq_layers.0.bias f4 [128]
0.0012157926 -0.00078457216 0.0015633983 0.019085638 -0.0027638988 0.015520097 0.038327128 0.026752824
-0.017861303 -0.011207626 0.01005822 0.036958374 -0.038373817 -0.003654119 -0.04596136 -0.035177592
0.010739229 -0.012844196 0.013849671 -0.018942388 -0.012159948 -0.0067884047 0.019438647 -0.018782672
-0.0007034501 -0.022850418 0.011156198 -4.426375e-05 -0.030500779 0.013836795 0.01198259 -0.007847391
0.0008362176 0.037199847 -0.025314504 -0.008271494 -0.03451456 0.039601646 -0.044979375 0.00042026426
-0.023464225 -0.034819342 -0.008019465 0.024067782 -0.00276262 -0.012417805 0.0162975 0.0001148673
-0.015791861 -0.003144969 -0.024944633 -0.0005859685 0.033213153 -0.04620042 -0.03545327 -0.048753265
-0.022331199 0.0110068945 -0.03406422 0.040844377 0.010432374 0.031526115 0.02164661 0.045885365
-0.0376875 -0.021394372 0.028567536 0.01523031 -0.0054026293 0.0005709427 -0.058065467 0.016800527
-0.04343357 -0.009841599 -0.0077136126 -0.003905464 0.019248791 0.0068209902 -0.026473986 0.0066777617
-0.004063006 0.03609646 -0.012561149 0.0059086643 0.0047611673 -0.002345058 -0.026918953 0.024918497
-0.044474192 -0.0406381 -0.070187934 0.009509588 -0.015023399 -0.016482743 0.042613514 -0.080871485
-0.055895276 -0.03393449 0.016311416 0.014548528 -0.009910248 -0.010085065 -0.039759714 -0.00923733
0.007161317 0.08316407 -0.0014035113 0.015490351 -0.02379555 0.031210631 -0.009827427 -0.028690064
0.022623114 -0.0019286987 -0.034096498 0.006948445 -0.008885453 0.0078268135 0.053675465 0.02844225
0.03629726 -0.02603043 0.022933066 0.0060621877 0.009669594 -0.012948027 -0.013628998 -0.032562073
00000000: 3b5b 9f3a bfab 4dba f1ea cc3a 7c59 9c3c
00000010: 8722 35bb 0148 7e3c e8fc 1c3d bd28 db3c
00000020: de51 92bc 31a0 37bc 3bcb 243c aa61 173d
00000030: dd2d 1dbd f279 6fbb fb41 3cbd 6116 10bd
00000040: 97f3 2f3c 7670 52bc bbe9 623c 112d 9bbc
00000050: 853a 47bc 4471 debb cc3d 9f3c 1ede 99bc
00000060: bd67 38ba cd30 bbbc 7cc8 363c d7a7 39b8
00000070: c5dc f9bc bab3 623c a052 443c 5892 00bc
00000080: 9d35 5b3a de5e 183d 5d60 cfbc 2985 07bc
00000090: 245f 0dbd 5635 223d 4b3c 38bd ea56 dc39
000000a0: 0c38 c0bc ba9e 0ebd 1364 03bc cc29 c53c
000000b0: 130d 35bb 0d74 4bbc 5682 853c eae4 f038
000000c0: ef5d 81bc d31b 4ebb b058 ccbc ae9b 19ba
000000d0: 840a 083d a73c 3dbd 7337 11bd 81b1 47bd
000000e0: ebef b6bc 4356 343c ec86 0bbd 6f4c 273d
000000f0: 8cec 2a3c 8721 013d 3b54 b13c 4bf2 3b3d
00000100: 355e 1abd 4043 afbc 7706 ea3c 8d88 793c
00000110: 8a08 b1bb 51ab 153a 0ed6 6dbd 42a1 893c
00000120: 66e7 31bd a83e 21bc 79c2 fcbb d0f2 7fbb
00000130: a4af 9d3c 9d82 df3b f9df d8bc 20d1 da3b
00000140: f722 85bb e2d9 133d 47cd 4dbc 789d c13b
00000150: 9103 9c3b 8baf 19bb 2385 dcbc e021 cc3c
00000160: 922a 36bd 2374 26bd b1be 8fbd 1ace 1b3c
00000170: b424 76bc d106 87bc 828b 2e3d f39f a5bd
00000180: 72f2 64bd e4fe 0abd 859f 853c f35c 6e3c
00000190: 985e 22bc d43b 25bc 15db 22bd 2c58 17bc
000001a0: 7ba9 ea3b ed51 aa3d 06f6 b7ba 3ecb 7d3c
000001b0: e3ee c2bc 70ad ff3c 3703 21bc 6d07 ebbc
000001c0: 1c54 b93c 64cc fcba c5a8 0bbd c8af e33b
000001d0: 4b94 11bc 093c 003c ceda 5b3d b9ff e83c
000001e0: 70ac 143d c53d d5bc 20de bb3c 51a5 c63b
000001f0: 376d 1e3c f623 54bc 294c 5fbc cf5f 05bd

network_body._body_endoder.seq_layers.0.weight f4 [128, 27]
-0.22503795 0.44048187 0.28602973 0.28758088 0.13357428 0.1925879 0.055594597 -0.19268715
-0.21270938 -0.08774471 0.026005842 -0.08052456 -0.0686257 -0.031230267 -0.070555545 0.19285697
-0.14097151 -0.043702334 -0.4818049 -0.023662554 -0.12624034 -0.0016707791 -0.024667151 -0.2686969
0.10527811 -0.022045763 -0.050859068 -0.2600677 0.05305635 -0.41107568 0.40332654 -0.06527138
0.32670745 0.14692356 -0.015191078 -0.2195529 0.16762799 0.24501006 -0.478408 0.13371131
0.34909382 0.012933942 -0.2188629 -0.14296128 -0.07051807 0.039922073 0.05192036 0.014039195
0.21162936 0.07747121 0.14265682 -0.13298061 -0.06933066 0.33600077 0.15427452 -0.14087045
0.04610842 0.069926724 0.3388184 -0.119510375 -0.33234704 -0.011220004 -0.007766071 0.029857688
-0.039641764 -0.4043222 0.08115678 -0.07693831 -0.17985979 -0.3486699 -0.15050763 0.04888065
0.30747077 0.04075266 0.07884794 -0.00578881 0.12102653 -0.06883176 0.169108 0.044041134
-0.18278277 -0.36979693 -0.15632291 0.0021697292 -0.20125134 -0.17827806 0.17474854 -0.07662463
0.022883303 -0.0966996 -0.3836236 0.09969293 0.24851947 -0.25030205 -0.44055387 -0.21099585
0.1791377 0.016025513 0.30564162 -0.014601873 0.034405097 0.08678632 -0.14592814 -0.26800898
0.013601516 0.20821236 0.06025256 0.016538113 0.28344142 0.09202689 0.032475088 -0.0068611032
0.22147416 0.2967639 0.122103564 -0.14809373 -0.21759526 0.27398717 0.27940142 -0.083345376
0.11210869 0.0069457255 0.06348637 0.072709285 0.042568497 -0.07195591 0.013513082 0.12747045
0.15550965 -0.08145148 -0.119528234 0.1989211 -0.1550203 0.14077245 -0.3566653 -0.04988629
-0.116728105 -0.04368028 0.031099018 -0.038700264 -0.4626277 -0.2692604 0.2535617 -0.11623525
0.19821686 0.18076344 -0.18640473 0.17197415 -0.04240397 -0.064631045 -0.028455628 -0.03683278
0.15382567 -0.059395507 -0.7502603 0.06915787 0.2571698 -0.15753119 -0.060500473 0.0068611754
0.36377007 -0.07610779 0.07449335 0.1357492 -0.038003497 -0.1967242 0.07226764 0.07414774
-0.41395032 -0.052921243 -0.31981587 0.0708396 -0.058707 0.08825707 -0.02139666 0.18463492
-0.20418918 0.32271674 -0.10700628 -0.22449014 -0.31299388 0.30604362 0.24732165 -0.32916528
0.2658063 -0.09340954 0.07505017 -0.358199 0.029513035 -0.18902108 0.2439694 -0.17770529
-0.121528804 0.047354292 0.070276454 0.051390145 -0.055567484 0.12295284 0.023973411 0.14483063
-0.10594856 -0.25562188 0.074662134 0.022637423 -0.05239005 0.05289076 0.16112904 0.2073512
-0.08301311 0.056484245 0.08603746 0.057105638 0.12517402 0.1833137 -0.2574538 0.15031642
-0.14591727 0.1665129 0.0027781336 -0.051403813 -0.2963164 0.02023715 -0.0733527 -0.26767495
-0.22685994 -0.2067509 -0.12719281 -0.015427763 -0.52038133 -0.08888772 -0.014997604 -0.004145357
0.031324957 0.07784357 -0.04823064 0.08785098 0.1843105 0.107956514 0.10140817 0.19165461
-0.3747536 -0.13691366 0.16596715 0.30223355 -0.12752578 0.16706367 0.21333836 -0.3348485
0.088081 -0.13623829 -0.07321176 0.35821998 0.2889189 0.02456953 -0.07052863 0.012590201
00000000: 5970 66be d786 e13e 7d72 923e cd3d 933e
00000010: b2c7 083e c335 453e 29b7 633d c84f 45be
00000020: 7dd0 59be 80b3 b3bd 340a d53c 0fea a4bd
00000030: a28b 8cbd 9ed6 ffbc 6d7f 90bd 4c7c 453e
00000040: d65a 10be 3801 33bd 22af f6be f9d7 c1bc
00000050: 2645 01be 0bfe daba c412 cabc a492 89be
00000060: 0d9c d73d 5199 b4bc 9951 50bd 9827 85be
00000070: 9e51 593d 8378 d2be d180 ce3e 00ad 85bd
00000080: 3346 a73e 2173 163e 00e4 78bc 7ad2 60be
00000090: aca6 2b3e ebe3 7a3e e5f1 f4be 9eeb 083e
000000a0: 6dbc b23e e2e8 533c 991d 60be 7164 12be
000000b0: c76b 90bd 5485 233d 72aa 543d a704 663c
000000c0: 5eb5 583e 3aa9 9e3d a114 123e 122c 08be
000000d0: 3cfd 8dbd 4b08 ac3e 24fa 1d3e 5840 10be
000000e0: 2fdc 3c3d be35 8f3d 9b79 ad3e dbc1 f4bd
000000f0: 6429 aabe 1cd4 37bc 867a febb 1c98 f43c
00000100: 675f 22bd 5203 cfbe 8735 a63d d591 9dbd
00000110: 2a2d 38be dc84 b2be ac1e 1abe 1437 483d
00000120: cf6c 9d3e 43ec 263d 077b a13d 0fb0 bdbb
00000130: c2dc f73d aaf7 8cbd a62a 2d3e 7a64 343d
00000140: 682b 3bbe 0656 bdbe 1d13 20be 0432 0e3b
00000150: d514 4ebe 868e 36be 48f1 323e 60ed 9cbd
00000160: c475 bb3c 710a c6bd 506a c4be cf2b cc3d
00000170: e37b 7e3e 9727 80be 4790 e1be 4c0f 58be
00000180: e06f 373e f047 833c 0f7d 9c3e b23c 6fbc
00000190: 5cec 0c3d 07bd b13d 306e 15be 7938 89be
000001a0: e5d8 5e3c 9f35 553e 63cb 763d f07a 873c
000001b0: 3c1f 913e 9878 bc3d 9904 053d 1bd3 e0bb
000001c0: 1fca 623e 70f1 973e 6f11 fa3d e2a5 17be
000001d0: 4bd1 5ebe 0c48 8c3e b40d 8f3e fbb0 aabd
000001e0: 3e99 e53d f898 e33b 2405 823d 9be8 943d
000001f0: 4e5c 2e3d 9f5d 93bd f965 5d3c 9d87 023e
00000200: ec3d 1f3e 09d0 a6bd 38cb f4bd f9b1 4b3e
00000210: a4bd 1ebe a726 103e d69c b6be 9155 4cbd
00000220: 250f efbd 18ea 32bd 5ec3 fe3c 2b84 1ebd
00000230: 8add ecbe 80dc 89be d7d2 813e bf0c eebd
00000240: 5cf9 4a3e 0d1a 393e e2e0 3ebe fe19 303e
00000250: c9af 2dbd 485d 84bd c71b e9bc f8dd 16bd
00000260: 7a84 1d3e b448 73bd 0f11 40bf a4a2 8d3d
00000270: c3ab 833e db4f 21be 58cf 77bd b6d3 e03b
00000280: 1240 ba3e 67de 9bbd f88f 983d d701 0b3e
00000290: 8ea9 1bbd 1272 49be 0e01 943d c5da 973d
000002a0: 4cf1 d3be f2c3 58bd e8be a3be 5a14 913d
000002b0: c076 70bd 1fc0 b43d 0c48 afbc f010 3d3e
000002c0: f816 51be 213b a53e 1c26 dbbd bee0 65be
000002d0: bc40 a0be c0b1 9c3e e341 7d3e 5a88 a8be
000002e0: c317 883e 804d bfbd e7b3 993d dc65 b7be
000002f0: 52c5 f13c be8e 41be 1dd3 793e 60f8 35be
00000300: 18e4 f8bd 93f6 413d 1aed 8f3d 797e 523d
00000310: bb9a 63bd b3ce fb3d e363 c43c 7b4e 143e
00000320: 8ffb d8bd dfe0 82be 76e8 983d 1e72 b93c
00000330: f396 56bd fba3 583d 03ff 243e df53 543e
00000340: c702 aabd 065c 673d 6834 b03d 9ae7 693d
00000350: 9e2d 003e 96b6 3b3e fcd0 83be 8cec 193e
00000360: 566b 15be 5c82 2a3e 5911 363b ce8c 52bd
00000370: c8b6 97be 61c8 a53c f139 96bd b10c 89be
00000380: f94d 68be 82b6 53be d53e 02be bac4 7cbc
00000390: b637 05bf c40a b6bd 83b8 75bc c6d5 87bb
000003a0: 994e 003d 736c 9f3d 7e8d 45bd 37eb b33d
000003b0: e4bb 3c3e 4e18 dd3d 16af cf3d 1b41 443e
000003c0: b4df bfbe 1833 0cbe 4bf3 293e 5bbe 9a3e
000003d0: 1e96 02be bd12 2b3e 5f75 5a3e 4371 abbe
000003e0: d063 b43d 0d82 0bbe 0cf0 95bd 9c68 b73e
000003f0: 2eed 933e 0a46 c93c 5071 90bd 2147 4e3c

network_body._body_endoder.seq_layers.2.bias f4 [128]
0.05330182 -0.017403368 -0.016468788 0.015371147 -0.013489121 -0.015124078 -0.0049105883 0.033240475
-0.0048384997 -0.031659387 -0.007387319 -0.008781236 0.017869044 -0.027417913 0.027059898 -0.033837207
0.028372575 0.008930616 -0.04679989 -0.027838895 0.03411085 -0.021464901 -0.02832609 -0.03320788
-0.026896182 -0.005183243 -0.025563844 0.0024166633 -0.02263527 0.011119794 -0.02382693 -0.008316017
0.03288116 0.022859102 -0.0051625525 0.0023082597 0.0036503153 0.038940728 0.017250761 0.057543032
0.043297313 -0.0008360505 0.008541364 -0.025799172 -0.0011716615 0.027596135 0.03304233 -0.030894542
0.012068498 -0.0025562607 0.017797649 0.035008546 -0.013510266 0.003116631 -0.02050166 -0.014090903
-0.005810036 -0.019952683 -0.053322844 0.012288236 -0.04552298 0.012361835 -0.038179625 -0.033141702
-0.028457396 -0.019599883 0.039036676 -0.027697686 -0.043782596 -0.037016645 0.012085692 -0.0048878435
0.029249405 -0.017886026 -0.038458884 0.00014695445 0.01717968 0.011226336 -0.033556208 -0.03285051
-0.0017616798 -0.024257617 -0.013554073 0.05371633 0.049784347 -0.031041158 -0.016157689 -0.022546588
0.010650442 0.028548395 -0.014128813 -0.0057963305 -0.03504585 -0.022345942 0.014193917 0.016396303
-0.022846306 0.002537659 0.0076521547 -0.01617533 -0.03430609 -0.0014925069 0.011826681 0.04360828
-0.039313175 0.010171887 -0.013084883 -0.008985483 0.027658211 -0.0072180927 0.0035102891 -0.03441059
-0.033527717 0.009861076 -0.023175482 -0.028142257 0.02780728 -0.0100438725 0.0024625813 -0.052927084
0.021157226 0.016342571 0.003958931 0.008824585 -0.043930467 -0.020516016 0.0068072854 -0.022371246
00000000: 0253 5a3d 8291 8ebc 8de9 86bc 43d7 7b3c
00000010: 7901 5dbc fbca 77bc 00e9 a0bb 2a27 083d
00000020: 478c 9ebb 46ad 01bd 5311 f2bb 2cdf 0fbc
00000030: 1a62 923c 889b e0bc b8ac dd3c e298 0abd
00000040: 9a6d e83c b851 123c 3eb1 3fbd 650e e4bc
00000050: d2b7 0b3d 29d7 afbc 1e0c e8bc fc04 08bd
00000060: 6255 dcbc 32d8 a9bb 446b d1bc e260 1e3b
00000070: 9a6d b9bc cc2f 363c b230 c3bc e73f 08bc
00000080: 65ae 063d 0343 bb3c a12a a9bb 2c46 173b
00000090: 213a 6f3b 5080 1f3d 7851 8d3c 3eb2 6b3d
000000a0: 8658 313d 662a 5bba 14f1 0b3c c958 d3bc
000000b0: 7092 99ba 4a11 e23c 6557 073d 8d16 fdbc
000000c0: f3ba 453c f086 27bb 60cc 913c 1f65 0f3d
000000d0: 2a5a 5dbc 6440 4c3b 19f3 a7bc 88dd 66bc
000000e0: 1d62 bebb cf73 a3bc 0e69 5abd 9954 493c
000000f0: 4e76 3abd 4b89 4a3c 3d62 1cbd 98bf 07bd
00000100: 7c1f e9bc ef8f a0bc ece4 1f3d 42e6 e2bc
00000110: 6155 33bd c49e 17bd 1103 463c 342a a0bb
00000120: 739c ef3c b785 92bc 1087 1dbd c917 1a39
00000130: 66bc 8c3c aaee 373c 3c72 09bd 428e 06bd
00000140: 2ae8 e6ba e9b7 c6bc e711 5ebc a805 5c3d
00000150: acea 4b3d 074a febc 215d 84bc 9fb3 b8bc
00000160: 317f 2e3c 53de e93c 897c 67bc 25ef bdbb
00000170: 3d8c 0fbd d60e b7bc 9a8d 683c 8a51 863c
00000180: 2d28 bbbc da4e 263b edbe fa3b 2082 84bc
00000190: 8b84 0cbd 39a0 c3ba b2c4 413c 999e 323d
000001a0: da06 21bd fda7 263c fa61 56bc d937 13bc
000001b0: 7993 e23c c085 ecbb e10c 663b 1ef2 0cbd
000001c0: 5c54 09bd 5a90 213c 82da bdbc 978a e6bc
000001d0: 18cc e33c 0e8f 24bc 4263 213b 12ca 58bd
000001e0: eb51 ad3c dbe0 853c ecb9 813b fe94 103c
000001f0: 6ff0 33bd 3411 a8bc a60f df3b e743 b7bc

network_body._body_endoder.seq_layers.2.weight f4 [128, 128]
-0.1842469 -0.06337988 0.031184198 0.03961177 0.03825982 0.069710016 -0.035110887 -0.031327832
0.2777441 -0.013441879 0.13827045 0.100027785 0.027510531 -0.063855305 0.14201812 -0.08571988
0.04702655 -0.0063189017 -0.045142204 0.015992463 -0.15412723 -0.0052999305 0.055585355 -0.17069809
0.15304507 0.08697994 0.048258025 -0.036167953 0.14326319 -0.28588504 -0.072246775 0.06950537
-0.15729275 -0.05206692 0.14917651 -0.01970404 0.1339023 -0.05809441 0.017359748 0.099782005
-0.036267627 0.043973245 0.041911773 0.14439258 -0.10063617 -0.10106224 -0.04950405 -0.051345244
0.019158296 0.04733025 -0.14126061 -0.07185198 0.13567413 0.053336114 -0.10814852 -0.056679636
0.073438026 -0.061937712 -0.09638953 -0.0032493193 0.014494859 0.2097626 0.13459869 0.02846175
-0.20828348 -0.066195115 0.09221045 0.074896455 0.013543856 0.06143189 0.09418797 0.03278277
0.003298232 -0.12458048 0.124686636 0.06494977 -0.090697356 -0.00023354821 0.040012415 0.119080365
0.002821143 0.047888696 -0.27196613 -0.022402162 0.108035885 0.015269314 0.03821295 0.0724741
-0.057443853 0.07831433 -0.09415699 0.002418867 0.02328063 -0.082771815 0.0068989536 -0.11767561
-0.07359769 -0.11724959 0.009615084 -0.042392258 0.036438625 -0.05647965 0.024638949 0.048705213
-0.06538709 -0.052878365 0.0402573 -0.0821561 -0.043024182 -0.065243445 0.07156751 0.07664676
-0.051809367 -0.061911166 -0.0076696808 0.037188917 -0.11266853 0.029003767 -0.09053474 -0.12706266
0.06384925 -0.029535709 -0.037673637 0.04304728 0.14988583 0.033392783 0.032985423 -0.059235003
0.15353373 0.18610372 0.10867667 0.1074193 0.13428529 0.116631955 0.10278021 -0.15109806
0.09555728 0.044780627 -0.124081776 0.0734811 -0.03839209 -0.15890881 0.051909655 0.036588077
-0.010380731 -0.0645859 -0.14282297 0.060787633 -0.13322519 0.07011969 -0.096209645 -0.0819901
-0.057422902 0.009751335 0.08491865 0.04214299 0.06632903 -0.024975345 -0.09360837 0.07352988
-0.028744325 -0.07017675 -0.017358596 0.0016238366 -0.01066997 -0.03918886 0.06953649 0.016103715
-0.100402154 -0.089721 -0.018716967 -0.09669486 0.07109329 0.10099373 -0.009754234 -0.041982558
0.042998265 -0.04475396 0.004614287 0.07770962 -0.02624588 -0.018159803 0.010168637 0.03776754
-0.038637623 -0.027410656 0.0008865447 -0.11726189 -0.060695477 0.13323462 -0.110813044 -0.20823209
-0.06451797 -0.09850503 0.0034392665 -0.019822985 0.012316407 -0.08107278 0.007988313 0.009971222
-0.1652331 -0.08404257 -0.05152158 0.037801392 -0.15286896 0.053207543 0.113342315 0.1034874
-0.0372187 0.004444182 -0.048769094 0.066254504 0.04224595 -0.030550377 0.023874914 -0.06618421
-0.006865759 -0.08321381 -0.097501285 -0.088647105 -0.115990624 -0.12508239 -0.067814 0.16550662
-0.011200289 0.039778113 -0.112307146 -0.016476395 0.025943954 0.07468617 -0.08439109 -0.08848549
0.05594295 0.020177672 -0.02725208 0.069866806 -0.019200707 0.03222503 0.04781388 0.089593604
-0.045217264 -0.061031792 -0.06610924 -0.11392982 0.13595246 -0.17392461 0.10494737 -0.0737165
0.04306436 0.11597374 -0.08533641 0.16508386 -0.0033185126 -0.021322092 -0.036832523 0.08063156
00000000: 38ab 3cbe 4fcd 81bd 0176 ff3c f43f 223d
00000010: 54b6 1c3d 20c4 8e3d 6fd0 0fbd 9d51 00bd
00000020: 7a34 8e3e 543b 5cbc c596 0d3e 5edb cc3d
00000030: c45d e13c 92c6 82bd 336d 113e e88d afbd
00000040: e99e 403d ca0e cfbb 08e7 38bd a002 833c
00000050: 87d3 1dbe 0aab adbb 78ad 633d 7bcb 2ebe
00000060: d9b7 1c3e 8a22 b23d 35aa 453d d924 14bd
00000070: 96b3 123e 865f 92be 1ef6 93bd d558 8e3d
00000080: 5a11 21be 1f44 55bd bac1 183e 5e6a a1bc
00000090: af1d 093e 67f4 6dbd 0836 8e3c 825a cc3d
000000a0: 5d8d 14bd 4a1d 343d aeab 2b3d a6db 133e
000000b0: 561a cebd b8f9 cebd c2c4 4abd 644f 52bd
000000c0: dcf1 9c3c 5ddd 413d 9fa6 10be 2227 93bd
000000d0: 29ee 0a3e f876 5a3d f97c ddbd e828 68bd
000000e0: ad66 963d 66b2 7dbd e067 c5bd 88f2 54bb
000000f0: d87b 6d3c 02cc 563e 3dd4 093e 9e28 e93c
00000100: 4448 55be 4e91 87bd d5d8 bc3d 5063 993d
00000110: 0de7 5d3c 01a0 7b3d 9fe5 c03d 3a47 063d
00000120: 2727 583b 0d24 ffbd b55b ff3d 6304 853d
00000130: 89bf b9bd 9fe4 74b9 0fe4 233d 68e0 f33d
00000140: ede2 383b f026 443d 253f 8bbe bd84 b7bc
00000150: eb41 dd3d 252c 7a3c 2f85 1c3d 4d6d 943d
00000160: 3f4a 6bbd 4363 a03d 61d5 c0bd db85 1e3b
00000170: 05b7 be3c 4584 a9bd 9e10 e23b e9ff f0bd
00000180: 63ba 96bd 8e20 f0bd 9688 1d3c 81a3 2dbd
00000190: ab40 153d 3557 67bd 9fd7 c93c 1e7f 473d
000001a0: abe9 85bd fc96 58bd d7e4 243d 7541 a8bd
000001b0: 203a 30bd 5b9e 85bd fd91 923d faf8 9c3d
000001c0: 0f36 54bd 9096 7dbd f251 fbbb 6853 183d
000001d0: c2be e6bd 4f99 ed3c 476a b9bd b71c 02be
000001e0: 65c3 823d dff4 f1bc ac4f 1abd 5852 303d
000001f0: ac7b 193e dfc6 083d b91b 073d 67a0 72bd
00000200: f237 1d3e f991 3e3e e091 de3d a6fe db3d
00000210: 1582 093e bcdc ee3d 6e7e d23d 73b9 1abe
00000220: 89b3 c33d e46b 373d 961e febd 427d 963d
00000230: 0641 1dbd feb8 22be 389f 543d 61dd 153d
00000240: f113 2abc 9d45 84bd 2f40 12be 74fc 783d
00000250: 2f6c 08be e99a 8f3d 9009 c5bd 6dea a7bd
00000260: 4734 6bbd 10c4 1f3c d4e9 ad3d 219e 2c3d
00000270: 84d7 873d 1899 ccbc bfb5 bfbd d596 963d
00000280: 3879 ebbc d4b8 8fbd 9d33 8ebc ead6 d43a
00000290: 19d1 2ebc 8084 20bd 2669 8e3d f0eb 833c
000002a0: a59f cdbd a5bf b7bd 5354 99bc f407 c6bd
000002b0: 5c99 913d cdd5 ce3d 39d0 1fbc e7f5 2bbd
000002c0: f31e 303d ee4f 37bd 7233 973b 3926 9f3d
000002d0: 9a01 d7bc dec3 94bc 5b9a 263c 23b2 1a3d
000002e0: 7c42 1ebd 508c e0bc 0267 683a 0027 f0bd
000002f0: d29b 78bd a86e 083e f3f1 e2bd cb3a 55be
00000300: ff21 84bd 01bd c9bd 5165 613b d063 a2bc
00000310: c1ca 493c 7c09 a6bd 6ae1 023c 565e 233c
00000320: de32 29be 831e acbd 4b08 53bd a2d5 1a3d
00000330: ae89 1cbe 27f0 593d 0420 e83d 34f1 d33d
00000340: a372 18bd 80a0 913b 1ac2 47bd 71b0 873d
00000350: 170a 2d3d c944 fabc 5395 c33c 968b 87bd
00000360: 29fa e0bb 016c aabd c1ae c7bd 9d8c b5bd
00000370: 7e8c edbd 9915 00be 11e2 8abd 917a 293e
00000380: 6b81 37bc 60ee 223d 4a01 e6bd 81f9 86bc
00000390: 6a88 d43c 10f5 983d 3cd5 acbd e137 b5bd
000003a0: 6f24 653d a54b a53c c13f dfbc 5416 8f3d
000003b0: cd4a 9dbc 65fe 033d 7dd8 433d da7c b73d
000003c0: bd35 39bd 79fc 79bd 4864 87bd 0a54 e9bd
000003d0: 1f37 0b3e 4b19 32be a6ee d63d adf8 96bd
000003e0: 4164 303d a483 ed3d dbc4 aebd be0b 293e
000003f0: 677b 59bb abab aebc b3dd 16bd 2922 a53d
